gen_2_agent_1.pt (torch, 64207 bytes, 18 tensors)

net.0.weight f4 [64, 4]
00000000: 959a 37be 2bc5 573c 48a8 81be 75ba 83be
00000010: 97e9 a0ba 9829 8ebe 6836 fd3a 7782 a1bd
00000020: 94da 27b9 7f77 833e 14f9 913e 25f8 2fbe
00000030: 3081 84be ca02 1f3e bc21 6f3e bf9e 883e
00000040: 1572 d63d 2933 34be 059a 98bd fbcc 0c3e
00000050: 5b45 683e 301f a43d 8bde f1bd 056f 89be
00000060: ce7f 62be d138 40be 4ca0 6d3e 5d9c 703e
00000070: 48db 4e3e dabf 933c d7d3 4a3e d8be 9d3a
00000080: d92e 283e fe1d 813d a4e1 5f3e c999 9bbe
00000090: b19a 243e 2d28 3d3e e858 403e dbb4 7d3d
000000a0: 2083 0a3e c819 2d3e ee7a 4b3d 6620 343e
000000b0: f2a3 72be c0b7 0f3e e637 1abe 46d6 0c3e
000000c0: bb9d bebb ef5f 44be c89c 553e 3613 ca3c
000000d0: 422e 6c3e f912 293e c473 31be 679b 373e
000000e0: ac79 483e a166 41be 3690 893e 0e90 203e
000000f0: e15b 57be ed1a 953e b2c3 053e 978b 573d
00000100: bf7b f6bd 8082 fbbd 1a77 593d 6916 183e
00000110: c1e0 9b3e 15d8 69bd a7f9 f03d 027a 57be
00000120: 9a64 b2bd 5e37 e43d fed1 86be d466 043e
00000130: 3d22 a93d d155 50bd 9915 803e 4b48 77be
00000140: a1ea 3bbd 0fbd d4bd ae30 50be cea0 ba3d
00000150: e4ac 1cbe 3c14 43be 1496 ccbc dc7f e3bd
00000160: 6476 94be 26d4 0e3e ef2d 9f3d da89 ad3e
00000170: b52f bcbe 94aa 96be 05cd 1bbd e3b6 0f3d
00000180: 8711 18be 4b60 693e 46c7 0fbe ca57 ed3d
00000190: 7eb7 92be a138 21be 5407 963d 622d 43be
000001a0: 233a 813b a549 003d 1852 3f3d fb6d 5c3e
000001b0: 35bb 74be ee54 6cbe fd7b 113c 3663 853e
000001c0: da4b 63be 4966 7bbe 43c8 943d 77f7 cebc
000001d0: 4d11 8cbd 00cb 7d3e 27e5 3bbe c7b6 413e
000001e0: debc 643e 9944 a2be 890b 423e 3155 823e
000001f0: 6256 96be dff8 8cbe 676c 593e ae0a 793e
00000200: cb3c 163e 107e 033c 2a66 8b3e a129 863d
00000210: fcf4 86be 5c59 6abe 99ee 9d3e 5725 353c
00000220: c903 80be 857c d2bc 82fd ad3c e7fd 62bd
00000230: cc8e 3bbe 3708 9c3c a7b8 3abd 4e52 0d3e
00000240: 7885 30bd 73be 593e 8a58 9bbe 04ec 183e
00000250: aa3b 2abe 2529 1cbe f79a 4bbe 8909 44be
00000260: 9008 91be b98e c7bd a19e 993e 30a7 953e
00000270: c391 ab3b 08d1 de3d 2557 c03d 0860 ee3d
00000280: 2b33 803e 438c 043e 07cf 89bd fbe7 84be
00000290: f65b d0bd 9ef6 e6bd 8057 eebd 99a8 793e
000002a0: 0c18 00bc 5640 87bd 14aa 493d 6811 37be
000002b0: 4f14 3dbe 10e5 92be 579d 40be 3739 5ebe
000002c0: 55da 38be cdeb 58be 2c9c 75bc f977 1ebe
000002d0: 8a55 d53d 30c8 453d ee24 cc3d d4e0 69bd
000002e0: f6a2 9ebe 61c5 063e 77cb 113e 504c 09be
000002f0: b85b 93bd d808 123e 368f 783e 447b a7bd
00000300: 20dd 933d 6e46 1b3e 6111 d13d 8e47 5e3e
00000310: d30e 1b3c 28f5 5b3e b8f7 b6bd 9250 9cbe
00000320: b48e 93be 37f9 763e dc45 a83e e302 643d
00000330: 9935 29be 8554 773e 0251 cfbd ccfa 043d
00000340: 2a1d 4dbe f025 113e b277 afbd 0c75 893a
00000350: 7a1a 2e3e 5fce 4bbe 3d0d 4bbe ad31 193d
00000360: 05d1 143d dea9 993e 7df0 4ebc dcf7 67be
00000370: 6560 a5bd a178 adbe 2723 40be 2cd1 83bc
00000380: 4ec5 5ebe 792a 02be ea97 873c 3669 423c
00000390: 2eb4 b0bd 10d1 84be 710b 33be 1736 36be
000003a0: 79e8 7bbe 74b1 04be ea34 10be 371f 7f3e
000003b0: 4e36 6e3e 2297 e4bc aa7c 983d f85e a83e
000003c0: a28c 2c3e 87ad ef3d 5607 2cbe 8860 8bbe
000003d0: 9dce e6bd 49c3 4dbe ca43 5cbe 906a 13be
000003e0: af50 0abe be7e 3e3e e5a7 2c3e 11d9 05be
000003f0: 196a ffbc e2c3 323c a98a 7c3e a9c9 863e
-0.17930062 0.013169567 -0.253237 -0.25728193 -0.0012276646 -0.2776611 0.0019318582 -0.07886212
-0.00016007788 0.25677106 0.28510344 -0.17184503 -0.25879812 0.15528408 0.23352712 0.26683614
0.10470978 -0.17597641 -0.07451252 0.13750069 0.22682707 0.08013761 -0.11810025 -0.26842514
-0.22119066 -0.18771674 0.2320568 0.23497148 0.20200837 0.018035818 0.19807373 0.0012035025
0.16424121 0.06304549 0.21863419 -0.30390766 0.16074635 0.18472357 0.18783915 0.061940055
0.13526583 0.16904366 0.04967778 0.17590484 -0.23695353 0.14034939 -0.15060386 0.13753614
-0.005817143 -0.19177221 0.20860589 0.024667364 0.23064521 0.16511144 -0.17329317 0.17930375
0.19577664 -0.18886806 0.26867837 0.15679953 -0.21031143 0.29122105 0.13062933 0.052623358
-0.120353214 -0.1228075 0.0530921 0.14852299 0.3044491 -0.057090838 0.117663674 -0.21042636
-0.087105945 0.11143373 -0.26332086 0.12929851 0.082584836 -0.05086309 0.25016478 -0.24148671
-0.045878056 -0.103876226 -0.2033107 0.09112702 -0.15300328 -0.19050688 -0.024973907 -0.111083716
-0.28996575 0.13948116 0.07772433 0.33894235 -0.36755148 -0.29427016 -0.03803732 0.035086524
-0.14850436 0.22790639 -0.1404086 0.1158901 -0.28655618 -0.15744258 0.073256165 -0.19060281
0.003943698 0.031320233 0.04670915 0.21526329 -0.23899539 -0.23079273 0.008879659 0.26052254
-0.22196904 -0.24550737 0.072647594 -0.025264485 -0.06839237 0.2478447 -0.18349133 0.1891738
0.22337672 -0.3169296 0.18949713 0.2545562 -0.2936278 -0.27533624 0.21232758 0.2432048
0.14671628 0.008025661 0.27226382 0.06550909 -0.26358783 -0.2288565 0.30846098 0.011056266
-0.25002888 -0.025694141 0.021239046 -0.05541792 -0.18316191 0.019046886 -0.045586254 0.13800928
-0.043096036 0.21264057 -0.30340987 0.14933783 -0.16624323 -0.1525007 -0.19883333 -0.19144262
-0.28326845 -0.09744019 0.30003837 0.29229116 0.005235882 0.10879713 0.093916215 0.1163941
0.25039038 0.1294413 -0.067289405 -0.25958237 -0.1017379 -0.11277507 -0.11637783 0.24380721
-0.007818233 -0.06604068 0.049234465 -0.17877734 -0.18464778 -0.28690386 -0.1881002 -0.21701513
-0.18052037 -0.21183701 -0.014990848 -0.15475453 0.10416706 0.048286617 0.09967981 -0.05709918
-0.30983704 0.13161232 0.14237772 -0.13408017 -0.07195228 0.14261186 0.2427338 -0.08177808
0.072199106 0.15163586 0.10208393 0.21706983 0.009463984 0.21480238 -0.08933967 -0.3053022
-0.2881981 0.24118505 0.32865798 0.055666815 -0.16524352 0.24153335 -0.10122873 0.03246574
-0.20030656 0.14174628 -0.08567752 0.0010487153 0.17002288 -0.19902943 -0.19829269 0.03740089
0.03633215 0.3001241 -0.012630579 -0.22653145 -0.080750264 -0.33881095 -0.1876341 -0.016090952
-0.21754953 -0.12711515 0.01655193 0.011865905 -0.086281165 -0.25940752 -0.17484833 -0.17794071
-0.246004 -0.12958318 -0.14082685 0.24914251 0.23262903 -0.027904097 0.07445653 0.32884955
0.16850522 0.117030196 -0.16799673 -0.27222085 -0.11269877 -0.20094027 -0.21510234 -0.14396119
-0.13507341 0.18603036 0.16860922 -0.13071086 -0.031178521 0.01091096 0.2466227 0.2632573

net.0.bias f4 [64]
00000000: 479e 773d d1d0 38bc 7958 103c 7cc6 b43d
00000010: c82c cc3d a36b 933d 005c c63d 0de6 e339
00000020: 074e 813c 0e2d 59bc b76b 48bc 8aeb f93d
00000030: d189 343c f8d8 2c3d 7637 d43d 0b4d de3d
00000040: 12ce 4e3d 616b cfbc ca48 113d 0e19 453a
00000050: fb38 d83d c64f b93d 4506 f63d b93c d93d
00000060: a265 db3d 6cb0 c03d 7389 a53d 2a3e fd3d
00000070: 3a8a 71bd 1af0 6ebc a9e8 a13d 86c7 843d
00000080: a702 35bd 4ec4 ad3d 45d6 ee3d 1978 653c
00000090: 9dad 94bc ceab d43d 22ab 973b a399 823c
000000a0: a902 a03d 91c6 c63b 4d35 5a3d 61b9 df3d
000000b0: 6a21 e83d e240 913c ea05 0ebb 23db 7fbc
000000c0: 5068 ed3c c611 593d fcc8 9c3d 63e0 06bd
000000d0: 0e1e 80bc a863 54bd 53f1 1d3d 40bc cc3d
000000e0: 7800 e43d 0aa8 ed3a b8b7 ca3d 8735 7f3d
000000f0: 3a54 44bc 0174 9c3c c41a 473c 94ca cf3d
0.06045368 -0.011280254 0.008810156 0.088269204 0.09969479 0.071982644 0.09685516 0.00043468215
0.015784277 -0.013255371 -0.0122327125 0.12203129 0.011019186 0.042199105 0.10362141 0.108545385
0.050489493 -0.025319757 0.035469808 0.0007518687 0.10557743 0.09048419 0.120129146 0.10607285
0.10712744 0.0940865 0.08082857 0.123653725 -0.058969714 -0.014583612 0.079057045 0.064833686
-0.044191983 0.08484708 0.116619624 0.014005684 -0.018149192 0.10384332 0.004628555 0.0159424
0.078130074 0.0060661514 0.053273488 0.1092403 0.11334498 0.017731134 -0.0021671006 -0.015616211
0.028980404 0.052995466 0.07655522 -0.032928836 -0.015639331 -0.051852852 0.038560223 0.09996843
0.11132902 0.0018131745 0.09898323 0.062306907 -0.011982972 0.019098284 0.0121523775 0.101460606

net.3.weight f4 [64, 64]
00000000: 39a5 9ebd 3e69 0d3e 65d1 01be a0de 8b3e
00000010: 4a4a 43bd 1a65 0f3e 3fa2 593d 1c54 d2bd
00000020: 8f66 163e fc07 16bd 7fc4 0abe 3ace 393e
00000030: 3a6f 93bd e0d0 483e 5e0c 363e ff96 763e
00000040: bee4 05be fd98 133e caa3 b4bd 1d94 32bd
00000050: 17e5 903d dade 803e 37da 193e d57c b93c
00000060: 8128 7c3e 0f24 813e fd60 a9bd 2812 08bd
00000070: c926 0d3e 7a12 ffbd ce29 623e 9f47 c53d
00000080: be21 223e 3ef4 6a3e 27d1 823e 145b e03d
00000090: 979d 083e 8c20 a73c 224f 583e 5e01 bd3d
000000a0: b3e5 7c3e 2814 d1bc 91c4 0ebe 3758 2e3e
000000b0: 68d0 36bc d73f 703d c028 ecbc 980c adbd
000000c0: 0eae 043e 5ada cebd 27ce 143d f5cd f63d
000000d0: 1bc1 af3d 2070 15be 936a ee3d 3262 b43d
000000e0: 3b8e 5a3e c4df 843d a9ef f3bb 9a25 a6bd
000000f0: 5cab e9bd 723c 873b bfc4 16bb 8635 023e
00000100: b95e 2d3e 292a 39be 6efe b53d 0ea9 2dbe
00000110: 96da 293e 9ca7 0fbe 38dd 3cbe c517 2c3e
00000120: bb4d 1f3e 3740 80bd f001 523e 765e 473d
00000130: dce8 f13d 3a4b 9f3d 9fdc 10be 2c1e 9a3d
00000140: f082 cc3d a892 64bd 9582 433d e00e 663e
00000150: 7aa0 043e 6515 533e b164 0a3e aecd 963c
00000160: dc45 c53d f564 a8bd e512 cf3d 2a9e 7dbd
00000170: 9a7c a4bd 6690 a5ba 6bb5 b7bd ee28 b5bd
00000180: ea40 07be e58c 1f3e 465f 183e 7d41 5dbe
00000190: 2f0b a3bc bfd9 973c 82e7 0fbd 823b ee3d
000001a0: acd7 46bd b6b8 d5bd a912 81bd 960c 193d
000001b0: d10d 2b3d c96e 04be f3e1 b53d f55a 4fbd
000001c0: 129a b43d 8cf9 573e 7e2a 6b3e c0ec e9bb
000001d0: 0dc4 5a3e 832e c33d 63fb babd bffc 2fbe
000001e0: 5485 a3bd 236e ed3c 7b84 53be 1936 4e3e
000001f0: 4099 26be a1af cbba e0e7 f83d 0d61 603e
00000200: 44af 573e 4c97 493b a572 793c dd89 f8bd
00000210: d4c3 25bc abcd bbbd d352 113e 5f47 b63d
00000220: bb12 ce3d 838d d8bb b89e 17be ca9c 15be
00000230: 26a2 19be f8f9 d93d 74ab c2bd 44ce 89bd
00000240: 3aa4 2b3c 8e43 443e 5afd 50be 205f f8bd
00000250: 732c a63d ac2d 4b3d 460c 05be fb58 1f3e
00000260: c8d2 5c3e 17b2 efbd c588 27be 100d f93d
00000270: 3add c3bc 575d c93d 1f7b f0bc f33c a63d
00000280: b70e 4ebe 91e1 2b3e 901a 613d f9cb d23d
00000290: fc0c 43be 4b9f 90bd ba86 363e 5273 9d3d
000002a0: 92c5 993d 0c8c 06be 0979 b13d 6184 073e
000002b0: 266b a63b 80c2 bd3d 60fd 1dbe 66c4 073e
000002c0: 644f d93d 88f4 233e 8dbd 573e 0aa2 4fbe
000002d0: c7fe afbd 3ed7 1d3e 0dbe 633e c3a0 d13c
000002e0: 40af 22be 2b81 1f3e 6031 853d df31 4bbe
000002f0: 11a9 3b3e 77a8 b7bd 08f6 32be 0ff2 80bd
00000300: e815 a3bd fc29 04bd 242a 60bd a6f9 813d
00000310: 8280 0bbe b2c0 ffbd 4462 c7bd 5d77 563e
00000320: 10ff b6bc 424e 903d 25af 263e 7897 f9bc
00000330: ce16 24be a8fa c9bd c0dc fdbb 576b 52be
00000340: 8478 7d3d 861f a83d 285c 1ebe 5442 713d
00000350: b230 fd3d f6dd a6bd e2d2 50be 68a3 d33c
00000360: fdfb dabd de93 aabd 5048 1abe 44dd 473d
00000370: a5e7 4b3e f676 eb3d 3032 133c 2073 32be
00000380: 8c24 76bd a2d6 9d3d 3762 413e 35a7 583e
00000390: 0264 81bd 969a 49be 3548 2abe d857 003d
000003a0: dac4 17be 4c27 783d a3fd 263e 690d 19be
000003b0: 42c9 aa3d c93b 0fbe bcd7 31bd 3437 97bd
000003c0: aa62 82bd 34e9 4abe 901a 483c c856 d43c
000003d0: ca94 d73d 975f 50be 08a3 b03c 18f6 ffbc
000003e0: af9c 5bbe 4493 4e3d 4acf b23d 042e b1bd
000003f0: 1e54 9b3d f8b3 1ebe 3d1c 1a3e 2801 d93c
-0.077463575 0.13809678 -0.12677534 0.27318287 -0.04767827 0.14003411 0.053133246 -0.10269949
0.1468756 -0.03662871 -0.1355152 0.18145075 -0.07198949 0.1961093 0.17778155 0.24081038
-0.1307554 0.14413829 -0.08820303 -0.043598283 0.070749454 0.25170022 0.15024649 0.022642532
0.24624826 0.25222823 -0.08270452 -0.03322044 0.13784327 -0.12454696 0.2208626 0.09632801
0.15833184 0.22944734 0.25550196 0.10954872 0.13341366 0.020401262 0.21123937 0.092287764
0.24696998 -0.025522307 -0.13942172 0.17025839 -0.011158086 0.058654632 -0.028828025 -0.08449668
0.12957022 -0.10100241 0.036329415 0.12051002 0.08581754 -0.14593554 0.11641421 0.08807792
0.21343319 0.064879924 -0.007444341 -0.08112641 -0.11409637 0.0041270787 -0.0023005453 0.1271573
0.16930665 -0.18082489 0.08886419 -0.1695902 0.1658729 -0.14028782 -0.18443763 0.16805942
0.15556996 -0.06262248 0.20508552 0.04867407 0.118119925 0.0777802 -0.1414666 0.07525286
0.09985912 -0.055803925 0.047731955 0.22466612 0.12951842 0.2061363 0.13514973 0.018408623
0.09632465 -0.08222381 0.10111026 -0.061918415 -0.08031578 -0.0012631535 -0.089701496 -0.08845697
-0.13208356 0.15581091 0.14880094 -0.21607013 -0.019902794 0.018536447 -0.035132892 0.11632444
-0.048545524 -0.104356214 -0.06302387 0.03736552 0.041761223 -0.12932886 0.08880987 -0.050623853
0.08818449 0.21091288 0.22965428 -0.0071388185 0.2136385 0.09530356 -0.091299795 -0.17186259
-0.07984415 0.028983181 -0.20656006 0.20137824 -0.16269398 -0.0015540012 0.12153602 0.21912022
0.21062952 0.0030760346 0.015225087 -0.1213567 -0.01011749 -0.091700874 0.14191751 0.08900332
0.10062166 -0.0066086664 -0.1480664 -0.14610592 -0.15003261 0.10643381 -0.09505358 -0.06728795
0.010476166 0.19166395 -0.20409146 -0.12127519 0.08113947 0.049604103 -0.12992963 0.15561287
0.21564782 -0.1170389 -0.16360767 0.121606946 -0.0239092 0.09832256 -0.029355584 0.08117094
-0.20122801 0.16785266 0.054956973 0.10292811 -0.19047922 -0.07061633 0.17824832 0.07688011
0.07508387 -0.13139361 0.08665664 0.13234092 0.005078691 0.092656136 -0.15428686 0.13258514
0.10610846 0.1601125 0.21068402 -0.20276657 -0.08593517 0.1541414 0.22240467 0.025589352
-0.15887165 0.15576617 0.06503558 -0.19843243 0.18326212 -0.08967679 -0.17476666 -0.06296169
-0.07963163 -0.032266602 -0.05472769 0.06346445 -0.1362324 -0.124879256 -0.097355396 0.20943971
-0.02233842 0.070461765 0.1627775 -0.030467734 -0.16024324 -0.09862262 -0.0077472627 -0.2054876
0.06188251 0.082091376 -0.15464842 0.058901146 0.123628035 -0.081478044 -0.20392945 0.025834754
-0.10692594 -0.08328985 -0.15066648 0.048795 0.19912584 0.114972994 0.008984134 -0.17426729
-0.060093448 0.077069536 0.18885122 0.21157534 -0.06317903 -0.19687876 -0.16629107 0.031333774
-0.14821187 0.06058435 0.16307692 -0.14946522 0.08339168 -0.1398765 -0.04341863 -0.07383576
-0.06366475 -0.19815522 0.012213364 0.025920287 0.10526426 -0.20348965 0.021562114 -0.031245276
-0.21446489 0.050433412 0.087309435 -0.08651355 0.075844035 -0.1549834 0.15049835 0.02648981

net.3.bias f4 [64]
00000000: 616b bd3d 7430 c93c 7272 89bc 0000 0000
00000010: b994 dd3d e137 1e3d c4c7 3dbc 855e e13c
00000020: d9ae 91bc e3ab 8abc 566a 0bbd 336a 923d
00000030: 6c2c 033d 6a0f 53bc af43 d93d 30d5 0bbb
00000040: 7ef2 9fbc 5ee0 9439 b77e e8bb 8d1e c4bb
00000050: 51a1 06bd 84a5 0dbc 9ab3 dd3d 460a 993d
00000060: 07c3 e53d 73da 073d 7bf7 9b3c a55c 8abc
00000070: 3851 bd3d 1477 43bc d124 e93d b285 94bc
00000080: 52ec c73d 6e5d 9dbc 83b4 d23d f250 e6ba
00000090: 1b81 ad3b a016 773d c729 a83b e863 c3bb
000000a0: efc5 d03a 6204 673c c6dc a0bc 0d50 abbc
000000b0: 12ae 2b3d d892 753d bde7 09bd fe7d d13d
000000c0: 66a1 28bc 3790 16bc 0640 763b e734 16bd
000000d0: 6984 683d aeb9 b7bb cf38 3a3d 5aa6 c1bc
000000e0: 00aa de3d d408 003c 49ae b53d 4f71 9bbc
000000f0: 0406 f33d 07fe 343d 0d0f 943d 87d3 3e3c
0.092489965 0.024559237 -0.016778205 0.0 0.10819382 0.03862751 -0.011583272 0.02751089
-0.01778357 -0.016927665 -0.034036957 0.07149162 0.032024786 -0.012882093 0.10608613 -0.0021336786
-0.019524809 0.00028395926 -0.0070951837 -0.0059850872 -0.032868687 -0.008645419 0.10825272 0.07472663
0.11218839 0.033167314 0.019038906 -0.01688988 0.09244007 -0.011930246 0.11383975 -0.018130157
0.097618714 -0.01920959 0.10288336 -0.0017571731 0.0052949316 0.06032431 0.0051319334 -0.0059628375
0.001592813 0.014100166 -0.019636523 -0.020912195 0.041914053 0.059954494 -0.03366827 0.10229109
-0.010292387 -0.009189657 0.0037574782 -0.036671545 0.0567669 -0.0056068515 0.045464333 -0.023638893
0.10872269 0.007814605 0.08871133 -0.018974928 0.11866382 0.04418757 0.07229433 0.011647112

net.6.weight f4 [2, 64]
00000000: e461 b23e 055d 463e b334 083e 4c23 583e
00000010: 81a4 803e 8953 293e 1d5c 843e 7da1 aa3e
00000020: c06a 3ebe b195 6ebe 347e d83b b19e 903e
00000030: f86a 7b3e 587f 62be e95f c83e 349b 1c3d
00000040: a0ee 85be 5cec 4ebe c1ae 83bc ffdc 14be
00000050: 5623 9bbd f14e dcbd 0b16 b33e cf8c 903d
00000060: 505d 933e fd61 8fbc a19b b53e 6e09 89bd
00000070: aa93 d03e 6eaf 253d 9e77 e83d ea7c 32be
00000080: 05f0 1d3e 3759 f53b 9ffc 153e ceee 983d
00000090: 40ed 233e 6054 c73e 294d 2f3e 8cbd 07be
000000a0: 38e4 843e 9ca4 753e 77c4 93be a26f 3cbe
000000b0: dd5e 96bc 99bf 613d 5bf8 2b3d 6e3b 903e
000000c0: 20b7 87be dacb 8abe c81c 8fbe 6070 65bd
000000d0: bc9e ff3c c832 46bd add4 a93e 30cf 84be
000000e0: fe14 cd3e 6962 44be 1232 053e ca24 7ebe
000000f0: 5691 533e 6d50 d73c eecb a03d 7481 0a3e
00000100: 9113 d43d cb09 0cbe 1e43 6abe 0bf5 17be
00000110: b753 5e3e 52dc d1bd eea0 71be bedc 2abe
00000120: d414 64be 8b6e 8abe 1346 c6bc a13f c43c
00000130: 2bff 88be dccc 6d3e 472d 5f3e 7ad4 04be
00000140: 2d58 38bd ccc0 6ebe cebb a4bd 8c66 243e
00000150: 0008 acbd f93c 343e 04e9 743e d1d3 903e
00000160: 65cb 783e 5c54 8f3e b18c 6bbe e54e b2bd
00000170: cb24 fa3d 6940 70be 8586 393e cb21 4b3e
00000180: 1edd af3e ef57 5ebd 3590 793e 46d9 62be
00000190: 10de d0bd 84e4 41bd ac59 79be 0966 3e3e
000001a0: 2f53 90be 8d94 dabd 8fd6 09be 8a46 7ebe
000001b0: 0596 b53e 7599 9b3e e4df 42be 4e2e 063e
000001c0: 98c4 3fbd d977 5ebe 0296 8d3e 2b78 3d3d
000001d0: 0d21 9b3e 1e53 90be 1ff8 97bd d083 81bd
000001e0: 9f4b a23e e6f5 9d3e c673 b03e 8a2a 19be
000001f0: 7ae9 2c3e b8c4 203e 1bcd 423e e764 0a3e
0.3484031 0.19371422 0.13301353 0.21107215 0.25125507 0.16535772 0.25851527 0.3332633
-0.1859541 -0.2329929 0.0066068415 0.28246072 0.24552524 -0.2211889 0.39135674 0.03823395
-0.2615862 -0.20207351 -0.01607454 -0.14537428 -0.07575099 -0.107572444 0.34977755 0.07058107
0.2878213 -0.01750278 0.35470298 -0.06691252 0.4073766 0.040450506 0.1135094 -0.17430463
0.15423591 0.007487442 0.14647149 0.074674234 0.16008472 0.3893156 0.17119278 -0.132559
0.25955367 0.23988575 -0.28860828 -0.1840196 -0.018355781 0.055114362 0.041984897 0.2817034
-0.265069 -0.2710865 -0.27951646 -0.056015372 0.03120362 -0.048388273 0.3317007 -0.25939322
0.40055078 -0.19178165 0.13007382 -0.24818721 0.2066091 0.026283467 0.078513965 0.13525945
0.103552945 -0.1367561 -0.22877166 -0.1483957 0.21711622 -0.10247101 -0.23596546 -0.16685769
-0.2227357 -0.27037463 -0.024203336 0.023956122 -0.26757178 0.23222679 0.21794616 -0.12971678
-0.045005966 -0.23315734 -0.080436334 0.16054744 -0.083999634 0.17601384 0.23917013 0.28286603
0.24296339 0.2799405 -0.23002888 -0.08706454 0.12214049 -0.2346207 0.18117721 0.1983711
0.34348387 -0.05428308 0.24371417 -0.22153196 -0.10198605 -0.04733707 -0.24350613 0.18593611
-0.28188464 -0.10672865 -0.13460754 -0.24831596 0.35466018 0.30390516 -0.1903072 0.13103601
-0.046818346 -0.21725406 0.2765351 0.04625718 0.30298653 -0.28188413 -0.07420372 -0.06323969
0.3169832 0.30851668 0.34463328 -0.14957634 0.16885939 0.15700042 0.19023554 0.13515054

net.6.bias f4 [2]
00000000: 3a68 a93d ac54 913d
0.08271833 0.07096228

exp_avg f4 [64, 4]
00000000: 018c 323c adea 98bb f346 6fbc 30e3 6cbc
00000010: d05b 413b 2c1b 023d d010 05bc 072a 86bd
00000020: e7f1 8b3b 502e e5ba 1848 9ebb 33ea a8bb
00000030: 4fd1 033d 84b3 8e3d d04d 29bd fbb2 39be
00000040: ac4c d73c 276a b63d 6a0f 12bd eb79 40be
00000050: 3a4a 593c 32c3 50bc 095d b7bc 09df a7bc
00000060: 0ace 363d ada2 d73d 21e0 71bd 0c57 89be
00000070: 00f3 bcba 29eb a33c cd54 eabb 4fbd 2cbd
00000080: 7822 6e3a 4730 edba 8db6 6fba 3beb 0a3a
00000090: 57d4 f039 c942 aa38 da8e 0dba 71da 9aba
000000a0: b78e 473b 1bdf 8f3c e2b8 b9bb 7bdc 18bd
000000b0: d2a7 593d f70b f93d c10f 90bd c863 99be
000000c0: 44fa 2d39 8535 a33c 498c 81bb 74cd f1bc
000000d0: 1cfa 533c b4df 3f3d 690b acbc 1810 edbd
000000e0: 23a1 153d d012 0b3e 948a 60bd 59c8 97be
000000f0: d0b7 3a3d 3a82 f93d d3b9 86bd aae1 98be
00000100: 58ee a93c 41b8 883d d933 11bd d48d 22be
00000110: 4d4a 20b8 a5d4 2738 70eb bab5 7fb6 3bb9
00000120: 293e 9e3c 1fd1 443d 927a d4bc e961 f9bd
00000130: 01a7 d53a 12aa b2ba dbef 92ba 1892 463a
00000140: 29bb 0e3d bba0 e93d b9e0 45bd 8938 82be
00000150: 1b04 133d d8d9 c73d d18c 44bd 1374 6cbe
00000160: d92e 363d 20ef 283e 198b 84bd 79dc b2be
00000170: 725f 103d 898f a63d 7f2e 29bd 7bfe 40be
00000180: b162 573d d31f 163e 52dc 99bd c507 b7be
00000190: 026e 043d e490 db3d 4fdf 56bd 1598 7fbe
000001a0: af2b 153d 0544 c73d bf5b 40bd 9746 60be
000001b0: a50d 2e3d 4bac 113e caa1 45bd 15fc 91be
000001c0: 4ffe c8bb f4ce 9bbc e8b8 8d3b 2c3e 013d
000001d0: df5a 283b 50e8 49b9 61eb 94ba 7ede 9dba
000001e0: 1934 ed3c a5cb b93d c84d 12bd de5e 49be
000001f0: 9ab5 003d 3dea 843d 50d4 21bd 3a2f 30be
00000200: d4a5 82bb e675 ccbc ffdd e83b f535 4a3d
00000210: 70bc 863d e27d 343e a41c bfbd d28c d8be
00000220: adac 553d 06c5 2a3e 6059 9bbd f3d2 c2be
00000230: f811 7d3b f8e8 723c fcd0 b6ba 22ce 98bc
00000240: c2f0 643b 5880 c0b9 0d6e 6ebb 59b1 15bc
00000250: 5c18 533d db87 e13d bd11 81bd 64df 90be
00000260: 70a0 5b3c c7c8 2c3d db3a a9bc cf59 d4bd
00000270: bfd6 983c 3059 773d a664 f7bc 03e8 1abe
00000280: 3cb5 b93b 1c0e a6bb e7d6 8bbb 98b3 cd3a
00000290: 4d6e 253b 87d0 893c 09db adbb f136 0cbd
000002a0: ac90 2c3c f824 903c e3eb 80bc bbd1 62bd
000002b0: 6c81 863d e91f 0f3e 184d b5bd 2341 c3be
000002c0: f09b 7e3d de43 0b3e b02d b5bd 3744 b8be
000002d0: a826 b03b 3774 c6bb 565b 15bc 445f fcbb
000002e0: 8a07 3e3b 5640 15bb 765a 9ebb a75a 07bb
000002f0: c377 0b3b 0be6 beba 03bd 3dbb 7b13 47bb
00000300: 8097 c43c 324a 913d a12a 13bd 983e 2abe
00000310: 1015 1b3c 752c 27bc 305d 86bc fa3d 6cbc
00000320: 59be cd3c 2ec9 f53d b27b 2dbd e8bc 81be
00000330: df12 ddba e97b 0a3b bcb7 a43a 7d15 93ba
00000340: 0b83 a2ba da33 e338 0c11 d03a bcf0 a63b
00000350: 349e 26bb 30e6 04bd 9125 693b c040 5a3d
00000360: e6a1 b43b 36a7 b5bb ed79 15bc 6f1c f1bb
00000370: 9ac3 2a3d 4ad8 dc3d fde1 62bd a2e8 82be
00000380: 0fe3 263d e307 e13d 90bf 6dbd cd86 87be
00000390: 05d3 813a 549c 213b 4088 bab9 6a54 2dbb
000003a0: e5a3 143d 1f74 f93d 729c 41bd 3536 86be
000003b0: a97a 893c 5c1e 743d 5b29 abbc 8646 fdbd
000003c0: 386e c2b4 3329 7936 c5f0 83b6 e5e2 b2b7
000003d0: 1be8 7f3b bde3 053c 156d 0dbb d762 3dbc
000003e0: 90cc cb3b b23e c0bb af4b 18bc be51 77bb
000003f0: c65e 3e3d 5749 fa3d 5f14 8bbd c06c 9fbe
0.010897637 -0.0046666474 -0.014604318 -0.014458463 0.0029504187 0.031764194 -0.008121684 -0.06550985
0.0042707804 -0.0017485116 -0.0048303716 -0.005154872 0.032182034 0.06967834 -0.041333973 -0.18134682
0.026281677 0.08906966 -0.03565923 -0.18796508 0.013262326 -0.012741851 -0.02238323 -0.020492094
0.044630088 0.10529075 -0.059051637 -0.26824224 -0.0014415681 0.020009594 -0.0071512223 -0.042172726
0.0009084116 -0.0018096053 -0.00091443287 0.00052993343 0.00045934573 8.1186714e-05 -0.00054000097 -0.0011814368
0.0030450055 0.01756244 -0.0056677917 -0.03731964 0.05313856 0.12160485 -0.07034255 -0.2995894
0.00016591797 0.019922981 -0.003953491 -0.029516913 0.012938049 0.0468442 -0.021001535 -0.11575335
0.036530625 0.13581395 -0.05481966 -0.2964504 0.045585454 0.12183042 -0.06578412 -0.29859668
0.020743534 0.06675769 -0.035449836 -0.15874416 -3.821617e-05 4.0013943e-05 -1.3926601e-06 -0.00017901695
0.01931675 0.048050996 -0.025937352 -0.12176878 0.0016300381 -0.0013631007 -0.0011210399 0.000757487
0.03484646 0.1140761 -0.048310015 -0.25433758 0.035892587 0.09758347 -0.047985855 -0.23091154
0.04447827 0.16497469 -0.06471843 -0.34933832 0.035247274 0.08132846 -0.041304108 -0.18847077
0.052584354 0.14660577 -0.07512726 -0.35748115 0.032331474 0.10720995 -0.052459057 -0.24960358
0.036418613 0.097297706 -0.046962496 -0.21901928 0.04249348 0.14225881 -0.048249997 -0.28512636
-0.0061338316 -0.019019581 0.004325021 0.031553432 0.002568893 -0.00019255397 -0.0011361652 -0.0012044457
0.028955506 0.09072045 -0.03571871 -0.19665095 0.03142319 0.0648999 -0.039509118 -0.17205516
-0.0039870534 -0.024958562 0.007106542 0.049367864 0.0657891 0.17626145 -0.09331635 -0.42294937
0.05216663 0.16676721 -0.07585406 -0.38051566 0.0038615447 0.014826052 -0.001394778 -0.01865298
0.0034933542 -0.00036716717 -0.0036381513 -0.009136521 0.051536903 0.110122405 -0.063022114 -0.28295434
0.0134049505 0.042183664 -0.020657947 -0.10368692 0.018657086 0.06038779 -0.03019936 -0.15127568
0.005667357 -0.0050676 -0.0042675617 0.0015693782 0.0025242746 0.016823066 -0.005305652 -0.034232084
0.010532539 0.017595753 -0.01573748 -0.055375796 0.06567654 0.13977017 -0.08852595 -0.38135633
0.062160432 0.13600108 -0.08846605 -0.35989544 0.005375702 -0.0060563344 -0.0091160145 -0.0077017862
0.0028996193 -0.0022773943 -0.004832561 -0.0020653398 0.00212811 -0.0014564408 -0.002895177 -0.0030376601
0.023998022 0.0709423 -0.035929326 -0.1662544 0.009465471 -0.0102034705 -0.016401857 -0.014419073
0.025115179 0.120012626 -0.042354293 -0.25339437 -0.0016866586 0.0021130985 0.0012566964 -0.0011221614
-0.0012398673 0.000108338616 0.0015874221 0.0050946157 -0.0025423886 -0.032446086 0.003557537 0.053284407
0.005512464 -0.0055436147 -0.009123308 -0.007358126 0.041690446 0.10783441 -0.0553913 -0.2556811
0.040743884 0.109878324 -0.058044016 -0.26470032 0.0009904808 0.002465983 -0.000355782 -0.002644802
0.036289115 0.121803515 -0.04726834 -0.26213232 0.016782122 0.059599265 -0.020893743 -0.12366967
-3.621551e-07 3.7127872e-06 -3.9321335e-06 -2.132491e-05 0.0039048258 0.008171973 -0.002157991 -0.01155921
0.006219454 -0.005866849 -0.009295388 -0.003773793 0.0464771 0.1222102 -0.06790995 -0.31137657

exp_avg_sq f4 [64, 4]
00000000: 71fb 1039 7dab 8c39 f95c 5a38 acab 8539
00000010: 05b6 cc37 e6c7 1a3a 1528 9a37 36f9 a83a
00000020: f2fa c437 de2c 9838 2359 d837 7486 0939
00000030: b311 7639 40c5 843a 8a44 1739 6ad2 273b
00000040: 78c4 1e3a 8a5a ff3a f608 e939 663c ba3b
00000050: 6000 9639 6201 9d3a 0c47 4839 2bce a43a
00000060: 0c4f f639 fb7a 063b 5a48 9b39 e8ac 973b
00000070: a37f 5138 cc6b 993a 0a51 d738 0a34 6c3b
00000080: 049e 6737 c33a 3a39 a791 ba37 b887 a139
00000090: 0ec2 9b37 5e12 4939 f597 3238 3609 8839
000000a0: 0302 db37 d226 8039 7bf7 fd37 4259 393a
000000b0: c2fb 933a d9cb 733b 7390 583a 8dba 253c
000000c0: 7691 7838 964e dd39 7201 4e38 f565 523a
000000d0: f6b6 8a38 880f e939 da9d 9338 9262 a43a
000000e0: 8d65 353a a32a 2d3b 9bb2 fb39 da3c f23b
000000f0: 6636 6b3a 481f 203b 89a1 323a af3a 053c
00000100: b7e0 5439 21ef 533a 55e6 3139 dbd5 163b
00000110: 30b6 4936 5f7b 4338 b585 3a36 f784 c938
00000120: d652 ca38 7768 5f3a f4d7 9a38 fdde f83a
00000130: b10c 6637 11a7 2e38 a7f5 1737 bde6 f038
00000140: d0d1 0c3a e94a 573b 69f5 ca39 497c f23b
00000150: e01b df39 b032 133b 0bf4 8139 371c 9c3b
00000160: a5db b43a e996 c73b 68c1 733a 05d3 683c
00000170: 15b6 2c3a de98 173b 9f9c d039 fc33 bf3b
00000180: 8bc9 513a 3e28 923b 7259 343a 5612 183c
00000190: abca 233a 48be f53a dc6f d439 72a9 a53b
000001a0: 0e0e 1c3a 29d4 ab3b e1e6 d539 4cf0 1d3c
000001b0: ccc0 953a 43e3 be3b 655d 4c3a 279f 453c
000001c0: d9c8 cb38 bf13 c83a 45b4 2938 01f9 f53a
000001d0: 1b39 bc37 c2a5 8939 648d 1038 ec38 003a
000001e0: 87aa ee39 0143 8d3b d0a1 c139 97b0 1a3c
000001f0: ff33 7f39 47f2 873a 503f 2839 dfeb 273b
00000200: 6e81 b238 d57f 2d3a 7559 c038 99c9 963a
00000210: 4978 0b3b 1a4e ef3b fe5c c13a e2c4 a13c
00000220: 6d12 ae3a c23e 9f3b 1063 793a 57ba 423c
00000230: 2525 4c39 f160 5c3b 98d5 9639 6c54 bb3b
00000240: 0fad 3b38 3927 443a eaf3 c638 65fb d93a
00000250: e9a7 9c3a d6dd 9d3b d947 193a b539 1e3c
00000260: f0a1 b238 cb1f 293a 3c6d a838 51f7 aa3a
00000270: 408b 4339 fc43 353a b483 3339 8bcf 293b
00000280: 1c24 1039 ffe5 4d3a c9c3 e938 c870 f939
00000290: 06c9 b038 a895 203a cdc1 8038 6ab9 ac3a
000002a0: fe10 1939 d396 9239 bc93 7538 faa9 293a
000002b0: a11b 943a f44b 773b 2801 323a 022b 273c
000002c0: 41e5 ff3a 9fe8 c53b fa89 aa3a 92be 803c
000002d0: 1664 0e38 1cb5 1239 57da 2238 ec9e 9739
000002e0: 7780 c537 dbfa 9338 b144 e737 544f 8039
000002f0: 652c 3037 2452 7f38 8209 4037 0e8e ac38
00000300: d72e 8239 e40a b63a f84f 3639 da1d 733b
00000310: f97f ff38 ba3a 2c3a 09a4 0f39 543a 443a
00000320: 7dcb 063a 5b24 f63a 76d8 b639 728c b13b
00000330: b793 3838 72fa 5739 9dc7 4738 a7a5 9c39
00000340: 8d41 0338 e615 0c39 a95b 1c38 43fc 5a39
00000350: 69bc 0539 64e4 3c3b 7b46 6838 02a2 6d3b
00000360: 0486 1938 771f 1c39 59f0 2938 9077 7039
00000370: 2220 163a a222 233b 72f4 b039 0dc6 c63b
00000380: 3a3a 363a 992f 753b 96dd 0b3a dd1b e93b
00000390: f4fe 8a37 ca9d 163a 4f96 4837 b24d 133a
000003a0: 224e 3e3a 73e5 563b db5f 0f3a c032 043c
000003b0: 4bd3 4639 4aa7 fb3a 6016 0339 e82b 773b
000003c0: 1c80 0536 24a0 6938 96c7 a636 4bbe b138
000003d0: ae7e 0139 d957 163b 5035 1338 17b6 f43a
000003e0: 6d46 4839 462e 0239 345f 4239 bd9d 893a
000003f0: f80e 043a 3409 5e3b a7f8 ed39 3ed7 c93b
0.0001382658 0.0002683065 5.2061838e-05 0.00025495642 2.4403455e-05 0.0005904421 1.8376895e-05 0.0012891653
2.3481876e-05 7.256282e-05 2.5790714e-05 0.00013115426 0.00023466982 0.0010129586 0.00014426015 0.0025607594
0.0006056498 0.0019481939 0.000444479 0.0056834696 0.0002861051 0.0011978562 0.00019099953 0.001257365
0.0004697967 0.002052008 0.0002961781 0.0046287663 4.9948354e-05 0.00117051 0.000102670936 0.003604176
1.3805464e-05 0.00017760233 2.2240753e-05 0.0003080943 1.8567804e-05 0.00019175696 4.2580028e-05 0.00025946804
2.6107771e-05 0.00024442986 3.0275192e-05 0.00070704904 0.001129024 0.003720036 0.00082612707 0.010115278
5.926328e-05 0.00042210956 4.9115573e-05 0.0008026057 6.614432e-05 0.00044452795 7.0389084e-05 0.0012541583
0.00069197343 0.0026423119 0.00048007522 0.007392508 0.00089726446 0.0024432708 0.0006814232 0.008131667
0.00020301608 0.0008084644 0.00016965841 0.0023015651 3.005738e-06 4.660652e-05 2.7793988e-06 9.6091935e-05
9.64754e-05 0.00085223414 7.383517e-05 0.0018987354 1.3712023e-05 4.1640425e-05 9.057497e-06 0.0001148707
0.00053718407 0.0032851046 0.00038711287 0.00740007 0.00042554643 0.0022460632 0.00024786624 0.0047641057
0.0013798369 0.006090988 0.0009298534 0.014210467 0.00065884116 0.0023131887 0.00039789543 0.0058350544
0.00080027495 0.0044603636 0.00068797835 0.009281715 0.00062481564 0.0018748725 0.00040519133 0.0050556
0.0005953022 0.0052437973 0.00040798544 0.009639811 0.0011425256 0.0058254316 0.00077958993 0.012061871
9.717205e-05 0.0015264674 4.046063e-05 0.0018766226 2.2437938e-05 0.00026254175 3.4463956e-05 0.00048912945
0.0004552195 0.004310966 0.00036932388 0.009441516 0.00024338065 0.0010371887 0.00016045314 0.0025622768
8.5118096e-05 0.0006618475 9.171936e-05 0.0011504173 0.0021281412 0.0073030116 0.0014752445 0.019747201
0.0013280638 0.0048597762 0.00095133577 0.011885247 0.00019468793 0.0033627118 0.0002876937 0.005716851
4.4745448e-05 0.0007482651 9.486808e-05 0.0016630708 0.0011951897 0.0048177047 0.0005847193 0.009657313
8.5178646e-05 0.0006451576 8.031211e-05 0.0013043677 0.00018648524 0.00069147325 0.00017119834 0.0025911059
0.00013746362 0.00078544015 0.000111467736 0.0004757701 8.4297775e-05 0.0006125816 6.139614e-05 0.0013177816
0.00014597547 0.00027959663 5.855014e-05 0.0006472167 0.0011299738 0.003773448 0.00067903334 0.010203125
0.0019523279 0.0060396935 0.0013011091 0.015715871 3.394865e-05 0.00013991114 3.8827155e-05 0.0002891937
2.3544051e-05 7.056232e-05 2.7569333e-05 0.00024473167 1.0500754e-05 6.0873237e-05 1.14463055e-05 8.228059e-05
0.0002483043 0.0013888744 0.00017386663 0.003709665 0.00012183184 0.000657003 0.0001369865 0.0007485498
0.00051420165 0.0018779145 0.0003487502 0.0054183537 4.400659e-05 0.00020597296 4.76312e-05 0.0002987806
3.1293883e-05 0.00013359598 3.7278664e-05 0.00020884075 0.00012754057 0.0028822655 5.537875e-05 0.0036259894
3.6602854e-05 0.00014889041 4.051658e-05 0.00022932724 0.0005726834 0.002489247 0.00033751462 0.00606609
0.00069514255 0.0037412404 0.0005335448 0.0071139173 1.6569604e-05 0.00057455583 1.1955925e-05 0.00056191825
0.00072595675 0.003279057 0.00054693007 0.00806874 0.00018961464 0.0019199636 0.00012501469 0.003771538
1.9893114e-06 5.570067e-05 4.9704204e-06 8.4754625e-05 0.0001234959 0.0022940545 3.5097182e-05 0.001866999
0.00019099722 0.00012415004 0.00018536748 0.001049928 0.0005037631 0.0033879997 0.00045389423 0.006159692

exp_avg f4 [64]
00000000: 754b 50be 8afa 24be fe41 41bd 93fd 0dbf
00000010: e9d1 11bf 1319 adbe b103 46bf 231d 28be
00000020: 460a c5bc a229 90bb 0012 dabd 2ead 70bf
00000030: 4f0a adbd 7f81 a9be 3850 60bf 3611 82bf
00000040: 2a72 03bf a3ce 403a f758 9ebe 20eb 1dbc
00000050: baaf 3dbf c0fa 32bf 33c7 91bf ed5f 30bf
00000060: b8da 80bf dd2b 50bf 052c 1dbf 8725 37bf
00000070: dbc5 873d 19cf 053c 6de4 f7be 1fd3 08bf
00000080: aeca c83d efaa aabf 73c1 98bf e3e1 42bc
00000090: 4f9e 94bc 0c9e 78bf 8943 a4be 0b83 ebbe
000000a0: 8103 bbbd de2e 69bd 2faa 9bbe 23d2 9abf
000000b0: c3ad a7bf 92ac 07be af13 82bd 7f67 e4bc
000000c0: fda2 f3be a95c 6dbe 5d33 4abf a142 1b3c
000000d0: 52f9 bd3b f9f8 b33d f300 c9bd 65be 38bf
000000e0: eda0 5fbf 29a4 11bc ba2e 39bf 8ea3 9bbe
000000f0: 80b5 1a39 c994 51bd b64a 18be 0306 71bf
-0.20341285 -0.16111198 -0.047182076 -0.5546505 -0.5696092 -0.33808193 -0.7734938 -0.16417365
-0.02405275 -0.0043994943 -0.106479645 -0.9401425 -0.08449232 -0.3310661 -0.87622404 -1.0161502
-0.51346076 0.000735501 -0.3092725 -0.009638578 -0.7409626 -0.69913864 -1.1388916 -0.6889637
-1.0066748 -0.8131693 -0.61395293 -0.7154164 0.06629535 0.008167052 -0.48416463 -0.53447145
0.09804283 -1.3333415 -1.1934036 -0.011894676 -0.018141894 -0.9711616 -0.32082775 -0.45998415
-0.09131528 -0.05692946 -0.30403277 -1.2095379 -1.3099903 -0.13249424 -0.063514106 -0.027881382
-0.47585288 -0.23179878 -0.78984624 0.009476335 0.0057975436 0.08787722 -0.09814634 -0.7216552
-0.8735493 -0.0088892365 -0.72336924 -0.3039822 0.00014754198 -0.051167283 -0.1487225 -0.941498

exp_avg_sq f4 [64]
00000000: 691d 853c 2e76 da3b 5bcf 2d3b 2880 c03c
00000010: 7fc8 633d 6a4b 833d bd47 3d3d 972c ef3b
00000020: f688 bb3b a150 473b 8f49 393b a597 c53d
00000030: e77e c43b 697f 2c3c 91f4 853d f38a b13d
00000040: 47c7 953c c65c ec3a b22e 4b3c eaf1 103b
00000050: 297e 593d c0c5 2d3d 7d6a 153e c184 803d
00000060: 8699 c63d c22f 783d 4c90 8c3d a7b6 d53d
00000070: 6db7 4b3c bfa3 1e3b 3b18 493d a49d a83c
00000080: de13 c13b 59de 4b3e 7b2f f43d 8dcd ea3c
00000090: 2d06 bd3b c138 063e ebbc 1d3c 07eb 6b3c
000000a0: f686 aa3c 4eb7 253c 0d26 8f3c 5e3c f83d
000000b0: c906 4c3e bcb4 003c 93d1 363b c19c 903a
000000c0: d041 b83c 12f8 bc3c 7a8f 683d 1a0f 973b
000000d0: 74c7 353b e846 de3c 1c6b bc3b b945 643d
000000e0: b4df 933d b073 ec3b b838 933d ef8d 9e3c
000000f0: 3f01 2c3b b6b7 b53c 1060 253c 5fd1 813d
0.016249375 0.00666692 0.0026521299 0.02349861 0.05561113 0.064108685 0.046210993 0.0072990167
0.005723114 0.0030413049 0.0028272604 0.096480645 0.0059965733 0.010528424 0.06540788 0.086690806
0.0182835 0.001803302 0.01240127 0.0022116848 0.05309883 0.042424917 0.14591403 0.06275321
0.09697251 0.06059242 0.0686346 0.10435229 0.012433869 0.0024206487 0.049095374 0.020582981
0.005892261 0.19909038 0.11923119 0.028662467 0.0057685585 0.13107587 0.009627561 0.014399297
0.020816308 0.010114504 0.017474199 0.12120889 0.19924463 0.00785559 0.0027895912 0.0011033044
0.02249232 0.023067508 0.056777455 0.0046099545 0.0027737292 0.02713342 0.005750073 0.055730555
0.07220402 0.0072159395 0.071885526 0.019354789 0.002624586 0.022182327 0.010093704 0.063387625

exp_avg f4 [64, 64]
00000000: 191c d9bb 4218 88bb fdae 98bb c31d f7bd
00000010: 7823 90bd 818e edbb ada1 16be 0d5d 2cbb
00000020: da9d 04bb 7227 acb8 2e46 1abc c0ff 9ebd
00000030: 87ad 0ebd 1b43 efbc e1d4 ebbd ad6e 7fbd
00000040: 24a6 8dbd f71b 12b8 7b86 d1bc 701d 2fba
00000050: 5598 aabd d063 4bbd ba34 00be 3df4 9abd
00000060: 61cf 78bd d145 28bd ef02 babd f180 07be
00000070: 5586 90bb b595 3cbb 6bc9 fcbd e3d2 0bbe
00000080: 3069 42ba be08 aebd e6c4 8ebd 13ad 17bd
00000090: caa1 8f39 9942 d9bc 7728 afbd abd9 babc
000000a0: 2944 bebb 5230 7cbd f2e6 efbb 128d 2bbd
000000b0: ad58 5cbd f58c 46bb 2c11 97bb 8822 f2ba
000000c0: 1196 0fbd f421 dabb 5506 48bd b39f 15ba
000000d0: 8b43 c3ba fd10 4ebb a16e 7cbb 7a16 97bd
000000e0: 8591 b2bd b518 2bba bba9 ddbd f121 c5bd
000000f0: 1bd8 07b9 3a7c abba b839 c5bb ae1c 0abe
00000100: e31e 2ebb 63d2 deba a2bb c8ba 0838 5fbd
00000110: fb12 02bd 0491 66bb 22bf 84bd 82de b3ba
00000120: 88de 1dba f5c7 f638 b40d a0bb 52be 0bbd
00000130: 7f00 7fbc 3cef 70bc 90dd 51bd b617 d2bc
00000140: d30d f4bc 3d1f a7b7 cd01 41bc 0873 cab8
00000150: 67d8 1dbd a155 bbbc 88ae 7dbd b9e8 f8bc
00000160: 8814 eebc 6959 90bc d6ca 25bd 2391 61bd
00000170: a3fb 9aba 80c9 bdb9 50ba 6abd 492b 76bd
00000180: 89cd 19b8 1b9a 16bd 7f28 f2bc 2e14 76bc
00000190: 2511 2f39 c4df 4ebc 7edf 0ebd ba06 24bc
000001a0: c229 28bb 66c0 dbbc 4cd4 76bb 5aae a3bc
000001b0: 45ef bdbc 4740 c4ba ab28 70ba a89e 7eb9
000001c0: 9467 8abc ea8b 32bb 7c5c b1bc 873f 3cb6
000001d0: e298 60b9 c5f6 ccba 9d3c 91ba 465a 0abd
000001e0: 47f8 19bd b5bb 3bb8 bff9 3dbd 84e4 3ebd
000001f0: 4eaf 9db8 5682 9db9 77ce 08bb de08 78bd
00000200: bc6e 58ba 2862 2dba fcb5 39ba b52e 32bc
00000210: aeb1 5bbb e846 edb9 61c5 26bc d5c3 c238
00000220: 01cc 04ba 46d8 d2b8 8529 a3ba 0ab1 d2bb
00000230: ef01 8cbb dd88 73bb e9e9 12bc d821 9abb
00000240: 073e 85bb 3616 5bb7 5b9f 10bb 39c2 87b9
00000250: c5c5 e5bb 0ad0 66bb af81 46bc 1769 fdbb
00000260: ed14 49bb 4d5f 46bb 0975 09bc ab7c 4ebc
00000270: 1a0c 173a ad55 54ba fd24 50bc 8bea 17bc
00000280: b05b e8b8 00f7 1ebc a578 acbb c3d2 40bb
00000290: caf7 b0b1 0b0d 43bb c281 bfbb d412 15bb
000002a0: de81 31ba 69a2 afbb 6ba4 79b9 4009 61bb
000002b0: 71b4 f1ba 6efa 33b9 3a05 74ba 1da5 f1b9
000002c0: d15b 8cb9 bc09 82ba 5160 0dbb 6b33 68b9
000002d0: 1191 bab9 bc95 5cba 1764 49ba d22b dbbb
000002e0: 4a06 1dbc 1492 0cb9 e79d 25bc 2299 d8bb
000002f0: dd1d 4ab8 d17a 57b9 f680 48ba 2b71 32bc
00000300: 0000 0000 0000 0000 0000 0000 0000 0000
00000310: 0000 0000 0000 0000 0000 0000 0000 0000
00000320: 0000 0000 0000 0000 0000 0000 0000 0000
00000330: 0000 0000 0000 0000 0000 0000 0000 0000
00000340: 0000 0000 0000 0000 0000 0000 0000 0000
00000350: 0000 0000 0000 0000 0000 0000 0000 0000
00000360: 0000 0000 0000 0000 0000 0000 0000 0000
00000370: 0000 0000 0000 0000 0000 0000 0000 0000
00000380: 0000 0000 0000 0000 0000 0000 0000 0000
00000390: 0000 0000 0000 0000 0000 0000 0000 0000
000003a0: 0000 0000 0000 0000 0000 0000 0000 0000
000003b0: 0000 0000 0000 0000 0000 0000 0000 0000
000003c0: 0000 0000 0000 0000 0000 0000 0000 0000
000003d0: 0000 0000 0000 0000 0000 0000 0000 0000
000003e0: 0000 0000 0000 0000 0000 0000 0000 0000
000003f0: 0000 0000 0000 0000 0000 0000 0000 0000
-0.006625664 -0.0041532824 -0.004659532 -0.120662235 -0.07038015 -0.007249654 -0.14710112 -0.002630058
-0.0020235688 -8.2089464e-05 -0.009416146 -0.07763624 -0.034833457 -0.029206803 -0.11515213 -0.062361408
-0.069164544 -3.4835157e-05 -0.02557682 -0.0006680107 -0.08329836 -0.049655735 -0.12520114 -0.07566116
-0.060744647 -0.041082207 -0.09082591 -0.13232781 -0.004410545 -0.0028775756 -0.12343105 -0.13654666
-0.0007416187 -0.08497761 -0.06971149 -0.03703029 0.00027395628 -0.026521014 -0.0855264 -0.02280887
-0.005806465 -0.06156952 -0.007321232 -0.041882582 -0.053795505 -0.003029642 -0.0046102013 -0.0018473426
-0.035055224 -0.0066568796 -0.048834164 -0.0005707696 -0.0014897449 -0.0031443231 -0.0038518088 -0.07377334
-0.08719162 -0.0006526814 -0.10823389 -0.096256144 -0.00012955109 -0.0013083287 -0.0060188435 -0.13487503
-0.0026568703 -0.0016999956 -0.0015314708 -0.054496795 -0.031756382 -0.003518165 -0.06481768 -0.0013722929
-0.00060222344 0.00011767439 -0.004884446 -0.03411705 -0.015564083 -0.014705475 -0.05123669 -0.025646072
-0.029791748 -1.9922498e-05 -0.0117802145 -9.653537e-05 -0.038536455 -0.02286798 -0.061934024 -0.030384408
-0.029062524 -0.01762076 -0.040476643 -0.055070054 -0.0011824261 -0.00036199018 -0.057306588 -0.060099874
-3.6669462e-05 -0.03676806 -0.029560326 -0.01501946 0.00016695687 -0.012626592 -0.034881108 -0.010011369
-0.0025659655 -0.026825141 -0.003766316 -0.019980598 -0.023185382 -0.001497277 -0.00091613334 -0.00024282432
-0.016895093 -0.002724404 -0.021650545 -2.805116e-06 -0.00021419258 -0.0015637508 -0.0011080686 -0.033777498
-0.03759029 -4.475909e-05 -0.046380755 -0.04660465 -7.5189964e-05 -0.0003004248 -0.0020875016 -0.06055533
-0.0008256247 -0.00066140527 -0.0007084308 -0.010875394 -0.0033522653 -0.00045256992 -0.010178895 9.2871174e-05
-0.00050657993 -0.000100538644 -0.0012448287 -0.006429796 -0.0042726914 -0.0037160434 -0.008966901 -0.0047037415
-0.004066232 -1.3058589e-05 -0.002206764 -0.00025893914 -0.0070121014 -0.0035219216 -0.01211588 -0.007733475
-0.0030682639 -0.0030269206 -0.00838972 -0.012602965 0.0005761996 -0.0008099925 -0.012704131 -0.009272228
-0.000110797 -0.009702444 -0.0052634054 -0.0029422499 -5.1504445e-09 -0.0029762413 -0.0058443258 -0.0022746818
-0.0006771366 -0.005359937 -0.00023807741 -0.0034337789 -0.0018440617 -0.00017164063 -0.000930864 -0.0004609012
-0.0002677129 -0.0009921114 -0.0021572302 -0.00022144399 -0.00035584767 -0.0008414646 -0.0007682456 -0.0066885734
-0.009584019 -0.00013405859 -0.010108448 -0.0066100517 -4.8188365e-05 -0.0002054975 -0.0007648611 -0.010891239
0.0 0.0 0.0 0.0 0.0 0.0 0.0 0.0
0.0 0.0 0.0 0.0 0.0 0.0 0.0 0.0
0.0 0.0 0.0 0.0 0.0 0.0 0.0 0.0
0.0 0.0 0.0 0.0 0.0 0.0 0.0 0.0
0.0 0.0 0.0 0.0 0.0 0.0 0.0 0.0
0.0 0.0 0.0 0.0 0.0 0.0 0.0 0.0
0.0 0.0 0.0 0.0 0.0 0.0 0.0 0.0
0.0 0.0 0.0 0.0 0.0 0.0 0.0 0.0

exp_avg_sq f4 [64, 64]
00000000: e5fd dd38 e5e6 4838 63be bd38 2f26 6c3a
00000010: c59b 093a f206 f138 b262 b63a 781d ee35
00000020: 56a6 a038 14eb cc37 c0af f137 0e91 253a
00000030: 56b9 0439 6fd9 5e38 82be 653a b5ae 043a
00000040: fca5 bf39 b0c7 9837 744c 3038 b71a e337
00000050: b905 023a 0b86 7f39 4e67 bd3a 00fa 7c3a
00000060: f223 9539 d766 a639 2e43 193a 3d53 043b
00000070: b732 9338 8bcf 0c38 f01a a83a 458c a73a
00000080: a9bf ef35 9b8f 433a d667 fe39 7ce6 1e39
00000090: 251f c436 5513 8539 0677 473a 06a9 5038
000000a0: b9a0 0b39 5819 c239 be57 4538 311e cd39
000000b0: 51b1 df39 7262 6336 4ae7 7338 adcd 0b38
000000c0: 30dd 0f39 3eae 3f39 0bde ec39 2115 fd37
000000d0: df42 5637 ccc9 ae37 3032 1c39 3595 1e3a
000000e0: d4c0 313a 967e 5f38 3f12 9b3a 3ac3 2e3a
000000f0: bbee ae38 f770 2638 3663 8538 a7eb 873a
00000100: 3ab7 1e38 9053 0536 c019 2a38 a329 8339
00000110: 772a f638 c9cf 4638 7623 9f39 4641 9335
00000120: 3b08 0038 3dda 7b37 fbd7 8c37 38cb 2939
00000130: 4c02 da37 f2aa 9737 8cc0 6339 4464 1e39
00000140: 8d61 b438 8ef3 0137 8aa0 4e37 847f 2e37
00000150: 722a 0139 3c57 6d38 320a ec39 8c18 4039
00000160: 79ae cc38 ec1a 9038 d1ee 2839 163e eb39
00000170: 2168 9e36 b593 9537 5db4 9839 13ea 8c39
00000180: 05e1 1636 3247 2e39 7602 f538 88fd 2238
00000190: a4d6 6b36 4e1c 7a38 7d02 5139 cd25 9f37
000001a0: ac5f 5c38 2e84 a938 6eec 7b37 a252 9638
000001b0: a8ee b438 bfe7 bc35 5305 ab37 81f1 6b37
000001c0: b203 6338 1c6a 9f38 a80f 2239 3678 8837
000001d0: 5fc2 c136 6031 6e36 1187 8538 cf1b df38
000001e0: cf6f 1d39 3827 9136 3434 8339 0f21 5339
000001f0: 7934 1038 5726 af36 c646 d237 f66d 8d39
00000200: ccf6 fb37 56e7 7138 676d 9037 3262 6739
00000210: 4f57 7c39 ec20 0f38 1379 213a 8b27 d432
00000220: 0c2a b237 d12d 5335 b870 6e37 3576 c338
00000230: f057 bf38 e810 cd36 a998 8d39 f35a 9538
00000240: a533 2839 9b40 c236 78cf c136 f84a 0537
00000250: 31c3 1739 ba36 8838 1b6d b639 796d e939
00000260: e7b5 4738 7702 9938 01fc 1c39 03bb 723a
00000270: 9613 0939 43e4 4136 263c 4f3a 83e3 443a
00000280: 1a61 c737 5a1f 7339 1c26 b538 efe8 8838
00000290: 6a35 d834 40b2 7e38 8ca6 083a a850 1a37
000002a0: 3bb1 0d38 5d1d c339 2260 4737 1602 0339
000002b0: 83be 0139 888b 4735 1c18 2d37 848f 9636
000002c0: 3059 1b38 0fa7 4f38 cb3a 3b38 cbf9 4936
000002d0: def4 e635 50b0 b938 c472 1c38 f4fa 8439
000002e0: bb4c 1e39 79c8 1638 83ab 003a 9612 b339
000002f0: 370e e837 06e2 c737 04f8 1637 b418 a839
00000300: 0000 0000 0000 0000 0000 0000 0000 0000
00000310: 0000 0000 0000 0000 0000 0000 0000 0000
00000320: 0000 0000 0000 0000 0000 0000 0000 0000
00000330: 0000 0000 0000 0000 0000 0000 0000 0000
00000340: 0000 0000 0000 0000 0000 0000 0000 0000
00000350: 0000 0000 0000 0000 0000 0000 0000 0000
00000360: 0000 0000 0000 0000 0000 0000 0000 0000
00000370: 0000 0000 0000 0000 0000 0000 0000 0000
00000380: 0000 0000 0000 0000 0000 0000 0000 0000
00000390: 0000 0000 0000 0000 0000 0000 0000 0000
000003a0: 0000 0000 0000 0000 0000 0000 0000 0000
000003b0: 0000 0000 0000 0000 0000 0000 0000 0000
000003c0: 0000 0000 0000 0000 0000 0000 0000 0000
000003d0: 0000 0000 0000 0000 0000 0000 0000 0000
000003e0: 0000 0000 0000 0000 0000 0000 0000 0000
000003f0: 0000 0000 0000 0000 0000 0000 0000 0000
0.00010585393 4.7898753e-05 9.0476846e-05 0.00090083753 0.0005249347 0.00011493069 0.0013914912 1.7740958e-06
7.660377e-05 2.4428162e-05 2.8811279e-05 0.00063158653 0.00012657544 5.3131425e-05 0.00087640446 0.0005061434
0.00036554027 1.8212799e-05 4.2032872e-05 2.7072949e-05 0.0004959959 0.0002436863 0.0014450343 0.000965029
0.00028446276 0.0003173861 0.00058464974 0.0020191215 7.0189526e-05 3.357189e-05 0.0012825411 0.0012782892
1.7862668e-06 0.00074600586 0.0004852402 0.00015153916 5.844881e-06 0.0002538214 0.00076089834 4.974848e-05
0.00013315947 0.00037021446 4.7050176e-05 0.0003912314 0.00042665986 3.3882939e-06 5.815112e-05 3.3331733e-05
0.00013719941 0.0001828009 0.00045178863 3.016979e-05 1.2770964e-05 2.0836385e-05 0.00014896016 0.0006049455
0.0006780748 5.3285235e-05 0.0011830999 0.0006666664 8.3414336e-05 3.968269e-05 6.360414e-05 0.0010369912
3.784078e-05 1.9867184e-06 4.055514e-05 0.0002501729 0.00011738104 4.7400394e-05 0.00030353264 1.097135e-06
3.0525243e-05 1.5011578e-05 1.6789874e-05 0.00016192801 2.5988695e-05 1.8080205e-05 0.00021720136 0.00015105406
8.601239e-05 7.745706e-06 1.2315935e-05 1.0400898e-05 0.00012318211 5.6586447e-05 0.00045021024 0.00018319691
9.759976e-05 6.87147e-05 0.00016110695 0.0004486895 4.720889e-06 1.7830966e-05 0.0002912608 0.0002687728
2.248272e-06 0.00016620455 0.00011682969 3.885993e-05 3.5142666e-06 5.9631006e-05 0.0001993272 1.897188e-05
5.254119e-05 8.083168e-05 1.5015814e-05 7.167949e-05 8.627522e-05 1.4074539e-06 2.0387268e-05 1.4063321e-05
5.412446e-05 7.601475e-05 0.00015455356 1.6268441e-05 5.774476e-06 3.5493504e-06 6.367092e-05 0.000106386484
0.00015014339 4.3259024e-06 0.0002502516 0.00020134843 3.4381144e-05 5.2198698e-06 2.5066907e-05 0.00026975543
3.0036455e-05 5.7674326e-05 1.7217082e-05 0.00022066457 0.00024065118 3.4124518e-05 0.0006159704 2.469803e-08
2.1238833e-05 7.8670297e-07 1.421215e-05 9.320342e-05 9.123969e-05 6.1114442e-06 0.00027007356 7.121814e-05
0.00016040968 5.7891716e-06 5.7760008e-06 7.944873e-06 0.00014473197 6.495179e-05 0.00034795035 0.00044522787
4.7614707e-05 7.2960676e-05 0.00014971198 0.00092594343 0.00013072634 2.8892107e-06 0.0007905386 0.00075107085
2.3767865e-05 0.00023185965 8.637851e-05 6.5283726e-05 4.0272e-07 6.0724327e-05 0.00052128057 9.1978945e-06
3.378208e-05 0.00037215176 1.1883707e-05 0.0001249391 0.0001237337 7.433632e-07 1.0317217e-05 4.487056e-06
3.7037942e-05 4.950823e-05 4.463903e-05 3.0096733e-06 1.7207601e-06 8.854328e-05 3.7300182e-05 0.00025363977
0.00015096639 3.594949e-05 0.000490837 0.00034155388 2.7663174e-05 2.3827899e-05 8.998442e-06 0.00032061862
0.0 0.0 0.0 0.0 0.0 0.0 0.0 0.0
0.0 0.0 0.0 0.0 0.0 0.0 0.0 0.0
0.0 0.0 0.0 0.0 0.0 0.0 0.0 0.0
0.0 0.0 0.0 0.0 0.0 0.0 0.0 0.0
0.0 0.0 0.0 0.0 0.0 0.0 0.0 0.0
0.0 0.0 0.0 0.0 0.0 0.0 0.0 0.0
0.0 0.0 0.0 0.0 0.0 0.0 0.0 0.0
0.0 0.0 0.0 0.0 0.0 0.0 0.0 0.0

exp_avg f4 [64]
00000000: eb9d 17bf 812a 86be 66de 44bd 0000 0000
00000010: a7e8 dbbe 2db4 79be 51b1 ed3b 7b02 f4be
00000020: d82f 3f32 67fa d439 29b1 08ba 7d74 b3be
00000030: 68f0 10be dc43 b13d 7cb6 20bf b3e7 8fb5
00000040: 42f1 2e37 ff61 babc 8a9c 1035 0940 2d3e
00000050: 3d7d 8839 ba27 0a3e 110e 17bf 272a 2bbe
00000060: 1848 a8be f3de 32bd b1b9 e3be 2acc 1a3c
00000070: 3e80 2ebf 3e55 f43a a754 4bbe c864 4b3e
00000080: 2447 a6be efc9 df36 9647 73be a65f ebbc
00000090: 270c 4fbc f1f9 eabe d166 f4bd a7ae 0d3e
000000a0: 97ff 253a 3919 a9be 35be f032 3814 ad38
000000b0: e19a 85bd 2f06 18be 4387 ad39 c427 03bf
000000c0: 06ce 9934 9acc f436 abd2 023e 3d7a 903c
000000d0: 3d99 ebbd a723 a02e 1f53 08bf 955e 3533
000000e0: 9ece 07bf 3a64 333e b442 89be 0ddc db36
000000f0: 9d16 b4be 0c96 86bd b789 2bbe 8356 72b9
-0.5922534 -0.26204303 -0.04806366 0.0 -0.42950937 -0.24385138 0.007253804 -0.47658142
1.1128542e-08 0.00040622355 -0.0005214387 -0.3504981 -0.14154208 0.08655521 -0.6277845 -1.0721764e-06
1.042738e-05 -0.022751806 5.3871975e-07 0.16918959 0.0002603325 0.13491717 -0.5900584 -0.16715299
-0.32867503 -0.043669652 -0.4447761 0.009448091 -0.6816443 0.0018641127 -0.19856511 0.19862664
-0.3247615 6.669426e-06 -0.23757777 -0.028732132 -0.012637175 -0.45893815 -0.11933673 0.13836156
0.00063323363 -0.33027056 2.8026173e-08 8.253049e-05 -0.065236814 -0.14846109 0.0003309791 -0.5123255
2.8648373e-07 7.2955854e-06 0.12775676 0.017636413 -0.11503837 7.282291e-11 -0.5325183 4.222837e-08
-0.5304965 0.17518702 -0.26808703 6.552326e-06 -0.35173503 -0.06571588 -0.16751753 -0.00023111147

exp_avg_sq f4 [64]
00000000: 82ad 633d ae18 743c 7e72 c53c 0000 0000
00000010: 3ac1 0c3d 1eeb 573c fade 6f3c 1b09 7a3d
00000020: af47 4e3b e30b 3c3b 7aad 3539 9f03 f53c
00000030: 87f1 b13c c820 203c 45fc a93d 0c01 1a39
00000040: d334 8b3b 5e9d 1e3a dc71 7536 80f4 883c
00000050: f038 973a 8ef8 893c 6c02 8e3d ad63 9b3c
00000060: 4945 2e3d 8558 a23c a55d a13d 2cd4 ab39
00000070: 5454 a13d 124d 143b 94de cf3b ff41 ea3c
00000080: bca3 d83c 94ec 7139 79a3 9e3c 49fb 8a3b
00000090: 7921 8e3a 5b56 983d 1473 803c 3e0d 9c3c
000000a0: 5e14 183c c906 ba3c c2ec a53b bc79 0b3b
000000b0: 8321 053d ea0a 6d3c 2e9c ca3b 4f29 173d
000000c0: 3810 133b c83d a63a 4548 433c c63c b73a
000000d0: 5bc3 af3c d45f 7a3a 16ec 513d 4a44 8a3b
000000e0: 352b a83d 1e89 2f3d b080 f93c a261 723b
000000f0: 060f ad3c ec24 883b 66b5 a03b 3719 8339
0.05558539 0.014898462 0.024102446 0.0 0.034363963 0.013178615 0.014640564 0.06104384
0.0031475832 0.0028693608 0.0001732613 0.029908953 0.021721615 0.009773441 0.0830007 0.00014686974
0.0042482405 0.0006050671 3.657412e-06 0.01671815 0.0011537354 0.016842153 0.06934056 0.018968428
0.042546544 0.0198176 0.078791894 0.00032773742 0.078774124 0.0022628945 0.006343672 0.028595923
0.026445262 0.00023071683 0.01936506 0.0042413813 0.0010843716 0.07438346 0.015679874 0.019049283
0.0092822 0.022708314 0.005063624 0.0021282276 0.032502662 0.014467934 0.006183169 0.03690463
0.0022440087 0.0012683207 0.011919086 0.0013979904 0.021455457 0.00095510227 0.05125054 0.0042195665
0.08211366 0.042855375 0.03045687 0.0036984463 0.021125328 0.004154792 0.004904437 0.00025005054
