gen_1_agent_1.pt (torch, 64207 bytes, 18 tensors)

net.0.weight f4 [64, 4]
000000 0f 7f 14 be 9a ba b6 3c 86 54 86 be 81 7b 80 be
       -0.14501594 0.022305775 -0.2623636 -0.25094226
000010 de 97 11 3c 85 1b 8b be 72 7e 57 bb 88 8e ab bd
       0.008886306 -0.27169433 -0.0032881764 -0.08376795
000020 ed 8e 4d 3c 40 40 80 3e 4e 1e 8e 3e 55 b4 2d be
       0.012546283 0.2504902 0.27757496 -0.16963322
000030 44 bb 51 be cc 9f 40 3e 58 af 56 3e 9f b9 70 3e
       -0.20481592 0.18810958 0.20965326 0.23508309
000040 f8 23 14 3e 34 2d 18 be b9 72 b4 bd 6a a6 ee 3d
       0.14466846 -0.14860994 -0.08810944 0.11652835
000050 58 7b 81 3e bf a6 a8 3d e2 67 f6 bd 79 9d 83 be
       0.25289416 0.08234929 -0.12031533 -0.2570608
000060 b9 36 33 be 74 bd 21 be 78 54 57 3e 65 c0 4e 3e
       -0.17501344 -0.15794927 0.21028316 0.2019058
000070 9f 5f 4b 3e 6e c7 93 3c c2 83 4c 3e 24 27 e5 3a
       0.19860695 0.018039431 0.19972137 0.0017482978
000080 2e 8f 30 3e d3 94 6b 3d e4 1c 5d 3e ad 8a 98 be
       0.17242119 0.057514977 0.21593052 -0.297933
000090 22 c4 24 3e ca f3 3d 3e 3f 03 40 3e 62 f5 76 3d
       0.16090444 0.1855003 0.18751238 0.06029261
0000a0 79 51 0f 3e f6 d4 33 3e c4 66 41 3d c9 23 2e 3e
       0.13995923 0.17561707 0.047217146 0.17005838
0000b0 37 79 43 be dd b8 2e 3e f2 0a 2d be 24 53 dc 3d
       -0.19089209 0.17062707 -0.16898707 0.10758045
0000c0 da b1 00 3c ea 12 39 be 98 aa 51 3e 1e 75 8b 3c
       0.007854903 -0.18073621 0.20475233 0.01702362
0000d0 51 15 82 3e d4 a0 38 3e 02 be 3a be 67 ef 21 3e
       0.25406888 0.18030101 -0.18236545 0.15813981
0000e0 ff 40 74 3e 00 ce 1e be 6d eb 7f 3e 29 70 ff 3d
       0.23852919 -0.1550827 0.24992152 0.12472565
0000f0 28 51 2b be 4f f4 a1 3e df 87 e3 3d ea 37 05 3d
       -0.16730177 0.31631705 0.111099 0.032524027
000100 79 7f a6 bd b0 1d c6 bd 97 92 02 3d e7 1a f9 3d
       -0.08129782 -0.09673631 0.03187808 0.12163334
000110 90 c3 97 3e 0f 2f 58 bd 96 e4 f1 3d 47 ac 5f be
       0.2964139 -0.052779254 0.118111774 -0.21843062
000120 73 67 6c bd 7d 8d 05 3e 7a 6a 8f be 25 c1 db 3d
       -0.057715844 0.13042255 -0.28010923 0.10730199
000130 0b 03 bd 3d 9a 50 68 bd fa 7e 7b 3e 07 9a 71 be
       0.09229096 -0.056717493 0.24560156 -0.23593913
000140 61 35 f3 bb 03 e4 a7 bd 3f 59 62 be 8f bf 8b 3d
       -0.0074221347 -0.08197787 -0.22104357 0.06823646
000150 56 f3 e0 bd e7 98 28 be b5 1c 3a bd 6e 6f 0d be
       -0.10983913 -0.16464578 -0.045437533 -0.13812038
000160 52 93 7b be c0 db 2c 3e 12 43 7c 3d b0 57 9f 3e
       -0.24567917 0.16880703 0.0615874 0.31121588
000170 58 db a4 be 13 70 86 be 49 1e 69 bd 61 f1 0c 3c
       -0.32198596 -0.2625738 -0.056913648 0.008602471
000180 2d 71 d8 bd c9 94 82 3e a7 4a 20 be bb 6a a7 3d
       -0.105684616 0.2550414 -0.15653478 0.08174654
000190 fd 1e 7c be ff 3f 00 be 18 2d 6a 3d 6b 35 5f be
       -0.24621196 -0.12524413 0.05717191 -0.21797721
0001a0 df 6c 25 3d d5 45 5a 3d 1c f2 f5 3c 49 7d 44 3e
       0.04038703 0.053289253 0.030022673 0.19188417
0001b0 18 89 4b be 2c 22 50 be 4e 22 0d bc a8 30 6e 3e
       -0.19876516 -0.20325536 -0.008614136 0.23260748
0001c0 87 eb 78 be 58 be 83 be 2b cf ab 3d a7 f0 55 bc
       -0.24308597 -0.25731158 0.083891235 -0.013057864
0001d0 26 e0 81 bd 3f ae 80 3e 25 94 3d be 32 b7 3e 3e
       -0.06341581 0.2513294 -0.18513544 0.18624571
0001e0 98 34 82 3e 92 b1 97 be 78 7d 33 3e 4b e7 6e 3e
       0.2543075 -0.29627663 0.17528331 0.23330419
0001f0 af 82 81 be ba 06 7a be 8d 2f 41 3e db f8 52 3e
       -0.25295016 -0.24416628 0.18865795 0.20602743
000200 f9 9b 0f 3e f8 0d d3 3b 3b 7b 8e 3e c3 dc 91 3d
       0.14024343 0.006440874 0.27828392 0.07122185
000210 28 7f 66 be ec 2f 51 be 0c f0 95 3e 8e 84 32 bc
       -0.22509444 -0.20428437 0.29284704 -0.010895861
000220 22 37 55 be 0e 61 2b 3b 55 aa b9 3a c4 d4 ba bd
       -0.20821813 0.0026150378 0.0014165143 -0.09122613
000230 c6 35 32 be 03 92 e7 3c 79 e1 42 bd 20 4d 04 3e
       -0.17403325 0.028267866 -0.04757831 0.12920046
000240 68 90 2e bd d3 1a 5b 3e df 27 9b be 14 4b 18 3e
       -0.042618185 0.21396951 -0.30303857 0.1487239
000250 c5 d4 fd bd e0 0a fd bd f4 5d 5c be 0c cf 5f be
       -0.12394098 -0.1235559 -0.21520215 -0.21856326
000260 30 d3 83 be 69 c8 ad bd e1 38 93 3e 81 cd 8d 3e
       -0.2574706 -0.08485491 0.28754333 0.2769585
000270 04 d6 c2 3c 6a b3 f0 3d 6c 5a a5 3d e0 c1 d6 3d
       0.023783691 0.117529705 0.08073887 0.104861975
000280 02 12 8e 3e ea 86 04 3e 3a e2 96 bd 53 da 7e be
       0.27748114 0.1294209 -0.07367368 -0.24887972
000290 27 8c cf bd b1 a8 e1 bd 64 6a f5 bd 23 ab 73 3e
       -0.10134154 -0.110185035 -0.11983183 0.23795752
0002a0 36 9d c6 3c e2 0d 57 bd 49 8f 0e 3d ca 19 38 be
       0.024244886 -0.052503474 0.034804616 -0.17978588
0002b0 2c 0c 10 be d4 50 85 be a8 ca 53 be 25 7e 75 be
       -0.14067143 -0.2603823 -0.20682776 -0.23973902
0002c0 ca 4a 11 be 24 3c 3e be 07 87 f8 bc fd 99 35 be
       -0.14188686 -0.1857763 -0.030337824 -0.17734523
0002d0 12 ab f9 3d 98 fb 1f 3d 0e bc bf 3d 28 d7 41 bd
       0.12190832 0.039058298 0.093620405 -0.04732433
0002e0 a5 bc 95 be be 1a 02 3e e0 43 0c 3e 05 9a 01 be
       -0.29245487 0.12705514 0.13697767 -0.1265641
0002f0 8d 29 88 bd a4 f3 0f 3e 9f 68 74 3e 0b bb a6 bd
       -0.0664855 0.14057785 0.23868035 -0.08141144
000300 40 2c cf 3d 51 92 2a 3e 54 41 ac 3d 34 7f 4d 3e
       0.10115862 0.16657378 0.08410898 0.20068055
000310 fa e9 cb 3c 20 83 51 3e d3 af c2 bd 34 47 95 be
       0.024891842 0.20460176 -0.09506192 -0.29155886
000320 78 ed 7e be 0e 1f 86 3e c5 66 9e 3e 84 9f 1d 3d
       -0.24895275 0.26195568 0.30937782 0.038482204
000330 59 26 2f be 16 b7 7e 3e fe 7a c4 bd 22 9e ee 3c
       -0.17104472 0.24874529 -0.095937714 0.029128138
000340 6c b8 4b be cb b0 12 3e 64 bb ad bd e2 7d 17 3b
       -0.1989457 0.14325254 -0.084830076 0.0023115803
000350 0c 95 24 3e 34 26 57 be 43 0b 4a be 34 99 4c 3d
       0.16072482 -0.21010667 -0.19730859 0.049950793
000360 96 7f 4c 3d 55 19 94 3e 79 b3 8c bc 0c ca 5b be
       0.049926363 0.28925577 -0.017175423 -0.21463794
000370 0b 3b 17 bd cb 23 9c be 1e a1 53 be cf 24 43 bd
       -0.036921542 -0.30496058 -0.2066693 -0.047642525
000380 6a 48 33 be 1b ca d6 bd 9d 5a 7c ba 05 a5 4d bc
       -0.17508093 -0.10487767 -0.00096265395 -0.012551551
000390 e9 c0 8f bd 38 1b 80 be 4a c7 35 be 13 78 3f be
       -0.070192166 -0.25020766 -0.17751804 -0.18698148
0003a0 05 9b 51 be 86 f0 d3 bd 16 30 20 be 0d 9e 66 3e
       -0.20469292 -0.103486106 -0.15643343 0.22521229
0003b0 6d 3b 85 3e 0c 36 06 bc fd dd 73 3d 66 34 9d 3e
       0.260219 -0.008191597 0.059537876 0.3070404
0003c0 3c 91 2b 3e 94 9b ef 3d e8 f7 2e be 8d 0c 8d be
       0.16754621 0.11699596 -0.17086756 -0.27548638
0003d0 b1 9e c3 bd d6 d6 3e be 5b 01 64 be 3a 30 27 be
       -0.09551752 -0.18636641 -0.22266142 -0.1632699
0003e0 12 fe f7 bd 35 f9 37 3e 6b cf 26 3e a4 e1 ff bd
       -0.12109007 0.17966159 0.16290061 -0.124942094
0003f0 89 32 32 3c 25 ac 03 3d f5 9b 69 3e 52 b6 6f 3e
       0.010876306 0.03214659 0.22813399 0.23409393

net.0.bias f4 [64]
000000 b9 4a 9d 3c 61 ec b4 bc f3 1b 92 bb e2 e9 f6 3c
       0.01920067 -0.02208537 -0.004458898 0.03014082
000010 28 ae 4f 3d db 2e 22 3d 7a 46 26 3d c0 cf 4a ba
       0.050703198 0.039595466 0.040594555 -0.00077366456
000020 aa f2 fd 3b 6b f7 56 bc cf 83 95 bc 97 96 83 3d
       0.007749875 -0.0131205125 -0.018251328 0.06425207
000030 c4 92 4d ba b5 3d 0b 3c ec 44 48 3d ca 58 5c 3d
       -0.0007841999 0.008498599 0.048893854 0.053795613
000040 a9 65 1d 3c 92 8c 8d bc 97 1d 23 3c ba d8 16 bc
       0.009606757 -0.017278943 0.009955785 -0.009206945
000050 97 0b 6a 3d cc 73 24 3d 38 07 81 3d ac 4d 4e 3d
       0.05713996 0.040149495 0.06300205 0.050367042
000060 37 67 58 3d cf 41 34 3d 64 66 28 3d cf 5e 99 3d
       0.05283281 0.044008072 0.041113272 0.074887864
000070 99 51 25 bd 01 17 83 bc 2e cd 38 3d d4 ab 84 3c
       -0.04036102 -0.01600218 0.04511755 0.016195215
000080 11 51 1f bd e6 1c 12 3d c1 5f 7e 3d 06 82 9a 3b
       -0.03889567 0.03567209 0.062103037 0.004715207
000090 a9 24 91 bc 41 12 56 3d 89 60 b2 bc 45 b3 89 bb
       -0.017717676 0.052263502 -0.021774547 -0.004202279
0000a0 1f 15 39 3d 84 c3 ec 3b 83 3c 71 3c c6 2a 6c 3d
       0.04518616 0.0072254557 0.0147239 0.05765798
0000b0 b5 86 84 3d b9 0f 49 3a b8 14 8d bc 40 af a0 bc
       0.06471006 0.00076698844 -0.017221794 -0.019614816
0000c0 40 c8 c6 b8 cd d1 01 3d a4 92 e8 3c de 02 d9 bc
       -9.478675e-05 0.031694222 0.028390236 -0.026490625
0000d0 89 d4 83 bc 79 b5 22 bd 93 66 a9 3c fd ea 44 3d
       -0.016092556 -0.039723847 0.020678794 0.048075665
0000e0 e4 93 71 3d 06 aa 15 bc c7 b4 40 3d 50 a1 fa 3c
       0.05897893 -0.009134775 0.047047403 0.030594498
0000f0 3a 3d 08 bc 11 7d 16 3b 41 19 99 bb af 5c 50 3d
       -0.008315379 0.002296273 -0.0046722 0.05086964

net.3.weight f4 [64, 64]
000000 43 e3 cb bd ec cd 03 3e 5a f4 0d be ec 44 6f 3e
       -0.09955456 0.12871522 -0.13862744 0.23366135
000010 bb ee bd bd 8f 42 fa 3d 93 40 f8 3b d1 44 db bd
       -0.0927405 0.12219726 0.007576057 -0.10706485
000020 53 92 0a 3e 83 16 22 bd e4 5a 10 be a6 61 06 3e
       0.13532381 -0.03957225 -0.14097172 0.13123187
000030 51 f5 cf bd 07 e1 34 3e bf 87 05 3e 91 23 53 3e
       -0.10154212 0.17663966 0.13040064 0.20619036
000040 82 65 2f be 6d 43 0f 3e 5f db ff bd 3a a0 57 bd
       -0.17128566 0.13990565 -0.124930136 -0.05264304
000050 af 4a b5 3c 5e 7a 56 3e 17 31 dd 3d 84 94 9f bc
       0.022130338 0.20945117 0.10800379 -0.019479997
000060 9e 0c 55 3e 2e 4b 57 3e 60 0c 04 be 06 97 97 bd
       0.20805594 0.21024773 -0.12895346 -0.07401852
000070 1f de 00 3e 59 44 05 be b0 3f 3a 3e d6 66 60 3d
       0.12584732 -0.13014354 0.18188357 0.054785572
000080 39 ea 1c 3e 57 33 3d 3e c8 b7 54 3e 3a 91 94 3d
       0.15323724 0.18476616 0.20773232 0.07254262
000090 a4 b0 05 3e 0c 95 8a bc 49 cb 36 3e 56 09 9f 3d
       0.13055664 -0.016916774 0.17850985 0.077654526
0000a0 47 f1 6b 3e 8d 7e 77 bd 89 40 29 be 60 0a 09 3e
       0.23041259 -0.060423423 -0.16528524 0.13382864
0000b0 b3 62 64 bd e6 87 26 3d 7e be 32 bd ec 58 bd bd
       -0.05575819 0.040656947 -0.0436387 -0.09245476
0000c0 fa 8b e4 3d 2d df ee bd b8 b6 36 3c 72 79 ed 3d
       0.11159511 -0.11663661 0.011151962 0.115954295
0000d0 73 c9 9f 3d 34 7a 1c be d1 e0 d2 3d 94 09 41 3d
       0.07802095 -0.15280992 0.102967866 0.047128275
0000e0 f9 c7 23 3e 4b de 57 3d 7a 83 51 bd a2 6e fa bd
       0.15994252 0.05270223 -0.051150776 -0.12228133
0000f0 08 81 f9 bd 0a ca 83 bc 19 82 93 bc ed e0 a5 3d
       -0.12182814 -0.01608755 -0.018006371 0.08099542
000100 6d 07 1d 3e e7 8c 38 be d9 fe a3 3d dd 03 39 be
       0.15334864 -0.180225 0.08007593 -0.1806788
000110 0f df 1b 3e 61 62 20 be 8a 62 48 be 84 c5 2a 3e
       0.15221809 -0.15662529 -0.1956884 0.16676909
000120 14 0d 13 3e 14 16 81 bd 72 f4 50 3e 14 49 e8 3c
       0.14360458 -0.06303039 0.20405748 0.028355159
000130 4c 1f e9 3d f9 b9 8f 3d 94 88 1a be e7 bf 72 3d
       0.113829225 0.07017893 -0.15091163 0.059265044
000140 f7 5e c7 3d 24 6f 73 bd af af 1d 3d 1e 3e 5e 3e
       0.0973491 -0.059432164 0.038497623 0.21703383
000150 58 45 e6 3d cf e3 3b 3e ee 70 00 3e a2 11 96 39
       0.11243695 0.18348621 0.1254308 0.00028623367
000160 7f 95 a1 3d 1b 15 d7 bd 61 c6 ba 3d 92 41 8a bd
       0.07889842 -0.105020724 0.09119869 -0.06750788
000170 e4 91 a6 bd 18 26 f3 ba fc 45 c7 bd 5c 82 bf bd
       -0.08133295 -0.0018550782 -0.09730145 -0.09351036
000180 4b 7b 05 be d0 92 12 3e 92 ff 00 3e f0 43 63 be
       -0.13035314 0.14313817 0.12597492 -0.22193885
000190 cb c1 9e bc 6c 8b c0 bb 3a 34 22 bd ae 02 e6 3d
       -0.019379517 -0.0058759954 -0.03960059 0.1123098
0001a0 73 04 84 bd 2e 76 e4 bd 3a 2a a7 bd 36 96 8f 3c
       -0.06446161 -0.111553535 -0.08162351 0.01752768
0001b0 2d 05 a3 3c 34 aa 12 be 20 63 a1 3d b8 58 62 bd
       0.019899929 -0.1432274 0.07880235 -0.05526039
0001c0 41 54 ac 3d ed b7 49 3e 6a b8 5d 3e 6a 44 17 bc
       0.08414508 0.19699068 0.2165238 -0.00923262
0001d0 fe 73 56 3e 94 27 c4 3d a6 c5 d1 bd 6b 0e 40 be
       0.20942685 0.095778614 -0.102427766 -0.187555
0001e0 0c 3d d1 bd 67 43 b8 3c f8 dc 5d be a9 c0 49 3e
       -0.10216722 0.022493077 -0.21666324 0.197024
0001f0 02 7e 2e be 9e d4 5f bc 79 57 e3 3d 7e 38 54 3e
       -0.17040256 -0.013661532 0.111006685 0.20724675
000200 1a 62 4a 3e d7 fa 97 3b ec ce eb 3b 49 8f f4 bd
       0.19763985 0.0046380567 0.007196298 -0.11941392
000210 3c 2c bc bb 18 fb d0 bd a1 d6 14 3e 55 5f b6 3d
       -0.005742578 -0.10204142 0.14535 0.08904902
000220 5e 80 b9 3d 36 31 0e bc 7f 03 18 be e1 b7 21 be
       0.09057687 -0.008678725 -0.14845084 -0.157928
000230 5b 3e 19 be ea 5f d4 3d 11 d4 bc bd 66 08 aa bd
       -0.14965193 0.10369857 -0.09220136 -0.08302383
000240 a5 1a 7b 3c e6 9c 41 3e 7c d1 4a be c2 3d 02 be
       0.015326177 0.18907508 -0.19806474 -0.12718871
000250 e2 f1 ab 3d bc ed 3e 3d 03 03 01 be 72 ac 20 3e
       0.08395745 0.04661344 -0.12598805 0.15690783
000260 c5 0d 53 3e 12 eb 04 be 5e 69 25 be 79 e7 fc 3d
       0.20610721 -0.12980297 -0.16153476 0.123488374
000270 bb 95 ac bc 34 2e c4 3d 9d 04 dc bc 2c be ad 3d
       -0.02106749 0.09579125 -0.026857669 0.08483538
000280 9b ca 4d be e5 dd 2b 3e 0e 6d 29 3d 19 15 d9 3d
       -0.20096819 0.16783865 0.04136377 0.10599727
000290 99 16 43 be 45 d2 b2 bd a7 26 3a 3e 8b 29 98 3d
       -0.19051589 -0.08731512 0.18178807 0.07429799
0002a0 71 f9 82 3d 4b a5 04 be 97 35 99 3d f6 fb 00 3e
       0.063952334 -0.1295368 0.074809246 0.12596115
0002b0 59 4e 2c b9 6d 77 a8 3d 4f c0 27 be 19 4e 02 3e
       -0.00016432385 0.08225904 -0.16381954 0.12725104
0002c0 ac a4 e1 3d 1b 72 19 3e 68 b9 48 3e a5 ae 52 be
       0.11017737 0.14984934 0.19601977 -0.20574434
0002d0 67 a1 b9 bd c3 b8 1f 3e 0a 82 5a 3e a8 b0 d5 3c
       -0.09063988 0.15597825 0.21338668 0.026085213
0002e0 08 61 2a be 9c 3f 1d 3e fa fe 87 3d 85 d0 45 be
       -0.16638577 0.15356296 0.0664043 -0.19317825
0002f0 8f 77 36 3e e8 a1 c0 bd a5 3e 3e be 10 83 7a bd
       0.17819045 -0.09405881 -0.18578584 -0.061160147
000300 e8 15 a3 bd fc 29 04 bd 24 2a 60 bd a6 f9 81 3d
       -0.07963163 -0.032266602 -0.05472769 0.06346445
000310 82 80 0b be b2 c0 ff bd 44 62 c7 bd 5d 77 56 3e
       -0.1362324 -0.124879256 -0.097355396 0.20943971
000320 10 ff b6 bc 42 4e 90 3d 25 af 26 3e 78 97 f9 bc
       -0.02233842 0.070461765 0.1627775 -0.030467734
000330 ce 16 24 be a8 fa c9 bd c0 dc fd bb 57 6b 52 be
       -0.16024324 -0.09862262 -0.0077472627 -0.2054876
000340 84 78 7d 3d 86 1f a8 3d 28 5c 1e be 54 42 71 3d
       0.06188251 0.082091376 -0.15464842 0.058901146
000350 b2 30 fd 3d f6 dd a6 bd e2 d2 50 be 68 a3 d3 3c
       0.123628035 -0.081478044 -0.20392945 0.025834754
000360 fd fb da bd de 93 aa bd 50 48 1a be 44 dd 47 3d
       -0.10692594 -0.08328985 -0.15066648 0.048795
000370 a5 e7 4b 3e f6 76 eb 3d 30 32 13 3c 20 73 32 be
       0.19912584 0.114972994 0.008984134 -0.17426729
000380 8c 24 76 bd a2 d6 9d 3d 37 62 41 3e 35 a7 58 3e
       -0.060093448 0.077069536 0.18885122 0.21157534
000390 02 64 81 bd 96 9a 49 be 35 48 2a be d8 57 00 3d
       -0.06317903 -0.19687876 -0.16629107 0.031333774
0003a0 da c4 17 be 4c 27 78 3d a3 fd 26 3e 69 0d 19 be
       -0.14821187 0.06058435 0.16307692 -0.14946522
0003b0 42 c9 aa 3d c9 3b 0f be bc d7 31 bd 34 37 97 bd
       0.08339168 -0.1398765 -0.04341863 -0.07383576
0003c0 aa 62 82 bd 34 e9 4a be 90 1a 48 3c c8 56 d4 3c
       -0.06366475 -0.19815522 0.012213364 0.025920287
0003d0 ca 94 d7 3d 97 5f 50 be 08 a3 b0 3c 18 f6 ff bc
       0.10526426 -0.20348965 0.021562114 -0.031245276
0003e0 af 9c 5b be 44 93 4e 3d 4a cf b2 3d 04 2e b1 bd
       -0.21446489 0.050433412 0.087309435 -0.08651355
0003f0 1e 54 9b 3d f8 b3 1e be 3d 1c 1a 3e 28 01 d9 3c
       0.075844035 -0.1549834 0.15049835 0.02648981

net.3.bias f4 [64]
000000 1d 72 67 3d 2f 0f 1b 3c e2 f2 a5 bc 00 00 00 00
       0.05650531 0.009464069 -0.020257417 0.0
000010 43 df 89 3d 24 5d 5d 3c a2 7e 32 bc 88 45 da 3b
       0.06732037 0.013510976 -0.010894449 0.006661121
000020 fd ac 91 bc 53 6f 75 bc 57 1d f9 bc 26 06 09 3d
       -0.017782683 -0.014980155 -0.030409498 0.03345313
000030 1e e2 8c 3c 8a fe 22 bc b0 93 8b 3d f3 10 26 bb
       0.017197665 -0.009948382 0.068152785 -0.0025339692
000040 78 04 9a bc 16 25 75 bb 2b bb be bb 3c 69 d5 ba
       -0.018800959 -0.0037406138 -0.005820652 -0.0016281973
000050 96 64 f6 bc 83 6a 51 bb ca 40 93 3d 51 11 4b 3d
       -0.03007726 -0.0031954355 0.07190092 0.04957706
000060 1e 31 95 3d 04 53 a7 3c bb b8 2b 3b cd 6c 70 bc
       0.07284759 0.020425327 0.0026202637 -0.014674378
000070 86 4e 62 3d d0 ca 26 bc aa 9a 7d 3d d4 ad 41 bc
       0.055250667 -0.01018019 0.061915077 -0.011821229
000080 f7 b7 6c 3d 19 17 8d bc 95 65 8b 3d 52 2c 52 bb
       0.05779263 -0.017222928 0.068064846 -0.0032069874
000090 b7 a2 0f 3b 95 e4 00 3d 01 7c 2b bb ae 45 ba 38
       0.0021917054 0.031467993 -0.0026166441 8.88215e-05
0000a0 38 05 01 ba 7d 5f 66 bb 0d d9 a0 bc 46 4d 8b bc
       -0.0004921737 -0.003515213 -0.019634748 -0.01700462
0000b0 1b e3 d6 3c 10 6a e8 3c 38 fe 01 bd e6 fe 82 3d
       0.02623134 0.028370887 -0.031736583 0.06396274
0000c0 9f 2e 28 bc a0 60 07 bc 79 c6 c1 39 c2 21 e2 bc
       -0.010265022 -0.008262783 0.00036959702 -0.027603988
0000d0 d1 ee 0e 3d 9b b9 b7 bb 28 4d a8 3c 33 a0 c1 bc
       0.03489572 -0.0056068427 0.020544603 -0.02363596
0000e0 10 79 88 3d c0 f9 c9 3b db 11 6c 3d fa 72 97 bc
       0.06663716 0.0061638057 0.057634216 -0.018487442
0000f0 3b d0 9b 3d 8b 7f b7 3c 99 cf e2 3c 61 3f fd 3b
       0.07608076 0.022399684 0.02768688 0.0077285026

net.6.weight f4 [2, 64]
000000 7c 9b 98 3e b0 c3 32 3e d4 ec f9 3d 4c 23 58 3e
       0.29806125 0.17457461 0.122033745 0.21107215
000010 50 e9 53 3e ed a6 0b 3e 24 31 84 3e 61 d1 9a 3e
       0.2069447 0.13637896 0.2581874 0.30237868
000020 c1 6a 3e be 68 37 6f be be c6 7b 3b 63 d6 6c 3e
       -0.18595411 -0.2336098 0.003841802 0.23128657
000030 4a cb 64 3e 39 3d 66 be d3 86 ae 3e 46 ae 15 3d
       0.22343174 -0.22484292 0.34087238 0.036543153
000040 28 1b 86 be 61 07 4a be f9 49 84 bc a0 bd 28 be
       -0.26192594 -0.19729377 -0.016148554 -0.16478586
000050 14 6a 9c bd 2c 69 0c be 5a 44 9c 3e 1e 57 cf 3c
       -0.0763742 -0.13711995 0.30520898 0.025310095
000060 b6 ad 75 3e 50 0d 76 bd 14 c4 a5 3e 2f 75 8a bd
       0.23992047 -0.06007129 0.32376158 -0.06760632
000070 93 5b b5 3e b2 85 25 3d ee 83 72 3d ac c4 49 be
       0.35421428 0.040410705 0.05920785 -0.1970393
000080 da 93 d2 3d 16 16 b0 3b 81 8a d6 3d 35 0f 58 3d
       0.10282107 0.0053737266 0.10475636 0.052748878
000090 25 00 1f 3e 18 7c ac 3e 17 3a 18 3e 31 ed 24 be
       0.15527399 0.33688426 0.1486591 -0.16106106
0000a0 c1 62 84 3e 1e 5f 5a 3e 92 c4 93 be b8 47 3e be
       0.25856593 0.21325347 -0.2886091 -0.18582046
0000b0 db d2 87 bd aa 0e ba 3a 22 da 2b 3d 37 f3 70 3e
       -0.06632014 0.0014195044 0.041956075 0.23530279
0000c0 20 b7 87 be 71 83 8b be 8b 71 8f be 58 30 85 bd
       -0.265069 -0.2724872 -0.28016314 -0.065033615
0000d0 b8 34 74 bc c8 32 46 bd d3 72 90 3e 8f cf 84 be
       -0.014905147 -0.048388273 0.28212604 -0.25939605
0000e0 de d2 b2 3e 92 92 60 be 71 e1 a6 3d ae 2c 7e be
       0.34926504 -0.21930912 0.08148468 -0.24821731
0000f0 3e 82 22 3e 89 35 82 bc 49 3d e7 3c 24 8c 07 3e
       0.15869996 -0.015894668 0.028227465 0.13237053
000100 57 4b 86 3d ea d6 16 be 71 21 71 be 0b f5 17 be
       0.06557339 -0.1473042 -0.23547913 -0.1483957
000110 a9 a9 39 3e 3b f4 e0 bd e0 0c 73 be f7 96 44 be
       0.18131126 -0.10984083 -0.2373538 -0.19198214
000120 fc 14 64 be 9a 6e 8a be 6a eb da bc ed f4 aa bc
       -0.2227363 -0.27037507 -0.026723582 -0.020868743
000130 c1 7f 8c be db bb 53 3e 6b fa 38 3e 7a d4 04 be
       -0.27441218 0.2067713 0.18064277 -0.12971678
000140 07 a2 3e bd cc c0 6e be ce bb a4 bd 61 81 11 3e
       -0.04654124 -0.23315734 -0.080436334 0.1420951
000150 cd 22 ac bd c7 c9 1b 3e d5 5a 4e 3e 32 ad 80 3e
       -0.08405075 0.1521369 0.20151837 0.25132138
000160 f1 8d 52 3e df 78 7d 3e 6f 82 7b be 71 50 b2 bd
       0.20561959 0.2475314 -0.24561475 -0.08706749
000170 09 c2 9f 3d 64 97 72 be 7f 84 07 3e ad d2 37 3e
       0.07800681 -0.23690563 0.13234137 0.1795146
000180 33 f5 99 3e f8 41 6a bd ee cc 5a 3e cf 44 69 be
       0.30069885 -0.05719182 0.21367237 -0.22780155
000190 d5 77 d6 bd a1 e4 b0 bd d8 02 80 be 24 f0 24 3e
       -0.10472075 -0.086373575 -0.2500217 0.16107231
0001a0 21 da 90 be a9 a6 ff bd c7 d6 09 be b5 ad 7f be
       -0.2829142 -0.1248296 -0.13460837 -0.24968608
0001b0 43 6a a1 3e 82 bd 82 3e b1 b5 43 be be cf c7 3d
       0.31526384 0.25535208 -0.19112279 0.097564206
0001c0 66 c8 3f bd d9 77 5e be 2a 41 8a 3e 7f b5 35 3d
       -0.046821974 -0.21725406 0.2700284 0.04436254
0001d0 76 f8 88 3e 1e 53 90 be 71 69 eb bd 4e 84 81 bd
       0.2675206 -0.28188413 -0.11494721 -0.06324063
0001e0 8f d9 8a 3e c5 15 91 3e 8c 73 9f 3e a7 2a 19 be
       0.2711911 0.2833692 0.31142843 -0.14957677
0001f0 41 39 05 3e 74 73 f9 3d 98 9e 1d 3e c5 64 0a 3e
       0.13010122 0.12180224 0.1539253 0.13515003

net.6.bias f4 [2]
000000 2c 66 5a 3d d0 0a 53 3d
       0.053320095 0.051523983

exp_avg f4 [64, 4]
000000 e7 60 99 3b d6 aa 17 bc 45 70 60 bb f7 8e 24 3c
       0.004680741 -0.009257039 -0.0034246605 0.010043851
000010 18 c3 dc b9 68 60 18 bb a1 90 76 39 3e 6e 5e 3b
       -0.00042107026 -0.0023250822 0.00023514267 0.0033940221
000020 a1 ff 49 3b c6 5f 52 bc c3 b4 c6 bb 18 01 c9 bb
       0.0030822533 -0.012840217 -0.006064029 -0.0061341636
000030 7c cb 17 3c 32 55 8b bc 60 d8 4e bc 88 89 87 bc
       0.009264823 -0.017008398 -0.01262483 -0.016545072
000040 f1 a4 6c 3c cf 4c 70 3b f5 8c 6e bc 43 23 31 bd
       0.014443622 0.0036666875 -0.014559974 -0.04324652
000050 be 31 5e 3c c6 68 44 bd 70 92 80 bc 0f 5f d9 3c
       0.013561664 -0.047951482 -0.015694827 0.026534585
000060 9a 78 65 3c ab 31 94 bc 9b 37 9c bc 7c 3f 1d bd
       0.014005804 -0.01809009 -0.019069484 -0.03839062
000070 9b 29 b9 39 5c cb 5e bc b6 19 06 bb 74 59 1c 3c
       0.00035316948 -0.013598289 -0.0020462102 0.009542812
000080 c1 4d 3a 3b 95 de 65 bc 15 38 ad bb 9d 82 a5 b9
       0.0028427693 -0.0140301185 -0.0052862265 -0.00031568567
000090 ea 8b b6 ba 70 9f f8 3b 40 6e a5 39 f9 5a 6d bc
       -0.0013927196 0.007587366 0.00031553395 -0.014487022
0000a0 bd fe 41 bb 9d 1c ef 3b 40 49 a8 3b b2 0d 13 3c
       -0.0029601299 0.007297112 0.005135685 0.008975433
0000b0 76 d7 09 3d 9c 31 1d bd 0b 0e 27 bd 8a ec 8b bd
       0.033652745 -0.03837739 -0.040784877 -0.068322256
0000c0 8c e6 e4 b8 6c b0 5c 3b 39 cf 2b 3a 81 10 6a ba
       -0.0001091483 0.0033674492 0.0006554011 -0.0008928851
0000d0 d5 44 ee 3b ee 05 43 bc 03 35 36 bc 72 8d c9 bc
       0.007271389 -0.011903269 -0.011121037 -0.02460358
0000e0 e9 f9 9f 3c 1b e3 28 bc e7 28 c5 bc cc 70 77 bd
       0.019528346 -0.010308052 -0.024067355 -0.060410306
0000f0 c5 17 d7 3c cd e1 35 bd 63 ce 00 bd ad fc ee bc
       0.026256451 -0.044404794 -0.031446826 -0.02917322
000100 07 3d 0b 3c 28 3e ac b9 13 14 1b bc 20 23 dd bc
       0.008498437 -0.00032852706 -0.009465235 -0.026994288
000110 d1 d4 1b bb 9c 45 04 3c 68 c1 f2 3a 23 e5 1a bc
       -0.0023777972 0.008073237 0.0018520774 -0.0094540445
000120 79 02 5f 3b d4 3a ed ba 32 1d b8 bb 71 c3 9b bc
       0.0034028573 -0.0018099197 -0.0056187147 -0.019014092
000130 cd 65 da 3a 1b 0b a4 bb 7c 46 b1 ba f8 b9 b0 3b
       0.0016662419 -0.0050062067 -0.0013525034 0.005393263
000140 07 91 a8 3c ff 4a eb b9 8a fb bd bc 4b b6 88 bd
       0.020576967 -0.0004487857 -0.023191232 -0.066753946
000150 4d 7d 40 3c 17 b0 65 3c f7 97 08 bc 9f f2 00 bd
       0.011748624 0.014019034 -0.0083370125 -0.03148138
000160 b9 5d 16 3d 43 80 87 bd 6c 8b 3d bd 5e 26 38 bd
       0.036710475 -0.06616261 -0.04627554 -0.044958465
000170 24 0d ab 3c 94 c7 a5 bb 3d 4f 93 bc 1d ba dc bc
       0.02088029 -0.005059192 -0.01798212 -0.026944214
000180 3a 0d 25 3d c4 d8 91 bd a1 6d 68 bd 56 cf bb bd
       0.040295817 -0.07121423 -0.056745175 -0.091704056
000190 16 18 59 3c 99 e5 a4 3a bd b4 2c bc 6c c7 a6 bc
       0.013250371 0.0012580632 -0.010541138 -0.020358764
0001a0 ff 81 c4 3c 11 27 0a bc 11 4c 03 bd af 21 bc bd
       0.023987768 -0.008432166 -0.032054964 -0.09186112
0001b0 b9 7a 23 3d 33 df af bc 4a 5a 3d bd f0 3a d4 bd
       0.03991196 -0.021468734 -0.046228684 -0.10362804
0001c0 00 1c fd ba 59 ef 81 bb 49 83 c9 3a a3 76 04 3c
       -0.0019310713 -0.0039653 0.0015374209 0.008084926
0001d0 bb e3 5e bb 3b f9 97 3c 9b bc e2 3b c7 37 be 3a
       -0.003401025 0.01855146 0.006919456 0.0014512473
0001e0 8a 1b bc 3c 15 28 a3 3a 36 9e f1 bc 6e ee c6 bd
       0.02296235 0.0012447858 -0.029494386 -0.097134456
0001f0 50 6a fa 3b 7e 69 dc bb b5 e8 43 bc 8e d7 0b bd
       0.007642068 -0.006726443 -0.011957337 -0.034141116
000200 4c 07 ab bb 54 a8 98 3c d1 c2 23 3c 50 29 52 3c
       -0.0052193757 0.018634953 0.009995178 0.0128272325
000210 22 fd 29 3d 02 69 48 bd 28 f2 2c bd 8d 0f 0e bd
       0.041501172 -0.04892827 -0.042223126 -0.0346828
000220 e0 f5 13 3d 30 13 73 bd 5f 1c 3f bd f3 5f 82 bd
       0.036123157 -0.05934447 -0.046657916 -0.06365957
000230 a0 26 ae b9 60 db 04 3d bc 1d 4a 3b c7 7c 00 bd
       -0.00033216644 0.032435775 0.0030840477 -0.031368997
000240 9c 0c cb bb 76 53 ba 3c 78 84 31 3c 8a 22 09 3c
       -0.0061965715 0.022744875 0.010834806 0.008370051
000250 b8 0b ad 3c 40 f0 46 bc 28 6b 7d bc 94 59 07 bb
       0.021123752 -0.012142241 -0.015467443 -0.0020652758
000260 2b 4b 8d 3a c9 24 b7 3a 74 b9 e2 ba 01 4f 1e bc
       0.0010779848 0.0013972755 -0.0017297701 -0.009662391
000270 3e ec f8 3a 79 34 19 3b d0 00 f1 39 ff ce 84 3b
       0.0018991304 0.0023377223 0.00045967707 0.004052996
000280 22 11 50 3c 2f 0b 3f bd e2 c2 95 bc c2 06 e3 3b
       0.012699397 -0.046641525 -0.018281404 0.006928296
000290 c5 06 da 3a 85 f7 9b bb c6 3f a6 bb 4d 85 79 bc
       0.0016634098 -0.0047597312 -0.0050735204 -0.015229535
0002a0 22 f7 5f 3b 75 b2 ed bb cc 5f 29 bb 42 aa ff 3b
       0.0034174402 -0.0072539398 -0.0025844453 0.0078022787
0002b0 5e 94 ad 3c 0b 6f 01 bc 18 20 7e bc ad 5a fc bb
       0.021188911 -0.00790001 -0.015510581 -0.007701239
0002c0 17 12 fe 3c 79 5e 78 bc ab eb c4 bc 3b 99 7f bc
       0.031014485 -0.015159243 -0.024038156 -0.015600498
0002d0 93 6f 6d 3b bc ec 63 bc 10 0d b7 bb 02 6f 8f 39
       0.0036229833 -0.013911422 -0.005586274 0.00027357793
0002e0 23 fb c6 3a e3 79 aa bb 3d 34 99 ba b0 0e cc 3b
       0.0015181046 -0.0052025183 -0.0011688542 0.006227337
0002f0 44 73 c2 b9 44 b0 2d bb 5b f3 01 ba e1 2a d5 b9
       -0.00037088443 -0.0026502768 -0.0004957222 -0.00040658473
000300 f7 a2 0e 3c fb 9b 12 bc 27 ee 2a bc 29 ec 9f bc
       0.008705846 -0.008948321 -0.0104327565 -0.01952179
000310 15 5a 6f 3c ab 29 52 bd 5f d3 9f bc 90 37 50 3c
       0.01460888 -0.05130927 -0.01950997 0.01270856
000320 9a 27 cc 3c 46 69 22 bd e4 17 e9 bc aa 9f d3 bc
       0.024921227 -0.039651178 -0.028453775 -0.02583297
000330 8b 13 1e bc cc 4e 0b 3d 36 fd 5c 3c 69 bd 9f bb
       -0.009648214 0.034010693 0.013488105 -0.0048748744
000340 9b 44 0d bb d3 3e 3b 3c 09 fc 6c 3b 8f 68 52 bb
       -0.0021555785 0.011428553 0.0036160967 -0.0032105779
000350 ea 5e b0 ba a7 d4 f0 bb a6 45 3e 3a 47 ef 2e 3c
       -0.0013456021 -0.007349569 0.0007258303 0.010677165
000360 77 16 af 3b 44 b7 b8 bc 07 28 0b bc b2 25 1d 3b
       0.005343254 -0.022548325 -0.00849343 0.0023978767
000370 6a ba 82 3c 44 bb 29 3c d7 65 46 bc 22 af 03 bd
       0.01595803 0.010359589 -0.012109241 -0.03214944
000380 f4 c8 e8 3c d3 76 1a bd 86 ef 16 bd 2b df 82 bd
       0.028416134 -0.037710976 -0.03684952 -0.06390222
000390 53 8b 0b 37 1b ee 27 39 75 b0 ca b5 cf 48 56 b9
       8.317485e-06 0.00016015062 -1.5101529e-06 -0.00020435754
0003a0 e3 57 c9 3c 96 dc a6 bc 98 62 08 bd a1 b3 a6 bd
       0.02457804 -0.020368855 -0.03329715 -0.0813973
0003b0 5c 5f 61 3c e7 f9 ef 3b ea 2e 6d bc 83 d1 4f bd
       0.013755646 0.007323492 -0.014476517 -0.050736915
0003c0 77 81 66 3a 5f 14 9d bb 24 69 c2 ba 32 22 9b 3a
       0.00087930955 -0.004793688 -0.001483236 0.0011835753
0003d0 b9 d4 90 b9 5f a0 bb 3a 27 0e 7a 39 89 86 e8 ba
       -0.0002762431 0.0014314762 0.0002384713 -0.001774029
0003e0 43 0e b5 3a 13 07 1b bc f9 42 03 bb 28 60 f7 3b
       0.0013813454 -0.009462136 -0.0020028932 0.0075493045
0003f0 58 6a dd 3c f8 52 70 bd 48 f8 14 bd 5f bc 0a bd
       0.027028248 -0.058672875 -0.036369592 -0.03387105

exp_avg_sq f4 [64, 4]
000000 68 b3 ca 36 84 da 90 38 b2 ec 7c 36 be 41 bc 38
       6.0409548e-06 6.907157e-05 3.76887e-06 8.976784e-05
000010 21 a9 55 37 5b e1 fc 39 a2 e4 4d 37 59 05 76 3a
       1.2735168e-05 0.00048233088 1.2272185e-05 0.0009384952
000020 2c a1 25 37 49 f2 9b 38 0a 3c a0 37 ab 47 e9 38
       9.872292e-06 7.436105e-05 1.9101444e-05 0.00011123655
000030 51 be 32 37 85 36 9b 39 07 cf b7 37 ea 50 11 3a
       1.0653938e-05 0.00029604524 2.1911705e-05 0.0005543368
000040 98 af 8a 38 9f 53 38 3a b5 35 88 38 63 72 87 3a
       6.61306e-05 0.00070315035 6.494989e-05 0.0010333773
000050 57 4a 5b 38 8c ce 04 3a fd 04 a1 38 38 66 0e 3a
       5.2282903e-05 0.0005066178 7.6780074e-05 0.0005432102
000060 2a 12 52 38 40 77 13 3a 3b 99 82 38 14 63 08 3a
       5.008482e-05 0.00056253746 6.2274245e-05 0.0005202752
000070 ab 65 c9 37 15 2f 9f 3a 03 ae 90 38 96 5c 60 3b
       2.400841e-05 0.0012144769 6.898867e-05 0.0034234873
000080 2a 02 2b 37 7c 65 37 39 4e 34 b6 37 94 08 90 39
       1.0192898e-05 0.00017490046 2.1720447e-05 0.00027472212
000090 57 75 9d 37 af 81 57 39 85 cd 3c 38 f4 18 8f 39
       1.8770499e-05 0.00020552309 4.5014098e-05 0.00027293677
0000a0 6d 09 58 37 6c 68 45 39 8e e9 c2 37 89 45 ff 39
       1.2876798e-05 0.00018826284 2.323536e-05 0.00048689198
0000b0 78 67 d8 38 ea 76 66 3a ed 49 31 39 d8 36 91 3a
       0.00010318955 0.0008791523 0.00016907575 0.0011078967
0000c0 c8 85 78 37 c5 a2 af 39 c7 b7 49 37 95 00 d8 39
       1.48131e-05 0.00033499874 1.2023323e-05 0.00041199164
0000d0 f8 fe 01 37 fc 2c 4e 39 68 3c d1 37 87 08 93 39
       7.748364e-06 0.00019662449 2.494287e-05 0.00028044378
0000e0 9f 84 81 38 00 86 3b 3a 73 bb af 38 19 d4 92 3a
       6.175902e-05 0.00071534514 8.3795654e-05 0.0011202126
0000f0 14 c4 c4 38 47 4d f1 39 ec 2b 12 39 18 48 18 3a
       9.382531e-05 0.00046024678 0.00013940007 0.00058090826
000100 04 67 78 37 af 6a 97 39 47 2a d0 37 94 53 01 3a
       1.4805937e-05 0.0002888045 2.481522e-05 0.00049334136
000110 38 cf 36 36 91 1d 4d 38 c3 d8 45 36 ce 9c b7 38
       2.724073e-06 4.8903345e-05 2.948146e-06 8.755327e-05
000120 9e a6 96 37 40 ca f2 39 c9 de 00 38 f4 c4 63 3a
       1.795898e-05 0.00046308525 3.0725063e-05 0.0008688711
000130 d4 e9 dc 36 90 ca 21 38 e5 18 c6 36 d8 74 f0 38
       6.583732e-06 3.8574042e-05 5.903758e-06 0.00011465856
000140 bf 96 ca 38 e3 c4 fc 3a 06 e0 dc 38 2a 3e 2a 3b
       9.660189e-05 0.0019284751 0.00010532145 0.0025976994
000150 83 4d 4f 38 06 1e 7d 3a 63 40 bb 37 33 16 5c 3a
       4.9424834e-05 0.0009655658 2.232212e-05 0.0008395642
000160 9c 36 28 39 cc b8 0b 3b ee d3 75 39 3b 92 29 3b
       0.00016042072 0.0021319864 0.0002344397 0.0025874514
000170 f0 d8 87 38 61 70 34 3a f3 32 73 38 ed 5a af 3a
       6.4777094e-05 0.0006883201 5.7983165e-05 0.0013378538
000180 6c c3 1b 39 7a 42 c7 3a 42 72 af 39 6f f5 77 3a
       0.00014854752 0.0015202307 0.0003346373 0.00094588747
000190 44 f7 48 38 ac 94 a7 39 01 56 07 38 eb 39 a9 39
       4.7914e-05 0.0003196349 3.2266606e-05 0.00032277344
0001a0 c8 9b 1a 39 b2 45 52 3b d3 22 4a 39 4e c1 97 3b
       0.00014744618 0.0032084999 0.00019277194 0.004631198
0001b0 03 8f 79 39 1c 1e 42 3b e0 a8 97 39 f4 6f 8c 3b
       0.00023799766 0.0029619997 0.00028926786 0.004285807
0001c0 84 55 62 38 68 64 b9 3a 33 b2 01 38 1b e0 d3 3a
       5.396224e-05 0.0014144303 3.0921958e-05 0.0016164811
0001d0 a9 0d 2f 37 4e a2 77 39 54 e3 f4 37 28 ba b1 39
       1.0433993e-05 0.00023616219 2.9192925e-05 0.00033898768
0001e0 af 02 1a 39 f2 4d 41 3b 7a 88 5f 39 91 8d bf 3b
       0.00014687584 0.0029495922 0.00021317779 0.0058457335
0001f0 ae c3 dd 37 88 63 ab 39 18 35 1a 38 96 ae f0 39
       2.6436373e-05 0.00032689818 3.676591e-05 0.00045906444
000200 94 92 f2 37 7c cf 2a 3a 03 ad 21 38 e0 ec 27 3a
       2.8916904e-05 0.0006515903 3.854652e-05 0.00064058416
000210 d0 e0 8d 39 e2 b1 27 3b 10 9b 98 39 f3 8a 6f 3b
       0.00027061114 0.0025588204 0.0002910723 0.0036551326
000220 9b e5 1b 39 03 f9 cb 3a bb 24 58 39 11 1b 79 3a
       0.00014867487 0.0015561882 0.00020613048 0.00095026294
000230 ea 0d 01 39 ef 20 4c 3b 2a c5 8d 39 37 31 a5 3b
       0.00012307582 0.003114756 0.00027040514 0.0050412673
000240 8f 96 19 38 66 6b 53 3a 84 23 bc 38 d9 22 e0 3a
       3.661826e-05 0.0008065015 8.971154e-05 0.0017100229
000250 8d f6 ee 38 35 45 a0 3a f3 ce 3a 38 59 d7 4b 3a
       0.00011394648 0.0012227657 4.4538592e-05 0.0007775925
000260 6b 43 80 37 87 24 ee 39 1d 46 14 38 3e 80 24 3a
       1.5290183e-05 0.00045422112 3.5351248e-05 0.0006275213
000270 09 d4 69 37 ae 45 b0 39 58 31 09 38 d4 dc 53 3a
       1.39372505e-05 0.0003362125 3.27093e-05 0.0008081917
000280 87 6a f3 37 f3 5c 17 3a 47 e0 a3 38 2e 4e 6f 39
       2.9017463e-05 0.00057740434 7.8142206e-05 0.0002282194
000290 9b cb 00 38 54 ff dd 39 f9 03 22 38 43 e2 5e 3a
       3.07072e-05 0.0004234264 3.862751e-05 0.00085023436
0002a0 a0 b7 c9 36 da 49 f1 37 c8 22 7f 36 47 87 65 38
       6.0116436e-06 2.8763829e-05 3.8018206e-06 5.472384e-05
0002b0 6a dd d4 38 9d e5 6e 3a e6 8e 70 38 d2 2c 96 3a
       0.00010150189 0.00091131945 5.7353544e-05 0.0011457449
0002c0 4f e2 81 39 80 ef f9 3a c2 6d 37 39 11 3b f0 3a
       0.0002477341 0.0019068569 0.00017493128 0.001832815
0002d0 05 39 cf 36 1c 5f f1 38 14 73 b7 37 5e b1 4a 39
       6.1757187e-06 0.00011509491 2.1868887e-05 0.00019330296
0002e0 e0 76 98 36 b1 83 8a 38 7e a0 3e 37 ca db 19 39
       4.543792e-06 6.604882e-05 1.136225e-05 0.00014673095
0002f0 53 0e dd 36 f6 ba 83 38 4f c8 1e 37 cb 79 ae 38
       6.587981e-06 6.281391e-05 9.464172e-06 8.319652e-05
000300 ae 8f d2 37 7e bb 32 3a 33 b6 2d 38 55 bc e2 3a
       2.5100857e-05 0.00068180996 4.14161e-05 0.0017298559
000310 8a c8 32 38 19 36 1b 3a 9c 06 b5 38 ad f3 d7 39
       4.2625274e-05 0.0005920842 8.631984e-05 0.00041189548
000320 db 65 4e 38 ef 71 a7 39 84 0e a7 38 6e 02 8a 39
       4.9209088e-05 0.0003193761 7.965884e-05 0.0002632322
000330 08 92 19 38 dc ea 4c 39 e6 0d 3e 38 82 66 93 39
       3.6614045e-05 0.00019542448 4.5312474e-05 0.000281144
000340 f7 99 3f 37 0b 7d 16 39 3c 64 c8 37 b7 42 28 39
       1.1420335e-05 0.00014351697 2.3888533e-05 0.00016046582
000350 04 8a ba 38 8f 15 0d 3b 9a 1b 41 38 38 60 1c 3b
       8.8948786e-05 0.0021527743 4.604049e-05 0.0023861062
000360 8c 2e 18 37 23 cd e5 38 8d f3 af 37 ce 0b 08 39
       9.0707435e-06 0.000109577806 2.0975038e-05 0.00012974368
000370 f4 ce 86 38 ca 77 57 3a 63 bb 28 38 96 06 9c 3a
       6.428166e-05 0.0008219449 4.022884e-05 0.0011903818
000380 50 3f f9 38 dc 7a 06 3b 3f 22 3f 39 2d 87 09 3b
       0.00011885038 0.0020520007 0.00018227937 0.0020985112
000390 7c 07 38 37 3a 0b 0e 3a 19 c0 40 37 7d 9d 02 3a
       1.0968997e-05 0.0005418543 1.1488818e-05 0.0004982574
0003a0 4b 4d de 38 57 70 b7 3a d9 8c 37 39 91 35 26 3b
       0.00010600182 0.0013995272 0.0001750471 0.0025361518
0003b0 5a 1c 71 38 d0 b5 af 3a 3b 92 81 38 88 26 14 3b
       5.7485282e-05 0.0013405625 6.178437e-05 0.0022605974
0003c0 47 3c 00 36 7d e3 75 38 80 39 ab 36 6d f0 97 38
       1.9108572e-06 5.8624417e-05 5.102891e-06 7.245024e-05
0003d0 a2 22 8b 38 36 fb e7 3a 80 9c b8 37 85 00 87 3a
       6.634487e-05 0.0017698768 2.2007385e-05 0.0010299837
0003e0 ab 8a e5 36 a4 41 fa 38 e5 47 98 37 0e a4 22 39
       6.840875e-06 0.000119331555 1.815329e-05 0.00015510639
0003f0 7a f4 e7 38 f1 19 ee 3a 9f 2f 68 39 95 5d 97 3a
       0.00011060476 0.001816569 0.00022142984 0.0011548275

exp_avg f4 [64]
000000 4a 5e ce bd 03 5a 1d 3c 14 64 16 bd 1c 92 1d be
       -0.10076578 0.00960398 -0.036716536 -0.15387768
000010 ac fe 85 be 44 0e 84 be ce 6c 63 be 39 a8 0d bc
       -0.26170862 -0.25792134 -0.22209474 -0.008646064
000020 fc 62 0f bd fe de 70 3c 16 d9 02 3d 7f f7 11 bf
       -0.03500651 0.014701603 0.03194531 -0.57018274
000030 d6 a4 e8 bb 67 04 fa bd 31 67 aa be 57 61 db be
       -0.007099728 -0.12207871 -0.33281854 -0.42847702
000040 b2 8f 23 be 61 8e 4b 3d c2 2d 36 bd cf 39 fa bc
       -0.15972784 0.04969633 -0.04447723 -0.030545143
000050 0a f0 b3 be 69 9e 80 be 4b 3f 1e bf fa 71 c8 be
       -0.35144073 -0.25120857 -0.6181533 -0.39149457
000060 df 41 27 bf a4 ae 86 be 95 6f c0 be 97 93 2f bf
       -0.65334886 -0.26305115 -0.3758513 -0.6858458
000070 dd 06 cc 3c 7c 37 1f 3d b8 fe bd be 24 3f d2 bd
       0.024905616 0.038871273 -0.37108397 -0.10265949
000080 38 03 7b 3d d8 ef 3b bf 7b fd 1c bf f4 b6 b2 bc
       0.061282367 -0.7341285 -0.6132428 -0.021815754
000090 7d ad 84 3d ac 56 e9 be 8c 2f db bc ce 83 59 bd
       0.06478403 -0.45573938 -0.02675607 -0.053104214
0000a0 39 3a 6d be 07 00 8c bb 04 d9 8e bd 72 f4 e4 be
       -0.23166741 -0.004272464 -0.06974986 -0.44717747
0000b0 5d 76 1a bf 1e cc 54 bd 8c 1d ff bc d2 85 d8 ba
       -0.6033686 -0.051952474 -0.031142019 -0.0016519374
0000c0 91 8c 1c be 08 87 80 be 18 56 e5 be ff 2a 11 3e
       -0.15287997 -0.2510302 -0.44792247 0.14176558
0000d0 6f 5a cc 3c f0 6b fe 3c 4b 7b b2 bd 66 db a0 be
       0.024945466 0.031057328 -0.087149225 -0.31417388
0000e0 32 20 f3 be 6c 53 99 b9 1d df cb be fb a6 7b be
       -0.474855 -0.00029244588 -0.3981866 -0.24575417
0000f0 ff 00 68 bc 20 5b a1 3b f8 b2 b6 bc cb 6a e7 be
       -0.014160394 0.004924193 -0.022302136 -0.45198664

exp_avg_sq f4 [64]
000000 02 03 00 3b dc 15 3b 3b 78 0f de 3a 55 53 4f 3b
       0.0019533043 0.0028546965 0.0016941866 0.0031635363
000010 98 59 4c 3c c9 e1 90 3c 67 2c ea 3b e0 17 a3 3b
       0.012472533 0.017685788 0.0071464065 0.0049772114
000020 8c 91 a9 3b d7 55 54 3b 9b b1 f5 3a 50 04 8a 3c
       0.0051748212 0.0032399797 0.0018744947 0.01684776
000030 9c 38 4c 3b 14 16 1f 3b 14 9c 28 3c c7 89 5d 3c
       0.0031161672 0.0024274634 0.010291118 0.013521618
000040 85 fb 56 3b c5 b2 db 3a 3f ad b5 3b 61 cf ec 3a
       0.0032803726 0.0016761651 0.005544334 0.0018067175
000050 52 23 7c 3c b5 2f 22 3c 15 f7 dd 3c d1 d9 3f 3c
       0.01538928 0.00989907 0.027095357 0.011709646
000060 fc b4 b4 3c 21 ca 25 3c c9 87 de 3c dd 52 10 3d
       0.022058956 0.010118992 0.027164357 0.035235275
000070 53 41 18 3c 7e 23 04 3b bd 2b d1 3c f9 20 6f 3b
       0.009292918 0.0020162757 0.025533551 0.003648816
000080 29 ee 81 3b b5 a4 35 3d 71 df ad 3c ce e3 c1 3c
       0.0039651585 0.04434653 0.02122471 0.023668196
000090 c1 75 c1 3b 8b 48 ca 3c e6 7b 40 3b c5 9f 36 3b
       0.00590393 0.024692794 0.0029370724 0.0027866226
0000a0 53 d7 de 3b 3d 72 c7 3b be a9 cb 3a 97 85 c7 3c
       0.006800571 0.0060866163 0.0015538258 0.024355693
0000b0 9a 14 2c 3d d9 fa 2e 3b 04 4f c5 3a 3c 42 7f 3a
       0.042011835 0.002669981 0.0015053456 0.0009737348
0000c0 37 91 d5 3b 0f 4f 27 3c 55 ad 07 3c 4a 18 92 3b
       0.006517555 0.01021172 0.008281072 0.004458462
0000d0 7f 77 18 3b 2b 68 9b 3c 2c 54 12 3b 23 42 4c 3c
       0.0023264585 0.01897057 0.0022328002 0.01246694
0000e0 9c 63 a0 3c 82 9a bb 3b 94 0c 8f 3c 32 60 19 3c
       0.019578747 0.005725206 0.017462052 0.009361314
0000f0 13 c3 08 3b e2 40 57 3c ce 4b 0d 3b eb 4f 93 3c
       0.0020868226 0.013138028 0.0021560076 0.017982444

exp_avg f4 [64, 64]
000000 3a dd 80 bb d1 0a 36 b9 5d d7 64 bc be 0c d2 bc
       -0.0039326223 -0.00017360902 -0.013967362 -0.025640842
000010 73 54 55 bc 0f ba a6 bb 88 f6 c1 bc 00 e9 1a bb
       -0.013020623 -0.005088098 -0.023677126 -0.0023637414
000020 33 9e ad bb 3a ac 18 bc 68 b3 0a bc b9 88 f1 bc
       -0.0052984 -0.009318406 -0.008465625 -0.02948414
000030 0d 8a 6d bb 92 7d 66 bb 79 05 8a bc 47 bb e6 bc
       -0.0036245615 -0.003517006 -0.016848313 -0.028165473
000040 e3 64 f8 bb 46 a7 06 ba 86 fe 9e bb 26 a8 ec ba
       -0.007580386 -0.000513662 -0.004852119 -0.0018055483
000050 3c 57 60 bc e5 16 23 bc 88 4d f2 bc f4 e1 94 bc
       -0.013692673 -0.009954189 -0.029577985 -0.01817415
000060 94 1e b1 bc 7f 62 3b bc 55 3c a1 bc f6 a9 f7 bc
       -0.021621026 -0.0114370575 -0.019682089 -0.03023241
000070 03 f0 18 ba 6b 21 19 bc 74 a7 98 bc bc d9 16 bc
       -0.00058341044 -0.009346346 -0.018634535 -0.009207185
000080 6f df 04 bb 8a 82 8e bc 49 c2 b7 bc 5a d3 1c bc
       -0.0020274778 -0.01739623 -0.02243151 -0.0095718745
000090 a3 bb 9d bb c5 3c 35 bc c3 99 4d bc 1b 3e c2 bb
       -0.004813628 -0.011061852 -0.012548867 -0.0059278137
0000a0 e5 e4 f2 bb b6 9c 28 bc cd 9c 1d bb b0 67 4e bc
       -0.0074125403 -0.010291269 -0.002404976 -0.012597963
0000b0 ca 8d 89 bc 8d b9 b5 b9 2a 2c 0f bc b8 48 0e bc
       -0.016791243 -0.00034661256 -0.008738557 -0.00868433
0000c0 09 11 4d bc f4 d0 2b bc 1c 1a 01 bd 5f 34 1a bc
       -0.0125162685 -0.01048683 -0.03151904 -0.0094119
0000d0 48 ca aa bb 86 31 20 b9 ec 6c 5f bc ef 7f 36 bc
       -0.005212102 -0.00015277238 -0.013636809 -0.0111389
0000e0 53 26 9e bc 65 4b 79 b8 92 ae a8 bc 27 0d 94 bc
       -0.019305384 -5.9436443e-05 -0.020591054 -0.018072678
0000f0 b9 85 2e bb 98 a9 1d b9 da 65 37 bc 12 c7 02 bd
       -0.0026629998 -0.00015035865 -0.011193717 -0.03192813
000100 bb 63 9b bb 9f c6 30 39 26 c3 48 bc 9f 3a 02 bb
       -0.0047421134 0.0001685866 -0.012253558 -0.0019871367
000110 a4 be 11 bb cd 51 d5 bb 3b 63 18 bb d6 6d c4 b9
       -0.0022238875 -0.0065099956 -0.0023252505 -0.00037465867
000120 64 d6 d4 bb 3b 40 20 bb 49 fd 0b b9 ca 09 2f bc
       -0.006495284 -0.0024452347 -0.00013350429 -0.010683486
000130 5e 4e 37 3a d0 8f f1 38 4a 57 9a 3a 42 d2 e0 bb
       0.00069925736 0.00011518563 0.0011775282 -0.006861002
000140 6a 87 bf 3a dd 99 01 ba c8 3a a0 ba 7e 45 0d bb
       0.00146125 -0.0004943887 -0.001222455 -0.0021556313
000150 a6 28 20 bb 80 27 44 bb ae 7e 0a ba 15 7e 4b bb
       -0.002443829 -0.002993077 -0.0005283159 -0.0031050493
000160 a2 59 fe bb 04 5e e1 bb d0 5f 50 3a af 27 89 3a
       -0.00776215 -0.0068776626 0.00079488475 0.0010464097
000170 71 d8 0d 3a f9 4b b9 ba 39 9e fe 3a 4f 60 b4 3b
       0.00054109754 -0.0014137021 0.0019425816 0.005504645
000180 0f b7 85 3a 1f 01 10 bb 8a 55 34 bc 27 1d ec b8
       0.001020165 -0.0021973324 -0.011006722 -0.00011258787
000190 4f 9a 1b 39 c5 5d e6 bb 9c 22 a3 3b 76 37 8b 3a
       0.00014839436 -0.007030221 0.004978491 0.0010621387
0001a0 ed 01 0e bc 9c 27 1b 3b 14 0a 3a bb 2a a6 ce bb
       -0.008667451 0.0023674732 -0.0028387355 -0.0063064294
0001b0 9b 39 27 bc a9 ca 7c ba 08 3e e1 bb 02 e7 a6 bb
       -0.010206605 -0.0009643236 -0.00687385 -0.0050934562
0001c0 86 cc a4 b8 d9 40 40 bc 90 48 82 bc 88 1c 87 bb
       -7.858225e-05 -0.011734211 -0.015903741 -0.0041232742
0001d0 36 b4 56 bb ec 33 84 39 75 3f 54 bc 8b 1d d0 ba
       -0.0032761223 0.00025215687 -0.012954582 -0.0015877945
0001e0 76 2b b8 bb 40 12 f1 b6 42 12 9e 3a 21 49 52 3b
       -0.0056204153 -7.1844843e-06 0.0012059885 0.0032087045
0001f0 26 f2 5d bb 85 9f 5a b8 d6 93 c7 bb 42 db 2f bb
       -0.0033866256 -5.2123814e-05 -0.0060906215 -0.0026833569
000200 bc f0 53 bb a8 3d b1 39 e3 8d 80 bb 78 89 b9 3a
       -0.0032339534 0.00033806008 -0.003923164 0.0014155349
000210 9a 11 eb 39 f6 5b 85 bb 8b b8 df 3a 35 d8 e2 b7
       0.00044835807 -0.0040698005 0.0017068548 -2.7041979e-05
000220 bc ae 6b bb 8e 4c dc b9 aa 56 4c 39 57 bc 98 bb
       -0.0035962304 -0.00042018708 0.00019487241 -0.0046611237
000230 33 78 b0 3a dc 8d b2 b8 00 d0 85 3a 64 75 03 bc
       0.0013463557 -8.514125e-05 0.0010209084 -0.008023594
000240 61 25 a3 3a 9f 36 b4 b9 ca f7 af b9 25 26 c6 ba
       0.0012447053 -0.0003437297 -0.00033563218 -0.0015117569
000250 02 80 ed b9 b4 88 c5 ba 1f 9f db b9 79 f4 2e 39
       -0.00045299536 -0.0015070648 -0.0004188949 0.00016685006
000260 08 73 8c bb d5 64 ac bb 0d 1e 42 38 c2 58 e2 3a
       -0.0042861737 -0.0052610436 4.628119e-05 0.0017268884
000270 7a 75 8b 3a 36 83 0b 39 4b 95 22 3b c9 c3 c5 3b
       0.0010639869 0.00013304953 0.0024808224 0.0060353023
000280 80 48 8c 39 8d 14 16 ba c0 99 c3 bb 58 3a 18 3a
       0.00026756898 -0.0005725108 -0.005969256 0.0005807034
000290 56 8c 69 b7 11 c1 97 bb 18 60 3f 3b 15 18 90 b8
       -1.3920557e-05 -0.0046311696 0.0029201563 -6.870941e-05
0002a0 e5 39 98 bb 9c 82 a1 b9 73 05 fb ba f7 80 6e bb
       -0.0046455734 -0.00030805625 -0.0019151404 -0.0036392787
0002b0 51 23 96 bb fd 8d bb b9 de 81 1f bb 59 a5 69 ba
       -0.0045818468 -0.0003577321 -0.0024338881 -0.00089128833
0002c0 1a a3 b4 b7 a8 63 b6 bb e5 56 c8 bb 22 5d 78 ba
       -2.1533622e-05 -0.005566079 -0.0061138743 -0.0009474327
0002d0 a2 11 55 ba 3a 5c 07 3a 1f e6 a8 bb 03 7b 23 3a
       -0.00081279327 0.0005163584 -0.0051543857 0.0006236287
0002e0 3a fb 4a bb c5 c9 b9 b6 77 d1 a7 3a e0 11 ec 3a
       -0.0030972497 -5.5369187e-06 0.0012803514 0.0018010698
0002f0 6e f2 19 bb 0a 1c 2c b8 7a 6d ba ba 01 75 4e ba
       -0.0023490447 -4.103411e-05 -0.00142233 -0.00078757113
000300 00 00 00 00 00 00 00 00 00 00 00 00 00 00 00 00
       0.0 0.0 0.0 0.0
000310 00 00 00 00 00 00 00 00 00 00 00 00 00 00 00 00
       0.0 0.0 0.0 0.0
000320 00 00 00 00 00 00 00 00 00 00 00 00 00 00 00 00
       0.0 0.0 0.0 0.0
000330 00 00 00 00 00 00 00 00 00 00 00 00 00 00 00 00
       0.0 0.0 0.0 0.0
000340 00 00 00 00 00 00 00 00 00 00 00 00 00 00 00 00
       0.0 0.0 0.0 0.0
000350 00 00 00 00 00 00 00 00 00 00 00 00 00 00 00 00
       0.0 0.0 0.0 0.0
000360 00 00 00 00 00 00 00 00 00 00 00 00 00 00 00 00
       0.0 0.0 0.0 0.0
000370 00 00 00 00 00 00 00 00 00 00 00 00 00 00 00 00
       0.0 0.0 0.0 0.0
000380 00 00 00 00 00 00 00 00 00 00 00 00 00 00 00 00
       0.0 0.0 0.0 0.0
000390 00 00 00 00 00 00 00 00 00 00 00 00 00 00 00 00
       0.0 0.0 0.0 0.0
0003a0 00 00 00 00 00 00 00 00 00 00 00 00 00 00 00 00
       0.0 0.0 0.0 0.0
0003b0 00 00 00 00 00 00 00 00 00 00 00 00 00 00 00 00
       0.0 0.0 0.0 0.0
0003c0 00 00 00 00 00 00 00 00 00 00 00 00 00 00 00 00
       0.0 0.0 0.0 0.0
0003d0 00 00 00 00 00 00 00 00 00 00 00 00 00 00 00 00
       0.0 0.0 0.0 0.0
0003e0 00 00 00 00 00 00 00 00 00 00 00 00 00 00 00 00
       0.0 0.0 0.0 0.0
0003f0 00 00 00 00 00 00 00 00 00 00 00 00 00 00 00 00
       0.0 0.0 0.0 0.0
