gen_1_agent_3.pt (torch, 64207 bytes, 18 tensors)

net.0.weight f4 [64, 4]
-0.05289771 -0.09063198 0.20718801 0.04147141 -0.03641183 0.04088479 0.10078843 -0.30551296
0.22236809 0.05965753 0.18361568 0.24866961 -0.06791882 -0.073818006 0.10410416 -0.17613517
0.06830142 0.062225327 -0.32843408 -0.32183596 -0.02888981 0.3210125 0.13023601 -0.05766409
0.26100492 0.21513668 -0.16173002 -0.12681396 -0.095164604 0.025513558 -0.067495465 -0.2822682
-0.028242363 -0.25919095 0.11685968 0.16425154 -0.16495699 0.16029485 -0.24618715 0.13607246
-0.17790262 0.19575562 0.22114244 -0.16811822 0.15990025 -0.07355475 -0.12307375 0.063394845
-0.12812877 0.06777807 -0.31153506 -0.07477693 -0.0433946 0.15071239 -0.08096222 -0.025797963
0.25457886 -0.073810816 -0.14186803 -0.16728143 0.07035639 0.091160215 -0.07155672 -0.16397204
-0.27514625 0.227206 -0.27568042 0.16890307 0.2926923 -0.024755271 0.23276848 -0.15288278
-0.29903302 0.059317924 -0.18362212 0.0374351 0.21739915 -0.0012066239 -0.16839562 0.23904362
-0.15976933 0.30662975 0.19979894 -0.2574187 -0.07429092 0.22606786 0.04705763 0.26134413
-0.13656394 -0.04815647 0.12442945 -0.037195157 0.1949401 0.19382565 -0.23095065 -0.1521369
-0.12773143 -0.08415932 -0.16799138 -0.16793203 0.10991545 0.16678016 0.18628067 0.28398988
0.023371782 0.2202529 -0.14966868 0.06719385 0.06715835 0.3381206 0.06612129 -0.10358338
0.19090144 0.015766509 -0.024775587 -0.30263543 0.018902091 0.08569369 -0.16902502 0.26846182
-0.08918733 -0.13608243 -0.23200709 0.16754864 0.26158342 0.11409441 -0.01522474 -0.0020318932
-0.0012867223 0.27355286 0.11830983 0.27170855 0.07976678 0.14265923 -0.3005824 -0.32060617
0.019220652 0.17212346 -0.2749736 -0.090555035 -0.14436704 0.17369235 0.2179567 0.012729546
0.28587502 -0.008657886 -0.16835544 0.04791794 0.12412325 0.021002771 -0.18762624 0.009484513
0.071551114 -0.18092972 0.09569903 0.2138906 0.18211329 0.07662382 -0.25706866 -0.1253823
-0.28016827 0.01034656 -0.24981757 -0.006535633 0.19908692 -0.12863438 0.0806126 -0.11196058
-0.058660693 -0.16450566 0.15682139 0.09928452 0.13386625 -0.23718782 0.21938404 0.21116047
-0.12937668 0.1642145 0.16191083 -0.2900798 0.021498155 -0.14352836 0.22794609 0.23489018
0.24451399 -0.1686904 0.008019945 0.10928121 -0.27000657 0.20728649 -0.013212551 0.22084051
-0.24589172 -0.17434014 -0.13038392 0.07701549 0.13858114 0.16676305 -0.23362626 0.26470065
-0.122201845 0.2889384 0.099657424 -0.2240577 -0.10348913 -0.23515692 0.2326667 -0.017300166
0.2580384 -0.20979242 0.08273159 0.04097939 -0.12113647 0.2965998 -0.15376185 -0.26792735
0.25268725 -0.020866998 -0.023181118 -0.22371008 0.22210893 -0.19555669 -0.02560097 0.062457528
-0.00887931 0.120433494 0.079874605 -0.2621759 -0.10049153 -0.26383674 -0.070231214 -0.12350295
-0.1545988 0.175141 -0.20491622 0.08859496 0.024583224 0.13689874 0.2522222 0.19813852
-0.040809724 -0.19163363 0.26917595 -0.26230487 0.0030102087 -0.10059076 -0.05411568 -0.22145875
0.28645414 0.010171328 -0.20850588 0.024106476 0.17202164 -0.1925706 0.12980588 0.08931719
00000000: 45ab 58bd 429d b9bd 1829 543e eddd 293d
00000010: 9224 15bd cf76 273d 2a6a ce3d 326c 9cbe
00000020: 76b4 633e 745b 743d c005 3c3e 3fa3 7e3e
00000030: 0619 8bbd e52d 97bd 9034 d53d c75c 34be
00000040: 9de1 8b3d fcdf 7e3d 8328 a8be afc7 a4be
00000050: 53aa ecbc c05b a43e 975c 053e 2e31 6cbd
00000060: 70a2 853e ca4c 5c3e 8e9c 25be 85db 01be
00000070: a9e5 c2bd cf01 d13c 103b 8abd 7585 90be
00000080: 875c e7bc adb4 84be 2154 ef3d 8e31 283e
00000090: 7cea 28be 5524 243e 7c18 7cbe 9456 0b3e
000000a0: 1b2c 36be 2974 483e 2a73 623e 2f27 2cbe
000000b0: e4bc 233e dfa3 96bd 170e fcbd 28d5 813d
000000c0: 3034 03be 3bcf 8a3d 8681 9fbe a624 99bd
000000d0: 89be 31bd 5954 1a3e 85cf a5bd 4056 d3bc
000000e0: 2958 823e 202a 97bd da45 11be d34b 2bbe
000000f0: 0317 903d 35b2 ba3d 548c 92bd 49e8 27be
00000100: f8df 8cbe b1a8 683e fc25 8dbe edf4 2c3e
00000110: c4db 953e 91cb cabc dc5a 6e3e 4e8d 1cbe
00000120: db1a 99be 5af7 723d 7007 3cbe 8c55 193d
00000130: e29d 5e3e 9427 9eba e76f 2cbe dac7 743e
00000140: 929a 23be 93fe 9c3e 1898 4c3e 62cc 83be
00000150: d625 98bd 557e 673e 80bf 403d e6ce 853e
00000160: 6bd7 0bbe b83f 45bd ded4 fe3d f359 18bd
00000170: 619e 473e 3b7a 463e 547e 6cbe c7c9 1bbe
00000180: 07cc 02be b95b acbd ef05 2cbe 60f6 2bbe
00000190: 5a1b e13d 6bc8 2a3e 5cc0 3e3e 1f67 913e
000001a0: 2e76 bf3c fa89 613e bf42 19be ee9c 893d
000001b0: 518a 893d 251e ad3e 996a 873d 8623 d4bd
000001c0: ab7b 433e c428 813c 2cf6 cabc 08f3 9abe
000001d0: 8fd8 9a3c 2c80 af3d e514 2dbe d473 893e
000001e0: d9a7 b6bd 3159 0bbe 4493 6dbe df91 2b3e
000001f0: 43ee 853e 54aa e93d 3071 79bc 8329 05bb
00000200: 3ca7 a8ba 1f0f 8c3e 6d4c f23d 621d 8b3e
00000210: c45c a33d 4315 123e f0e5 99be 7e26 a4be
00000220: a174 9d3c 2241 303e 57c9 8cbe eb74 b9bd
00000230: f4d4 13be 68dc 313e 0b30 5f3e 968f 503c
00000240: 365e 923e ced9 0dbc 5e65 2cbe 9a45 443d
00000250: 5534 fe3d 010e ac3c 1821 40be ee64 1b3c
00000260: 6489 923d a445 39be dafd c33d 2306 5b3e
00000270: e87b 3a3e f3ec 9c3d 819e 83be 3864 00be
00000280: 3772 8fbe 9e84 293c 2dd0 7fbe dd28 d6bb
00000290: 71dd 4b3e bbb8 03be 3818 a53d 974b e5bd
000002a0: 3246 70bd 2c74 28be c995 203e af55 cb3d
000002b0: 3c14 093e 5de1 72be 36a6 603e 733a 583e
000002c0: 527b 04be d927 283e f4cb 253e 5785 94be
000002d0: e61c b03c 19f9 12be b36a 693e 0d87 703e
000002e0: e061 7a3e 2dbd 2cbe 1666 033c d4ce df3d
000002f0: 4d3e 8abe e942 543e 7579 58bc 0424 623e
00000300: 0acb 7bbe 3986 32be 5d83 05be 4cba 9d3d
00000310: 37e8 0d3e efc3 2a3e b93b 6fbe d886 873e
00000320: f644 fabd bcef 933e 3119 cc3d 626f 65be
00000330: 1cf2 d3bd facc 70be 2e40 6e3e 14b9 8dbc
00000340: 9c1d 843e d3d3 56be 2e6f a93d 01da 273d
00000350: 6616 f8bd eedb 973e bf73 1dbe c62d 89be
00000360: 3960 813e 44f1 aabc 54e6 bdbc 4114 65be
00000370: 8670 633e 0340 48be 20b9 d1bc 77d3 7f3d
00000380: 877a 11bc d6a5 f63d 4c95 a33d eb3b 86be
00000390: 81ce cdbd 9c15 87be 62d5 8fbd 1def fcbd
000003a0: 264f 1ebe 2a58 333e 8fd5 51be 4671 b53d
000003b0: c262 c93c 2f2f 0c3e 4523 813e d3e4 4a3e
000003c0: 1928 27bd 9b3b 44be 6ed1 893e d34c 86be
000003d0: ec46 453b 8702 cebd 67a8 5dbd 15c6 62be
000003e0: 1eaa 923e a4a5 263c 9182 55be f27a c53c
000003f0: 7126 303e 3a31 45be d5eb 043e eeeb b63d

net.0.bias f4 [64]
-0.012729741 0.059925623 -0.0036608805 0.06336422 0.10878826 0.091116525 -0.01655244 0.078132376
-0.013556645 -0.02074968 0.0824352 -0.007280918 0.090989396 0.09700903 -0.040543325 -0.0665109
-0.011065024 0.100913905 -0.021399338 0.040891122 0.08604279 -0.020025378 -0.007166233 0.07546258
0.09476641 0.046619326 0.06637369 0.09652726 0.032894555 -0.018072747 0.047402438 0.1001481
0.028810026 0.070284694 0.097342946 0.07962711 0.044519994 -0.01895296 -0.0101025 0.069107935
0.07573124 -0.039253194 0.039172154 -0.012908272 0.11058553 0.046082433 0.0434135 0.013238612
0.05236784 0.029695766 0.10079341 -0.0177577 0.050858386 0.0877309 0.043541826 0.0052797375
0.037300803 -0.014700687 0.08195125 -0.015572994 0.067853875 0.09422022 0.06155864 -0.012989303
00000000: 6790 50bc 9274 753d 62eb 6fbb 1ac5 813d
00000010: 61cc de3d 4d9b ba3d fc98 87bc de03 a03d
00000020: b11c 5ebc 3cfb a9bc c9d3 a83d c494 eebb
00000030: a658 ba3d acac c63d c210 26bd de36 88bd
00000040: 134a 35bc f3ab ce3d aa4d afbc 737d 273d
00000050: 3437 b03d 430c a4bc b8d2 eabb 208c 9a3d
00000060: e414 c23d e8f3 3e3d eeee 873d 16b0 c53d
00000070: 71bc 063d 4c0d 94bc 0f29 423d 721a cd3d
00000080: 0103 ec3c 6cf1 8f3d bd5b c73d 8a13 a33d
00000090: 995a 363d 3d43 9bbc f584 25bc 7688 8d3d
000000a0: fb18 9b3d f5c7 20bd fb72 203d 387d 53bc
000000b0: ab7a e23d efc0 3c3d 5bd2 313d c3e6 583c
000000c0: a97f 563d 8944 f33c c66c ce3d 9978 91bc
000000d0: e250 503d 42ac b33d ea58 323d a601 ad3b
000000e0: bac8 183d 26db 70bc 0fd6 a73d df25 7fbc
000000f0: f9f6 8a3d 88f6 c03d ea24 7c3d 16d1 54bc

net.3.weight f4 [64, 64]
0.14923172 0.1452308 -0.18843424 0.20383099 -0.018877903 -0.19800939 0.11291178 -0.0033778597
-0.19335906 -0.084751755 0.07232392 0.1529707 -0.12896477 -0.059426222 0.022410361 -0.20220338
0.08567396 0.09553868 0.021608185 0.057553392 0.18360132 -0.21553129 0.18032764 0.16338012
-0.04043205 -0.14571027 -0.010618311 0.05258669 0.14615327 -0.008000299 -0.033634145 -0.12899007
-0.2239863 0.031454425 0.19903053 0.010838404 -0.14609997 -0.06172319 -0.1007723 -0.15997186
0.10800893 -0.19081567 -0.027744189 -0.0017800331 0.120210886 -0.13553868 -0.09526288 0.021355152
0.008610005 0.20729236 -0.14666432 0.10300544 -0.086842716 -0.0026681258 -0.12352005 0.12014905
0.11616073 0.10594691 0.02777623 0.08645376 -0.121662594 0.1890576 -0.12827843 -0.021099135
-0.0418678 -0.058509436 0.18839832 -0.08286289 0.17155692 0.08211541 0.060098894 0.16492432
-0.19211873 0.03130994 0.097061075 -0.12830791 0.18278137 0.14105287 0.02385457 -0.023156038
-0.13471967 0.24051979 0.065120816 -0.05441596 0.21295312 -0.080366895 -0.19752742 -0.080697276
0.19043455 -0.13915902 0.01250362 0.119967684 0.23566756 -0.09108329 0.080908716 0.0014689353
0.088375896 0.18357046 0.17770651 0.22901945 0.0101283165 -0.18400359 -0.1880456 0.0005627862
0.15192038 0.14204682 0.09897096 -0.07429404 -0.1081855 0.21617594 -0.079801 -0.16876917
-0.053647462 -0.011050095 0.104926676 0.0297729 0.026037665 0.10719133 0.10735515 -0.045378212
-0.020079702 -0.17475456 0.22861533 -0.21469723 0.23458843 -0.0731712 0.14191858 -0.18636762
-0.182327 0.06955457 -0.066450514 -0.00943505 0.13239534 0.0350689 -0.18796752 -0.120881766
-0.22261125 -0.10691693 -0.22782785 -0.08175418 -0.021162763 0.11942874 0.12032968 0.19118497
-0.21646397 -0.086178854 -0.15987533 0.06119892 0.14035556 -0.03638338 0.14691049 0.056914173
-0.08650837 -0.21595255 0.1664526 0.12187362 -0.17502871 -0.02310957 0.12941782 0.00017266106
-0.11274733 -0.17057768 -0.18528837 -0.06273965 -0.0581327 -0.062994815 -0.08975905 -0.22777872
0.15673524 0.030422522 -0.14736061 0.03344074 0.097030416 0.1461553 0.16941155 -0.12049651
0.1738492 0.1315328 0.054818332 -0.19680864 0.13358279 -0.1753088 0.12899676 0.17488873
-0.21995893 0.12327482 0.02497463 0.053487647 0.09557682 -0.07731467 -0.20305772 0.15197451
0.046013787 0.1540307 -0.04058467 -0.12372111 -0.13327909 -0.011963476 -0.09167559 -0.04544372
0.04511614 -0.0816271 0.06604668 0.032615498 0.18309022 0.111758254 -0.1608016 -0.04653313
-0.09129086 -0.19831969 -0.18716413 0.07726984 -0.0636223 0.10169537 -0.022810966 -0.16928859
0.1157915 0.035857216 -0.21417193 -0.19741645 0.10317864 0.13698877 -0.19269525 0.13549687
-0.079632014 -0.13246551 0.14258854 -0.10297264 -0.021100178 -0.19663575 0.07785167 0.030672994
-0.09201243 0.17989482 0.14707671 0.1857747 -0.16215539 0.11402701 -0.13225868 0.024781778
0.15244381 0.06116475 0.030023806 0.017401218 -0.01339294 0.15364109 -0.12535934 0.0043261945
-0.055874962 -0.109801024 -0.10471682 0.011902034 0.10434454 0.035940226 -0.082080774 -0.028303519
00000000: 33d0 183e 62b7 143e e8f4 40be 12b9 503e
00000010: d5a5 9abc f9c2 4abe 4b3e e73d 155f 5dbb
00000020: ebff 45be 5492 adbd 901e 943d 5aa4 1c3e
00000030: 570f 04be e968 73bd ef95 b73c 670e 4fbe
00000040: d475 af3d c9a9 c33d a603 b13c 1bbd 6b3d
00000050: fc01 3c3e 3cb4 5cbe cfa7 383e 1e4d 273e
00000060: 149c 25bd 1335 15be 6df8 2dbc 2465 573d
00000070: 34a9 153e b013 03bc f5c3 09bd f915 04be
00000080: aa5c 65be 5bd6 003d a9ce 4b3e 9093 313c
00000090: 3b9b 15be 75d1 7cbd b561 cebd aacf 23be
000000a0: c933 dd3d 2f65 43be c847 e3bc 0050 e9ba
000000b0: 2031 f63d a7ca 0abe 2f19 c3bd 00f1 ae3c
000000c0: fa10 0d3c 7344 543e 2c2f 16be 84f4 d23d
000000d0: 98da b1bd b9db 2ebb 14f8 fcbd b510 f63d
000000e0: ade5 ed3d b2fa d83d fa8a e33c ab0e b13d
000000f0: 3d2a f9bd 5198 413e 6c5b 03be 18d8 acbc
00000100: 927d 2bbd 97a7 6fbd 7deb 403e 05b4 a9bd
00000110: 9eac 2f3e 202c a83d 422a 763d ece1 283e
00000120: c6ba 44be da3e 003d f5c7 c63d 2663 03be
00000130: 0a2b 3b3e 2a70 103e a96a c33c bbb1 bdbc
00000140: f4f3 09be d24a 763e 105e 853d 45e3 5ebd
00000150: 6210 5a3e 6697 a4bd a144 4abe 9d44 a5bd
00000160: 4601 433e b47f 0ebe fcdb 4c3c 9eb1 f53d
00000170: d652 713e e089 babd 78b3 a53d 4a89 c03a
00000180: 6cfe b43d e5f9 3b3e b2f8 353e 1384 6a3e
00000190: 3df1 253c 706b 3cbe 078f 40be f187 133a
000001a0: 0491 1b3e b974 113e 49b1 ca3d 7927 98bd
000001b0: 5c90 ddbd 3a5d 5d3e b56e a3bd d3d1 2cbe
000001c0: 71bd 5bbd 750b 35bc cce3 d63d 4ce6 f33c
000001d0: f14c d53c 2187 db3d 04dd db3d 81de 39bd
000001e0: 307e a4bc dcf2 32be 231a 6a3e 97d9 5bbe
000001f0: f337 703e c8da 95bd 1b53 113e 27d7 3ebe
00000200: eeb3 3abe a072 8e3d 3517 88bd 7895 1abc
00000210: a592 073e 68a4 0f3d 8f7a 40be dc90 f7bd
00000220: 34f4 63be 43f7 dabd b44b 69be bc6e a7bd
00000230: 885d adbc 0e97 f43d 686f f63d fec5 433e
00000240: bba8 5dbe 8a7e b0bd 5cb6 23be b8ab 7a3d
00000250: 5eb9 0f3e bd06 15bd b46f 163e d61e 693d
00000260: 4d2b b1bd aa22 5dbe 8d72 2a3e e098 f93d
00000270: ba3a 33be 4850 bdbc 1b86 043e 5a0c 3539
00000280: 12e8 e6bd eaab 2ebe 3cbc 3dbe a57d 80bd
00000290: 8e1c 6ebd 6d03 81bd 98d3 b7bd d33e 69be
000002a0: 347f 203e a738 f93c b3e5 16be 28f9 083d
000002b0: e2b7 c63d bca9 153e 397a 2d3e e0c6 f6bd
000002c0: 8605 323e 89b0 063e 3089 603d 3488 49be
000002d0: edc9 083e 2684 33be ba17 043e 0816 333e
000002e0: ea3c 61be 8277 fc3d 9897 cc3c dd15 5b3d
000002f0: c8bd c33d 2757 9ebd 5dee 4fbe 359f 1b3e
00000300: f478 3c3d 39ba 1d3e 1c3c 26bd 7e61 fdbd
00000310: 507a 08be 7502 44bc 69c0 bbbd 3223 3abd
00000320: b4cb 383d 1c2c a7bd 7b43 873d d497 053d
00000330: 017c 3b3e 83e1 e43d 2da9 24be 8699 3ebd
00000340: b4f6 babd 5114 4bbe f4a7 3fbe a63f 9e3d
00000350: 694c 82bd aa45 d03d 10de babc fd59 2dbe
00000360: 1824 ed3d 04df 123d e34f 5bbe 8a27 4abe
00000370: 534f d33d c946 0c3e e751 45be b1bf 0a3e
00000380: 1c16 a3bd 0aa5 07be bb02 123e 52e3 d2bd
00000390: 48da acbc e25a 49be b270 9f3d ee45 fb3c
000003a0: 0371 bcbd 5936 383e 479b 163e b93b 3e3e
000003b0: 100c 26be fe86 e93d d26e 07be 2803 cb3c
000003c0: 3b1a 1c3e e487 7a3d 7cf4 f53c 008d 8e3c
000003d0: 106e 5bbc 1754 1d3e 335e 00be c0c2 8d3b
000003e0: 25dd 64bd 5cdf e0bd c675 d6bd c000 433c
000003f0: 97b2 d53d 0f36 133d f719 a8bd c8dc e7bc

net.3.bias f4 [64]
-0.024505092 0.05797518 -0.026161449 -0.011465479 0.060688578 0.07715894 0.028112303 -0.046036195
0.060192637 -0.038296185 0.08617274 0.0939269 -0.008300119 -0.012423129 0.078239225 -0.023504304
0.0953774 0.12113482 -0.008804642 0.026881363 -0.025483647 0.103890315 0.08769056 0.09116468
0.023036862 0.086218216 -0.027479706 -0.020814328 0.068059385 -0.009273984 0.0427137 0.012795872
0.121825375 0.077037856 0.09744639 0.0 0.09702164 -0.020366546 0.059334457 0.10908031
-0.012069375 0.0 0.052415665 0.06501607 -0.007489582 -0.02367691 -0.031342093 0.075184554
0.08114046 -0.042189818 0.0 -0.03953592 -0.008300122 -0.051771697 -0.04259068 -0.01214852
0.0365716 0.09948469 0.09900304 0.007489763 0.047029737 0.057583738 -0.029765796 0.10397636
00000000: e7be c8bc 6277 6d3d 8950 d6bc b4d9 3bbc
00000010: 9694 783d 8205 9e3d c64b e63c 7390 3cbd
00000020: 8e8c 763d 76dc 1cbd 557b b03d bf5c c03d
00000030: 39fd 07bc 618a 4bbc e33b a03d 198c c0bc
00000040: 3a55 c33d 8815 f83d 5841 10bc 4e36 dc3c
00000050: 15c3 d0bc 72c4 d43d 1c97 b33d 8cb4 ba3d
00000060: cdb7 bc3c 2d93 b03d 1f1d e1bc cf82 aabc
00000070: b862 8b3d e8f1 17bc 90f4 2e3d c7a5 513c
00000080: 957f f93d 06c6 9d3d f991 c73d 0000 0000
00000090: 48b3 c63d bed7 a6bc b008 733d 7f65 df3d
000000a0: a1be 45bc 0000 0000 cfb1 563d 2527 853d
000000b0: 2b6b f5bb 14f6 c1bc 9160 00bd 5cfa 993d
000000c0: f82c a63d 3bcf 2cbd 0000 0000 6bf0 21bd
000000d0: 3cfd 07bc 8f0e 54bd 9173 2ebd 960a 47bc
000000e0: 1acc 153d a1be cb3d 1bc2 ca3d b06c f53b
000000f0: 41a2 403d eddc 6b3d 66d7 f3bc 8ff1 d43d

net.6.weight f4 [2, 64]
0.21072768 0.1630806 0.07546725 -0.14905453 -0.025718255 0.2273071 -0.025848404 0.24590941
-0.08256838 -0.2826788 0.23773138 0.31191888 -0.18895596 -0.13029873 0.08128063 0.22638443
0.09127971 0.11934477 -0.179403 0.32995072 -0.23318622 0.123097986 0.28369385 0.31102335
-0.17563996 0.27754202 0.017659917 -0.09704942 0.31772736 0.16017373 -0.23282762 -0.08814967
0.17809588 0.29130852 0.23907296 0.2651354 0.10994643 -0.04113591 0.13696434 0.10677053
-0.18570337 0.12790275 -0.08467058 -0.19225533 -0.16418284 0.008773112 -0.28193098 0.074304365
-0.013433168 -0.2324631 -0.20742196 0.034994166 0.08373389 0.081761874 -0.22405216 -0.020664006
0.063153185 0.1533326 0.12338355 -0.017741948 -0.24316189 -0.11931072 0.12826134 0.33247727
-0.07434603 0.039630353 -0.084941626 -0.24448436 0.17238596 0.06982408 0.060699057 -0.22346947
0.13746636 -0.023550196 0.1695645 0.2604896 -0.06787526 0.04486767 0.07962329 -0.12542807
0.16506302 0.16197504 -0.05477165 -0.009417791 -0.13170876 0.1993254 0.08489086 0.14556281
0.037031148 0.11701059 -0.19263367 -0.041558415 0.108686775 -0.041611433 0.21620244 0.049060985
0.1851585 0.22131537 0.3564144 -0.13131995 0.3218799 -0.27691472 0.1964349 0.15924601
-0.071756944 0.099693775 0.12448434 0.23251078 0.006645453 -0.19709693 -0.07697924 0.30979213
0.16798455 -0.1304519 -0.2647894 -0.031738263 -0.16176043 -0.22138974 -0.0021348114 -0.08168377
0.032166764 0.31551388 0.20403056 0.17434788 0.27011862 0.20445487 -0.1517255 0.3669173
00000000: ffc8 573e 9afe 263e 938e 9a3d c0a1 18be
00000010: 17af d2bc 31c3 683e 08c0 d3bc adcf 7b3e
00000020: 9c19 a9bd 47bb 90be db6f 733e d5b3 9f3e
00000030: ac7d 41be 086d 05be 7576 a63d 52d1 673e
00000040: dbf0 ba3d 086b f43d 6cb5 37be 4def a83e
00000050: 5ec8 6ebe cc1a fc3d 5240 913e 743e 9f3e
00000060: f6da 33be fd19 8e3e 88ab 903c d9c1 c6bd
00000070: 29ad a23e 9504 243e 5d6a 6ebe d087 b4bd
00000080: c45e 363e 6426 953e 8bcf 743e d4bf 873e
00000090: 982b e13d 217e 28bd 6140 0c3e 82aa da3d
000000a0: 0629 3ebe f0f8 023e c567 adbd 95de 44be
000000b0: 8c1f 28be 19bd 0f3c 4259 90be e32c 983d
000000c0: ca16 5cbc cf0a 6ebe 6c66 54be 0b56 0f3d
000000d0: ac7c ab3d c572 a73d ee6d 65be 9047 a9bc
000000e0: 7556 813d 3903 1d3e 84b0 fc3d 9057 91bc
000000f0: 6eff 78be 2e59 f4bd f156 033e 763a aa3e
00000100: bb42 98bd 7053 223d e0f5 adbd 1c5a 7abe
00000110: f285 303e edff 8e3d 939f 783d 2ed5 64be
00000120: fbc3 0c3e 57ec c0bc 51a2 2d3e e55e 853e
00000130: 2f02 8bbd 29c7 373d 8911 a33d 3770 00be
00000140: 4806 293e c9dc 253e 3d58 60bd 144d 1abc
00000150: a9de 06be f51b 4c3e 42db ad3d 6b0e 153e
00000160: f9ad 173d 40a3 ef3d c341 45be 2839 2abd
00000170: 2c97 de3d c070 2abd 2c64 5d3e 2cf4 483d
00000180: 319a 3d3e 7fa0 623e f37b b63e bd78 06be
00000190: 71cd a43e c4c7 8dbe 3b26 493e 6311 233e
000001a0: 4ef5 92bd 402c cc3d a5f1 fe3d 4e17 6e3e
000001b0: 1ac2 d93b c7d3 49be 4ba7 9dbd 139d 9e3e
000001c0: 2404 2c3e 2f95 05be 7a92 87be fbff 01bd
000001d0: 87a4 25be feb3 62be 31e8 0bbb d249 a7bd
000001e0: 4cc1 033d 098b a13e 63ed 503e 4088 323e
000001f0: fd4c 8a3e 9e5c 513e ee5d 1bbe 96dc bb3e

net.6.bias f4 [2]
0.050736975 0.09564809
00000000: 93d1 4f3d 25e3 c33d

exp_avg f4 [64, 4]
0.0008213109 0.00020958857 0.00081540924 0.0007737921 -0.026491696 -0.28701788 0.017247964 0.41320044
-0.0010550022 -0.00026896654 -0.0010473004 -0.0009940743 0.0037525024 0.008223808 -0.046671093 -0.081790954
-0.07257793 -0.7504038 0.0137062585 1.0395613 -0.035643764 -0.36953625 -0.021146478 0.468746
-0.010157462 -0.10591474 0.010572702 0.16045594 -0.055175796 -0.5715315 -0.01802193 0.7476139
0.00069535646 0.00017721523 0.00069088914 0.0006549079 3.034118e-07 4.271391e-06 -1.455727e-06 -6.731584e-06
-0.017819604 -0.23327322 -0.03772655 0.25608414 4.5299075e-08 3.7826126e-08 -1.2523277e-07 -2.3190914e-07
-0.033291053 -0.3232647 -0.024323571 0.39759624 -0.059581555 -0.600844 0.026806578 0.8532705
0.0045205457 0.04993851 -0.009749538 -0.08104988 0.014030638 0.15573992 -0.010084826 -0.22814718
5.555141e-05 -0.000110801375 0.00010968296 -0.00022494461 -0.04959607 -0.50136137 -0.03057791 0.6352353
0.00015571681 0.0027505306 -0.000335816 -0.004403361 -0.002484063 -0.0009344196 -0.0022629492 -0.0030240663
-0.028666658 -0.2986005 -0.019390212 0.3767814 -3.7803366e-05 1.940892e-05 -1.6805534e-05 6.020952e-05
6.36657e-05 0.000679467 -0.0001012298 -0.001088726 -0.050685324 -0.5245881 -0.00016427133 0.70946866
-0.020458108 -0.2235941 -0.02683212 0.26237875 -0.0056138975 -0.014618789 -0.0054751504 0.012551141
-0.027705617 -0.29816642 0.012156301 0.42081562 -0.037125707 -0.4085926 -0.045345504 0.48467135
0.01254315 0.11947769 -0.04108253 -0.22453858 -6.2735467e-06 1.693819e-05 -1.6656673e-05 3.1634496e-05
-0.002941926 -0.0011174285 -0.0026849238 -0.003623247 -0.061943248 -0.6326809 -0.022504743 0.82327926
-0.0017801725 -0.0048715277 -0.0016595644 0.004124726 -0.017087014 -0.18003586 -0.019548753 0.21458548
-0.023052746 -0.27944404 -0.02744511 0.33755666 -0.07521808 -0.7512714 0.009028041 1.0336035
-0.015754329 -0.1078685 -0.011573341 0.13340245 -0.0038235635 -0.0316808 0.0060301656 0.05264273
0.00017540036 4.4799286e-05 0.00017410635 0.0001652536 -0.032911055 -0.34773678 -0.0061013424 0.4603801
-0.01840454 -0.26039782 -0.017626254 0.32311526 0.013513804 0.15414664 -0.019365456 -0.23395069
-0.0027492882 -0.00068364065 -0.002715565 -0.0026682015 0.0009727552 0.0002481465 0.00096561527 0.0009166134
-0.05062951 -0.5224012 -0.009225162 0.6967105 -0.004337389 -0.0016974839 -0.0039008271 -0.0054371157
0.00018722498 -0.00036767658 0.000432148 -0.0007884092 -0.0013664034 -0.00047168546 -0.0013145141 -0.0015650823
-0.0052476684 -0.0019536684 -0.0047694594 -0.006367679 -0.0021627343 -0.00076616445 -0.002064215 -0.0025112883
-0.030986356 -0.34583673 -0.009466158 0.45668355 2.1335634e-05 -3.308175e-05 -7.5458984e-06 -3.7119855e-05
-0.008605227 -0.020273523 -0.008249675 0.015708236 -0.028037146 -0.3012434 -0.028780863 0.36336154
-0.02862348 -0.28987014 0.0051012742 0.3987911 -0.0008063016 -0.00019887743 -0.000793013 -0.0007485026
-0.03300253 -0.34725854 0.01826751 0.49652913 6.301681e-06 -9.992542e-06 -2.5946133e-06 -1.3376846e-05
-0.0691345 -0.70212597 -0.012441199 0.93527085 0.0025979169 0.00067167165 0.0025785454 0.0024355557
-0.013883695 -0.14243214 -0.02135003 0.16057126 -0.0099169705 -0.09980311 -0.043861073 0.06636648
-0.02133147 -0.23343314 0.011154363 0.32253033 0.0011432833 0.0002916398 0.0011348926 0.0010773032
00000000: 3e4d 573a 01c5 5b39 30c1 553a 4fd8 4a3a
00000010: 1d05 d9bc 02f4 92be 9a4b 8d3c 028f d33e
00000020: 0048 8aba 1404 8db9 9245 89ba 994b 82ba
00000030: 8bec 753b 27bd 063c 302a 3fbd 0482 a7bd
00000040: bda3 94bd 771a 40bf 3790 603c 5810 853f
00000050: 32ff 11bd db33 bdbe 613b adbc 7aff ef3e
00000060: 7c6b 26bc d4e9 d8bd 2039 2d3c 904e 243e
00000070: 0400 62bd e34f 12bf baa2 93bc a063 3f3f
00000080: 9548 363a dad2 3939 c91c 353a 20ae 2b3a
00000090: 9ae4 a234 f852 8f36 6662 c3b5 dedf e1b6
000000a0: 6bfa 91bc 2ddf 6ebe 2887 1abd 761d 833e
000000b0: dc8e 4233 4476 2233 b977 06b4 b302 79b4
000000c0: 335c 08bd f382 a5be 3a42 c7bc bc91 cb3e
000000d0: ca0b 74bd ead0 19bf 7899 db3c ef6f 5a3f
000000e0: 1621 943b 538c 4c3d 87bc 1fbc 7bfd a5bd
000000f0: c3e0 653c 497a 1f3e d33a 25bc 6a9f 69be
00000100: dfff 6838 095e e8b8 9705 e638 1cdf 6bb9
00000110: 4025 4bbd 3859 00bf 867e fabc c89e 223f
00000120: ea47 2339 3f42 343b 7610 b0b9 124a 90bb
00000130: a9cb 22bb d6f3 74ba fd4d 14bb 6a2f 46bb
00000140: 57d6 eabc 2ae2 98be 39d8 9ebc 7ee9 c03e
00000150: 0e8f 1eb8 57d0 a237 9cf9 8cb7 7b89 7c38
00000160: 4384 8538 421e 323a 564b d4b8 95b3 8eba
00000170: 6a9b 4fbd 684b 06bf 4040 2cb9 bd9f 353f
00000180: c397 a7bc daf5 64be 09cf dbbc 8256 863e
00000190: c9f4 b7bb a583 6fbc e468 b3bb 4da3 4d3c
000001a0: e4f6 e2bc 45a9 98be 392b 473c 2575 d73e
000001b0: 2011 18bd 0d33 d1be 35bc 39bd d826 f83e
000001c0: c981 4d3c b8b0 f43d 2846 28bd 71ed 65be
000001d0: 5b81 d2b6 7c16 8e37 efb9 8bb7 48af 0438
000001e0: 54cd 40bb ae76 92ba 8cf5 2fbb ff73 6dbb
000001f0: 34b8 7dbd 60f7 21bf de5b b8bc 6ec2 523f
00000200: ad54 e9ba 56a1 9fbb be85 d9ba b628 873b
00000210: 11fa 8bbc 525b 38be b524 a0bc 4cbc 5b3e
00000220: 1dd9 bcbc 4a13 8fbe 91d4 e0bc 3ad4 ac3e
00000230: f00b 9abd 5353 40bf 59ea 133c 1f4d 843f
00000240: 390f 81bc 29ea dcbd 1c9e 3dbc a79a 083e
00000250: c094 7abb bac3 01bd b298 c53b e79f 573d
00000260: adeb 3739 dee6 3b38 5190 3639 ed47 2d39
00000270: becd 06bd 8e0a b2be c5ed c7bb f1b6 eb3e
00000280: 1ec5 96bc dd52 85be ef64 90bc 5d6f a53e
00000290: 0169 5d3c 9ed8 1d3e 4ea4 9ebc c590 6fbe
000002a0: 672d 34bb 5936 33ba 9ff7 31bb fedc 2ebb
000002b0: 7f00 7f3a a919 8239 5821 7d3a e248 703a
000002c0: e460 4fbd 16bc 05bf 2225 17bc 9f5b 323f
000002d0: a820 8ebb 1c7e deba 05a5 7fbb d529 b2bb
000002e0: d351 4439 b7c4 c0b9 ec91 e239 3fad 4eba
000002f0: e418 b3ba 8d4c f7b9 c64b acba 7323 cdba
00000300: a2f4 abbb 1e09 00bb 2049 9cbb f7a7 d0bb
00000310: a9bc 0dbb 6dd8 48ba c847 07bb 6d94 24bb
00000320: 19d7 fdbc 8311 b1be f217 1bbc 6dd2 e93e
00000330: edf9 b237 42c1 0ab8 c632 fdb6 24b1 1bb8
00000340: f0fc 0cbc a914 a6bc a529 07bc 8fae 803c
00000350: 28ae e5bc 933c 9abe d8c5 ebbc 860a ba3e
00000360: ca7b eabc dc69 94be 9728 a73b 592e cc3e
00000370: fc5d 53ba c189 50b9 34e2 4fba 2937 44ba
00000380: a92d 07bd dfcb b1be bfa5 953c 1139 fe3e
00000390: 0773 d336 a4a5 27b7 1e1f 2eb6 1e6d 60b7
000003a0: 6496 8dbd 87be 33bf 2cd6 4bbc e96d 6f3f
000003b0: d041 2a3b 1f13 303a d0fc 283b d89d 1f3b
000003c0: 7078 63bc bbd9 11be 42e6 aebc cb6c 243e
000003d0: ca7a 22bc 9365 ccbd aba7 33bd 26eb 873d
000003e0: 56bf aebc 1909 6fbe cac0 363c b222 a53e
000003f0: 39da 953a 3be7 9839 adc0 943a 4c34 8d3a

exp_avg_sq f4 [64, 4]
3.856048e-07 2.706805e-07 3.4458094e-07 2.3177377e-07 0.00039570732 0.06672314 0.0009910663 0.17027566
3.977419e-07 2.4458515e-07 6.457833e-07 6.495097e-07 0.0005495495 0.060648795 0.0015599885 0.15681323
0.0013615063 0.18323123 0.003295427 0.47442147 0.0009877754 0.14671947 0.0024378747 0.3770839
0.00013277605 0.023643684 0.00033862834 0.060111936 0.0008659441 0.11422499 0.0022979262 0.29645118
1.3800107e-07 1.0597005e-08 2.0948204e-07 1.4735052e-07 1.2241148e-06 0.00014045947 1.3905872e-05 0.0003190929
0.00067477336 0.07891421 0.0019657172 0.20345552 1.7225833e-08 1.2011176e-08 1.3165514e-07 4.5147894e-07
0.00085312803 0.11147916 0.0023076814 0.29061443 0.0003978798 0.051705737 0.0010700155 0.12956406
2.2635846e-05 0.0025726259 6.6011584e-05 0.0064979065 0.00016075754 0.02621973 0.00038611484 0.06543424
2.9850702e-07 4.4432647e-05 3.0662757e-06 0.00010952734 0.0014429622 0.19543272 0.0037851187 0.5092665
7.9557685e-06 0.001023853 2.0294348e-05 0.0025958372 2.5673926e-06 1.2251711e-06 2.2406175e-06 3.938622e-06
0.0005948237 0.08416787 0.0014249008 0.21659191 2.9451596e-07 3.790936e-07 3.8115385e-07 5.636952e-07
1.205339e-05 0.0029213459 3.4993525e-05 0.007266994 0.00051703287 0.054130793 0.0012795469 0.14445989
0.00051377795 0.0694816 0.001374893 0.18018845 5.1575407e-06 4.5224337e-05 5.306743e-06 5.8693055e-05
0.00030313345 0.043033104 0.0007075707 0.10801658 0.0010924522 0.1367238 0.0029598016 0.35286474
0.0002162016 0.022272445 0.00062538654 0.057635047 6.053515e-10 2.1931719e-09 2.8489602e-09 5.0629914e-09
3.889119e-06 2.1348858e-06 3.312776e-06 6.3513053e-06 0.001390263 0.17641303 0.0035755625 0.46222144
1.1514757e-06 1.5618429e-05 5.613632e-07 1.6894723e-05 0.0004078722 0.056541122 0.0010170616 0.14414814
0.0007980002 0.110535294 0.0021184075 0.28654563 0.0014297724 0.2229191 0.0033086718 0.566594
1.4710519e-05 0.0008554674 1.1771871e-05 0.0014633011 1.4401607e-05 0.0014745832 4.272949e-05 0.0039264774
3.980383e-08 4.202514e-08 3.296664e-08 1.7381666e-08 0.0007776431 0.11064569 0.0019660324 0.2878089
0.00042152006 0.05261474 0.0011330245 0.1358192 0.00033689858 0.0448095 0.00085114484 0.11786898
3.2802425e-06 1.665208e-06 2.6868702e-06 4.637704e-06 3.3618787e-07 1.0602062e-07 3.1792865e-07 2.6019606e-07
0.0009256389 0.13555239 0.0021620963 0.34652537 8.603121e-06 5.1654006e-06 7.6049687e-06 1.4849576e-05
1.3518063e-06 2.037028e-06 1.837381e-06 5.072604e-06 6.495911e-07 8.206604e-08 6.16184e-07 7.6335186e-07
1.2266228e-05 7.0473407e-06 1.1213064e-05 2.021521e-05 1.6123897e-06 2.2512052e-07 1.5547367e-06 1.8919127e-06
0.00023196705 0.029013822 0.0005675801 0.07375939 1.8724573e-07 3.8152876e-07 9.618775e-08 4.918561e-07
1.2045214e-05 8.4185616e-05 1.151824e-05 0.00011312004 0.00061222445 0.07780264 0.0015443823 0.20277235
0.00025735536 0.041529514 0.0006247357 0.1053095 2.0856805e-07 5.029476e-08 1.9173174e-07 2.1224136e-07
0.00039110752 0.06303851 0.0009248365 0.16024703 3.7551757e-07 5.0369335e-06 2.415592e-06 2.6484495e-05
0.00043322105 0.042477455 0.0012479277 0.10544797 6.25567e-06 7.737298e-05 3.2117773e-06 7.770936e-05
0.00013716104 0.014120958 0.00039401386 0.03723417 0.00070601597 0.09863345 0.0019076024 0.2552389
0.00023945601 0.020853696 0.00069252175 0.058344033 4.5351536e-07 1.3191668e-07 4.306452e-07 3.5606095e-07
00000000: 1f05 cf34 0b52 9134 d8fe b834 7ddd 7834
00000010: f076 cf39 24a6 883d abe6 813a be5c 2e3e
00000020: 3b89 d534 874f 8334 e459 2d35 f759 2e35
00000030: a50f 103a df6a 783d 8778 cc3a a693 203e
00000040: 9274 b23a f8a0 3b3e 17f8 573b 5fe7 f23e
00000050: 3e78 813a a13d 163e c0c4 1f3b 2411 c13e
00000060: cd39 0b39 66b0 c13c ed89 b139 ef37 763d
00000070: 8600 633a cbee e93d ce98 163b 73c8 973e
00000080: 722d 1434 1f0e 3632 fced 6034 6737 1e34
00000090: 444c a435 4d48 1339 444d 6937 ed4b a739
000000a0: 46e3 303a c69d a13d 43d3 003b a556 503e
000000b0: 02f8 9332 b659 4e32 175d 0d34 cb62 f234
000000c0: 74a4 5f3a 304f e43d 783c 173b 6acb 943e
000000d0: 869a d039 65c9 533d c33f 8c3a 71ac 043e
000000e0: 1ce2 bd37 8099 283b b36f 8a38 64ec d43b
000000f0: 0691 2839 c2ca d63c 756f ca39 6302 863d
00000100: 7e42 a034 315d 3a38 37c6 4d36 0bb2 e538
00000110: c721 bd3a 841f 483e c10f 783b 4a5f 023f
00000120: c479 0537 ce32 863a c83d aa37 ec1e 2a3b
00000130: 784b 2c36 8f70 a435 845d 1636 8128 8436
00000140: f1ed 1b3a 3460 ac3d bdc3 ba3a 45ca 5d3e
00000150: f71d 9e34 3a86 cb34 63a1 cc34 d750 1735
00000160: ea38 4a37 0d74 3f3b 03c6 1238 f71f ee3b
00000170: 7d89 073a 40b8 5d3d 78b6 a73a 4bed 133e
00000180: 0eaf 063a 5e4c 8e3d c135 b43a 5283 383e
00000190: f00e ad36 43af 3d38 9310 b236 302d 7638
000001a0: e2ed 9e39 7b43 303d 447c 393a cc37 dd3d
000001b0: 9d30 8f3a 5301 0c3e 3bf9 413b b0aa b43e
000001c0: 2db4 6239 b474 b63c fbf0 233a ba12 6c3d
000001d0: d365 2630 b0b6 1631 70c7 4331 8bf6 ad31
000001e0: 477f 8236 0f45 0f36 0f51 5e36 4c1d d536
000001f0: 7c39 b63a 9ea5 343e fc53 6a3b 4aa8 ec3e
00000200: 678c 9a35 5204 8337 96b0 1635 24b9 8d37
00000210: aed7 d539 aa97 673d ed4e 853a 929b 133e
00000220: e330 513a 5460 e23d fbd4 0a3b 1cb6 923e
00000230: 3367 bb3a e844 643e 4dd6 583b 4e0c 113f
00000240: 33cd 7637 7241 603a cd7f 4537 3dcc bf3a
00000250: 6e9e 7137 cd46 c13a 7138 3338 aea9 803b
00000260: c6f4 2a33 217f 3433 3497 0d33 b04e 9532
00000270: bfda 4b3a 359a e23d 8dd8 003b b05b 933e
00000280: 77ff dc39 8e82 573d fe81 943a 3014 0b3e
00000290: c3a1 b039 2b8a 373d 5d1f 5f3a 4b65 f13d
000002a0: 2322 5c36 1c80 df35 1450 3436 939d 9b36
000002b0: 4f7d b434 74ad e333 c8af aa34 13b1 8b34
000002c0: 93a6 723a 3fce 0a3e f5b1 0d3b c66b b13e
000002d0: 2056 1037 7452 ad36 2f2e ff36 7122 7937
000002e0: b66f b535 e0b3 0836 ee9b f635 5635 aa36
000002f0: 8f5f 2e35 483c b033 d867 2535 24e9 4c35
00000300: 0ccb 4d37 3278 ec36 be1f 3c37 d593 a937
00000310: 4a69 d835 a8b8 7134 59ac d035 a0ed fd35
00000320: 2e3c 7339 65ae ed3c a8c9 143a 2a0f 973d
00000330: b70d 4934 ead4 cc34 c68f ce33 1808 0435
00000340: cd15 4a37 cf8c b038 773e 4137 dc3a ed38
00000350: b07d 203a fe56 9f3d df6c ca3a 8ea3 4f3e
00000360: a7ed 8639 da1a 2a3d 4ec5 233a 82ac d73d
00000370: c0f2 5f34 ac03 5833 d2de 4d34 76e4 6334
00000380: 900d cd39 561a 813d ba70 723a cc17 243e
00000390: be9a c934 ee02 a936 8e1b 2236 052b de37
000003a0: f221 e339 d7fc 2d3d 8191 a33a 1bf5 d73d
000003b0: cce7 d136 4d43 a238 ea89 5736 e5f7 a238
000003c0: e3d2 0f39 975b 673c a593 ce39 db82 183d
000003d0: ee13 393a 5600 ca3d 8408 fa3a acae 823e
000003e0: 7c16 7b39 5fd5 aa3c 598a 353a 27fa 6e3d
000003f0: ad7a f334 fba4 0d34 6d33 e734 a528 bf34

exp_avg f4 [64]
0.017018128 -0.40287033 -0.021853497 -0.30618992 -1.331543 -0.8624467 -0.10119377 -1.1355087
0.014419995 1.3551035e-05 -0.65036017 6.872134e-07 -0.8691153 -1.0332313 0.0500125 0.20392118
-0.0052185454 -1.0729274 0.003360841 -0.069902115 -0.64258885 0.0014374267 0.00021312645 -0.97813374
-0.5684819 -0.13177438 -0.47222957 -1.0082898 -0.021153176 0.0007441943 -0.08418576 -1.3301547
-0.044947702 -0.44105825 -0.7283804 -1.3864958 -0.33158156 -0.016554192 0.0036338305 -0.7023384
-0.53550416 0.15694314 -0.062235612 0.020151824 -1.0512888 -0.12698539 -0.022213388 -0.034757115
-0.14874579 -0.05580941 -0.63997686 0.0009484328 -0.21069406 -0.7183927 -0.5023288 -0.016767602
-0.53450495 0.00030760016 -1.3266083 0.053838853 -0.39055786 -0.543906 -0.46247917 0.023684502
00000000: 9a69 8b3c 0545 cebe 1b06 b3bc edc4 9cbe
00000010: 0070 aabf 4fc9 5cbf ae3e cfbd 5958 91bf
00000020: d841 6c3c 4159 6337 017e 26bf f278 3835
00000030: 577e 5ebf ec40 84bf e8d9 4c3d b7d0 503e
00000040: 5500 abbb af55 89bf 8e41 5c3b d728 8fbd
00000050: b480 24bf 0968 bc3a b27a 5f39 f966 7abf
00000060: 0888 11bf ddef 06be 13c8 f1be a40f 81bf
00000070: 6d49 adbc 0916 433a 9569 acbd 8242 aabf
00000080: 151b 38bd 63d2 e1be 2377 3abf b278 b1bf
00000090: 0fc5 a9be a89c 87bc 8f25 6e3b 73cc 33bf
000000a0: cd16 09bf b4b5 203e c5ea 7ebd 7015 a53c
000000b0: a290 86bf 7508 02be daf8 b5bc 7a5d 0ebd
000000c0: d150 18be 6898 64bd 86d5 23bf 3fa0 783a
000000d0: 2fc0 57be 96e8 37bf 9f98 00bf 365c 89bc
000000e0: 51d5 08bf 6545 a139 4dce a9bf 2186 5c3d
000000f0: 33f7 c7be 6c3d 0bbf 12ca ecbe 0006 c23c

exp_avg_sq f4 [64]
0.00019490121 0.04128495 0.00029285395 0.062245574 0.19238488 0.12543094 0.013374107 0.13213982
0.00010202371 0.0011674985 0.09000937 3.964466e-06 0.12135644 0.06978692 0.0042286115 0.018915907
0.00037933898 0.18204725 0.0012077116 0.002202163 0.0782473 0.0003346742 0.0017614384 0.0823546
0.063884474 0.0032919548 0.040941343 0.15154062 0.02063776 2.5081154e-06 0.0036642428 0.19608237
0.00046880933 0.047290377 0.11997789 0.19563045 0.0068638865 0.0017348663 2.1474616e-05 0.09909187
0.055628 0.030768793 0.0028027873 0.00015364865 0.12808788 0.008531176 0.0035052472 0.0003876396
0.011795754 0.00096602243 0.039330482 0.00034383655 0.008526246 0.0797845 0.031071536 0.00010732863
0.04666107 0.00024374081 0.08620532 0.0024028432 0.020975055 0.08880031 0.035091165 0.00020603412
00000000: 655e 4c39 681a 293d 318a 9939 37f5 7e3d
00000010: 8b00 453e f870 003e 121f 5b3c a94f 073e
00000020: 90f5 d538 c006 993a d556 b83d 8106 8536
00000030: ba89 f83d 72ec 8e3d 2a90 8a3b 88f5 9a3c
00000040: 04e2 c639 986a 3a3e 144c 9e3a 2a52 103b
00000050: 1f40 a03d 3677 af39 11e0 e63a 87a9 a83d
00000060: ddd5 823d d6bd 573b 1cb2 273d 772d 1b3e
00000070: 8510 a93c 1851 2836 cb23 703b d1c9 483e
00000080: 86ca f539 8eb3 413d f8b6 f53d 5953 483e
00000090: 74ea e03b 7464 e33a 6324 b437 aef0 ca3d
000000a0: 30da 633d d60e fc3c f8ae 373b bf1c 2139
000000b0: 7829 033e 58c6 0b3c 4ab8 653b 1b3c cb39
000000c0: fa42 413c ab3c 7d3a 0019 213d f644 b439
000000d0: abb1 0b3c 0e66 a33d bc89 fe3c 9f15 e138
000000e0: ae1f 3f3d ad94 7f39 6a8c b03d 0579 1d3b
000000f0: e1d3 ab3c f0dc b53d c1bb 0f3d dd0a 5839

exp_avg f4 [64, 64]
5.1799297e-08 0.04037635 0.0 0.024230234 0.059266046 0.04689671 0.02919832 0.048361614
6.146562e-08 -1.9692337e-08 0.047598176 3.5689474e-08 0.016760804 0.028304467 0.012981116 0.01548311
-5.4924506e-08 0.033806913 -3.3911754e-05 1.8510975e-06 0.050906245 0.0 -9.300984e-07 0.050744243
0.024945885 0.00040631657 0.014215057 0.059082318 0.050226778 0.0 4.1399817e-06 0.026871003
0.00041280175 0.059171673 0.017264994 0.023877515 0.00051304407 -0.00030115808 0.0 0.022790086
0.007656821 0.0005718687 3.5168734e-06 0.0 0.0723553 2.5760557e-06 7.5902217e-06 0.0
5.6729286e-06 0.0 0.08496799 1.6806788e-06 0.00012149372 0.0758636 0.034158777 7.624088e-07
0.049848385 1.0899947e-06 0.013952087 8.588627e-08 0.023970552 0.011235222 0.0059270784 0.0
-1.4285844e-06 0.019468859 -0.00018758095 0.0057236557 -0.053616706 0.008884504 0.019370534 0.014628646
-4.837324e-06 -6.5500615e-08 0.009891166 5.02425e-09 0.0128863 -0.020287191 0.01154838 0.017323656
-9.254348e-06 0.0042458135 -1.4077459e-05 -0.00047454183 0.023989903 0.0 2.1133181e-07 0.014577295
0.0067434227 -0.0008292234 0.005595761 0.010628118 0.021417862 -1.5311174e-05 -0.00035645632 0.00066726014
-0.000601992 0.026676161 0.022650162 -0.0033222192 -0.00070345297 0.0023054795 -6.9793554e-05 0.016467402
0.0031464589 0.0032207384 -0.00034377386 -0.00013896715 0.011441744 -0.0005736363 -7.200726e-05 -7.5366996e-05
-0.00033885826 -0.00033029364 0.020804824 -1.5208736e-06 -0.0005963449 0.02459372 0.016335867 -7.3525545e-05
-0.042593386 -1.01837e-06 -0.0005461042 -0.000102070175 0.0043790694 0.017640073 0.0025803393 -7.825955e-05
7.4322045e-08 0.00017701252 7.515637e-08 5.7703797e-05 0.00020226717 0.00013477202 1.1019455e-06 0.00014776812
6.905993e-08 4.5338893e-09 0.00012832033 0.0 5.848068e-07 5.4596458e-05 7.420853e-05 0.00010440914
0.0 8.039475e-05 2.4800497e-06 6.973322e-08 5.5897035e-06 4.14708e-08 3.4381014e-07 0.00013329239
6.687033e-05 3.8522893e-07 4.1065363e-05 0.00016500201 2.4966914e-06 0.0 0.0 1.7795035e-06
4.19649e-07 3.5389808e-06 0.00011202761 4.890114e-05 1.3653313e-09 9.035704e-08 1.8450224e-08 1.6702086e-06
5.231578e-06 1.0519936e-06 9.205545e-08 3.8949544e-08 0.00020236653 9.1237965e-08 1.06056824e-07 0.0
2.867334e-08 4.0669946e-08 0.00018265954 2.5655945e-07 2.0995552e-07 0.0002378898 0.000114129405 5.2305404e-09
0.00016493179 1.6729695e-08 0.0 1.5094287e-07 4.88871e-05 2.8665163e-06 1.9354623e-07 2.8626749e-08
0.0 0.0027157983 0.0 0.0 0.0033606833 0.0019931614 0.00212174 0.0024694607
0.0 0.0 0.0019214868 0.0 0.0 0.00089612824 0.0 0.0016275317
0.0 0.0013641468 0.0 0.0 0.0034862405 0.0 0.0 0.0
0.0012718611 0.0 0.00065311295 0.0 0.002601342 0.0 0.0 0.00091182126
0.0 0.003571584 0.0019374612 0.0 0.0 0.000112405956 0.0 0.0017692412
0.00018171807 0.0 0.0 0.0 0.003083586 0.0 0.0 0.0
0.0 0.0 0.0029800194 0.0 0.0 0.0037451496 0.0019117434 0.0
0.0025486804 0.0 0.0 0.0 0.0010642172 0.0016429638 0.00012916756 0.0
00000000: ee79 5e33 ac61 253d 0000 0000 7c7e c63c
00000010: f4c0 723d c416 403d 5131 ef3c d416 463d
00000020: 15ff 8333 e827 a9b2 4ef6 423d fe48 1933
00000030: f44d 893c c5de e73c bfae 543c dfac 7d3c
00000040: 22e6 6bb3 1e79 0a3d 783c 0eb8 3a73 f835
00000050: 1183 503d 0000 0000 e0ab 79b5 32d9 4f3d
00000060: 505b cc3c e306 d539 45e6 683c 4d00 723d
00000070: 98ba 4d3d 0000 0000 2cea 8a36 9420 dc3c
00000080: 506d d839 ff5d 723d 516f 8d3c c79a c33c
00000090: ce7d 063a c1e4 9db9 0000 0000 46b2 ba3c
000000a0: 12e6 fa3b 75e9 153a 6d03 6c36 0000 0000
000000b0: 042f 943d 4de0 2c36 82af fe36 0000 0000
000000c0: 165a be36 0000 0000 b303 ae3d af93 e135
000000d0: 72ca fe38 605e 9b3d 13ea 0b3d 55a8 4c35
000000e0: d22d 4c3d ef4b 9235 4b97 643c 7a70 b833
000000f0: e45d c43c f013 383c f037 c23b 0000 0000
00000100: c9bd bfb5 287d 9f3c 61b1 44b9 818d bb3b
00000110: 319d 5bbd 5090 113c f4ae 9e3c fdac 6f3c
00000120: 4c50 a2b6 58a9 8cb3 8f0e 223c c5a1 ac31
00000130: 0f21 533c 5331 a6bc 6b35 3d3c 57ea 8d3c
00000140: 1f43 1bb7 7720 8b3b 3a2e 6cb7 edcb f8b9
00000150: 7986 c43c 0000 0000 72ea 6234 9bd5 6e3c
00000160: eef7 dc3b 3e60 59ba a55c b73b 8f21 2e3c
00000170: 8374 af3c 7f70 80b7 c2e2 bab9 12eb 2e3a
00000180: 00cf 1dba f787 da3c d58c b93c 97b9 59bb
00000190: ee67 38ba 8717 173b 215e 92b8 a5e6 863c
000001a0: d234 4e3b 0613 533b 8c3c b4b9 b6b7 11b9
000001b0: 2776 3b3c 1560 16ba 9a02 97b8 590e 9eb8
000001c0: c9a8 b1b9 432b adb9 e16e aa3c d220 ccb5
000001d0: 0754 1cba c578 c93c ccd2 853c ba31 9ab8
000001e0: 6776 2ebd edae 88b5 6f28 0fba 820e d6b8
000001f0: 4c7e 8f3b ea81 903c e91a 293b 471f a4b8
00000200: fa9a 9f33 709c 3939 a765 a133 fb06 7238
00000210: ae17 5439 9751 0d39 8fe6 9335 34f2 1a39
00000220: 194e 9433 83c8 9b31 ba8d 0639 0000 0000
00000230: 9efb 1c35 80fe 6438 67a0 9b38 3bf6 da38
00000240: 0000 0000 9a99 a838 ee6e 2636 3ec0 9533
00000250: 308f bb36 a01d 3233 e894 b834 67c4 0b39
00000260: bc3c 8c38 76d1 ce34 993d 2c38 6404 2d39
00000270: d58c 2736 0000 0000 0000 0000 46d7 ee35
00000280: 1f4c e134 3a7f 6d36 5df0 ea38 331b 4d38
00000290: 53a6 bb30 4f0a c233 797c 9e32 ee2b e035
000002a0: ea8a af36 3a32 8d35 05b0 c533 7a49 2733
000002b0: 5a32 5439 9aee c333 5bc1 e333 0000 0000
000002c0: 574d f632 14ad 2e33 4c88 3f39 43bd 8934
000002d0: 2270 6134 0f72 7939 c258 ef38 52b8 b331
000002e0: 8af1 2c39 fdb4 8f32 0000 0000 dc12 2234
000002f0: 200c 4d38 605e 4036 95d1 4f34 e3e6 f532
00000300: 0000 0000 89fb 313b 0000 0000 0000 0000
00000310: e93e 5c3b b39f 023b e40c 0b3b add6 213b
00000320: 0000 0000 0000 0000 66da fb3a 0000 0000
00000330: 0000 0000 26ea 6a3a 0000 0000 e752 d53a
00000340: 0000 0000 2ccd b23a 0000 0000 0000 0000
00000350: 6979 643b 0000 0000 0000 0000 0000 0000
00000360: 94b4 a63a 0000 0000 ab35 2b3a 0000 0000
00000370: 477b 2a3b 0000 0000 0000 0000 4a07 6f3a
00000380: 0000 0000 3c11 6a3b 69f2 fd3a 0000 0000
00000390: 0000 0000 7dbb eb38 0000 0000 e2e5 e73a
000003a0: 938b 3e39 0000 0000 0000 0000 0000 0000
000003b0: fd15 4a3b 0000 0000 0000 0000 0000 0000
000003c0: 0000 0000 0000 0000 6e4c 433b 0000 0000
000003d0: 0000 0000 2f71 753b 7793 fa3a 0000 0000
000003e0: c307 273b 0000 0000 0000 0000 0000 0000
000003f0: 347d 8b3a b858 d73a 2771 0739 0000 0000

exp_avg_sq f4 [64, 64]
5.166552e-10 0.0021585885 0.0 0.00022780681 0.0030183354 0.0012140566 0.001343613 0.0016632891
7.2747425e-10 1.9443088e-07 0.0010773196 1.0692559e-08 0.00042809112 0.00023027281 0.0002846199 0.00083544175
4.922483e-07 0.00044805964 2.029311e-06 3.486578e-09 0.003305079 0.0 8.887962e-08 0.0010027257
0.0003779694 4.752807e-08 0.00013384706 0.0020066756 0.0014011809 0.0 1.7439648e-08 0.00022738706
5.1368698e-08 0.0034874352 0.0009901996 0.00014213698 7.195061e-08 3.8234757e-06 0.0 0.0008018066
1.7336395e-05 7.808701e-06 1.32980835e-08 0.0 0.0027609887 7.603047e-09 5.8524705e-08 0.0
3.2577255e-08 0.0 0.0014639046 1.218639e-08 7.497974e-08 0.004040593 0.0009359729 5.914482e-10
0.0020156656 1.7295572e-07 1.544837e-05 7.305238e-09 0.00021901928 0.000597848 8.322341e-06 0.0
5.823903e-13 0.0015340736 1.0041067e-08 0.00027145652 0.00050918106 0.0010087864 0.0010208357 0.0014026647
6.677483e-12 6.34934e-08 0.0010971369 2.1190653e-10 0.00041090036 4.465129e-05 0.00024905088 0.0005615158
1.7542327e-07 0.00038860392 6.236237e-07 6.268705e-08 0.0026310969 0.0 3.6401165e-08 0.0013377157
0.00036584534 1.1757283e-07 0.00015516333 0.0016238979 0.0015273836 6.7190004e-10 4.6151886e-08 0.00022604899
5.405293e-08 0.0029453938 0.00092623394 0.0001173981 5.5007256e-08 2.8663615e-06 1.3900581e-09 0.0007183929
3.924533e-05 7.628428e-06 3.6633903e-08 5.510954e-09 0.0022003935 8.7274735e-08 2.682298e-08 3.3536482e-09
4.7939107e-08 3.2331254e-08 0.0021135753 2.76726e-09 9.276739e-08 0.0031811001 0.0007480969 1.6005e-09
0.0003265495 1.3274985e-08 4.0445935e-05 3.0478389e-09 0.00025449065 0.000563121 2.0533687e-05 1.7477413e-09
1.8153675e-09 0.000110682246 2.5275037e-08 1.1629877e-05 0.00014594906 6.377783e-05 2.6991113e-06 7.794845e-05
9.1834357e-10 3.2373146e-10 5.797252e-05 0.0 4.535493e-07 1.0419776e-05 2.0593126e-05 4.038541e-05
0.0 2.2776016e-05 4.5540002e-08 2.175904e-08 6.463289e-06 7.69565e-09 5.87204e-10 6.40568e-05
1.5621436e-05 9.62706e-08 5.991337e-06 9.631419e-05 2.9529606e-06 0.0 0.0 3.6592292e-07
8.532777e-08 2.9623902e-06 4.4849425e-05 8.283569e-06 8.341351e-12 6.3057335e-08 1.5232238e-09 1.5708421e-06
1.0321699e-07 1.1135545e-08 1.6317442e-09 6.7883636e-09 0.00014379804 1.6028924e-09 3.8775734e-09 0.0
1.5831031e-10 7.401292e-09 0.000118141084 1.2674451e-08 8.519579e-09 0.0002016433 4.636095e-05 1.2242024e-10
9.849324e-05 2.4509866e-10 0.0 7.775223e-08 8.304989e-06 1.0822555e-06 6.11531e-08 3.6669456e-09
0.0 0.0007472241 0.0 0.0 0.0011442241 0.00040247673 0.0004560792 0.0006178171
0.0 0.0 0.00037405064 0.0 0.0 8.135722e-05 0.0 0.00026835795
0.0 0.00018852891 0.0 0.0 0.0012313189 0.0 0.0 0.0
0.00016388347 0.0 4.3214797e-05 0.0 0.0006855682 0.0 0.0 8.423162e-05
0.0 0.0012923424 0.0003802961 0.0 0.0 1.2800725e-06 0.0 0.00031712445
3.345431e-06 0.0 0.0 0.0 0.0009633139 0.0 0.0 0.0
0.0 0.0 0.0008996921 0.0 0.0 0.0014210001 0.00037026693 0.0
0.0006580923 0.0 0.0 0.0 0.000114740375 0.00027347132 1.6902961e-06 0.0
00000000: 6104 0e30 1b77 0d3b 0000 0000 6ddf 6e39
00000010: 44cf 453b fb20 9f3a 2c1c b03a b902 da3a
00000020: 73f7 4730 c1c4 5034 d934 8d3a 5fb2 3732
00000030: 6b71 e039 6375 7139 0939 9539 8c01 5b3a
00000040: 0c23 0435 8ce9 ea39 4c2f 0836 8798 6f31
00000050: 069a 583b 0000 0000 16de be33 e46d 833a
00000060: 322a c639 aa21 4c33 4c59 0c39 6e82 033b
00000070: d4a7 b73a 0000 0000 31ce 9532 c06e 6e39
00000080: 7ba0 5c33 748d 643b 96c9 813a 9b0a 1539
00000090: 4483 9a33 684b 8036 0000 0000 5430 523a
000000a0: a06d 9137 1e02 0337 9775 6432 0000 0000
000000b0: b4f1 343b 8e9e 0232 985c 7b33 0000 0000
000000c0: 12eb 0b33 0000 0000 7de0 bf3a 4f5c 5132
000000d0: 8c04 a133 f366 843b 145c 753a 7893 2230
000000e0: 4219 043b b5b5 3934 1f97 8137 8e01 fb31
000000f0: 8aa8 6539 e6b8 1c3a 2fa0 0b37 0000 0000
00000100: a5ed 232b f812 c93a 1481 2c32 4752 8e39
00000110: 907a 053a 4139 843a 90cd 853a 9ed9 b73a
00000120: 6bf1 ea2c de59 8833 cecd 8f3a 63fe 682f
00000130: 1d6e d739 f547 3b38 0b93 8239 b032 133a
00000140: fb5b 3c34 89bd cb39 1867 2735 929e 8633
00000150: 7b6e 2c3b 0000 0000 8157 1c33 4a56 af3a
00000160: eece bf39 597c fc33 57b3 2239 f9d8 d43a
00000170: 7d32 c83a c3b0 3830 8938 4633 9007 6d39
00000180: d327 6833 8207 413b 82ce 723a a033 f638
00000190: 1e41 6c33 b75b 4036 520c bf30 8852 3c3a
000001a0: 5a9b 2438 b3f7 ff36 6757 1d33 dd5a bd31
000001b0: 7a34 103b cb6b bb33 5b68 e632 0176 6631
000001c0: 9be5 4d33 97dc 0a33 e983 0a3b 272a 3e31
000001d0: 6937 c733 017a 503b ef1b 443a 96f8 db30
000001e0: bb34 ab39 0010 6432 7ea4 2938 2672 5131
000001f0: 286d 8539 699e 133a c23f ac37 2e35 f030
00000200: 9180 f930 141e e838 651c d932 f11d 4337
00000210: e709 1939 76c0 8538 6122 3536 4178 a338
00000220: af6e 7c30 27f9 b12f 8527 7338 0000 0000
00000230: 577f f334 99d0 2e37 67bf ac37 8163 2938
00000240: 0000 0000 1f0f bf37 c397 4333 a3e8 ba32
00000250: 3bdf d836 d435 0432 cf68 2130 3c56 8638
00000260: c70a 8337 52bd ce33 3109 c936 49fc c938
00000270: 7a2b 4636 0000 0000 0000 0000 1074 c434
00000280: 703d b733 7acd 4636 b41c 3c38 a8f9 0a37
00000290: 1bbe 122d 236a 8733 ac59 d130 b9d5 d235
000002a0: 24a8 dd33 a54e 3f32 e543 e030 143f e931
000002b0: 7ec8 1639 c34c dc30 7f3b 8531 0000 0000
000002c0: 6410 2e2f 744e fe31 83c2 f738 d3be 5932
000002d0: 815d 1232 3670 5339 b173 4238 3c9a 062f
000002e0: 288e ce38 92be 862f 0000 0000 bef8 a633
000002f0: a855 0b37 0442 9135 4653 8333 97fd 7b31
00000300: 0000 0000 5ce1 433a 0000 0000 0000 0000
00000310: caf9 953a 8303 d339 ea1d ef39 01f5 213a
00000320: 0000 0000 0000 0000 3a1c c439 0000 0000
00000330: 0000 0000 539e aa38 0000 0000 65b2 8c39
00000340: 0000 0000 d8af 4539 0000 0000 0000 0000
00000350: 3564 a13a 0000 0000 0000 0000 0000 0000
00000360: 22d8 2b39 0000 0000 8941 3538 0000 0000
00000370: b4b7 333a 0000 0000 0000 0000 82a5 b038
00000380: 0000 0000 d163 a93a 7a62 c739 0000 0000
00000390: 0000 0000 f5ce ab35 0000 0000 b943 a639
000003a0: 1182 6036 0000 0000 0000 0000 0000 0000
000003b0: e786 7c3a 0000 0000 0000 0000 0000 0000
000003c0: 0000 0000 0000 0000 51d9 6b3a 0000 0000
000003d0: 0000 0000 da40 ba3a 6320 c239 0000 0000
000003e0: d483 2c3a 0000 0000 0000 0000 0000 0000
000003f0: c5a0 f038 b360 8f39 22de e235 0000 0000

exp_avg f4 [64]
0.12740026 -0.034794327 0.00030087202 0.0042960607 -0.40902674 -0.07632669 -0.13383588 0.40684444
-0.21668154 0.015852047 -0.33269596 -0.40298632 5.1262464e-07 -0.14447552 -0.1495003 0.0004144836
-0.34503302 -0.22214909 1.2089312e-05 0.12883267 5.5352582e-05 -0.3819253 -0.2211828 -0.15551122
-0.09244848 -0.13082789 5.7359466e-05 1.1584203e-05 -0.14832199 0.018147951 -0.46089485 -0.09936083
-0.33473927 -0.4043846 -0.59765047 0.0 -0.78346944 1.8702389e-05 -0.30100062 -0.3031327
1.0574568e-05 0.0 -0.31471655 -0.6480333 2.9460198e-08 0.057931866 0.00033708464 -0.7544671
-0.34459913 0.008885316 0.0 0.009025355 1.1444291e-06 0.35783538 0.012791972 2.5109723e-06
-0.032712817 -0.7582016 -0.45274994 -5.8221976e-06 -0.7427911 -0.4975018 0.0006860239 -0.71982604
00000000: 3775 023e 7f84 0ebd 5cbe 9d39 f8c5 8c3b
00000010: f46b d1be 2b51 9cbd 460c 09be ea4d d03e
00000020: c4e1 5dbe 27dc 813c 2057 aabe 3954 cebe
00000030: 4c9b 0935 64f1 13be 9b16 19be 0c4f d939
00000040: 2ba8 b0be 0d7b 63be 33d3 4a37 b6ec 033e
00000050: 622a 6838 b78b c3be be7d 62be 553e 1fbe
00000060: a155 bdbd bff7 05be 4295 7038 c659 4237
00000070: b8e1 17be 03ab 943c 69fa ebbe b17d cbbd
00000080: f262 abbe 800b cfbe 9fff 18bf 0000 0000
00000090: 7491 48bf 13e3 9c37 c11c 9abe 3634 9bbe
000000a0: 6c69 3137 0000 0000 8722 a1be 83e5 25bf
000000b0: a90f fd32 f749 6d3d bcba b039 c224 41bf
000000c0: 4c6f b0be b793 113c 0000 0000 15df 133c
000000d0: 499a 9935 3336 b73e 6b95 513c 2d82 2836
000000e0: e0fd 05bd 8019 42bf d7ce e7be 4c5c c3b6
000000f0: 8f27 3ebf 8eb8 febe 49d6 333a 8546 38bf
