gen_2_agent_4.pt (torch, 64207 bytes, 18 tensors)

net.0.weight f4 [64, 4]
000000 be 28 6b be 9d 9e a3 3c bd 6f 49 3e 86 bb a7 3d
       -0.2296476 0.019973094 0.19671531 0.08190064
000010 17 86 3b 3e 78 ca 87 bc 6c e0 29 be 81 9c b7 bd
       0.1831287 -0.016576037 -0.16589516 -0.089653976
000020 2a f7 a3 bd 7c a6 ec bd 2c 5c 2b 3c ec b1 e9 bc
       -0.08006127 -0.11555192 0.010458987 -0.028527223
000030 02 ab 8f 3d 9d 8b 94 3d 94 a9 1b bb 21 dc 6a be
       0.07015039 0.072531916 -0.00237522 -0.22935535
000040 6c cf 54 be 25 7b b5 bc e2 66 6e 3e c9 2f 31 3e
       -0.2078225 -0.022153446 0.23281434 0.17303385
000050 a0 b8 fc 3c 80 49 22 be 1e ce 97 bc ef 6b 05 be
       0.030849755 -0.1584835 -0.018530902 -0.13029455
000060 1a 8a 06 3e 02 fb c4 3d 2e e7 02 be c1 ac 96 bd
       0.13138619 0.096181884 -0.127835 -0.07357169
000070 30 83 59 3e ac 76 30 be fc f0 fc bd fd 91 32 bc
       0.2124145 -0.1723277 -0.123506516 -0.010899064
000080 16 61 8f 3c 47 9d ee bd 86 f1 4b be c4 52 0a 3d
       0.017502349 -0.11651092 -0.19916353 0.033770338
000090 b7 79 76 be 24 ca 53 3e 23 a3 36 3c f8 fe 8b 3d
       -0.24069868 0.2068258 0.011147293 0.06835741
0000a0 43 2a 58 3e 47 6e 69 be ec 46 83 3e aa 4c 0d bc
       0.21109872 -0.22795974 0.25640047 -0.008624235
0000b0 af 7d 72 bd fb bf 77 be 9b 73 36 be cb 1d 94 3e
       -0.059201892 -0.24194328 -0.17817537 0.2892898
0000c0 d8 4e 4d 3e e1 ff 61 3e 91 88 65 3e bf e9 05 be
       0.20049608 0.22070266 0.22415377 -0.13077448
0000d0 49 b7 69 bd ee 2a 41 be e8 65 90 3e 60 ea 89 3d
       -0.05705956 -0.18864033 0.28202748 0.067341566
0000e0 6b c5 a3 be d8 d2 d7 3c f1 82 91 3e 33 64 9b bd
       -0.31986555 0.026345655 0.28420213 -0.07587471
0000f0 ad 67 0b be c0 76 b0 bb 99 ff 57 3d 5c 69 6d 3e
       -0.13613768 -0.00538525 0.05273399 0.23184723
000100 18 73 f0 bd 1b f6 08 be f4 c1 ae 3d 31 64 f6 bd
       -0.117407024 -0.13375132 0.085330874 -0.12030829
000110 13 80 2f be 7b 2f da 3d 88 be e4 bc 18 b1 1b be
       -0.171387 0.106535874 -0.027922884 -0.15204275
000120 40 eb 72 bd 66 d9 9a 3e 61 b9 42 bd 73 a8 8e bd
       -0.059306383 0.30243987 -0.047540072 -0.06965723
000130 10 60 33 3e 5f bf 42 bd e5 96 82 3e 4d 0d ca 3e
       0.17517114 -0.047545787 0.25505748 0.39463273
000140 79 d5 21 be c2 5f 89 be b6 4e cc 3a 57 44 5d be
       -0.1580409 -0.2683087 0.0015587423 -0.21608101
000150 3b 57 2d 3e 6d 6d 0a 3e a8 65 c3 3e 9a fc f7 3d
       0.16927807 0.13518305 0.38163495 0.12108727
000160 f4 99 76 3e da 85 1b 3e 40 49 da bc 52 b2 98 be
       0.24082166 0.15187779 -0.026646256 -0.29823548
000170 d7 51 85 3d 6f 56 3e 3a a6 4d 87 be 9c b3 6e bd
       0.0650975 0.00072608044 -0.2642643 -0.058276758
000180 c5 e7 44 3e dd 70 e3 bd 6d 7d 4d 3e df 50 a1 bd
       0.19229038 -0.11105511 0.20067377 -0.07876753
000190 a8 82 0b bd 38 f7 98 3a 1b 61 85 3e 90 64 81 be
       -0.03406015 0.0011670357 0.26050648 -0.25272036
0001a0 2e 38 a5 be 68 76 76 be b4 03 82 bc b1 63 84 3e
       -0.32269424 -0.24068606 -0.015870906 0.25857309
0001b0 5f d3 6c be 6c e7 95 3e c7 94 44 3e 70 e1 43 be
       -0.23127507 0.29278123 0.19197379 -0.19128966
0001c0 3d 1d 6a 3e 51 eb 60 be 3b 6b fc 3d 37 c8 dc bd
       0.22862716 -0.21964766 0.1232514 -0.107803755
0001d0 af ad 72 be 3b 39 e9 3d a5 5f 1b be b9 f5 44 3e
       -0.23699068 0.11387869 -0.15173204 0.19234361
0001e0 22 b7 91 3e 80 e2 41 3e fb c8 16 be 48 a9 1a 3d
       0.28460032 0.18934059 -0.14725105 0.037759095
0001f0 eb a6 f3 bc ef 05 9e be c4 b8 11 3b ea 78 b9 bd
       -0.029742679 -0.30863902 0.0022235373 -0.09056266
000200 ed 85 80 3e 50 25 94 be 4e 2e f8 bd 5a d6 9a be
       0.25102177 -0.28934717 -0.12118207 -0.30241662
000210 58 40 5e be 14 72 92 be ec a6 76 3e a7 a0 ff 3d
       -0.21704233 -0.2860266 0.24087113 0.12481814
000220 02 21 a5 be 58 c7 36 be fa a3 43 be a1 e2 92 be
       -0.32251745 -0.17849481 -0.19105521 -0.2868853
000230 ff ee 24 3e 43 db 59 be cc 7e 09 3e af 94 79 be
       0.16106795 -0.21275048 0.13427275 -0.24373125
000240 33 fa 3a be b0 9c ff 3d 93 b9 9c bd b9 c4 8f be
       -0.18259506 0.12481058 -0.07652583 -0.28079775
000250 e5 87 4e 3e d7 56 f9 bd 65 62 34 be 6b 82 25 3e
       0.20169027 -0.121747665 -0.1761566 0.16163032
000260 03 4c f0 3c 0b fe 1a be 6b 93 82 3e 8e 95 66 bd
       0.02933312 -0.15135972 0.25503096 -0.05629497
000270 b8 f8 66 3d db cc 31 3d 60 cd 48 3e bc 8a 71 be
       0.05638954 0.043408256 0.19609594 -0.23588079
000280 47 59 de 3d af 38 63 3e 5c 99 03 bd 14 b7 a6 3d
       0.10856872 0.22189592 -0.032128677 0.08140388
000290 a4 7c 67 bd eb bb 2f be ae 97 be 3d 8b 06 c8 3e
       -0.05651535 -0.17161529 0.09306274 0.39067492
0002a0 99 db 77 be 08 7e 5c be b9 43 d8 3d 05 3e 73 be
       -0.24204864 -0.21532452 0.10559792 -0.23754127
0002b0 ca d2 ce 3c 5a bb 9a 3c 9b eb 90 3e 56 e5 3a 3e
       0.025246996 0.018888164 0.28304753 0.18251547
0002c0 80 c8 6f be ae 5a 1c bd 5c a3 c8 bd 93 53 8c 3a
       -0.23416328 -0.038172416 -0.09796783 0.0010706059
0002d0 bd 64 65 3e 25 ba e8 3d 3b 8e 56 bd 27 2d a9 3e
       0.2240171 0.11363629 -0.052381735 0.3304226
0002e0 b2 88 8e 3e 95 92 8a 3e 8b 31 a7 be 6e fe 4e 3e
       0.27838665 0.27064958 -0.32654986 0.20214245
0002f0 15 af 8b be 4c 1a a8 be 94 16 3d be 38 b7 f8 bd
       -0.27282014 -0.32832563 -0.18465644 -0.12144321
000300 64 cf c3 bd 51 51 39 3e d9 fe 53 be af 6c 11 bc
       -0.09561041 0.18097426 -0.20702685 -0.00887601
000310 c5 bb 88 be 22 70 68 be 8d 11 7c 3e b6 45 b4 3e
       -0.26705757 -0.22699025 0.2461607 0.35209435
000320 fe 4b 88 3e a4 bc 7d 3e f2 d4 e7 3d 11 ce 0b be
       0.26620477 0.24778992 0.11319913 -0.13652827
000330 b9 50 4b be fe 92 87 bd f6 7c 16 3e dd f0 8e 3e
       -0.19855012 -0.066198334 0.14696106 0.2791814
000340 e2 1e cf 3c b4 99 fb 3c 2f 83 33 bd 54 6f c1 3d
       0.02528328 0.03071294 -0.04382628 0.09445062
000350 d8 99 93 be d3 75 1b bd 23 fe 75 be 98 48 4b be
       -0.2882831 -0.037954163 -0.24022727 -0.19851911
000360 63 7b e3 3d b2 2e 8b be 62 cc 51 3d a7 30 48 3d
       0.111075185 -0.27184063 0.051220305 0.048874523
000370 30 b5 3c be ae a7 05 bd 82 fd ec bd c3 2d 72 be
       -0.18428493 -0.032630615 -0.1157179 -0.23650269
000380 68 f9 59 3e f6 30 98 3d 4e b6 e3 bd f1 7c 22 3e
       0.21286547 0.074312136 -0.11118756 0.15867974
000390 55 1c e8 bd ba 44 48 be a5 d2 7b 3e f1 27 c4 bd
       -0.11333529 -0.19557467 0.24592073 -0.09577931
0003a0 2f b9 0a 3e 38 d6 62 3e ce eb 98 be 21 3f 85 be
       0.13547204 0.2215203 -0.29867405 -0.26024726
0003b0 30 19 89 be 22 62 82 be cd 3f 17 bd 46 61 38 3e
       -0.2677703 -0.25465494 -0.03692608 0.18005857
0003c0 f9 84 d3 bc 2f 81 8e 3d 2e ea 15 bd c7 c0 d6 bd
       -0.025820242 0.069582336 -0.036600284 -0.10485988
0003d0 5a 04 44 be 96 fe 8b 3c 37 4c 83 bd 4b a5 82 3e
       -0.19142285 0.01708917 -0.06411021 0.25516734
0003e0 c2 71 85 be 01 49 4f 3e e3 82 1e bc 88 3b 69 bb
       -0.26063353 0.20242693 -0.0096747605 -0.0035588462
0003f0 aa c7 9a be 1b 58 86 be 29 7f 12 3e 86 74 6b 3c
       -0.30230457 -0.26239094 0.1430632 0.014371043

net.0.bias f4 [64]
000000 57 75 80 3d 8f 49 9d bb 71 03 cd 3d 45 c1 82 3c
       0.06272381 -0.0048000286 0.10010422 0.015961299
000010 21 b8 d3 3d 3a 96 af 3d 19 2d dc bc e3 cd e9 3d
       0.10337854 0.08573575 -0.026876973 0.11416223
000020 a8 5d d8 3d 37 55 d6 3c 79 0c 06 3e ff 39 14 3e
       0.105647385 0.02616368 0.13090695 0.14475249
000030 22 9f ca 3d 4f af a9 3d 86 9a 04 3e 2e e2 d6 3d
       0.098936334 0.082853906 0.12949571 0.10492359
000040 79 5b 9d bc 13 d1 15 bc 99 c9 a2 3d 61 0b 0e 3e
       -0.019208657 -0.009144085 0.07948608 0.13871528
000050 f3 9b 60 bc 4e 76 23 3e 97 9d 97 3d de f7 94 bc
       -0.013709056 0.15963098 0.07403105 -0.018184599
000060 02 5c e3 bc 4a 62 db 3d c4 b2 0c 3e c1 1c dd 3d
       -0.027753834 0.107121065 0.13740069 0.107965
000070 33 ed ad bc a8 be dc 3d 77 f1 07 bd 92 ca e4 3d
       -0.02123127 0.10778552 -0.033189263 0.1117145
000080 99 40 61 3d de cd 15 3e 09 cc 4e 3d 9a 4f d0 bc
       0.054993246 0.14629313 0.05048755 -0.025428582
000090 15 f1 c8 3d 95 ee 3b 3d 85 c9 9f 3d 15 e1 fd bc
       0.09811608 0.045881826 0.07802109 -0.030991117
0000a0 dd ce 00 3e 83 0a 20 3e 1d 57 99 3d 83 51 e5 3d
       0.12578912 0.1562901 0.07487319 0.11197188
0000b0 1a 9e e1 3d ea 82 89 3d e3 d0 26 bd 37 7b e4 3d
       0.110164836 0.06714423 -0.040726554 0.11156314
0000c0 51 04 cc 3d 7b a4 0e 3e 16 5a 2e 3d 1c d4 74 3d
       0.09961761 0.13929932 0.04256638 0.059772596
0000d0 bc c6 ea 3d a8 ac 55 3d a5 4a b8 ba e8 3b af bc
       0.11463687 0.05216661 -0.0014060332 -0.02139087
0000e0 f4 67 eb 3d c2 7c 5f bd ff 1c 88 3c 23 49 9d 3d
       0.11494437 -0.054562338 0.016615389 0.07679965
0000f0 15 1a df 3d 9b 18 08 3e 92 19 e7 3d 4c 9b a2 3d
       0.10893647 0.13290636 0.11284174 0.07939777

net.3.weight f4 [64, 64]
000000 28 08 83 3d 36 10 78 3c 0e 2d ae 3d 04 89 44 be
       0.0639804 0.015140584 0.08504687 -0.19192892
000010 ad 19 bb 3d cc 13 86 3e d1 a6 b1 3c 1e 24 20 bd
       0.09135757 0.2618698 0.02168599 -0.039096944
000020 0d 52 3d bb 76 5d 83 3e fe 57 50 3e e4 2c 8e 3e
       -0.0028888017 0.25657243 0.20346066 0.27768624
000030 58 77 2f 3e 47 b9 a1 3e cd 03 61 3e 75 33 87 bd
       0.1713537 0.31586668 0.21974106 -0.066016115
000040 37 56 43 bc d2 51 a8 bd 6b 45 75 3e 31 ba 70 3e
       -0.011922411 -0.08218731 0.23952262 0.23508526
000050 94 7f 36 bd 4c ce 5e 3e c7 de 08 3c 85 a3 1c be
       -0.04455526 0.21758384 0.0083538955 -0.15296753
000060 62 54 a9 3d e1 f1 4d 3e 5a 3c d5 3d e6 f0 0f be
       0.08268048 0.201118 0.10411902 -0.14056739
000070 7a e9 6c 3c a0 ea 85 3c ed ba 0c 3d 0d 7e 2a bd
       0.014459962 0.01634723 0.034357954 -0.041624118
000080 6f 8f 0c be c9 61 e7 bd ab ae 96 3c 31 4c 25 be
       -0.1372659 -0.11297948 0.018393835 -0.16142346
000090 46 79 2b 3e 8e ab 38 3d 34 45 8d bd 66 34 4b 3e
       0.16745481 0.045085482 -0.06897965 0.19844207
0000a0 a3 c0 3e 3e f9 94 ad 3d 47 1a 25 bd d4 14 19 3e
       0.18628173 0.0847568 -0.040308263 0.14949352
0000b0 a2 df d4 3c 77 31 c8 bd 0c 54 ba bd cc 3e 93 3d
       0.025985543 -0.0977506 -0.09098062 0.07189712
0000c0 fa e8 83 bd 91 b1 23 3d 19 b4 67 3e 89 1a 40 3e
       -0.06440921 0.039964262 0.22627296 0.18760122
0000d0 2f dd 16 3d f5 38 63 3e bf a4 87 3d 38 96 9f bb
       0.03683203 0.22189696 0.0662322 -0.0048702024
0000e0 ea 91 8e 3e f8 d5 e7 bd 4d cb 3f be 5b 64 97 bd
       0.278457 -0.11320108 -0.18729897 -0.07392188
0000f0 53 43 cc bd f5 9e 6e 3e 86 71 37 3e 80 33 d4 bd
       -0.099737786 0.23302825 0.179144 -0.10361385
000100 f0 9e 8d 3d 80 7d c6 bd ef 26 e2 bc 46 ad bd bd
       0.069150805 -0.09691906 -0.027606456 -0.09261565
000110 da e7 48 be 47 09 d8 3d b7 30 cd bd 23 fc 23 be
       -0.19619694 0.105486445 -0.10019057 -0.16014151
000120 12 82 4f be 4a 27 d3 bd fa 6c 66 be 0a b1 e5 3d
       -0.20264462 -0.10310228 -0.22502509 0.11215408
000130 c7 f9 eb bd d4 09 dc bd c2 dd e7 bd 7d 9c 49 be
       -0.115222506 -0.10744062 -0.11321594 -0.19688602
000140 77 c3 e8 bd 8a be 8c bd ea 57 d3 3d 20 48 c6 bd
       -0.11365407 -0.0687228 0.10319503 -0.096817255
000150 94 cb f3 bd 59 34 36 3e 34 14 67 3d 06 68 9f bd
       -0.11904064 0.17793407 0.05641575 -0.07783513
000160 91 71 9f 3d aa 9a 4b be c0 b6 b0 3d b2 91 0d be
       0.07785333 -0.19883218 0.08628607 -0.1382511
000170 e9 77 e7 3d a9 36 09 be 0c bf 02 bd 99 a1 1b be
       0.11302168 -0.13399757 -0.031920478 -0.15198363
000180 64 1e 6c bd 1b e1 54 3d 4e db 0d be 50 ee e4 bd
       -0.05764617 0.05197249 -0.1385319 -0.11178267
000190 b2 64 a2 3d 66 b8 48 3e 57 2f a3 3d 5a 5d e4 3d
       0.07929362 0.19601592 0.07968014 0.11150618
0001a0 1d 00 49 3e b3 3c cb 3c c6 7c 26 3e 79 dc 00 3e
       0.1962895 0.024809217 0.16258535 0.12584104
0001b0 20 d4 cc bb f3 82 15 bd 2b 18 93 3d ea 9e 3a be
       -0.006250873 -0.036501836 0.07182344 -0.18224683
0001c0 e5 5c 3c be 84 75 3e be c9 6b 19 3e 75 7c 06 bd
       -0.18394811 -0.18599516 0.14982523 -0.032833535
0001d0 94 bc 71 bd bc bc db bd 23 1a bc 3d 46 d2 a8 3d
       -0.059017733 -0.107293576 0.09184673 0.082432315
0001e0 8a d8 ed bd 6c 0f 2f 3e 50 81 5a bd 1d 27 65 3d
       -0.11613567 0.17095727 -0.05334598 0.055945504
0001f0 a1 46 f0 bd d2 ed db 3d 45 be 3b 3e 6d 55 59 be
       -0.117322214 0.1073872 0.18334301 -0.21223994
000200 d7 af 57 bd 9f a0 3a 3e 7c e1 e2 bd 09 73 1a be
       -0.05265793 0.18225335 -0.11078164 -0.15082945
000210 6a eb 4d 3d d3 42 24 be e2 7d 20 3e 85 66 cf bd
       0.050273336 -0.16041116 0.1567302 -0.10126976
000220 ee aa 91 bd e9 72 cf 3d a1 99 1c bd 77 92 86 3d
       -0.071126804 0.10129339 -0.03823245 0.06570905
000230 dc 52 23 3e 4e d4 06 ba 98 a9 4e be 8e b5 3b bd
       0.15949577 -0.000514333 -0.20181882 -0.04582744
000240 00 8e c4 bc 28 0a 14 3e 44 a4 83 bd e2 b9 d5 bb
       -0.023993492 0.14457 -0.064278156 -0.006522403
000250 5e bb f0 3d 16 32 df 3d df 9f 44 3e ca 56 b9 3d
       0.117544875 0.10898225 0.19201611 0.09049757
000260 23 70 0d 3e e3 61 e5 bc 44 06 94 3d 53 cd e5 bd
       0.13812308 -0.028000778 0.072277576 -0.11220803
000270 04 02 9d 3d c7 be d2 bb 5d df a8 3d 7e e3 85 bc
       0.076664 -0.006431434 0.08245728 -0.016343828
000280 9b 85 0a 3e 98 c2 73 3d 7e 6d c6 3d f0 45 5d 3d
       0.13527529 0.05951175 0.09688853 0.054021776
000290 15 6f 5b be 41 7b 71 bd 09 98 29 bd 7e 35 71 3d
       -0.21429093 -0.058955435 -0.041404758 0.058888905
0002a0 20 bb f8 3d 9f 88 14 bd 47 94 e9 bd 13 89 df bd
       0.12145066 -0.036263105 -0.11405235 -0.10914817
0002b0 16 57 a2 bd b1 64 99 3d d3 e5 02 3e b6 8f d9 3d
       -0.079267666 0.074899085 0.12782983 0.10623114
0002c0 0b d8 54 be 68 b2 5f be e5 46 20 be 43 a4 9a 3d
       -0.20785539 -0.218454 -0.15652044 0.07550862
0002d0 bb ac e4 bd c3 bf b7 3b dd 70 ac 3b 7b 68 a1 3b
       -0.11165758 0.0056075766 0.005262478 0.004925785
0002e0 20 f5 1b bd a4 28 17 be 92 08 be 3d 46 7d ee bc
       -0.038075566 -0.14761597 0.092789784 -0.02911247
0002f0 9e da 25 be 0c 19 35 bd f2 e5 10 3e 9a 56 d3 3d
       -0.16196677 -0.04421334 0.14150217 0.10319252
000300 70 80 27 be b7 da 04 3e b7 64 ad bd 9d 57 ec bd
       -0.16357589 0.12974058 -0.084664755 -0.115401484
000310 9a d4 75 bd bf 60 25 3e 90 e7 a5 3d dc c6 55 be
       -0.060017206 0.16150187 0.08100808 -0.2087664
000320 9e 01 a4 bd da a8 4b 3e 59 c9 0b 3d cc 8c 56 be
       -0.08008121 0.1988863 0.034127567 -0.20952147
000330 f2 a7 bf 3d 3e b4 ad bd 54 99 8f 3c 3b 8e 50 bc
       0.09358205 -0.08481644 0.017529167 -0.012729223
000340 a4 10 1d bd 7b cb 21 be 82 ed 29 3e 16 fb 2f 3e
       -0.038345948 -0.15800278 0.16594508 0.17185625
000350 80 db e2 bb 7f 52 9b bc 5b 57 72 bd 90 cd 10 bc
       -0.006923139 -0.018960236 -0.05916534 -0.008838072
000360 eb 93 1a be 7b 57 13 3e 0c 89 3d 3e 74 0f 38 be
       -0.15095489 0.1438884 0.1850931 -0.17974645
000370 66 da d0 3c b6 6a 97 bd 94 86 c6 bd 90 a6 1a 3c
       0.025494765 -0.073934 -0.096936375 0.009439126
000380 6c 8e 38 bd c6 fc a8 bc 21 b9 40 be 64 f3 0d be
       -0.0450577 -0.020628344 -0.18820621 -0.13862377
000390 4a f1 53 3c 6c 5b 26 3d 1f 8b ea bd 61 40 86 3d
       0.012935946 0.04061453 -0.114523165 0.06555248
0003a0 78 2e 47 3e 55 7c 5b 3d d5 9e 9e 3d 5c b3 55 bd
       0.1945132 0.05358537 0.077451386 -0.052173004
0003b0 a6 2d b4 3d 49 21 1b 3e 09 0d 53 3d d0 a7 47 be
       0.08797769 0.15149416 0.051526103 -0.19497609
0003c0 24 29 29 be f0 35 53 bc 70 20 1a 3e 88 72 69 be
       -0.165196 -0.012891278 0.15051436 -0.22797596
0003d0 6d 03 bf 3b 02 57 d8 3d 0c a9 43 be 33 78 ef 3d
       0.005829266 0.105634704 -0.19107455 0.11692848
0003e0 e9 89 58 be f3 39 a5 bd d8 d7 56 be dc eb d1 bc
       -0.21146359 -0.080676936 -0.20980775 -0.025625162
0003f0 46 12 4b be 99 cc 8f 3c f6 11 9a 3d 30 90 af bd
       -0.1983119 0.017553614 0.07522957 -0.085724235

net.3.bias f4 [64]
000000 25 3e d7 3d 46 f4 8f bc fb 05 66 bd 5a 30 b6 bc
       0.105099 -0.017572533 -0.056158047 -0.022239853
000010 c5 97 b1 3d ed 85 1f bd 8d 9b 09 bd a1 5f 61 bb
       0.08671526 -0.03894608 -0.03359561 -0.0034389275
000020 ff 7a 1a 3e 24 0a 22 bc 9b e8 de bc 2f df ba bc
       0.15085982 -0.009890113 -0.027210524 -0.0228115
000030 41 d7 77 bb 66 02 0a 3e c8 7f 9b 3d f4 48 1f 3e
       -0.003781751 0.13477477 0.07592732 0.15555173
000040 ea f3 05 3e 06 58 9b 3d 6c 4b 3a bd bf 1e 50 bd
       0.13081327 0.075851485 -0.045482084 -0.05081057
000050 43 f9 18 3e 76 41 22 bd 04 87 85 3d 8a 9e e7 bc
       0.14938836 -0.03961321 0.06519893 -0.02827384
000060 08 0b 0a bd 6c d3 13 3d ae 2a f5 bc 37 5e 14 3e
       -0.033701926 0.0360903 -0.029927578 0.14489065
000070 f1 c9 91 bc 7f 8b aa 3d 41 5d 89 bc 4f ac 9c 3d
       -0.017796488 0.08327388 -0.0167681 0.07650053
000080 7e 06 03 3e 20 48 25 3e 73 09 b9 bb 1a 49 93 3d
       0.12795445 0.16140795 -0.0056468784 0.071916774
000090 94 47 c7 3d 65 c1 cd 3d 07 ee 98 3d aa 9d fb bc
       0.09730449 0.10046653 0.07467275 -0.030714829
0000a0 43 65 71 3c 1f 2d 00 3e 85 e0 22 3e 3f 09 60 bc
       0.014733615 0.12517212 0.1590596 -0.013674079
0000b0 69 ff 0d 3e 9a f8 a8 bc c6 4d 22 bd 3f c5 8e 3d
       0.13866962 -0.020626355 -0.03962495 0.069712155
0000c0 df 60 f2 3d a6 b3 33 bd c3 00 e1 3c 85 14 2b bc
       0.11834883 -0.043872498 0.027466184 -0.010441904
0000d0 fa 3e 17 3e e9 b4 a1 bc cd 65 3f 3c 00 b5 24 bc
       0.14770117 -0.019739585 0.011681986 -0.010052919
0000e0 45 1f cb 3d 13 9e e4 3d 45 c7 11 3e 26 41 89 3b
       0.099180736 0.11162963 0.14236172 0.0041886745
0000f0 04 b5 24 bc 5e 23 e2 3d 85 b5 56 ba 15 4c d7 bc
       -0.010052923 0.11041902 -0.00081905007 -0.026281396

net.6.weight f4 [2, 64]
000000 80 17 09 3e f4 20 31 bd 2e 30 13 be 77 aa 94 3e
       0.13387871 -0.043244317 -0.14373848 0.29036304
000010 0c a3 a8 3e f4 f1 ea bd 5b 12 08 be 37 fb 40 3e
       0.32936895 -0.1147193 -0.13288252 0.18845831
000020 6f 98 67 3e fe 92 5f be 92 6c b2 bd 26 cd fd 3b
       0.22616743 -0.21833417 -0.087121144 0.007745403
000030 42 16 fc bd be 1a 27 3e 42 49 b8 3e 62 57 46 3e
       -0.12308933 0.16318795 0.3599339 0.19369271
000040 cb 0f c5 3e b2 3f b3 3e cd 33 c7 bc 48 22 1c be
       0.38488612 0.35009533 -0.024316693 -0.15247452
000050 04 2f 95 3e 97 29 03 be cc af 4f 3c 4c 25 81 be
       0.29137433 -0.12808834 0.012676191 -0.25223768
000060 ba 1d 66 be be c8 3f 3e 9b 24 d2 bd c5 36 b3 3e
       -0.22472277 0.18728921 -0.10260888 0.35002723
000070 9d ad 9a bd c7 3b 6b 3e 84 d2 09 be 86 45 95 3e
       -0.07552645 0.22972022 -0.13459212 0.29154605
000080 1a d9 b8 3e 60 16 2b 3e 6c b5 a3 bd 9e 84 cf 3e
       0.36103135 0.16707754 -0.07993588 0.40530866
000090 4c 02 c5 3e 0a f8 83 3e 8c 5a 7d 3d 3f cc 8c be
       0.38478315 0.25775176 0.06185393 -0.27499577
0000a0 4a 41 21 be 92 be 98 3e 2d 32 76 3e 82 70 66 be
       -0.15747562 0.29832894 0.24042578 -0.22503856
0000b0 0d 25 4d 3e 33 08 2a bd c4 7e 84 3d 27 20 a5 3e
       0.20033665 -0.041511726 0.06469491 0.32251093
0000c0 50 19 f5 3d 2a 53 65 be 3f 9e 9b 3d 21 7d 2e be
       0.119677186 -0.22395006 0.075985424 -0.1703992
0000d0 4a e8 86 3e 2e c9 f1 bd 69 3d 14 be 55 73 38 be
       0.26349097 -0.1180595 -0.14476551 -0.18012746
0000e0 87 a8 9b 3e 47 fd e2 3d 46 57 94 3e 37 57 4e 3e
       0.30402014 0.11083465 0.28972834 0.20150457
0000f0 64 d3 94 be b2 61 00 3e 6f 2b 67 3e 6b e6 5d be
       -0.29067528 0.12537268 0.22575162 -0.21669929
000100 e9 a2 c4 3e 9d 38 3e bb a4 e9 53 be df 81 1f be
       0.3840554 -0.0029025443 -0.20694596 -0.15576886
000110 8b e6 bd 3d 9c f8 40 be b7 16 9b bd 00 7c 85 be
       0.09272488 -0.18844837 -0.07572692 -0.26071167
000120 f4 e2 31 3e 40 a2 28 bd a3 8f 1e bd 74 40 40 be
       0.17371732 -0.04117036 -0.0387112 -0.18774587
000130 84 ed ad 3e 5b 16 e4 3d 76 0c 1f bd cd 3b 6e 3e
       0.33970273 0.111370765 -0.038830243 0.23265
000140 b6 5b 87 3e a3 94 0e bd 86 e5 76 bd 26 a6 47 be
       0.26437157 -0.03480972 -0.060277484 -0.19496974
000150 b9 6f b3 3e b2 6a 65 bd 1c 26 a1 3e 96 20 49 be
       0.35046175 -0.056009956 0.31474388 -0.19641337
000160 e3 35 88 be 45 84 5e be ec 2c 87 be 14 ce 29 3e
       -0.26603612 -0.21730144 -0.2640146 0.16582519
000170 ac 1e d7 3d bc 82 05 3d 18 db 55 3e a2 b5 8b bd
       0.10503897 0.03259538 0.20884359 -0.06821753
000180 e9 35 1e 3e 6e 62 3e 3e 3d 66 94 3e d9 db d6 bd
       0.15450253 0.18592235 0.28984252 -0.10491151
000190 02 e8 7f 3c 0b 9d 32 3d 8f b5 c9 3e 1b 2c 7c be
       0.01561928 0.0436068 0.3939633 -0.246262
0001a0 b0 59 b0 3e d4 c1 b3 3e de 4c 6c 3e e9 e4 03 be
       0.34443426 0.35108817 0.23076198 -0.12880291
0001b0 7e e2 99 3e 5d 62 69 be 7c 77 99 bd f3 4d f8 bd
       0.30055612 -0.22791429 -0.07493493 -0.12124243
0001c0 02 36 54 3e 62 63 68 3d 84 47 c9 3d 14 77 a8 3d
       0.20723727 0.056735404 0.09828094 0.08225837
0001d0 25 4c 54 3e 5e ea bb bc a5 48 a0 3e d5 f0 92 be
       0.20732172 -0.022938903 0.31305423 -0.28699365
0001e0 90 f2 7c 3d 14 3e 95 3e 8b 1c 84 3e c7 ab 4f be
       0.061754763 0.29148924 0.25803027 -0.20280372
0001f0 64 25 5f 3e 50 35 c3 3e 9b 94 90 be 79 59 81 be
       0.21791607 0.38126612 -0.28238377 -0.25263575

net.6.bias f4 [2]
000000 b0 5c e8 3d 7d fd be 3d
       0.11345804 0.09325693

exp_avg f4 [64, 4]
000000 ed 20 a5 bd ac 3a 13 bf c2 50 e1 3d 81 30 71 3f
       -0.08062921 -0.575114 0.110017315 0.94214636
000010 99 3a a2 35 b6 76 86 33 99 30 0e b6 ca eb b6 36
       1.2086995e-06 6.2614546e-08 -2.1187936e-06 5.451472e-06
000020 37 00 15 be 58 e5 81 bf 4c 56 4b 3e ec c4 d4 3f
       -0.14550863 -1.0148115 0.19857138 1.6622596
000030 dd be 92 b5 82 82 b0 ba a7 4c 19 b8 1f e7 52 39
       -1.0933396e-06 -0.0013466629 -3.654943e-05 0.0002011326
000040 e9 02 15 be 6a 7b 8b bf fd 9e 4e 3e 7c b1 e3 3f
       -0.14551891 -1.0897038 0.20177837 1.7788539
000050 3a d8 e9 bd 50 8b 3d bf 54 a5 25 3e b7 d7 99 3f
       -0.11418195 -0.740407 0.16176349 1.2018956
000060 e5 5d ca b5 07 56 93 37 14 e1 ad 36 96 57 dc b6
       -1.50775e-06 1.7563825e-05 5.1820043e-06 -6.5667073e-06
000070 d5 28 38 be 0e 09 b0 bf 6c 53 79 3e 45 fa 0f 40
       -0.17984326 -1.3752763 0.24348229 2.2496502
000080 18 41 0d be f2 39 84 bf 60 bc 3f 3e 37 ec d7 3f
       -0.13794363 -1.0330184 0.18724203 1.6868962
000090 5d 6b 0a 3b ac 93 38 3c df a4 5e 3b aa f7 77 bc
       0.0021121122 0.0112656765 0.0033972783 -0.015134731
0000a0 a0 ba 19 be 39 32 88 bf 76 5a 51 3e d1 b8 dd 3f
       -0.15012598 -1.0640327 0.20444664 1.7322026
0000b0 53 d6 45 3d c5 34 3e 3f 40 aa 4c bd 12 9c 9b bf
       0.0483001 0.7429927 -0.04996705 -1.2157004
0000c0 fe 94 7a 3b 02 a5 ad 3c f3 32 94 3b fb 88 03 bd
       0.003823578 0.021196846 0.004522675 -0.032113057
0000d0 ff 4b e4 bd 29 df 55 bf 2c a3 17 3e 11 02 ae 3f
       -0.111473076 -0.8354364 0.14808339 1.3594381
0000e0 77 38 99 3d 38 a1 82 3f b1 f4 a5 bd 24 6c dd bf
       0.07481473 1.020545 -0.08103312 -1.7298627
0000f0 cf fc 0c be b7 ce 80 bf 81 2c 41 3e 50 e7 d1 3f
       -0.13768314 -1.0063084 0.18864633 1.6398716
000100 db 36 0e b4 ad aa d5 34 8c 43 53 34 e5 cf 09 b5
       -1.3244737e-07 3.9798525e-07 1.967548e-07 -5.1339003e-07
000110 5e 5a 4a b5 25 09 56 36 5e 58 3e 36 c4 b9 c4 36
       -7.5382366e-07 3.1893808e-06 2.8363643e-06 5.862881e-06
000120 01 45 45 3b ea 1a f2 3b 75 fd 7c bb dc 1a eb bc
       0.0030100944 0.0073884623 -0.003860322 -0.028699331
000130 25 f4 09 be 5e bf 87 bf a4 ff 38 3e ba 77 dc 3f
       -0.1347204 -1.0605276 0.18066269 1.7224038
000140 03 06 1e b2 32 99 95 b4 8a 46 a9 32 2e 09 ae 34
       -9.198177e-09 -2.7864877e-07 1.9706267e-08 3.2416705e-07
000150 08 fb 58 be eb c1 c0 bf fd 16 97 3e d0 7c 1d 40
       -0.21189511 -1.5059179 0.29509726 2.460743
000160 41 98 06 3b 89 43 c0 bb 80 7d 41 ba 9a a6 1a b9
       0.0020537528 -0.005867426 -0.00073810667 -0.00014748648
000170 de 59 89 37 08 ab c7 b6 c6 7e 7b b7 22 c6 8f 36
       1.637352e-05 -5.950573e-06 -1.4990283e-05 4.284798e-06
000180 97 60 5b b4 f2 d9 3e b6 3d 6f a5 34 77 cb 83 36
       -2.0431104e-07 -2.8439067e-06 3.0814581e-07 3.9277907e-06
000190 7e a3 1d 3c 05 42 07 3d e6 5f c6 bb f4 1d ba bd
       0.009621499 0.033021946 -0.0060539125 -0.09087744
0001a0 ca 38 26 be dc 7c ab bf 8c 9d 64 3e 92 49 0b 40
       -0.16232601 -1.3397479 0.22325724 2.1763654
0001b0 f0 5d 00 3c 29 af 59 3c 9d 14 42 bc 6e 8e 85 bd
       0.007834896 0.01328639 -0.011845735 -0.06521307
0001c0 a4 33 7c bc aa 1d ea bd 58 47 ac 3c 5a 83 41 3e
       -0.015393171 -0.11431439 0.021030113 0.18897763
0001d0 64 07 40 be fa 12 ab bf 10 96 84 3e 2d 98 0b 40
       -0.1875282 -1.3365166 0.2589574 2.181163
0001e0 47 cd a8 b6 67 0f 5b 38 f7 d3 b6 37 65 3b 97 37
       -5.0306876e-06 5.2228013e-05 2.1794795e-05 1.802826e-05
0001f0 84 4b 33 be 4f 97 b9 bf 24 7b 78 3e 92 b8 17 40
       -0.17509276 -1.4499301 0.24265724 2.3706403
000200 32 17 10 3b 85 83 9b 3c d2 cd 87 b9 c5 c4 1b bd
       0.0021986482 0.018983612 -0.00025902555 -0.03802945
000210 72 f9 3d be 55 23 b3 bf 30 34 80 3e 56 68 11 40
       -0.18552187 -1.3995157 0.25039816 2.2719932
000220 24 01 b0 3a 79 dc 7d bb 5a 19 7f b9 76 cd ff 38
       0.0013428074 -0.0038736148 -0.00024328139 0.000121976176
000230 cf 77 42 b5 15 65 07 37 3c 62 db 35 0b 06 f0 b6
       -7.2444976e-07 8.070162e-06 1.6345361e-06 -7.153261e-06
000240 5a b4 75 3b 25 5d 04 bc a8 dc 0f bb 79 65 4c bb
       0.003749153 -0.008078848 -0.002195159 -0.0031188412
000250 29 4d 99 bd e1 3c 25 bf d5 78 cd 3d 2c 33 86 3f
       -0.0748542 -0.6454602 0.100328125 1.0484366
000260 21 3b 43 be c0 b4 c5 bf 32 2f 82 3e 9d 00 1e 40
       -0.19065525 -1.5445786 0.25426632 2.4687874
000270 b8 b3 e3 b5 d3 e8 17 38 05 a8 1f 37 29 87 5e b7
       -1.6965123e-06 3.621804e-05 9.516259e-06 -1.3263701e-05
000280 2f f3 11 be 28 ea 74 bf 45 02 52 3e 33 4e c9 3f
       -0.14252923 -0.95669794 0.20508678 1.572699
000290 23 96 79 be 86 a9 e3 bf a2 60 a8 3e 5b 53 3a 40
       -0.24373679 -1.778611 0.32886225 2.9113376
0002a0 ce 5b 5c 3b e6 ea 01 3d 0e 1e a2 ba 0e 76 85 bd
       0.0033624056 0.031718157 -0.0012368576 -0.06516658
0002b0 cb bc 08 be 35 4c 83 bf e3 f0 37 3e 85 f3 d4 3f
       -0.13353269 -1.0257632 0.17962985 1.6636816
0002c0 91 03 63 be 3c cf cf bf 4b 62 9b 3e 24 56 2b 40
       -0.22169329 -1.6235118 0.3034843 2.6771326
0002d0 09 b9 96 bd 4e 6b ef be 5a 3b d6 3d c3 3b 49 3f
       -0.073595114 -0.46761554 0.10460539 0.78606814
0002e0 c2 9c be ba 1c 63 c3 ba 08 a2 82 3b 25 bf 61 3c
       -0.0014542567 -0.0014906856 0.003986601 0.013778483
0002f0 3f d4 40 be e0 71 c5 bf 9d 9d 85 3e 65 47 21 40
       -0.18830965 -1.5425377 0.26096812 2.5199826
000300 eb e0 d2 3b 79 28 89 3d 44 c7 00 3c ae 1a bb bd
       0.0064355037 0.06697173 0.007860009 -0.09135948
000310 81 9a 11 be 06 21 7a bf 26 9d 49 3e f5 35 cd 3f
       -0.14219095 -0.9770664 0.19688854 1.6032091
000320 34 84 a8 3a f8 cb 16 bb 58 11 7b b9 a8 1e 4c b9
       0.0012856782 -0.0023009758 -0.00023943686 -0.00019466376
000330 ba bc 8a bd 2f f9 07 bf 51 8d bc 3d 6d 82 5e 3f
       -0.06774278 -0.531146 0.092066415 0.86917764
000340 ce b6 98 3d c2 ca 82 3f 30 4d 94 bd f0 16 d4 bf
       0.07456742 1.0218127 -0.07241285 -1.65695
000350 c8 96 86 3a 9c 9c 53 bb 5a 93 b4 b9 fe 9e 57 b8
       0.0010268325 -0.0032289391 -0.0003444206 -5.1408068e-05
000360 40 f8 d1 bc d2 d1 5f be 91 f6 f4 3c 52 b4 b3 3e
       -0.02563107 -0.21857384 0.029902728 0.3509851
000370 24 a6 16 b6 67 41 b1 37 c2 d2 b6 36 c2 f5 62 b7
       -2.2448448e-06 2.11305e-05 5.448558e-06 -1.352787e-05
000380 28 03 ff bd e7 7a 5b bf a8 9b 2a 3e 72 ae ad 3f
       -0.12451774 -0.8573441 0.1666094 1.3568861
000390 e9 cc 84 3b d0 ca da 3c ee 65 05 bc ab 29 42 bd
       0.0040527475 0.026708037 -0.008141978 -0.04740302
0003a0 c9 72 1b 3a f3 d0 9a ba b8 3d ea b7 3e 15 69 37
       0.0005929885 -0.0011811539 -2.7923714e-05 1.3892828e-05
0003b0 6b b1 c7 bd de 01 3a bf 0b 6f 06 3e 8b ee 96 3f
       -0.09750637 -0.726591 0.13128297 1.1791548
0003c0 c6 65 5e 3c 98 ef b0 3d 22 f9 b4 bc 02 d4 4f be
       0.013574069 0.08639449 -0.022091452 -0.20295718
0003d0 e4 29 0e be 98 2b 83 bf 17 f5 41 3e 41 a8 d5 3f
       -0.13883168 -1.0247679 0.1894115 1.6691972
0003e0 d0 89 2e 3c 1a 64 a3 3d 5d c8 b6 bb 62 c8 1c be
       0.010652974 0.07978077 -0.0055780844 -0.15310815
0003f0 73 15 f2 bd 53 d8 6b bf 5f f4 1e 3e e2 29 be 3f
       -0.11820497 -0.9212696 0.15522908 1.4856532

exp_avg_sq f4 [64, 4]
000000 50 f3 7d 3b 2e 67 a6 3e a8 75 ce 3b dc bf 5c 3f
       0.0038749762 0.32500595 0.006300647 0.86230254
000010 b0 bd f8 33 03 c0 3c 32 49 b1 ac 33 d6 8b ba 33
       1.1582904e-07 1.0986699e-08 8.041622e-08 8.686736e-08
000020 e1 d5 62 3c e4 1b 95 3f 93 8d b6 3c 16 8d 45 40
       0.013844938 1.1649137 0.022284305 3.0867362
000030 76 8a af 35 2c 5a 15 38 42 18 95 36 47 6f 93 37
       1.3078813e-06 3.5608347e-05 4.44337e-06 1.7575583e-05
000040 4f eb 59 3c 6b 58 8f 3f f7 ea ac 3c c1 c4 3d 40
       0.013300731 1.1198858 0.021108134 2.965134
000050 c6 b7 39 3c f1 59 77 3f 90 14 8f 3c af 34 23 40
       0.011335319 0.96621615 0.01746586 2.5500906
000060 7f 97 82 35 5a f7 e9 37 66 2e 71 36 82 35 0a 37
       9.729846e-07 2.7890947e-05 3.5938806e-06 8.237899e-06
000070 c8 c4 9f 3c 53 19 d2 3f 10 d1 fd 3c 43 10 8b 40
       0.019503012 1.6413978 0.030983478 4.345735
000080 c0 40 3b 3c 70 2d 75 3f d9 f2 96 3c 6c 84 22 40
       0.011429012 0.9577246 0.018426346 2.5393324
000090 2e 6f 35 38 79 38 ac 39 0c 9b 8f 39 e4 68 33 3b
       4.3257307e-05 0.00032848472 0.00027390604 0.0027375752
0000a0 9a f5 71 3c a4 f7 9e 3f 97 58 c2 3c 8b a4 52 40
       0.014768029 1.2419324 0.023723884 3.291293
0000b0 94 ff 99 39 46 d4 cf 3c 8c 10 83 3a 9e 55 95 3d
       0.00029372855 0.025369775 0.0009999438 0.07291721
0000c0 cf c5 02 39 16 80 b9 39 ec 90 4f 3a ee a7 04 3c
       0.00012471456 0.0003538138 0.00079180184 0.008096678
0000d0 0c ae eb 3b 60 b9 1b 3f 2b 96 39 3c 48 ef cd 3f
       0.007192379 0.60829735 0.011327307 1.6088648
0000e0 51 dd 23 3a 3a b8 62 3d d4 05 a4 3a 6a b2 14 3e
       0.0006250935 0.055351473 0.0012513944 0.14521185
0000f0 5b b2 3f 3c 42 df 7c 3f e3 82 97 3c 37 4f 27 40
       0.011700238 0.98778164 0.018495029 2.61421
000100 79 9a 3b 34 2b 9b 00 36 cb 37 ca 34 39 e7 3c 36
       1.7471929e-07 1.9163806e-06 3.7666027e-07 2.8148772e-06
000110 40 f4 8e 35 b1 85 00 38 4c 7d c8 36 62 5d cf 36
       1.065091e-06 3.0642088e-05 5.975051e-06 6.179952e-06
000120 23 06 52 37 ec 4c f6 38 83 09 84 38 cd fd ee 39
       1.2518404e-05 0.00011744522 6.296022e-05 0.00045583994
000130 3d 2f 1d 3c 10 63 4e 3f 5d 98 7a 3c e6 ab 08 40
       0.009593782 0.8061991 0.015295115 2.1354918
000140 86 82 a7 31 1b f2 a5 36 ac 5c 94 32 6a 5f 06 37
       4.8751785e-09 4.945568e-06 1.727161e-08 8.009238e-06
000150 98 7c f3 3c c4 fd 1f 40 86 38 43 3d 5b e8 d3 40
       0.029722497 2.4998636 0.047661327 6.6221137
000160 cd 21 fa 36 e6 10 31 39 96 64 cd 37 9e 72 f4 37
       7.4545155e-06 0.0001688633 2.4484743e-05 2.914044e-05
000170 a2 3c 8e 35 d8 65 d5 33 ff a3 6c 35 99 2d 0e 34
       1.0597471e-06 9.937111e-08 8.8155497e-07 1.3241369e-07
000180 15 76 9f 34 5a 86 4b 38 de e8 2a 35 23 0b cc 38
       2.9701974e-07 4.8524096e-05 6.36688e-07 9.7295524e-05
000190 ae 47 80 38 aa 71 4c 3a 09 13 37 39 2a fc 0d 3b
       6.116867e-05 0.00077989197 0.00017459331 0.0021665194
0001a0 13 2e 7d 3c 8d 0a a6 3f f7 be c8 3c a8 d8 5b 40
       0.0154528795 1.297197 0.024505122 3.4350986
0001b0 ee 58 34 38 94 f7 c0 39 5f 53 6d 39 31 37 e8 3a
       4.2998166e-05 0.00036805554 0.0002263314 0.0017716644
0001c0 d6 bc 8e 39 6e 28 bd 3c 75 cb d9 39 bb 0c 79 3d
       0.00027225044 0.023090567 0.00041541053 0.060803156
0001d0 37 e1 bf 3c 54 69 fc 3f 8d 48 19 3d cc 1a a7 40
       0.02342282 1.9719644 0.037422705 5.222021
0001e0 4f bf 44 36 93 00 1c 39 b2 05 ec 37 86 ba 1f 39
       2.9317632e-06 0.00014877533 2.8136044e-05 0.00015232907
0001f0 b4 be 90 3c 56 eb bd 3f d7 94 e5 3c 9a 6c 7b 40
       0.01766906 1.4837444 0.028025074 3.9285035
000200 89 91 a8 36 bc 73 9d 38 72 4a 1d 36 3a 89 8d 39
       5.0237327e-06 7.5079006e-05 2.3438156e-06 0.00026995857
000210 78 e3 87 3c 08 df b2 3f fe 5e d8 3c 6f db 6c 40
       0.016587958 1.3974314 0.026412483 3.7008932
000220 fc 86 ec 35 b5 42 96 37 70 ef 09 36 e1 3e 52 37
       1.7622656e-06 1.7912456e-05 2.0553962e-06 1.25316155e-05
000230 aa 15 e0 34 3a 95 5a 38 54 3a 09 36 30 fa 27 38
       4.1739014e-07 5.211423e-05 2.0448542e-06 4.0048908e-05
000240 af 6d ab 37 e4 76 91 39 e4 a5 82 38 c6 98 51 39
       2.0435864e-05 0.00027745136 6.2297826e-05 0.00019988706
000250 b2 2c 4b 3b 1a a6 85 3e e0 7d a0 3b d2 e9 30 3f
       0.0031001982 0.26103288 0.004897818 0.6910678
000260 37 28 d5 3c 1c d2 0c 40 7d e8 25 3d 63 06 ba 40
       0.026020152 2.200324 0.04050492 5.8132796
000270 9a fd 30 35 04 49 c5 38 c3 0a b1 36 0c 4b 36 38
       6.593415e-07 9.407292e-05 5.276264e-06 4.3462074e-05
000280 d8 d8 83 3c ec a9 ac 3f 3d c0 d6 3c af ff 64 40
       0.01609461 1.3489356 0.026214713 3.5781057
000290 f4 35 f6 3c 89 7d 22 40 5b b5 43 3d 9c 12 d7 40
       0.030055024 2.538912 0.047780376 6.7210217
0002a0 74 43 88 36 11 b2 04 39 12 90 f1 36 2e bb ca 39
       4.0609684e-06 0.00012654836 7.1991317e-06 0.00038667902
0002b0 79 28 31 3c 87 1a 69 3f 94 99 8c 3c 95 43 1a 40
       0.010812872 0.910561 0.017163076 2.4103749
0002c0 2d ba fd 3c 40 1c 26 40 13 40 4c 3d 4b 24 dc 40
       0.030972565 2.5954742 0.049865793 6.8794303
0002d0 77 01 81 3b e2 29 a9 3e 9b ae d5 3b 1f 84 60 3f
       0.003936942 0.33039767 0.0065210587 0.877016
0002e0 fd 30 f4 36 8f 0f 35 39 a9 70 90 38 aa 68 90 3a
       7.2774696e-06 0.00017267301 6.88744e-05 0.001101752
0002f0 92 c5 bb 3c 06 82 f5 3f d6 30 17 3d f6 ae a2 40
       0.022921357 1.9180305 0.036911808 5.0838575
000300 e5 99 63 39 15 e4 0c 3b 47 25 ac 3a 00 6c 8b 3c
       0.00021705737 0.0021498252 0.0013133668 0.017019272
000310 ab ac 5a 3c 20 f1 8f 3f e4 ff af 3c db ba 3e 40
       0.013346831 1.124546 0.021484323 2.9801548
000320 ab 67 87 36 79 5c 0f 39 14 53 9e 37 73 bd e6 38
       4.035382e-06 0.00013671991 1.8873754e-05 0.00011002542
000330 e1 89 33 3b 37 c3 69 3e 63 7f 95 3b bd 51 1b 3f
       0.0027395415 0.22828375 0.004562305 0.606716
000340 31 e1 20 3a 40 d5 3d 3d d3 97 ee 3a f5 d5 06 3e
       0.0006137072 0.04634595 0.0018203206 0.13167556
000350 df c2 05 36 4e c5 5a 38 fd 47 af 36 7c f7 30 38
       1.9931974e-06 5.2159005e-05 5.223787e-06 4.2192158e-05
000360 39 64 50 39 16 6b 86 3c 11 43 b0 39 e0 17 34 3d
       0.00019873762 0.016408484 0.00033619304 0.04396808
000370 82 c1 dc 35 3a 27 02 39 da 3a 09 37 1b be 8e 38
       1.6447595e-06 0.00012412379 8.179539e-06 6.8064975e-05
000380 89 c4 49 3c ca 09 86 3f 7e 28 9d 3c 97 13 31 40
       0.012314924 1.0471737 0.019184347 2.7668207
000390 4d 9c 9c 38 02 a4 d9 3b 26 53 e3 38 d3 3c 8d 3c
       7.467773e-05 0.0066418657 0.00010839691 0.017240917
0003a0 0a bd 28 35 0d f3 76 37 a4 44 3b 35 9f 49 25 37
       6.2859965e-07 1.4719332e-05 6.9762814e-07 9.851908e-06
0003b0 5c d4 b3 3b e1 58 ec 3e 97 36 0f 3c 85 82 9c 3f
       0.0054879617 0.4616156 0.008741043 1.2227331
0003c0 85 d3 0c 39 86 87 99 3a 78 d6 2e 3a b1 12 e9 3b
       0.00013430238 0.0011713363 0.00066695316 0.007112824
0003d0 e4 fe 3c 3c 18 4a 78 3f cd f8 96 3c b4 76 24 40
       0.01153538 0.9698806 0.018429184 2.569745
0003e0 4b 49 f4 38 8a 15 e4 3a 6b 30 24 3a 87 72 23 3c
       0.000116484785 0.0017401439 0.00062633184 0.009976036
0003f0 a3 3c e4 3b 09 97 16 3f 05 e8 32 3c 82 27 c7 3f
       0.0069652363 0.5882421 0.010919576 1.5558932

exp_avg f4 [64]
000000 ef ad d2 bd 8c 26 f6 b7 70 88 8a be f2 83 e7 bc
       -0.102870815 -2.9343435e-05 -0.2705722 -0.028261159
000010 ef 1a 58 be e9 9b 0f bf 1d 84 60 38 85 fe 48 3d
       -0.21104024 -0.56097275 5.35288e-05 0.049070854
000020 3d a2 ec bd d4 5a 5c be 55 c6 9d be 19 25 bd bf
       -0.11554382 -0.21519023 -0.30815378 -1.4776946
000030 24 31 c6 be 4e 19 2b bb 41 00 1e c0 db 53 48 be
       -0.38709366 -0.0026107612 -2.4687655 -0.19563238
000040 a3 07 6d 36 3f 44 d3 37 47 c2 4d be 28 03 0e 3d
       3.5320197e-06 2.518494e-05 -0.20093642 0.03467098
000050 e7 f6 05 36 73 d3 00 bf 67 24 2b be 6c 6e d9 39
       1.996226e-06 -0.50322646 -0.16713105 0.00041471736
000060 57 99 3e 37 7a 92 21 bf d9 c3 7d bc 9e b9 c8 be
       1.1360585e-05 -0.6311413 -0.015488588 -0.39204115
000070 47 3e 94 3c 98 33 d8 be 37 11 6d 39 e0 31 c5 3d
       0.018096102 -0.42226863 0.00022608494 0.096286535
000080 df 35 39 be 5d a9 f7 bd 96 36 d9 bd 13 38 97 37
       -0.18086956 -0.1209285 -0.106061146 1.8026714e-05
000090 02 5e 81 be ca b7 2a 3e af f0 23 be c2 df b9 38
       -0.25267035 0.16671672 -0.16009782 8.8631656e-05
0000a0 94 db 1d bf b2 fe 2f bd df 32 97 be a4 5b 3f bd
       -0.61663175 -0.042967506 -0.29531 -0.046718255
0000b0 59 16 34 3c 98 cb 03 be e8 d0 a8 3c 99 f6 49 3d
       0.010991656 -0.12870634 0.020607427 0.04930744
0000c0 94 63 f7 be b6 80 ab be 20 70 91 bd 70 25 9f 3c
       -0.4831816 -0.33496636 -0.07101464 0.019427031
0000d0 e3 95 fc bf c1 f7 b5 bd df d6 1a 3e 52 36 67 38
       -1.9733242 -0.08885146 0.1512103 5.512528e-05
0000e0 52 a8 0d bf 74 18 0f 3d ef 92 0e bd 72 ce c9 bd
       -0.5533496 0.03493543 -0.034808096 -0.098538294
0000f0 a4 e1 0e bf 22 42 4f be 92 44 16 bf 07 49 f8 3c
       -0.5581305 -0.20240071 -0.5869838 0.03030826

exp_avg_sq f4 [64]
000000 9c b8 56 3e 6e f8 f4 38 25 5a 3f 3f be d2 a0 3a
       0.2096886 0.000116811 0.74746925 0.0012269837
000010 98 9f 35 3f b1 44 1d 3f a8 47 f9 39 6a 5f 81 3f
       0.70946646 0.6143294 0.0004754637 1.0107243
000020 bc 85 1b 3f 72 73 90 3c 46 68 4c 3f 01 08 bc 3d
       0.6075094 0.017633174 0.7984661 0.09181214
000030 cc 46 49 3d 75 fa bc 3e 8a 56 7f 3e 0b ff 1c 3f
       0.049139783 0.36909834 0.24935356 0.61326665
000040 4a 9a dd 38 4d 77 19 3a 2e bb 21 3c 84 f3 fe 3e
       0.0001056684 0.0005854264 0.009871287 0.49795163
000050 83 ff 38 39 95 a8 d0 3f 0c bd 54 3c b1 14 35 3a
       0.00017642793 1.6301447 0.012984525 0.00069076853
000060 3a 84 45 3a 68 fc 85 3d 1d d5 52 3f d7 e4 e8 3c
       0.0007534657 0.06542283 0.82356435 0.028429432
000070 b1 e8 7f 3c 56 7d a3 3f 62 17 1b 3b 98 0e 6c 3f
       0.015619443 1.2772624 0.002366506 0.9220977
000080 fb 04 15 3c d4 57 62 3f d5 d4 58 3b bc a6 95 39
       0.009095426 0.88415265 0.0033085842 0.0002854372
000090 58 ac d5 3c 3c b9 21 3e 9a bb ae 3f 70 c3 09 3a
       0.026083156 0.15793318 1.3651001 0.0005255258
0000a0 4c b4 6b 3f 2c 3c cb 3f 8f 02 f4 3b fd 80 11 3f
       0.92071986 1.5877738 0.007446594 0.56837445
0000b0 08 53 d2 3f 03 e4 66 3e f5 a1 88 3b e7 a4 9d 3f
       1.6431589 0.22547917 0.0041696974 1.2315949
0000c0 12 dc b0 3d e0 83 3a 3f e0 27 67 3b 70 f4 1c 3e
       0.08635725 0.72857475 0.003527157 0.1532762
0000d0 72 47 28 3e 99 0f 42 3b 97 4e 6d 3c 61 7c 4e 3a
       0.16433504 0.0029611348 0.014484069 0.000787681
0000e0 9b 74 29 3f ac 5b 03 3c 84 06 1d 3a c1 17 93 3e
       0.6619355 0.008017462 0.00059900456 0.2872906
0000f0 8f 3c 8e 3d 33 f9 1d 3f 74 05 5e 3d cf 19 b6 3e
       0.069451444 0.6170837 0.05420442 0.35566565

exp_avg f4 [64, 64]
000000 35 e1 1c 3d 03 5e ed b5 1f 7a 9c 3c 21 f6 3b ba
       0.03830071 -1.7685237e-06 0.0191012 -0.000717016
000010 c6 85 92 3d b4 5a 24 bc b5 f9 bc b5 e3 75 b3 3c
       0.071544215 -0.010031391 -1.4079766e-06 0.021906799
000020 59 3e cd 3c 7c 08 72 ba f2 2b 31 3d 05 e9 1c be
       0.025054144 -0.00092328317 0.0432548 -0.15323265
000030 2d c8 ae bb c4 42 95 3d c1 fe 99 bc a4 c5 99 3d
       -0.0053339214 0.07288125 -0.018798234 0.075084
000040 03 a3 86 b1 56 5c 5c b6 01 a7 86 bb 5f da 01 3e
       -3.9184456e-09 -3.2836301e-06 -0.004109264 0.12680958
000050 00 00 00 00 1f 9d 73 3c f3 f2 4e bb c9 b1 29 b6
       0.0 0.014869004 -0.0031577914 -2.5286447e-06
000060 00 00 00 00 6c c9 b4 bb 95 d7 37 3e f4 e0 b8 bb
       0.0 -0.0055171754 0.17953332 -0.005642051
000070 59 97 28 3c 44 a6 18 3d 22 ea 88 b7 c1 cf 36 3d
       0.01028999 0.03726794 -1.632149e-05 0.044631723
000080 3c 34 c3 b9 bf 8d 07 3e 8a 15 e6 ba 9d 37 41 b2
       -0.00037232216 0.13237666 -0.0017554027 -1.12467236e-08
000090 ce 31 92 bb fa f5 b1 3d e0 40 e7 3c 4d e4 75 b6
       -0.0044615036 0.086894944 0.028229177 -3.6640733e-06
0000a0 dd b9 c5 bc d7 9b 3b 3e d2 1c 73 bb f7 a3 82 3d
       -0.024136478 0.18321167 -0.0037096036 0.0637893
0000b0 9a 2a 72 3c 80 a6 9b 3d de bf 2b 38 57 04 1d 3d
       0.014780665 0.07600117 4.0948267e-05 0.038334217
0000c0 06 67 b9 bb c8 67 24 3e 3d 04 fb ba 14 cb 0d 3e
       -0.0056580333 0.16055214 -0.0019151043 0.13847
0000d0 10 cc 55 bd 1e b3 09 bb 23 c9 8f 3d ce c9 c8 b5
       -0.052196562 -0.0021011303 0.07020786 -1.4959894e-06
0000e0 84 0a ad 3c 4a ff 4b 3c 5b 01 42 ba 18 99 e3 3d
       0.021123178 0.012451002 -0.00074007147 0.11113185
0000f0 06 a4 3f bb 80 11 a8 3d 4d a1 15 bc 26 7c 94 3d
       -0.0029242053 0.08206463 -0.009132695 0.07250242
000100 ba 28 f4 30 00 00 00 00 b7 38 ce 30 00 00 00 00
       1.7764912e-09 0.0 1.5004592e-09 0.0
000110 16 0c f2 32 c1 41 4c 31 00 00 00 00 3f 2a 2c 2f
       2.8178004e-08 2.9723284e-09 0.0 1.5658318e-10
000120 00 00 00 00 00 00 00 00 fa 74 14 32 b1 8e 0e 34
       0.0 0.0 8.641331e-09 1.3276691e-07
000130 00 00 00 00 a7 00 9e 33 00 00 00 00 4a 34 2b 33
       0.0 7.357567e-08 0.0 3.9861597e-08
000140 24 f6 e5 30 00 00 00 00 00 00 00 00 97 ba 2f 34
       1.67319e-09 0.0 0.0 1.6366026e-07
000150 20 f2 68 31 00 00 00 00 00 00 00 00 00 00 00 00
       3.3898075e-09 0.0 0.0 0.0
000160 b4 d7 1a 32 00 00 00 00 56 90 d2 33 00 00 00 00
       9.013025e-09 0.0 9.8051416e-08 0.0
000170 49 cd 27 33 ed bc ec 32 00 00 00 00 a7 e5 94 31
       3.9069423e-08 2.755993e-08 0.0 4.3334754e-09
000180 3b 89 53 2e eb 70 05 34 00 00 00 00 eb fe e5 30
       4.809773e-11 1.242767e-07 0.0 1.6734395e-09
000190 00 00 00 00 3f a2 72 33 6a 08 e4 32 00 00 00 00
       0.0 5.6492578e-08 2.654652e-08 0.0
0001a0 00 00 00 00 f3 61 68 34 9b c3 5f 31 50 75 aa 32
       0.0 2.1642317e-07 3.256196e-09 1.9843952e-08
0001b0 00 00 00 00 66 47 83 33 cb ea 5e 31 a2 0e 64 32
       0.0 6.11315e-08 3.2438716e-09 1.3274674e-08
0001c0 00 00 00 00 6b 65 65 34 00 00 00 00 3c 92 17 34
       0.0 2.1364183e-07 0.0 1.411617e-07
0001d0 00 00 00 00 00 00 00 00 fe b2 cb 33 00 00 00 00
       0.0 0.0 9.4854826e-08 0.0
0001e0 00 00 00 00 89 f1 bc 33 00 00 00 00 34 54 29 34
       0.0 8.798367e-08 0.0 1.5769984e-07
0001f0 00 00 00 00 2e 34 5c 33 00 00 00 00 ef fa 08 33
       0.0 5.12702e-08 0.0 3.189319e-08
000200 9c ca 81 37 00 00 00 00 f2 7a 5f 34 12 3e 0b 36
       1.5472346e-05 0.0 2.081322e-07 2.0748744e-06
000210 7d 5d d5 37 a9 94 c0 32 38 f8 c8 35 2b 69 09 30
       2.5435113e-05 2.2419345e-08 1.4973402e-06 4.998976e-10
000220 00 00 00 00 ff d2 af 37 41 57 11 34 bf fc 57 37
       0.0 2.0959878e-05 1.353592e-07 1.2873846e-05
000230 e3 c2 9c 37 53 34 65 37 a0 66 f7 36 0c 9f fa 37
       1.86874e-05 1.3661646e-05 7.3731208e-06 2.9876384e-05
000240 47 8a b7 31 e2 56 62 36 39 cc c3 37 38 a1 92 38
       5.3417213e-09 3.3727197e-06 2.334091e-05 6.991852e-05
000250 52 64 c2 32 58 ff 78 38 4d 1e 02 37 00 00 00 00
       2.2630193e-08 5.9365615e-05 7.755659e-06 0.0
000260 b8 f5 12 34 5a 03 d1 36 c9 26 42 37 fc b5 b2 37
       1.3686702e-07 6.2290756e-06 1.15723315e-05 2.1303997e-05
000270 7c 08 20 35 5b 77 64 37 79 a6 8d 37 b3 42 0e 33
       5.961699e-07 1.3617649e-05 1.688603e-05 3.3122614e-08
000280 89 d5 28 2f 85 a7 fb 36 69 88 11 34 89 c9 02 33
       1.5355374e-10 7.4998848e-06 1.3553803e-07 3.045128e-08
000290 e3 95 e1 36 24 bc 20 36 4d 28 e8 34 07 92 a9 36
       6.7229716e-06 2.395137e-06 4.324269e-07 5.0535923e-06
0002a0 0d 36 df 37 a4 89 5b 38 be 0e 43 35 e2 a5 a4 37
       2.6608841e-05 5.2341857e-05 7.2664614e-07 1.9627569e-05
0002b0 21 99 91 33 0a 35 44 38 76 e2 fc 37 df 07 cb 33
       6.779943e-08 4.6779438e-05 3.0146195e-05 9.454356e-08
0002c0 91 0d 50 37 af e4 18 38 41 7d 86 37 d1 f9 1b 38
       1.2400925e-05 3.6452602e-05 1.603237e-05 3.718754e-05
0002d0 27 cf ba 36 49 9e 38 35 1a b7 b6 35 49 4c d4 35
       5.5673477e-06 6.8775677e-07 1.3613346e-06 1.5817433e-06
0002e0 2a 04 ab 37 e7 c9 91 35 6d 17 e7 36 78 91 a5 36
       2.0386728e-05 1.0862103e-06 6.8870636e-06 4.934318e-06
0002f0 57 af a2 36 c4 89 bd 37 54 11 a4 37 67 cd 29 35
       4.8483885e-06 2.2594708e-05 1.9558393e-05 6.3256306e-07
000300 41 ff 96 35 00 00 00 00 41 94 85 34 12 e5 c9 b5
       1.125016e-06 0.0 2.488105e-07 -1.5042335e-06
000310 ce 76 32 36 00 00 00 00 9b f6 13 35 00 00 00 00
       2.659322e-06 0.0 5.5120626e-07 0.0
000320 00 00 00 00 f6 23 5e b7 43 46 a2 35 ba 3b dc 37
       0.0 -1.3240604e-05 1.2090389e-06 2.6253856e-05
000330 31 bd 3c b7 01 b3 80 37 49 15 87 b6 7a ee c2 35
       -1.1249723e-05 1.5342144e-05 -4.0257914e-06 1.4523532e-06
000340 00 00 00 00 9b f7 9d 35 a1 56 88 b7 7f 6a 38 38
       0.0 1.1769474e-06 -1.6252803e-05 4.39682e-05
000350 00 00 00 00 9a be 1a b7 72 1c ae b6 00 00 00 00
       0.0 -9.223493e-06 -5.1889156e-06 0.0
000360 a5 62 76 33 e0 44 4f b6 6d b9 10 38 5d fd 65 b7
       5.7366055e-08 -3.0885494e-06 3.4504967e-05 -1.3708454e-05
000370 bf be 88 34 93 da 80 37 3f 70 33 b7 00 00 00 00
       2.547076e-07 1.536057e-05 -1.0695366e-05 0.0
000380 00 00 00 00 d1 94 b7 37 00 00 00 00 00 00 00 00
       0.0 2.1884598e-05 0.0 0.0
000390 61 16 5f b6 b3 4d 44 37 94 34 4c 34 34 df 9d b5
       -3.3242616e-06 1.1700601e-05 1.9018108e-07 -1.1762372e-06
0003a0 07 c3 a2 b7 60 cf 6b 38 59 86 6b 34 74 2f df 37
       -1.9402722e-05 5.62215e-05 2.1934956e-07 2.6605769e-05
0003b0 28 fe e5 33 8a 33 99 37 90 db 65 36 86 21 5d 31
       1.0709874e-07 1.8263021e-05 3.4251461e-06 3.2178789e-09
0003c0 f2 25 28 b7 4c 96 65 38 d2 d7 76 b7 6a 72 00 38
       -1.0022415e-05 5.473783e-05 -1.4712992e-05 3.0624135e-05
0003d0 40 2f 4c b6 00 00 00 00 26 8f a4 36 50 48 37 35
       -3.0425872e-06 0.0 4.9042455e-06 6.827804e-07
0003e0 eb 82 92 b6 f1 bd 08 35 f4 35 80 b6 90 59 c8 37
       -4.36638e-06 5.094035e-07 -3.8209782e-06 2.3883564e-05
0003f0 ab 2f 65 b6 72 69 72 37 a3 39 81 b7 18 0d eb 34
       -3.4151406e-06 1.4448875e-05 -1.5404838e-05 4.3781688e-07
