gen_0_agent_1.pt (torch, 64207 bytes, 18 tensors)

net.0.weight f4 [64, 4]
000000 45 c9 05 be a2 98 b6 3c e3 b1 88 be 6d 22 7a be
       -0.1306506 0.022289578 -0.26698217 -0.24427195
000010 3c 19 cc 3a 0f 45 8f be f6 7c 8c bb 19 b4 a0 bd
       0.0015571485 -0.27982375 -0.0042873574 -0.07846851
000020 a9 f8 88 3c f3 34 78 3e 3e d8 89 3e 79 30 34 be
       0.016720133 0.24238949 0.26922792 -0.17596616
000030 24 76 32 be 56 68 44 3e 1d a9 3e 3e d0 f5 63 3e
       -0.1742788 0.19180426 0.18619199 0.22261739
000040 89 65 31 3e 0e 00 07 be 0c 9f ce bd 92 ff c9 3d
       0.17323889 -0.13183615 -0.100889295 0.09863199
000050 eb b4 8a 3e 52 27 90 3d bb 8c 01 be c3 1e 7a be
       0.27091154 0.0703875 -0.1265134 -0.24425797
000060 72 e9 12 be 41 d9 18 be 8e e5 3e 3e 7c 15 38 3e
       -0.14346865 -0.14926626 0.18642256 0.17976946
000070 3a 2a 4a 3e 5d d5 80 3c 99 a6 4c 3e ad a0 60 3b
       0.1974267 0.01572674 0.19985427 0.0034275458
000080 61 d6 35 3e 9c cf 49 3d 1a 69 56 3e 0e 05 98 be
       0.1775756 0.049270257 0.2093853 -0.29691356
000090 4f 55 1a 3e fb 38 47 3e 93 71 46 3e 3a f2 58 3d
       0.15071605 0.1945533 0.19379263 0.05296538
0000a0 87 3e 00 3e bf 5e 34 3e 45 df 76 3d 9f a9 34 3e
       0.12523852 0.17614268 0.06027152 0.1764283
0000b0 73 41 18 be 9b ee 3c 3e bf d0 4a be 7c 59 9b 3d
       -0.14868717 0.18450396 -0.19806193 0.07585427
0000c0 20 69 0a 3c 29 6d 35 be d8 9c 54 3e b0 2f 71 3c
       0.008447915 -0.17717423 0.20762956 0.014720842
0000d0 a7 c2 88 3e 0c f9 31 3e 2b 8d 47 be 47 df 1b 3e
       0.26711008 0.1738016 -0.19487445 0.15221892
0000e0 ff a9 8a 3e e1 49 19 be 32 b5 67 3e b0 29 df 3d
       0.27082822 -0.14969589 0.22627714 0.10896623
0000f0 39 3a 0a be a3 c8 99 3e b5 7e b6 3d a2 80 d8 3c
       -0.13498773 0.30035886 0.08910886 0.026428524
000100 00 88 88 bd 40 8d c2 bd b8 c5 81 3c 9e 3c e4 3d
       -0.06666565 -0.094995975 0.01584135 0.11144374
000110 2e 65 93 3e ee c2 4f bd f9 2b f3 3d dd d6 65 be
       0.2878813 -0.05072301 0.118736215 -0.22445245
000120 a2 a2 57 bd a2 2b 08 3e ab 5b 92 be 50 4c cd 3d
       -0.052645333 0.13297895 -0.28585562 0.10024321
000130 97 51 c3 3d dc 80 79 bd 6d 39 75 3e a0 8f 71 be
       0.095370464 -0.060913906 0.23947687 -0.23589945
000140 77 ed cf 3c 9d 95 88 bd 8a 29 75 be 8c ce 3b 3d
       0.025381787 -0.066691615 -0.23941627 0.045851275
000150 2a 7a aa bd 83 f5 15 be 69 4a 61 bd 6b 5c 22 be
       -0.08324082 -0.14644437 -0.055002604 -0.15855567
000160 67 da 52 be a5 c0 38 3e b3 3d 0a 3d ca 2f 92 3e
       -0.20591126 0.18042238 0.033750247 0.28552085
000170 96 1c 93 be 8a 4a 7f be 55 c8 9b bd c1 23 b2 bb
       -0.28732747 -0.24930778 -0.0760657 -0.005436391
000180 a7 92 91 bd c1 ff 6f 3e ac fd 3c be 3c b6 8e 3d
       -0.0710805 0.23437406 -0.18456143 0.06968352
000190 79 bb 5f be d1 d2 eb bd d2 66 39 3d d9 7d 69 be
       -0.21848859 -0.115148194 0.045264073 -0.22801913
0001a0 e8 8b 87 3d 85 89 81 3d 14 ec 3d 3c 0c 21 30 3e
       0.06618482 0.06325058 0.01159193 0.17200106
0001b0 df 3e 24 be 76 85 3f be 78 fe 00 bd ba 0e 54 3e
       -0.16039608 -0.18703255 -0.03149268 0.20708743
0001c0 91 36 85 be f9 8d 89 be d0 11 b3 3d 9f 12 72 bb
       -0.26018193 -0.2686613 0.08743632 -0.0036937369
0001d0 e1 02 94 bd 25 36 86 3e fb 8d 32 be 08 21 3d 3e
       -0.072271116 0.26213184 -0.17436974 0.18469632
0001e0 dc ab 90 3e 5b 24 91 be 7c 5a 22 3e b0 b1 5c 3e
       0.28256118 -0.2834805 0.1585483 0.21552157
0001f0 3f 6b 73 be d5 25 7b be 16 f3 27 3e e6 d5 41 3e
       -0.2377138 -0.2452615 0.16401324 0.18929252
000200 58 cd eb 3d 1c 1a bc bb eb c8 97 3e f5 cb bc 3d
       0.115137756 -0.005740417 0.29645476 0.09218589
000210 40 59 44 be 6d f0 4d be 64 af 8a 3e 00 7c a6 bc
       -0.19174671 -0.20111246 0.27086937 -0.0203228
000220 2b 86 32 be 37 a5 b3 3b b2 9e bc bc ab 2b e6 bd
       -0.17433994 0.0054823416 -0.02302489 -0.11238798
000230 1d 79 31 be c7 1e 1b 3d 8a 03 33 bd 3f 15 fb 3d
       -0.17331357 0.03787115 -0.043704547 0.12259912
000240 e4 a8 62 bd 95 ef 60 3e b4 f9 94 be fe e6 1a 3e
       -0.055336848 0.21966393 -0.29096758 0.15127179
000250 2f 6b d1 bd a1 fb e1 bd 18 f4 5e be d7 3b 66 be
       -0.10225522 -0.110343225 -0.21772802 -0.22483765
000260 55 8d 88 be 71 ad bc bd b8 35 93 3e 8a d9 8f 3e
       -0.26670328 -0.09212769 0.28751922 0.28095657
000270 b7 f1 93 3c 64 47 e9 3d 40 87 ad 3d 82 9b e0 3d
       0.018059595 0.1139057 0.084730625 0.10967161
000280 71 16 98 3e a7 2e e7 3d 3d e8 a6 bd c7 43 74 be
       0.2970462 0.11288195 -0.08149765 -0.2385398
000290 85 da cd bd 75 9d e3 bd 78 1b 02 be 7c 96 6e 3e
       -0.10051445 -0.11114017 -0.12705791 0.23299593
0002a0 03 3c 16 3d 90 a5 59 bd 37 30 f2 3c 46 62 34 be
       0.036678325 -0.05313641 0.029564006 -0.17615613
0002b0 b2 95 e7 bd 37 6b 7b be 2c 6e 5a be e7 c7 7b be
       -0.11307849 -0.24552618 -0.2133109 -0.24587975
0002c0 f2 9f df bd 39 90 2f be b0 d5 38 bd 71 cc 47 be
       -0.10919179 -0.1714486 -0.045125663 -0.19511582
0002d0 75 8c 08 3e 70 d8 fe 3c 34 ee ab 3d c8 09 47 bd
       0.1333483 0.031109065 0.08395043 -0.048593313
0002e0 1a f1 93 be d3 d8 00 3e 82 dd 06 3e 79 3d 02 be
       -0.28894883 0.12582712 0.13170436 -0.12718762
0002f0 c0 03 a9 bd 22 36 13 3e da 02 80 3e 4b 61 aa bd
       -0.082526684 0.14376119 0.25002176 -0.083193384
000300 4b 56 df 3d 84 e6 22 3e 21 28 96 3d 3e 86 4e 3e
       0.10905131 0.15908247 0.07331873 0.20168397
000310 b9 da 38 3d cb fe 41 3e 9e 6f dd bd f7 f7 91 be
       0.045130465 0.18944852 -0.10812305 -0.28509495
000320 98 2e 60 be 66 07 7c 3e f3 ed 8d 3e 74 57 bb 3c
       -0.21892774 0.24612197 0.27720603 0.02286885
000330 48 97 3f be 3b ac 88 3e 2d a6 a2 bd b2 07 e7 3c
       -0.18710053 0.266939 -0.07941852 0.028201912
000340 e0 4e 53 be 8a 65 1c 3e 75 df a1 bd 66 c4 51 ba
       -0.20635557 0.15273109 -0.07903949 -0.0008001983
000350 2a 01 18 3e ea ae 64 be 4f bc 4d be ca 4c 6f 3d
       0.14844194 -0.2233235 -0.20091365 0.05842284
000360 44 1b 86 3d 55 91 8d 3e 4a 9e f5 bc fd fa 5a be
       0.06548169 0.27649942 -0.029982705 -0.21384807
000370 33 5a 8e bb 6c 4b 8f be 20 9d 5e be 6c 4b 95 bd
       -0.0043442487 -0.2798723 -0.21739626 -0.07289776
000380 66 5a 0e be ac d6 bf bd 15 d7 b8 bc 4f 0b 0f bd
       -0.13901672 -0.09367117 -0.022563497 -0.034922894
000390 3e 9a 8d bd 97 9f 7b be 4e c0 36 be 96 5f 46 be
       -0.06914185 -0.24572597 -0.17846796 -0.193724
0003a0 06 ab 2b be a7 2b c1 bd 1a 63 38 be 04 fd 53 3e
       -0.16764459 -0.09432154 -0.18006554 0.20701987
0003b0 9f e8 90 3e c9 77 9c 3a da 64 34 3d 3a 3c 96 3e
       0.28302476 0.0011937554 0.044041492 0.29342824
0003c0 ab 0f 2a 3e 62 20 e9 3d df 07 35 be b6 26 8f be
       0.1660754 0.1138313 -0.17678784 -0.27959222
0003d0 5c 26 bd bd 17 ee 36 be da fe 60 be 80 fa 31 be
       -0.09235832 -0.17864262 -0.21972218 -0.17380714
0003e0 74 83 e3 bd a1 e3 32 3e 8a c8 1c 3e e5 3b fd bd
       -0.11109057 0.17469646 0.15310875 -0.123649396
0003f0 7c 99 38 3d a4 a2 1f 3d be 56 53 3e 6f 3e 5a 3e
       0.04506825 0.038973466 0.20638558 0.21312879

net.0.bias f4 [64]
000000 3f b1 93 3b 22 61 41 bc 23 a3 0e bc 8e 11 06 3c
       0.0045072134 -0.011802943 -0.008705887 0.008182896
000010 11 14 81 3c f0 25 8a 3c 9e 7f f3 3b e7 59 e1 b9
       0.015756639 0.016863793 0.0074309846 -0.00042982327
000020 d6 27 8f 3b 0f 9a d7 bb 02 90 cf bb 6c b4 8f 3c
       0.0043687625 -0.0065796445 -0.0063343057 0.017542087
000030 49 e5 fd ba d3 64 21 bb 96 6e 72 3c 9d d9 8b 3c
       -0.00193707 -0.0024626746 0.014796874 0.01707154
000040 e7 07 e1 bb ef cc fb bb 99 1b 93 3b 54 b9 41 bc
       -0.006867397 -0.007684342 0.004489374 -0.011823971
000050 97 24 a6 3c 91 b7 1a 3c 39 03 9b 3c a4 19 50 3c
       0.02028112 0.00944318 0.018922435 0.012701426
000060 8a fa 81 3c 22 0c 48 3c e1 28 76 3c 1f 48 ef 3c
       0.015866537 0.012209924 0.015024395 0.029209195
000070 2a 8d c9 bc c6 b1 19 bc a0 75 83 3c 28 3c 27 bb
       -0.024603445 -0.009380763 0.016047299 -0.0025518034
000080 36 47 53 bc 80 1a 47 3a 6e d4 a0 3c 21 14 21 3b
       -0.012895396 0.00075951964 0.019632544 0.0024578648
000090 9e d5 13 bc e6 ca b1 3c 66 6f 29 bc d6 cb 46 ba
       -0.009023098 0.021703195 -0.010341501 -0.00075834745
0000a0 a6 4d 8e 3c 2f 66 11 3c 1c 6d 8a 3b 68 a6 c4 3c
       0.01737101 0.00887446 0.0042244326 0.02400513
0000b0 fa dc d5 3c 89 44 7f bb 28 7a 91 bc 7a 9e 2d bc
       0.026106346 -0.0038950762 -0.017758444 -0.010596866
0000c0 89 39 f2 ba b9 29 47 3c 9a f2 82 3a ed c2 09 bc
       -0.0018480282 0.012155944 0.0009990514 -0.00840829
0000d0 65 9f 25 bc 16 ed c9 bc e5 2d 08 3c 6a ed ec 3b
       -0.010108803 -0.024649184 0.008311723 0.0072304504
0000e0 c3 2b 80 3c 9a 59 29 bc 78 6c 3e 3c 18 f7 17 3c
       0.015645867 -0.010336304 0.011622541 0.00927522
0000f0 75 98 33 bb de 4b ab bb db b3 b7 bb ea ea 8a 3c
       -0.0027404104 -0.00522755 -0.0056061572 0.016957719

net.3.weight f4 [64, 64]
000000 9f 1b e2 bd aa a9 f5 3d 20 0a 1d be d7 5f 47 3e
       -0.110404246 0.119952515 -0.15335894 0.19470154
000010 3c 93 f3 bd 78 e8 df 3d 74 8d b4 bc e3 8e fc bd
       -0.11893317 0.10933012 -0.022040106 -0.12331941
000020 5a 89 fc 3d d5 36 72 bd 93 ce 28 be 6d a3 b7 3d
       0.12330885 -0.059134323 -0.16485052 0.08966718
000030 7f 39 f7 bd a2 3b 26 3e a2 de ce 3d 95 52 35 3e
       -0.120715134 0.16233686 0.101010576 0.17707284
000040 86 52 45 be d6 51 0a 3e 7a 21 19 be 63 a2 72 bd
       -0.19269761 0.1350778 -0.14954177 -0.059236895
000050 67 73 96 bb cc a0 42 3e df 85 89 3d 13 08 2b bd
       -0.0045913938 0.19006652 0.06714987 -0.041755747
000060 05 7b 35 3e ce 39 42 3e 17 4f 2f be a4 cd d3 bd
       0.1772271 0.18967363 -0.17120014 -0.10341957
000070 90 26 eb 3d 63 15 1b be 53 a0 21 3e a4 ac 0b 3d
       0.114819646 -0.15144877 0.15783815 0.03410019
000080 af 54 05 3e 00 4b 22 3e 94 30 36 3e 45 7e 14 3d
       0.13020585 0.15848923 0.17791969 0.036253233
000090 36 d2 e7 3d 81 46 0d bd 89 29 1b 3e 13 36 53 3d
       0.113193914 -0.034491066 0.15152563 0.05156524
0000a0 91 fc 5e 3e d1 f6 aa bd ee 1e 36 be 94 60 ea 3d
       0.21776034 -0.08347858 -0.17785236 0.11444202
0000b0 98 40 a3 bd 27 55 14 3d 54 0f 76 bd a0 32 e0 bd
       -0.07971305 0.03621402 -0.06007321 -0.10947156
0000c0 86 9b a6 3d 56 05 04 be ca ed 8a bc af 24 c8 3d
       0.081351325 -0.1289266 -0.01695909 0.09772622
0000d0 d9 c8 7d 3d 9f 04 26 be c3 6f b7 3d de 40 e7 3c
       0.06195912 -0.162127 0.08956864 0.028229173
0000e0 7e 80 04 3e 59 e1 35 3d 19 80 9f bd 47 4a 21 be
       0.12939641 0.04440436 -0.077881046 -0.15750991
0000f0 26 9b 02 be e1 c8 d5 bc 57 96 11 bd 31 af 1d 3d
       -0.12754497 -0.026096763 -0.035543766 0.038497154
000100 1a 32 16 3e 01 a3 37 be dc 4a 8c 3d 81 8a 36 be
       0.1466755 -0.17933275 0.06850216 -0.17826273
000110 0c 0c 22 3e d5 5e 2a be 3e 28 3e be 28 18 26 3e
       0.15824908 -0.16637738 -0.18570039 0.16220152
000120 19 57 09 3e c1 71 93 bd a0 71 52 3e cd cd 8a 3c
       0.13412131 -0.07199431 0.20551157 0.016943837
000130 e2 cb fb 3d 3b ba 96 3d e8 1f 0e be 02 63 54 3d
       0.12294747 0.073597394 -0.13879359 0.051852234
000140 68 04 de 3d d0 d7 80 bd dd 81 1b 3d 7b 34 59 3e
       0.10840684 -0.06291163 0.037965644 0.21211426
000150 53 a8 e9 3d 3e e0 32 3e 30 4b 05 3e 24 58 11 ba
       0.114090584 0.17468354 0.13016963 -0.0005544445
000160 6b 52 87 3d 10 54 ed bd 8a 69 cb 3d a6 1d 74 bd
       0.06607517 -0.11588299 0.09932239 -0.059598587
000170 2b a9 9e bd 13 f1 9b bb 83 e1 b2 bd 8f 54 ab bd
       -0.0774711 -0.004758963 -0.08734419 -0.08365738
000180 72 55 f9 bd 1b 47 17 3e 03 61 e6 3d 39 c3 5e be
       -0.121745005 0.14773218 0.11248972 -0.21754159
000190 61 91 a8 bc 0e 17 83 bc 36 fe ef bc 03 e7 f0 3d
       -0.020577135 -0.016002204 -0.029296022 0.11762812
0001a0 ca c1 99 bd f8 3c d0 bd b1 f4 b8 bd 42 19 c6 3b
       -0.075076655 -0.10167879 -0.09031046 0.0060454914
0001b0 85 92 06 3c 22 c6 17 be 6a 35 88 3d c2 1b 8c bd
       0.008213644 -0.14821675 0.06650813 -0.06841232
0001c0 7d 08 b4 3d ed f9 3e 3e 47 0a 51 3e a1 b3 a9 bc
       0.087906815 0.18650027 0.20414077 -0.020715537
0001d0 e8 7b 4a 3e 97 80 c7 3d 91 38 e8 bd bd ef 43 be
       0.19773829 0.097413234 -0.11338914 -0.19134422
0001e0 79 36 dc bd f2 37 9c 3c 97 0a 54 be 78 78 55 3e
       -0.10752577 0.019069646 -0.20707165 0.20846736
0001f0 89 9c 32 be 0e a5 93 bc 20 8b c8 3d 70 e0 56 3e
       -0.17442526 -0.01802304 0.09792161 0.20984054
000200 cd 1d 46 3e 5e 4c 22 3c ea a9 66 3b 95 61 e3 bd
       0.19347306 0.009905903 0.0035196492 -0.11102597
000210 ed 4e 98 3b f1 7f da bd f2 c9 1f 3e 5a 0d b2 3d
       0.0046480806 -0.10668934 0.1560438 0.08693953
000220 e2 3a b0 3d 07 3e 5b bc fc e7 15 be 59 5e 1c be
       0.08604981 -0.013381488 -0.14639276 -0.15270366
000230 1d 30 0f be 7c 91 d8 3d 70 b4 a3 bd e1 3f b2 bd
       -0.13983198 0.10574624 -0.079934 -0.0870359
000240 b6 d6 cc 3c aa 85 3f 3e bd 2d 43 be de 52 05 be
       0.025004726 0.18703333 -0.19060417 -0.13019893
000250 e7 09 c6 3d 87 c1 48 3d 3a 08 eb bd 3c 8a 2b 3e
       0.096698575 0.049012687 -0.114761785 0.16751951
000260 57 b7 4f 3e 4d 1b 08 be b1 85 1a be b8 9f 0a 3e
       0.20284782 -0.13291664 -0.15090062 0.1353749
000270 96 50 75 bc 54 59 cc 3d 1d c3 8e bc 27 e7 c1 3d
       -0.0149728265 0.099779755 -0.017427022 0.09467917
000280 08 eb 4a be e6 49 37 3e a4 81 23 3d cb 9d ee 3d
       -0.1981622 0.17899284 0.039918557 0.1165119
000290 b2 97 42 be 88 4c b6 bd 78 e6 42 3e 16 81 9d 3d
       -0.1900318 -0.08901316 0.1903323 0.07690637
0002a0 bf f7 6f 3d 98 83 f4 bd c7 4a 8f 3d 7c 02 02 3e
       0.05858588 -0.11939162 0.069966845 0.1269626
0002b0 27 9f 92 3b 4e be a6 3d 19 78 2c be 99 6c fc 3d
       0.004474539 0.081417665 -0.16842689 0.12325401
0002c0 00 86 e7 3d 1f 59 15 3e bb 18 47 3e 30 a5 57 be
       0.11304855 0.14584778 0.19443028 -0.21059108
0002d0 25 9e c3 bd 68 0d 27 3e 28 b7 55 3e 39 a0 10 3d
       -0.09551648 0.16313708 0.2087065 0.03530905
0002e0 06 8a 1c be 03 da 1d 3e 78 c0 9c 3d 5c 4e 3c be
       -0.15287027 0.15415196 0.07653898 -0.18389267
0002f0 d5 92 34 3e a8 83 bd bd be f5 42 be 85 15 4a bd
       0.17634137 -0.09253627 -0.19039056 -0.04933693
000300 e8 15 a3 bd fc 29 04 bd 24 2a 60 bd a6 f9 81 3d
       -0.07963163 -0.032266602 -0.05472769 0.06346445
000310 82 80 0b be b2 c0 ff bd 44 62 c7 bd 5d 77 56 3e
       -0.1362324 -0.124879256 -0.097355396 0.20943971
000320 10 ff b6 bc 42 4e 90 3d 25 af 26 3e 78 97 f9 bc
       -0.02233842 0.070461765 0.1627775 -0.030467734
000330 ce 16 24 be a8 fa c9 bd c0 dc fd bb 57 6b 52 be
       -0.16024324 -0.09862262 -0.0077472627 -0.2054876
000340 84 78 7d 3d 86 1f a8 3d 28 5c 1e be 54 42 71 3d
       0.06188251 0.082091376 -0.15464842 0.058901146
000350 b2 30 fd 3d f6 dd a6 bd e2 d2 50 be 68 a3 d3 3c
       0.123628035 -0.081478044 -0.20392945 0.025834754
000360 fd fb da bd de 93 aa bd 50 48 1a be 44 dd 47 3d
       -0.10692594 -0.08328985 -0.15066648 0.048795
000370 a5 e7 4b 3e f6 76 eb 3d 30 32 13 3c 20 73 32 be
       0.19912584 0.114972994 0.008984134 -0.17426729
000380 8c 24 76 bd a2 d6 9d 3d 37 62 41 3e 35 a7 58 3e
       -0.060093448 0.077069536 0.18885122 0.21157534
000390 02 64 81 bd 96 9a 49 be 35 48 2a be d8 57 00 3d
       -0.06317903 -0.19687876 -0.16629107 0.031333774
0003a0 da c4 17 be 4c 27 78 3d a3 fd 26 3e 69 0d 19 be
       -0.14821187 0.06058435 0.16307692 -0.14946522
0003b0 42 c9 aa 3d c9 3b 0f be bc d7 31 bd 34 37 97 bd
       0.08339168 -0.1398765 -0.04341863 -0.07383576
0003c0 aa 62 82 bd 34 e9 4a be 90 1a 48 3c c8 56 d4 3c
       -0.06366475 -0.19815522 0.012213364 0.025920287
0003d0 ca 94 d7 3d 97 5f 50 be 08 a3 b0 3c 18 f6 ff bc
       0.10526426 -0.20348965 0.021562114 -0.031245276
0003e0 af 9c 5b be 44 93 4e 3d 4a cf b2 3d 04 2e b1 bd
       -0.21446489 0.050433412 0.087309435 -0.08651355
0003f0 1e 54 9b 3d f8 b3 1e be 3d 1c 1a 3e 28 01 d9 3c
       0.075844035 -0.1549834 0.15049835 0.02648981

net.3.bias f4 [64]
000000 db 73 bd 3c 66 13 70 3a c7 69 52 bc 00 00 00 00
       0.023126533 0.0009158164 -0.012842602 0.0
000010 82 e2 e7 3c db cd 94 3b 7a ee c7 bb 99 99 bf 3a
       0.02830625 0.0045411414 -0.0061014267 0.0014617919
000020 8c 7a 83 bc db ac 42 bc 0f 9e a4 bc 3c 4c 17 3c
       -0.016049646 -0.011882032 -0.0200949 0.009234484
000030 12 18 cf 3b 87 34 00 bc 77 6f f0 3c 29 bd 64 bb
       0.006320008 -0.0078250235 0.029350026 -0.0034902787
000040 99 e9 50 bc ae 65 65 bb 56 ac 34 bb 6f c9 2a bb
       -0.0127510065 -0.0035003233 -0.002756854 -0.0026060005
000050 be 76 af bc fe 79 83 bb 69 58 11 3d 8d 7c b2 3c
       -0.021418925 -0.0040123453 0.035484705 0.021787906
000060 01 aa 00 3d 83 04 e8 3b ff 27 86 3a 57 44 41 bc
       0.03141213 0.007080616 0.0010235308 -0.011796079
000070 1a 4c af 3c 9f 0f c5 bb 55 89 69 3c b1 2e 22 bc
       0.021398593 -0.006013825 0.014253934 -0.009898827
000080 f6 b0 b4 3c b1 76 10 bc c2 51 fe 3c 7b 34 ad bb
       0.022057038 -0.008817361 0.031044845 -0.005285797
000090 8f d9 cf b9 0e 76 46 3c fb 7f c3 bb 90 f5 a1 ba
       -0.0003964421 0.012113107 -0.005966184 -0.0012356509
0000a0 5c 69 59 bb 8d 7a 26 bb 9f a8 84 bc 70 fe bc bb
       -0.0033174371 -0.0025402636 -0.016193686 -0.005767636
0000b0 ad f2 0d 3c c1 af ea 3b aa c1 90 bc 3e 3b ef 3c
       0.008663815 0.007162065 -0.017670471 0.029203054
0000c0 46 0d 22 bc 02 f8 a8 bb d7 3c 88 ba d6 60 6b bc
       -0.00989086 -0.005156518 -0.0010394108 -0.014366349
0000d0 c6 d0 68 3c e6 0c b7 bb aa c6 83 3b e1 18 93 bc
       0.014209932 -0.0055862544 0.0040214853 -0.0179562
0000e0 97 c0 a7 3c 84 2b 18 bb 31 a1 c1 3c 66 94 7a bc
       0.020477576 -0.0023219297 0.023636432 -0.01529417
0000f0 14 0d 14 3d bd e5 97 3b 56 70 4f 3c 65 df 4b 3b
       0.036145285 0.0046355412 0.01266106 0.0031108495

net.6.weight f4 [2, 64]
000000 4d 31 84 3e f4 dd 18 3e c5 5d e6 3d 4c 23 58 3e
       0.25818864 0.14928418 0.11248354 0.21107215
000010 e9 59 38 3e b7 8c fa 3d a9 7b 82 3e fc 6e 94 3e
       0.18003048 0.122338705 0.2548497 0.28990924
000020 0e 92 3e be ec ff 72 be 21 9e 02 bb 28 11 5a 3e
       -0.18610403 -0.23730439 -0.0019930678 0.21295607
000030 b8 18 54 3e 41 c0 68 be b1 b4 9d 3e f1 0b 05 3d
       0.20712554 -0.22729589 0.3080192 0.03248209
000040 df d6 87 be 5e 46 4a be 78 d3 85 bc cd f6 33 be
       -0.2653112 -0.19753405 -0.016336188 -0.17574616
000050 61 d2 a5 bd 2f 21 1a be 02 43 8b 3e 17 ad 0e bb
       -0.08096767 -0.15051721 0.2719956 -0.002177065
000060 17 b4 4b 3e 63 67 af bd b1 a2 9e 3e b4 ac 8a bd
       0.19892918 -0.08564641 0.309835 -0.06771222
000070 c0 1a a3 3e ef ed 14 3d ed 20 a4 3c 92 a9 55 be
       0.31856346 0.036359724 0.020035231 -0.20865467
000080 a7 14 8e 3d 6f 44 7e bb d0 6d 9a 3d 84 69 2e 3d
       0.06937533 -0.0038798114 0.07540476 0.042581096
000090 54 30 1b 3e ef a5 99 3e c7 de 0c 3e fa 93 2f be
       0.15155154 0.3000941 0.13756858 -0.17146292
0000a0 79 d2 80 3e 9a 94 46 3e 1e a2 94 be fa 3f 44 be
       0.25160578 0.19392624 -0.29029936 -0.1916503
0000b0 17 b8 c4 bd d0 25 ff bc 6a a6 23 3d ef b0 56 3e
       -0.09605425 -0.03114596 0.039953627 0.20965932
0000c0 b7 b9 87 be ef e2 8d be ec 92 92 be 75 6a a2 bd
       -0.26508877 -0.277122 -0.28627717 -0.07930461
0000d0 f0 00 2f bd c8 32 46 bd a7 e1 78 3e 29 b2 87 be
       -0.042725503 -0.048388273 0.2430483 -0.26503113
0000e0 57 11 9d 3e 60 18 6d be 49 6b 58 3d 53 9a 7e be
       0.30677292 -0.2315383 0.05283669 -0.24863558
0000f0 09 4c 01 3e a9 b7 20 bd b8 d7 02 3c c6 23 02 3e
       0.12626661 -0.039237652 0.007986002 0.12708959
000100 06 2d b7 3c 44 59 2d be 9d e4 7b be 0b f5 17 be
       0.022360336 -0.16928583 -0.24598928 -0.1483957
000110 9c 68 18 3e 1f 10 eb bd 92 77 78 be 06 65 56 be
       0.14883655 -0.11477684 -0.24264362 -0.20936975
000120 7a 58 65 be 29 f8 8a be 4d ff 0c bd 65 d5 29 bd
       -0.22397032 -0.27142456 -0.03442316 -0.041463275
000130 62 bf 8f be 4b fa 4a 3e 8f 84 11 3e 96 d5 04 be
       -0.280757 0.19822042 0.14210723 -0.12972102
000140 47 2b 60 bd cc c0 6e be ce bb a4 bd 39 92 fa 3d
       -0.054728772 -0.23315734 -0.080436334 0.12234921
000150 56 f6 ac bd ec a6 05 3e 13 b8 2a 3e 87 6a 61 3e
       -0.08445422 0.13051957 0.16671781 0.22013293
000160 61 50 29 3e e9 ef 63 3e fc 56 86 be 5e ea b5 bd
       0.16534568 0.22259487 -0.2623824 -0.088825926
000170 8a 22 23 3d ab de 78 be 07 be b7 3d f0 6f 25 3e
       0.03982786 -0.24303691 0.08971792 0.16155982
000180 19 9a 87 3e 49 21 8f bd 2f de 3b 3e a4 35 6c be
       0.26484755 -0.069887705 0.18346475 -0.23067337
000190 fa 3d df bd f2 a9 00 be 91 f0 82 be 9c 10 12 3e
       -0.10900493 -0.12564829 -0.25574163 0.14264148
0001a0 b4 63 93 be 1f 38 16 be 39 96 0b be 4d 53 82 be
       -0.28787005 -0.14669846 -0.13631524 -0.25454178
0001b0 7f a1 8e 3e 74 e0 63 3e 4c 85 4b be f8 1f 89 3d
       0.27857587 0.22253591 -0.19875067 0.06695551
0001c0 25 3a 40 bd d9 77 5e be a2 3f 86 3e 8b e0 1c 3d
       -0.04693045 -0.21725406 0.26220423 0.03830008
0001d0 66 32 70 3e a7 54 90 be ce 15 16 be 48 52 85 bd
       0.23456725 -0.28189585 -0.14656755 -0.065098345
0001e0 53 1f 68 3e bd 9d 84 3e 28 5f 8f 3e 5e 1a 1a be
       0.22668199 0.25901595 0.28002286 -0.15049121
0001f0 7b 5c c7 3d 93 9e b7 3d 44 8a 13 3e 55 53 09 3e
       0.09734436 0.089657925 0.14408213 0.13410695

net.6.bias f4 [2]
000000 26 b6 df 3c 2b bb ce 3c
       0.027308535 0.025235733

exp_avg f4 [64, 4]
000000 16 f8 b9 3b 7c 22 80 3c 26 eb 2f 3b 8f 40 d5 3b
       0.005675326 0.015641443 0.002684304 0.00650794
000010 30 7d 21 bc 7f 2e 3a bd e8 99 6d bb 40 c8 af 3c
       -0.009856507 -0.0454545 -0.0036255065 0.021457791
000020 98 78 25 ba 96 00 80 39 ce 6c 33 ba ba e5 b4 bb
       -0.00063122204 0.000244145 -0.0006844521 -0.0055205496
000030 78 c1 79 36 b9 96 a7 39 cd 6b bf b5 c5 cb 02 ba
       3.7216505e-06 0.0003196502 -1.4261983e-06 -0.00049894705
000040 80 c4 d3 3c 34 cd c7 3d c9 e3 34 3c f1 47 60 bc
       0.025850534 0.09755936 0.011040636 -0.013689027
000050 68 35 65 3b 70 be 14 3c 9d 87 9d 3b 3e bf a3 3c
       0.003497446 0.009078607 0.004807426 0.019988652
000060 f7 74 9b 3c 06 40 80 3d 34 de a1 3b d9 00 3d bc
       0.018976672 0.062622115 0.0049398188 -0.011535847
000070 ba e2 31 36 5f 61 13 b8 78 45 fc b6 b4 0d ae 37
       2.6507028e-06 -3.5138215e-05 -7.5182725e-06 2.0748797e-05
000080 7f 1b 52 39 63 60 03 bb 30 94 37 3a 82 69 d2 3b
       0.00020037404 -0.0020046465 0.00070029777 0.006421269
000090 4f 41 43 37 70 9a b6 39 08 43 ff b7 ff 6d 0b ba
       1.1638112e-05 0.0003482881 -3.0429583e-05 -0.000531882
0000a0 23 c7 11 b8 75 06 92 b9 22 5f 8c 38 14 6d 0b 3a
       -3.4756154e-05 -0.000278521 6.69344e-05 0.0005318683
0000b0 1f 6b cc 37 59 cf 8b b9 2d 90 ea 39 9a e1 1b 3b
       2.4368577e-05 -0.00026666632 0.00044739377 0.0023785592
0000c0 62 5e a8 3b 6f a3 03 3d 4c b3 e1 b7 6d 04 04 bd
       0.0051382044 0.032138284 -2.6905582e-05 -0.032230783
0000d0 38 86 35 38 30 bb 5a b9 a4 a4 d7 b8 fa 86 db 38
       4.3278764e-05 -0.00020859833 -0.000102826656 0.00010467875
0000e0 40 b7 56 3c 55 7e 3c 3d 2d 84 9e 3b c5 a8 bf bb
       0.013105214 0.046018917 0.004837534 -0.0058489763
0000f0 bf 99 e2 39 b7 79 1c ba 19 9f 29 3a 04 c2 ac 3b
       0.0004322063 -0.00059690647 0.0006470546 0.005272152
000100 f3 10 f5 bb ad b3 10 bd 0c 84 5a bb 68 49 73 3c
       -0.007478827 -0.035327602 -0.0033342866 0.014849044
000110 d1 1c 25 ba 5d 20 3e bb bd 64 6e ba 38 cf d5 ba
       -0.00062985445 -0.002901099 -0.00090939907 -0.0016312366
000120 c4 0e de b7 1b ad af 3a f5 cf 00 39 e3 5b c7 ba
       -2.6471338e-05 0.001340303 0.00012284501 -0.001520988
000130 bf dc 7e bb 7e 31 c6 bb 06 f8 db ba 52 46 31 bc
       -0.00388889 -0.0060483804 -0.0016782291 -0.010819988
000140 0f 9d 12 3d 0c ec 31 3e 45 5e 61 3c 61 4d b0 bd
       0.035794314 0.17375201 0.013755386 -0.08608509
000150 09 56 ff 3c b0 8a 10 3e ce 88 24 3c e7 9e 8b bd
       0.031168954 0.14115405 0.010042382 -0.068174176
000160 84 9c 80 3c 20 54 ba 3d 4d 88 dd 3b 40 ea 6a bd
       0.015699632 0.09098077 0.006760633 -0.057352304
000170 63 03 9e 3c 6b 86 94 3d a6 f9 b2 3b b6 5b bb bc
       0.019288724 0.07252201 0.0054618893 -0.02287088
000180 ed 70 87 b8 fb d4 a8 b9 10 41 8b 39 f3 3d 9d 3a
       -6.458336e-05 -0.0003220214 0.0002656062 0.0011996612
000190 4c d8 48 3c de 62 65 3d 72 77 ae 3b c5 92 a8 bc
       0.0122586 0.05600249 0.0053242976 -0.020577798
0001a0 54 11 d9 3c 56 c8 18 3e 39 ea 24 3c 49 16 c4 bd
       0.02649752 0.14920172 0.010065609 -0.09574563
0001b0 c8 59 61 3d bd e2 72 3e 3b a6 a7 3c dd fe b5 bd
       0.055017263 0.23719306 0.020465007 -0.08886502
0001c0 00 90 27 bd b0 aa 32 be 88 a0 82 bc 37 78 72 3d
       -0.040908813 -0.17447925 -0.015945688 0.059196677
0001d0 8f 5c 4f b6 25 78 f3 b8 35 14 80 35 9c 8b 52 39
       -3.089928e-06 -0.000116095216 9.542624e-07 0.00020079169
0001e0 f5 93 06 3d fd 02 12 3e b7 b8 31 3c 8f c4 75 bd
       0.032855947 0.14258952 0.010847262 -0.060001906
0001f0 0a 67 45 bc a0 c3 2a bd 59 bc 07 bb 40 2e 7c 3c
       -0.012048492 -0.04169047 -0.002071163 0.015391886
000200 50 a7 4f bc 24 e9 84 bd 5f af 7a bb a1 f5 27 3d
       -0.012674168 -0.064897805 -0.0038251502 0.041005734
000210 95 c4 c7 3c 5a 17 95 3d db 76 23 3c a5 bf 57 3c
       0.02438573 0.072798446 0.009977068 0.01316825
000220 42 8d 18 3d fe 78 01 3e 63 64 42 3c 00 53 82 bc
       0.03724409 0.12643811 0.011864754 -0.015908718
000230 2a 33 54 3c 8a 64 7e 3d dd a8 0d 3b 1d c5 2d bd
       0.012951652 0.0621076 0.0021615543 -0.04242431
000240 05 c9 1d b8 4b fa ee b9 7a 06 98 38 b7 09 59 3a
       -3.761893e-05 -0.0004558138 7.249131e-05 0.00082793407
000250 81 ed 50 3d f9 8a 3e 3e 63 de 91 3c 1d bf 17 bd
       0.05100775 0.18607701 0.017806238 -0.037047494
000260 fc 41 d6 bb 32 09 24 bd 8d fa 59 bb cf 08 c7 3c
       -0.0065386277 -0.04004783 -0.0033260912 0.024296192
000270 0f 5b 51 b6 af de a3 b8 51 4f cc 36 78 6b f0 38
       -3.119643e-06 -7.813924e-05 6.0889074e-06 0.000114641094
000280 2b 0d 9a 3a ad 7a 22 3a 77 fc cf 3a c5 bc 22 3c
       0.0011753192 0.00061980897 0.0015868087 0.0099327015
000290 d8 5d 45 bb 9d 30 de bb ea 11 a2 ba 65 0e c2 bb
       -0.003011575 -0.0067806975 -0.0012364958 -0.005922126
0002a0 4a 3f 62 3b 69 fd e4 3b 14 c2 ce 3a 68 fc f3 3b
       0.0034522587 0.0069882167 0.0015774393 0.0074458607
0002b0 5f 8b 01 3d 70 c6 eb 3d cd 9c 51 3c 27 51 7a bc
       0.031627055 0.11512458 0.012793732 -0.015278137
0002c0 66 12 15 3d 95 2c 1a 3e 12 f9 86 3c a4 dd 15 bd
       0.0363945 0.15056069 0.016476188 -0.036588326
0002d0 0c 7a 15 ba 72 a2 c4 39 db 41 39 ba 17 2c b7 bb
       -0.00057020853 0.00037505064 -0.0007067003 -0.0055899727
0002e0 33 2c 7d ba 54 26 22 ba 57 52 a2 ba f4 12 f8 bb
       -0.000965777 -0.0006185521 -0.0012384158 -0.0075706188
0002f0 c7 95 67 b5 d5 eb cd 39 5b 0d 04 b9 e2 ad 91 ba
       -8.627216e-07 0.00039276356 -0.00012593476 -0.0011114443
000300 bc fb d8 38 be 98 85 ba 09 4f 9f b9 f8 ea 45 3a
       0.00010346572 -0.0010192615 -0.0003038573 0.00075499667
000310 1d 5f 21 3b c8 03 a7 3b 6e e5 56 3b f3 4f 6f 3c
       0.0024623342 0.0050968863 0.003279056 0.014606464
000320 cf 84 94 b7 af b0 c4 b9 41 d6 af 38 4f b1 5c 3a
       -1.7704819e-05 -0.00037515673 8.384558e-05 0.0008418755
000330 c8 18 96 37 e7 be ee 39 b2 c6 9d b8 b1 ce 6a ba
       1.7892933e-05 0.0004553713 -7.523353e-05 -0.0008957191
000340 f7 cf 7c ba 7e e4 e8 39 6f 76 8d ba 57 d0 0d bc
       -0.0009644026 0.00044420728 -0.0010792742 -0.008655629
000350 b6 98 5a bd fd f8 57 be 6b a0 a5 bc 43 c4 67 3d
       -0.053368293 -0.21091075 -0.020218095 0.056583654
000360 48 79 15 3a 0f 38 7b 3a 8d 77 5d 3a b2 42 8a 3b
       0.0005701971 0.00095832435 0.00084482954 0.0042193765
000370 36 2a ce 3c b0 b6 d2 3d ea c6 06 3c 7c 60 16 bd
       0.025166612 0.10288751 0.008226136 -0.03671311
000380 11 d6 df 3c b6 b2 f7 3d 20 03 10 3c 98 03 61 bd
       0.027323755 0.12094633 0.008789808 -0.054935068
000390 68 90 b1 ba 36 ea 87 3c a6 ab 90 ba bf c4 07 bd
       -0.0013547065 0.016591173 -0.0011037483 -0.033146616
0003a0 20 ca a8 3c d3 4c b0 3d f1 9a 09 3c c3 dc d6 bc
       0.020604193 0.08608403 0.008398757 -0.026228314
0003b0 41 f2 ba 3c 14 a2 db 3d 3a bf d3 3b 21 d0 73 bd
       0.022820594 0.10724273 0.006462005 -0.05952466
0003c0 bd 37 a3 ba 0a 03 8d bb 7a 2d cc ba 7e 83 9d bb
       -0.0012452524 -0.004303341 -0.0015577518 -0.004806935
0003d0 7a cd 66 3c 05 7c d5 3d 97 cd 9e 3b 64 a9 b5 bd
       0.014087075 0.104240455 0.0048462856 -0.08870199
0003e0 07 37 a2 b9 11 97 2c 38 d3 bf fb b9 9a d8 57 bb
       -0.00030940046 4.1148687e-05 -0.0004801737 -0.00329355
0003f0 ad 0e 72 3c 2b 93 9c 3d 7d 59 b1 3b 6e 86 2e bd
       0.014774007 0.076452576 0.005412279 -0.04260867

exp_avg_sq f4 [64, 4]
000000 e0 f0 68 36 7c 01 84 38 54 e8 17 36 9b 21 9d 38
       3.4710902e-06 6.294527e-05 2.2635986e-06 7.492603e-05
000010 c7 e9 47 37 60 88 f0 39 2d 9d 50 37 7c 35 73 3a
       1.1915755e-05 0.00045877974 1.2434361e-05 0.0009277684
000020 1b f0 12 35 85 0f a4 37 c9 2a 90 35 c4 92 99 38
       5.473864e-07 1.955755e-05 1.0741288e-06 7.322946e-05
000030 aa a9 5b 35 42 46 22 39 18 c9 49 36 4c c7 dc 39
       8.183075e-07 0.00015475697 3.0068386e-06 0.00042110158
000040 40 a9 d7 37 31 d8 f9 39 3c b5 84 37 f1 b5 23 3a
       2.570881e-05 0.00047654056 1.582002e-05 0.0006245068
000050 a0 46 b6 36 1d a4 c3 38 c3 8d 4f 37 2e 33 94 39
       5.4322445e-06 9.328893e-05 1.2371168e-05 0.00028266892
000060 eb 48 73 37 ea 2c 8d 39 e3 07 a0 36 6c f2 59 39
       1.4500906e-05 0.0002692708 4.7692897e-06 0.00020785042
000070 07 95 14 37 0b b1 96 3a b5 ad 05 38 b7 4f 69 3b
       8.856186e-06 0.0011496855 3.187145e-05 0.0035600492
000080 5c 0f 40 36 e1 f3 d2 38 e3 92 02 37 62 37 91 39
       2.861917e-06 0.00010059006 7.782804e-06 0.0002769782
000090 02 a4 23 35 41 75 50 38 a3 b3 25 36 e2 5c fc 38
       6.0960895e-07 4.9700266e-05 2.4691478e-06 0.00012033597
0000a0 5b 3f a6 35 9b 9c 02 39 d4 cb 98 36 20 17 d2 39
       1.2386403e-06 0.00012456106 4.5536817e-06 0.0004007155
0000b0 ba ef 19 35 dc 54 a0 37 df cc 3b 36 d2 0b 84 38
       5.734579e-07 1.9113002e-05 2.7984422e-06 6.296452e-05
0000c0 c4 14 21 37 49 b8 9e 39 4b 14 fa 36 fb 72 b3 39
       9.601183e-06 0.00030273412 7.452943e-06 0.00034227208
0000d0 f7 27 31 35 ac 43 b3 38 56 4b 33 36 8c e3 65 39
       6.5995795e-07 8.54799e-05 2.671693e-06 0.0002192391
0000e0 6f ec 7b 37 4c d3 fb 39 65 86 50 37 96 60 34 3a
       1.5015815e-05 0.0004803188 1.2429057e-05 0.00068808475
0000f0 d2 45 1e 35 d1 6e fd 37 3e fa 11 36 0c 91 dd 38
       5.896119e-07 3.0211553e-05 2.1752344e-06 0.00010565118
000100 ad d2 87 36 13 d2 57 39 bd 12 c6 36 b8 2a b2 39
       4.0478394e-06 0.00020582257 5.9030413e-06 0.00033982634
000110 06 22 35 35 cb 11 2e 38 49 e1 f6 35 3d 47 8d 38
       6.7477265e-07 4.1501404e-05 1.8393995e-06 6.736673e-05
000120 10 4f 39 35 d7 18 60 39 f5 2e 83 36 18 ea 02 3a
       6.903292e-07 0.00021371558 3.9095708e-06 0.0004993989
000130 11 2a 40 36 9f 90 f7 37 a8 e3 42 36 09 9d ed 38
       2.8634715e-06 2.9512039e-05 2.9040766e-06 0.00011330291
000140 c4 f2 19 38 82 00 c2 3a ec 2e b5 37 28 5a cd 3a
       3.6704136e-05 0.0014801177 2.1598731e-05 0.0015667127
000150 13 58 d4 37 22 58 34 3a db b4 17 37 72 89 a5 39
       2.5313382e-05 0.0006879588 9.04241e-06 0.00031573657
000160 be 39 8c 37 48 d3 64 3a cb 98 75 37 7a 1f 89 3a
       1.6716189e-05 0.0008728993 1.4638713e-05 0.0010461651
000170 75 e0 68 37 a0 7e ed 39 c6 59 51 37 a1 a3 60 3a
       1.3880538e-05 0.00045298506 1.2478273e-05 0.00085693045
000180 76 6f cf 34 ee fb 47 38 15 16 4b 36 40 66 07 39
       3.8637853e-07 4.7679925e-05 3.026221e-06 0.00012912694
000190 a0 a1 14 37 eb 60 61 39 d2 00 8f 36 65 27 f0 38
       8.859119e-06 0.00021493777 4.2618276e-06 0.000114514296
0001a0 4d d8 40 38 2a 42 16 3b 1b 9a 0f 38 b2 d1 2b 3b
       4.5977813e-05 0.002292762 3.423738e-05 0.0026217517
0001b0 c2 75 93 38 41 3c fc 3a 03 7e 0f 38 bb b3 ff 3a
       7.03144e-05 0.0019244031 3.4211214e-05 0.001950852
0001c0 a6 fa 41 38 86 9f bc 3a e9 9d d0 37 bb de ce 3a
       4.624822e-05 0.0014390803 2.4869065e-05 0.0015782932
0001d0 f7 a8 08 35 71 1d c8 38 3f 38 07 36 55 64 92 39
       5.0909824e-07 9.542227e-05 2.0149307e-06 0.00027922043
0001e0 b7 77 37 38 4c b1 06 3b 04 c5 2d 38 cf 8c 79 3b
       4.3742093e-05 0.0020552455 4.14299e-05 0.0038078313
0001f0 8a 12 17 37 bf c7 6c 39 00 c9 88 36 49 7b 4f 39
       9.004618e-06 0.00022581125 4.0765153e-06 0.00019786986
000200 7e e5 1e 37 64 47 a7 39 66 27 a5 36 84 28 a2 39
       9.470967e-06 0.00031905912 4.92197e-06 0.00030929234
000210 f9 18 3c 38 6e cc b6 3a 72 15 03 38 67 89 1c 3b
       4.484595e-05 0.0013946423 3.1252806e-05 0.002388561
000220 ff 47 50 38 bd 85 28 3a 94 49 36 37 7b d1 5e 39
       4.9658116e-05 0.000642862 1.0865177e-05 0.00021249607
000230 01 75 08 38 89 1f fa 3a 5e dc 64 38 42 f0 8c 3b
       3.2533895e-05 0.0019082885 5.456467e-05 0.004301102
000240 f7 4f 6f 36 d7 40 0f 3a 5a df 68 37 83 d5 e2 3a
       3.566032e-06 0.0005464679 1.3880281e-05 0.0017306063
000250 fa af 86 38 10 59 6e 3a ec 6f 8f 37 3a d7 bf 39
       6.422396e-05 0.0009092251 1.7099046e-05 0.00036590715
000260 e6 7c c8 36 99 72 97 39 66 06 be 36 98 0b 0c 3a
       5.9750046e-06 0.00028886346 5.663186e-06 0.0005342304
000270 14 ed dd 35 83 d3 81 39 d2 dc c6 36 69 ea 40 3a
       1.6534782e-06 0.00024762386 5.9265667e-06 0.00073591486
000280 88 30 8e 35 39 c9 a1 37 13 3b 15 36 c6 fd ed 38
       1.0593949e-06 1.9286397e-05 2.2237116e-06 0.000113483096
000290 b9 20 d0 36 fb fa 8d 39 28 b3 1e 37 95 3b 20 3a
       6.2026925e-06 0.0002708061 9.459247e-06 0.0006112394
0002a0 22 38 ba 35 a4 88 bd 37 1a 2f 9e 35 be 8d 3d 38
       1.3874417e-06 2.2594184e-05 1.1785626e-06 4.519312e-05
0002b0 d9 6b 08 38 ff 9e 0d 3a 79 30 92 37 50 f4 02 3a
       3.2525368e-05 0.00054024154 1.7427128e-05 0.0004995512
0002c0 9f 84 42 38 38 5e 85 3a cc e6 c7 37 98 95 c2 39
       4.6376717e-05 0.0010175174 2.3830122e-05 0.0003711402
0002d0 13 fc 47 35 cd 69 3c 38 fd 65 69 36 f3 b7 32 39
       7.4500093e-07 4.4921228e-05 3.477907e-06 0.00017043929
0002e0 1e ec 3e 35 52 cb 24 38 a7 84 ec 35 fb 4e ff 38
       7.112411e-07 3.9290004e-05 1.7621977e-06 0.00012174059
0002f0 5a 2f 04 34 8b 21 06 38 ad 12 23 35 e1 58 a7 38
       1.2310684e-07 3.197933e-05 6.074941e-07 7.9797355e-05
000300 84 dd ac 36 c3 26 0e 3a 6c d1 a2 37 f6 0e d4 3a
       5.1517873e-06 0.0005422646 1.9409425e-05 0.0016178775
000310 5b b7 5f 36 8e 91 d3 38 d0 da 03 37 d3 19 99 39
       3.3336316e-06 0.00010088376 7.859155e-06 0.00029201675
000320 20 65 4b 33 b4 a2 38 37 56 9e 06 35 ee ee 3a 38
       4.7356593e-08 1.1005137e-05 5.01493e-07 4.4568376e-05
000330 95 e4 1f 34 10 3a 4d 38 08 c1 46 35 9c 8b f5 38
       1.4891187e-07 4.8929884e-05 7.4041645e-07 0.00011708515
000340 48 78 be 35 55 c0 c1 37 05 fd 29 36 4b a6 0f 39
       1.419111e-06 2.3096954e-05 2.533024e-06 0.00013699492
000350 a1 d7 af 38 6d d9 fe 3a 77 9d 44 38 6e be 10 3b
       8.384814e-05 0.001944346 4.6876692e-05 0.0022086161
000360 39 bf 4c 35 41 d6 93 37 2b a4 f6 35 56 d0 c4 38
       7.627419e-07 1.7623535e-05 1.8376207e-06 9.384814e-05
000370 12 b9 8d 37 94 0d e3 39 db 25 01 37 2d 75 c9 39
       1.689469e-05 0.0004330693 7.697813e-06 0.0003842501
000380 7c bb e6 37 bc 79 6d 3a 3a 2a 78 37 a6 eb 60 3a
       2.750544e-05 0.00090589724 1.47917835e-05 0.0008580036
000390 76 6c 25 37 4f a8 e6 39 59 05 43 37 cf cd bc 39
       9.860019e-06 0.00043994418 1.1624151e-05 0.00036011494
0003a0 24 43 9d 37 fa ee 55 3a b7 75 e2 37 4a b4 dc 3a
       1.8747123e-05 0.00081609155 2.6996115e-05 0.0016838398
0003b0 aa 76 fa 37 60 cb a2 3a 71 53 c1 37 f3 b1 fa 3a
       2.985758e-05 0.001242023 2.3046248e-05 0.0019126519
0003c0 13 7c 91 35 7f 73 2c 38 98 80 2f 36 b2 05 8f 38
       1.0839452e-06 4.111556e-05 2.6151884e-06 6.819832e-05
0003d0 f5 72 86 38 5d ca cc 3a 56 b0 b1 37 53 51 41 3a
       6.41103e-05 0.0015624274 2.1182157e-05 0.0007374484
0003e0 52 79 66 34 2c 91 30 38 e7 ed b8 35 41 e7 ff 38
       2.1464555e-07 4.209687e-05 1.3778307e-06 0.00012202422
0003f0 2e 50 7f 37 8d 9f 0e 3a 6a d2 8d 37 00 24 2f 3a
       1.5217853e-05 0.0005440645 1.6906492e-05 0.00066810846

exp_avg f4 [64]
000000 e7 5f 52 bd 41 22 a1 3d 6a ec 3d 3c ef b5 85 ba
       -0.05136099 0.078678615 0.01159201 -0.0010201315
000010 1a 6d 67 be 5f e1 a5 bd 7e 38 02 be 30 e5 56 b9
       -0.22600213 -0.08099627 -0.12716863 -0.0002049401
000020 69 e3 21 bc 0f 58 a7 3a b5 79 12 3a 83 0c 22 bc
       -0.009880879 0.0012767332 0.0005587594 -0.009890678
000030 00 60 90 bc 64 b6 9d 3a 23 da d2 bd dc ee 5b bc
       -0.017623901 0.0012032506 -0.102955125 -0.013423648
000040 5d fb 81 3d d3 8e 61 3c f3 74 e7 ba 12 81 14 3d
       0.06346772 0.013766962 -0.0017658755 0.036255904
000050 0f 54 92 be e4 67 69 be 6f 2a 06 be 4f f3 07 be
       -0.28579757 -0.22793537 -0.13102125 -0.13276409
000060 65 fd d2 bb 2d 33 d8 bd db 73 59 be 4d 0a e2 be
       -0.0064388984 -0.10556636 -0.21235602 -0.44148484
000070 48 0c ad 3e 81 d9 3a 3a c7 d4 83 be eb 94 87 3d
       0.33798432 0.00071277475 -0.25748274 0.06620201
000080 65 17 b4 3d 07 22 4b be fc 12 8f be ce da 9e bd
       0.08793525 -0.19837199 -0.2794417 -0.077565774
000090 e4 c6 a2 3a 64 1e c9 be 8b a1 7d 3d 51 6d ee b7
       0.0012418893 -0.39281 0.061921638 -2.8422715e-05
0000a0 0e 5a d7 bc 49 11 db 3c 42 93 00 bd 85 43 8b be
       -0.026288059 0.02674164 -0.031390436 -0.2719995
0000b0 c1 df a5 be c1 ab 3d 3c 84 4c a9 3c b1 a6 3b 3b
       -0.32397273 0.011576594 0.020666368 0.0028633291
0000c0 0d a9 78 3b 6e 78 55 bd 43 99 e0 ba 4c 9c f2 3a
       0.003794256 -0.052116804 -0.0017135519 0.0018509715
0000d0 ab 85 94 3c b0 aa db 3e bb 1b 6b bc 0a 11 3d be
       0.018130144 0.42903662 -0.014349873 -0.18463531
0000e0 d8 ab 55 be b3 d6 9c 3c b5 98 2d be 5b 4e 26 be
       -0.20866334 0.019145345 -0.16952784 -0.16240828
0000f0 01 ac d1 3c db f4 d6 bd 86 b6 06 3c 2e 87 fb bd
       0.025594713 -0.10495921 0.008222228 -0.12281643

exp_avg_sq f4 [64]
000000 4a 68 69 3a 9b 10 1c 3b 0c 7b 28 3a f6 be b8 3a
       0.0008903785 0.0023813609 0.0006427027 0.0014094997
000010 a1 b3 84 3b 54 1e 92 3b 69 49 cd 3a 60 3e 76 3b
       0.0040497337 0.004459182 0.0015662137 0.00375738
000020 7d c6 89 3b 94 ca b9 3a fe a8 57 3a e6 26 ec 3a
       0.00420457 0.0014174753 0.0008226781 0.0018016964
000030 bb f1 00 3b fe 3a 8b 3a fa 6d 30 3b 9d 05 d6 3a
       0.0019675333 0.001062244 0.002692102 0.0016328577
000040 37 44 ac 3a 0d 24 63 3a 06 98 0a 3b c3 b0 b4 3a
       0.0013142888 0.0008664735 0.0021147742 0.0013785589
000050 66 1e b4 3b bc a3 7e 3b 9b c8 6a 3b 1c 48 18 3b
       0.005496788 0.0038854918 0.0035825137 0.002323634
000060 ce e2 19 3b 87 a0 0b 3b 4c 39 1e 3c d5 da 10 3c
       0.0023481133 0.0021305399 0.009657215 0.008841236
000070 e8 3d 06 3c 06 ac 88 3a 16 28 0e 3c 26 24 cd 3a
       0.008193471 0.0010427244 0.008676549 0.0015651032
000080 ad 63 a0 3a b8 d3 03 3c f3 8a 99 3b 84 ab 3c 3c
       0.0012236737 0.008046083 0.0046857535 0.011515502
000090 94 0f 4d 3b 4c 56 e6 3b 64 6d 94 3a 7e 12 a8 3a
       0.0031289803 0.0070293304 0.0011324105 0.0012822894
0000a0 2c ed 59 3a 01 bf df 3a a5 0c 3b 3a 91 9f ef 3b
       0.00083132344 0.0017070473 0.0007135368 0.007312723
0000b0 21 41 ed 3b 9d 9c 0b 3b 15 95 8c 3a 53 a9 f2 39
       0.00724043 0.0021303066 0.0010725582 0.00046283993
0000c0 c5 4d 6a 3b b5 7b 67 3b 29 fd 9a 39 3e 38 49 3a
       0.003575192 0.0035321538 0.00029561788 0.0007675922
0000d0 b3 26 ad 3a 6a 33 4f 3c 3c 91 75 3a cd 73 16 3b
       0.0013210386 0.012646535 0.000936765 0.0022957206
0000e0 88 43 81 3b a5 46 87 3b e8 2a a3 3b ac 1c 98 3b
       0.003944818 0.0041282945 0.00497948 0.00464209
0000f0 91 37 b8 3a 4f 11 01 3c 86 b6 b6 3a 87 54 a9 3b
       0.0014054646 0.007877662 0.0013939894 0.005167547

exp_avg f4 [64, 64]
000000 00 63 0e bc 5b 1f ff bc 9b 5b 19 bb b0 e7 f2 b6
       -0.008690596 -0.031142881 -0.0023400548 -7.239134e-06
000010 44 7f 3f bc 1d ab a2 bb 06 62 d4 bc 2e 05 72 b5
       -0.011688057 -0.004964246 -0.025925647 -9.015956e-07
000020 b1 fa 9c bb d1 10 8d b8 b1 d0 53 b6 f7 04 25 b9
       -0.004790627 -6.726536e-05 -3.1562925e-06 -0.00015737476
000030 a5 39 99 bc a2 ac 2a b7 20 81 36 bc ab e7 eb b9
       -0.018704245 -1.0172984e-05 -0.011139184 -0.000449953
000040 d3 50 77 bc fe 76 2c bb 7e 08 30 b8 f5 1e 95 bb
       -0.015094954 -0.0026316042 -4.196958e-05 -0.0045508095
000050 b9 9b 7d bc 4d 7d bb bc 30 25 b6 b9 e4 fe 39 bd
       -0.015479022 -0.022886897 -0.00034741452 -0.0454091
000060 0f c0 5a b9 30 e1 b5 bc 57 ae 21 ba 4e 89 22 bd
       -0.00020861647 -0.022202104 -0.0006167641 -0.039681725
000070 da d7 0f bd 80 e7 aa b5 ba c4 00 bd 9a d5 23 bd
       -0.03511796 -1.2733362e-06 -0.031437613 -0.03999863
000080 17 32 67 b8 9d 12 db bc 44 a6 21 bc 00 31 aa bb
       -5.512134e-05 -0.026742274 -0.009866301 -0.0051938295
000090 2e 53 24 b4 8d 08 be bc e6 48 b2 bc 84 fa 2d b6
       -1.5303951e-07 -0.023197437 -0.021763276 -2.5924828e-06
0000a0 ce 04 9a bb b1 91 92 bc 86 ef cd bb 41 f0 21 bd
       -0.00470028 -0.017891737 -0.006284657 -0.039535765
0000b0 37 eb d2 bc be 84 a0 b9 b9 0e 03 bb 79 45 9e b9
       -0.025746925 -0.0003061648 -0.001999779 -0.0003018787
0000c0 eb ff 59 b6 19 5c 9b bb 9f 74 0d b9 78 3b 55 b9
       -3.2484484e-06 -0.0047412035 -0.00013490253 -0.00020335417
0000d0 ef 6d dd b9 6e f8 89 bc 83 a2 85 bb b4 70 19 bd
       -0.00042234312 -0.016842093 -0.004078211 -0.037460998
0000e0 5e 8d 8a bc 5d 94 00 bd 3d 9d cf bc dc b2 6a bb
       -0.016913112 -0.03139149 -0.025343532 -0.0035812175
0000f0 cd 0b bc bb 60 d3 9d bc 5c d9 c8 ba 08 64 44 bb
       -0.0057387115 -0.01926583 -0.0015323567 -0.002996685
000100 47 87 0c bb e9 c3 43 ba 04 c4 72 ba 0f e1 c1 34
       -0.0021442936 -0.00074678526 -0.0009260776 3.6112803e-07
000110 61 47 9c b8 6f 6d ea ba 99 36 e9 b5 59 9a e6 b4
       -7.451955e-05 -0.0017885397 -1.7375743e-06 -4.295314e-07
000120 36 92 ec ba 04 60 e8 b7 bd 7f 97 35 f6 51 64 b8
       -0.0018048945 -2.7701266e-05 1.1287553e-06 -5.4435768e-05
000130 28 c4 0c b9 3d 16 45 35 84 66 e1 34 ed 51 52 b9
       -0.00013424514 7.342058e-07 4.1984106e-07 -0.0002005768
000140 38 32 a1 36 d6 b8 9f ba 00 0c a8 b6 93 a7 ae ba
       4.80402e-06 -0.0012185823 -5.008187e-06 -0.0013325087
000150 29 ea 8e b9 8f b8 d2 ba 7c 0e c3 b5 93 ed 77 ba
       -0.00027258813 -0.0016076731 -1.4532848e-06 -0.00094577036
000160 30 a0 a7 b8 96 5d 0d bb af e6 0a 36 5f d9 5d b9
       -7.993018e-05 -0.0021570674 2.0697878e-06 -0.0002115718
000170 15 7c bd 36 ce 70 62 b3 ff df 77 b7 f7 16 f4 b8
       5.647084e-06 -5.272232e-08 -1.47745e-05 -0.00011639104
000180 1b 82 e1 35 05 23 82 b9 44 92 aa ba ee a0 30 36
       1.6801672e-06 -0.00024821624 -0.0013013561 2.6319717e-06
000190 a7 83 2b 35 15 71 16 bb f8 9f fe 36 93 62 00 34
       6.3894043e-07 -0.0022955586 7.5884127e-06 1.195679e-07
0001a0 8a ef ea ba 49 a2 0b b8 e2 21 ad ba ee c2 8b ba
       -0.0017924171 -3.3291322e-05 -0.001320895 -0.0010662952
0001b0 f4 0b 47 ba ae fe 11 b9 7b f0 5c ba 63 85 07 b9
       -0.0007593029 -0.00013923153 -0.00084281684 -0.00012924294
0001c0 cc e9 c5 35 8b 0d 14 bb 5c d8 80 b8 a7 ee ba b8
       1.4745688e-06 -0.002259108 -6.143816e-05 -8.9136236e-05
0001d0 04 f2 6c b9 27 5c 1b b9 e2 63 d0 ba f0 ad 0f ba
       -0.00022596872 -0.00014816281 -0.0015898908 -0.0005480936
0001e0 1e ad 3c ba 35 14 f3 ba 31 de 8b b8 27 29 e7 36
       -0.00071974273 -0.0018545451 -6.669423e-05 6.8891272e-06
0001f0 7b 8e 0b bb f3 92 2d ba 2b a1 50 ba f0 c8 41 36
       -0.0021294642 -0.00066213234 -0.0007958586 2.8876202e-06
000200 3c b2 7a bb 4c f1 33 3c 67 cb 5d ba c3 fe 21 38
       -0.0038253209 0.010982823 -0.000846079 3.8622657e-05
000210 5c f6 b5 3c 65 87 c7 ba b9 17 ee 3c ee 42 28 b4
       0.0222122 -0.0015222846 0.029064046 -1.5670568e-07
000220 a3 7a cc ba 81 2b ae b6 ee 1b cf 37 46 45 08 b8
       -0.0015600513 -5.1906686e-06 2.4689329e-05 -3.2489443e-05
000230 a2 f2 59 3c 9b 7d 4c 38 f9 0e 07 3c e6 78 f6 b8
       0.013302477 4.875437e-05 0.008243316 -0.00011752713
000240 d8 70 7e 3c 1e 97 93 ba 6d d2 34 38 0c 43 c0 ba
       0.015529834 -0.0011260246 4.311132e-05 -0.0014668419
000250 bc 48 41 3c 60 f9 6d 3b e0 b1 e2 3b e2 38 ff 3c
       0.011797126 0.003631197 0.006918177 0.031155054
000260 22 3e 15 b8 53 fd 11 bb 35 ec b9 3b 19 b4 23 3d
       -3.5582234e-05 -0.0022276237 0.00567391 0.039966676
000270 44 42 b4 3c 32 d2 82 36 0b f7 08 3d 2b 79 0b 3d
       0.022004254 3.898772e-06 0.033438724 0.0340511
000280 ee b5 ca 3a 04 30 71 3c 8a af 23 bb 18 3c 0b 3c
       0.0015465596 0.0147209205 -0.0024976456 0.008498214
000290 9b fa 9d 36 2f ed 04 bb 59 35 c5 3c 7d 09 13 37
       4.708139e-06 -0.0020282974 0.02407329 8.764092e-06
0002a0 fc f2 d9 ba 77 ef 10 3d 11 61 01 bb 22 1d 90 3b
       -0.0016628201 0.03538462 -0.0019741694 0.004398004
0002b0 54 02 03 3c 8d 23 ce b8 bf 8c 50 ba 91 d0 89 b8
       0.007996161 -9.829467e-05 -0.0007955543 -6.5715176e-05
0002c0 94 30 97 38 51 f6 0e bb c8 11 a7 b7 56 8a f6 b7
       7.2092895e-05 -0.0021814296 -1.9916231e-05 -2.9389903e-05
0002d0 f6 8f 12 b9 59 7c cd 3c 32 06 cc ba b2 a0 c8 3c
       -0.00013977275 0.025083708 -0.0015565811 0.024490688
0002e0 47 23 38 3c 17 63 7c 3b ea 99 b3 3c 1b 70 84 3c
       0.0112388795 0.003851121 0.021923978 0.016166737
0002f0 e8 9a f4 ba 8b 95 02 3c 93 3b 1b ba 0b 45 34 3c
       -0.0018661888 0.007970224 -0.0005921658 0.011002789
000300 00 00 00 00 00 00 00 00 00 00 00 00 00 00 00 00
       0.0 0.0 0.0 0.0
000310 00 00 00 00 00 00 00 00 00 00 00 00 00 00 00 00
       0.0 0.0 0.0 0.0
000320 00 00 00 00 00 00 00 00 00 00 00 00 00 00 00 00
       0.0 0.0 0.0 0.0
000330 00 00 00 00 00 00 00 00 00 00 00 00 00 00 00 00
       0.0 0.0 0.0 0.0
000340 00 00 00 00 00 00 00 00 00 00 00 00 00 00 00 00
       0.0 0.0 0.0 0.0
000350 00 00 00 00 00 00 00 00 00 00 00 00 00 00 00 00
       0.0 0.0 0.0 0.0
000360 00 00 00 00 00 00 00 00 00 00 00 00 00 00 00 00
       0.0 0.0 0.0 0.0
000370 00 00 00 00 00 00 00 00 00 00 00 00 00 00 00 00
       0.0 0.0 0.0 0.0
000380 00 00 00 00 00 00 00 00 00 00 00 00 00 00 00 00
       0.0 0.0 0.0 0.0
000390 00 00 00 00 00 00 00 00 00 00 00 00 00 00 00 00
       0.0 0.0 0.0 0.0
0003a0 00 00 00 00 00 00 00 00 00 00 00 00 00 00 00 00
       0.0 0.0 0.0 0.0
0003b0 00 00 00 00 00 00 00 00 00 00 00 00 00 00 00 00
       0.0 0.0 0.0 0.0
0003c0 00 00 00 00 00 00 00 00 00 00 00 00 00 00 00 00
       0.0 0.0 0.0 0.0
0003d0 00 00 00 00 00 00 00 00 00 00 00 00 00 00 00 00
       0.0 0.0 0.0 0.0
0003e0 00 00 00 00 00 00 00 00 00 00 00 00 00 00 00 00
       0.0 0.0 0.0 0.0
0003f0 00 00 00 00 00 00 00 00 00 00 00 00 00 00 00 00
       0.0 0.0 0.0 0.0
