gen_0_agent_4.pt (torch, 64207 bytes, 18 tensors)

net.0.weight f4 [64, 4]
00000000: df59 053e 7ee6 f23c a034 433c a36c 31be
00000010: 373c 63bd f0c2 6fbe 6939 943e 7754 893e
00000020: 7759 d13d da31 9ebe bc86 c3bd cde6 533b
00000030: 1608 643e 23d5 033e d568 783e f5b7 243d
00000040: ad31 a33d 4da2 f43c 6a22 73be b2bc 50be
00000050: 7612 cabd e8ab 18be f59e 54be 0148 ddbd
00000060: 2ffc 9f3c 72db a5bd efd4 2f3d ec1f 533d
00000070: 010e 1fbd 9b0d 14be 1aed 6a3d c4bf 7a3e
00000080: 30a2 a43e 3940 583e 8d05 9a3e f5ea a93e
00000090: 8555 82bd 1025 813e 845f 86bd 7168 e2bd
000000a0: 2428 643e e951 5f3c 1801 983e 114d 2ebd
000000b0: 968d 9c3e 0f14 0dbe 9852 363e aebb 453e
000000c0: ab76 d4bd bb61 503e 0b3a 9a3c 5032 0fbe
000000d0: 78cf 283e c714 ecbc 75f4 913d 2424 8c3e
000000e0: 74be 38bd 2a93 2c3e 0e22 0ebe 3403 153e
000000f0: d37b 96bd 3779 89be 8e39 69be 2335 2b3e
00000100: 60fb 913d 69ec c7bd ed09 933e 98e0 71bd
00000110: 897d 4e3e 8a37 ad3e 23fe a13b 4bbe a2be
00000120: 720c 1fbd a7c1 81bd 2854 103e 6f11 0a3e
00000130: a5a2 35be 7a1a 0d3e 20d6 16bd cb87 db3d
00000140: 45ca 79bd a601 5e3e 9d63 883e 24ae 903e
00000150: 0872 eabd f882 333e 84b8 593e 6427 5a3e
00000160: df2d 0ebe c0ed 80bd 39d6 f43d ce4f aabe
00000170: af0f 453d aad1 b3bc e388 b1bb 842b 983e
00000180: 37b2 83bd 6618 513e 5fc1 633e 68a0 873e
00000190: a6c4 41bd 7098 b63e 4ecc 5bbd a40d a1be
000001a0: 30e2 333e bf25 1d3e 09cd 7e3c 70e3 563d
000001b0: c648 1ebd 7b06 c1bd 114b 153e 81ff bc3d
000001c0: 1391 733e cbee 133e 19e9 6dbc 1419 7a3e
000001d0: c405 9b3e c3b5 033e 5548 103e ddef 693d
000001e0: 813e 60bd cbae f1bd b409 393e 2b61 bebd
000001f0: 24a0 4e3d 241b 84be 5de2 abbd 8cb5 553e
00000200: 098c 7bbe 85a6 94be 336e e7bd 95cf 293e
00000210: 534a 60be 20f1 933c 1762 153e 4702 523e
00000220: 76b7 7cbc 2cea 7f3e b759 f43d 9d4e 5b3e
00000230: d657 033e 3ff1 8abc f165 5a3d 112d 8f3e
00000240: 0d99 b83d 5df3 88be 87a4 a9bc d30a f6bc
00000250: bd83 503d d801 56be b4ca 8ebe 0e3a e03d
00000260: 3615 ab3d fba1 3a3e fcec 17be 5e19 a63d
00000270: bc36 3c3d 8e7b ca3d eb48 663e 16c5 dfbd
00000280: 577e 8fbe e1e7 513c 58c6 893e 4cee 93bd
00000290: ea9c 0ebd f7b5 8fbe 7506 513e f337 cebd
000002a0: f3f2 92be b450 4dbd 96ae 33be 2ff9 403c
000002b0: 26b8 46bd 31d8 6bbe 4fbf eabd 9508 863e
000002c0: 6052 6cbe 571f 993e 3124 e43d 664d 93be
000002d0: 14fb 90be 68af 1dbe d4bd 72be c5d8 823d
000002e0: e142 883e 66b7 81bd 1bc1 913e 73b4 3c3e
000002f0: 5873 5ebe bc5e 963d 1019 0bbe 7dd6 86be
00000300: 4b3e 793d 558c 873d 6d9f 38be aa93 813e
00000310: 7e17 03be 234b c5bd 7251 4a3e 72f3 453e
00000320: e9d9 553e 47a5 9b3c 5a54 f53c 304f 3a3e
00000330: 5dfa 51be 9abc fd3d e7e7 553d 0612 703e
00000340: a7c9 6dbe 38bf 17be 8518 aebd af44 01be
00000350: 2092 bc3c 8366 6abe 4d76 51be 694c 5d3e
00000360: f8fb fb3d 8ce9 52be 4c08 45be a500 b43d
00000370: d382 b03d c3cf 8e3d 5b3e 0c3e 5217 61be
00000380: aa17 dcbd a57d dfbd acce fdbd 2ff6 9fbe
00000390: ec95 2c3e 9e27 193e af69 a93e 8d06 bc3d
000003a0: c966 913d 8879 843e 4ed1 5ebe 632c 073e
000003b0: 0912 7a3e 3e8d f83d 9550 47be 0da6 813e
000003c0: b75d b03d 053a 97bd cb86 78be 7a5d 0bbe
000003d0: 60f9 2f3e f452 9fbe e986 c63e f948 66be
000003e0: 6483 c63c 1403 39bc 37c0 ab3e 28ef a0b9
000003f0: fd36 463d 7ebe 873e 2cce 863d c91e 3dbe
0.13022564 0.029650923 0.011914402 -0.17326598 -0.055477347 -0.23414207 0.2895005 0.26822254
0.10222142 -0.3089741 -0.09547183 0.0032333613 0.2226871 0.12874274 0.2425874 0.040214498
0.07968459 0.029862547 -0.23743597 -0.20384482 -0.098668024 -0.14909327 -0.20763762 -0.10804749
0.01952943 -0.080984965 0.04292768 0.051544115 -0.038831715 -0.14458315 0.057355024 0.24487215
0.3215499 0.21118249 0.3008236 0.3318707 -0.06363968 0.2522359 -0.06561187 -0.11055077
0.22280937 0.013630369 0.29688334 -0.042553965 0.30576771 -0.13777183 0.17804945 0.19309875
-0.103741966 0.20349781 0.018826505 -0.13984036 0.16485393 -0.028818501 0.071267046 0.27371323
-0.045103505 0.16853014 -0.13880178 0.14552003 -0.07347836 -0.26850292 -0.22775862 0.16719489
0.07128024 -0.097618885 0.2871851 -0.05905208 0.20165075 0.33831435 0.0049436255 -0.31785807
-0.03883023 -0.063357644 0.14094603 0.13483213 -0.17737825 0.13779631 -0.0368253 0.1071926
-0.060983915 0.21680316 0.266385 0.2825786 -0.11447531 0.1753043 0.21261793 0.21304089
-0.13884686 -0.06295347 0.11954922 -0.3326401 0.04811066 -0.021950562 -0.0054179295 0.297207
-0.06430476 0.20419464 0.22241734 0.26489568 -0.04730668 0.35663176 -0.053661637 -0.3145572
0.17566752 0.1534643 0.015551814 0.052462995 -0.03864362 -0.09425064 0.14579417 0.09228421
0.2378581 0.14446561 -0.014520907 0.24423629 0.30277836 0.12862305 0.14090092 0.057113517
-0.05474711 -0.11800917 0.18070108 -0.09295877 0.05044569 -0.25801957 -0.08392785 0.20870036
-0.24565138 -0.29033294 -0.11300316 0.16583093 -0.21903352 0.018059313 0.145882 0.20508681
-0.0154246 0.24991673 0.11931174 0.21416707 0.12826476 -0.016960738 0.053319875 0.2796407
0.09013567 -0.2674817 -0.020708336 -0.030034458 0.050906885 -0.20899141 -0.27889025 0.10948573
0.08353655 0.18225853 -0.14836496 0.08110307 0.045950636 0.098868474 0.22488753 -0.10926263
-0.28026077 0.012811632 0.26909137 -0.07223186 -0.034817614 -0.28068516 0.2041262 -0.10069265
-0.2870098 -0.050125793 -0.17547068 0.01177816 -0.04851546 -0.23031689 -0.114622705 0.26178423
-0.23078299 0.29906723 0.111397155 -0.28769988 -0.28316557 -0.15398943 -0.23705226 0.06389002
0.26613525 -0.063338086 0.2846764 0.18428211 -0.21723688 0.07342288 -0.1358378 -0.26335517
0.060850423 0.06618563 -0.18029566 0.2530797 -0.1280193 -0.09633472 0.19757631 0.19331148
0.20883907 0.018999709 0.029947449 0.1819427 -0.20505662 0.123894885 0.052223112 0.23444375
-0.23221456 -0.14819038 -0.085007705 -0.12623857 0.023018897 -0.22890668 -0.20455284 0.2161118
0.123039186 -0.20596904 -0.19241446 0.087891854 0.08618703 0.06973221 0.13695662 -0.21981552
-0.10746701 -0.10912637 -0.12392935 -0.3124251 0.16854066 0.14956519 0.33088443 0.09180937
0.07099683 0.2587397 -0.21759531 0.13200526 0.24420942 0.12136315 -0.19464333 0.25322
0.08611625 -0.07384113 -0.2427017 -0.13609877 0.17184973 -0.31117976 0.38774803 -0.22488774
0.024232574 -0.011292238 0.33545086 -0.00030695763 0.048392285 0.26512522 0.06582293 -0.18468775

net.0.bias f4 [64]
00000000: c52a 1cbd 7fa1 7a3d 98ef f03d 7827 a63d
00000010: 7081 b73d 2e3c 92bc 121f bb3d 98b3 c53d
00000020: 2ee9 073e d15d 15bd 4205 143e 7931 e13d
00000030: 2047 ee3d e680 9a3d 959b 853d 5f58 ba3d
00000040: 90da d43d c958 f23d ecf7 613d 37e7 843d
00000050: 9dc8 6b3d 39d9 353d 838e b43d e571 aa3c
00000060: 8c26 ed3d 6424 dc3d 0068 053e 56d0 9b3d
00000070: a892 8f3d d2be 1d3e df10 04bd 9b7a ae3d
00000080: eb63 9cbb 7d42 10bc 19c4 713d ec46 d23d
00000090: d0cf 923d 0404 42bd 02dd efbc 49d4 f4bc
000000a0: 58b2 b7bc a028 d4bc 915b 063d 9920 683d
000000b0: 2969 5a3d c49a 5bbc dc82 aa3d b910 233c
000000c0: c8ff 73bc 8e99 e03c 4eb2 8e3d 684f 483d
000000d0: ca2a f5bc 3127 98ba 398c 173d 0989 2b3c
000000e0: 32da de3d fece 043e ad7e 133e b7af fc3d
000000f0: 7bbb 52bc 01a0 f83d 717d cb3d b1f6 d83d
-0.038126726 0.06118917 0.11764449 0.08112997 0.08960235 -0.017850962 0.091367856 0.096533954
0.13272545 -0.036466423 0.1445513 0.10995764 0.1163466 0.07544117 0.065238155 0.09098887
0.1039325 0.11833341 0.055168077 0.06489413 0.057564367 0.044396613 0.088162445 0.020806262
0.11579618 0.107491285 0.13027954 0.07608096 0.07010394 0.15404823 -0.032242652 0.08519479
-0.0047726533 -0.008804915 0.059024904 0.102674335 0.07168543 -0.04736711 -0.02928019 -0.029886382
-0.022423908 -0.025898278 0.03280217 0.056671713 0.053322945 -0.013403598 0.08325741 0.009952717
-0.014892526 0.02741697 0.06967603 0.048903853 -0.02992763 -0.001160836 0.03699896 0.010469683
0.10881461 0.12969586 0.14403792 0.123382024 -0.012862082 0.12139893 0.099360354 0.10593928

net.3.weight f4 [64, 64]
00000000: 7b5f 13be b997 a53d f41e c63d 4da9 36bc
00000010: d5ef 9c3d bcf4 3bbe f6c0 b9bd 7aa8 85bd
00000020: 6457 5cbe 81e1 ca3c 640e 913e 6b12 39be
00000030: 4b47 8c3e f02b 45be 9bd0 d9ba f057 17be
00000040: f3af 2cbd 4886 543e f299 773d 4af3 f2bd
00000050: e16d fc3c a21b b73d 3d43 c9bd 957a 493e
00000060: 3250 063c c644 773e 9d01 0abd f78f 943d
00000070: 0c46 c13c 2258 ba3d e976 dbbc 409e 313e
00000080: 9dfd 183e 21b5 c5bd 283d c9bb fc93 2b3e
00000090: 11cb 4c3b 8801 073e 5a5f debc 8729 003c
000000a0: c576 b2bc 2499 20bc 78c0 033e 3041 843d
000000b0: 36b7 a23c 8977 bb3d 2560 243e 987b 4bbd
000000c0: 9e86 2ebd b08a a4bd 854a 23be 4f93 513e
000000d0: 8e0e dfbd 1bd8 54be 2828 5ebe 7d06 783e
000000e0: dca2 c8bd 0dc2 8a3e 0a71 933e dd2d 29be
000000f0: b9ec 293e bdc1 63bd db9a 96bd b827 203e
00000100: c14f 813e 3ae5 e03d 9330 723c b5cb 693e
00000110: bcae 733e c664 f13b 90a8 6fbd 9a91 263e
00000120: d436 04be 3a4f d23d 59c9 833e fea6 2f3e
00000130: 5af5 723d 34c8 4e3e 2da7 8a3e d8c2 b53d
00000140: 7128 043e b9d4 313e 23c4 d239 c4f8 dabd
00000150: 864c 473d 7b74 c23d 77b6 6bbd 0e75 7e3c
00000160: 0bba ae3d 138e 1abd 6100 973e 7dd0 293d
00000170: 8ba5 5d3d c481 a63d 007e 1abd 53a7 dabd
00000180: 0fd6 cebd 5089 13bc 019f 0bbe d565 dcbd
00000190: a3f5 243e 704b 32be 4017 18bd 185c fdbc
000001a0: ebd0 27be 57f0 42be 66e5 833d dd36 473c
000001b0: 4760 b0bd c9ab 3abd b400 f53d 71b8 23be
000001c0: ed35 443e d6f7 c8bc bf36 dcbd d456 f63d
000001d0: dfe6 323e a7a6 19bd a850 44be a4b5 16be
000001e0: 382f 0a3d 8b06 103e 3139 4dbd 18a5 14be
000001f0: 9dc6 88bd 42cc 053e 5104 19bc 516c 8d3e
00000200: aecc debd 2b8e 30be 7ee8 013c d026 0b3e
00000210: 3a2c 29be 9aea 393e 9d34 56be f628 b93c
00000220: 9c8a 1ebe e8f9 0a3e 9c99 223e 208f a83d
00000230: ec2c 393e 3f79 03be 6344 35bc 52d0 ca3d
00000240: ed38 203e e938 0cbe 73c7 923d 493d 3b3e
00000250: 96d8 d7bc 43ad 3d3e ac06 11be 1de7 333e
00000260: 263d 533e 6cc4 2cbe 4595 943e 9485 eebd
00000270: 5eb6 26be c619 913e 36c5 3b3e 51f2 823d
00000280: 3fca 463e fc48 973d 172f cabc 737d 493d
00000290: 3291 d73d 0a54 a33d e7b2 85bd 4806 b4bd
000002a0: 12cc f8bd cc82 433e 3cfa e53b 40a2 2c3e
000002b0: 79db b0bc 978e a8bd e1b8 7f3d eeb9 4d3d
000002c0: 1991 bbbd c984 f83d 871d 1f3e 33ab 4fbe
000002d0: edc7 fb3d 8846 8e3d ca8a 54bd 6968 323d
000002e0: 045f 1b3e 9acf babd 0169 94bd 9448 433d
000002f0: 10ac 123e 2857 7e3e 5021 b13d a494 6e3d
00000300: dddf babd f8d8 6ebd cfb5 1bbe 8ca3 983e
00000310: ef99 743e c661 07be cdf2 ec3b 6f1a 153c
00000320: ab86 343e 2f84 e43d c96c 93bd a146 973d
00000330: 4aee 833e b923 393e e62b 413e 0712 333e
00000340: 05a6 d33d a5a2 cdbd 5be9 3a3e ea5e febd
00000350: 42d0 593e f2a4 513e 880d 743d b54f e9bd
00000360: 8b64 4d3e 98e0 19bd 469b 573e d8b9 99bd
00000370: 83c1 e53c 326f 3b3e c1d3 703e bc82 d9bd
00000380: c39e 34be cca1 813e d0aa 513c a90c 383d
00000390: 64b0 1f3e 180d 413e 2ae5 e5bc 2624 1f3e
000003a0: f8da 083e 5b5b 03bd ab6c 2b3e 3487 25be
000003b0: 6eec bf3c 28c0 20be 33a3 bd3d 7e0e 70bc
000003c0: ecd9 c73d b9fd e8bc 22cb 533e 62c4 723e
000003d0: fae7 19be b9c2 583e 473f 29be 089c 1cbe
000003e0: e013 843e 98db 993e 8205 9c3e fd81 5a3e
000003f0: ff06 d33d 0acc 813d 9f55 663e 2128 4e3e
-0.14391892 0.080855794 0.096738726 -0.011148763 0.07662932 -0.18355078 -0.090700075 -0.06526275
-0.21517712 0.024765732 0.28331292 -0.18073432 0.27398142 -0.19255042 -0.0016617955 -0.14779639
-0.042159986 0.20754349 0.060449548 -0.1186281 0.030814113 0.089408174 -0.09827278 0.19675668
0.008197831 0.24147329 -0.033692945 0.072540216 0.023592971 0.09098841 -0.0267901 0.17345524
0.14940496 -0.09653688 -0.0061413236 0.1675567 0.0031248967 0.13184178 -0.027145077 0.007822401
-0.02178515 -0.009802137 0.1286639 0.06457746 0.019862752 0.09153659 0.16052301 -0.049678415
-0.04260885 -0.08034265 -0.15946396 0.2046635 -0.10891448 -0.20785563 -0.21695006 0.24221225
-0.09796688 0.27101174 0.2879718 -0.16521402 0.16594209 -0.055604685 -0.07353755 0.15640152
0.2525616 0.109812215 0.014782089 0.22831614 0.23797125 0.0073667495 -0.058510363 0.1626648
-0.1291154 0.102690175 0.25739554 0.17153546 0.059316017 0.20193559 0.2708067 0.08875054
0.12906052 0.17366304 0.00040200455 -0.106919795 0.048656963 0.09494873 -0.05754706 0.015530838
0.08531579 -0.03773315 0.29492477 0.041458596 0.054112952 0.081302196 -0.03771782 -0.10676446
-0.10099422 -0.009004906 -0.13634874 -0.107616104 0.16109328 -0.1741159 -0.037131548 -0.030927703
-0.1638829 -0.19036995 0.06440239 0.0121590765 -0.086121134 -0.045573983 0.11963025 -0.15988328
0.19161196 -0.02453224 -0.107526295 0.1202828 0.17470883 -0.037512448 -0.19171393 -0.14717728
0.033736438 0.14064996 -0.05010337 -0.14516103 -0.066785075 0.130662 -0.009339408 0.276217
-0.10878883 -0.17241733 0.007928966 0.13589025 -0.16520777 0.181559 -0.20918508 0.02260254
-0.15482563 0.13571894 0.1587891 0.08230424 0.18083543 -0.1283922 -0.011063668 0.09903015
0.15646715 -0.13693585 0.07166948 0.18285097 -0.026348393 0.18523125 -0.14162701 0.17568631
0.20628795 -0.16871804 0.29020134 -0.11646572 -0.16280505 0.28339976 0.18336949 0.063938744
0.19413088 0.073869675 -0.024680657 0.049191903 0.10525741 0.079750136 -0.065282635 -0.087902606
-0.12148298 0.19092864 0.0070183557 0.16858768 -0.021589028 -0.08230322 0.062432174 0.050226144
-0.091585346 0.12134702 0.15538608 -0.20280151 0.12293992 0.069470465 -0.051890172 0.043556605
0.15172964 -0.09121628 -0.072465904 0.047676638 0.14323449 0.24837935 0.08648932 0.058247223
-0.0912473 -0.058312386 -0.15206073 0.29812276 0.23886846 -0.13220891 0.0072310925 0.009100541
0.17629497 0.111580245 -0.071984835 0.07386518 0.25767738 0.18080033 0.18864402 0.17487346
0.103344 -0.100407876 0.1825308 -0.12420447 0.2127085 0.20473078 0.059583217 -0.11392156
0.20057885 -0.037567705 0.21055326 -0.0750615 0.028046375 0.18304136 0.23518278 -0.10620639
-0.17638688 0.25318754 0.0127970725 0.04493395 0.15594631 0.18852651 -0.028063376 0.15541133
0.1336478 -0.032069545 0.16740672 -0.16164857 0.023428168 -0.15698302 0.092596434 -0.014651893
0.09758362 -0.028441297 0.20682958 0.23707727 -0.15029898 0.21168031 -0.16528045 -0.15293896
0.25796413 0.3005035 0.30472952 0.21338649 0.10304069 0.063377455 0.224936 0.20132495

net.3.bias f4 [64]
00000000: 882a 443d 0631 ab3d aea6 4f3d 4719 dd3d
00000010: 7be5 9abc 623c 003e 9713 d8bc 44dc fe3d
00000020: a638 a13d ce24 e13d cee4 013e f7b7 20bb
00000030: 0d5a bd3d e484 b6bc a1f6 143e e800 053e
00000040: 3b24 68bd 691e a7bc ea3d c23d 679e 083e
00000050: afb1 263d eec1 c13d 5bd6 ad3d 1440 bdbc
00000060: 36ec 0ebd 45d0 2abd 2132 f73d 516b b9bb
00000070: 40ba 963d 6e49 a03d 782e fabc ea4f bf3d
00000080: 994b 033e 4c3f c13d 9d3f e33d 6bad 113d
00000090: e589 ddbc 85f1 d0bc 07d5 86bc 0000 0000
000000a0: ef12 083c 0000 0000 86c9 58bc d227 ac3d
000000b0: 39be 3cbc 9fc9 06bd ab13 b43d 2378 1ebd
000000c0: 8884 95bc ef06 333d 1276 b63d 6ad7 cfbc
000000d0: d932 f53d 1f60 dbbc 0000 0000 52b2 d9bc
000000e0: 2075 f43d cd4c b13d d666 33bd 676c 413d
000000f0: 28d4 73bd 0000 0000 0000 0000 9280 3c3d
0.047892123 0.0835896 0.050696068 0.10795837 -0.018908253 0.12523034 -0.026376529 0.12444356
0.07872133 0.10993348 0.12684938 -0.0024523714 0.092456914 -0.022280164 0.14547206 0.12988627
-0.056675177 -0.020400243 0.094844654 0.13341676 0.040696796 0.09460817 0.08488151 -0.023101844
-0.034893237 -0.041702528 0.12070108 -0.005658545 0.07359743 0.078265056 -0.030539736 0.09341414
0.12821807 0.09435901 0.11096118 0.035565775 -0.027043292 -0.02550579 -0.016459001 0.0
0.008305295 0.0 -0.013231641 0.084060326 -0.011519962 -0.032907125 0.08792814 -0.03868879
-0.018251672 0.043707784 0.08909239 -0.025371272 0.11972589 -0.026779233 0.0 -0.026574288
0.11936402 0.08657227 -0.043799244 0.04722252 -0.0595285 0.0 0.0 0.04602105

net.6.weight f4 [2, 64]
00000000: 9f13 943e 69d1 893e 9756 233e 1324 c83e
00000010: 069a af3d a06e 093e be31 0d3c 90f8 af3e
00000020: e860 b73e 5c19 733d a27f 473e 6129 69be
00000030: bab5 423e a56e 81be 4d25 af3e 4537 b23e
00000040: 6027 1cbe f2c5 8bbe b193 803e 0b0c 453e
00000050: 0829 993e 77c2 4c3e 20ab bc3e c5eb 153c
00000060: fb5a 73be 44bc 0ebe f067 2f3e 8bab 823e
00000070: f7c9 d83c cb30 863d af99 76be 01e0 b93e
00000080: bdff 393e f82a 553e 2f55 943e 10da 4a3e
00000090: e301 18be 1677 2e3e 5082 94bd 54ec 2cbe
000000a0: d476 38be d0c8 3fbd ed4a 92bd 44f2 723e
000000b0: 700f 9abe 903d 303d 041b 803e 9ac1 a1bd
000000c0: 8694 63be fa5a 913e 7c8b 853e 9a8e 2abc
000000d0: 1caa 2d3e 7e26 47be f687 0abe 2081 64be
000000e0: 0084 6b3e 169a fe3d c7dc 45be a400 2a3e
000000f0: d6ad 0abe 4467 5e3e 2831 643e b94a 5e3c
00000100: d876 f9bd 4205 e0bc 02fd 74bd da20 243d
00000110: 6c90 58be cdd0 c13d 94e5 c53d d541 ad3e
00000120: c1a8 47be 5259 063e 94ac a13e 0060 a83e
00000130: 5f39 c23d 390f 9b3c 98d6 703e 431d 823e
00000140: e3f8 41be 9e73 62be 7b47 7b3d bfde 843e
00000150: e874 11be eedc 6b3d 7fe8 3bbd 1c3a 013e
00000160: 126b 3cbe 4f26 08be ab81 213e afe8 1fbe
00000170: 0a22 ad3d 7b8d a43e 6d96 0bbe 0109 fa3c
00000180: 96c8 563e c829 363d 1eaa 643e 8ea9 adbd
00000190: bf7f 58be 9ece 13be ae11 e93d 7555 84be
000001a0: e4ec aa3e 7e92 47be 0c9a 8dbe e6bc 3fbb
000001b0: fbae 1bbe 6240 82be fed2 f33d 6d80 a5bc
000001c0: 01e2 4ebe 35b7 07be 6a5b 5b3d b2e2 5bbe
000001d0: 63be 8c3e a3c8 5cbe ec60 c9bd 43e7 ae3e
000001e0: 2fd3 bf3e 8d39 453d da9b 81be 86f1 e9bc
000001f0: d2c9 843d 88ab 973d 6a36 4cbe f589 8c3e
0.2892122 0.2691758 0.15951 0.39090022 0.085742995 0.13421106 0.0086178165 0.34369326
0.3581612 0.059350356 0.19482282 -0.22769691 0.19014636 -0.25279728 0.34208146 0.34807792
-0.15249395 -0.27299458 0.2511268 0.19242875 0.29914117 0.19996057 0.36849308 0.00915045
-0.23765175 -0.13939005 0.17129493 0.25521502 0.026463492 0.06552275 -0.24082063 0.36303714
0.18163963 0.20817173 0.2897124 0.19809747 -0.1484447 0.17037615 -0.07251418 -0.16887027
-0.1801408 -0.04682237 -0.07143197 0.2372523 -0.30089903 0.04302746 0.2502061 -0.07898255
-0.22224626 0.28389722 0.2608298 -0.010409975 0.16959423 -0.19448277 -0.13528427 -0.22314882
0.22999573 0.12431733 -0.19322501 0.16601807 -0.13542876 0.2171908 0.22284377 0.01356762
-0.12180871 -0.027346257 -0.0598116 0.040070392 -0.21148843 0.09463654 0.09662929 0.33839288
-0.19497968 0.1312001 0.3157698 0.32885742 0.09483599 0.018928157 0.23519361 0.2541295
-0.18942599 -0.22114417 0.061347466 0.25951192 -0.14204752 0.05758374 -0.045876022 0.12619823
-0.18400219 -0.13295864 0.1577212 -0.15616105 0.08453758 0.3213919 -0.13631602 0.030521872
0.20974955 0.04447344 0.2233052 -0.084796056 -0.21142481 -0.14434287 0.11380325 -0.2584645
0.33383858 -0.19489476 -0.2765659 -0.002925688 -0.15203469 -0.25439745 0.11905478 -0.02020284
-0.20203401 -0.13253482 0.053553976 -0.21473196 0.27489004 -0.21560912 -0.098329395 0.34160814
0.37465808 0.048150588 -0.25314218 -0.02855755 0.06483807 0.07405764 -0.19942632 0.27449003

net.6.bias f4 [2]
00000000: 53ba e43d 5f54 b33d
0.11168351 0.08756327

exp_avg f4 [64, 4]
00000000: 2883 2736 e23f 8938 57ae 7c37 6229 d5b8
00000010: 58f2 cbbc 4caa aebe e714 4c3d 3e7e 0e3f
00000020: 1add dabc 6ede debe 514e a53d 3d79 383f
00000030: ad50 11bd 9e5d 03bf c6a6 d03d 2277 5d3f
00000040: 5bbc 483c 0209 ae3d a063 7b3c 0c7d dabd
00000050: fb26 8e35 4a57 d4b8 09d3 5f36 070a 2a39
00000060: f798 b3bc db71 a5be 6559 7f3d 6631 0b3f
00000070: 2ba2 14bd d352 09bf 825b b73d cdfb 613f
00000080: 6a16 2abd 150a 17bf 4611 fe3d 5f4a 813f
00000090: a3e2 9233 3191 a738 66f1 5537 b40b 7fb8
000000a0: db8c af3c e754 013f 8995 1fbc 8a97 35bf
000000b0: 7cb3 a8bc 7e70 9dbe 0f12 6f3d 721a 043f
000000c0: 115e 4d3c 2db0 8c3d 1608 593c 093d a5bd
000000d0: 5362 02bc 1e84 f7bd ecb5 e83c 2890 553e
000000e0: d580 d2bc d8dc c6be b1f7 873d 9e1a 243f
000000f0: d8da 03bc 0bec 1cbe e522 273d a19a 873e
00000100: 4f71 c1bc 663c 9ebe 95ae 983d 87fc 073f
00000110: 2827 eb3a b728 93bb 0c36 24ba 6492 593c
00000120: 17f6 d3bc 15ff a6be 9f12 6d3d d145 0c3f
00000130: 3701 333b 046e ca3d 5ab3 043c 51cb f5bd
00000140: 0433 5bbc becb 3fbe 0949 143d 9a24 a23e
00000150: bb97 18bc 0142 e8bd 3c1b d83c 1d9b 483e
00000160: bb2e 833b f1f8 3d3c 4040 043b f8ec 0fbc
00000170: 475b 49bc b562 48be 8dd1 f93c 405b a13e
00000180: 8de8 b8bc 32ab 9bbe 8b61 903d e708 073f
00000190: 0b58 3c3a ffc8 d7ba 4ee5 c3b9 c1c0 b93b
000001a0: 63c6 2fbd bb24 1bbf e1fe fb3d c8fd 833f
000001b0: e5f6 02bc 27bd ecbd 355c c93c f50a 4d3e
000001c0: 64e8 8ebc 05b3 86be f900 343d f785 de3e
000001d0: 323c d13c 974c 193f d0ac 01bd eb3e 60bf
000001e0: 8b89 6139 33a7 e1b9 bd8d 753a 8288 a7ba
000001f0: 6bbb e9bc 33f7 bfbe 68f6 703d b4fc 1d3f
00000200: 1a55 ea3a 8286 153c a6ee b13b 03f6 32bc
00000210: efe9 1739 df66 653d 4b06 c2bb 029a a1bd
00000220: 9a7a a83b 805c f13d 12e6 be3b 961f 20be
00000230: 4078 b8bc 267c afbe fa5d 793d b581 113f
00000240: bf8a 04bd 5e1d debe 8a11 9b3d ad06 393f
00000250: ea98 ec3b 725e d73d 5cab b9bc d100 37be
00000260: 8d29 4436 1f53 1c37 7c90 8737 38d7 3b38
00000270: 5bf0 68b3 10ef 9fb7 b47e 25b6 8ec0 df37
00000280: 13fe fe36 0440 2d39 d60c 2938 b498 95b9
00000290: bf23 573c 18f6 463e b0c6 ddbc 6170 9fbe
000002a0: 35ee aabc 4eb4 6bbe b0b3 ee3c 1398 bf3e
000002b0: 7abd 94bc c963 69be 4e5b 073d e19b bf3e
000002c0: 80fe 2d3a e464 deba 19fc 68b9 d1b5 9a3b
000002d0: fbf9 bc3b c44d d53d c076 60bc 13cd 28be
000002e0: 87c7 033c 90a9 443e 6514 ffbb 6fdd 8dbe
000002f0: 1b47 4f39 ab3a 57ba c522 cc39 e6fb 8a3a
00000300: c49d 8cba 0ea5 b33b 6dfd c23b 750d c8ba
00000310: 7a56 fdbb f209 b4bd 1d41 6a3c a6a9 143e
00000320: 77ca d53a fae5 0b3d 620a 0c3c 5481 0abd
00000330: 709e 543b 7138 5d3d c0bd 0a3c e20c 8fbd
00000340: 783f 88b7 5050 b2b9 91a7 0338 917a 0c3a
00000350: 962a 5dba 935a 24bd b416 ee3b 13b0 833d
00000360: c2f1 0fbc 00ce 19be 6e7f ce3c 18b3 7a3e
00000370: 3543 a739 77b9 9dba 724c a239 fab0 283b
00000380: 85c4 343c d981 773d cdb4 443c 3530 94bd
00000390: 5143 2abd e906 13bf 50a1 ec3d affb 773f
000003a0: ab77 a83c b845 003f fd5c a8bc 9ddf 36bf
000003b0: cae8 c7bc 7594 8abe 17f2 893d fa75 f43e
000003c0: d528 19b8 8c47 10b9 1272 bcb8 ae46 8f39
000003d0: 4c31 19bd 4160 11bf 0105 e23d 8f5e 723f
000003e0: bbf1 1cbd a8b5 07bf 5d43 b83d c048 623f
000003f0: 51b5 f53b bdd3 243d 1e00 333c 56c6 4cbd
2.4961282e-06 6.544568e-05 1.5060962e-05 -0.000101643396 -0.024895832 -0.341143 0.04982462 0.5566138
-0.026716758 -0.43529075 0.08071578 0.72059995 -0.03547733 -0.51314723 0.101880595 0.8650991
0.012251939 0.08497812 0.015343577 -0.10668382 1.0591169e-06 -0.000101252066 3.3352428e-06 0.00016216199
-0.021923525 -0.32313427 0.062341113 0.5437225 -0.036287468 -0.53642005 0.089530006 0.8827484
-0.041525282 -0.5899976 0.124056384 1.0100821 6.83988e-08 7.9902245e-05 1.2751994e-05 -6.0807637e-05
0.02142947 0.50520176 -0.009740242 -0.70934355 -0.020593397 -0.30749887 0.05836683 0.5160285
0.012534634 0.0686954 0.013246557 -0.08068282 -0.007958013 -0.12085746 0.02840706 0.20855772
-0.025696198 -0.38840365 0.0663904 0.64103115 -0.008047782 -0.15324418 0.040804762 0.2648516
-0.0236136 -0.30905455 0.07455174 0.531197 0.0017940747 -0.0044909376 -0.0006264157 0.013279531
-0.02587418 -0.32616487 0.057879087 0.5479403 0.0027313957 0.09884265 0.008099401 -0.1200167
-0.013378862 -0.18730065 0.036202464 0.3166855 -0.009313519 -0.11340714 0.026380174 0.19590421
0.0040033734 0.011594997 0.0020179898 -0.008784525 -0.012289829 -0.19568904 0.03049543 0.3151493
-0.022571826 -0.3040405 0.07049855 0.5274796 0.000718475 -0.00164631 -0.00037364144 0.00566873
-0.042913806 -0.6060292 0.12304474 1.0311823 -0.007993435 -0.115595154 0.0245801 0.20023711
-0.017444797 -0.26308456 0.04394624 0.43461582 0.025541399 0.5988249 -0.031658947 -0.87596005
0.00021508911 -0.00043039917 0.0009367129 -0.0012781771 -0.02853175 -0.37493286 0.05882874 0.6171372
0.0017878145 0.009126307 0.0054300604 -0.010922912 0.00014487629 0.05600631 -0.0059211603 -0.07890703
0.0051415684 0.11785221 0.0058257664 -0.15637049 -0.022518277 -0.34274405 0.06088064 0.5683854
-0.03235888 -0.4338178 0.07571705 0.7227581 0.007220377 0.10516061 -0.022664718 -0.17871405
2.9230462e-06 9.317678e-06 1.6160535e-05 4.4784712e-05 -5.423531e-08 -1.90656e-05 -2.4660667e-06 2.6673337e-05
7.599368e-06 0.00016522413 4.0304694e-05 -0.00028533267 0.013131081 0.19429815 -0.02707228 -0.31140426
-0.02086554 -0.23018 0.029138416 0.3742071 -0.018156756 -0.22791971 0.03304606 0.37423614
0.000663735 -0.0016967324 -0.00022219158 0.0047213812 0.0057671047 0.10415223 -0.013700187 -0.1648448
0.0080431765 0.19205308 -0.0077844136 -0.27708003 0.00019767547 -0.00082103413 0.00038935817 0.0010603636
-0.001072817 0.0054823225 0.005950621 -0.00152628 -0.007731256 -0.087909594 0.014297751 0.1451784
0.001631095 0.03415487 0.008547397 -0.033814743 0.003244307 0.054008905 0.0084680915 -0.06984879
-1.6242018e-05 -0.00034010643 3.1388892e-05 0.000535884 -0.0008436827 -0.04012544 0.00726589 0.06430068
-0.008785667 -0.15019989 0.025207248 0.24482381 0.00031902795 -0.0012033422 0.00030956004 0.0025740252
0.011033182 0.060426567 0.012005997 -0.07235757 -0.041568104 -0.5743242 0.115542054 0.96868414
0.020564875 0.5010638 -0.020552153 -0.71434957 -0.024402995 -0.2706639 0.06735628 0.4774626
-3.651607e-05 -0.00013759563 -8.985786e-05 0.00027327746 -0.03740053 -0.56787497 0.11036111 0.94675535
-0.03831647 -0.5301156 0.089972235 0.8839226 0.0074984212 0.04024099 0.010925321 -0.049993835

exp_avg_sq f4 [64, 4]
00000000: a50c 1a34 6a73 7837 96d2 2f36 b3c0 ca36
00000010: fead 1c3b 94cc e63e b806 cc3b 7016 913f
00000020: 6191 a73a 14b8 c43e 4437 bb3b 27d8 7e3f
00000030: 80c3 ba3b 3f7f 843f 7814 703c d8b3 2540
00000040: ba24 3b37 1afe 263a e268 7b38 7bad 903a
00000050: e54c e034 b130 d039 69ff 5235 3a7b 833a
00000060: c478 3b3b 5d67 f83e 1081 db3b 7955 9b3f
00000070: f378 923b 2159 4d3f f33b 383c 2abc 0040
00000080: 8cc4 2d3c 2df5 0240 e186 f03c 9991 a640
00000090: 0e0e 8834 5286 2a38 c65a 0437 b1f3 8637
000000a0: 938b fc3a 4e74 273f 8b90 263c 57eb df3f
000000b0: 8603 173b 72f5 e43e 1d42 d03b a45d 913f
000000c0: eada 4137 1cb0 153a 39b4 9938 aa28 673a
000000d0: 4292 5e3a 131e 043e bb24 e93a e32c a43e
000000e0: fbfb 2b3b efa8 f03e 5f0f d73b fcca 963f
000000f0: daf4 523a a727 113e af33 033b 5f0f b73e
00000100: f7aa 833a 872a a93e 0dc0 a03b d32a 503f
00000110: 3971 df36 2765 c139 aad6 aa38 2542 eb39
00000120: 3941 813b 087f 3f3f 69e6 2f3c 08f4 f33f
00000130: beaa 0d3b 460e d33e 1cf8 bf3b 11ac 873f
00000140: d1bd 773a 8d9c 503e 3f18 413b f5a7 063f
00000150: b964 483a 46a7 083e c7e4 f33a c0d6 aa3e
00000160: 3738 0e36 7ed4 4a38 cf8f 4137 b638 a838
00000170: 85c8 163a c24c e83d 29b7 d43a a96e 933e
00000180: 6a57 493b 3f66 1f3f 0bd0 123c 5cf0 ca3f
00000190: 9a0d 3435 74ce 1138 29d0 0837 a312 6a38
000001a0: 3ab5 c43b 8df3 a03f da10 943c bfa8 4a40
000001b0: f93d 043a fa4e de3d 3e50 cd3a 3ee2 8e3e
000001c0: df08 c63a 4190 9b3e ae01 8d3b 9db8 453f
000001d0: b169 4b3a b77c 8e3e 306a 7f3b 7a20 353f
000001e0: e3ab 7f34 f912 d336 3ab8 6536 3298 de36
000001f0: 6291 323b 7331 063f 1b5c f03b 68f8 a83f
00000200: 82b8 5339 f323 123d 4fc0 023a d7b9 b83d
00000210: a4b4 0a39 c33c 273d 149f 223a a5f5 df3d
00000220: d50a 8b3a cb38 583e dd74 4a3b c567 0c3f
00000230: cc3b 2b3b 77dd f63e 180f de3b 70cf 9a3f
00000240: 8dab c33b ae2d 833f 1a1b 683c 3ce6 2340
00000250: ffe7 7c39 fd48 863d a0aa 873a 68be 303e
00000260: 292b 3236 3434 0f39 1856 7038 9173 823a
00000270: ff17 de34 dfc6 9837 9359 7536 dc73 bb36
00000280: 6ef3 5c34 b2db a337 eb2c a336 87e0 3837
00000290: 6ab3 8739 0fde 603d d77a 483a f426 0d3e
000002a0: 6324 a63a d345 5b3e 895f 393b 5f33 063f
000002b0: bfea e439 2196 0e3e 65e1 093b 7d36 bb3e
000002c0: 747f 3c35 881d 2e38 bb00 2a37 c323 5938
000002d0: 7938 1c38 347b 223c 9803 1739 b22c cc3c
000002e0: c442 8a3a bc26 313e 7e57 1a3b 4c81 de3e
000002f0: 29bc ed33 89e4 a236 6ac8 8d35 614a 8e36
00000300: bc7e 8239 f884 203d 7b7d 0c3a d92a c83d
00000310: 2792 273a f79f ce3d 7262 af3a f7e0 7e3e
00000320: 7763 4b3a e5ed 1b3e 4dee 0f3b 58bb c93e
00000330: 1025 bc38 0f63 b83c 21d5 ba39 c63c 743d
00000340: 5b58 2e36 b9dd 883a 33f9 1937 7fe7 293b
00000350: f4f5 e538 4e24 dd3c 7ab3 cc39 3a4b 903d
00000360: 93d8 323a 94c2 eb3d 6e6b d83a 9c26 963e
00000370: c8fb c334 f2fd 1537 f2e1 8035 a0a7 4537
00000380: f564 f736 3a87 b339 10a4 0038 e4ed 173a
00000390: 2818 ca3b 3ca6 993f 28ae 863c 5f7a 3d40
000003a0: b0aa 833a 696f b33e 2282 ae3b 4c62 6d3f
000003b0: 7d3f a93b 20fa 7f3f 15e7 6b3c e80a 2340
000003c0: 5fbe f433 445a a634 325f 3f33 26ec c834
000003d0: 0036 ea3a 1b2f 133f e9dc 0c3c b738 b53f
000003e0: 95ab be3b 37c1 873f 35c1 7a3c 00a8 2b40
000003f0: 707c bc36 eaa1 b239 01b3 1538 72c9 183a
1.4346968e-07 1.4808824e-05 2.619961e-06 6.0425023e-06 0.0023907418 0.45077956 0.006226387 1.1334972
0.0012784415 0.3842169 0.0057133753 0.9954857 0.005699575 1.0351332 0.014653318 2.5891018
1.115462e-05 0.00063702615 5.9940743e-05 0.0011038029 4.17792e-07 0.0003970913 7.8602767e-07 0.0010031231
0.0028605917 0.4851636 0.006698735 1.2135459 0.0044699847 0.80214125 0.011244762 2.0114846
0.010605942 2.0462143 0.02936119 5.205273 2.53422e-07 4.0656254e-05 7.888948e-06 1.6087522e-05
0.001926767 0.6541184 0.010166298 1.7493695 0.0023042872 0.4471851 0.0063555376 1.1356702
1.1554666e-05 0.0005710141 7.3291776e-05 0.000881801 0.0008490422 0.12902097 0.0017787436 0.32065496
0.0026242721 0.47003886 0.0065631117 1.1780696 0.000804735 0.14175282 0.002001982 0.35753915
0.0010045458 0.33040258 0.0049057067 0.81315345 6.6590987e-06 0.00036887193 8.146216e-05 0.00044871974
0.0039445427 0.7480321 0.010736086 1.9058847 0.0021616663 0.41221827 0.0058584344 1.0599385
0.0009450587 0.2037222 0.0029463915 0.5260003 0.00076444034 0.1334506 0.001860761 0.33366966
2.119237e-06 4.835845e-05 1.15371795e-05 8.0214275e-05 0.00057519256 0.113427654 0.0016228902 0.28795364
0.003072227 0.6226539 0.008960734 1.5854602 6.707502e-07 3.476297e-05 8.154698e-06 5.5807304e-05
0.006003049 1.2574326 0.018074442 3.1665494 0.0005044635 0.10854907 0.0015664173 0.27906984
0.0015108845 0.30383494 0.0043031787 0.7723482 0.00077595847 0.27829525 0.0038973205 0.7075268
2.3811258e-07 6.2904987e-06 3.4230893e-06 6.6338334e-06 0.00272473 0.52419204 0.0073351986 1.3200808
0.00020191263 0.035678815 0.00049877627 0.09019821 0.00013228 0.04082943 0.0006203514 0.10935525
0.0010608087 0.21115415 0.003089241 0.5484584 0.002612817 0.4821584 0.0067767017 1.2094555
0.005971378 1.0248315 0.014166618 2.5609274 0.00024119018 0.0655689 0.0010350533 0.17260134
2.654919e-06 0.0001365699 5.730064e-05 0.0009952654 4.1368182e-07 1.8212419e-05 3.6559984e-06 5.586522e-06
2.0577656e-07 1.9533418e-05 4.8630077e-06 1.10195315e-05 0.0002588288 0.05489927 0.0007647699 0.1378439
0.0012675639 0.21413355 0.0028285703 0.52422136 0.00043662448 0.13924457 0.0021038887 0.3656501
7.0220926e-07 4.1512336e-05 1.013296e-05 5.1770137e-05 3.7245893e-05 0.009917069 0.00014401821 0.024923656
0.0010548462 0.17299932 0.0023550685 0.4345802 1.10703986e-07 4.854581e-06 1.0563647e-06 4.2405886e-06
0.00024889957 0.03918931 0.0005359274 0.097737975 0.0006392323 0.100891046 0.001338078 0.24890505
0.0007758657 0.15227468 0.0021962107 0.39400744 8.971442e-05 0.022508172 0.00035635478 0.05962827
2.597945e-06 0.0010442055 9.177532e-06 0.0025925336 0.00010965383 0.02699485 0.00039043633 0.07045598
0.0006822433 0.11511722 0.0016511509 0.29326332 3.6504775e-07 8.940218e-06 9.602502e-07 1.1781143e-05
7.3729266e-06 0.00034242292 3.0670373e-05 0.00057956413 0.0061674304 1.2003856 0.016440466 2.960594
0.0010045376 0.35045937 0.0053255716 0.92728114 0.005165039 0.99991035 0.014398356 2.5475407
1.1396764e-07 3.0985586e-07 4.4557233e-08 3.7424724e-07 0.0017868876 0.5749375 0.008597591 1.4157933
0.005818794 1.060584 0.015304853 2.682129 5.617323e-06 0.0003407144 3.569108e-05 0.00058283575

exp_avg f4 [64]
00000000: 2405 bc39 873b c8bd ea75 adbe e2ae 16bf
00000010: 0afb 2cbf bcd6 7e39 8354 b2be 959a 71be
00000020: efdc 61bf 4bac a239 1037 d7bf e130 abbe
00000030: 44fb 31bf 03fa 53be 350c 7bbe e882 a0be
00000040: c4ce 2fbf 60a9 91be 8857 a7be 1f11 1abf
00000050: 3495 60be dc03 84be 95ae 6bbe 29c3 cdba
00000060: c559 13bf d1c9 f0bd 8b70 56bf add6 2fbe
00000070: df2e 3dbe 3e6f d3bf 2a4a b03c 743b 15be
00000080: 3617 87bd 0f70 03be 3289 fcbe db3f 85be
00000090: d62e b2be 4cc0 ce3d 78ea f238 c422 b8b8
000000a0: 24ee 7b3a a6ee a2bd eae2 39bd 2de0 bfbd
000000b0: 8475 d2bd 9889 71bd da19 0dbf 0a6f e1bb
000000c0: 6279 d8bd c9e3 7dbd afa4 acbe 77de 9fbe
000000d0: 1898 8e39 0dd9 e83c 0fa2 07bc a441 e3bc
000000e0: a5fc 17bf 2198 46bf 64b1 d2bf a29a 35bf
000000f0: 037b 8838 dc06 24bf 6d45 c8be 6eb4 e9be
0.00035861984 -0.09776979 -0.33879024 -0.588606 -0.67570555 0.00024303322 -0.34830102 -0.23594125
-0.8822774 0.00031027416 -1.6813679 -0.3343573 -0.69524026 -0.2070084 -0.24516375 -0.31349874
-0.68674874 -0.28449535 -0.3268397 -0.60182375 -0.21931916 -0.25784194 -0.23015817 -0.0015698421
-0.5755885 -0.117572434 -0.83765477 -0.17171736 -0.18474911 -1.6518323 0.02151974 -0.14573461
-0.06596224 -0.12835716 -0.49323422 -0.2602528 -0.34801358 0.100952715 0.000115831324 -8.780279e-05
0.0009610376 -0.07955675 -0.045382418 -0.0936893 -0.102763206 -0.05896911 -0.5511757 -0.006879692
-0.10570027 -0.06198481 -0.33719394 -0.31224415 0.0002719767 0.02842381 -0.008278384 -0.02774126
-0.5936988 -0.7757588 -1.6460385 -0.70939076 6.507898e-05 -0.64072967 -0.39115468 -0.4564547

exp_avg_sq f4 [64]
00000000: 080b 093a 581f 753e f1b1 863e 5367 0d3f
00000010: 0ccf 0f3d bb6d 153b 5219 833e 1fb1 de3e
00000020: f283 963f 83b0 933a c03f 0b3f 6151 873e
00000030: 9fb5 253d f4c3 8c3d 9d14 7d3e 4300 bb3d
00000040: 5309 7b3e ba59 1b3d a5d6 d83e ceda 713e
00000050: 6cfc 033e bcd2 9f3d 7c09 0c3c fe3b 7f3d
00000060: 7991 c33e 2cb8 b13b 061b 3f3f 991b 8a3d
00000070: e6ef 2a3e 8b52 b43e 90d6 d03a 1b08 903e
00000080: 5509 bf3c 96d3 003d b879 003e c5e7 833e
00000090: 06d4 0b3f d750 2e3d d396 9b3b 2023 333a
000000a0: ff9f 4e3a 5464 f23c af36 e33d 761b c73d
000000b0: 706f b93b a72f e23b 7272 cc3d 774a 183a
000000c0: 083c be3c b0d6 493d 8fe4 bb3d d7ac cc3c
000000d0: 89b6 653a 8fc7 ac3c fbda 7c3d 0589 083a
000000e0: 05c0 be3c 869b 333f cb1b ab3e f4ac 153f
000000f0: 3664 ac39 b8f4 cc3e f096 163f 2a28 9f3c
0.0005227779 0.23937738 0.26307634 0.55235785 0.035109565 0.0022801 0.25605255 0.43494508
1.1759017 0.0011267815 0.5439415 0.26429275 0.04045641 0.068733126 0.24714895 0.09130909
0.24515276 0.037927367 0.4235126 0.23618624 0.1288926 0.07803866 0.008547183 0.062313072
0.38196924 0.0054235663 0.7465061 0.06743545 0.16693076 0.35219225 0.0015933085 0.28131184
0.02331988 0.031451784 0.12546432 0.25762764 0.546204 0.042557564 0.0047482043 0.0006833542
0.00078821176 0.029588856 0.110944144 0.09722035 0.0056590363 0.0069026533 0.09982766 0.0005809436
0.023221985 0.049277008 0.091744535 0.02498476 0.00087628566 0.02109125 0.061732274 0.0005208406
0.023284921 0.70159185 0.33419642 0.5846703 0.0003288106 0.40030456 0.5882406 0.019428331

exp_avg f4 [64, 64]
00000000: fbc1 35b9 744f 073e 8111 b43d 8f39 aebb
00000010: d860 3dbb d160 3f34 3f95 593d d237 1e3e
00000020: a6a2 9e3d c9d4 9cb9 2b0c 9abc f12e 043e
00000030: e15f f7bb 16c4 ec3d 2359 a53c 0e26 153e
00000040: d0ed a83c d940 0abc e1ed 813d 92de 8bbc
00000050: e6f5 713d f97e 233d 6e7c d3bb 77d3 d43d
00000060: ce48 663d 8f49 02bc 76b9 40bc 60f7 aa3d
00000070: decb 6f3d b519 67bc e189 a2b6 db16 fd3d
00000080: a7be e43d a5e8 39bd 3a0a 9cbc 5dcd d93d
00000090: e5f7 413d 5b40 863d fda9 04b6 00a9 4eb8
000000a0: 37cc dab8 aac9 ce3c 2d8c ae3c bb92 043e
000000b0: 4f40 91bb 4f48 513d 28ee 70bd cf73 86ba
000000c0: b37b 873d d1dd aa3d 113f f7bc 71d7 893d
000000d0: 53c6 20b3 8188 29bd b03b 8d3d acd3 80ba
000000e0: c119 e8bb 4cd7 463c a36e 8bbc 8043 7e3d
000000f0: 24cd 5fb7 9c30 413c 4942 8a3c 337b d9bb
00000100: a33e 2fb9 8862 4e3e efde ac3d 57c0 ecbb
00000110: 1fc4 9ebb 994a 94b2 b9cc 6a3d ff99 343e
00000120: f1c6 b83d 950f 97b9 5cd9 c7bc 6f6d f13d
00000130: 9e01 22bc 280b 0b3e 3132 9e3c 039f 173e
00000140: 1987 803c ab84 ffbb b343 9d3d 68e0 77bc
00000150: 99d3 a73d ddcc 523d 3d02 8dbb 1cbc 093e
00000160: 92e4 843d 7a8c e9bb aaf5 86bc e198 b73d
00000170: 6ff8 883d 076f 23bc 87e5 adb7 4d45 233e
00000180: bc02 0c3e fd56 d8bc 1d37 53bc b886 ba3d
00000190: 17da 623d ad36 ab3d 2440 91b6 24d0 46b8
000001a0: a56a d2b8 f234 003d 0254 d13c 00cd 313e
000001b0: 336c 87bb a559 573d c48d 7dbd 9d9e 8dba
000001c0: c2ca a43d eff5 eb3d a76c d7bc cfe0 9d3d
000001d0: 2d4a 13b3 1d10 ddbb 5be3 b43d 1d02 80ba
000001e0: b6d5 24bc 2950 523c f2db c5bc 90c6 1d3d
000001f0: b6c7 50b7 383e da3b a829 b23c 5e15 e1bb
00000200: 9d75 cbb8 22f1 ba3d 991a 493d d6f8 bcbb
00000210: 222e 62bb 0006 86b3 7a16 cc3c 9ca3 af3d
00000220: 35d6 233d d8bf 2fb9 e0f6 6ebc 2446 8e3d
00000230: 36cc d7bb 0550 853d bfa8 093c b587 a73d
00000240: fdab b13b 040d 9cbb 36b5 113d 660b 32bc
00000250: 5875 1b3d c998 b93c a38c 64bb 286a 773d
00000260: 9923 003d 33b2 8dbb 626f 49bc 9f7b 523d
00000270: ae4c ff3c f2f9 1fbc 3f27 9db5 b14c 9c3d
00000280: b04c 873d 3be9 bebc 5a92 35bc 0c6f 623d
00000290: 9441 c23c ad00 2a3d e091 9bb4 c334 eab7
000002a0: 962b 74b8 964b 723c 8b1c 3e3c b1f1 983d
000002b0: 9ac0 1fbb e913 f33c 0f23 03bd 443e 13ba
000002c0: 8cde 233d 63fd 563d b3a5 89bc 6550 193d
000002d0: e7b4 66b4 1db1 96bc 7f55 1d3d baa9 0dba
000002e0: 82eb ddbb b807 f93a 7133 8abc a3f5 f23c
000002f0: 4a7d f2b6 c3c1 093b 0399 023c 3fca 88bb
00000300: 1d2e 7db9 853d 863e fbfd e13d d3df c6bc
00000310: b35a 49bc 018e f3b4 6730 603d 16ea 633e
00000320: adee b13d 9331 dbb9 5450 72bd 18cd 2a3e
00000330: 9d46 b2bc a925 1f3e 7f88 3b3c a050 543e
00000340: c48a d2bb 2f96 6cbc 115e b83d 7b82 0cbd
00000350: ee6f d93d 2738 853d d558 30bc 28de 2f3e
00000360: 48d0 8e3d 0a90 51bc b305 45bd af8c 033e
00000370: 3237 973d e40d 42bd 9a0c 50b8 4e84 3f3e
00000380: 86ff 333e 15ea 35bd f753 f2bc d0f1 c83d
00000390: 5eda 583d 397d e63d b768 e6b6 4eb5 93b8
000003a0: 098e 18b9 fb9c 2b3d cb72 c43c 2e2a 693e
000003b0: e84e e1bb a229 ac3d 6d55 f5bd 9462 deba
000003c0: 240f e33d 0ee6 193e 4431 1abd d4a4 c03d
000003d0: 2cf8 12b5 3e63 00bd 6dbf d63d 8c0d c0ba
000003e0: d0fd b9bc 3251 3ebc ba73 69bd 60de da3c
000003f0: 44b2 96b7 05ae 93bc 486f 113c 038a 4fbc
-0.00017333768 0.13213903 0.08792401 -0.00531692 -0.0028896835 1.7823483e-07 0.053120848 0.15450981
0.077458665 -0.00029913176 -0.01880463 0.12908532 -0.0075492715 0.11560838 0.020184105 0.14565298
0.02062121 -0.008438312 0.063442 -0.017073903 0.059072398 0.039916012 -0.006454042 0.10391896
0.056221776 -0.007952108 -0.011762967 0.08347964 0.058544032 -0.01410525 -4.8440274e-06 0.12357875
0.111691765 -0.045387883 -0.019047845 0.10634873 0.04735555 0.065552436 -1.976848e-06 -4.927162e-05
-0.00010433088 0.025242645 0.021307075 0.12946598 -0.004432715 0.05109435 -0.058820873 -0.0010257902
0.06615391 0.08343089 -0.03018144 0.06730545 -3.7433278e-08 -0.041389946 0.0689615 -0.0009828708
-0.007083148 0.012136292 -0.01702053 0.06207609 -1.3339599e-05 0.011791375 0.01687731 -0.006637001
-0.00016712635 0.20154774 0.08440959 -0.007225077 -0.004845157 -1.726339e-08 0.057324145 0.1763687
0.0902232 -0.00028812574 -0.024395637 0.11788451 -0.009888081 0.13578475 0.019311043 0.14806752
0.01568942 -0.0077977977 0.07678928 -0.015129186 0.08194656 0.051464904 -0.0043032453 0.13450664
0.06488909 -0.007127342 -0.016474564 0.08964706 0.0668801 -0.009975201 -2.073009e-05 0.15944405
0.13672918 -0.026408667 -0.012891558 0.09107727 0.055383768 0.08360038 -4.3288037e-06 -4.7400725e-05
-0.000100334444 0.031300493 0.025552753 0.17363358 -0.0041327714 0.052575726 -0.061902776 -0.0010804717
0.080464855 0.115215175 -0.026296927 0.077088945 -3.4293567e-08 -0.0067463056 0.08832427 -0.0009766255
-0.010060718 0.0128364945 -0.02415273 0.038519442 -1.2444265e-05 0.006660249 0.021748379 -0.0068690022
-9.7017015e-05 0.09128024 0.04909763 -0.0057669682 -0.003451236 -6.2409526e-08 0.024913061 0.08576128
0.039999206 -0.00016760768 -0.014585227 0.06946972 -0.006585623 0.06509403 0.008402049 0.08180181
0.005422114 -0.004762294 0.035573207 -0.010866975 0.037953705 0.022655861 -0.0034873865 0.060403973
0.03128395 -0.0043242215 -0.012294622 0.051387426 0.031164493 -0.009764181 -1.1708834e-06 0.07631815
0.06606424 -0.023304572 -0.011082256 0.055281684 0.02371291 0.04150455 -2.8977138e-07 -2.7919543e-05
-5.8214726e-05 0.014788529 0.011603485 0.07467974 -0.0024376274 0.02967258 -0.032015856 -0.0005616883
0.04000716 0.052487742 -0.016802644 0.037430186 -2.1486231e-07 -0.018395001 0.038411614 -0.00054040144
-0.0067724595 0.0018999493 -0.016870232 0.029658144 -7.2267476e-06 0.0021020032 0.007971051 -0.0041745002
-0.00024145139 0.2621881 0.11034771 -0.02427665 -0.012289691 -4.5365599e-07 0.05473366 0.22257265
0.08688102 -0.0004180787 -0.059158638 0.166798 -0.021762187 0.1554171 0.011446117 0.20733881
-0.0064252336 -0.014440103 0.09002317 -0.034304123 0.10617052 0.06504851 -0.010763367 0.1717459
0.0697332 -0.012790689 -0.04810114 0.12846635 0.073835745 -0.04737653 -4.96028e-05 0.18702814
0.17577943 -0.04441269 -0.029581053 0.09811747 0.052942626 0.11254353 -6.8667246e-06 -7.043277e-05
-0.00014548762 0.041897755 0.023980519 0.22769997 -0.0068758614 0.08406378 -0.11979184 -0.0016966634
0.11086872 0.15029165 -0.03764464 0.094064385 -5.4750376e-07 -0.031344645 0.1048573 -0.0014652475
-0.022704035 -0.011616038 -0.05699513 0.026717365 -1.7964405e-05 -0.018027315 0.008876629 -0.012667182

exp_avg_sq f4 [64, 64]
00000000: f404 ac35 66cd 8f3d d184 8b3c 1353 d138
00000010: 9780 1437 e64d 1331 f9b5 f83b 415f 0d3d
00000020: e53f c03c f247 0d37 9503 2d39 40ec 023d
00000030: 21ef 2e38 4d8d c53c cd54 993a c34b 263d
00000040: d088 3f3a 7953 ad38 5563 353c 2359 6a3a
00000050: 34a8 483c 5aa0 883b c54e b337 4f76 0a3d
00000060: c3a9 5c3c 2a55 8238 d282 4839 94f4 573c
00000070: f8e6 3d3c e5f8 1239 5199 3634 0b83 573d
00000080: 4208 253d df61 e13b 33e2 1a3b 1d35 123d
00000090: f03b 163c 5563 173c 3194 8235 8615 3636
000000a0: 1a6b bc35 3ffe 9b3a 8a79 223a b26a 533d
000000b0: 346d f937 583e 9f3b 957f 5d3c 4eea bd36
000000c0: 6fb3 213c 7b70 d43c 1036 df3b 15b5 1c3c
000000d0: 4d99 bf2d cae5 bc3c 523a 813c b0c5 8b36
000000e0: 815f cf37 c7e8 a03a 51f1 d638 0544 5f3c
000000f0: 55f7 7531 2c04 0d3a c180 e63a 1c9f 4438
00000100: 1a42 8235 8e43 e23d 78e2 863c ac07 2a39
00000110: 336c bf36 f9ec 0631 68f0 4c3c 2b45 983d
00000120: adc0 153d f343 c136 33b9 3439 cf9d 5b3d
00000130: 1783 0238 104b 573d bfe2 093b 835e 883d
00000140: 289a 1e3a f963 8138 227e ad3c 1a45 ea3a
00000150: 59dc 9b3c 6ec3 1b3c 3ba2 5137 9d94 573d
00000160: 59cc b13c bcea 4338 ca0f 8539 b068 a73c
00000170: 9508 8a3c 5f83 ef38 1c24 1e34 557f a63d
00000180: 32e7 843d 52c6 ca3b cb41 8c3b b741 4e3d
00000190: ecbc 7d3c 33d6 743c 6f3e a835 5a97 ea35
000001a0: 5c8e 7435 f650 d83a d0d3 d33a 3d31 3c3d
000001b0: 986b c037 6ed6 fb3b 44d1 b43c be3e a536
000001c0: 0787 803c fc99 2c3d 4561 7b3c 8f06 733c
000001d0: 54ce a02d 5e7e 443d 132e de3c d829 6236
000001e0: a3f7 9237 a763 0d3b fdf2 c938 6e35 993c
000001f0: 546c 4431 085a e239 061a 6f3b c6d6 0b38
00000200: 07fc cc33 ae57 2f3d 422a d53b 8a87 a738
00000210: d7a0 5436 3674 0931 f049 a03b bf6c ed3c
00000220: f508 6d3c 3d10 1835 6661 cf38 b82f aa3c
00000230: e217 7337 2fa0 a83c 35b5 5e3a 0a68 d33c
00000240: eb19 6f39 38bc bb37 4b09 093c df81 433a
00000250: 5c40 f83b b68f 783b 6304 f736 034d a83c
00000260: f739 0c3c ff47 8c37 f6e5 0339 958f 013c
00000270: d99c d93b 434e 6f38 3dc9 4532 2068 013d
00000280: 6127 cc3c 6b3e 3c3b d6de ea3a ad9b b33c
00000290: 3b2a c33b 9d8c b93b 23e4 8b32 4eb5 2334
000002a0: c0aa 6333 e807 1e3a b5b5 073a cddd 9b3c
000002b0: d359 c136 0a11 413b 8dd7 273c dfb2 c635
000002c0: 41dc c53b 7d9a 853c 0f5a cb3b c337 be3b
000002d0: c9dc 8e31 19e2 9c3c 89fe 2e3c 2756 4935
000002e0: 6fe1 2637 d62c 2f3a acf1 5738 0d29 073c
000002f0: 7e75 222d bd96 3239 1755 c43a ea29 5d37
00000300: 00e8 1436 2124 8e3e 9e1a 383d 4a54 083a
00000310: 9d9d 6837 532f c831 b810 023d 2a4b 2e3e
00000320: cc79 c53d b1ad 7037 3036 193a 7569 0b3e
00000330: 4e09 9b38 fe69 f53d 83de d03b eca5 2b3e
00000340: 0b25 ae3a 59c5 1539 46b2 7a3d 2a59 a03b
00000350: 6bf1 4c3d 29dc bc3c 883d fe37 7cf6 063e
00000360: c6da 683d 8b76 e138 877b 4a3a 8909 513d
00000370: e9fb 343d d4b5 a239 061d 9e34 e5bb 553e
00000380: 1d0a 233e 49ea c43c 9a99 3e3c 21ec 053e
00000390: 6f03 1e3d db7a 183d 95b7 4036 18e0 9a36
000003a0: 64da 1c36 7321 783b 0d3d 5b3b 0531 0b3e
000003b0: 4e80 5d38 1a1b 993c c10e 803d fa7b 3337
000003c0: a93b 223d 38a6 d73d 0e97 2d3d 2679 1f3d
000003d0: a96a c231 8670 023e 5e8c 8b3d 1338 ff36
000003e0: 674d 3238 d2b7 8f3b caae 8139 85f5 4b3d
000003f0: 1a7c cf31 feab 793a ff06 333c c48b a238
1.281644e-06 0.070215985 0.017031105 9.9813704e-05 8.851427e-06 2.1435596e-09 0.007590052 0.03451467
0.023467967 8.421006e-06 0.000164999 0.031963587 4.170754e-05 0.024115229 0.0011698246 0.040599596
0.00073064584 8.264831e-05 0.011071046 0.0008939674 0.012247134 0.004169506 2.1375143e-05 0.033804234
0.013468209 6.214746e-05 0.0001912222 0.013180871 0.011590712 0.00014016365 1.7005847e-07 0.052615207
0.04029108 0.006878122 0.002363336 0.035695184 0.009169564 0.009239991 9.728884e-07 2.7132642e-06
1.4038262e-06 0.0011901333 0.00061979203 0.051615424 2.9733965e-05 0.004859727 0.013519187 5.6599156e-06
0.00986944 0.025932541 0.0068118647 0.009564658 2.1782265e-11 0.02305879 0.01577488 4.1655367e-06
2.4720795e-05 0.0012276404 0.00010249264 0.013627057 3.5792784e-09 0.0005379345 0.0017585979 4.6878224e-05
9.704993e-07 0.11048041 0.01646541 0.00016215321 5.7048396e-06 1.963427e-09 0.012508489 0.07435068
0.036560703 5.7597586e-06 0.0001723513 0.053617295 3.1116502e-05 0.05256182 0.0021039692 0.06658652
0.0006050193 6.169821e-05 0.021178309 0.0017873377 0.019025968 0.009507043 1.2495143e-05 0.052631963
0.021703886 4.6710236e-05 0.000253795 0.020435661 0.016849795 0.00011420878 1.4728033e-07 0.081297554
0.064894095 0.0061881924 0.004280304 0.05035564 0.015486937 0.014943647 1.2535146e-06 1.7478408e-06
9.1104243e-07 0.001650362 0.0016161148 0.045945395 2.2938286e-05 0.007685474 0.022072442 4.9246873e-06
0.015689386 0.04213904 0.015343015 0.014833107 1.8281522e-11 0.047972076 0.02712158 3.370098e-06
1.7519871e-05 0.002157429 9.629687e-05 0.018702235 2.8583331e-09 0.00043173158 0.0036484017 3.3340206e-05
9.545334e-08 0.042808227 0.0065052817 7.988427e-05 3.1684083e-06 2.0002182e-09 0.0048916265 0.028982518
0.014467468 5.664804e-07 9.888671e-05 0.020774707 1.4489489e-05 0.020584194 0.000849563 0.025806446
0.00022802471 2.2379783e-05 0.008364032 0.0007458012 0.0075760316 0.0037927455 7.3616843e-06 0.020544535
0.008558742 1.6722826e-05 0.000125788 0.007907768 0.006641012 5.7054927e-05 1.15126655e-08 0.031593442
0.024921121 0.0028723727 0.0017919193 0.021924818 0.005955962 0.0056625144 1.6285474e-08 1.5246516e-07
5.3007852e-08 0.00060284 0.0005176918 0.019026661 5.762305e-06 0.002945962 0.010244262 1.4804208e-06
0.006038219 0.016309017 0.006205804 0.005804987 4.1578443e-09 0.01915078 0.010680803 7.5003703e-07
9.946859e-06 0.0006682401 5.148507e-05 0.008249533 9.234722e-12 0.00017031557 0.0014978972 1.3182385e-05
2.218876e-06 0.2776194 0.04494726 0.00052005483 1.3864975e-05 5.8261462e-09 0.031754225 0.1702086
0.096423715 1.4345555e-05 0.00058445614 0.13614447 7.392709e-05 0.11983107 0.0063741817 0.16762513
0.0013286186 0.00014283265 0.06120517 0.0048934417 0.05003492 0.0230542 3.0307812e-05 0.13179964
0.056849264 0.000107509164 0.00077240955 0.051034484 0.044185553 0.0003103452 2.945091e-07 0.20872457
0.15921827 0.024037497 0.011633301 0.13078357 0.038577493 0.03722654 2.8717088e-06 4.6156456e-06
2.3372932e-06 0.0037861734 0.0033453137 0.13592918 5.281e-05 0.01868968 0.06252814 1.0698097e-05
0.039607678 0.105297506 0.042380385 0.038933896 5.658269e-09 0.12738237 0.06813882 7.60612e-06
4.2510594e-05 0.0043859268 0.00024735025 0.049794693 6.0386016e-09 0.0009524225 0.010926961 7.750795e-05

exp_avg f4 [64]
00000000: 14ac b63c 2cc5 82bc d2b2 1ebd 2975 7ebe
00000010: a75a 663d af03 81bd f934 9235 0336 05bf
00000020: 0873 85be 11f2 e0bd f3cc c0be 338f 5fbe
00000030: 7106 24be b8f1 b338 fc8b f0be 0677 b1be
00000040: f30e 483b 7db6 6937 2128 69bd 19d8 84be
00000050: e943 06bd 9640 f1bd 07bf 2abe fda5 0538
00000060: f592 6139 0efe c43b 4c86 2bbe ab02 3dbd
00000070: c5ea a2bd 50e7 55be a324 4038 dc04 11be
00000080: 065e c5be e251 17be 837f 56be b689 a23c
00000090: 54fc 0f39 37b4 093d e019 7bbd 0000 0000
000000a0: eff6 5abe 0000 0000 d87f 1935 f614 14be
000000b0: 8a8b cf35 543d 3b38 0bef 7dbe 78dc 6cbc
000000c0: 1807 163c 9027 703c 04e6 03be 4f19 8e37
000000d0: 28e6 91be bfc9 6f3a 0000 0000 4cb3 563e
000000e0: 7ce4 efbe 482b d6bd ed42 8a38 e47a 8dbb
000000f0: c0f2 ec3c 0000 0000 0000 0000 5bdc 83be
0.02229885 -0.01596316 -0.038744755 -0.2484938 0.056238797 -0.06299531 1.0893265e-06 -0.5203554
-0.26064324 -0.109836705 -0.37656364 -0.2183197 -0.16018082 8.580409e-05 -0.469818 -0.3466112
0.0030526489 1.3930371e-05 -0.056923036 -0.2594612 -0.032779608 -0.11779897 -0.16674434 3.186426e-05
0.00021512418 0.006011731 -0.16750449 -0.046145122 -0.07954935 -0.2088902 4.5810488e-05 -0.1416201
-0.38548297 -0.1477733 -0.2094708 0.019841056 0.00013731542 0.033619132 -0.061303973 0.0
-0.2138326 0.0 5.718298e-07 -0.14461121 1.5463313e-06 4.464139e-05 -0.24798219 -0.014456861
0.009156965 0.01465787 -0.12880713 1.6939504e-05 -0.28495908 0.0009147189 0.0 0.20966834
-0.46854007 -0.10457474 6.592819e-05 -0.004317628 0.028924346 0.0 0.0 -0.25754055
