gen_3_agent_2.pt (torch, 64207 bytes, 18 tensors)

net.0.weight f4 [64, 4]
-0.121859975 -0.2988947 0.20335309 -0.1880226 -0.12905185 0.20678274 0.22601947 0.026463894
0.18704426 -0.057125784 0.100034595 -0.06740921 0.23257099 0.016535236 0.24585919 -0.34255117
0.13167071 0.01666595 -0.016175667 0.027557466 0.29434252 0.038773064 -0.0411586 -0.054839544
0.28832412 0.028466266 0.17898703 0.08924884 -0.15156318 0.05528388 -0.1544346 -0.077930786
-0.097749226 -0.08315548 -0.32372475 0.076531895 -0.031592432 -0.26859546 -0.09110736 0.02138207
-0.12852943 0.24307671 -0.13578571 0.23174275 0.15568322 -0.02419304 0.17849694 -0.025544472
0.19712454 0.21458234 -0.1326025 -0.0916547 -0.21903643 -0.09019828 -0.28572482 0.009769288
-0.17985748 -0.13705477 0.1392165 0.10835833 0.3324627 0.12230222 -0.25913915 0.04513628
-0.084533796 -0.26285282 0.07693294 -0.09489513 0.0107994545 -0.064713314 0.23804763 0.32385474
-0.26595217 -0.324636 -0.3071913 -0.0072766105 -0.09988707 -0.24329264 0.07619639 -0.027844317
-0.0004219779 -0.11850598 0.035035357 -0.23847002 -0.19244167 -0.006189392 0.28628412 -0.005662823
-0.027924044 0.20655566 -0.07640913 0.2480636 -0.22857939 -0.19561529 0.24613468 -0.19850647
-0.17272867 0.27688754 0.14566101 0.23799995 0.007284255 -0.045164153 -0.05011355 -0.033518497
-0.2335813 -0.21575241 0.047366355 -0.21434976 0.070848495 0.016897598 -0.11312058 0.31907552
0.17543478 -0.28235334 -0.33258873 0.16422944 0.17691904 0.015341956 -0.27386147 0.2162579
0.15315388 -0.16126804 0.06330301 0.30320415 -0.14076556 -0.304025 0.1727477 0.255882
-0.002827527 -0.12883803 -0.109127216 0.24498428 0.19128028 -0.06555101 -0.27960235 -0.07976715
-0.13924941 -0.14470632 -0.20405617 -0.14194815 0.18719812 0.04803229 0.057979666 -0.042161066
0.16723934 0.01568353 -0.28140333 0.019279446 -0.024194898 -0.06477703 0.11978849 -0.052239414
-0.2827571 -0.07223007 -0.18287201 -0.05569 -0.14526668 -0.18635939 -0.26555192 0.06846892
-0.2733001 0.15442319 0.09721891 0.23559797 -0.29712436 0.008208325 0.23858678 0.103429824
0.10646863 -0.2755746 0.1090773 -0.14160603 0.007093015 0.22993143 -0.017952694 0.15761827
0.02469536 -0.2033187 -0.08725274 -0.20709021 0.009161381 -0.070121415 0.11444157 0.014195525
-0.13655394 -0.2654169 0.0045589027 0.06414734 -0.08867908 -0.13458264 0.18409956 -0.10549493
0.02316731 0.24519551 -0.1374738 -0.09118037 0.10801036 -0.06971655 0.3342815 -0.1191125
-0.35939193 0.099373244 0.12912324 -0.027901307 -0.25768277 -0.25970855 0.13631335 -0.18269615
0.113103725 0.18930729 0.11030834 0.08665116 0.013949254 0.22084545 -0.26523525 0.20375036
0.019243516 -0.05339591 0.09539019 -0.15112157 0.018165568 -0.083522566 -0.313108 -0.051759314
-0.19652075 0.13348497 -0.026877845 0.253507 -0.0760387 -0.19252901 0.2508995 0.24753308
-0.13951604 0.09664027 -0.14757457 0.0038869963 -0.031701267 -0.17346773 -0.17491026 -0.1618487
-0.104501 -0.14398752 0.24546382 -0.11768048 0.06903336 -0.11242601 0.2036779 0.2344272
-0.106597 -0.13070735 -0.010450691 -0.05176434 -6.688241e-05 0.056165077 0.21510032 0.048052788
00000000: b991 f9bd ba08 99be cb3b 503e ff88 40be
00000010: 2b26 04be dbbe 533e a671 673e cfca d83c
00000020: 8888 3f3e bafc 69bd f0de cc3d d70d 8abd
00000030: 1727 6e3e e774 873c 83c2 7b3e de62 afbe
00000040: b0d4 063e 0887 883c d582 84bc 32c0 e13c
00000050: 10b4 963e 81d0 1e3d ec95 28bd 6e9f 60bd
00000060: 389f 933e 1632 e93c 6048 373e 19c8 b63d
00000070: 6133 1bbe 5a71 623d 1b24 1ebe 2d9a 9fbd
00000080: bf30 c8bd 6c4d aabd 40bf a5be c1bc 9c3d
00000090: 1167 01bd 5885 89be 7f96 babd 7329 af3c
000000a0: 389d 03be 1ae9 783e 690b 0bbe f94d 6d3e
000000b0: 6c6b 1f3e 7b30 c6bc e7c7 363e a442 d1bc
000000c0: 04db 493e 79bb 5b3e f3c8 07be 76b5 bbbd
000000d0: 164b 60be e0b9 b8bd 864a 92be 5d0f 203c
000000e0: 8f2c 38be 1658 0cbe c58e 0e3e f9ea dd3d
000000f0: 8d38 aa3e 9679 fa3d e3ad 84be d2e0 383d
00000100: 0e20 adbd a594 86be 048f 9d3d 6158 c2bd
00000110: 32f0 303c 6a88 84bd c2c2 733e 4ad0 a53e
00000120: e22a 88be b136 a6be 2e48 9dbe a270 eebb
00000130: 9891 ccbd b521 79be da0c 9c3d c419 e4bc
00000140: ea3c ddb9 43b3 f2bd 3c81 0f3d 7c31 74be
00000150: 6e0f 45be 62d0 cabb d593 923e 348f b9bb
00000160: f7c0 e4bc 5483 533e 647c 9cbd 6204 7e3e
00000170: b710 6abe 604f 48be bb0a 7c3e 4845 4bbe
00000180: c9df 30be 34c4 8d3e 2928 153e 42b6 733e
00000190: c3b0 ee3b 0cfe 38bd de43 4dbd b14a 09bd
000001a0: f02f 6fbe 33ee 5cbe 3903 423d 817e 5bbe
000001b0: 0419 913d d56c 8a3c c3ab e7bd de5d a33e
000001c0: 2da5 333e 9e90 90be 1249 aabe c32b 283e
000001d0: 442a 353e d45c 7b3c 9237 8cbe b672 5d3e
000001e0: 5fd4 1c3e 7323 25be 02a5 813d 933d 9b3e
000001f0: d924 10be 2aa9 9bbe c6e4 303e f702 833e
00000200: 084e 39bb 1eee 03be 177e dfbd 29dd 7a3e
00000210: fade 433e 9c3f 86bd 0a28 8fbe f65c a3bd
00000220: 6697 0ebe e52d 14be 1af4 50be db5a 11be
00000230: ddb0 3f3e 82bd 443d 167c 6d3d 15b1 2cbd
00000240: ca40 2b3e bf7a 803c 1914 90be eeef 9d3c
00000250: 6134 c6bc d2a9 84bd ab53 f53d fff8 55bd
00000260: 8ac5 90be 5ced 93bd cd42 3bbe 331b 64bd
00000270: cac0 14be ffd4 3ebe 6cf6 87be 6f39 8c3d
00000280: feed 8bbe 1d21 1e3e b51a c73d 9840 713e
00000290: af20 98be 367c 063c 1850 743e 04d3 d33d
000002a0: 3a0c da3d 1d18 8dbe eb63 df3d 2c01 11be
000002b0: 866c e83b 2573 6b3e 8711 93bc af66 213e
000002c0: ec4d ca3c c732 50be 91b1 b2bd 750f 54be
000002d0: 9e19 163c d19b 8fbd 5860 ea3d 5994 683c
000002e0: ccd4 0bbe b9e4 87be d962 953b ae5f 833d
000002f0: 619d b5bd 08d0 09be 9884 3c3e ba0d d8bd
00000300: 5fc9 bd3c 8814 7b3e efc5 0cbe c6bc babd
00000310: 8934 dd3d 8dc7 8ebd f226 ab3e 41f1 f3bd
00000320: 3802 b8be 3384 cb3d e238 043e 4891 e4bc
00000330: ffee 83be 85f8 84be ba95 0b3e b314 3bbe
00000340: eda2 e73d c5d9 413e 57e9 e13d 2a76 b13d
00000350: 698b 643c 4f25 623e eacc 87be efa3 503e
00000360: 94a4 9d3c abb5 5abd ef5b c33d 9dbf 1abe
00000370: f5cf 943c e10d abbd b14f a0be 9301 54bd
00000380: bc3c 49be 49b0 083e ed2e dcbc abcb 813e
00000390: 2eba 9bbd 5326 45be e675 803e 5079 7d3e
000003a0: 4bdd 0ebe 55eb c53d ca1d 17be fabc 7e3b
000003b0: 30d9 01bd 86a1 31be ad1b 33be aabb 25be
000003c0: 9f04 d6bd 7771 13be de5a 7b3e 7702 f1bd
000003d0: 5d61 8d3d 9c3f e6bd f090 503e af0d 703e
000003e0: 874f dabd 26d8 05be 6039 2bbc d806 54bd
000003f0: 3843 8cb8 5a0d 663d 4243 5c3e 00d3 443d

net.0.bias f4 [64]
-0.073014036 0.22979677 0.15139037 0.09309365 -0.03389546 0.33936962 0.17255679 0.30531928
0.09358572 0.21605378 0.12764336 0.11567391 -0.03824661 0.058454826 0.16834737 0.19300371
0.19902733 0.19804572 0.17138556 0.12045333 -0.05331302 0.19781716 0.104893275 0.17601493
0.016764924 -0.024304712 0.22266366 0.17559303 0.09506331 0.0809767 0.09479609 0.16091754
0.10906531 -0.025433635 0.24704735 0.32104146 0.1487173 0.19923437 0.15234886 0.10184571
0.21472687 0.23702374 0.105481654 0.16114073 -0.0051559154 0.14933665 0.10791477 -0.015186424
0.096449375 0.1792528 0.29068857 -0.10179295 0.17722163 0.031209122 0.2813413 0.18291841
-0.056126278 0.1696321 0.2562913 0.26341456 0.1526361 0.16433501 0.05186592 0.047068737
00000000: 6288 95bd d84f 6b3e 1406 1b3e e2a7 be3d
00000010: f7d5 0abd dbc1 ad3e bab2 303e cf52 9c3e
00000020: dfa9 bf3d 343d 5d3e f1b4 023e 71e6 ec3d
00000030: 7aa8 1cbd 546e 6f3d 4163 2c3e c4a2 453e
00000040: d2cd 4b3e 7fcc 4a3e b27f 2f3e 3cb0 f63d
00000050: c15e 5abd 9590 4a3e 49d2 d63d 423d 343e
00000060: 9856 893c ad1a c7bc f101 643e a9ce 333e
00000070: 8db0 c23d 1dd7 a53d 7424 c23d 91c7 243e
00000080: a25d df3d 335a d0bc fbf9 7c3e 8c5f a43e
00000090: 5949 183e 1804 4c3e 5701 1c3e 7c94 d03d
000000a0: 5ce1 5b3e 5ab6 723e c406 d83d 1302 253e
000000b0: f4f2 a8bb b5eb 183e 6b02 dd3d 7bd0 78bc
000000c0: 4087 c53d 0c8e 373e 22d5 943e d278 d0bd
000000d0: 9679 353e 46aa ff3c f80b 903e f74e 3b3e
000000e0: abe4 65bd 0ab4 2d3e 9d38 833e 46de 863e
000000f0: a34c 1c3e 7047 283e 5c71 543d 26cb 403d

net.3.weight f4 [64, 64]
-0.10122111 -0.13943388 0.1495548 0.035163697 -0.13174118 0.0074175387 0.05527242 -0.044181097
0.03611938 -0.106210336 0.13230936 -0.13612984 0.104790665 0.14224942 0.057945933 0.060793884
0.13926566 -0.08275838 0.05867597 0.059263516 0.20534182 -0.007884959 -0.18263352 0.1998309
0.005985342 -0.22363241 0.010273882 -0.20058422 0.037507847 0.15064548 0.056096204 -0.111464
-0.017137932 0.01314404 0.031862464 -0.1277619 -0.010583307 -0.012309581 -0.036016528 0.18560618
-0.12917502 -0.26407388 -0.21107674 -0.16757813 -0.044035114 0.03372164 0.031338364 0.17107219
0.16546804 0.10508958 0.039638765 -0.22045623 0.10046189 0.13828626 0.047417015 0.15911542
0.08730464 -0.19955651 -0.023487348 0.01835682 0.1469849 -0.023637328 -0.16964772 -0.21032341
-0.100403294 0.43275747 -0.06789782 0.4008768 0.18999754 0.2337876 -0.09732067 0.18265213
-0.025527667 0.28977838 0.26252532 0.36419812 -0.1278994 0.08340803 0.19626017 0.26061192
0.31712103 0.08142141 0.077673316 0.20743038 -0.070729405 0.10626703 -0.027168654 0.25753957
0.23151347 0.094587505 0.27012157 0.21104857 0.18719642 0.102701224 -0.022380311 0.1789508
0.15150094 0.1801582 0.44200018 0.2369057 0.3099235 0.0035742074 0.1884777 0.1079241
0.018829089 0.28812572 -0.027342575 0.119620524 -0.15559636 0.050455656 0.14363106 -0.14830779
0.12519044 0.21993755 0.29630324 0.27540976 0.28251407 -0.010087979 0.20625855 0.24124822
-0.19832788 0.1177775 0.45545223 0.20910385 0.1478738 -0.009047362 0.2394559 0.16440053
-0.026262274 0.24273473 0.13885576 0.34504887 0.063382916 0.33399534 -0.15321669 0.38991445
-0.16981311 -0.120468244 -0.2369013 0.17607145 -0.11734353 -0.08187949 -0.059711006 0.43944767
0.12359796 -0.24368654 -0.03160952 -0.22689624 -0.0005668345 0.2429208 0.18445009 0.21166685
-0.21384944 0.19197099 0.34837288 0.09827926 -0.20968883 -0.1819278 0.04176888 0.0872684
-0.010731693 0.19086191 0.31732827 0.082406 0.102175556 0.10639025 0.31379506 -0.012577555
0.15348217 0.08393131 -0.009605566 0.22538814 0.1042046 -0.00017830006 0.15928528 0.13751891
-0.0735896 0.04121096 0.17790374 0.13654204 0.27713764 -0.16270839 0.34247905 -0.06936869
-0.028583722 0.13329265 0.16926867 0.26541317 -0.08674404 0.055367306 0.107765965 -0.1878549
-0.023689056 0.019007018 -0.17225908 0.20240112 0.13597317 0.148636 0.14878356 -0.10078646
-0.065665595 -0.17740887 -0.040119786 0.1112144 0.18248704 0.17379142 0.11035771 -0.09688982
0.1575907 -0.17581698 0.05841275 -0.22129169 -0.123592705 0.12818973 0.04587576 0.26091442
0.009447796 0.11407283 0.054161064 0.1558085 0.17779581 0.21387121 0.13849612 -0.06811678
-0.19909745 0.1400809 0.064420916 0.20890956 0.051422227 0.17091116 -0.07780564 -0.24418837
-0.074187726 -0.1078993 0.08699597 -0.052472457 -0.121786125 -0.047289133 -0.18413608 -0.0485055
-0.01580203 0.10372205 -0.09291871 -0.2045406 0.105817236 0.17409128 -0.046995 0.09878945
0.16658333 -0.23549777 0.33326474 -0.0059241983 0.25234434 -0.03150032 0.026623141 -0.11221527
00000000: 034d cfbd c1c7 0ebe e524 193e cf07 103d
00000010: 29e7 06be d30e f33b 5565 623d 3df7 34bd
00000020: eaf1 133d ce84 d9bd 1b7c 073e 9f65 0bbe
00000030: 7d9c d63d d5a9 113e b758 6d3d 0203 793d
00000040: a89b 0e3e 3a7d a9bd 3756 703d 4dbe 723d
00000050: 2045 523e ea2f 01bc 4804 3bbe 79a0 4c3e
00000060: b020 c43b e5ff 64be c953 283c f365 4dbe
00000070: d4a1 193d cf42 1a3e 22c5 653d 3d47 e4bd
00000080: d964 8cbc 195a 573c 3782 023d 04d4 02be
00000090: 9b65 2dbc 20ae 49bc 1186 13bd 8c0f 3e3e
000000a0: 7546 04be b134 87be 8024 58be 9a99 2bbe
000000b0: 2a5e 34bd b41f 0a3d a85c 003d 8c2d 2f3e
000000c0: 7470 293e 3539 d73d 425c 223d 47bf 61be
000000d0: f7be cd3d ea9a 0d3e 5838 423d 27ef 223e
000000e0: c6cc b23d 8b58 4cbe 8a68 c0bc 0b61 963c
000000f0: 3683 163e 12a3 c1bc 22b8 2dbe 055f 57be
00000100: 3ea0 cdbd 6392 dd3e 030e 8bbd b93f cd3e
00000110: b78e 423e 0466 6f3e 0f50 c7bd 2909 3b3e
00000120: 661f d1bc d55d 943e b869 863e 2d78 ba3e
00000130: 0ff8 02be d4d1 aa3d 6df8 483e ed6e 853e
00000140: b05d a23e 45c0 a63d 3013 9f3d a168 543e
00000150: 94da 90bd 87a2 d93d cc90 debc 3adc 833e
00000160: de11 6d3e 18b7 c13d 604d 8a3e 1e1d 583e
00000170: 6bb0 3f3e 0555 d23d ea56 b7bc e13e 373e
00000180: 1023 1b3e 647b 383e d94d e23e 6897 723e
00000190: 4bae 9e3e 403d 6a3b 4c00 413e 4f07 dd3d
000001a0: 763f 9a3c 3785 933e 89fd dfbc 9bfb f43d
000001b0: a754 1fbe 97aa 4e3d 0514 133e ffdd 17be
000001c0: ec31 003e 4f37 613e 0fb5 973e 8202 8d3e
000001d0: afa5 903e 0d48 25bc 7135 533e c609 773e
000001e0: 7716 4bbe 5435 f13d 0931 e93e 521f 563e
000001f0: 3b6c 173e 633b 14bc ed33 753e 9d58 283e
00000200: fb23 d7bc 748f 783e 3430 0e3e 3faa b03e
00000210: e7ce 813d 7001 ab3e d6e4 1cbe dea2 c73e
00000220: 7de3 2dbe 0eb8 f6bd 4196 72be 134c 343e
00000230: ce51 f0bd 6fb0 a7bd 8793 74bd 49ff e03e
00000240: ed20 fd3d f788 79be fc78 01bd 7d57 68be
00000250: 9f97 14ba 3bc0 783e 7ce0 3c3e 32bf 583e
00000260: 59fb 5abe 0b94 443e ee5d b23e a346 c93d
00000270: abb8 56be 484b 3abe d815 2b3d c6b9 b23d
00000280: fcd3 2fbc 4e71 433e da78 a23e 7ac4 a83d
00000290: 6b41 d13d 22e3 d93d bfa9 a03e 1712 4ebc
000002a0: 6e2a 1d3e 2ee4 ab3d aa60 1dbc 26cc 663e
000002b0: 3969 d53d 0ff6 3ab9 ae1b 233e c2d1 0c3e
000002c0: 25b6 96bd d3cc 283d 662c 363e add1 0b3e
000002d0: fce4 8d3e 079d 26be 6a59 af3e 2c11 8ebd
000002e0: 6928 eabc de7d 083e c454 2d3e 3ce4 873e
000002f0: dca6 b1bd d4c8 623d 67b4 dc3d 095d 40be
00000300: 8d0f c2bc 9bb4 9b3c af64 30be 3d42 4f3e
00000310: 8d3c 0b3e 0934 183e b85a 183e 2269 cebd
00000320: af7b 86bd acaa 35be a554 24bd 60c4 e33d
00000330: e2dd 3a3e 61f6 313e 3903 e23d 2c6e c6bd
00000340: 755f 213e 5e09 34be 3542 6f3d 4a9a 62be
00000350: 2c1e fdbd 2b44 033e 39e8 3b3d 9396 853e
00000360: eeca 1a3c 049f e93d fed7 5d3d 438c 1f3e
00000370: 1b10 363e 0e01 5b3e edd1 0d3e cf80 8bbd
00000380: 34e0 4bbe 5e71 0f3e 1def 833d 63ec 553e
00000390: 1da0 523d 5603 2f3e 9058 9fbd 840c 7abe
000003a0: bcef 97bd 4ffa dcbd f12a b23d 5ced 56bd
000003b0: 016b f9bd 40b2 41bd 2b8e 3cbe b4ad 46bd
000003c0: 4273 81bc 3a6c d43d 2a4c bebd 1773 51be
000003d0: b5b6 d83d fc44 323e d47d 40bd 2052 ca3d
000003e0: d294 2a3e 5426 71be ada1 aa3e c71f c2bb
000003f0: 4733 813e 7b06 01bd c618 da3c 1fd1 e5bd

net.3.bias f4 [64]
-0.032354698 0.18928845 0.084365435 0.010284696 -0.028529266 0.038982242 0.010575358 0.13354763
-0.051014546 0.15306163 -0.048638713 -0.040492952 0.18860689 -0.048437007 0.10840724 -0.0054477113
-0.031846143 0.12783429 -0.0148889655 0.22008397 0.10537698 0.04052939 -0.036536627 0.10302907
-0.06399678 0.023746768 0.16147946 0.12309626 0.08276893 -0.055811547 0.024669312 -0.065346576
-0.041881464 -0.027577376 0.19544168 -0.051980287 0.11673595 -0.055269636 0.18359196 -0.012851264
-0.033946365 0.013423946 -0.030985769 0.0075993217 0.200611 0.044979293 0.22519626 -0.05384614
0.11419585 0.08123865 0.15388286 -0.041921146 -0.037248176 0.08866013 0.03905856 0.17686039
-0.048776213 0.06342399 -0.058211982 0.2362689 0.18886238 -0.021447316 -0.015998272 0.059708808
00000000: 5c86 04bd d5d4 413e c9c7 ac3d 2481 283c
00000010: 35b6 e9bc d8ab 1f3d 4444 2d3c b6c0 083e
00000020: a1f4 50bd 30bc 1c3e 6339 47bd f0db 25bd
00000030: 2a22 413e e265 46bd 9d04 de3d b782 b2bb
00000040: 1a71 02bd fee6 023e d9f0 73bc b15d 613e
00000050: e3cf d73d 2502 263d 6ea7 15bd e800 d33d
00000060: be10 83bd 9588 c23c df5a 253e e419 fc3d
00000070: c282 a93d a69a 64bd 4c17 ca3c 6dd4 85bd
00000080: e68b 2bbd f3e9 e1bc dd21 483e 48e9 54bd
00000090: 4213 ef3d 6a62 62bd 88ff 3b3e 1c8e 52bc
000000a0: 580b 0bbd 1cf0 5b3c ded5 fdbc bb03 f93b
000000b0: f86c 4d3e 353c 383d d999 663e c58d 5cbd
000000c0: 84df e93d 7360 a63d 7893 1d3e 82b5 2bbd
000000d0: 8b91 18bd 7193 b53d defb 1f3d e41a 353e
000000e0: 91c9 47bd 70e4 813d b06f 6ebd 79f0 713e
000000f0: 2465 413e 48b2 afbc cf0e 83bc 3991 743d

net.6.weight f4 [2, 64]
-0.15933259 0.12887493 0.30590683 0.27517626 -0.21652344 0.14857581 0.20708771 0.23577423
0.0030612766 0.4045749 -0.07809615 -0.03470719 0.0013351379 -0.04768662 0.29396862 0.21559116
0.019658184 0.38926837 0.06971943 0.25307807 0.33998087 0.14168872 -0.18127328 0.35091957
-0.10206986 -0.12516879 0.23467866 0.24326389 0.39630422 -0.21464431 -0.21598378 0.06479996
-0.17027481 0.19184874 0.3080504 -0.18947846 0.32565013 -0.26881424 0.07970162 0.28894982
-0.24413338 0.17682967 -0.15377627 0.059547666 0.119342774 -0.074800566 0.19364215 -0.13551417
-0.033505354 0.35135335 0.1379215 0.01883166 -0.21458821 0.3989008 -0.14851567 0.3200529
-0.03267572 -0.061305825 -0.24143516 0.20009847 0.3138543 -0.19014221 -0.26322228 0.19935718
-0.09282853 0.114403985 0.0763491 -0.11363175 0.021536848 -0.05664246 -0.23145816 0.36591777
-0.04319134 0.019197999 -0.14402588 -0.045693062 0.32346988 -0.2372084 -0.014123754 -0.1230414
-0.23995933 0.048710793 -0.14766178 0.38782626 -0.07061262 0.058604844 -0.15531449 0.022143764
-0.079805136 0.13963898 0.3463512 0.15743034 -0.062574334 -0.15631133 0.2865456 -0.18963397
0.07847276 -0.2040511 0.41077107 -0.030313099 0.18917511 -0.1990289 0.17988347 -0.06313219
0.029516459 -0.08313954 -0.27068442 0.23824568 0.14596812 0.20257254 0.39451745 -0.20195195
0.35049874 -0.052741073 0.40816438 -0.1340604 0.13662438 0.11202378 0.21059366 0.36168835
0.1612403 0.28526804 -0.2577778 0.21308227 0.23969108 0.30955368 0.21516825 0.14389502
00000000: 1528 23be caf7 033e d29f 9c3e e7e3 8c3e
00000010: 52b8 5dbe 4224 183e cd0e 543e cd6e 713e
00000020: b39f 483b 7124 cf3e e0f0 9fbd 2029 0ebd
00000030: cbff ae3a 0c53 43bd 0e83 963e eec3 5c3e
00000040: 330a a13c 2f4e c73e 0fc9 8e3d 7393 813e
00000050: f911 ae3e d916 113e b49f 39be bbab b33e
00000060: 010a d1bd 3f2c 00be 9a4f 703e 2b1a 793e
00000070: 63e8 ca3e b8cb 5bbe da2a 5dbe d7b5 843d
00000080: 855c 2ebe ff73 443e c8b8 9d3e a406 42be
00000090: 9dbb a63e 05a2 89be 9a3a a33d 3bf1 933e
000000a0: 1afe 79be d612 353e 8777 1dbe 41e8 733d
000000b0: fc69 f43d 0a31 99bd 214a 463e 3ac4 0abe
000000c0: e93c 09bd 96e4 b33e 4b3b 0d3e da44 9a3c
000000d0: 03bd 5bbe ba3c cc3e 7e14 18be f9dd a33e
000000e0: fad6 05bd d11b 7bbd c73a 77be 9de6 4c3e
000000f0: 83b1 a03e a4b4 42be 12c5 86be 4a24 4c3e
00000100: e21c bebd a34c ea3d eb5c 9c3d c3b7 e8bd
00000110: 0b6e b03c ed01 68bd 5e03 6dbe 9359 bb3e
00000120: 67e9 30bd 1f45 9d3c 857b 13be a628 3bbd
00000130: d89d a53e c2e6 72be 5167 67bc 21fd fbbd
00000140: e6b7 75be f884 473d a634 17be 2a91 c63e
00000150: 599d 90bd a20b 703d c30a 1fbe d766 b53c
00000160: e070 a3bd 85fd 0e3e f254 b13e 6b35 213e
00000170: f926 80bd 1410 20be 1bb6 923e 682f 42be
00000180: 54b6 a03d c6f2 50be 9650 d23e 2d53 f8bc
00000190: 1fb7 413e 3bce 4bbe 5f33 383e 734b 81bd
000001a0: 80cc f13c 1045 aabd 2697 8abe adf6 733e
000001b0: ab78 153e 2d6f 4f3e 31fe c93e 7ecc 4ebe
000001c0: 9274 b33e 0607 58bd ecfa d03e 2147 09be
000001d0: 43e7 0b3e b96c e53d dda5 573e 372f b93e
000001e0: 2d1c 253e a70e 923e 74fb 83be 3d32 5a3e
000001f0: 9471 753e d27d 9e3e 1155 5c3e 3759 133e

net.6.bias f4 [2]
0.16137679 0.17927182
00000000: f53f 253e 0893 373e

exp_avg f4 [64, 4]
-1.1712415e-05 0.002298503 -6.0507085e-05 -0.0031331605 0.16671416 1.7184392 -0.28956932 -2.9086425
0.105849124 0.98298585 -0.18457147 -1.6796966 0.065770276 0.33176953 -0.11660924 -0.65303665
-1.4895341e-05 0.00017885807 9.8791415e-06 -0.00023405357 0.21631996 1.91424 -0.36728647 -3.3127067
0.08536987 0.7943852 -0.1496578 -1.3741603 0.06761774 0.4997031 -0.06438742 -0.799343
0.00801764 0.06770829 -0.009697245 -0.116582185 0.015836596 0.049836837 -0.011885406 -0.11762562
0.009655636 -0.0330612 -0.0015783921 0.027129292 0.11034366 0.8175865 -0.1800806 -1.4424996
0.011113503 0.048290137 -0.017967852 -0.09421624 0.027066184 0.22395399 -0.0503966 -0.40391958
0.009652739 0.018865282 -0.008661702 -0.050537348 0.110131525 0.7637986 -0.1925759 -1.4332763
0.059860323 0.40915927 -0.09858044 -0.76732606 0.004317311 -0.039815664 -0.0015434732 0.049185514
0.011369664 0.1176769 -0.010485994 -0.2044324 0.0031606636 -0.032798685 -0.0006582058 0.042840682
0.02016907 0.20119004 -0.03721372 -0.33329365 0.113397144 0.94927937 -0.19731636 -1.6486642
0.0052311253 -0.052326377 -0.0027742956 0.068460174 0.13030209 1.1020364 -0.22038099 -1.8993192
-0.0024620977 -0.02924311 0.0035683454 0.04984398 -5.534567e-20 -5.8534216e-19 5.3383962e-20 8.962619e-19
0.18573843 1.6266539 -0.30818897 -2.8274462 0.010103183 0.015683811 -0.008867725 -0.04689628
0.002011876 0.028270632 -0.0029656033 -0.044277728 0.00787176 0.107350394 -0.009612489 -0.18405192
0.005923358 0.08147747 -0.0069097797 -0.14138138 0.0052091777 0.04327196 -0.006228454 -0.07513183
-0.001154218 -0.031150669 0.0018275692 0.05066092 -0.002567162 -0.024933577 0.0025566986 0.033791382
0.18202096 1.566899 -0.3028851 -2.7182207 0.1767549 1.5694516 -0.29540086 -2.701089
0.1200796 1.0065271 -0.20419016 -1.7441139 0.14406659 1.2429929 -0.24933681 -2.1346805
0.122000106 1.1099901 -0.2028436 -1.8982873 0.004329561 0.050950374 -0.004148032 -0.086879894
0.01548975 0.029209573 -0.008802396 -0.085355826 0.015641958 -0.00092355517 -0.0062377667 -0.034856416
0.059160445 0.5026058 -0.097524196 -0.87698513 0.08086159 0.7087803 -0.13992354 -1.2209613
-0.0057686055 -0.06382232 0.011123666 0.105552055 0.051000115 0.46109864 -0.08542816 -0.78929514
0.000455165 0.009679345 -0.00048569377 -0.016434796 -2.637658e-21 -7.791579e-21 1.8005e-21 1.0651155e-20
0.07412939 0.6205844 -0.13105209 -1.0577626 0.09340493 0.8008669 -0.1619876 -1.3883327
0.13045353 1.2238756 -0.22466427 -2.0803926 0.00026330136 0.019445218 -0.0010651354 -0.026880674
0.17852515 1.6786001 -0.30819854 -2.8664625 0.055404834 0.44789234 -0.091922075 -0.7826449
0.15653211 1.3157935 -0.2749063 -2.3692074 0.055099677 0.35979468 -0.054870714 -0.6020963
-0.0023636655 -0.046090476 0.0026713205 0.077070795 0.0044111256 0.050447535 -0.004314817 -0.087736174
0.15659237 1.3708788 -0.25679046 -2.3634365 0.18579222 1.8123045 -0.32600042 -3.0559673
0.06772878 0.58648956 -0.11091143 -1.0192779 0.009293884 0.05609247 -0.009079776 -0.10693311
0.024438921 0.23805104 -0.04520605 -0.40328163 0.05014083 0.47966805 -0.08960517 -0.8183836
00000000: 7080 44b7 7ba2 163b fdc8 7db8 b655 4dbb
00000010: 1eb7 2a3e d1f5 db3f 6e42 94be 3327 3ac0
00000020: 6dc7 d83d f6a4 7b3f 4e00 3dbe 4c00 d7bf
00000030: 91b2 863d b2dd a93e d3d0 eebd 692d 27bf
00000040: 01e7 79b7 d98b 3b39 97be 2537 476c 75b9
00000050: fb82 5d3e d105 f53f f90c bcbe 6303 54c0
00000060: 66d6 ae3d d45c 4b3f e53f 19be 7ce4 afbf
00000070: 2b7b 8a3d 16d9 ff3e 8ddd 83bd bea1 4cbf
00000080: 6b5c 033c a5aa 8a3d 32e1 1ebc a4c2 eebd
00000090: c0bb 813c b621 4c3d 02bb 42bc b3e5 f0bd
000000a0: ac32 1e3c 2e6b 07bd 0de2 ceba 403e de3c
000000b0: dbfb e13d 594d 513f 0c67 38be d4a3 b8bf
000000c0: 6915 363c e1cb 453d 5131 93bc 72f4 c0bd
000000d0: e7b9 dd3c 3254 653e aa6c 4ebd 8cce cebe
000000e0: 8626 1e3c 5d8b 9a3c d0e9 0dbc 4000 4fbd
000000f0: a38c e13d 4e88 433f 9e32 45be 9975 b7bf
00000100: 1930 753d 537d d13e 8be4 c9bd 7b6f 44bf
00000110: 3b78 8d3b c015 23bd 5e4e caba c076 493d
00000120: d447 3a3c 9600 f13d 72cd 2bbc ba56 51be
00000130: 2323 4f3b ea57 06bd 728b 2cba b679 2f3d
00000140: 9b39 a53c c304 4e3e 6a6d 18bd 77a5 aabe
00000150: c33c e83d f903 733f 4d0d 4abe 6e07 d3bf
00000160: dc69 ab3b 2f54 56bd f5d0 35bb d934 8c3d
00000170: e96d 053e 870f 8d3f 8eab 61be e41c f3bf
00000180: 255b 21bb 3f8f efbc e7da 693b 3429 4c3d
00000190: 68ae 829f 34c3 2ca1 4019 7c1f d143 8421
000001a0: 3732 3e3e 3236 d03f f2ca 9dbe e1f4 34c0
000001b0: d287 253c 567b 803c ef49 11bc 5016 40bd
000001c0: aed9 033b d097 e73c 915a 42bb 905c 35bd
000001d0: 8ef8 003c 86da db3d b37d 1dbc 1b78 3cbe
000001e0: ba18 c23b a9dd a63d 6f6b e2bb 48c6 10be
000001f0: c0b1 aa3b f03d 313d 0f18 ccbb b8de 99bd
00000200: 2149 97ba b02f ffbc 0c8b ef3a d381 4f3d
00000210: d53d 28bb 8041 ccbc 498e 273b d568 0a3d
00000220: b463 3a3e 2590 c83f c113 9bbe 54f7 2dc0
00000230: 3dff 343e cae3 c83f c83e 97be a4de 2cc0
00000240: 4bec f53d e1d5 803f 3a17 51be 203f dfbf
00000250: 3186 133e 641a 9f3f 2652 7fbe 9b9e 08c0
00000260: 31db f93d 2814 8e3f 3cb6 4fbe 14fb f2bf
00000270: fdde 8d3b 57b1 503d 37ec 87bb 16ee b1bd
00000280: b8c8 7d3c ea48 ef3c ed37 10bc 09cf aebd
00000290: 9023 803c bd1a 72ba 2e66 ccbb 9ac5 0ebd
000002a0: 3952 723d c6aa 003f c4ba c7bd 1982 60bf
000002b0: c39a a53d a072 353f 1e48 0fbe 7648 9cbf
000002c0: 9206 bdbb 47b5 82bd 0940 363c ad2b d83d
000002d0: 7fe5 503d 1f15 ec3e f6f4 aebd 3f0f 4abf
000002e0: 36a3 ee39 1e96 1e3c b7a4 feb9 44a2 86bc
000002f0: ba4b 479d c42d 139e bc0a 081d d331 491e
00000300: 26d1 973d 9fde 1e3f 8532 06be c464 87bf
00000310: 154b bf3d 9d05 4d3f 14e0 25be e3b4 b1bf
00000320: 9c95 053e f5a7 9c3f 640e 66be 2725 05c0
00000330: b60b 8a39 944b 9f3c 039c 8bba dc34 dcbc
00000340: 4ccf 363e 5edc d63f 33cc 9dbe 1f74 37c0
00000350: 2ef0 623d 2552 e53e a441 bcbd 6b5b 48bf
00000360: f449 203e ec6b a83f 85c0 8cbe 18a1 17c0
00000370: 33b0 613d 0237 b83e 1dc0 60bd fc22 1abf
00000380: bae7 1abb 5ec9 3cbd 5211 2f3b 4bd7 9d3d
00000390: 348b 903b 13a2 4e3d 4f63 8dbb 06af b3bd
000003a0: c059 203e f578 af3f 0a7a 83be 8b42 17c0
000003b0: 5140 3e3e 98f9 e73f 87e9 a6be f894 43c0
000003c0: 63b5 8a3d 2e24 163f 8825 e3bd b377 82bf
000003d0: 6045 183c 38c1 653d 57c3 14bc bfff dabd
000003e0: 2234 c83c a7c3 733e fb29 39bd ee7a cebe
000003f0: 7960 4d3d 0d97 f53e ea82 b7bd 9681 51bf

exp_avg_sq f4 [64, 4]
4.838912e-07 0.00032998942 3.1331234e-07 0.00061727973 0.13058624 18.007828 0.3405977 43.897594
0.02809932 5.239666 0.09812851 12.387444 0.011267324 1.2118354 0.051121924 3.556817
7.1636447e-07 7.2427974e-06 3.902121e-08 1.2589183e-05 0.15110375 25.45839 0.49206936 60.838627
0.06122771 8.381076 0.15564914 21.112143 0.1259195 21.118835 0.32704663 49.07218
0.019579403 2.5861154 0.044329852 6.5404406 0.038537644 4.5769773 0.0746875 11.50208
0.009912725 1.2283678 0.019085167 3.061939 0.046226893 7.882111 0.13191526 18.856161
0.0004616612 0.08938706 0.0016107245 0.21144429 0.0056989393 0.66468763 0.014977249 1.7696407
0.016599813 2.0663702 0.03456599 5.2085195 0.037919816 4.603728 0.14419411 12.700735
0.058159746 7.311071 0.12903664 18.714458 0.0067981835 0.72768265 0.013312488 1.8535464
0.031307362 3.7997541 0.06504719 9.643075 0.00572124 0.61526525 0.010027172 1.5317231
0.0018769054 0.3805194 0.006226798 0.8799522 0.03385531 5.761167 0.12410801 13.995481
0.015056626 1.7253239 0.030744076 4.4006834 0.12633586 17.910187 0.32093158 43.59247
0.0018604022 0.20838639 0.0035904655 0.53002846 1.3647737e-06 0.00036966597 2.8149e-06 0.0008945985
0.19132872 27.492046 0.48836103 66.507195 0.026174262 3.240001 0.056645118 8.299921
0.0155062135 1.9512663 0.03257361 4.9129333 0.011578215 1.7721303 0.032899674 4.491491
0.018764326 2.3148787 0.03990057 5.8869467 0.010967166 1.3468071 0.022906648 3.4315715
0.0050825393 0.67685777 0.011384483 1.7102938 0.0005445255 0.12529035 0.0016173518 0.2779898
0.15924974 21.898468 0.4262526 53.338825 0.14778556 22.693829 0.4050944 54.047237
0.072623305 11.827553 0.22552158 29.18128 0.05545494 9.757479 0.19339262 23.375853
0.0716247 10.951202 0.19906193 26.446886 0.007027536 0.89171827 0.015276377 2.2733533
0.018395903 2.097006 0.03626668 5.3323016 0.024901725 2.702292 0.046342224 6.8466225
0.05504992 7.098163 0.12467927 17.929192 0.05753536 8.38364 0.15483877 20.789436
0.00014470262 0.027549 0.0005196539 0.065684505 0.0377867 4.948394 0.085733876 12.461766
0.007191791 0.8714027 0.015257509 2.2356033 9.518393e-08 1.8357023e-06 1.4424582e-08 3.702923e-06
0.019066302 3.5967422 0.066414796 8.497258 0.023256535 3.7724001 0.086566165 9.256669
0.049301963 8.435098 0.17473567 20.142023 1.3562199e-05 0.008131636 4.048395e-05 0.015769452
0.13761705 22.538603 0.42133147 54.515106 0.009094469 1.5710318 0.029661786 3.792942
0.096086964 10.178137 0.28510568 27.458746 0.033198297 7.2446613 0.09365128 16.284882
0.0019139329 0.17726323 0.0047882143 0.4526927 0.0065435614 0.78638023 0.013001061 1.9936348
0.1069443 17.814766 0.32374424 42.302715 0.19038321 26.992277 0.4838905 65.79186
0.07624789 10.529102 0.17761205 26.471922 0.035401158 4.4954042 0.0763642 11.480522
0.004288176 0.5609588 0.010695802 1.3896836 0.0090079075 1.611082 0.029268835 3.8662388
00000000: c0e4 0135 6e02 ad39 5235 a834 f1d0 213a
00000010: 66b8 053e 0810 9041 d262 ae3e 2397 2f42
00000020: 8c30 e63c 58ab a740 9af7 c83d f832 4641
00000030: 959a 383c 6c1d 9b3f 3965 513d e4a2 6340
00000040: 314c 4035 2807 f336 4698 2733 2136 5337
00000050: f1ba 1a3e c8aa cb41 84f0 fb3e c15a 7342
00000060: e8c9 7a3d e318 0641 7d62 1f3e abe5 a841
00000070: 0bf1 003e 60f3 a841 a872 a73e ea49 4442
00000080: fc64 a03c ea82 2540 3893 353d 4a4b d140
00000090: a6d9 1d3d 9976 9240 c3f5 983d 8508 3841
000000a0: fb68 223c 283b 9d3f 7f58 9c3c cff6 4340
000000b0: 6958 3d3d 413a fc40 cb14 073e 6bd9 9641
000000c0: 1e0b f239 9010 b73d f21e d33a da84 583e
000000d0: 2bbe ba3b f828 2a3f 2363 753c 9683 e23f
000000e0: 55fc 873c 693f 0440 1195 0d3d 31ac a640
000000f0: cf51 1b3d bd51 9340 9fa7 133e 3636 4b41
00000100: ea38 6e3d 4bf4 e940 2e22 043e 36b7 9541
00000110: 4cc3 de3b 6949 3a3f 9f1c 5a3c 0241 ed3f
00000120: 263c 003d 2c2f 7340 7637 853d 094a 1a41
00000130: 3d79 bb3b 0682 1d3f 0249 243c 810f c43f
00000140: 7f02 f63a 70d3 c23e 2b0a cc3b 8c44 613f
00000150: deab 0a3d 7b5b b840 572c fe3d 7ded 5f41
00000160: 11b0 763c 6ad7 dc3f 00db fb3c 66d2 8c40
00000170: 305e 013e 1048 8f41 2551 a43e b05e 2e42
00000180: bdd8 f33a 3e63 553e 044e 6b3b f2af 073f
00000190: 442d b735 bacf c139 9de7 3c36 7d83 6a3a
000001a0: adeb 433e b6ef db41 750a fa3e af03 8542
000001b0: 686b d63c 2d5c 4f40 b604 683d 7acc 0441
000001c0: c60d 7e3c 18c3 f93f e86b 053d c036 9d40
000001d0: 8eb2 3d3c 2ad5 e23f cfc1 063d 4bba 8f40
000001e0: a5b7 993c f926 1440 c86e 233d de61 bc40
000001f0: a1af 333c 2d64 ac3f b9a6 bb3c de9e 5b40
00000200: 6e8b a63b 8d46 2d3f fc85 3a3c e8ea da3f
00000210: 7dbe 0e3a 1d4c 003e 52fd d33a ae54 8e3e
00000220: 5d12 233e 1030 af41 c83d da3e f55a 5542
00000230: 1955 173e f68c b541 8868 cf3e 5f30 5842
00000240: 87bb 943d a83d 3d41 21ef 663e 4373 e941
00000250: b824 633d a21e 1c41 b708 463e bf01 bb41
00000260: f9af 923d 2038 2f41 e4d6 4b3e 3993 d341
00000270: 3f47 e63b a647 643f c549 7a3c 9f7e 1140
00000280: 01b3 963c 5935 0640 5f8c 143d 37a2 aa40
00000290: b4fe cb3c 5af2 2c40 58d1 3d3d 8817 db40
000002a0: 067c 613d 2724 e340 d857 ff3d fc6e 8f41
000002b0: 33aa 6b3d 6423 0641 0e8e 1e3e c450 a641
000002c0: 50bb 1739 71ae e13c 6239 083a 9985 863d
000002d0: 3ac6 1a3d 3e59 9e40 3e95 af3d 6563 4741
000002e0: 1ea9 eb3b 3f14 5f3f a2fa 793c 2014 0f40
000002f0: eb67 cc33 4062 f635 fccf 7732 bc7f 7836
00000300: ef30 9c3c 0631 6640 7b04 883d c5f4 0741
00000310: 7d84 be3c 016f 7140 9a49 b13d 511b 1441
00000320: dbf0 493d 29f6 0641 e8ed 323e dd22 a141
00000330: 3389 6337 8e3a 053c 4fcd 2938 f02e 813c
00000340: 7ceb 0c3e 0f4f b441 c2b8 d73e 780f 5a42
00000350: f800 153c 9217 c93f 46fd f23c 90bf 7240
00000360: 3ec9 c43d a6d9 2241 5ff9 913e 83ab db41
00000370: f0fa 073d 44d4 e740 3ecc bf3d 7047 8241
00000380: eedc fa3a 7e84 353e 74e6 9c3b 56c7 e73e
00000390: 5f6b d63b 3750 493f 6702 553c 6d2f ff3f
000003a0: 9d05 db3d a484 8e41 cec1 a53e fb35 2942
000003b0: d1f3 423e 2ff0 d741 7fc0 f73e 6f95 8342
000003c0: db27 9c3d 3477 2841 efdf 353e 7fc6 d341
000003d0: ce00 113d 5ada 8f40 d564 9c3d 38b0 3741
000003e0: d483 8c3b ff9a 0f3f 723d 2f3c 27e1 b13f
000003f0: e795 133c ef37 ce3f 32c5 ef3c 7570 7740

exp_avg f4 [64]
0.002388032 -0.15742873 0.051089697 0.1227524 0.0002942181 -0.3579988 -0.024590144 -1.319876
-0.18341757 -0.59966266 -0.46920946 -0.3102764 -0.011990207 0.0633834 -0.28573716 -0.15397626
-0.37104324 -0.14728849 -0.40662074 -0.11167268 0.13409312 0.11934952 -0.15403649 0.037083413
0.059148572 7.350758e-19 -0.62470007 -0.29652244 -0.028385364 -0.24552722 -0.20782681 -0.11983688
0.039022073 0.006720082 -0.49799803 -0.4213365 -0.06953538 0.11224841 -0.2913532 -0.13971625
-0.6455354 -0.70888615 -0.2213613 0.079021186 -0.049681474 -0.10175935 -0.021042261 6.675425e-20
0.29935035 0.08471615 -0.020830642 0.021181986 -0.14173749 -0.13023375 -0.44625276 -1.0718894
0.09229456 -0.14807865 -0.54639304 0.1739873 -0.30807725 -0.2773822 0.11898521 0.09779196
00000000: 8780 1c3b ff34 21be 6e43 513d 9c65 fb3d
00000010: 4941 9a39 9e4b b7be 4571 c9bc b2f1 a8bf
00000020: d1d1 3bbe 7e83 19bf 393c f0be 8cdc 9ebe
00000030: 9372 44bc 28cf 813d 244c 92be f4ab 1dbe
00000040: 61f9 bdbe cbd2 16be 9830 d0be a5b4 e4bd
00000050: b54f 093e 856d f43d bebb 1dbe c7e4 173d
00000060: c645 723d c2f4 5821 58ec 1fbf cad1 97be
00000070: 6c88 e8bc 7d6b 7bbe 8dd0 54be 0a6d f5bd
00000080: 9cd5 1f3d 2234 dc3b 99f9 febe 6bb9 d7be
00000090: 9168 8ebd 7fe2 e53d 3f2c 95be c711 0fbe
000000a0: cf41 25bf 9079 35bf 89ac 62be dcd5 a13d
000000b0: cd7e 4bbd 3567 d0bd d260 acbc 789e 9d1f
000000c0: 7344 993e a97f ad3d 06a5 aabc d885 ad3c
000000d0: a223 11be ff5b 05be 3e7b e4be ac33 89bf
000000e0: ee04 bd3d eea1 17be 6ae0 0bbf ba29 323e
000000f0: 4dbc 9dbe 0a05 8ebe 85ae f33d 2747 c83d

exp_avg_sq f4 [64]
0.00054589706 12.21719 3.155089 1.587934 0.00025298397 16.936913 5.366667 13.517738
1.5651393 2.8601668 0.89389324 4.562191 0.05277769 0.5223258 1.2726643 4.9064975
4.6894517 0.6798355 2.4043725 0.5644659 0.1915842 3.9652395 1.1307474 11.549063
0.15132247 0.000482584 17.639938 2.165214 1.137685 1.1742334 1.444592 0.848274
0.4435677 0.053685162 15.231112 14.477371 7.983512 6.379009 7.0320926 0.69091356
1.5316126 1.9849365 4.3605003 5.248547 0.016190792 2.9588149 0.5158492 3.9903123e-05
2.074891 2.771288 5.935429 0.013701917 14.873738 0.96101004 10.337431 3.827473
0.16510266 0.5497187 11.456042 17.84473 6.4380345 2.8668675 0.36413205 0.93809325
00000000: 881a 0f3a 9c79 4341 faec 4940 6c41 cb3f
00000010: efa2 8439 cc7e 8741 bcbb ab40 a848 5841
00000020: 7c56 c83f f90c 3740 30d6 643f 78fd 9140
00000030: 6b2d 583d 25b7 053f aae6 a23f 0702 9d40
00000040: fd0f 9640 b309 2e3f 3de1 1940 d680 103f
00000050: a62e 443e 7cc6 7d40 55bc 903f f6c8 3841
00000060: 47f4 1a3e 5403 fd39 981e 8d41 de92 0a40
00000070: a99f 913f 484d 963f 64e8 b83f 7c28 593f
00000080: 4e1b e33e f9e4 5b3d a2b2 7341 50a3 6741
00000090: ee78 ff40 d720 cc40 e706 e140 b6df 303f
000000a0: e20b c43f 6612 fe3f 3889 8b40 19f4 a740
000000b0: 8da2 843c 395d 3d40 b10e 043f a75d 2738
000000c0: 04cb 0440 c85c 3140 09ef bd40 017e 603c
000000d0: d5fa 6d41 c104 763f 1e66 2541 51f5 7440
000000e0: ac10 293e 5dba 0c3f f34b 3741 02c2 8e41
000000f0: 6104 ce40 c27a 3740 846f ba3e e126 703f

exp_avg f4 [64, 64]
1.9858854e-21 -0.026752507 -0.014817272 -0.005913922 2.9660853e-21 -0.016699249 -0.0031903884 0.0067999293
-7.305006e-05 0.0028913154 -0.00033436893 -0.0011127688 -0.016309628 -0.0009365553 0.0011565366 -0.0022999672
0.0010036883 -8.17966e-05 -0.00023564853 0.0006407978 -0.013207559 -0.0029915408 0.0015471489 -0.0065464284
-0.0001839091 5.919217e-21 -0.0113245305 -0.00010935002 9.084412e-19 4.221245e-19 9.767565e-19 1.1395366e-18
7.337314e-19 0.0017084789 -0.010703767 -0.012991729 -0.009274397 -0.006144086 -0.0058717136 4.4104593e-19
0.0017608166 0.0035243526 -0.0013422044 -0.0031225435 -0.0024916416 0.0014825184 6.6973226e-19 2.4820608e-22
-0.020108167 -0.009067101 -0.009630659 0.00022329872 -0.00862573 -0.00084370497 -0.004192659 0.0026830607
3.4834093e-19 8.6644693e-19 -0.009971203 -0.031343076 -0.0037157575 7.75135e-19 -0.0015963918 -0.00019173071
-2.6105346e-05 0.023369033 0.013895848 0.031097742 -1.2622703e-06 0.0145977605 -0.01949978 -0.021234006
-0.012063681 -0.03483507 -0.019594911 0.0004465909 0.040397003 -0.007426013 -0.032511182 0.0062857443
-0.022919353 -0.042902008 -0.028601207 -0.020572608 0.031124014 -0.007629379 -0.0061101224 0.0120272245
-0.0077542043 -2.883104e-21 0.008092284 -0.026035652 -0.02819415 -0.019414736 -0.035571445 -0.032877546
-0.021521468 -0.0008977056 0.008644166 0.007989862 0.008930466 0.002478109 0.0020944946 -0.01961914
-0.035815213 -0.03943217 -0.007198112 0.0007993855 0.007167124 -0.018296713 -0.024977671 -6.899977e-23
0.050036658 0.017009733 0.009872769 -0.0008061115 0.0076479116 -0.0054212273 0.0045403405 -0.019896982
-0.0070494013 -0.04076548 0.0055342633 0.029272974 -0.0031673592 -0.025716078 -0.003243824 -0.004031244
-5.9347884e-05 -0.014990396 -0.012486891 -0.026029302 -2.9071832e-06 -0.04676089 -0.039286327 -0.02900801
-0.013765208 -0.05122299 -0.026059443 -0.023953876 -0.008765595 -0.014663154 -0.05009789 -0.01771703
-0.038101498 -0.06686018 -0.041954305 -0.031175576 -0.001264844 -0.037024092 -0.0075411755 -0.008695142
-0.011607255 6.296529e-22 -0.038266823 -0.055640128 -0.04532472 -0.030395452 -0.05852414 -0.04319216
-0.048632238 -0.002247626 -0.03578716 -0.044676855 -0.023617322 -0.021351526 -0.02275316 -0.031132495
-0.045595367 -0.049159568 -0.01932796 -0.0072783693 -0.0026188027 -0.030484421 -0.038800508 -3.1770723e-22
-0.0025148417 -0.0076059694 -0.03883741 -0.0012322618 -0.023107393 -0.01061432 -0.040649083 -0.024826057
-0.010820347 -0.0668378 -0.039769113 -0.015439476 -0.023338594 -0.05609863 -0.011803044 -0.0125268
-5.1531686e-05 -0.047461506 -0.03199378 -0.069659956 -2.5526913e-06 -0.08106306 -0.014861103 -0.038454816
-0.0071322834 -0.016975943 -0.0049770423 -0.03251099 -0.060947165 -0.0060610333 -0.017912993 -0.024259048
-0.018793797 -0.022707101 -0.0113349715 -0.009906275 -0.037953265 -0.041036937 0.005050704 -0.026980443
-0.0042452216 -1.123877e-21 -0.056054696 -0.02759551 -0.015202162 -0.009845886 -0.022404702 -0.024436785
-0.025537876 -0.0029083516 -0.05696292 -0.069350146 -0.034746706 -0.040547118 -0.031670205 -0.01112186
-0.012823214 -0.016639292 -0.013818599 -0.009810619 -0.009743808 -0.016553288 -0.013225677 -1.4048806e-22
-0.0689514 -0.03224883 -0.07124235 -0.0005446287 -0.04308821 -0.0056876494 -0.055287644 -0.016384007
-0.0040257936 -0.02684197 -0.06096859 -0.04479578 -0.028939666 -0.02904235 -0.010087749 -0.013669096
00000000: 9c0c 161d 1328 dbbc 25c4 72bc 93c9 c1bb
00000010: 6f1c 601d ddcc 88bc d615 51bb f1d1 de3b
00000020: 7432 99b8 397c 3d3b 3d4e afb9 53da 91ba
00000030: c59b 85bc 2a83 75ba ee96 973a 0cbb 16bb
00000040: 318e 833a 378a abb8 6c18 77b9 36fb 273a
00000050: 8464 58bc ba0d 44bb b4c9 ca3a 6c83 d6bb
00000060: b9d7 40b9 279f df1d 868a 39bc d852 e5b8
00000070: f00f 8621 a72d f920 d124 9021 7a2a a821
00000080: 2d8f 5821 0aef df3a da5e 2fbc 43db 54bc
00000090: a4f3 17bc 5454 c9bb 8167 c0bb 7d2c 0221
000000a0: 33cb e63a d3f8 663b e8ec afba 96a3 4cbb
000000b0: cf4a 23bb 1051 c23a 8aab 4521 0808 961b
000000c0: e2b9 a4bc 2e8e 14bc e9c9 1dbc 4b25 6a39
000000d0: ef52 0dbc 152c 5dba 9362 89bb 4ad6 2f3b
000000e0: cb9f cd20 e1ba 7f21 425e 23bc 9961 00bd
000000f0: 1184 73bb 8bc7 6421 053e d1ba 520b 49b9
00000100: cefc dab7 6a70 bf3c 69ab 633c b1c0 fe3c
00000110: 476b a9b5 722b 6f3c 01be 9fbc f0f2 adbc
00000120: bfa6 45bc 38af 0ebd 8285 a0bc 6a24 ea39
00000130: 5477 253d e955 f3bb 722a 05bd a5f8 cd3b
00000140: 5ec1 bbbc 04ba 2fbd 144d eabc e387 a8bc
00000150: caf7 fe3c dfff f9bb 6c37 c8bb d60d 453c
00000160: fb16 febb 58d7 599d 8095 043c b848 d5bc
00000170: 6bf7 e6bc a70b 9fbc 5db3 11bd 9baa 06bd
00000180: ca4d b0bc 0154 6bba 43a0 0d3c e9e7 023c
00000190: 1751 123c c567 223b ca43 093b 52b8 a0bc
000001a0: f9b2 12bd a183 21bd 24de ebbb da8d 513a
000001b0: 32da ea3b fde2 95bc f99d ccbc cad4 a69a
000001c0: 3df3 4c3d ff57 8b3c 65c1 213c 3a51 53ba
000001d0: 559b fa3b 8da4 b1bb 23c7 943b fffe a2bc
000001e0: aafe e6bb b4f9 26bd c458 b53b e0cd ef3c
000001f0: 7893 4fbb 86aa d2bc 5696 54bb 8718 84bb
00000200: 4eec 78b8 479a 75bc d195 4cbc 673b d5bc
00000210: 0719 43b6 5988 3fbd b3ea 20bd 35a2 edbc
00000220: 7887 61bc 33cf 51bd 9d7a d5bc eb3a c4bc
00000230: 929d 0fbc ba3d 70bc 7233 4dbd 4e23 91bc
00000240: 5110 1cbd fded 88bd 47d8 2bbd ec63 ffbc
00000250: 1fc9 a5ba 93a6 17bd f71b f7bb 1276 0ebc
00000260: 5b2c 3ebc 094d 3e1c acbd 1cbd e7e6 63bd
00000270: 6aa6 39bd e2ff f8bc 02b7 6fbd 43ea 30bd
00000280: 9932 47bd e84c 13bb 8f95 12bd 14ff 36bd
00000290: 1d79 c1bc 65e9 aebc d664 babc 9309 ffbc
000002a0: 35c2 3abd 8b5b 49bd ac55 9ebc 637f eebb
000002b0: 38a0 2bbb 77ba f9bc 48ed 1ebd d00a c09b
000002c0: 0bd0 24bb 7f3b f9bb fa13 1fbd d883 a1ba
000002d0: b74b bdbc afe7 2dbc a77f 26bd 0460 cbbc
000002e0: d347 31bc 42e2 88bd f0e4 22bd dbf5 7cbc
000002f0: 9430 bfbc adc7 65bd 8e61 41bc 353d 4dbc
00000300: ba23 58b8 ff66 42bd e90b 03bd e1a9 8ebd
00000310: e74e 2bb6 6404 a6bd fc7b 73bc cc82 1dbd
00000320: eeb5 e9bb 2211 8bbc 7516 a3bb 3e2a 05bd
00000330: bca3 79bd a29b c6bb 45be 92bc e9ba c6bc
00000340: 73f5 99bc 3e04 babc 51b6 39bc ee4d 22bc
00000350: e274 1bbd 5916 28bd 6080 a53b 1706 ddbc
00000360: 801b 8bbb e3d5 a99c 9c99 65bd fb0f e2bc
00000370: 7d12 79bc a450 21bc 118a b7bc a72f c8bc
00000380: cf34 d1bc 0b9a 3ebb f351 69bd 7307 8ebd
00000390: 9052 0ebd bc14 26bd 9eb8 01bd 7638 36bc
000003a0: 7518 52bc 204f 88bc 6867 62bc b8bc 20bc
000003b0: 7ea4 1fbc c39a 87bc 83b0 58bc f3d6 299b
000003c0: 6436 8dbd 5917 04bd 82e7 91bd 6ac5 0eba
000003d0: 437d 30bd 765f babb 4c75 62bd c137 86bc
000003e0: ceea 83bb b1e3 dbbc 33ba 79bd c87b 37bd
000003f0: e112 edbc 39ea edbc 1647 25bc 58f4 5fbc

exp_avg_sq f4 [64, 64]
1.9635995e-07 0.0056441943 0.0026201424 0.0041765305 3.2701095e-07 0.009355119 0.00020916933 0.0064254194
1.7889393e-05 2.4840003e-05 1.7933146e-05 0.0010363812 0.0078876875 2.0420683e-05 4.436261e-05 0.0011457778
0.000110318906 0.00012629612 4.1506784e-05 2.1394982e-05 0.0039211507 0.0015530863 2.3331213e-05 0.00258359
1.318179e-05 2.3002576e-07 0.0042284834 6.461551e-05 0.00012702149 3.4268305e-05 0.00020203748 0.0002142913
8.544828e-05 1.68135e-05 0.0046754885 0.007463146 0.0017346579 0.0023693577 0.001662626 4.1125124e-05
3.61476e-05 4.849929e-05 0.00010359357 0.0011555733 6.677509e-05 0.00010128425 6.6906396e-05 1.0956079e-08
0.013585473 0.003729927 0.0067548365 3.342171e-06 0.0026206952 0.00010538455 0.0023392034 0.001360568
4.1311883e-05 0.00011886982 0.005268037 0.005062625 0.0008294814 8.769031e-05 0.00012917414 0.0003211856
6.621088e-08 0.015517213 0.0067234943 0.011122601 3.5733876e-09 0.024641963 0.03141554 0.01597257
0.028892037 0.06611213 0.021940885 0.0027011284 0.019290715 0.011231402 0.08591843 0.0035854254
0.04102383 0.15933141 0.06382929 0.032601386 0.00950747 0.004218591 0.037493467 0.0070206807
0.014605432 1.3298334e-08 0.01159059 0.12104747 0.11292757 0.034447797 0.1735185 0.23446298
0.12994263 2.0712247e-05 0.012541539 0.02108525 0.005208645 0.0061576595 0.0047568856 0.04454234
0.061370254 0.040460046 0.01251721 0.013842092 0.00019025157 0.022254648 0.08483703 8.393719e-12
0.032872282 0.009339587 0.017488653 1.8002633e-05 0.0071207946 0.00030591834 0.0070203384 0.0032767197
0.009801509 0.17034319 0.014339946 0.014816758 0.007702225 0.15359904 0.0042538773 0.00131912
3.5923836e-07 0.010564106 0.002960876 0.0032962218 1.10220654e-07 0.01468477 0.046674155 0.012760369
0.035306472 0.09233564 0.03105403 0.0015669578 0.0073072882 0.01343906 0.11785986 0.002270967
0.05683295 0.22431657 0.095980585 0.04863947 0.0031996428 0.003977708 0.056355964 0.004588723
0.027555041 5.81016e-08 0.007619488 0.1805737 0.15005098 0.03246047 0.25870165 0.35022274
0.17794617 2.7524311e-05 0.0076214094 0.014510142 0.0031570266 0.0039183786 0.0033607224 0.05123171
0.095444895 0.079703905 0.018209385 0.020716617 1.9878513e-05 0.03364087 0.123515986 4.2535033e-09
0.011215532 0.004830197 0.011775462 6.520762e-05 0.005311431 0.00025757443 0.0047611673 0.002106232
0.014181694 0.25086117 0.010126005 0.009207873 0.010929909 0.21213497 0.006121687 0.0013613211
2.3695176e-07 0.010762971 0.0035155767 0.00837087 1.01806386e-08 0.016515592 0.036816362 0.011344128
0.029211774 0.0759424 0.027433332 0.0016705998 0.008778796 0.010316159 0.101988606 0.00325127
0.045035448 0.16867861 0.068787545 0.037055034 0.0040280027 0.0035863349 0.043911755 0.005002695
0.020561086 3.2096472e-07 0.00831712 0.14737998 0.13528481 0.027544573 0.21017204 0.27975038
0.14174546 2.3078797e-05 0.008526842 0.015191555 0.0034370436 0.0041518807 0.0034226417 0.041766774
0.07005611 0.05132564 0.01480906 0.016514696 0.000119425815 0.027621277 0.09730222 3.479679e-11
0.014578102 0.0054342276 0.012130331 5.1033472e-05 0.005296984 0.00020994773 0.0065677855 0.0019834002
0.011487086 0.198785 0.010500789 0.0101681715 0.009046873 0.1745942 0.0046817586 0.0011159318
00000000: 03d7 5234 eff2 b83b b2b6 2b3b 47db 883b
00000010: 0b90 af34 3746 193c 7754 5b39 538c d23b
00000020: 2e11 9637 805f d037 236f 9637 2fd7 873a
00000030: 5c3b 013c 154d ab37 fd11 3a38 ec2d 963a
00000040: 035b e738 5b6e 0439 9217 2e38 6079 b337
00000050: ff7c 803b ee90 cb3a 66b7 c337 7351 293b
00000060: 5b27 5d37 00fd 7634 178f 8a3b 3082 8738
00000070: 1231 0539 50bb 0f38 06da 5339 62b3 6039
00000080: b232 b338 b70a 8d37 d734 993b 688d f43b
00000090: 765d e33a 3a47 1b3b 79ec d93a c47d 2c38
000000a0: 319d 1738 b76b 4b38 6040 d938 9b76 973a
000000b0: 9a09 8c38 9168 d438 1950 8c38 5839 3c32
000000c0: 9b95 5e3c ca71 743b ad57 dd3b 104a 6036
000000d0: f8bf 2b3b e601 dd38 524d 193b 1655 b23a
000000e0: 4c46 2d38 c049 f938 7f9f ac3b 60e4 a53b
000000f0: 8e71 593a 60e6 b738 eb72 0739 cd64 a839
00000100: d12f 8e33 e93b 7e3c c250 dc3b 923b 363c
00000110: b38f 7531 f1dd c93c 95ad 003d e8d8 823c
00000120: feae ec3c cc65 873d 5fbd b33c 6a05 313b
00000130: 9007 9e3c ea03 383c 00f6 af3d 75f9 6a3b
00000140: 9b08 283d c627 233e eeb8 823d 0889 053d
00000150: 38c5 1b3c 1b3c 8a3b c092 193d bd0d e63b
00000160: 9f4b 6f3c b176 6432 75e6 3d3c bce7 f73d
00000170: 9246 e73d 2219 0d3d d5ae 313e 1017 703e
00000180: ae0f 053e 36bf ad37 077b 4d3c f9ba ac3c
00000190: 48ad aa3b 31c6 c93b a6df 9b3b 0772 363d
000001a0: 605f 7b3d 6fb9 253d fc14 4d3c f1c9 623c
000001b0: 447e 4739 614f b63c 09bf ad3d f3a9 132d
000001c0: 16a5 063d 1105 193c 5d44 8f3c 5c04 9737
000001d0: 8e55 e93b aa63 a039 de0a e63b 3cbe 563b
000001e0: 8296 203c 726e 2e3e 18f2 6a3c fdc1 723c
000001f0: f262 fc3b 1149 1d3e 1c64 8b3b 53e6 ac3a
00000200: 58dd c034 1215 2d3c 420b 423b 6d05 583b
00000210: 72b2 ec33 6498 703c 662d 3f3d de10 513c
00000220: 859d 103d 781a bd3d 0565 fe3c 6162 cd3a
00000230: fa71 ef3b 812f 5c3c 8360 f13d 81d4 143b
00000240: abc9 683d 3eb3 653e 7891 c43d 2e3a 473d
00000250: 19b1 513b 6f57 823b 83d5 663d 005d 963b
00000260: 1cbb e13c 638b 7933 e6ac f93b 50e8 383e
00000270: f7a6 193e 45f5 043d 8b74 843e 6550 b33e
00000280: 8537 363e 02e4 e637 04bd f93b f2bb 6d3c
00000290: 1ee6 4e3b be65 803b 913f 5c3b 57d8 513d
000002a0: 9d78 c33d cd3b a33d d92b 953c e5b5 a93c
000002b0: c8c0 a637 02cb 093d f3f5 fc3d 3626 9231
000002c0: 5ac1 373c a146 9e3b deed 403c 13c0 8838
000002d0: 830b ae3b 0e0b 8739 9103 9c3b b608 0a3b
000002e0: 565a 683c e070 803e 8be7 253c 9edc 163c
000002f0: 5c13 333c e939 593e 6f98 c83b 5b6e b23a
00000300: ce6c 7e34 2c57 303c 9765 663b f925 093c
00000310: ece6 2e32 b54b 873c c1cc 163d b9dc 393c
00000320: 884d ef3c b087 9b3d debb e03c 07f8 da3a
00000330: f0d4 0f3c 1b05 293c 67df d03d 4213 553b
00000340: 1777 383d 16ba 2c3e 7ce0 8c3d 05c7 173d
00000350: 56fd 833b b708 6b3b d0dc 333d a6ed a33b
00000360: b96f a83c 0e51 ac34 8844 083c c7ea 163e
00000370: 1a88 0a3e 28a5 e13c 5737 573e 713b 8f3e
00000380: b925 113e 5799 c137 2bb4 0b3c 00e6 783c
00000390: 0640 613b 800c 883b 664e 603b a313 2b3d
000003a0: 9479 8f3d d63a 523d b3a1 723c d449 873c
000003b0: 3f74 fa38 0446 e23c 6346 c73d b409 192e
000003c0: fed8 6e3c 9b11 b23b 4cbe 463c c60c 5638
000003d0: 5392 ad3b 6a25 5c39 9436 d73b effb 013b
000003e0: 5534 3c3c 4c8e 4b3e 800b 2c3c 6798 263c
000003f0: 5639 143c d2c8 323e 7069 993b 7544 923a

exp_avg f4 [64]
-0.012347296 -0.045186654 -0.14925127 -0.14021336 0.00011611779 -0.087572776 -0.04025713 0.116142616
9.699052e-18 -0.23466381 2.1085373e-09 -0.028469188 0.004650317 1.06065495e-11 -0.14505583 -0.0407021
-3.4811222e-08 -0.17707515 5.4335327e-18 0.022046933 -0.18833886 -0.09874675 6.0175954e-17 -0.120131254
2.0238609e-07 -0.004556419 -0.0885954 -0.104743056 -0.1789947 0.008886104 0.003877249 1.3955741e-06
4.5280397e-11 0.006827394 -0.12715067 2.8134523e-14 -0.10444821 0.007666269 -0.001046176 -2.056328e-10
1.9071987e-14 -0.10379962 8.782017e-15 0.023782948 -0.015514039 -0.068843305 0.032040585 0.015393873
0.057709232 -0.23939396 0.047072325 3.5276055e-13 0.0014004838 -0.19593236 0.1080769 -0.011076376
1.6060525e-08 0.04678374 3.2997712e-13 -0.083373144 0.018244687 1.6125058e-10 6.1859465e-17 -0.047229685
00000000: 504c 4abc a415 39bd 53d5 18be 1794 0fbe
00000010: 4484 f338 5b59 b3bd a9e4 24bd 2edc ed3d
00000020: 7aea 3223 b64b 70be c8e5 1031 3738 e9bc
00000030: b061 983b a797 3a2d 8489 14be 3fb7 26bd
00000040: 5883 15b3 3053 35be 4476 c822 c59b b43c
00000050: e7db 40be bc3b cabd 9dc1 8a24 6007 f6bd
00000060: 774f 5934 034e 95bb 8171 b5bd 8783 d6bd
00000070: 634a 37be 0697 113c 7219 7e3b 904f bb35
00000080: 3225 472e 55b8 df3b c933 02be cb69 fd28
00000090: f1e8 d5bd 5335 fb3b d71f 89ba 7d18 62af
000000a0: 02c9 ab28 e594 d4bd e833 1e28 75d4 c23c
000000b0: 992e 7ebc b8fd 8cbd fd3c 033d 9536 7c3c
000000c0: 8460 6c3d b123 75be e9ce 403d 2796 c62a
000000d0: 7090 b73a 7ea2 48be 6c57 dd3d b079 35bc
000000e0: 78f5 8932 4fa0 3f3d b7c2 b92a 8abf aabd
000000f0: e275 953c 014c 312f 62a3 8e24 ea73 41bd

exp_avg_sq f4 [64]
0.02076058 0.18944813 0.27940366 0.23371208 0.00093016634 0.11672793 0.14191857 0.72677594
0.00016362485 0.859151 0.00090060936 0.0023041638 0.14991687 0.00088985974 0.44250292 0.14195828
2.6962789e-05 0.7578826 0.0005201287 1.0774306 0.7368494 0.11896542 0.0016476683 0.6614924
0.00075337675 0.1412146 0.9151489 0.37161765 0.93661755 0.006279444 0.36973053 0.0077516353
0.000856742 0.10856766 1.421484 0.0015801282 0.49861032 0.006316192 0.20100027 0.05065476
0.0013476309 0.12908784 0.00096017617 0.18913034 0.22410604 0.0025319688 0.98834246 0.0028368938
0.6156367 0.6871875 0.6419772 0.00059688406 0.0017043018 0.8257823 0.31431064 1.2692825
0.0050028116 0.119054034 0.0037900137 0.4366925 0.78507096 0.0037668792 0.001684813 0.07553342
00000000: 1812 aa3c b1fe 413e ff0d 8f3e 3852 6f3e
00000010: 68d6 733a 0e0f ef3d 1a53 113e fd0d 3a3f
00000020: b692 2b39 52f1 5b3f df16 6c3a 7401 173b
00000030: cf83 193e 7a45 693a be8f e23e 835d 113e
00000040: 262e e237 9804 423f 3f59 083a 3fe9 893f
00000050: 2aa2 3c3f 24a4 f33d 93f6 d73a 9157 293f
00000060: 427e 453a 8f9a 103e 3347 6a3f ab44 be3e
00000070: 2bc6 6f3f cbc3 cd3b 524d bd3e 6e01 fe3b
00000080: fb96 603a b958 de3d 30f3 b53f 4e1c cf3a
00000090: da49 ff3e 0ff8 ce3b 04d3 4d3e 5e7b 4f3d
000000a0: fda2 b03a 9a2f 043e 55b4 7b3a 62ab 413e
000000b0: 0e7c 653e 63ef 253b 0304 7d3f 2eeb 393b
000000c0: 5e9a 1d3f 85eb 2f3f 9e58 243f 3678 1c3a
000000d0: e162 df3a 7866 533f 53ed a03e d977 a23f
000000e0: a0ee a33b 9ad2 f33d e161 783b 2996 df3e
000000f0: 69fa 483f bfdd 763b f1d4 dc3a 44b1 9a3d
