gen_2_agent_2.pt (torch, 64207 bytes, 18 tensors)

net.0.weight f4 [64, 4]
0.0655084 0.1452938 0.10869806 -0.22485887 0.07627401 0.09201749 0.12223434 0.28726175
-0.2838639 -0.2249032 -0.14747597 0.021271342 0.27909037 0.1993838 -0.036687065 -0.20159818
-0.24046083 -0.16913147 0.034416273 -0.25333536 0.100237556 0.034876145 0.10659576 -0.19105925
-0.059113923 -0.24861181 -0.2690361 0.30339345 -0.13381895 0.04974139 0.14972818 -0.14495958
0.16425271 -0.30778667 -0.028344717 0.30276352 0.16320933 0.2528291 0.27188587 0.29217687
0.1534801 -0.010688326 0.06350154 -0.27757725 -0.27504748 0.063730404 0.1028283 0.11699936
0.18849188 -0.1608571 -0.0048574964 -0.2456081 -0.2801369 0.079716906 0.22632922 0.24514252
0.09299572 0.14323768 -0.08087208 -0.22388591 -0.2727531 -0.05455643 0.019153163 0.17871498
-0.15778519 0.29470536 -0.05396535 0.23347329 0.20863657 -0.24166246 -0.10203498 -0.17582265
0.17506619 -0.2187692 0.0100236675 -0.122950725 -0.29118705 -0.12287252 0.24183036 -0.22177099
0.095088236 -0.2439328 -0.29611623 -0.21193941 0.08281032 -0.07481047 0.096161015 -0.05845747
0.069768816 0.116593644 0.1612807 -0.15598367 -0.2806319 0.099640265 -0.0860997 0.25794324
-0.13698216 -0.15136321 0.255697 -0.19791105 0.17486061 -0.105737805 0.2423965 -0.26042074
0.24069442 -0.14815821 -0.23184891 0.26601416 0.18071449 -0.03806165 -0.1725629 0.10842023
-0.1600801 -0.21254914 0.12440887 -0.05765046 0.18617776 -0.22132978 -0.19078061 0.0005013219
-0.24165477 -0.2959464 0.2501393 -0.22905847 0.13372737 -0.1864405 -0.21252856 -0.16961013
0.28233263 -0.02025202 -0.2640644 -0.2891736 0.023161111 0.12351256 -0.06222265 -0.29655838
-0.2181047 0.22793855 -0.20646 0.26088303 -0.06386694 -0.21165928 0.073686615 -0.015794309
0.043884557 0.15870333 0.07896932 0.14536767 -0.17705387 -0.06728326 0.07679964 -0.103756875
-0.026103394 -0.088257015 -0.27877995 -0.15138476 -0.27934495 -0.17269953 -0.15548787 0.25802118
0.06493392 0.106300935 -0.27434507 0.09533712 0.10117599 0.2293832 -0.30355668 0.0710883
-0.23104379 0.22060388 0.017460681 0.2844499 0.07424275 -0.06385855 0.051766254 -0.28566688
-0.014997415 0.2308606 0.1085232 0.06421836 0.24459496 0.16721715 -0.10663196 -0.17604886
-0.13474356 -0.24349225 -0.08104268 -0.116747215 0.18769284 0.11516438 0.1869294 0.16311836
0.04650941 0.21424101 -0.20581788 -0.032103375 0.26757637 -0.024962738 -0.13400206 0.18786556
0.066782854 -0.32398728 0.13158515 -0.060756996 -0.09066181 0.19559221 0.16425496 0.2573839
0.23249283 -0.11892281 0.033174668 0.01660298 -0.23381957 -0.23416549 0.14274964 0.040760443
-0.2007895 0.17697164 0.27178818 0.054751065 -0.01599805 -0.114144705 -0.08731201 0.027067669
-0.12059419 -0.21017805 0.21049958 -0.21495433 -0.10245931 -0.19021428 -0.2901755 -0.08746527
0.23742783 -0.21122839 -0.0056520267 0.06309787 0.16100691 0.019054554 -0.08884907 -0.24005045
0.28448167 -0.23034315 -0.22738771 0.08753953 -0.21215262 0.23697917 0.20155853 0.115668215
-0.12109753 0.095726065 0.03619436 0.113016136 -0.075046875 0.1129359 0.123435356 0.18913625
00000000: 4529 863d e6c7 143e 179d de3d 6741 66be
00000010: 8c35 9c3d aa73 bc3d ff55 fa3d f913 933e
00000020: 9c56 91be 064d 66be f103 17be 3d41 ae3c
00000030: efe4 8e3e 442b 4c3e 2d45 16bd c16f 4ebe
00000040: 5d3b 76be cd30 2dbe 14f8 0c3d 2cb5 81be
00000050: 5949 cd3d 4ada 0e3d e14e da3d 09a5 43be
00000060: 7121 72bd 1894 7ebe 1abf 89be 6356 9b3e
00000070: d607 09be a1bd 4b3d 5852 193e 4970 14be
00000080: dd31 283e 3796 9dbe 2e33 e8bc d203 9b3e
00000090: 5920 273e d172 813e a034 8b3e 3598 953e
000000a0: e329 1d3e 171e 2fbc 180d 823d 9b1e 8ebe
000000b0: 06d3 8cbe 1685 823d a597 d23d 5c9d ef3d
000000c0: 0404 413e b9b7 24be a22b 9fbb b180 7bbe
000000d0: 1b6e 8fbe 9e42 a33d d9c2 673e a406 7b3e
000000e0: 8a74 be3d e6ac 123e 43a0 a5bd 5942 65be
000000f0: 4ba6 8bbe 9076 5fbd 18e7 9c3c 0f01 373e
00000100: 7192 21be 9fe3 963e c50a 5dbd 9f13 6f3e
00000110: d3a4 553e 5d76 77be b7f7 d0bd da0a 34be
00000120: 8d44 333e 0805 60be 4f3a 243c 97cd fbbd
00000130: 7816 95be 96a4 fbbd 61a2 773e ef17 63be
00000140: 9fbd c23d 85c9 79be 8c9c 97be a506 59be
00000150: 7598 a93d 3b36 99bd 11f0 c43d 1a71 6fbd
00000160: f4e2 8e3d a6c8 ee3d c526 253e 2fba 1fbe
00000170: fcae 8fbe 3210 cc3d 0a55 b0bd 2311 843e
00000180: 0d45 0cbe f5fe 1abe b8ea 823e 32a9 4abe
00000190: a90e 333e 108d d8bd ca36 783e de55 85be
000001a0: 9978 763e c9b6 17be cd69 6dbe 0233 883e
000001b0: 380d 393e 88e6 1bbd 54b4 30be 6d0b de3d
000001c0: 0aec 23be 7ba6 59be 14ca fe3d e422 6cbd
000001d0: 62a5 3e3e 46a4 62be fe5b 43be 256b 033a
000001e0: 5974 77be 4986 97be 4212 803e 4e8e 6abe
000001f0: d4ef 083e 42ea 3ebe 16a1 59be 47ae 2dbe
00000200: e78d 903e 90e7 a5bc 7333 87be 900e 94be
00000210: 5fbc bd3c 27f4 fc3d 2ddd 7ebd 80d6 97be
00000220: d756 5fbe b968 693e 406a 53be 7692 853e
00000230: accc 82bd 36bd 58be 02e9 963d 1163 81bc
00000240: 4bc0 333d 2083 223e abba a13d 43db 143e
00000250: 9c4d 35be cecb 89bd 2149 9d3d 7c7e d4bd
00000260: c9d6 d5bc 18c0 b4bd 3fbc 8ebe 9b04 1bbe
00000270: 4d06 8fbe 25d8 30be 3638 1fbe 5a1b 843e
00000280: 13fc 843d 4eb4 d93d f576 8cbe 1c40 c33d
00000290: 5c35 cf3d 6ee3 6a3e c86b 9bbe be96 913d
000002a0: be96 6cbe fce5 613e b409 8f3c 6ba3 913e
000002b0: 950c 983d 45c8 82bd da08 543d ee42 92be
000002c0: b8b7 75bc b966 6c3e 6941 de3d ea84 833d
000002d0: 1a77 7a3e f93a 2b3e db61 dabd 2746 34be
000002e0: 37fa 09be 0856 79be b4f9 a5bd 2a19 efbd
000002f0: 8d32 403e 4ddb eb3d 6c6a 3f3e 8008 273e
00000300: a780 3e3d ff61 5b3e ecc1 52be d47e 03bd
00000310: c5ff 883e a87e ccbc d637 09be d45f 403e
00000320: 73c5 883d a9e1 a5be 42be 063e 54dc 78bd
00000330: e6ac b9bd 5349 483e 7432 283e d3c7 833e
00000340: 9a12 6e3e cd8d f3bd 29e2 073d f902 883c
00000350: 666e 6fbe 14c9 6fbe f62c 123e 6cf4 263d
00000360: c39b 4dbe 0e38 353e d227 8b3e a742 603d
00000370: 580e 83bc b3c4 e9bd a4d0 b2bd 04bd dd3c
00000380: 16fa f6bd ea38 57be 348d 573e fd1c 5cbe
00000390: 30d6 d1bd 88c7 42be e291 94be fe20 b3bd
000003a0: 4820 733e 414c 58be a334 b9bb 7539 813d
000003b0: ffde 243e 4c18 9c3c 80f6 b5bd c9cf 75be
000003c0: 95a7 913e 13df 6bbe 53d8 68be ed47 b33d
000003d0: 893e 59be abaa 723e 5c65 4e3e 75e3 ec3d
000003e0: fb01 f8bd 070c c43d 8a40 143d 0175 e73d
000003f0: 2db2 99bd f04a e73d adcb fc3d efac 413e

net.0.bias f4 [64]
-0.0011701141 0.037932437 -0.017012212 0.013084176 -0.0050053806 0.013112099 0.045831922 0.0003752113
0.05016796 0.044059053 -0.0045260456 0.018554727 -0.00920445 0.029895883 -0.0072220094 0.04291085
-0.0198375 0.01687536 0.008671831 0.0113735655 0.013294417 -0.006932726 -0.005305488 0.0254728
0.005784239 0.0150706535 0.04913709 -0.028938835 0.021714376 -0.026730126 0.015460774 -0.011519176
-0.008754585 0.013748271 0.016775755 0.03194079 0.040946055 0.01843492 -0.0037263697 0.048151877
-0.0006198174 0.009154132 0.0162578 -0.0040287897 -0.008386764 -0.003934237 0.034414448 -0.0065469174
0.0102100205 -0.022049977 0.041026227 0.032186378 0.04757111 0.04601243 -0.006344803 -0.0025657825
-0.0062710457 0.036839835 0.013560843 -0.0069719586 0.019701451 0.023148775 -0.019800885 0.015459852
00000000: 845e 99ba 0b5f 1b3d 325d 8bbc 035f 563c
00000010: 2d04 a4bb 21d4 563c 41ba 3b3d 02b8 c439
00000020: eb7c 4d3d 4477 343d 394f 94bb 1500 983c
00000030: 43ce 16bc 36e8 f43c 9ba6 ecbb 4ac3 2f3d
00000040: 4182 a2bc 323e 8a3c 4c14 0e3c 3158 3a3c
00000050: d4d0 593c ec2b e3bb a9d9 adbb 55ac d03c
00000060: b789 bd3b e7ea 763c f943 493d 2311 edbc
00000070: 59e2 b13c 23f9 dabc 304f 7d3c edba 3cbc
00000080: 646f 0fbc 6e40 613c 4f6d 893c 59d4 023d
00000090: 0db7 273d d404 973c 1c36 74bb e73a 453d
000000a0: 3e7b 22ba 36fb 153c 142f 853c f003 84bb
000000b0: a368 09bc c6ea 80bb 2af6 0c3d 8687 d6bb
000000c0: ee47 273c 27a2 b4bc 1e0b 283d ddd5 033d
000000d0: edd9 423d 8877 3c3d 11e8 cfbb b026 28bb
000000e0: 587d cdbb 5ee5 163d 4c2e 5e3c 0775 e4bb
000000f0: f064 a13c 80a2 bd3c 7735 a2bc 524b 7d3c

net.3.weight f4 [64, 64]
-0.1328462 -0.007549718 0.06368168 0.13076238 -0.11845985 0.15863593 -0.20840263 -0.08985792
-0.06787805 0.07047309 0.1522059 -0.09247731 -0.09630833 -0.09008029 0.08650513 -0.0006968379
0.011337057 0.084695145 0.030528799 -0.20355687 -0.1375992 0.19981615 -0.18071312 0.08960591
0.14785863 0.1722477 0.0022929013 -0.20001654 -0.10711234 0.14073838 -0.092824265 0.058255717
-0.17537193 -0.06462024 0.19932707 -0.14545862 0.12285705 -0.16700408 -0.15966098 -0.08067526
0.058346644 0.086682186 -0.11779167 -0.036821708 0.061624512 -0.1860715 -0.12019098 0.07401352
0.05293311 -0.16070816 -0.108597785 -0.08005129 -0.19259332 -0.114886306 -0.025492966 -0.053565696
-0.12235841 -0.21176262 0.108746305 -0.04448633 -0.0021169037 0.10312416 0.07075052 0.034565255
0.02251048 0.1336726 0.15811989 0.21701762 0.018837601 -0.17805287 -0.06752232 -0.14480637
0.15671682 0.16349372 0.13214736 0.1915727 -0.15030023 -0.14980824 0.019874603 0.047984358
-0.08115032 -0.09579204 -0.021737672 -0.20566693 0.20405576 -0.009062381 0.16167356 -0.10524674
-0.0036046472 -0.194854 0.1543252 0.14648792 0.054264918 -0.039961178 -0.032106355 0.109066464
0.075516 -0.19352035 -0.091662705 -0.13253775 0.08421995 0.14091818 -0.20029654 0.002533631
-0.03625073 0.11044399 0.12601033 -0.07806843 -0.033246435 -0.12583606 0.15486033 0.17411326
0.124485195 0.03394501 0.1415343 0.1186348 0.015815953 0.11686156 -0.15186007 0.0784758
0.014181691 0.23297593 0.22073302 -0.049056847 0.012498462 -0.07189039 0.020815164 -0.14670609
0.027148537 -0.021408223 0.20910543 -0.054556303 -0.093635984 -0.16175818 0.19784622 0.040655967
0.21861844 0.042259805 0.17156535 0.011962463 -0.0064928387 0.21422464 0.096667886 -0.172521
-0.014948174 0.20829427 0.07500661 -0.038218107 0.08021278 -0.11763351 -0.119341485 -0.090197004
-0.10899299 0.20419781 0.20558167 -0.043708306 0.15380824 0.13653868 0.12376564 0.12992254
-0.19263323 0.15271077 0.24201483 0.08655745 0.13144943 0.020299895 0.15425573 -0.016626865
0.15841022 -0.1198369 -0.016254809 0.2150687 0.21134862 0.096889004 0.117138274 -0.1341014
-0.019111756 0.21567065 -0.13211876 -0.14662752 -0.12359893 0.11529967 0.108815186 -0.17986159
0.11931819 0.037809417 0.023742821 -0.035261147 0.15193173 0.11344313 0.14386877 0.2034955
0.019888254 -0.01631167 -0.17910634 -0.07415053 -0.17615467 -0.089849606 0.18286383 -0.1071289
0.046449408 0.11201099 0.19915706 0.08611916 -0.16220616 -0.099106625 0.17088656 0.18719976
-0.021465307 0.19027863 -0.019042244 -0.044689745 0.05039826 -0.022205697 0.09403673 0.24085952
-0.13726501 0.053498846 -0.07719201 0.05461234 -0.093735725 -0.11605845 0.111275345 -0.14911895
-0.1923593 -0.04124083 0.116017446 -0.08915163 0.15991378 0.023751603 -0.061526734 0.15715037
0.15854296 0.21728428 -0.061519906 -0.19964714 -0.12901473 -0.07420172 -0.12247685 -0.1406504
0.064856805 0.1953402 0.17508575 0.00058643485 0.0117053185 0.04198642 0.017564211 0.1728681
-0.14975874 0.22053029 -0.11036452 0.11837785 0.062464133 0.1829773 0.10183497 0.20877516
00000000: d608 08be a063 f7bb 8a6b 823d 93e6 053e
00000010: 149b f2bd 7571 223e 8067 55be 6e07 b8bd
00000020: a603 8bbd 3254 903d dddb 1b3e be64 bdbd
00000030: 4d3d c5bd 047c b8bd 9a29 b13d 00ac 36ba
00000040: 10bf 393c a674 ad3d 8817 fa3c 3671 50be
00000050: cee6 0cbe 9b9c 4c3e dc0c 39be 4e83 b73d
00000060: 4168 173e b361 303e 8044 163b 23d1 4cbe
00000070: b75d dbbd b91d 103e a61a bebd 8c9d 6e3d
00000080: b394 33be 9e57 84bd 651c 4c3e 1bf3 14be
00000090: 7a9c fb3d 1e03 2bbe 2b7e 23be 1239 a5bd
000000a0: e4fc 6e3d 6e86 b13d c23c f1bd 5cd2 16bd
000000b0: fc69 7c3d 8789 3ebe b026 f6bd 6694 973d
000000c0: 64d0 583d ae90 24be 8468 debd eef1 a3bd
000000d0: 2f37 45be 8349 ebbd a0d6 d0bc b467 5bbd
000000e0: 0c97 fabd 4dd8 58be 62b6 de3d 4c37 36bd
000000f0: c0bb 0abb c232 d33d a6e5 903d 4c94 0d3d
00000100: e667 b83c 78e1 083e 2eea 213e de39 5e3e
00000110: 5051 9a3c 7e53 36be 2449 8abd 1f48 14be
00000120: 607a 203e e66a 273e a351 073e a22b 443e
00000130: 4ee8 19be 5567 19be 10d0 a23c 3f8b 443d
00000140: 2432 a6bd 9e2e c4bd 3413 b2bc 5a9a 52be
00000150: fef3 503e 627a 14bc c18d 253e 9a8b d7bd
00000160: f23b 6cbb cf87 47be 6d07 1e3e ee00 163e
00000170: e444 5e3d 55ae 23bd f481 03bd 3d5e df3d
00000180: 22a8 9a3d 332a 46be a8b9 bbbd fab7 07be
00000190: 827b ac3d db4c 103e 891a 4dbe 460b 263b
000001a0: a57b 14bd 7530 e23d da08 013e 57e2 9fbd
000001b0: 6a2d 08bd 2bdb 00be b593 1e3e bf4a 323e
000001c0: 18f2 fe3d ec09 0b3d 5eee 103e cdf6 f23d
000001d0: 7590 813c 1d55 ef3d 3581 1bbe ecb7 a03d
000001e0: 535a 683c 3e91 6e3e d607 623e d5ef 48bd
000001f0: 59c6 4c3c 453b 93bd 9084 aa3c 1f3a 16be
00000200: 9c66 de3c 4c60 afbc bc1f 563e 6e76 5fbd
00000210: 39c4 bfbd f0a3 25be 3398 4a3e df86 263d
00000220: 83dd 5f3e 9e18 2d3d d4ae 2f3e 35fe 433c
00000230: e1c1 d4bb b45d 5b3e d0f9 c53d 58a9 30be
00000240: 30e9 74bc 184b 553e 119d 993d 978a 1cbd
00000250: 9946 a43d d6e9 f0bd 4f69 f4bd 35b9 b8bd
00000260: b737 dfbd 3b19 513e 0084 523e 7b07 33bd
00000270: e87f 1d3e ccd0 0b3e d778 fd3d 6a0a 053e
00000280: a541 45be 3660 1c3e bcd2 773e 0845 b13d
00000290: ae9a 063e f74b a63c 37f5 1d3e 1035 88bc
000002a0: 4a36 223e 0c6d f5bd ce28 85bc f83a 5c3e
000002b0: c66b 583e be6d c63d 31e6 ef3d e151 09be
000002c0: 4290 9cbc c4d8 5c3e 244a 07be 8625 16be
000002d0: 7021 fdbd 3c22 ec3d 7fda de3d a32d 38be
000002e0: 185d f43d 0cde 1a3d 4e80 c23c fe6d 10bd
000002f0: fe93 1b3e df54 e83d 5652 133e 2061 503e
00000300: b1ec a23c 0da0 85bc a767 37be 3cdc 97bd
00000310: e461 34be 1203 b8bd a840 3b3e 6666 dbbd
00000320: bc41 3e3d 0566 e53d d4ef 4b3e 3e5f b03d
00000330: 5f19 26be 6af8 cabd e3fc 2e3e 4bb1 3f3e
00000340: 03d8 afbc 67d8 423e 7bfe 9bbc 980c 37bd
00000350: 686e 4e3d b9e8 b5bc 5496 c03d e1a3 763e
00000360: 338f 0cbe 9b21 5b3d d816 9ebd 30b1 5f3d
00000370: 84f8 bfbd 0db0 edbd 54e4 e33d a3b2 18be
00000380: d6f9 44be 25ec 28bd 8e9a ed3d 2195 b6bd
00000390: 70c0 233e b992 c23c 7503 7cbd 07ec 203e
000003a0: 1659 223e c57f 5e3e 4cfc 7bbd 4d70 4cbe
000003b0: 701c 04be 12f7 97bd 25d5 fabd a906 10be
000003c0: a5d3 843d 4307 483e ae49 333e faba 193a
000003d0: aac7 3f3c f4f9 2b3d d2e2 8f3c 5604 313e
000003e0: 5b5a 19be b1d2 613e cb06 e2bd 1670 f23d
000003f0: 64da 7f3d 675e 3b3e da8e d03d 28c9 553e

net.3.bias f4 [64]
0.0 0.04244244 0.04752427 0.04081484 -0.018832712 -0.010461297 0.016646653 0.0
-0.020941192 0.04736307 0.048302066 0.04430577 0.023644615 -0.02125903 0.038413785 -0.025681905
-0.011365644 -0.007144309 -0.036104206 0.043705344 0.043591004 0.04816668 -0.0200695 -0.021236308
-0.022891164 0.0483266 0.042476576 0.008776021 0.040344108 -0.007828979 -0.021311404 -0.005483711
0.041547544 0.017152568 0.024954591 -0.017949808 -0.007791092 0.039803624 0.044340927 -0.004294997
0.043777406 0.041783135 0.010267224 -0.017772201 -0.0048710066 0.03510982 0.022878598 -0.01838516
-0.0131984595 -0.026053047 -0.008312474 0.009240308 0.0 -0.008820543 0.026176007 -0.019039791
-0.023601932 -0.011946481 0.015811993 0.0 0.04340672 0.0 0.042897157 0.0430146
00000000: 0000 0000 20d8 2d3d cfa8 423d 762d 273d
00000010: 0f47 9abc dc65 2bbc 905e 883c 0000 0000
00000020: dd8c abbc c7ff 413d 63d8 453d f879 353d
00000030: 5ab2 c13c 6b27 aebc c657 1d3d dc62 d2bc
00000040: f736 3abc cf1a eabb 01e2 13bd 6004 333d
00000050: 7b8c 323d 6d4a 453d cb68 a4bc c4f7 adbc
00000060: 4086 bbbc 1df2 453d ebfb 2d3d 4dc9 0f3c
00000070: dd3f 253d 1e45 00bc 4195 aebc b4b0 b3bb
00000080: c22d 2a3d 8b83 8c3c 926d cc3c 7a0b 93bc
00000090: 6b4c ffbb 2009 233d d59e 353d 0cbd 8cbb
000000a0: f04f 333d cb24 2b3d dc37 283c 0297 91bc
000000b0: f79c 9fbb 51cf 0f3d e66b bb3c 7a9c 96bc
000000c0: 5a3e 58bc 336d d5bc 0b31 08bc a964 173c
000000d0: 0000 0000 0a84 10bc 116f d63c 56f9 9bbc
000000e0: d758 c1bc 2cbb 43bc 2788 813c 0000 0000
000000f0: 3fcb 313d 0000 0000 eeb4 2f3d 1430 303d

net.6.weight f4 [2, 64]
-0.10337122 0.25676775 0.12139125 0.18819839 -0.21541765 -0.0893203 0.044484008 -0.11091244
-0.15109493 0.08034532 0.09200247 0.21364297 0.08037722 -0.17492357 0.1626054 -0.20022213
-0.105303794 -0.0010073999 -0.031709228 0.120449506 0.1803717 0.32694575 -0.18948522 -0.09930621
-0.08282799 0.25522754 0.17906487 0.13015455 0.14089017 -0.15356623 -0.096636094 -0.08028871
0.23175813 0.068592854 0.18450709 -0.09078929 -0.08480014 0.060679425 0.10616022 -0.15030584
0.20830263 0.27089256 0.049284987 -0.028267436 0.001331224 0.05642973 0.19966038 -0.27480793
-0.15605533 -0.27995297 -0.022261675 0.043873016 0.21110415 -0.22481005 0.10710196 -0.19162278
-0.2709031 -0.13218394 0.033248454 -0.15600051 0.26875865 0.0039223135 0.318269 0.15580885
0.08481887 -0.15923733 -0.022055589 -0.16357313 -0.10649183 0.1966655 0.118647754 0.05707541
0.110744834 0.009281362 0.11125007 0.21505825 -0.19212571 0.29667607 -0.1560143 -0.17599455
-0.28273386 0.27655572 -0.0035068411 0.14504096 -0.07812644 0.27741596 0.055085402 0.29818305
0.1196151 0.21678486 0.18808573 -0.24786468 0.010705309 0.21524411 -0.060800657 -0.21059501
0.18972391 0.22794592 0.008982944 -0.12289225 0.28696558 0.17011814 0.0061678835 0.19616061
-0.025373345 -0.093287475 -0.18557371 0.1408564 0.1310345 -0.030514734 0.12626284 0.24656355
0.060170148 -0.1579809 0.23403391 0.12483013 -0.15736648 0.1381323 0.14209723 -0.07450782
-0.07904426 -0.02816502 0.16193831 0.12775588 -0.003112536 0.15097824 -0.19169247 0.21778768
00000000: 4ab4 d3bd 1077 833e fa9b f83d 14b7 403e
00000010: 7296 5cbe 90ed b6bd dd34 363d 1026 e3bd
00000020: a1b8 1abe 168c a43d ca6b bc3d 39c5 5a3e
00000030: d09c a43d 2a1f 33be 0882 263e 0807 4dbe
00000040: 84a9 d7bd bb0a 84ba 89e1 01bd 3bae f63d
00000050: 5cb3 383e 6f65 a73e 6a08 42be 0e61 cbbd
00000060: b9a1 a9bd 2fad 823e c85c 373e 3c47 053e
00000070: 8345 103e 7740 1dbe 25e9 c5bd 686e a4bd
00000080: 0152 6d3e 697a 8c3d 6def 3c3e bcef b9bd
00000090: b2ab adbd fd8a 783d 886a d93d c6e9 19be
000000a0: 494d 553e 6eb2 8a3e 0edf 493d 1c91 e7bc
000000b0: 777c ae3a dc22 673d c573 4c3e a0b3 8cbe
000000c0: f8cc 1fbe ff55 8fbe 1e5e b6bc 31b4 333d
000000d0: b02b 583e 9b34 66be 4658 db3d c338 44be
000000e0: d0b3 8abe 3a5b 07be 882f 083d 99be 1fbe
000000f0: bc9a 893e c086 803b 28f4 a23e 5b8c 1f3e
00000100: 84b5 ad3d 1c0f 23be ecad b4bc b77f 27be
00000110: 6318 dabd ae62 493e 98fd f23d e8c7 693d
00000120: 30ce e23d db10 183c 14d7 e33d 3b38 5c3e
00000130: 9abc 44be ede5 973e 36c2 1fbe ea37 34be
00000140: 7ec2 90be b698 8d3e 08d3 65bb 9e85 143e
00000150: c100 a0bd 7709 8e3e 3ba1 613d 73ab 983e
00000160: c3f8 f43d dafc 5d3e 8c99 403e 3dd0 7dbe
00000170: 5265 2f3c f468 5c3e 1c0a 79bd 38a6 57be
00000180: fc46 423e a86a 693e 332d 133c efae fbbd
00000190: 27ed 923e 7333 2e3e f51b ca3b 54de 483e
000001a0: c3db cfbc 810d bfbd 0907 3ebe a93c 103e
000001b0: e82d 063e 09fa f9bc 0c4b 013e 287b 7c3e
000001c0: f974 763d bfc5 21be 96a6 6f3e f0a6 ff3d
000001d0: ae24 21be 8e72 0d3e f081 113e 8e97 98bd
000001e0: f5e1 a1bd 54ba e6bc 28d3 253e 70d2 023e
000001f0: b0fb 4bbb 0a9a 1a3e 084b 44be bc03 5f3e

net.6.bias f4 [2]
0.047235206 0.00948562
00000000: b479 413d 9369 1b3c

exp_avg f4 [64, 4]
-5.2265274e-05 -9.63136e-05 2.1311973e-05 -7.632636e-05 0.001514844 0.08493374 0.007646887 -0.13407284
-0.0011526333 -0.00016424498 0.0035334004 0.002283012 0.00043395537 -0.00178133 0.0016909268 -0.0004103748
-5.949359e-05 -0.00014819522 4.535471e-05 -0.00011333022 0.00028447618 -0.00070539746 0.0004212203 -0.00028280265
0.014768421 0.32348502 -0.0024381045 -0.5167352 1.00639845e-05 2.5062618e-05 -7.649022e-06 1.9193794e-05
0.013516861 0.359198 0.012243311 -0.56733924 0.0050846827 0.19362058 0.016775921 -0.3008461
-2.361607e-05 -3.4683544e-05 4.8065804e-06 -2.8674433e-05 0.0031862957 0.08714989 0.0034804444 -0.13472651
2.0425772e-05 -0.00010893179 5.9639453e-05 -7.147494e-05 0.004982113 0.14599168 0.011135722 -0.22925414
2.4682884e-05 -5.6567187e-05 6.763776e-05 -1.278832e-06 0.005786479 0.138433 -0.0002103982 -0.22015011
0.0006436848 0.01679075 0.0010542653 -0.0298347 0.00071133755 0.0139421765 0.0027780975 -0.023245113
0.0009945465 0.05230737 0.0047738273 -0.07880643 2.4381252e-05 7.3424126e-05 -2.5563406e-05 5.526101e-05
0.00040878513 0.0041284165 0.002048953 -0.008314683 -1.05076615e-05 -3.6363238e-06 -7.699637e-06 1.2954513e-05
2.4506842e-06 -7.231204e-07 1.8807057e-06 -3.420904e-07 0.0051793465 0.11322223 -0.0010309196 -0.1755256
2.6101645e-05 9.290487e-05 -3.5236244e-05 6.7833855e-05 3.9454397e-05 0.0003179664 -0.00013873324 0.0002284896
0.015657347 0.34152693 0.0013811465 -0.5341291 0.00043896717 -0.006559463 -0.0021436177 0.007530984
0.0035739616 0.13620786 0.012731255 -0.21065356 0.00066609564 0.0018259413 -0.001401219 -0.003001343
-0.00030007094 0.0031545043 0.0008140475 -8.560788e-05 -2.3773982e-05 -6.483803e-05 1.902952e-05 -4.948577e-05
-0.0005439656 0.0024443164 -0.0029142417 0.0001951613 0.00044022725 -0.001510763 0.0019523737 1.4586676e-05
0.004524262 0.10113083 0.001903662 -0.15792553 0.0046758307 0.15401535 0.008839235 -0.23844498
0.004814643 0.1574016 0.011573759 -0.2424211 0.00085519784 -0.0011242211 0.0021150592 -0.0019584822
-0.00022782398 0.0010365279 -0.001210941 9.849425e-05 0.010761451 0.27184594 0.0051251785 -0.4331092
-9.827915e-05 0.0138181895 0.0032213626 -0.022797449 0.00035812944 0.002756426 0.0018798149 -0.006396235
0.0043999506 0.14207388 0.009463793 -0.22228816 -7.92768e-08 6.509032e-07 -3.724e-07 -3.0783275e-07
-0.000100158475 0.0003023228 -9.20745e-06 0.00024317358 -6.374423e-05 0.00033169918 -0.00039396857 2.7979288e-05
0.0065721604 0.1709433 0.0017692385 -0.26747543 0.0020655354 0.0433781 -0.00094286574 -0.06741717
0.00017047454 -0.00069991767 0.0006274004 -0.00018645091 0.00014040411 -0.015072919 -0.0018196955 0.024450364
0.005031 0.13671269 0.009649732 -0.21838303 0.0055530043 0.19039033 0.012837106 -0.30306792
0.009684326 0.24642578 0.007126094 -0.38256353 0.009578283 0.25223422 0.0054663266 -0.39705297
-9.389846e-05 0.00028133972 -8.72364e-06 0.00022799002 0.0012273657 0.019729575 -0.0036960228 -0.031457156
-1.1338793e-05 -3.7916332e-05 1.4155666e-05 -2.793268e-05 0.0069062253 0.18474251 0.008794561 -0.2910081
0.0030206232 0.09879781 0.0059003946 -0.15182725 6.9694215e-06 2.9083287e-06 -3.1345114e-06 2.0744649e-06
0.0036537389 0.13531823 0.009918031 -0.20856328 -0.001630787 -0.024480782 0.005202825 0.03446821
-0.0010749217 0.0005916268 0.003988495 0.0017135505 0.0037395705 0.083181605 -0.0008806355 -0.13054469
00000000: 6937 5bb8 f8fb c9b8 1dc7 b237 6711 a0b8
00000010: bb8d c63a bef1 ad3d bd92 fa3b 644a 09be
00000020: f513 97ba 2d39 2cb9 9f90 673b 969e 153b
00000030: 8184 e339 847b e9ba 17a2 dd3a 9327 d7b9
00000040: c188 79b8 da64 1bb9 403b 3e38 b3ab edb8
00000050: bf25 9539 6cea 38ba 3bd7 dc39 2145 94b9
00000060: 3ff7 713c d49f a53e 9bc8 1fbb c248 04bf
00000070: 7cd8 2837 903d d237 4d54 00b7 5c02 a137
00000080: d375 5d3c cde8 b73e 2b98 483c 253d 11bf
00000090: 699d a63b 7944 463e a86d 893c 8008 9abe
000000a0: 201b c6b7 2c79 11b8 3648 a136 e089 f0b7
000000b0: 2cd1 503b a47b b23d 2b18 643b bff5 09be
000000c0: 0358 ab37 4f72 e4b8 6025 7a38 d1e4 95b8
000000d0: fe40 a33b d87e 153e 9a72 363c 99c1 6abe
000000e0: 170e cf37 8e42 6db8 bfd8 8d38 55a4 abb5
000000f0: 819c bd3b 61c1 0d3e 569e 5cb9 086f 61be
00000100: f5bc 283a c18c 893c 462f 8a3a e767 f4bc
00000110: 0e79 3a3a ba6d 643c be10 363b 896c bebc
00000120: 715b 823a 4140 563d c46d 9c3b 4465 a1bd
00000130: 5786 cc37 47fb 9938 ff70 d6b7 0fc8 6738
00000140: 3652 d639 ab47 873b ba47 063b 4f3a 08bc
00000150: 104a 30b7 9107 74b6 b02d 01b7 3657 5937
00000160: 6f76 2436 751c 42b5 8e6c fc35 8ca8 b7b4
00000170: 82b7 a93b 0ee1 e73d ec1f 87ba fcbc 33be
00000180: dbf4 da37 ecd5 c238 a1ca 13b8 0642 8e38
00000190: d67b 2538 bab4 a639 ec78 11b9 b696 6f39
000001a0: d643 803c 9edc ae3e 9607 b53a afbc 08bf
000001b0: 2d25 e639 c4f0 d6bb f07b 0cbb 79c6 f63b
000001c0: 2039 6a3b 137a 0b3e c196 503c 91b5 57be
000001d0: ec9c 2e3a 6c54 ef3a 1ca9 b7ba 2eb2 44bb
000001e0: d752 9db9 cdbb 4e3b ce65 553a 6188 b3b8
000001f0: 3d6e c7b7 a7f9 87b8 95a1 9f37 f18e 4fb8
00000200: ea98 0eba d330 203b ddfc 3ebb 36a4 4c39
00000210: 4dce e639 cb04 c6ba cae6 ff3a 4cb9 7437
00000220: 4340 943b ae1d cf3d 4c84 f93a 3bb7 21be
00000230: b637 993b 33b6 1d3e 70d2 103c ec2a 74be
00000240: 27c4 9d3b e32d 213e dd9f 3d3c 3d3d 78be
00000250: 5b2f 603a 9a5a 93ba ce9c 0a3b e159 00bb
00000260: 09e4 6eb9 1bdc 873a 70b8 9eba b38e ce38
00000270: cc50 303c 642f 8b3e 1df1 a73b 7dc0 ddbe
00000280: 381b ceb8 b065 623c 7f1d 533b b7c1 babc
00000290: 52c3 bb39 28a5 343b 1f64 f63a 8297 d1bb
000002a0: 762d 903b d17b 113e 060e 1b3c 829f 63be
000002b0: e23e aab3 bab9 2e35 44ee c7b4 3644 a5b4
000002c0: 2c0c d2b8 1481 9e39 b279 1ab7 69fc 7e39
000002d0: 6cae 85b8 e9e7 ad39 918d ceb9 10b5 ea37
000002e0: 475b d73b c30b 2f3e cbe5 e73a 8af2 88be
000002f0: ef5d 073b 3cad 313d a62a 77ba 0312 8abd
00000300: 69c1 3239 ae7a 37ba 2178 243a 0982 43b9
00000310: 7139 1339 68f4 76bc d982 eeba 214c c83c
00000320: 16db a43b 69fe 0b3e e919 1e3c cd9f 5fbe
00000330: faf5 b53b aff5 423e ba52 523c b82b 9bbe
00000340: 02ab 1e3c 0a57 7c3e 0282 e93b 5edf c3be
00000350: 3bee 1c3c d824 813e df1e b33b 874a cbbe
00000360: 5aeb c4b8 c780 9339 c05b 12b7 9b10 6f39
00000370: 8fdf a03a eb9f a13c f938 72bb 38d9 00bd
00000380: bf3b 3eb7 5a08 1fb8 1f7e 6d37 f950 eab7
00000390: 9e4d e23b 242d 3d3e 1017 103c 04ff 94be
000003a0: a6f5 453b 8256 ca3d 1958 c13b 9a78 1bbe
000003b0: e0da e936 b52c 4336 7f5a 52b6 0937 0b36
000003c0: 9173 6f3b dd90 0a3e 3d7f 223c 9d91 55be
000003d0: 22c0 d5ba ec8b c8bc 767c aa3b 8a2e 0d3d
000003e0: 63e4 8cba 6717 1b3a ecb1 823b 3799 e03a
000003f0: 9513 753b 1e5b aa3d 73da 66ba 82ad 05be

exp_avg_sq f4 [64, 4]
3.1707252e-08 1.289488e-07 1.9506802e-08 7.440126e-08 3.2418608e-05 0.007202768 7.957307e-05 0.017544279
8.043515e-06 0.0016590846 1.7080205e-05 0.003945673 2.1144814e-07 8.413559e-07 8.326864e-07 1.8931978e-07
4.403431e-08 2.7322437e-07 2.5591504e-08 1.5978742e-07 2.4291762e-07 8.871595e-07 2.0224485e-07 4.9746063e-07
0.000106784704 0.027512342 0.00026451386 0.06543833 1.2631053e-09 7.894825e-09 1.0718447e-09 4.766184e-09
0.00019063326 0.04660647 0.00049367367 0.11226357 0.00012245633 0.030368567 0.00033709905 0.07334601
8.5091845e-09 1.9608162e-08 5.6344396e-09 1.079174e-08 1.2449502e-05 0.0034484675 3.2028212e-05 0.008471313
3.2590128e-07 1.5283857e-07 1.3879217e-07 8.563961e-08 3.7792615e-05 0.008988754 9.3408285e-05 0.022030296
7.3046984e-08 1.1870051e-08 1.33236915e-08 9.823711e-09 2.5590834e-05 0.0056837313 5.417901e-05 0.013372645
1.0983678e-05 0.002683415 2.6347721e-05 0.00658949 3.6051003e-07 4.9951992e-05 8.8969745e-07 9.9772034e-05
8.318777e-06 0.0019559732 1.9854386e-05 0.004888872 1.1935764e-08 6.4421904e-08 7.622908e-09 3.7862414e-08
1.03801774e-07 6.126783e-06 6.2775905e-07 1.620309e-05 1.2755857e-08 8.336859e-06 7.422881e-08 1.9819723e-05
5.2023286e-10 9.356567e-10 6.2256017e-10 1.9393616e-10 1.7165441e-05 0.0035014832 3.3689197e-05 0.008117164
2.2873424e-08 1.0656444e-07 2.7794181e-08 6.4886834e-08 6.7500093e-07 1.2293696e-06 4.4987377e-07 7.1407635e-07
3.992524e-05 0.012961077 0.00011339623 0.031187668 1.0430302e-05 0.0027876142 2.705149e-05 0.006794731
5.144969e-05 0.011922248 0.00013463123 0.029208412 5.4079405e-06 0.0012062547 1.2169438e-05 0.0029517387
2.625567e-05 0.004041541 4.1389216e-05 0.008803987 1.3451465e-08 5.4639624e-08 5.836859e-09 3.2163868e-08
8.519036e-07 1.912284e-06 2.5588374e-06 1.3701347e-07 2.5130447e-07 1.2874697e-06 1.3225718e-06 2.5561732e-07
9.960871e-06 0.003031778 3.4652217e-05 0.007386058 4.8003334e-05 0.011825267 0.00012732808 0.02848725
0.00010043955 0.02402792 0.000259088 0.0577369 7.256096e-07 1.992414e-05 1.9790907e-06 2.0674252e-05
1.7990162e-08 3.013787e-07 4.1373397e-07 7.956713e-09 9.028621e-05 0.019666605 0.00019239652 0.046917543
3.932551e-06 0.000990721 9.647803e-06 0.0023928215 1.4350752e-07 2.9012103e-06 4.7407258e-07 9.318262e-06
3.6097346e-05 0.008663955 8.9708905e-05 0.021081584 6.422716e-11 4.3297126e-09 1.4172479e-09 9.68403e-10
1.890397e-08 1.7304055e-07 5.5228855e-10 1.1184174e-07 6.056444e-08 3.67062e-08 5.4431474e-08 6.9870425e-09
3.012402e-05 0.00843058 8.5642874e-05 0.020450573 6.021165e-06 0.001345306 1.46332795e-05 0.0032043788
1.00005536e-07 1.5645213e-07 1.255017e-07 5.281626e-08 1.2380627e-05 0.0023710444 2.8675582e-05 0.005755576
5.728368e-05 0.012453758 0.00013247452 0.029824547 8.145769e-05 0.01987349 0.00021412408 0.04763628
5.6571247e-05 0.015441794 0.00016698039 0.038403872 7.759455e-05 0.020623777 0.00020144967 0.049650405
3.657752e-08 1.5308186e-07 7.1564363e-09 1.77821e-07 8.0952e-06 0.0020506626 2.3449777e-05 0.0050059594
3.874928e-09 2.570806e-08 4.41168e-08 3.3398475e-08 2.790862e-05 0.0067621246 6.138768e-05 0.016138773
2.0654801e-05 0.0042598406 4.4383534e-05 0.010092219 3.352279e-08 9.701252e-09 6.979884e-09 5.5591447e-09
4.2999392e-05 0.010308704 9.797348e-05 0.024706284 7.680991e-06 0.0011074933 1.4189561e-05 0.0030149478
7.556118e-06 0.0017831386 1.6914697e-05 0.0044380357 3.7070054e-06 0.0015455321 1.3656809e-05 0.0036821887
00000000: 7e2e 0833 2d75 0a34 e98f a732 86c6 9f33
00000010: 37f9 0738 3305 ec3b 77e0 a638 05b9 8f3c
00000020: a2f2 0637 a475 d93a 7647 8f37 b44a 813b
00000030: 6c0a 6334 8ad9 6135 c685 5f35 d347 4b34
00000040: 3c20 3d33 acaf 9234 50d4 db32 0892 2b34
00000050: 586a 8234 2325 6e35 a428 5934 3c89 0535
00000060: 9af1 df38 9061 e13c 73ae 8a39 8804 863d
00000070: 9199 ad30 cfa1 0732 2f50 9330 ccc3 a331
00000080: bae4 4739 6de6 3e3d e169 013a 71ea e53d
00000090: 9f67 0039 80c7 f83c abbc b039 6f36 963d
000000a0: ca2f 1232 ce6e a832 0e99 c131 9366 3932
000000b0: 34de 5037 afff 613b 0856 0638 43cb 0a3c
000000c0: 88f7 ae34 f21b 2434 e706 1534 e0e8 b733
000000d0: 8383 1e38 9145 133c 31e4 c338 e178 b43c
000000e0: 01de 9c33 09ed 4b32 37e6 6432 23c5 2832
000000f0: e6ab d637 983e ba3b 453e 6338 f018 5b3c
00000100: 8a46 3837 3cdc 2f3b 4d05 dd37 a6ec d73b
00000110: 1f8c c134 8b83 5138 8bd3 6e35 b43c d138
00000120: e090 0b37 c92f 003b f88c a637 d532 a03b
00000130: 0c0e 4d32 5158 8a33 e7f5 0232 2a9e 2233
00000140: a1e9 de33 aa94 cd36 4683 2835 dfeb 8737
00000150: da24 5b32 89de 0b37 b867 9f33 8842 a637
00000160: 2200 0f30 7e98 8030 c720 2b30 2d3c 552f
00000170: 81fe 8f37 2479 653b 804d 0d38 dafd 043c
00000180: 317b c432 6cd8 e433 0dc0 ee32 ea57 8b33
00000190: b631 3535 d100 a535 2e86 f134 f4ae 3f35
000001a0: 6675 2738 b25a 543c 23cf ed38 487d ff3c
000001b0: cefd 2e37 68b0 363b a2ec e237 56a6 de3b
000001c0: afcb 5738 8855 433c cc2b 0d39 7b46 ef3c
000001d0: db75 b536 311b 9e3a 572b 4c37 f571 413b
000001e0: 9f3f dc37 e76e 843b 5599 2d38 993e 103c
000001f0: 2b18 6732 e7ac 6a33 8e8d c831 8c24 0a33
00000200: 5fae 6435 ca54 0036 7eb8 2b36 fa1d 1334
00000210: 06eb 8634 1fcd ac35 3983 b135 c73b 8934
00000220: 9d1d 2737 cbb0 463b 8957 1138 bf06 f23b
00000230: 3057 4938 c4be 413c 5f83 0539 185e e93c
00000240: 13a3 d238 33d6 c43c 34d6 8739 877d 6c3d
00000250: 83c7 4235 c422 a737 85d0 0436 9e6d ad37
00000260: c988 9a32 2ccd a134 2a1f de34 feb1 0832
00000270: 0a58 bd38 dc1b a13c 0cbe 4939 9c2c 403d
00000280: 5bf4 8336 15db 813a 00dd 2137 e2d0 1c3b
00000290: 0c17 1a34 6ab2 4236 0a84 fe34 a155 1c37
000002a0: 3b67 1738 43f3 0d3c 1a22 bc38 49b3 ac3c
000002b0: ad3c 8d2e 8ec4 9431 fac8 c230 a718 8530
000002c0: 4562 a232 06cd 3934 dacf 1730 a62d f033
000002d0: a70f 8233 e5a6 1d33 0ac8 6933 ad12 f031
000002e0: d7b2 fc37 6a20 0a3c 2b9b b338 f687 a73c
000002f0: 6a09 ca36 fb54 b03a 7581 7537 8e00 523b
00000300: a0c2 d633 3cfd 2734 a5c1 0634 18d8 6233
00000310: 63b6 4f37 8663 1b3b 588c f037 4599 bc3b
00000320: e243 7038 d90a 4c3c dce8 0a39 9c52 f43c
00000330: 44d4 aa38 bbcd a23c 7f86 6039 431e 433d
00000340: ea46 6d38 94ff 7c3c 7517 2f39 614d 1d3d
00000350: 42ba a238 32f3 a83c 3c3c 5339 395e 4b3d
00000360: 6919 1d33 d25e 2434 aee4 f531 10ef 3e34
00000370: 9fd0 0737 6964 063b 03b6 c437 0809 a43b
00000380: 3a24 8531 9fd4 dc32 ef7a 3d33 0372 0f33
00000390: 4e1d ea37 d094 dd3b 42bd 8038 7635 843c
000003a0: d943 ad37 2296 8b3b 7528 3a38 d659 253c
000003b0: b3fa 0f33 8faa 2632 b5d3 ef31 c102 bf31
000003c0: 3f5a 3438 d7e5 283c 1d77 cd38 d564 ca3c
000003d0: 9bdd 0037 4f29 913a b30f 6e37 6e96 453b
000003e0: 8f8a fd36 34b8 e93a 09e4 8d37 f16c 913b
000003f0: dec5 7836 7493 ca3a 8c1f 6537 e050 713b

exp_avg f4 [64]
0.0018243545 -0.2452511 -0.021397091 -0.042675093 0.0030673384 -0.024355989 -0.6121941 -0.00051800796
-0.8163789 -0.52919906 0.0006173646 -0.18425229 0.0034344043 -0.3868562 -0.0011149544 -0.25368991
-0.0469597 -0.070835665 -0.12032433 -0.0015896626 -0.045897063 -0.00021214392 7.567393e-05 -0.17340988
-0.0019970392 -0.008247523 -0.6073492 0.026875481 -0.36807615 0.0125809405 -0.03451876 0.0014549071
0.06068155 -0.046636056 -0.19102865 -0.35352314 -0.43262166 -0.07424428 0.024062334 -0.56842107
-0.05985627 -0.039757904 -0.35061303 4.2309995e-05 0.0061686994 0.008508322 -0.30291694 -0.061008308
-0.016690621 0.04042946 -0.38745368 -0.5158466 -0.49891916 -0.49144828 0.0057735187 -0.004879879
0.0008409346 -0.43298787 -0.20513025 0.00026724744 -0.34355575 -0.06827057 -0.03420968 -0.13710573
00000000: 2e1f ef3a 1b23 7bbe f448 afbc 14cc 2ebd
00000010: 6605 493b 3686 c7bc c1b8 1cbf edca 07ba
00000020: 35fe 50bf 9779 07bf a3d6 213a a2ac 3cbe
00000030: be13 613b 0412 c6be a923 92ba a5e3 81be
00000040: d058 40bd 4a12 91bd 9a6c f6bd 3a5c d0ba
00000050: 8ffe 3bbd f372 5eb9 22b3 9e38 5c92 31be
00000060: c2e0 02bb 9e20 07bc 3d7b 1bbf f829 dc3c
00000070: 7a74 bcbe 4a20 4e3c 8b63 0dbd 95b2 be3a
00000080: 388d 783d 7305 3fbd 049d 43be fc00 b5be
00000090: 9680 ddbe 630d 98bd 5f1e c53c 0b84 11bf
000000a0: d92b 75bd 2fd9 22bd 8d83 b3be 0376 3138
000000b0: cd22 ca3b 7d66 0b3c ee17 9bbe d9e3 79bd
000000c0: c5ba 88bc 5d99 253d 5460 c6be 860e 04bf
000000d0: 5572 ffbe 1c9f fbbe c92f bd3b 64e7 9fbb
000000e0: 2a72 5c3a 96b0 ddbe aa0d 52be 581d 8c39
000000f0: 8ae6 afbe 71d1 8bbd 731f 0cbd 7265 0cbe

exp_avg_sq f4 [64]
6.0328905e-05 0.008548774 0.0019823315 0.000589479 0.000117050826 0.00053830014 0.03414907 3.8740595e-06
0.055391166 0.028402574 1.2754161e-05 0.0038106206 0.0002691764 0.010798614 8.6392385e-05 0.0064404495
0.0033199275 0.00062179787 0.0019249043 2.9517241e-05 0.00041096486 6.9154936e-05 3.864127e-06 0.0035128717
8.82437e-05 0.0010777378 0.020086916 0.0036873834 0.012426214 0.0017895119 0.005005538 2.8895925e-05
0.002378706 0.0007639458 0.0035837712 0.011213821 0.027006319 0.0024456442 0.00018386522 0.022933373
0.0013091392 0.00044386825 0.009614726 1.8294164e-05 7.633276e-05 7.170831e-05 0.008650622 0.0014994311
0.00020505725 0.001969365 0.015687315 0.02449357 0.019247448 0.024245508 0.00018409334 0.0022113437
7.226236e-05 0.0109235775 0.00402348 5.9325666e-05 0.011623634 0.0032910581 0.0021339136 0.0022804365
00000000: ab09 7d38 2810 0c3c 01ea 013b 4487 1a3a
00000010: 2f79 f538 b61c 0d3a e5df 0b3d ebfd 8136
00000020: d9e1 623d 84ac e83c b4fa 5537 9bbb 793b
00000030: 3f20 8d39 abec 303c 8f2d b538 680a d33b
00000040: 2493 593b 2600 233a 124d fc3a cb9b f737
00000050: c576 d739 4607 9138 99a8 8136 3538 663b
00000060: 7a0f b938 e142 8d3a 518d a43c 07a8 713b
00000070: 5297 4b3c 0e8e ea3a 7f05 a43b 8765 f237
00000080: 10e4 1b3b 8943 483a b4dd 6a3b 2dba 373c
00000090: 5b3c dd3c 1a47 203b f2cb 4039 c5de bb3c
000000a0: 6c97 ab3a fdb6 e839 1587 1d3c 6b76 9937
000000b0: d714 a038 1b62 9638 57bb 0d3c 8f88 c43a
000000c0: a304 5739 7610 013b af82 803c bda6 c83c
000000d0: d3ac 9d3c 849e c63c 2e09 4139 31ec 103b
000000e0: 8f8b 9738 cef8 323c 66d7 833b 73d4 7838
000000f0: 0e71 3e3c cbae 573b 21d9 0b3b 6073 153b

exp_avg f4 [64, 64]
0.0 0.0 0.0 0.0 0.0 0.0 0.0 0.0
0.0 0.0 0.0 0.0 0.0 0.0 0.0 0.0
0.0 0.0 0.0 0.0 0.0 0.0 0.0 0.0
0.0 0.0 0.0 0.0 0.0 0.0 0.0 0.0
0.0 0.0 0.0 0.0 0.0 0.0 0.0 0.0
0.0 0.0 0.0 0.0 0.0 0.0 0.0 0.0
0.0 0.0 0.0 0.0 0.0 0.0 0.0 0.0
0.0 0.0 0.0 0.0 0.0 0.0 0.0 0.0
-1.2223779e-05 -0.070290744 -0.043097127 -0.00096484076 0.0 -0.00034205712 -0.16701859 -2.1296813e-08
-0.1814001 -0.048319038 -1.656886e-05 -0.026531866 -2.6296248e-05 -0.071307935 -3.7102625e-05 -0.04725441
-0.0067765284 -0.0005627649 -0.0062151966 -7.69382e-06 -0.0007225334 -1.0069664e-06 -1.1020722e-05 -0.06345752
-2.0357431e-05 -7.526186e-05 -0.1516228 -0.025755867 -0.029352859 -0.028731612 -0.00013438328 -3.4585287e-07
-9.383006e-05 -0.0008899445 -0.041584637 -0.04551307 -0.021553645 -0.0007081027 -0.00044473482 -0.14493443
-0.0074011837 -0.0020932911 -0.048988946 -1.2444924e-07 -0.00019422203 -0.00036477763 -0.020205006 -0.016171398
-0.0015978699 -0.051840074 -0.051564634 -0.04560102 -0.050737027 -0.075384475 -0.00019338839 -0.028155848
-7.1601403e-06 -0.026228642 -0.066038586 -1.5641542e-06 -0.07519676 -0.0019307389 -0.0094534615 -0.02473169
-1.9968966e-05 -0.038024276 -0.023130802 -0.0004489492 -6.6034634e-05 -0.00018878377 -0.08722315 -8.25745e-06
-0.094925374 -0.025931377 -2.9243662e-05 -0.014284211 -3.428976e-05 -0.037902646 -1.7282247e-05 -0.026857585
-0.0040050605 -0.0003185897 -0.003053893 -8.548017e-05 -0.0003942751 -4.3053268e-07 -4.8274123e-06 -0.03395482
-7.2862225e-05 -0.00010399365 -0.07797164 -0.013999551 -0.015620146 -0.015460996 -0.00016439678 -9.636681e-06
-4.359276e-05 -0.00044353784 -0.021926783 -0.024050519 -0.011594178 -0.0003894359 -0.00021271425 -0.07546699
-0.003767624 -0.0009757973 -0.026119692 -5.017456e-08 -8.921262e-05 -0.00016975222 -0.010504516 -0.009252879
-0.00074457587 -0.027733836 -0.027503552 -0.02461312 -0.025783803 -0.039642863 -8.884902e-05 -0.014916682
-5.8126585e-05 -0.0130599495 -0.03461168 -6.512465e-07 -0.039442506 -0.0009080434 -0.004324907 -0.0140883615
-3.0764695e-05 -0.07020111 -0.043588795 -0.0006944861 -0.000101314334 -0.00029179337 -0.15627939 -1.265695e-05
-0.17070958 -0.047015727 -4.5047695e-05 -0.022489728 -5.290904e-05 -0.069074094 -2.6782865e-05 -0.05277541
-0.007905603 -0.00054644165 -0.0051062014 -0.00013118614 -0.0006178253 -5.97943e-07 -7.53114e-06 -0.06257639
-0.0001119496 -0.0001603865 -0.12144258 -0.026173456 -0.029181784 -0.029666275 -0.00054584583 -1.47945175e-05
-6.759399e-05 -0.0006859919 -0.038759805 -0.04395346 -0.020442108 -0.0006092884 -0.0003290989 -0.13046263
-0.005830944 -0.0015078323 -0.047431573 -8.267363e-08 -0.00013674767 -0.00026296056 -0.01844952 -0.018532326
-0.0011503822 -0.050676573 -0.0506409 -0.045203734 -0.039982565 -0.07229244 -0.00013617454 -0.02709256
-8.919773e-05 -0.021352476 -0.06266722 -1.0504468e-06 -0.06822125 -0.0013969917 -0.006234681 -0.027353039
00000000: 0000 0000 0000 0000 0000 0000 0000 0000
00000010: 0000 0000 0000 0000 0000 0000 0000 0000
00000020: 0000 0000 0000 0000 0000 0000 0000 0000
00000030: 0000 0000 0000 0000 0000 0000 0000 0000
00000040: 0000 0000 0000 0000 0000 0000 0000 0000
00000050: 0000 0000 0000 0000 0000 0000 0000 0000
00000060: 0000 0000 0000 0000 0000 0000 0000 0000
00000070: 0000 0000 0000 0000 0000 0000 0000 0000
00000080: 0000 0000 0000 0000 0000 0000 0000 0000
00000090: 0000 0000 0000 0000 0000 0000 0000 0000
000000a0: 0000 0000 0000 0000 0000 0000 0000 0000
000000b0: 0000 0000 0000 0000 0000 0000 0000 0000
000000c0: 0000 0000 0000 0000 0000 0000 0000 0000
000000d0: 0000 0000 0000 0000 0000 0000 0000 0000
000000e0: 0000 0000 0000 0000 0000 0000 0000 0000
000000f0: 0000 0000 0000 0000 0000 0000 0000 0000
00000100: bb14 4db7 98f4 8fbd 9d86 30bd 5eed 7cba
00000110: 0000 0000 2156 b3b9 ec06 2bbe 30f0 b6b2
00000120: f3c0 39be 2fea 45bd 5bfd 8ab7 5b59 d9bc
00000130: c396 dcb7 e509 92bd a49e 1bb8 d78d 41bd
00000140: a40d debb 8386 13ba d9a8 cbbb b514 01b7
00000150: 6568 3dba 1a27 87b5 a4e5 38b7 04f6 81bd
00000160: 40c5 aab7 e7d5 9db8 0243 1bbe f8fd d2bc
00000170: 6875 f0bc 8f5e ebbc 3de9 0cb9 a8ad b9b4
00000180: a1c6 c4b8 2a4b 69ba a754 2abd ea6b 3abd
00000190: 4591 b0bc f89f 39ba 4c2b e9b9 b169 14be
000001a0: a185 f2bb 992f 09bb a2a8 48bd 59a0 05b4
000001b0: 14a8 4bb9 a03f bfb9 f884 a5bc e179 84bc
000001c0: 9e6f d1ba 4256 54bd 7035 53bd 23c8 3abd
000001d0: a1d1 4fbd 2d63 9abd 4dc8 4ab9 18a7 e6bc
000001e0: 2341 f0b6 73dd d6bc 3d3f 87bd eeef d1b5
000001f0: c200 9abd d910 fdba b1e2 1abc 1d9a cabc
00000200: 0783 a7b7 58bf 1bbd cf7c bdbc f160 ebb9
00000210: 137c 8ab8 42f4 45b9 0da2 b2bd 7a89 0ab7
00000220: 3c68 c2bd 0a6e d4bc 4950 f5b7 5308 6abc
00000230: 59d2 0fb8 ce3f 1bbd 58f9 90b7 7004 dcbc
00000240: e23c 83bb 6308 a7b9 d323 48bb d143 b3b8
00000250: b5b6 ceb9 f623 e7b4 28fb a1b6 3614 0bbd
00000260: 9ccd 98b8 2a17 dab8 98af 9fbd 5f5e 65bc
00000270: a4eb 7fbc 1e50 7dbc ed61 2cb9 3bad 21b7
00000280: 5fd7 36b8 a48a e8b9 cc9f b3bc 9805 c5bc
00000290: 82f5 3dbc 342d ccb9 0c0c 5fb9 708e 9abd
000002a0: 3eea 76bb a6cc 7fba f7f8 d5bc 837f 57b3
000002b0: a917 bbb8 84ff 31b9 221b 2cbc 6399 17bc
000002c0: a42f 43ba 1232 e3bc 214f e1bc 74a1 c9bc
000002d0: 8e38 d3bc 8e60 22bd 7454 bab8 1965 74bc
000002e0: f2cc 73b8 66f9 55bc fac4 0dbd 52d1 2eb5
000002f0: 778e 21bd c309 6eba f3b7 8dbb dfd2 66bc
00000300: 5709 01b8 99c5 8fbd 2a8a 32bd 2c0e 36ba
00000310: b878 d4b8 d8fb 98b9 b407 20be 3059 54b7
00000320: 7ece 2ebe 9093 40bd 98f1 3cb8 613c b8bc
00000330: a6ea 5db8 b876 8dbd c4ab e0b7 072b 58bd
00000340: 8186 01bc 143f 0fba ec51 a7bb 038f 09b9
00000350: 8ef5 21ba 5482 20b5 00b4 fcb6 0d28 80bd
00000360: 7cc6 eab8 6c2d 28b9 e3b6 f8bd b769 d6bc
00000370: a30e efbc b006 f3bc 1817 0fba f835 78b7
00000380: 3fc1 8db8 23d4 33ba 9ac2 1ebd 8b08 34bd
00000390: 3576 a7bc a7b8 1fba e88a acb9 ff97 05be
000003a0: 8111 bfbb 75a2 c5ba 9c47 42bd 4f8a b1b3
000003b0: ec63 0fb9 f8dd 89b9 7323 97bc 1bd1 97bc
000003c0: 6cc8 96ba 3d92 4fbd d56c 4fbd 8d27 39bd
000003d0: c2c4 23bd 0f0e 94bd 13ca 0eb9 37f1 ddbc
000003e0: ab0f bbb8 63eb aebc ac57 80bd 14fd 8cb5
000003f0: 95b7 8bbd 431b b7ba 4b4c ccbb 7b13 e0bc

exp_avg_sq f4 [64, 64]
0.0 0.0 0.0 0.0 0.0 0.0 0.0 0.0
0.0 0.0 0.0 0.0 0.0 0.0 0.0 0.0
0.0 0.0 0.0 0.0 0.0 0.0 0.0 0.0
0.0 0.0 0.0 0.0 0.0 0.0 0.0 0.0
0.0 0.0 0.0 0.0 0.0 0.0 0.0 0.0
0.0 0.0 0.0 0.0 0.0 0.0 0.0 0.0
0.0 0.0 0.0 0.0 0.0 0.0 0.0 0.0
0.0 0.0 0.0 0.0 0.0 0.0 0.0 0.0
1.2274001e-08 0.003288792 0.0016412886 3.9213234e-07 0.0 1.0261908e-07 0.010275087 2.4922103e-10
0.015458797 0.0012084707 2.2462693e-08 0.00030049714 5.171278e-08 0.0028060917 8.402377e-09 0.0028363129
0.0001139759 1.3232882e-07 4.4730623e-06 8.945258e-09 1.3517086e-07 4.0483594e-09 1.0294092e-08 0.0020114921
3.9148595e-08 4.254448e-07 0.005308504 0.0007933757 0.0004984826 0.00080393045 4.281869e-07 7.5790166e-11
2.7078492e-08 2.3280136e-07 0.00065852265 0.0009000709 0.00014579362 1.5005617e-07 5.8758065e-08 0.00755766
7.665565e-06 9.472458e-07 0.0012366925 1.5827446e-10 7.2914695e-08 1.18957026e-07 8.970171e-05 0.0004080336
6.790213e-07 0.0018797688 0.0014722885 0.0011199081 0.00038468442 0.0027523388 7.0961335e-08 0.00038598507
9.601067e-09 3.39781e-05 0.0020496757 3.5292436e-09 0.002270387 1.7989818e-06 0.00014810148 0.00070883415
5.018049e-09 0.0006674611 0.00032450006 7.9873885e-08 5.4249337e-08 3.1485147e-08 0.0020642756 8.810308e-10
0.0031309335 0.00025010997 1.03221005e-08 6.2811174e-05 1.6391e-08 0.0005721199 1.387292e-09 0.000583236
2.1953116e-05 6.3435074e-08 9.486361e-07 8.5379014e-08 6.906677e-08 5.658234e-10 1.9586042e-09 0.00041096768
5.8081305e-08 1.4451868e-07 0.0010825145 0.00015134405 0.000102046244 0.00015630608 2.2446348e-07 1.1341112e-09
4.8396163e-09 5.9845824e-08 0.00013445466 0.00018650501 3.1668453e-05 7.6344165e-08 1.2995733e-08 0.0015465508
1.4896111e-06 2.0229241e-07 0.0002524343 2.5727238e-11 1.5287346e-08 2.2649237e-08 1.9526811e-05 8.068521e-05
1.4557705e-07 0.00037421423 0.00030102703 0.00023165195 8.111581e-05 0.00056140975 1.4946524e-08 7.8300545e-05
3.916879e-08 7.716471e-06 0.0004167942 5.8552746e-10 0.00046204383 3.8956853e-07 2.7679e-05 0.00014556455
1.1985487e-08 0.0011136779 0.000560394 1.9387853e-07 1.2770062e-07 7.5432844e-08 0.0032372249 1.9930078e-09
0.0053417482 0.00040808294 2.4638156e-08 0.00012563991 3.935123e-08 0.00094686466 3.7391645e-09 0.0009404808
4.162413e-05 1.8047972e-07 2.0037078e-06 1.9974506e-07 1.6476748e-07 3.346465e-10 4.7925166e-09 0.00066719117
1.3536433e-07 3.4613507e-07 0.0022890551 0.00027783884 0.00016455905 0.00028894964 6.1860413e-07 2.672326e-09
1.2411901e-08 1.4332761e-07 0.00023407745 0.00031620782 5.3664615e-05 1.8182199e-07 3.1231018e-08 0.0028140342
3.5320556e-06 4.843184e-07 0.00042940595 6.9849e-11 3.6036848e-08 5.652449e-08 3.215633e-05 0.00014191955
3.4848185e-07 0.00063912454 0.0004982783 0.00037148647 0.00016220107 0.0009343294 3.5149363e-08 0.00012935638
9.047189e-08 1.6285974e-05 0.0007384917 1.5680935e-09 0.0008569636 9.232094e-07 5.9910213e-05 0.00023784526
00000000: 0000 0000 0000 0000 0000 0000 0000 0000
00000010: 0000 0000 0000 0000 0000 0000 0000 0000
00000020: 0000 0000 0000 0000 0000 0000 0000 0000
00000030: 0000 0000 0000 0000 0000 0000 0000 0000
00000040: 0000 0000 0000 0000 0000 0000 0000 0000
00000050: 0000 0000 0000 0000 0000 0000 0000 0000
00000060: 0000 0000 0000 0000 0000 0000 0000 0000
00000070: 0000 0000 0000 0000 0000 0000 0000 0000
00000080: 0000 0000 0000 0000 0000 0000 0000 0000
00000090: 0000 0000 0000 0000 0000 0000 0000 0000
000000a0: 0000 0000 0000 0000 0000 0000 0000 0000
000000b0: 0000 0000 0000 0000 0000 0000 0000 0000
000000c0: 0000 0000 0000 0000 0000 0000 0000 0000
000000d0: 0000 0000 0000 0000 0000 0000 0000 0000
000000e0: 0000 0000 0000 0000 0000 0000 0000 0000
000000f0: 0000 0000 0000 0000 0000 0000 0000 0000
00000100: a1dd 5232 c688 573b 8220 d73a 4286 d234
00000110: 0000 0000 705f dc33 d758 283c be02 892f
00000120: e546 7d3c 8c65 9e3a fcf3 c032 0b8c 9d39
00000130: ce1a 5e33 68e6 373b 0b5a 1032 6fe1 393b
00000140: 5806 ef38 4516 0e34 5017 9636 a9ad 1932
00000150: 7c23 1134 bf19 8b31 e5d9 3032 3dd3 033b
00000160: 5624 2833 b068 e434 f6f2 ad3b 8bfa 4f3a
00000170: 9aac 023a dcbe 523a 8fe1 e534 12aa a62e
00000180: 3c9a e832 f3f7 7934 b5a0 2c3a bcf2 6b3a
00000190: 2de0 1839 201f 2134 2d5d 7c33 3fa6 f73b
000001a0: 5a9b 0037 3c46 7e35 8418 a23a 4d06 2e2f
000001b0: 4795 9c33 5175 ff33 3d1e bc38 58ed d539
000001c0: fd45 3635 9362 f63a cef9 c03a e1c9 923a
000001d0: 78af c939 9560 343b 6863 9833 0a5e ca39
000001e0: f0f1 2432 b583 0e38 da53 063b 1c87 7231
000001f0: c6ca 143b 8b74 f135 b04b 1b39 0ed1 393a
00000200: 3a6b ac31 8ef8 2e3a a921 aa39 2287 ab33
00000210: c7ff 6833 493a 0733 cc48 073b 082d 7230
00000220: 5930 4d3b 3121 8339 1455 3132 7eb9 8338
00000230: 31cc 8c32 51fa 153a ffaa be30 4ee4 183a
00000240: f527 b837 cd39 8833 c7a5 7e35 9c59 b733
00000250: dc51 9433 4888 1b30 2198 0631 2677 d739
00000260: 1275 7933 fe2c 1b34 29e3 8d3a 1cb2 1e39
00000270: a901 d638 18e6 2339 0d04 7134 fede 9b30
00000280: b749 a631 9784 8033 66fc 0c39 8f90 4339
00000290: bed3 0438 a6f2 a333 d743 5f32 a2b5 ca3a
000002a0: a6ee c735 b735 5934 2959 8439 974c e22d
000002b0: 3b51 8332 338e c232 82cd a337 8b35 a938
000002c0: ea4f 1c34 2f32 c439 2ad3 9d39 99e7 7239
000002d0: b81c aa38 922b 133a c163 8032 4935 a438
000002e0: 8a3a 2833 fe75 0137 2c85 da39 d5f2 2030
000002f0: 793e f239 e425 d134 3330 e837 b0a2 1839
00000300: bbe8 4d32 d4f8 913a 68e7 123a ed2c 5034
00000310: 141e 0934 a5fd a133 9f27 543b 5df5 0831
00000320: d509 af3b f7f3 d539 e1a3 d332 35be 0339
00000330: 2303 2933 0337 783a 0a7a 8031 998a 763a
00000340: 9295 2e38 e3c9 4134 7077 0636 8179 5634
00000350: f1ea 3034 4ff9 b72f 6cab a431 71e6 2e3a
00000360: aa58 1134 71d4 b934 f903 163b e6aa 9139
00000370: 7c8d 2c39 2a7e 9739 270e 2635 0ea4 3731
00000380: 1e3c 5532 98e5 1934 b072 7539 b2c8 a539
00000390: f115 6138 d93a 4334 de22 0633 a96b 383b
000003a0: 4108 6d36 1b02 0235 e421 e139 7e99 992e
000003b0: efc6 1a33 56c5 7233 99df 0638 3dd0 1439
000003c0: fb16 bb34 ec8a 273a e49e 023a 12c4 c239
000003d0: 8514 2a39 c9ed 743a 22f7 1633 d7a3 0739
000003e0: 7349 c233 dd9d 8837 5797 413a 6384 d730
000003f0: dba5 603a 78d2 7735 1a48 7b38 1a66 7939

exp_avg f4 [64]
0.0 -0.45153686 -0.22560097 -0.36806503 0.02715144 0.005023714 -0.011124565 0.0
0.026693638 -0.14650264 -0.17106368 -0.32699794 -0.14462887 0.06494728 -0.25775194 0.01806142
0.00094253325 5.8280904e-05 0.042183176 -0.19173133 -0.3448169 -0.5919577 0.027149176 0.0059437067
0.016591473 -0.5231978 -0.27193856 -0.054827567 -0.22476472 0.01043934 -0.014905679 4.2858173e-05
-0.36392733 -0.016847545 -0.1580988 0.00059043546 -0.0045702294 -0.0928197 -0.17607073 1.4953772e-05
-0.3353404 -0.45441294 -0.0654636 0.038282596 3.2209606e-05 -0.083849765 -0.105641395 0.080373
0.03959333 0.058734912 0.027456705 -0.009686747 0.0 0.0011915865 -0.12179697 -0.0040823007
0.026195057 0.00432164 -0.02097506 0.0 -0.3400814 0.0 -0.5789312 -0.29495135
00000000: 0000 0000 d72f e7be f103 67be 0573 bcbe
00000010: b26c de3c f89d a43b cf43 36bc 0000 0000
00000020: 9eac da3c ca04 16be 512b 2fbe 466c a7be
00000030: 9719 14be 1403 853d 10f8 83be 8bf5 933c
00000040: 5614 773a a572 7438 44c8 2c3d 3855 44be
00000050: d78b b0be 8a8a 17bf f367 de3c 6dc3 c23b
00000060: d7ea 873c 4bf0 05bf 883b 8bbe df92 60bd
00000070: b928 66be c409 2b3c f336 74bc 9dc2 3338
00000080: af54 babe dd03 8abc a7e4 21be 74c7 1a3a
00000090: ddc1 95bb 4118 bebd e34b 34be f6e1 7a37
000000a0: bdb1 abbe d0a8 e8be c811 86bd 36ce 1c3d
000000b0: cd18 0738 6db9 abbd 845a d8bd 999a a43d
000000c0: 9e2c 223d 0594 703d e2ec e03c 29b5 1ebc
000000d0: 0000 0000 022f 9c3a b170 f9bd d2c4 85bb
000000e0: 0497 d63c 8b9c 8d3b e4d3 abbc 0000 0000
000000f0: 261f aebe 0000 0000 d634 14bf dd03 97be
