gen_3_agent_3.pt (torch, 64207 bytes, 18 tensors)

net.0.weight f4 [64, 4]
-0.26096448 0.09059658 0.103974015 0.30348828 -0.03960283 -0.24170569 -0.14185692 0.22416213
-0.30326074 -0.2778841 0.34336165 0.0076512927 0.2763735 0.23930314 0.064357795 0.05825113
0.119264744 0.014635126 0.038519148 -0.21702726 0.20986597 -0.24902856 0.01744595 0.06671283
-0.16560274 -0.27159533 0.089182466 0.12993379 -0.0027554578 0.03653575 0.22436525 -0.17952713
-0.19842657 -0.20648807 0.14725481 -0.11020566 0.21281677 0.12271263 0.14395115 0.069593534
0.090942755 -0.09105998 -0.298142 0.1320005 0.17826131 0.00534733 -0.32997167 0.19780022
-0.24267635 0.19468099 -0.093253024 0.013623857 -0.26170146 -0.04585224 0.12092338 0.17387323
0.11473723 -0.3095157 0.077960886 0.2006983 -0.021980068 -0.11345751 0.101098716 -0.17185818
0.14410475 -0.09745833 0.22206901 0.22652821 0.20698534 0.059661992 0.20018835 0.23651093
0.13214661 -0.049692042 -0.098033264 0.31945267 -0.06995311 0.067379884 0.2367788 -0.34095648
-0.102851786 -0.050017264 0.3057796 0.19802733 -0.13957696 0.027174708 0.055717777 -0.23779042
-0.07252165 0.0933316 0.16741581 0.14769812 0.18646678 0.20622657 -0.15874757 -0.31929174
-0.07128841 0.028151618 0.10047424 0.033785667 0.13920763 -0.022490304 0.09415975 0.059157345
-0.18919477 -0.100754976 -0.1500103 -0.20900299 0.12809862 -0.17365818 -0.22334398 -0.09851926
-0.059731416 -0.015716925 -0.21577296 -0.0040600356 -0.18099612 0.18257508 -0.039608523 -0.22022474
-0.18848868 -0.2829913 0.09087329 0.24813393 0.2301605 0.23084189 0.31317875 -0.2653802
0.102882005 -0.19526778 -0.27585274 -0.11795733 0.19176102 0.2728339 -0.21576588 0.043798007
-0.17641155 0.16472563 0.10021479 -0.3458281 0.03976946 -0.1904905 0.29093415 -0.10996658
-0.14194569 -0.084496215 0.10698485 0.18082109 0.101120055 -0.20202151 -0.083078034 -0.22798885
0.19488968 0.051494002 0.35814875 0.2712625 -0.19710542 -0.18657975 0.23745632 0.03305991
-0.017227713 0.20619115 -0.16279553 0.049835924 -0.037529778 0.15519515 -0.002464289 -0.24944535
0.16324624 0.20597419 -0.2687046 -0.05245752 0.16851164 0.15857972 -0.2169611 -0.21594502
0.17663167 0.22756654 0.14459571 -0.2938648 0.06304677 0.016574286 -0.12526669 -0.092812605
0.24175453 -0.16540967 0.09689913 0.22371185 0.11432809 -0.13333993 -0.26631457 -0.29978085
0.09290058 0.22039229 -0.22033422 -0.19058184 -0.29973277 0.11420915 -0.065680236 0.22474673
-0.12283189 0.08835139 0.25600684 -0.26665482 -0.07710586 0.19271831 0.11040125 -0.11146199
0.16125107 -0.3184153 -0.21012573 -0.075382404 0.1602298 -0.17223206 0.2649538 0.32909125
0.24234156 0.001752686 0.24865462 -0.047735326 0.09016906 0.104035996 -0.098530225 0.03278707
0.2623858 -0.1520178 -0.13704033 0.27308157 0.18699846 -0.26449913 -0.23750336 0.008074795
-0.05856079 -0.10538159 0.24792877 0.33516532 0.17477165 0.30351394 -0.23193488 0.08772447
-0.2798298 0.09706615 0.2840537 -0.14923935 -0.19468077 -0.25564653 -0.119868055 0.1612158
-0.1697164 -0.13711022 0.057206385 -0.1513212 0.16044457 -0.15684472 0.023885615 -0.13219133
00000000: 239d 85be b38a b93d 54f0 d43d d162 9b3e
00000010: 9436 22bd b281 77be f142 11be c28a 653e
00000020: fe44 9bbe d346 8ebe 19cd af3e b2b7 fa3b
00000030: d480 8d3e e20b 753e 05ce 833d bd98 6e3d
00000040: 1341 f43d 2bc8 6f3c 41c6 1d3d 653c 5ebe
00000050: 1be7 563e 5801 7fbe cfea 8e3c bca0 883d
00000060: c493 29be 8b0e 8bbe 4ca5 b63d 5d0d 053e
00000070: e994 34bb 83a6 153d 01c0 653e f6d5 37be
00000080: 5630 4bbe 9c71 53be f7c9 163e 81b3 e1bd
00000090: a4ec 593e c250 fb3d ee67 133e 0e87 8e3d
000000a0: 3240 ba3d a87d babd 11a6 98be 242b 073e
000000b0: 228a 363e a838 af3b 0cf2 a8be 248c 4a3e
000000c0: 2680 78be 745a 473e 71fb bebd 9936 5f3c
000000d0: bcfd 85be 8fcf 3bbd ada6 f73d d30b 323e
000000e0: 5afb ea3d d878 9ebe f5a9 9f3d db83 4d3e
000000f0: 8b0f b4bc 695c e8bd d80c cf3d 97fb 2fbe
00000100: 3290 133e 3c98 c7bd 0f66 633e 03f7 673e
00000110: f7f3 533e 2260 743d 2dfe 4c3e ec2f 723e
00000120: 7151 073e e289 4bbd aac5 c8bd 4d8f a33e
00000130: 9343 8fbd 77fe 893d 2476 723e d991 aebe
00000140: f5a3 d2bd e7de 4cbd 258f 9c3e adc7 4a3e
00000150: 43ed 0ebe 7e9d de3c 5338 643d 557f 73be
00000160: 3b86 94bd a324 bf3d 0d6f 2b3e 2d3e 173e
00000170: 26f1 3e3e 0f2d 533e b98e 22be 357a a3be
00000180: a8ff 91bd 399e e63c 70c5 cd3d d762 0a3d
00000190: 728c 0e3e 963d b8bc d4d6 c03d f94e 723d
000001a0: 46bc 41be a058 cebd 4d9c 19be e104 56be
000001b0: 492c 033e 73d3 31be 49b4 64be 77c4 c9bd
000001c0: eea8 74bd c8c0 80bc 96f3 5cbe 0c0a 85bb
000001d0: 0c57 39be f6f4 3a3e 8c3c 22bd 9882 61be
000001e0: 2d03 41be 3ce4 90be c71b ba3d d216 7e3e
000001f0: 32af 6b3e d161 6c3e f758 a03e eadf 87be
00000200: cdb3 d23d 47f4 47be 923c 8dbe 9d93 f1bd
00000210: 005d 443e e3b0 8b3e bbf1 5cbe 8a65 333d
00000220: 3ba5 34be d6ad 283e 693d cd3d 6110 b1be
00000230: 4de5 223d f10f 43be 52f5 943e 2936 e1bd
00000240: 365a 11be 5a0c adbd df1a db3d 2a29 393e
00000250: 0818 cf3d bade 4ebe d124 aabd e975 69be
00000260: 2991 473e 60eb 523d 465f b73e ebe2 8a3e
00000270: 01d6 49be c30e 3fbe c027 733e d469 073d
00000280: 2221 8dbc c623 533e dfb3 26be c120 4c3d
00000290: d3b8 19bd 7aeb 1e3e e97f 21bb 9a6e 7fbe
000002a0: 062a 273e e6ea 523e a693 89be b2dd 56bd
000002b0: 518e 2c3e b962 223e 0d2b 5ebe b120 5dbe
000002c0: efde 343e 3407 693e e610 143e 7275 96be
000002d0: aa1e 813d ccc6 873c e945 00be 8914 bebd
000002e0: 808e 773e 2761 29be 0d73 c63d b814 653e
000002f0: d824 ea3d 438a 08be 625a 88be e07c 99be
00000300: a942 be3d 84ae 613e 4b9f 61be e327 43be
00000310: 9376 99be 7de6 e93d 5c83 86bd 0224 663e
00000320: 498f fbbd 93f1 b43d 5413 833e fb86 88be
00000330: ade9 9dbd f357 453e 0d1a e23d 2f46 e4bd
00000340: 001f 253e 5507 a3be 332b 57be 1762 9abd
00000350: 4813 243e 9a5d 30be 06a8 873e a67e a83e
00000360: 6328 783e 62ba e53a 519f 7e3e 1e86 43bd
00000370: 8eaa b83d d310 d53d 37ca c9bd bc4b 063d
00000380: 6e57 863e 8eaa 1bbe 4d54 0cbe 59d1 8b3e
00000390: 867c 3f3e 6e6c 87be 1534 73be 254c 043c
000003a0: 70dd 6fbd 4ed2 d7bd 0ae1 7d3e ca9a ab3e
000003b0: 57f7 323e 2e66 9b3e 5680 6dbe e3a8 b33d
000003c0: da45 8fbe 9eca c63d 7d6f 913e 33d2 18be
000003d0: 655a 47be 1ae4 82be 627d f5bd c115 253e
000003e0: 23ca 2dbe 9f66 0cbe 3e51 6a3d f2f3 1abe
000003f0: 954b 243e e79b 20be c4ab c33c 2a5d 07be

net.0.bias f4 [64]
0.15050688 0.16274299 0.18349242 -0.039239075 0.07833737 0.17700545 0.017860029 -0.02964739
-0.004590217 -0.039894488 0.07987381 -0.07800162 -0.028480576 0.12612836 0.08650602 -0.034628123
0.15966225 0.19243969 0.13548939 0.09285686 0.16992354 -0.001350279 0.15817024 0.08990888
-0.0738978 0.048143223 0.0770296 0.12935203 -0.04633337 0.078694195 0.09544688 0.09906257
-0.044987228 0.057285793 0.08294551 0.14586692 0.15260437 -0.023022845 0.18709001 0.14145124
0.07906069 -0.032468747 -0.025892774 0.092670046 0.08834011 0.011929083 0.16412912 0.08967741
0.08387766 0.16109216 -0.0341312 -0.0379542 0.14942735 0.15206878 -0.020460803 -0.018945351
0.08521051 0.13897593 0.114687406 0.0806095 0.014575947 0.14050479 -0.035263397 -0.025480008
00000000: 7a1e 1a3e 19a6 263e 70e5 3b3e 27b9 20bd
00000010: 586f a03d eb40 353e 324f 923c 15df f2bc
00000020: 8869 96bb 6768 23bd e194 a33d 50bf 9fbd
00000030: 1950 e9bc cb27 013e 112a b13d 38d6 0dbd
00000040: 807e 233e e90e 453e bbbd 0a3e bd2b be3d
00000050: 7000 2e3e d8fb b0ba 61f7 213e 2622 b83d
00000060: bb57 97bd d431 453d b2c1 9d3d dc74 043e
00000070: 0fc8 3dbd 6c2a a13d a779 c33d 51e1 ca3d
00000080: 8744 38bd 82a4 6a3d 56df a93d 235e 153e
00000090: 5244 1c3e 689a bcbc 8694 3f3e 98d8 103e
000000a0: 92ea a13d f3fd 04bd 151d d4bc cbc9 bd3d
000000b0: a9eb b43d 3372 433c 7711 283e caa8 b73d
000000c0: 0dc8 ab3d 58f5 243e 28cd 0bbd dd75 1bbd
000000d0: 7c03 193e ebb7 1b3e 6a9d a7bc 4833 9bbc
000000e0: d982 ae3d b54f 0e3e 3be1 ea3d 9816 a53d
000000f0: f4cf 6e3c 7de0 0f3e 5a70 10bd 73bb d0bc

net.3.weight f4 [64, 64]
0.15703286 0.24175183 -0.21432732 0.15050359 -0.04585944 0.14244728 -0.054652136 0.046541974
0.06449966 -0.18629496 0.15364408 0.14855905 -0.058577776 -0.19913244 0.16021483 0.14070936
-0.14437558 0.047804464 -0.17785156 0.19553529 -0.2059468 -0.106719494 -0.12180575 -0.08453372
-0.14003567 -0.120373845 0.061453566 -0.04829226 -0.035221875 -0.19842324 -0.19275883 0.16276444
0.17788003 -0.1490508 0.10273714 -0.13206702 0.042539112 0.101861164 -0.21978506 0.16461137
0.2058431 -0.19315982 0.043194696 -0.19350094 0.048308834 -0.032433227 -0.17001802 -0.15510629
0.160203 0.15707599 -0.17844334 0.021742702 -0.08420719 -0.12946069 -0.1053187 0.08403222
0.1548317 -0.18113393 -0.13877814 -0.17057207 -0.064936355 0.007627464 -0.054236636 -0.16224873
-0.09913875 -0.12470541 0.2822042 -0.12242782 0.18451226 0.0677275 0.054375373 0.1089036
0.06386821 -0.1347285 -0.114390895 0.15044464 0.16666107 -0.01934496 0.16910258 -0.14155571
-0.046133466 0.14697552 -0.07039958 0.19597079 0.22368713 0.13865182 0.03537538 0.11315597
-0.1598286 0.10798985 -0.024836529 0.23680305 -0.0919853 0.062076703 0.22606547 0.13041896
-0.035887465 0.15924305 -0.1004261 -0.043498337 -0.049886838 -0.00906232 0.25795525 0.1583952
0.03125579 0.044010304 0.10013873 0.28507826 0.24207409 0.011941278 0.27460527 0.16512468
0.2033275 0.17309579 -0.17005949 0.099487334 0.24070269 0.043867745 -0.035123307 0.010795007
-0.0053542233 0.1255337 0.23070507 0.032674506 0.043724723 -0.02436301 -0.05212919 0.08060363
0.16636315 -0.020858666 0.06203802 0.11763144 0.28718513 0.26931176 0.1693675 0.1254951
-0.0400415 0.10789608 0.11371332 0.05177184 -0.1701977 -0.027594475 0.20076184 -0.16739018
0.15730022 0.34032565 0.28997588 0.06664206 0.10683067 0.047549378 -0.05736428 0.31375548
0.21479674 0.012146218 0.29601806 -0.04255707 -0.09726513 0.22826676 -0.07204755 0.027172368
-0.062326107 0.06843379 0.0020261903 0.28819925 0.28204954 0.15225059 0.32622823 0.23326686
0.18114415 -0.10738826 -0.02691989 -0.04967043 0.26118132 0.045300283 -0.111186296 0.20422105
0.19986418 0.11598246 -0.095157176 -0.15915368 0.28272277 0.2937201 0.012993495 0.1168364
-0.11700772 0.28289104 0.26000178 -0.095278844 0.2637625 0.13069636 -0.12943077 0.20872541
-0.19505642 -0.023103535 0.059980914 0.1682979 0.11601685 -0.122405104 -0.04335594 0.07375218
-0.15753388 -0.107112676 -0.15782425 -0.056561843 -0.053581282 -0.09049448 0.1997159 0.10138591
-0.1522856 -0.006103575 -0.07028444 0.01704526 -0.037212104 0.0031839162 0.049059734 0.10059993
0.18049662 0.058298126 -0.14557403 -0.06511553 0.14624749 -0.14020748 0.055423096 0.18592905
-0.11484419 0.2068765 -0.096913174 -0.15149423 -0.046226144 0.15467279 0.10553686 0.06629537
0.111319646 -0.18095726 -0.18891819 -0.0056592673 0.045526877 -0.08974661 -0.21260422 -0.1897666
0.032927945 0.19112433 -0.1758464 -0.20903195 0.06014593 -0.025389537 -0.019388065 0.15076299
-0.09927173 -0.095485926 -0.20410705 -0.17365739 -0.14682093 -0.15676343 -0.08404845 0.0943401
00000000: 39cd 203e cb8d 773e 9f78 5bbe 9d1d 1a3e
00000010: 1cd7 3bbd b3dd 113e ebda 5fbd cca2 3e3d
00000020: 6618 843d 1bc4 3ebe e054 1d3e dd1f 183e
00000030: 40ef 6fbd 60e9 4bbe 5b0f 243e 1d16 103e
00000040: 31d7 13be 9dce 433d b81e 36be 673a 483e
00000050: b8e3 52be c08f dabd 4b75 f9bd 0420 adbd
00000060: 8365 0fbe 9086 f6bd bcb6 7b3d 1bce 45bd
00000070: d044 10bd 762f 4bbe 9262 45be b9ab 263e
00000080: 2f26 363e c6a0 18be da67 d23d 943c 07be
00000090: 7e3d 2e3d 969c d03d 560f 61be e28f 283e
000000a0: 89c8 523e b0cb 45be ecec 303d 1c25 46be
000000b0: 7cdf 453d b4d8 04bd 3419 2ebe 2fd4 1ebe
000000c0: 410c 243e 87d8 203e dab9 36be c01d b23c
000000d0: d274 acbd 5891 04be 55b1 d7bd 1619 ac3d
000000e0: 338c 1e3e 2c7b 39be db1b 0ebe 72aa 2ebe
000000f0: 5afd 84bd ceef f93b 3c27 5ebd 8824 26be
00000100: 4209 cbbd 8d65 ffbd 127d 903e 70bb fabd
00000110: c8f0 3c3e b7b4 8a3d b6b8 5e3d da08 df3d
00000120: 56cd 823d 45f6 09be c645 eabd 290e 1a3e
00000130: 33a9 2a3e 5279 9ebc 3a29 2d3e fbf3 10be
00000140: 72f6 3cbd c080 163e a82d 90bd 91ac 483e
00000150: 3d0e 653e befa 0d3e c6e5 103d 51be e73d
00000160: 1caa 23be c829 dd3d fa75 cbbc 807c 723e
00000170: ca62 bcbd 2444 7e3d b57d 673e 8c8c 053e
00000180: bcfe 12bd 9c10 233e 33ac cdbd 502b 32bd
00000190: 2456 4cbd 207a 14bc b612 843e 5a32 223e
000001a0: 1206 003d 2644 343d 8915 cd3d c7f5 913e
000001b0: 45e2 773e 5aa5 433c 1099 8c3e 7216 293e
000001c0: 1635 503e 0640 313e 1324 2ebe 04c0 cb3d
000001d0: c47a 763e aaae 333d 75dd 0fbd 8bdd 303c
000001e0: 7b72 afbb e88b 003e f33d 6c3e b4d5 053d
000001f0: b218 333d ef94 c7bc 6b85 55bd 8413 a53d
00000200: 1a5b 2a3e cbdf aabc 941b 7e3d c1e8 f03d
00000210: ee09 933e 3be3 893e ad6e 2d3e ca81 003e
00000220: 8e02 24bd 9ff8 dc3d 87e2 e83d b50e 543d
00000230: 4e48 2ebe cf0d e2bc 8394 4d3e 5568 2bbe
00000240: 4f13 213e 2a3f ae3e b877 943e a27b 883d
00000250: 0aca da3d 23c3 423d cff6 6abd 8fa4 a03e
00000260: adf3 5b3e ee00 473c ae8f 973e 5250 2ebd
00000270: f132 c7bd c3be 693e aa8d 93bd 9698 de3c
00000280: a949 7fbd 0427 8c3d d5c9 043b da8e 933e
00000290: cc68 903e 94e7 1b3e 6307 a73e 82dd 6e3e
000002a0: da7d 393e 60ee dbbd 1a87 dcbc 3973 4bbd
000002b0: 8fb9 853e ca8c 393d a4b5 e3bd 531f 513e
000002c0: 32a9 4c3e 3688 ed3d c4e1 c2bd 2ff9 22be
000002d0: 0ac1 903e 7b62 963e abe2 543c ec47 ef3d
000002e0: bea1 efbd 18d7 903e f41e 853e 8e21 c3bd
000002f0: e10b 873e 44d5 053e 8089 04be 1dbc 553e
00000300: dfbc 47be a043 bdbc 8cae 753d 4956 2c3e
00000310: 3e9a ed3d 87af fabd 0096 31bd 620b 973d
00000320: 9050 21be e45d dbbd ae9c 21be 64ad 67bd
00000330: 0c78 5bbd 2c55 b9bd 5382 4c3e 6aa3 cf3d
00000340: c2f0 1bbe 8000 c8bb 4af1 8fbd 80a2 8b3c
00000350: b86b 18bd 40a9 503b dcf2 483d 5607 ce3d
00000360: 1bd4 383e 04ca 6e3d 5c11 15be 4a5b 85bd
00000370: e7c1 153e 8d92 0fbe 5403 633d 2f64 3e3e
00000380: 6e33 ebbd 6fd7 533e 6a7a c6bd 4e21 1bbe
00000390: a057 3dbd 8b62 1e3e b623 d83d dec5 873d
000003a0: 8efb e33d dc4c 39be c573 41be 6071 b9bb
000003b0: 647a 3a3d 12cd b7bd ecb4 59be 2d52 42be
000003c0: 74df 063d 19b6 433e 1411 34be 790c 56be
000003d0: 945b 763d b8fd cfbc b8d3 9ebc 9d61 1a3e
000003e0: fa4e cbbd 208e c3bd 7001 51be 3ed3 31be
000003f0: 3a58 16be 9886 20be 9821 acbd 6235 c13d

net.3.bias f4 [64]
0.006443735 0.12891328 0.16150856 0.0 0.11268964 -0.035366178 -0.031950023 -0.012388726
0.1206056 0.16580959 0.06373812 -0.03387457 0.06865249 -0.0121017685 0.0 -0.027225867
0.06315318 -0.037187394 -0.029328963 -0.036153294 0.10253439 0.12336528 0.1629194 0.0
0.0 0.058404848 -0.08766322 0.16922641 0.020438423 0.13151592 -0.012388725 0.0143359555
-0.06736776 -0.023242317 0.0 0.089317374 -0.039666943 -0.019529674 -0.04192475 -0.015263646
0.0 0.09221447 -0.019066013 0.18225265 -0.028662529 -0.032403328 0.14699398 0.18454048
0.09657345 -0.03125295 -0.05710729 0.17196554 0.041588984 0.10891729 0.1631341 -0.02511107
-0.010868924 -0.02240174 0.0 -0.032698568 0.17449842 -0.050034113 0.054736022 0.072919086
00000000: f825 d33b d801 043e 8062 253e 0000 0000
00000010: d3c9 e63d 20dc 10bd 07de 02bd 15fa 4abc
00000020: 1200 f73d fdc9 293e 2289 823d 10c0 0abd
00000030: ad99 8c3d 7f46 46bc 0000 0000 c808 dfbc
00000040: 7456 813d cf51 18bd 4b43 f0bc 7a15 14bd
00000050: 8dfd d13d f0a6 fc3d 58d4 263e 0000 0000
00000060: 0000 0000 ec39 6f3d c688 b3bd b049 2d3e
00000070: 7b6e a73c 1cac 063e 14fa 4abc 5be1 6a3c
00000080: 1cf8 89bd ac66 bebc 0000 0000 07ec b63d
00000090: ce79 22bd b2fc 9fbc 49b9 2bbd 5f14 7abc
000000a0: 0000 0000 f1da bc3d 5430 9cbc 70a0 3a3e
000000b0: aecd eabc 5ab9 04bd 9785 163e 2ef8 3c3e
000000c0: 4dc8 c53d 1803 00bd 55e9 69bd bc17 303e
000000d0: 3659 2a3d 0710 df3d a00c 273e bbb5 cdbc
000000e0: 9213 32bc db83 b7bc 0000 0000 efee 05bd
000000f0: b7af 323e 92f0 4cbd e132 603d 9a56 953d

net.6.weight f4 [2, 64]
0.08474683 0.3261505 0.23172316 0.04891777 0.36164793 -0.26246727 0.015742967 -0.21427396
0.09371157 0.30021828 0.07992888 -0.26850984 0.33123732 0.15891735 -0.008087754 0.01194031
0.017503137 -0.19490759 -0.111685894 -0.1354311 0.16592616 0.25377285 0.33374655 -0.10544534
0.20397037 0.19523694 -0.19552821 0.3692502 0.15654165 0.2364638 -0.19244622 0.035001617
-0.19359548 -0.17534909 0.2189331 0.35932222 -0.10131722 0.09882648 -0.21533023 -0.16502465
0.16465911 0.34306768 -0.11917459 0.12741178 0.0054549933 -0.024946969 0.20904525 0.41805968
0.23517081 -0.13113582 -0.05623623 0.22370154 0.1415835 0.2952875 0.3573464 -0.18728141
-0.25207794 -0.10917971 -0.27474073 -0.061921973 0.36583534 -0.24823175 0.14483894 0.09362143
-0.10643129 0.02027139 0.20940138 0.24473816 0.35118285 -0.20928812 -0.052453354 0.19659063
0.052561358 0.2611307 -0.000532604 -0.04002474 -0.13216166 -0.26449612 0.010322988 -0.0128720105
0.10079794 0.26680198 -0.027912196 -0.032454073 -0.011334737 0.20363012 0.3701638 0.11915007
0.0514988 -0.029620774 0.16024952 0.08053213 -0.15972432 -0.013872824 0.1217221 0.14666556
-0.067788206 -0.2550273 -0.09180707 -0.15004602 -0.053740863 -0.14241374 -0.13317601 -0.15602247
0.106444 0.029163249 -0.27280447 0.2013284 -0.27333245 -0.02783647 0.18598244 0.35227874
-0.100250766 0.2799548 -0.20527641 0.15855904 -0.08177118 0.22171247 0.26278368 0.14668417
0.2772767 0.22004515 -0.0072541833 0.019055665 0.20278442 -0.07609681 -0.0061934674 0.026612
00000000: bf8f ad3d 33fd a63e d648 6d3e 005e 483d
00000010: eb29 b93e 1c62 86be 65f7 803c a26a 5bbe
00000020: daeb bf3d 36b6 993e c1b1 a33d 1f7a 89be
00000030: f097 a93e 3bbb 223e 8082 04bc 4aa1 433c
00000040: bd62 8f3c db95 47be 93bb e4bd 73ae 0abe
00000050: 8ce8 293e 84ee 813e d4e0 aa3e baf3 d7bd
00000060: 9cdd 503e 31ec 473e 8c38 48be 5d0e bd3e
00000070: 744c 203e 9123 723e 9f10 45be db5d 0f3d
00000080: e53d 46be b68e 33be 0030 603e 15f9 b73e
00000090: 677f cfbd 8a65 ca3d 877f 5cbe 39fc 28be
000000a0: 669c 283e 91a6 af3e cf11 f4bd 3c78 023e
000000b0: cdbf b23b 965d ccbc f50f 563e eb0b d63e
000000c0: 9ed0 703e 7848 06be f657 66bd 0412 653e
000000d0: 44fb 103e ec2f 973e 1bf6 b63e b3c6 3fbe
000000e0: 5c10 81be 9d99 dfbd d1aa 8cbe e5a1 7dbd
000000f0: c54e bb3e 7730 7ebe a950 143e 98bc bf3d
00000100: a6f8 d9bd 3010 a63c 516d 563e a49c 7a3e
00000110: 3dce b33e a04f 56be 54d9 56bd 0e4f 493e
00000120: 944a 573d ecb2 853e 739e 0bba fbf0 23bd
00000130: 6355 07be 096c 87be c021 293c 20e5 52bc
00000140: 266f ce3d 459a 883e 1ea8 e4bc 90ee 04bd
00000150: 55b5 39bc 6a84 503e 1c86 bd3e f404 f43d
00000160: 68f0 523d 44a7 f2bc 7318 243e 08ee a43d
00000170: c68e 23be d74a 63bc 7049 f93d 7f2f 163e
00000180: 8bd4 8abd f092 82be 5805 bcbd aaa5 19be
00000190: 611f 5cbd e8d4 11be 4b5f 08be 5bc4 1fbe
000001a0: 50ff d93d c4e7 ee3c 07ad 8bbe 0829 4e3e
000001b0: 3bf2 8bbe 4f09 e4bc 2e72 3e3e e15d b43e
000001c0: 4650 cdbd 3c56 8f3e fb33 52be 4d5d 223e
000001d0: a677 a7bd 9808 633e 958b 863e 6034 163e
000001e0: 36f7 8d3e 8453 613e 80b4 edbb a01a 9c3c
000001f0: b8a6 4f3e a5d8 9bbd 92f2 cabb 6901 da3c

net.6.bias f4 [2]
0.14505516 0.10657489
00000000: 5789 143e f043 da3d

exp_avg f4 [64, 4]
-0.029906355 -0.112444684 0.054483276 0.27489626 -0.109801 -0.9291055 0.162531 1.5558374
0.048783924 0.77288073 -0.053705957 -1.1009353 -0.00018622144 0.004690308 -0.00013208315 -0.009061241
0.0017348927 0.0028283969 -0.0012949215 0.00810286 -0.04123781 -0.007881122 0.08196241 0.20078674
-0.060136188 -0.5695688 0.08345134 0.9026202 -6.2461095e-06 0.00018144153 -1.0113457e-05 -0.000355934
-0.0062291413 -0.04874236 0.0090165 0.079441346 -3.443826e-08 -3.110342e-06 3.8144216e-07 4.902483e-06
-0.013981987 0.00063345383 0.028071383 0.06663003 -0.016052777 -0.18979023 0.020979945 0.28772685
-3.3180927e-06 2.379297e-06 3.5498495e-06 -4.8008524e-06 -0.0005389378 0.13973382 0.0060047624 -0.17442204
-0.028910954 -0.1909583 0.04645511 0.34955263 -5.3894466e-05 0.001443534 -6.485934e-05 -0.0028221242
-0.004364948 0.2536983 0.025376223 -0.25306976 -0.03171185 0.11760894 0.069199584 0.013715216
0.006008788 0.33205003 0.008343999 -0.38596812 0.002054558 -0.0014784731 -0.0019895015 0.01597887
-0.048036557 -0.20504013 0.08446364 0.45436838 0.00072724494 -0.0028731641 -0.0010245319 0.008297448
0.01952108 0.6023311 0.0028686612 -0.73821634 0.002269625 -0.0043824986 -0.0020155013 0.0222079
-5.882146e-05 -0.00067082455 8.031382e-05 0.0010478306 0.023346873 0.42818832 -0.019640323 -0.5841134
0.0012613229 -0.00018435648 -0.0011900805 0.008633232 0.04650788 0.79890543 -0.04300152 -1.1224854
-8.6566325e-07 -2.3910976e-05 2.9111366e-06 3.8196904e-05 0.001646731 -0.0039428356 -0.0011641799 0.018758187
0.0012848838 0.12505239 0.00546461 -0.14028727 0.0021546378 -0.004278094 -0.0018457772 0.021205073
-1.3690628e-07 -1.7493265e-05 1.6288642e-06 2.7530501e-05 0.0016753682 -0.0013291322 -0.001257201 0.013559826
0.0018727509 -0.002643074 -0.0015746887 0.017442906 0.0895991 1.4213816 -0.0925807 -1.9887629
-0.005545266 0.19781134 0.025878172 -0.19074735 3.4676694e-05 -0.0010491168 4.57925e-05 0.0020275987
-0.028480798 0.12123397 0.063442305 0.0004954338 -0.04443228 -0.2517527 0.076395035 0.4925457
0.0023142614 0.020057172 -0.0006295223 -0.009186781 -1.2502897e-05 0.0002565824 -7.574263e-06 -0.00050630665
-8.796077e-05 0.002296961 -7.3567455e-05 -0.004441056 0.0007021332 -0.0062768497 0.001033601 0.01834514
0.0029254942 -0.005037142 -0.0026485284 0.0311799 0.00056822743 -0.0013719626 -0.00088762824 0.004944361
-0.09193098 -0.71312237 0.13856746 1.2241641 0.0017120737 0.0147817405 -0.0011720826 -0.007638602
0.0016808276 -0.0017872197 -0.0011616084 0.017129282 0.010695373 0.32414946 -0.0003792297 -0.4040448
6.889812e-06 -0.00039852504 2.22216e-05 0.00076190644 -5.601474e-05 0.0013771718 -4.1412302e-05 -0.0026603544
-0.010937736 0.14648673 0.026343945 -0.14221789 -0.04623826 -0.26083922 0.07703079 0.5107615
3.200321e-08 -2.0371834e-07 3.709089e-08 3.0497645e-07 2.6216992e-07 3.714863e-07 -2.553028e-07 -2.5488453e-07
-0.010953115 -0.04861695 0.020521987 0.113390334 -0.03916006 -0.10696947 0.072212465 0.30783102
-0.017839324 -0.033505846 0.036291115 0.13741809 0.0014440259 0.016903076 0.00012997554 -0.010097686
0.00091722223 -0.001642387 -0.0014858546 0.0069623855 -0.043312684 -0.33089405 0.06586688 0.5689264
-3.3599079e-06 -1.8785518e-05 -1.6562539e-06 9.524203e-06 -2.7775011e-05 0.00063296 -1.0504353e-05 -0.0012198885
00000000: 2cfe f4bc 6649 e6bd db29 5f3d 34bf 8c3e
00000010: 59df e0bd dcd9 6dbf 876e 263e ae25 c73f
00000020: a7d1 473d 83db 453f c7fa 5bbd 73eb 8cbf
00000030: 7044 43b9 28b1 993b cd7f 0ab9 9975 14bc
00000040: 5765 e33a a05c 393b 5bba a9ba dcc1 043c
00000050: fae8 28bd d21f 01bc e8db a73d 0a9b 4d3e
00000060: 5d51 76bd 43cf 11bf 89e8 aa3d 1e12 673f
00000070: ac95 d1b6 5741 3e39 f8ac 29b7 a79c bab9
00000080: d31d ccbb 12a6 47bd f1b9 133c 25b2 a23d
00000090: 44e9 13b3 45bb 50b6 03c9 cc34 0280 a436
000000a0: b414 65bc 5e0e 263a f5f5 e53c 5375 883d
000000b0: 1d81 83bc 5f58 42be 22de ab3c ef50 933e
000000c0: 66ac 5eb6 03ac 1f36 f339 6e36 0217 a1b6
000000d0: 8147 0dba 6216 0f3e 99c3 c43b b19b 32be
000000e0: aad6 ecbc 938a 43be b747 3e3d 90f8 b23e
000000f0: be0c 62b8 f734 bd3a 1805 88b8 63f3 38bb
00000100: d607 8fbb bee4 813e cce1 cf3c 5c92 81be
00000110: 49e4 01bd f5dc f03d 83b8 8d3d c9b5 603c
00000120: 5ee5 c43b 7602 aa3e 45b5 083c 9d9d c5be
00000130: c3a5 063b 53c9 c1ba 4c62 02bb 1fe6 823c
00000140: fbc1 44bd 0af6 51be 46fb ac3d f9a2 e83e
00000150: 95a4 3e3a b24b 3cbb 9649 86ba 05f2 073c
00000160: acea 9f3c 5f32 1a3f 2600 3c3b bffb 3cbf
00000170: fdbd 143b 109b 8fbb 8016 04bb 58ed b53c
00000180: 10b7 76b8 46da 2fba 276e a838 5c57 893a
00000190: f141 bf3c 803b db3e bee4 a0bc 7588 15bf
000001a0: f952 a53a d14f 41b9 7afc 9bba 6672 0d3c
000001b0: 0c7f 3e3d 1185 4c3f 5d22 30bd 9aad 8fbf
000001c0: ed5f 68b5 6e94 c8b7 f25c 4336 9d35 2038
000001d0: 20d7 d73a e732 81bb 6597 98ba c5aa 993c
000001e0: 8c69 a83a bc0d 003e 7910 b33b 77a7 0fbe
000001f0: d334 0d3b 412f 8cbb 01ee f1ba 43b6 ad3c
00000200: 8300 13b4 80be 92b7 599f da35 4df1 e637
00000210: 0798 db3a 4736 aeba aac8 a4ba 082a 5e3c
00000220: 1877 f53a 6c37 2dbb c965 ceba 6de4 8e3c
00000230: bc7f b73d d5ef b53f f39a bdbd c88f febf
00000240: 10b5 b5bb 0e8f 4a3e 76fe d33c 4653 43be
00000250: d171 1138 8582 89ba 5311 4038 76e1 043b
00000260: 9050 e9bc 8449 f83d 0aee 813d 00e0 013a
00000270: 9ffe 35bd bbe5 80be 0075 9c3d f32e fc3e
00000280: ddaa 173b f04e a43c 8706 25ba 2784 16bc
00000290: 89c3 51b7 e885 8639 6c26 feb6 aab9 04ba
000002a0: 9477 b8b8 9c88 163b 3a48 9ab8 4786 91bb
000002b0: 5d0f 383a 08ae cdbb e579 873a 8c48 963c
000002c0: a6b9 3f3b 9c0e a5bb ef92 2dbb fd6c ff3c
000002d0: 19f5 143a 6dd3 b3ba b9af 68ba 4e04 a23b
000002e0: 4f46 bcbd 308f 36bf a1e4 0d3e 69b1 9c3f
000002f0: a967 e03a 1d2f 723c 91a0 99ba 3d4d fabb
00000300: 374f dc3a 2441 eaba 1c41 98ba b552 8c3c
00000310: a53b 2f3c ebf6 a53e 59d3 c6b9 f6de cebe
00000320: 092f e736 20f1 d0b9 8668 ba37 adba 473a
00000330: 5ef1 6ab8 3882 b43a 1fb2 2db8 5759 2ebb
00000340: 3134 33bc 9e00 163e 42cf d73c 91a1 11be
00000350: 5464 3dbd b88c 85be 52c2 9d3d 44c1 023f
00000360: e773 0933 acbd 5ab4 dd4d 1f33 a5bb a334
00000370: 5cc0 8c34 b070 c734 8d10 89b4 10d7 88b4
00000380: b274 33bc 9122 47bd ba1d a83c 3139 e83d
00000390: 4d66 20bd cf12 dbbd 21e4 933d 079c 9d3e
000003a0: c623 92bc 6d3d 09bd fea5 143d 54b7 0c3e
000003b0: 7845 bd3a 5278 8a3c 0b4a 0839 c470 25bc
000003c0: be71 703a 5d45 d7ba 02c1 c2ba b924 e43b
000003d0: a468 31bd f26a a9be 37e5 863d 29a5 113f
000003e0: c77a 61b6 9895 9db7 734c deb5 24ca 1f37
000003f0: 62fe e8b7 3aed 253a da3b 30b7 aae4 9fba

exp_avg_sq f4 [64, 4]
0.0034531082 0.40130752 0.008023756 1.0578552 0.0064955126 0.72001076 0.015031238 1.9289845
0.001948288 0.28278726 0.0038631097 0.6817933 6.043e-08 1.6543132e-05 6.0200364e-08 6.166134e-05
8.8708305e-07 2.668613e-05 1.4802164e-06 4.1943003e-05 0.011763283 1.3756119 0.027864175 3.6601882
0.0013342325 0.16642915 0.0029033693 0.42542696 6.620932e-08 1.3812449e-07 1.6529711e-08 4.918473e-07
7.881324e-05 0.010563236 0.00017464846 0.026920455 6.159749e-08 5.518276e-05 8.266888e-07 0.00013697745
0.0018081707 0.21413128 0.0042537223 0.56913096 6.544993e-05 0.00909839 0.00014316734 0.022500066
8.5327386e-08 9.491883e-08 9.900931e-08 1.9439872e-07 0.0006619956 0.093833864 0.001350062 0.22525534
0.0016032909 0.17751208 0.0035253265 0.46798268 9.791269e-07 4.408113e-06 1.7225443e-07 1.4778133e-05
0.0054446184 0.5943586 0.012653859 1.6037451 0.011684548 1.3072407 0.026800677 3.483059
0.0050779004 0.58135074 0.011750978 1.5550593 1.869573e-06 4.4606353e-05 4.761296e-06 0.00013369846
0.0072758035 0.8402363 0.016431252 2.2087405 7.113424e-08 6.6432744e-06 1.507688e-07 2.5341864e-05
0.008724124 0.9558304 0.02045827 2.583405 2.9812006e-06 7.152326e-05 7.97686e-06 0.00020600628
8.648461e-06 0.0016498035 2.656191e-05 0.0041050566 0.0015314443 0.16652508 0.0038227576 0.4576231
5.784595e-07 1.6823651e-05 1.4223948e-06 4.2278793e-05 0.0018630103 0.25679255 0.0031121229 0.5884863
1.5880521e-06 0.00070473336 1.143948e-05 0.0018001162 8.3322897e-07 5.3540098e-05 3.304592e-06 0.00016169054
0.0008614181 0.09353447 0.0019330562 0.25146306 1.5564568e-06 6.0447255e-05 3.8821454e-06 0.00018670798
4.276488e-07 0.0005804592 5.963491e-06 0.0014439321 4.9475574e-07 2.6443095e-05 9.0054147e-07 7.266994e-05
8.2357906e-07 4.260007e-05 2.8489474e-06 0.0001136205 0.00937829 1.0456505 0.02222145 2.8484793
0.0042276843 0.47673532 0.00976851 1.274121 1.9518454e-07 1.7391343e-06 2.1862404e-07 5.869538e-06
0.014152385 1.6521622 0.033649083 4.413993 0.0050796014 0.55321336 0.012048286 1.5077614
8.5319186e-07 0.0004604621 3.780347e-06 0.0007299257 2.1525277e-07 3.8628104e-07 2.8544376e-08 1.1572375e-06
5.7846385e-09 4.0221594e-06 5.848942e-09 1.5050457e-05 1.359409e-06 8.8879395e-05 3.2510525e-06 0.00027020328
6.993616e-06 0.0001303008 1.9333718e-05 0.0003883034 2.8899587e-08 1.5332943e-06 8.902545e-08 6.2089653e-06
0.0059153023 0.6615285 0.013806375 1.7744042 9.423188e-07 0.00021677857 3.0238584e-06 0.00034012727
1.0382366e-06 4.5308116e-05 3.683807e-06 0.0001299361 0.0024589587 0.27398634 0.005983355 0.7486332
4.4900696e-07 9.189467e-07 2.5400914e-07 2.518572e-06 2.2736586e-07 1.7865891e-06 4.0038262e-07 6.1962573e-06
0.0023405466 0.32381275 0.00462317 0.7708145 0.005042943 0.5553675 0.011687683 1.488662
4.8021683e-08 3.1507147e-06 6.4701496e-08 7.1883946e-06 8.625556e-11 1.7318366e-10 8.179609e-11 8.152829e-11
0.00058756996 0.0629695 0.0012808413 0.16680385 0.0063232225 0.7273464 0.014624695 1.9308678
0.0038409985 0.42850742 0.008624779 1.1407831 2.2694215e-07 0.0002608712 1.6440629e-06 0.00039792032
2.6067613e-07 2.5492513e-06 5.797584e-07 1.0635524e-05 0.0018521954 0.20977883 0.0039814664 0.54172754
3.0413597e-07 1.4527601e-05 1.4703454e-07 1.5836507e-05 6.822253e-09 4.485224e-07 2.2807562e-08 1.6833911e-06
00000000: 8b4d 623b 2e78 cd3e 1276 033c cd67 873f
00000010: 4fd8 d43b a052 383f 9545 763c f7e8 f63f
00000020: b25d ff3a 7ec9 903e 3a2c 7d3b 018a 2e3f
00000030: bec5 8133 1bc6 8a37 8047 8133 2e50 8138
00000040: e21f 6e35 07dc df37 d9ab c635 f5eb 2f38
00000050: c9ba 403c 0d14 b03f 6943 e43c 8640 6a40
00000060: 6ae1 ae3a 676c 2a3e 7446 3e3b 90d1 d93e
00000070: f52e 8e33 5f4f 1434 38fd 8d32 7d07 0435
00000080: 8948 a538 6c11 2d3c d721 3739 4988 dc3c
00000090: 9447 8433 0a74 6738 9fe9 5d35 9ba1 0f39
000000a0: 2400 ed3a 3b45 5b3e cf62 8b3b 91b2 113f
000000b0: 2a42 8938 6a11 153c 311f 1639 0f52 b83c
000000c0: 3a3d b733 2ed6 cb33 f29e d433 eabb 5034
000000d0: c689 2d3a f82b c03d 90f4 b03a 56a9 663e
000000e0: 8425 d23a bac5 353e 2a09 673b 6d9b ef3e
000000f0: 8b6a 8335 67e9 9336 f0f4 3834 99ef 7737
00000100: c568 b23b e327 183f 2252 4f3c 8547 cd3f
00000110: 8c70 3f3c aa53 a73f 188d db3c 70ea 5e40
00000120: 8464 a63b 67d3 143f 2d87 403c 2f0c c73f
00000130: 0aee fa35 b517 3b38 39c3 9f36 6831 0c39
00000140: dd69 ee3b ba19 573f d59a 863c 015c 0d40
00000150: 76c2 9833 4be9 de36 03e3 2134 3d95 d437
00000160: a1ef 0e3c 4db1 743f 1a98 a73c 8256 2540
00000170: a310 4836 c2fe 9538 5ad4 0537 6403 5839
00000180: db18 1137 383e d83a 44d1 de37 b683 863b
00000190: beba c83a 8d85 2a3e 3b87 7a3b 934d ea3e
000001a0: 6f47 1b35 8420 8d37 1de9 be35 8254 3138
000001b0: 4130 f43a 507a 833e c2f4 4b3b 0aa7 163f
000001c0: 0e25 d535 dbbd 383a 31ec 3f37 e0f1 eb3a
000001d0: 0fab 5f35 3e90 6038 75c4 5d36 798b 2939
000001e0: cad0 613a 008f bf3d 9a5e fd3a c4bf 803e
000001f0: 73e7 d035 bf88 7d38 6043 8236 0bc7 4339
00000200: 9b97 e534 f529 183a ff19 c836 5242 bd3a
00000210: 5bcf 0435 1dd2 dd37 bdbc 7135 6166 9838
00000220: ec13 5d35 7aad 3238 8b30 3f36 8b47 ee38
00000230: 66a7 193c e0d7 853f c209 b63c 7c4d 3640
00000240: 6388 8a3b a716 f43e 1a0c 203c 6616 a33f
00000250: eb93 5134 336c e935 ebbe 6a34 f3f2 c436
00000260: 68df 673c 0d7a d33f 9fd3 093d 6e3f 8d40
00000270: c972 a63b 649f 0d3f 2d66 453c 53fe c03f
00000280: e606 6535 2d6a f139 deb1 7d36 7c58 3f3a
00000290: 3b20 6734 1062 cf34 bf31 f532 6152 9b35
000002a0: 38c2 c631 16f6 8636 d7f7 c831 3881 7c37
000002b0: f074 b635 c364 ba38 a82c 5a36 12aa 8d39
000002c0: b4aa ea36 5ba1 0839 d82e a237 3395 cb39
000002d0: dd3e f832 97cb cd35 422e bf33 9b56 d036
000002e0: 27d5 c13b ef59 293f 2234 623c ad1f e33f
000002f0: a8f3 7c35 0e4f 6339 7eed 4a36 1c53 b239
00000300: 8a59 8b35 3809 3e38 5337 7736 753f 0839
00000310: 7b26 213b f047 8c3e 0510 c43b 6da6 3f3f
00000320: 0c0f f134 89ad 7635 c05e 8834 bd04 2936
00000330: da21 7434 bcca ef35 2bf4 d634 72e9 cf36
00000340: db63 193b c9ca a53e f67d 973b 1954 453f
00000350: 463f a53b 912c 0e3f b27d 3f3c 7a8c be3f
00000360: 6640 4e33 de70 5336 06f2 8a33 d733 f136
00000370: 90ad bd2e de6a 3e2f 1bdf b32e 5948 b32e
00000380: 2707 1a3a 27f6 803d e7e1 a73a a1ce 2a3e
00000390: 0933 cf3b 6033 3a3f 6b9c 6f3c ad26 f73f
000003a0: 43b9 7b3b 5365 db3e f24e 0d3c 2e05 923f
000003b0: 62ad 7334 8ac5 8839 92a9 dc35 f69f d039
000003c0: 0ef3 8b34 ce13 2b36 b2a0 1b35 3a6f 3237
000003d0: 5dc5 f23a 43d0 563e f676 823b a8ae 0a3f
000003e0: 2148 a334 92bb 7337 8ce0 1d34 a4d8 8437
000003f0: 2c69 ea31 73cc f034 5cea c332 e1f0 e135

exp_avg f4 [64]
-0.5564187 -0.24731252 -1.4897717 0.031637482 -0.24549215 -1.1636522 0.2210584 0.0012539148
-0.022132535 5.739726e-06 -0.36151886 0.14141393 9.5591095e-05 -0.5512244 -0.18072705 0.009961544
-0.89597887 -1.3061664 -0.9812486 -0.28551143 -0.74217165 -0.08223976 -1.5832738 -0.32399124
0.0005451878 -0.61388534 -0.17230743 -1.3516375 3.203346e-05 -0.24947219 -0.36976263 -0.30159986
2.9324072e-05 -0.22954854 -0.26825815 -2.0895004 -0.7219232 -0.007012972 -1.1762772 -0.35624978
-0.38049403 0.001830659 0.01549202 -0.16264245 -0.4447952 -0.061742082 -0.4035323 -0.26522475
-0.26495826 -0.80809927 -0.0024757928 0.00940503 -0.9772718 -0.33742243 1.5138048e-06 1.0930265e-05
-0.184843 -0.8378775 -0.40509346 -0.26272595 -0.09787534 -0.15125556 0.00016466386 0.0042722016
00000000: 7571 0ebf 7e3f 7dbe d7b0 bebf 4e96 013d
00000010: 4b62 7bbe 8ef2 94bf 225d 623e 665a a43a
00000020: 4a4f b5bc df97 c036 0019 b9be d0ce 103e
00000030: 1478 c838 0b1d 0dbf 8310 39be be35 233c
00000040: df5e 65bf 7630 a7bf 1c33 7bbf 8e2e 92be
00000050: f6fe 3dbf 526d a8bd b7a8 cabf 2ee2 a5be
00000060: efea 0e3a 9727 1dbf 5c71 30be 7502 adbf
00000070: aa5b 0638 a375 7fbe 8751 bdbe 4c6b 9abe
00000080: f7fc f537 c60e 6bbe 2259 89be 60ba 05c0
00000090: f5cf 38bf 13cd e5bb 4090 96bf 5f66 b6be
000000a0: 1dd0 c2be b9f2 ef3a 3ed2 7d3c be8b 26be
000000b0: 32bc e3be 44e5 7cbd c99b cebe 8acb 87be
000000c0: 9ca8 87be 98df 4ebf e940 22bb 8e17 1a3c
000000d0: 7c2e 7abf a2c2 acbe f02d cb35 2161 3737
000000e0: 7c47 3dbe 247f 56bf 6968 cfbe 0484 86be
000000f0: de72 c8bd bde2 1abe 9ea9 2c39 d3fd 8b3b

exp_avg_sq f4 [64]
0.316023 0.5866862 0.2437017 0.00082400837 0.009948943 1.1144799 0.10618749 6.839675e-05
0.0061908658 0.00021983868 0.15952969 0.0073319525 6.981509e-05 0.069230035 0.13903183 0.0014861464
0.5080028 1.1160288 0.48841792 0.010990606 0.67040163 0.00077155733 0.878313 0.017238248
0.0023914776 0.15377209 0.0047016717 0.21756975 0.0013949234 0.009453025 0.07696074 0.012094021
0.0016513981 0.0060486454 0.010398749 0.9359074 0.39233744 0.00057591195 1.3619015 0.47469747
0.017174777 0.00025773604 0.00018294818 0.013118656 0.031279273 0.00034219306 0.5606304 0.008101945
0.009311615 0.26123998 0.0005502432 0.000340387 0.23400274 0.43663037 0.00010759758 1.499281e-07
0.05205815 0.57618785 0.32483098 0.009069443 0.0011945597 0.15778358 0.0008793512 5.9054873e-05
00000000: c4cd a13e 1131 163f f08c 793e 4402 583a
00000010: e400 233c 47a7 8e3f d478 d93d 3a70 8f38
00000020: bfdc ca3b 7f84 6639 c05b 233e e040 f03b
00000030: b169 9238 7ac8 8d3d 5c5e 0e3e ccca c23a
00000040: 790c 023f 08da 8e3f ea11 fa3e f111 343c
00000050: 719f 2b3f 5642 4a3a 1fd9 603f 3a37 8d3c
00000060: 56ba 1c3b 6e76 1d3e 7b10 9a3b 9bca 5e3e
00000070: ddd5 b63a dce0 1a3c 989d 9d3d 0026 463c
00000080: ba73 d83a b733 c63b 845f 2a3c a197 6f3f
00000090: 74e0 c83e ccf8 163a ca52 ae3f 8c0b f33e
000000a0: 1eb2 8c3c bf20 8739 c7d5 3f39 a2ef 563c
000000b0: b21e 003d 6068 b339 7985 0f3f 05be 043c
000000c0: be8f 183c 3fc1 853e 323e 103a f875 b239
000000d0: 6a9e 6f3e 048e df3e 03a6 e138 ecfb 2034
000000e0: ed3a 553d 0c81 133f 3f50 a63e 0098 143c
000000f0: c692 9c3a 0592 213e 4384 663a b0b1 7738

exp_avg f4 [64, 64]
0.0023137792 -6.589033e-05 0.0016767408 0.0 0.0 0.0018559315 0.0023856023 0.0
0.0002068992 0.0 0.0013613071 0.0012515798 0.0 0.001253754 0.002986825 0.0
-6.7539724e-05 -6.184159e-05 0.002647993 0.0 0.0021699322 0.0 -4.0188006e-05 0.0
3.6411704e-05 0.00045846627 0.0 -3.2816035e-06 0.0 0.0 -5.3130516e-05 0.0
0.0 0.0 0.0 0.00033084047 0.0021275152 0.0 0.0022387418 0.0015901508
0.0 0.0 0.0 0.0 0.0 0.0 -5.9397098e-05 0.0
0.0 0.0014126291 0.0 0.0 0.00047507428 0.0 0.0 0.0
0.002752478 0.0011692344 0.0034322639 0.0 0.0 0.00253531 0.0 0.0
-0.21486415 -0.06341222 -0.3057646 -0.00041472868 -0.008501523 -0.20275407 -0.15554519 -0.0013101867
-0.02733525 -7.2733525e-07 -0.124023326 -0.049708966 -1.474971e-06 -0.242322 -0.17579393 -0.00019936911
-0.24819541 -0.2142552 -0.23037682 -0.013100709 -0.2147423 -0.0022250768 -0.13514715 -0.0149426
9.706725e-05 -0.052363463 -0.0088640675 -0.043271728 -1.0952067e-06 -0.01224671 -0.28506315 -0.015917653
-5.961268e-07 -0.005335465 -0.014866782 -0.10185626 -0.20456469 -5.8351434e-06 -0.18926436 -0.042265948
-0.009299853 -0.0027250245 -0.0021351457 -0.006182038 -0.014633355 -0.0010133545 -0.058268495 -0.011154145
-0.011809415 -0.08645046 -0.0011761041 -0.0016669501 -0.15807885 -0.21936962 -2.2505068e-08 -5.395019e-06
-0.23735096 -0.1722073 -0.24608864 -0.008229823 -0.0039996575 -0.25423113 -1.1448892e-06 -0.00032262164
0.0679007 0.21636522 -0.011469964 -0.00029600284 -0.0077156452 0.020631822 0.09821051 -0.0009348261
0.013975557 -7.700224e-07 0.041732445 0.047408186 -1.124181e-06 0.0023174144 0.13511431 -0.00014353417
0.061520793 0.011868313 0.071527235 -0.011627105 0.04008241 -0.0015865709 -0.001084597 -0.011599004
0.00016758956 -0.05142467 -0.008320879 -0.011157775 -1.3848045e-06 -0.009425014 0.09842824 -0.013421046
-7.716557e-07 -0.004053722 -0.012362975 -0.09220192 0.042113137 -4.738415e-06 0.06158231 0.11411717
-0.007910515 -0.0019453326 -0.0015235019 -0.006663914 -0.012311155 -0.0007204592 0.19195385 -0.010507843
-0.0098745255 -0.095305905 -0.00083962176 -0.0011896102 -0.013944765 0.18799369 -1.5274308e-08 -4.110737e-06
0.06124586 -0.004785688 0.13692251 -0.0068992698 -0.002846969 0.053051274 -2.838106e-06 -0.00023025379
0.0 0.0 0.0 0.0 0.0 0.0 0.0 0.0
0.0 0.0 0.0 0.0 0.0 0.0 0.0 0.0
0.0 0.0 0.0 0.0 0.0 0.0 0.0 0.0
0.0 0.0 0.0 0.0 0.0 0.0 0.0 0.0
0.0 0.0 0.0 0.0 0.0 0.0 0.0 0.0
0.0 0.0 0.0 0.0 0.0 0.0 0.0 0.0
0.0 0.0 0.0 0.0 0.0 0.0 0.0 0.0
0.0 0.0 0.0 0.0 0.0 0.0 0.0 0.0
00000000: c6a2 173b 9a2e 8ab8 16c6 db3a 0000 0000
00000010: 0000 0000 ba42 f33a c457 1c3b 0000 0000
00000020: 15f3 5839 0000 0000 e36d b23a 0d0c a43a
00000030: 0000 0000 0155 a43a 9cbe 433b 0000 0000
00000040: 1da4 8db8 f3b0 81b8 f389 2d3b 0000 0000
00000050: 6c35 0e3b 0000 0000 8b8f 28b8 0000 0000
00000060: c5b8 1838 4d5e f039 0000 0000 8539 5cb6
00000070: 0000 0000 0000 0000 75d8 5eb8 0000 0000
00000080: 0000 0000 0000 0000 0000 0000 a874 ad39
00000090: c86d 0b3b 0000 0000 dbb7 123b 9b6c d03a
000000a0: 0000 0000 0000 0000 0000 0000 0000 0000
000000b0: 0000 0000 0000 0000 2621 79b8 0000 0000
000000c0: 0000 0000 f827 b93a 0000 0000 0000 0000
000000d0: 6413 f939 0000 0000 0000 0000 0000 0000
000000e0: eb62 343b ff40 993a d5ef 603b 0000 0000
000000f0: 0000 0000 7227 263b 0000 0000 0000 0000
00000100: 5905 5cbe 44de 81bd 2d8d 9cbe f16f d9b9
00000110: f949 0bbc c39e 4fbe 3d47 1fbe 92ba abba
00000120: 2dee dfbc 193e 43b5 f1ff fdbd a19b 4bbd
00000130: 9ef7 c5b5 4223 78be 5303 34be bd0d 51b9
00000140: f026 7ebe b765 5bbe e7e7 6bbe 5ba4 56bc
00000150: 68e5 5bbe 98d2 11bb 0464 0abe cfd1 74bc
00000160: 9590 cb38 127b 56bd 983a 11bc b23d 31bd
00000170: 04ff 92b5 6da6 48bc ccf3 91be bd65 82bc
00000180: 8605 20b5 20d5 aebb ce93 73bc 049a d0bd
00000190: 6879 51be 80cb c3b6 84ce 41be 0f1f 2dbd
000001a0: 695e 18bc 5396 32bb cded 0bbb b292 cabb
000001b0: bdc0 6fbc 89d2 84ba f2aa 6ebd e0bf 36bc
000001c0: 477c 41bc f00c b1bd 8127 9aba 907d daba
000001d0: 6cdf 21be 6ea2 60be 2b51 c1b2 dc06 b5b6
000001e0: 210c 73be 1c57 30be a9fe 7bbe 61d6 06bc
000001f0: 8f0f 83bb 952a 82be 18aa 99b5 8b25 a9b9
00000200: 860f 8b3d d88e 5d3e 84ec 3bbc d430 9bb9
00000210: 86d3 fcbb 1104 a93c 9822 c93d 1e0f 75ba
00000220: bcf9 643c 89b3 4eb5 a4ef 2a3d 162f 423d
00000230: 91e2 96b5 c3df 173b 685b 0a3e a981 16b9
00000240: 3afd 7b3d 5073 423c df7c 923d 9d7f 3ebc
00000250: 742d 243d 7cf4 cfba 0929 8eba c009 3ebc
00000260: fbba 2f39 ada2 52bd 4c54 08bc 1acf 36bc
00000270: 85dd b9b5 606b 1abc bf94 c93d f2e3 5bbc
00000280: c723 4fb5 16d5 84bb 138e 4abc 5cd4 bcbd
00000290: d37e 2c3d adfe 9eb6 bb3d 7c3d 43b6 e93d
000002a0: 1b9b 01bc 88fa feba 3eb0 c7ba f65c dabb
000002b0: bab4 49bc 33dd 3cba 8d8f 443e 1729 2cbc
000002c0: c3c8 21bc be2f c3bd 101a 5cba b2ec 9bba
000002d0: 9578 64bc 6b81 403e 8f34 83b2 f6ee 89b6
000002e0: f0dc 7a3d 43d1 9cbb 6a35 0c3e 4513 e2bb
000002f0: 3794 3abb 4b4c 593d 4a76 3eb6 4870 71b9
00000300: 0000 0000 0000 0000 0000 0000 0000 0000
00000310: 0000 0000 0000 0000 0000 0000 0000 0000
00000320: 0000 0000 0000 0000 0000 0000 0000 0000
00000330: 0000 0000 0000 0000 0000 0000 0000 0000
00000340: 0000 0000 0000 0000 0000 0000 0000 0000
00000350: 0000 0000 0000 0000 0000 0000 0000 0000
00000360: 0000 0000 0000 0000 0000 0000 0000 0000
00000370: 0000 0000 0000 0000 0000 0000 0000 0000
00000380: 0000 0000 0000 0000 0000 0000 0000 0000
00000390: 0000 0000 0000 0000 0000 0000 0000 0000
000003a0: 0000 0000 0000 0000 0000 0000 0000 0000
000003b0: 0000 0000 0000 0000 0000 0000 0000 0000
000003c0: 0000 0000 0000 0000 0000 0000 0000 0000
000003d0: 0000 0000 0000 0000 0000 0000 0000 0000
000003e0: 0000 0000 0000 0000 0000 0000 0000 0000
000003f0: 0000 0000 0000 0000 0000 0000 0000 0000

exp_avg_sq f4 [64, 64]
0.0008873465 1.1111889e-05 0.00044394887 0.0 0.0 0.00057069416 0.0009143815 0.0
6.614574e-06 0.0 0.00030357394 0.0002502288 0.0 0.00024870408 0.0014490632 0.0
1.1294296e-05 6.298624e-06 0.0011292276 0.0 0.000763821 0.0 2.2976174e-06 0.0
2.0431433e-07 3.3138826e-05 0.0 1.09575415e-08 0.0 0.0 1.2542097e-05 0.0
0.0 0.0 0.0 1.8679917e-05 0.0007534341 0.0 0.00077236857 0.00042030544
0.0 0.0 0.0 0.0 0.0 0.0 7.791894e-06 0.0
0.0 0.00033235826 0.0 0.0 3.868218e-05 0.0 0.0 0.0
0.0012478675 0.00022952813 0.0019279091 0.0 0.0 0.0010647273 0.0 0.0
0.06393174 0.073305175 0.012896005 1.4207993e-07 1.1227014e-05 0.040887255 0.053728912 1.2839031e-06
0.00024421996 3.8099777e-06 0.02039344 0.010610568 2.049098e-08 0.009321546 0.095452346 1.7273565e-07
0.06208031 0.038282357 0.07867832 3.614548e-05 0.059059255 2.0280593e-06 0.015167535 4.7747413e-05
0.00019058709 0.004464655 1.1224902e-05 0.00013311797 7.994174e-06 2.7139522e-05 0.0976455 5.2198055e-05
3.58488e-06 3.450089e-06 4.6356134e-05 0.0041215806 0.054841887 4.3210213e-11 0.059577957 0.031569805
9.537351e-06 5.5922683e-06 3.4116576e-06 2.8077882e-05 4.7112084e-05 1.1309933e-07 0.06009787 2.1175405e-05
2.566987e-05 0.027778214 2.004816e-06 2.1759765e-06 0.002194123 0.11884236 4.1593374e-08 3.652645e-08
0.08028423 0.019272614 0.12131867 9.089387e-06 3.595402e-06 0.076298416 1.0987138e-07 8.1611674e-08
0.047156036 0.058492832 0.017396983 7.217211e-08 8.444968e-06 0.030321643 0.043824945 6.536257e-07
0.00036448048 2.1224623e-06 0.014860255 0.008718377 1.1830168e-08 0.013158702 0.07557481 2.713868e-07
0.047377978 0.029955076 0.061724644 2.3938825e-05 0.04575443 1.204003e-06 0.011521433 2.6604115e-05
0.00013315152 0.002644768 9.985949e-06 0.00018811446 4.617588e-06 1.5043618e-05 0.08037277 3.1323347e-05
2.0524208e-06 1.8231069e-06 2.7005552e-05 0.00238706 0.042275928 3.1661337e-08 0.04574932 0.024478955
6.462632e-06 2.9399841e-06 1.7371444e-06 1.930377e-05 2.7732922e-05 7.350134e-08 0.050343104 1.7681701e-05
1.5177318e-05 0.017023897 1.1432504e-06 1.1160292e-06 0.0036532283 0.09439275 1.9139765e-08 2.12061e-08
0.06342509 0.015324133 0.096031055 5.67208e-06 1.8483847e-06 0.05977371 2.5666273e-07 4.1592227e-08
0.0 0.0 0.0 0.0 0.0 0.0 0.0 0.0
0.0 0.0 0.0 0.0 0.0 0.0 0.0 0.0
0.0 0.0 0.0 0.0 0.0 0.0 0.0 0.0
0.0 0.0 0.0 0.0 0.0 0.0 0.0 0.0
0.0 0.0 0.0 0.0 0.0 0.0 0.0 0.0
0.0 0.0 0.0 0.0 0.0 0.0 0.0 0.0
0.0 0.0 0.0 0.0 0.0 0.0 0.0 0.0
0.0 0.0 0.0 0.0 0.0 0.0 0.0 0.0
00000000: d19c 683a 336d 3a37 cfc1 e839 0000 0000
00000010: 0000 0000 a39a 153a 1bb3 6f3a 0000 0000
00000020: c2f2 dd36 0000 0000 0129 9f39 2431 8339
00000030: 0000 0000 7f64 8239 7eee bd3a 0000 0000
00000040: a27c 3d37 c558 d336 9702 943a 0000 0000
00000050: 293b 483a 0000 0000 c430 1a36 0000 0000
00000060: 7f61 5b34 8bfe 0a38 0000 0000 c73f 3c32
00000070: 0000 0000 0000 0000 e56b 5237 0000 0000
00000080: 0000 0000 0000 0000 0000 0000 d1b2 9c37
00000090: 1b82 453a 0000 0000 c778 4a3a 715c dc39
000000a0: 0000 0000 0000 0000 0000 0000 0000 0000
000000b0: 0000 0000 0000 0000 eeb9 0237 0000 0000
000000c0: 0000 0000 5f40 ae39 0000 0000 0000 0000
000000d0: ad3e 2238 0000 0000 0000 0000 0000 0000
000000e0: 7c8f a33a 7dad 7039 e5b1 fc3a 0000 0000
000000f0: 0000 0000 528e 8b3a 0000 0000 0000 0000
00000100: a5ee 823d 0621 963d c449 533c a28e 1834
00000110: a85b 3c37 6579 273d d912 5c3d 9352 ac35
00000120: a60a 8039 ebae 7f36 2510 a73c f3d7 2d3c
00000130: 2404 b032 66b9 183c 857c c33d 3779 3934
00000140: ec47 7e3d f6cd 1c3d 1922 a13d ea9a 1738
00000150: 1ee8 713d cb19 0836 4181 783c 6544 4838
00000160: 55d8 4739 3e4c 923b 9652 3c37 9595 0b39
00000170: b71e 0637 aea9 e337 5dfa c73d 3cef 5a38
00000180: c593 7036 1488 6736 856e 4238 530e 873b
00000190: e3a1 603d 600a 3e2e 0408 743d 574f 013d
000001a0: 9c02 2037 38a5 bb36 d5f3 6436 cb88 eb37
000001b0: 379a 4538 04e1 f233 2f29 763d d6a1 b137
000001c0: a055 d737 238f e33c 7a8a 0636 fe06 1236
000001d0: 47cb 0f3b a063 f33d 66a4 3233 42e1 1c33
000001e0: 0f6c a43d 9ae1 9d3c ec75 f83d 9f7e 1837
000001f0: 8948 7136 5842 9c3d 6ef2 eb33 7e42 af33
00000200: b026 413d 2e96 6f3d 1e84 8e3c 09fd 9a33
00000210: ddae 0d37 1865 f83c c981 333d d174 2f35
00000220: be17 bf39 a06f 0e36 6d78 733c 86d7 0e3c
00000230: a13d 4b32 9997 573c f7c6 9a3d 1eb3 9134
00000240: 690f 423d 5964 f53c fbd2 7c3d 3cd0 c837
00000250: ff68 3b3d 3a99 a135 64c4 3c3c e72b df37
00000260: 979e 0b39 d853 2d3b 5389 2737 9740 4539
00000270: c7f0 9a36 d963 7c37 7b9a a43d 3061 0338
00000280: 52bc 0936 7ab1 f435 fb89 e237 3970 1c3b
00000290: 8629 2d3d 02fc 0733 a463 3b3d 1788 c83c
000002a0: 96d9 d836 8b4c 4536 d427 e935 88ee a137
000002b0: ffa3 e837 cad7 9d33 9234 4e3d 2a53 9437
000002c0: 16a2 7e37 b375 8b3c c971 9935 79ca 9535
000002d0: 006b 6f3b fc50 c13d ca68 a432 b528 b632
000002e0: 03e5 813d 1312 7b3c eeab c43d cc52 be36
000002f0: 0416 f835 47d5 743d 75cb 8934 23a3 3233
00000300: 0000 0000 0000 0000 0000 0000 0000 0000
00000310: 0000 0000 0000 0000 0000 0000 0000 0000
00000320: 0000 0000 0000 0000 0000 0000 0000 0000
00000330: 0000 0000 0000 0000 0000 0000 0000 0000
00000340: 0000 0000 0000 0000 0000 0000 0000 0000
00000350: 0000 0000 0000 0000 0000 0000 0000 0000
00000360: 0000 0000 0000 0000 0000 0000 0000 0000
00000370: 0000 0000 0000 0000 0000 0000 0000 0000
00000380: 0000 0000 0000 0000 0000 0000 0000 0000
00000390: 0000 0000 0000 0000 0000 0000 0000 0000
000003a0: 0000 0000 0000 0000 0000 0000 0000 0000
000003b0: 0000 0000 0000 0000 0000 0000 0000 0000
000003c0: 0000 0000 0000 0000 0000 0000 0000 0000
000003d0: 0000 0000 0000 0000 0000 0000 0000 0000
000003e0: 0000 0000 0000 0000 0000 0000 0000 0000
000003f0: 0000 0000 0000 0000 0000 0000 0000 0000

exp_avg f4 [64]
0.002357359 -0.55978334 -0.24255244 0.0 -0.30614126 0.028996859 -0.0044299867 2.7950864e-06
-0.13077515 -0.2932893 -0.11116493 1.35204555e-05 -0.70490015 0.0046092924 0.0 0.0012493053
0.08825043 0.017512951 0.0056117866 0.006360165 -0.26060218 -0.323471 -0.20851752 0.0
0.0 -0.24482512 0.47436127 -0.6819512 -0.4510352 -0.4239525 2.525917e-06 -0.055531636
0.000116213545 5.934861e-06 0.0 -0.44628206 2.8494185e-05 -0.04445002 2.078768e-05 0.027570635
0.0 -0.5753182 0.0004018763 -0.053084277 0.00018838956 2.0116224e-06 -0.24901253 -1.0245531
-0.44687384 0.53368306 3.6791083e-05 -0.23422171 -0.28045228 -0.6027112 -0.44573638 4.721584e-06
0.08761625 2.5105912e-05 0.0 3.7445845e-06 -0.5243837 0.0016701376 -0.05931107 -0.12644789
00000000: ec7d 1a3b f64d 0fbf ab5f 78be 0000 0000
00000010: 8cbe 9cbe d28a ed3c 6c29 91bb 3893 3b36
00000020: ece9 05be 042a 96be 70aa e3bd ead5 6237
00000030: 5674 34bf 8c09 973b 0000 0000 bbbf a33a
00000040: a4bc b43d 5277 8f3c 14e3 b73b ee68 d03b
00000050: a66d 85be fe9d a5be 9e85 55be 0000 0000
00000060: 0000 0000 70b3 7abe 7bdf f23e 5b94 2ebf
00000070: 16ee e6be 4d10 d9be ec82 2936 2475 63bd
00000080: acb7 f338 1124 c736 0000 0000 157f e4be
00000090: cc06 ef37 3911 36bd 3461 ae37 d0db e13c
000000a0: 0000 0000 0e48 13bf edb2 d239 e66e 59bd
000000b0: 708a 4539 69ff 0636 24fd 7ebe 8e24 83bf
000000c0: a6cc e4be 749f 083f 2050 1a38 d1d7 6fbe
000000d0: 7197 8fbe 484b 1abf 8f37 e4be 196e 9e36
000000e0: 2670 b33d 899a d237 0000 0000 794b 7b36
000000f0: 033e 06bf 85e8 da3a 2af0 72bd 8e7b 01be

exp_avg_sq f4 [64]
0.0013118113 0.14731154 0.10396211 0.0 0.18959218 0.0016335103 6.125135e-05 0.00018715205
0.012137941 0.17131709 0.008569414 0.0020719506 0.14221986 0.0044465438 0.0 7.861324e-06
0.004338625 0.007591412 0.00025480203 0.00067529763 0.042880908 0.099202536 0.23811588 0.0
0.0 0.032679126 0.07329553 0.1654352 0.034792252 0.06480084 0.00015284197 0.00064572814
0.0041958126 0.0005636341 0.0 0.04748217 0.00040918143 0.010246324 0.0022805345 0.0062890537
0.0 0.17447822 0.00016433331 0.041602496 0.0009246084 5.4895085e-05 0.07352774 0.25113007
0.09071144 0.06724582 0.0010435047 0.08512679 0.038222138 0.08346469 0.21181399 0.0006218802
0.00973754 0.00022101312 0.0 0.00017283452 0.1859405 0.0032713634 0.011054928 0.012347528
00000000: 15f1 ab3a d6d8 163e 16ea d43d 0000 0000
00000010: 7424 423e 831b d63a 1174 8038 3f3e 4439
00000020: 37de 463c bf6d 2f3e ba66 0c3c 90c9 073b
00000030: 15a2 113e 50b4 913b 0000 0000 21e4 0337
00000040: 062b 8e3b 61c1 f83b f396 8539 7506 313a
00000050: e4a3 2f3d b32a cb3d a6d4 733e 0000 0000
00000060: 0000 0000 8cda 053d f81b 963d d867 293e
00000070: 5282 0e3d 4eb6 843d 3444 2039 1546 293a
00000080: 077d 893b d8c0 133a 0000 0000 aa7c 423d
00000090: 6787 d639 33e0 273c 0575 153b 6814 ce3b
000000a0: 0000 0000 6baa 323e e350 2c39 6167 2a3d
000000b0: 6b61 723a 263f 6638 b695 963d 1f94 803e
000000c0: ebc6 b93d 2db8 893d 35c6 883a f456 ae3d
000000d0: d18e 1c3d 89ef aa3d c4e5 583e ac05 233a
000000e0: 348a 1f3c c2bf 6739 0000 0000 ea3a 3539
000000f0: 3067 3e3e 5f64 563b bb1f 353c 494d 4a3c
