gen_1_agent_0.pt (torch, 64207 bytes, 18 tensors)

net.0.weight f4 [64, 4]
0	0x3de78560	0.11304736
1	0x3dd02548	0.10163361
2	0x3e938c79	0.2881811
3	0xbe226dd7	-0.15862213
4	0xbdedb6c1	-0.11607123
5	0x3e0ada55	0.1355985
6	0x3e64f0cf	0.22357486
7	0xbe8a1c9c	-0.26974952
8	0x3dcbe3a3	0.09955528
9	0xbd1a75ee	-0.037710123
10	0xbdec007e	-0.115235314
11	0x3e5dd6ec	0.21664017
12	0xbe68fc12	-0.22752407
13	0x3e2fc58d	0.17165203
14	0x3e8f668e	0.2800793
15	0xbe02ed90	-0.12785935
16	0xbbf0615e	-0.007335826
17	0xbdd9de71	-0.106381305
18	0x3e8d397d	0.27582923
19	0xbe8f3a48	-0.27974153
20	0x3e8bb9e7	0.2729027
21	0x3e1cb48a	0.15303245
22	0x3e848cfc	0.25888813
23	0xbe25a1cc	-0.16175002
24	0x3e695205	0.22785194
25	0x3e69f440	0.2284708
26	0xbd691ad8	-0.056910366
27	0x3e90f0f5	0.28308836
28	0x3e9b61ef	0.30348155
29	0x3e8ac952	0.2710672
30	0xbdcee412	-0.10102095
31	0x3da9ec56	0.08297031
32	0xbe412d52	-0.18864945
33	0xbe398c1a	-0.18119851
34	0xbcbf7e2d	-0.023375595
35	0x3b798df8	0.0038079005
36	0xbe95a218	-0.2922523
37	0xbe92ff70	-0.28710508
38	0xbcf9b1f2	-0.030480359
39	0x3de544ff	0.111948006
40	0x3d5c0bea	0.0537223
41	0x3ddeb32c	0.10874018
42	0xbe156cab	-0.14592235
43	0x3db809ba	0.0898623
44	0x3e07bed1	0.13256384
45	0xbca0f3c0	-0.019647479
46	0xbda59365	-0.08084754
47	0x3dff965a	0.12479849
48	0xbe39d751	-0.18148543
49	0x3e0bc82a	0.13650575
50	0x3d74174c	0.05959253
51	0x3e10eadc	0.14152092
52	0x3cd3f7bf	0.02587497
53	0xbdd421c5	-0.103580035
54	0xbe8e674a	-0.27813178
55	0x3e2d7883	0.16940503
56	0x3df92968	0.12166101
57	0xbdc1af43	-0.09457257
58	0x3d431e9c	0.047636613
59	0x3e12c0ba	0.14331332
60	0xbdbe5ea3	-0.09295394
61	0x3ba6def4	0.005092496
62	0xbe30e1e6	-0.17273673
63	0xbd895e3f	-0.06707429
64	0xbe153245	-0.14569958
65	0xbe84e12e	-0.25953048
66	0x3e9fbf8e	0.31200832
67	0x3e0338fb	0.12814705
68	0x3e93a698	0.28838038
69	0xbc5424b5	-0.012948205
70	0x3dfcd191	0.12344659
71	0x3e10bc56	0.14134344
72	0xbe127465	-0.14302213
73	0x3e68d6e4	0.22738224
74	0x3e458486	0.19288835
75	0xbe6ffe6e	-0.23436901
76	0x3da5c77b	0.080946885
77	0xbe2feb8d	-0.17179699
78	0xbc2dbda5	-0.010604297
79	0x3e8951d5	0.26820245
80	0x3e916713	0.28398952
81	0x3ea3b60f	0.31974837
82	0x3d9ee8c1	0.07759238
83	0xbe4600b0	-0.193362
84	0x3e6977e5	0.22799642
85	0xbe876c9f	-0.2645006
86	0x3e5409c6	0.20706853
87	0xbea1c603	-0.31596383
88	0xbcbceea7	-0.023063017
89	0x3e91d8df	0.28485772
90	0x3b79b0f8	0.0038099866
91	0xbca42087	-0.020035041
92	0xbe32b954	-0.1745351
93	0x3e482750	0.19546247
94	0x3e91f64e	0.28508228
95	0x3e4de6fa	0.20107642
96	0xbe8b33c9	-0.27187946
97	0xbe60cadc	-0.21952385
98	0xbdaa8bfe	-0.08327483
99	0x3e9c9a3f	0.3058643
100	0xbd2603cd	-0.04053097
101	0xbe7f23d5	-0.24916013
102	0xbd5c78f4	-0.053826287
103	0x3e744cec	0.23857468
104	0x3dcd0255	0.100102104
105	0x3d993567	0.07480889
106	0xbd2161e9	-0.039400015
107	0xbd2cf97f	-0.042230126
108	0x3e639057	0.2222303
109	0xbe7b6233	-0.24549179
110	0xbe275230	-0.16339946
111	0x3e8f2021	0.279542
112	0xbe28fa22	-0.16501668
113	0x3d735e6d	0.059416223
114	0xbd81e382	-0.06342222
115	0x3e0eba48	0.13938248
116	0x3e395afb	0.18101113
117	0xbde0db57	-0.10979336
118	0xbd428826	-0.047493123
119	0x3e320c3e	0.17387483
120	0xbd891a50	-0.06694472
121	0x3bb6fcf4	0.0055843536
122	0xbdbf4b93	-0.093405865
123	0x3e848a1e	0.25886625
124	0xbe1193d8	-0.14216554
125	0xbe0e70fe	-0.1391029
126	0x3e794658	0.2434324
127	0xbe60be6d	-0.21947642
128	0xbdcb43f7	-0.09925073
129	0xbe902c21	-0.28158668
130	0x3e651cc0	0.22374249
131	0x3de27c1d	0.11058829
132	0xbc665c9d	-0.014060167
133	0xbd7808d1	-0.060555283
134	0x3e96423b	0.29347405
135	0x3df1554a	0.11783846
136	0x3e681cb6	0.22667202
137	0xbe01489f	-0.12625359
138	0x3d65bdd4	0.056089237
139	0x3e9fd2a6	0.312154
140	0x3e5d075d	0.2158484
141	0x3e8bedec	0.27329957
142	0xbe2d86c2	-0.16945937
143	0xbea4d021	-0.3219004
144	0x3e882316	0.26589268
145	0x3d5d1f25	0.05398478
146	0xbe0e14ef	-0.13875173
147	0xbc05e23e	-0.008171616
148	0x3e2b7f48	0.16747773
149	0x3e133e83	0.14379315
150	0x3dc9fc7c	0.09862611
151	0xbc10ec0b	-0.0088453395
152	0xbdf524ff	-0.11969947
153	0xbe3ef2be	-0.18647286
154	0xbe2fdee8	-0.17174876
155	0xbe1a7d46	-0.1508685
156	0x3d127515	0.03575619
157	0x3ead9c76	0.33908433
158	0xbe7ba86d	-0.24575968
159	0xbdf8e634	-0.12153283
160	0x3e506b77	0.20353495
161	0xbe3e2b16	-0.18571123
162	0x3e726bd8	0.23673952
163	0x3e1e9ae4	0.15488774
164	0xbe5f548b	-0.21809594
165	0xbc3d4003	-0.011550906
166	0xbb60fbc9	-0.0034329763
167	0xbdae5f95	-0.085143246
168	0xbd775bdf	-0.06039035
169	0xbe49889c	-0.19681019
170	0x3c6793ab	0.014134328
171	0xbe7889aa	-0.24271265
172	0x3e99991e	0.29999632
173	0x3e899cce	0.26877445
174	0x3db7bebd	0.08971927
175	0x3e084ce9	0.13310589
176	0x3e0d357a	0.13789931
177	0xbd8815a1	-0.066447504
178	0x3e8fed57	0.28110763
179	0x3e9f3308	0.3109362
180	0xbe2b9824	-0.16757256
181	0x3da7aace	0.08186875
182	0xbe22fe79	-0.15917386
183	0x3e565c2a	0.20933595
184	0xbd407562	-0.046986945
185	0x3e89ef85	0.2694055
186	0xbe5c02ef	-0.21485494
187	0xbe2361e7	-0.15955316
188	0xbd2fe590	-0.042943537
189	0x3cb4006c	0.021972857
190	0x3dcddd07	0.10051923
191	0xbe3ebec4	-0.18627459
192	0xbc63a33c	-0.013893899
193	0x3cf4385f	0.029812036
194	0xbe8843c6	-0.26614207
195	0x3d43364a	0.047659196
196	0xbe9c682a	-0.3054822
197	0xbe055e52	-0.13024262
198	0xbe13fbe1	-0.14451553
199	0x3e1f4775	0.15554602
200	0x3e4aa87b	0.19790833
201	0x3e310a05	0.17288978
202	0xbdeac30b	-0.11462983
203	0xbde0fa2a	-0.10985215
204	0x3dd805b7	0.10547965
205	0xbe7313e1	-0.23738052
206	0x3e562b6d	0.20915003
207	0xbdfae857	-0.122513466
208	0x3d74ef31	0.059798423
209	0x3e9e98ae	0.3097586
210	0x3e216106	0.15759668
211	0xbe045a69	-0.12925114
212	0x3dddc296	0.1082813
213	0xbe7ef803	-0.24899296
214	0x3dd4fa4e	0.10399304
215	0xbea7e269	-0.32789925
216	0xbe400c50	-0.18754697
217	0x3e688f90	0.22711015
218	0x3e18c698	0.14919508
219	0xbd962ffd	-0.07333372
220	0x3e610097	0.21972881
221	0x3d2c2053	0.042023014
222	0x3da82c92	0.08211626
223	0xbd3a7784	-0.045524135
224	0x3db256e8	0.08707982
225	0x3e9a3100	0.3011551
226	0xbe1d28fe	-0.15347669
227	0xbe8900d6	-0.2675845
228	0x3c980bc1	0.018560292
229	0xbde67777	-0.11253255
230	0x3db95390	0.090491414
231	0x3e1c9d16	0.15294299
232	0xbe1c5807	-0.15267955
233	0xbcf006cd	-0.029300118
234	0xbbc16f33	-0.0059031486
235	0xbbf7feff	-0.0075682397
236	0xbce5ea10	-0.028065711
237	0xbe66336f	-0.22480558
238	0xbdbad6f9	-0.09123034
239	0x3dec9a95	0.11552922
240	0x3db95707	0.09049802
241	0x3da83d6d	0.08214841
242	0x3e8c143d	0.2735919
243	0xbe19f174	-0.15033513
244	0x3e0bbf3b	0.13647167
245	0x3eb0f4d0	0.34561777
246	0x3d42a0bb	0.047516566
247	0xbcefef33	-0.029288864
248	0x3e9303ef	0.2871394
249	0x3e224671	0.15847184
250	0xbe553927	-0.20822583
251	0x3ba8e2f0	0.005154006
252	0xbe927f93	-0.28612956
253	0xbe512a24	-0.20426232
254	0x3e8463a8	0.25857282
255	0x3e922b6c	0.28548753

net.0.bias f4 [64]
0	0x3db7a3f0	0.089668155
1	0x3d5da362	0.054110892
2	0xbbda5bee	-0.006663791
3	0x3d5f8a92	0.05457551
4	0x3ced5208	0.02896978
5	0x3d3521c5	0.04422166
6	0xbb293f90	-0.002582524
7	0x3dca98e1	0.098924406
8	0xbca44d0f	-0.020056276
9	0x3d42d25f	0.047563907
10	0xbca81424	-0.020517416
11	0x3d98fe81	0.07470418
12	0x3d8a2500	0.067453384
13	0xbca407d1	-0.020023258
14	0xbc70e7bc	-0.014703687
15	0x3dc1f5c7	0.094707064
16	0xbcc24926	-0.02371652
17	0xbc5de20b	-0.013542662
18	0x3dd80ab1	0.10548914
19	0x3d2e9c08	0.04262927
20	0x3dc76f94	0.09738079
21	0x3d96eeb2	0.07369746
22	0x3ddb7521	0.107157
23	0x3d608ab3	0.054819774
24	0x3bae6e80	0.005323231
25	0x3cf80cca	0.030279536
26	0x3dc39b62	0.09551121
27	0x3d5f0ba0	0.054454446
28	0xbceaaaa9	-0.02864583
29	0x3d358a43	0.04432131
30	0x3d887640	0.066631794
31	0xbd8f773a	-0.070051625
32	0xbb344b6d	-0.0027510778
33	0xbccdfad5	-0.02514402
34	0x3d8d7c28	0.069084466
35	0x3dbaa2fe	0.091131195
36	0x3de1b3f6	0.11020653
37	0x3d170a0f	0.036874827
38	0x3d632b93	0.055461477
39	0x3dcb9f05	0.0994244
40	0xbcec5087	-0.028846992
41	0x3d9a1f8b	0.075255476
42	0x3dd3c4d3	0.103402756
43	0x3d67b9e9	0.056573782
44	0x3d863bdf	0.06554388
45	0xbc6fae47	-0.014628953
46	0x3da1723c	0.078831166
47	0x3de72725	0.11286763
48	0xbc8086e2	-0.015689317
49	0x3d66efd7	0.056381073
50	0x3dc9e084	0.09857276
51	0x3d846c9a	0.064660266
52	0x3daba7b8	0.08381599
53	0x3dc0e5a5	0.09418801
54	0x3d9d8b09	0.076925345
55	0x3dddaca8	0.10823947
56	0x3d2e2223	0.042513024
57	0x3d88c176	0.06677525
58	0xbc3627f1	-0.011117921
59	0x3d71d68c	0.0590425
60	0x3de40aa3	0.11134841
61	0x3de48379	0.11157889
62	0x3da80bfc	0.08205411
63	0x3d1280df	0.035767432

net.3.weight f4 [64, 64]
0	0xbdc83fd7	-0.097778015
1	0xbe02ba25	-0.12766321
2	0x3cf9c713	0.030490434
3	0xbd67558e	-0.056478076
4	0xbd06ce2f	-0.032911476
5	0x3d07a377	0.033114877
6	0x3e6343aa	0.2219378
7	0xbc131a97	-0.0089785075
8	0x3e645a6b	0.22300117
9	0xbe1b0ba7	-0.15141164
10	0x3e42fc30	0.19041514
11	0x3d24063a	0.040045
12	0xbdc1d060	-0.094635725
13	0xbe2ec831	-0.17068554
14	0x3d99a36d	0.07501874
15	0xbe058b8b	-0.13041513
16	0x3e188983	0.14896207
17	0x3d501c53	0.050808262
18	0xbdfc6d46	-0.1232553
19	0xbe221038	-0.158265
20	0x3a1adb2c	0.0005907293
21	0xbe258b8e	-0.16166517
22	0xbe186032	-0.14880446
23	0xbe07b2c5	-0.13251789
24	0x3e51c9f4	0.20487195
25	0xbdac93e0	-0.084266424
26	0x3e13d1ab	0.1443545
27	0x3e749089	0.23883261
28	0xbd89c28f	-0.06726562
29	0x3d4ccb8a	0.049998797
30	0x3e7415ae	0.23836395
31	0xbe229ada	-0.15879384
32	0x3e7227e0	0.23648024
33	0xbd7cfeec	-0.06176655
34	0x3e537d03	0.20653157
35	0x3d226429	0.0396463
36	0x3e861bee	0.26193184
37	0xbd9d6a60	-0.07686305
38	0x3df095b2	0.11747302
39	0x3dc00fe5	0.09378032
40	0x3e2c4cba	0.16826144
41	0x3e413cce	0.18870851
42	0x3e3da1a7	0.18518697
43	0x3d90bb41	0.07066966
44	0x3a15d096	0.00057149807
45	0x3da2b28d	0.07944212
46	0x3e358a79	0.17728604
47	0x3d54e12e	0.05197256
48	0x3e4e98b7	0.20175444
49	0xbc36a6d1	-0.011148171
50	0x3d5e2525	0.054234643
51	0x3d4a8a3c	0.049448237
52	0xbe1a8eef	-0.15093587
53	0x3d7da0b4	0.061920837
54	0x3de2ee91	0.11080659
55	0x3e2f7298	0.17133558
56	0xbd3a5237	-0.045488562
57	0x3d0306dc	0.031988963
58	0xbe1ede38	-0.15514457
59	0xbd126e44	-0.03574969
60	0x3de72032	0.11285438
61	0x3d0a5440	0.033771753
62	0x3d1cb03c	0.038254008
63	0x3e797974	0.24362737
64	0xbdf5e14d	-0.12005863
65	0xbdb389e3	-0.08766534
66	0xbc4d0480	-0.01251328
67	0xbd77459c	-0.06036912
68	0x3dad3792	0.08457865
69	0xbde8401b	-0.11340352
70	0x3e4669e2	0.19376329
71	0xbdd4b318	-0.10385722
72	0x3bdf2957	0.006810348
73	0xbdd11e4e	-0.10210858
74	0xbe58dd8a	-0.2117826
75	0xbe337831	-0.17526318
76	0xbd546f41	-0.051863912
77	0xbe1da683	-0.1539555
78	0xbdf35562	-0.1188152
79	0x3d93b139	0.07211537
80	0x3dde4e39	0.108547635
81	0xbe060360	-0.13087225
82	0x3dcf4c83	0.10122015
83	0x3e543dc4	0.20726687
84	0x3dd46091	0.10369981
85	0xbcf3e680	-0.029772997
86	0xbdd2571d	-0.10270522
87	0xbdd74fd7	-0.10513275
88	0xbab5678d	-0.0013840065
89	0xbdc9072b	-0.0981582
90	0xbdf9536f	-0.12174117
91	0x3da5a48e	0.08088027
92	0xbdc6d209	-0.0970803
93	0xbe114f89	-0.14190497
94	0xbe5fb79a	-0.21847382
95	0x3e40a93c	0.18814558
96	0x3e2131ae	0.15741608
97	0xbe5f88ab	-0.21829478
98	0xbdb16b73	-0.086630724
99	0xbd084f78	-0.033278912
100	0x3dcf6625	0.101269044
101	0x3d9b9e4c	0.07598552
102	0xbd716a8b	-0.058939498
103	0x3deb8d9f	0.115016215
104	0x3e40039c	0.18751377
105	0xbd8191bd	-0.063266255
106	0xbda009f8	-0.078144014
107	0x3e13ca2b	0.1443259
108	0x3e26368a	0.16231743
109	0x3db68506	0.08912091
110	0x3e27bb34	0.16380006
111	0xbe6a9c5a	-0.22911206
112	0xbd515f34	-0.051116183
113	0x3e22129e	0.15827414
114	0x3c16dcf5	0.009207954
115	0x3e0b2996	0.13590083
116	0xbddf2da4	-0.10897377
117	0x3db7bd3a	0.08971639
118	0xbe43846a	-0.1909348
119	0x3d3a6542	0.045506723
120	0x3cfa0c5b	0.03052347
121	0x3d1deea9	0.038557682
122	0xbe40da71	-0.18833329
123	0x3d451b18	0.04812154
124	0xbdd9dfcd	-0.1063839
125	0xbd8c798a	-0.06859119
126	0xbe143507	-0.14473353
127	0xbd04eea8	-0.032454163
128	0x3c229380	0.009922862
129	0xbd7ab782	-0.061210163
130	0x3d0e27d5	0.034705956
131	0x3e4ae67d	0.19814487
132	0x3d9706d0	0.07374346
133	0xbe227e2d	-0.15868445
134	0xbe1c7ade	-0.15281245
135	0xbe08ec28	-0.13371336
136	0xbd27c0d8	-0.040955395
137	0xbe29fa56	-0.16599402
138	0x3d8e44f2	0.06946744
139	0x3d1e33dc	0.038623676
140	0xbe013d29	-0.12620987
141	0x3e295913	0.16537885
142	0xbe150358	-0.14552057
143	0x3e101ac7	0.14072715
144	0xbd85b681	-0.065289505
145	0x3da5fac7	0.081044726
146	0x3e316ff4	0.17327863
147	0x3e856bf1	0.26058915
148	0xb9123414	-0.00013943046
149	0xbd1f61ad	-0.03891151
150	0x3e51c65c	0.20485824
151	0x3e12c4a1	0.1433282
152	0xbe1d484e	-0.15359613
153	0xbd5a1765	-0.053244967
154	0xbdc83860	-0.09776378
155	0x3e3ad7e3	0.18246417
156	0xbd4d4145	-0.050111074
157	0xbe0217f0	-0.12704444
158	0x3e67aa65	0.22623594
159	0xbdcd3e43	-0.10021641
160	0x3e4ee885	0.20205887
161	0xbde4b109	-0.11166579
162	0xbdffa3bf	-0.12482404
163	0x3dbb7152	0.091524735
164	0x3e108344	0.14112574
165	0xbb108c1f	-0.0022056175
166	0xbda5c463	-0.080940984
167	0xbe116be7	-0.14201318
168	0x3dfc96f1	0.12333477
169	0x3d8cd16a	0.0687588
170	0x3e5aa81c	0.21353191
171	0xbe08627f	-0.13318823
172	0x3e4d436a	0.20045248
173	0xbe24aa78	-0.16080654
174	0xbd1ce23e	-0.0383017
175	0x3e50b245	0.20380504
176	0x3e1f8c31	0.15580823
177	0x3e025bae	0.12730286
178	0xbe25de58	-0.16198099
179	0xbb42eae2	-0.0029742052
180	0x3b18fb01	0.002334297
181	0x3cfd6a93	0.030934608
182	0xbe1cde34	-0.15319139
183	0x3e888131	0.26661065
184	0xbd6c76bd	-0.057730425
185	0x3ccf7c9c	0.025327973
186	0x3e4fafe9	0.20281948
187	0x3d31c268	0.04339829
188	0x3dbf0b83	0.093283676
189	0x3e5f9ee9	0.21837963
190	0x3d6435cb	0.055715363
191	0x3e090513	0.13380842
192	0x3d67b01d	0.05656444
193	0x3dced04f	0.100983255
194	0x3d4b68d7	0.04966053
195	0xbddb9a5e	-0.107228026
196	0x3df05bb6	0.117362425
197	0xbdae7cb2	-0.085198775
198	0x3da7e345	0.08197645
199	0x3e5c1c82	0.2149525
200	0xbba3ce1f	-0.004998937
201	0x3e139c18	0.14415014
202	0x3db783e7	0.08960705
203	0xbc36894a	-0.011141131
204	0x3dae707e	0.0851755
205	0x3d65e7d5	0.056129295
206	0xbe333676	-0.17501244
207	0x3d8b03f0	0.067878604
208	0x3e0ef304	0.1395989
209	0xbde4ec6e	-0.11177908
210	0x3d651610	0.055929244
211	0xbe16ee5d	-0.14739366
212	0xbbfa40e9	-0.0076371324
213	0xbe270d61	-0.16313697
214	0x3d9079fb	0.07054516
215	0xbd99286e	-0.074784145
216	0x3db6146b	0.08890613
217	0xbda47529	-0.08030159
218	0x3d0c104e	0.034195237
219	0x3e2b4f53	0.16729479
220	0xbe243340	-0.16035175
221	0x3d990234	0.07471123
222	0x3d12c79f	0.035834905
223	0xbdde1fa1	-0.108458765
224	0x3d312bcd	0.043254662
225	0xbe330349	-0.17481722
226	0xbe1a73b4	-0.150832
227	0x3e056a9e	0.13028952
228	0x3de27622	0.11057688
229	0xbd53219a	-0.051545717
230	0x3e67dedb	0.22643606
231	0x3dafcb0f	0.08583652
232	0xbe61e435	-0.2205971
233	0x3dccbc97	0.09996908
234	0x3e322577	0.17397104
235	0x3dca4203	0.09875872
236	0x3dca4c3d	0.098778225
237	0xbc8af4de	-0.016962465
238	0xbd18b16f	-0.03727859
239	0x3dfa1ffa	0.1221313
240	0xbe31aba9	-0.1735064
241	0xbdeb2127	-0.11480933
242	0x3cdd2776	0.026996356
243	0x3d46f330	0.048571765
244	0xbdd9742e	-0.10617863
245	0xbe0226a8	-0.12710059
246	0x3d2f613d	0.042817343
247	0xbc95f686	-0.018306028
248	0xbe40efbc	-0.18841451
249	0x3a772b0f	0.00094287185
250	0x3d9620c4	0.07330468
251	0x3e0fab80	0.14030266
252	0xbdb17d21	-0.086664446
253	0x3e162a29	0.1466452
254	0xbe360b61	-0.17777778
255	0x3e0f2d84	0.13982207

net.3.bias f4 [64]
0	0x3d6aa0af	0.057282146
1	0xbccd6fea	-0.025077779
2	0x3d8c8c5d	0.0686271
3	0x3d17fb14	0.03710468
4	0x392719ad	0.00015935926
5	0x3da14ad3	0.078756
6	0xbc13867f	-0.009004234
7	0x3ddb7bd8	0.10716981
8	0xbd820cf6	-0.06350128
9	0x3dc17884	0.09446815
10	0x3d8e2857	0.06941288
11	0x3dbdc14c	0.09265384
12	0x00000000	0.0
13	0xbd259846	-0.040428422
14	0x3d5ad591	0.05342633
15	0x00000000	0.0
16	0x3d55acfa	0.052166916
17	0xbca4d8c5	-0.020122895
18	0xbc96d4de	-0.01841205
19	0xbc6cd795	-0.014455696
20	0xbcc94285	-0.024567852
21	0xbcb2edf2	-0.021841977
22	0xbd1ac691	-0.037787024
23	0x3dcc689b	0.099808894
24	0x3c5a5469	0.013325789
25	0xbd4bfdeb	-0.049802702
26	0x3dd74010	0.10510266
27	0x00000000	0.0
28	0x3ddb8f4b	0.1072069
29	0x3db164ef	0.0866183
30	0x3dc904f0	0.09815395
31	0xbbd786b5	-0.0065773376
32	0xbc972426	-0.018449854
33	0x3d2e6f98	0.042586893
34	0x3d1e325e	0.038622253
35	0x3db75550	0.08951819
36	0xbc82f670	-0.015986651
37	0x3d617716	0.05504521
38	0x3cf5e96a	0.030018527
39	0xbcd95a91	-0.026532443
40	0xbcfd0963	-0.030888265
41	0xbd1d78d2	-0.0384453
42	0xbcf19a4f	-0.029492525
43	0x3dd44f76	0.103667185
44	0x3db5ca0e	0.088764295
45	0xbb8ce759	-0.0043000397
46	0xbc8713da	-0.016488958
47	0x3dac2620	0.08405709
48	0x3d902aea	0.07039435
49	0x3b6fc7d2	0.0036587608
50	0x3dba432a	0.09094842
51	0x3dce10d2	0.10061802
52	0x3d8954b4	0.06705609
53	0x00000000	0.0
54	0xbcf5b21a	-0.029992152
55	0xbd24b2b1	-0.040209476
56	0x3d86ae6a	0.065762356
57	0xbcdac0b8	-0.026703224
58	0xbce46c8b	-0.027883789
59	0x3d98be0f	0.07458126
60	0x3dd15f96	0.1022331
61	0x3c9924af	0.01869425
62	0x3dc1e082	0.094666496
63	0xbd2ff75c	-0.04296051

net.6.weight f4 [2, 64]
0	0xbd8cfdaf	-0.06884324
1	0xbe47bef0	-0.1950643
2	0x3e270cad	0.16313429
3	0x3ea67683	0.32512292
4	0x3e503c96	0.20335612
5	0xbd8cb6cb	-0.068708025
6	0x3d1212c0	0.035662413
7	0x3e934d68	0.28769994
8	0xbdb3c89c	-0.087784976
9	0x3d1bd999	0.038049314
10	0x3e748962	0.23880532
11	0x3e030acc	0.12797087
12	0x3be22b80	0.0069021583
13	0xbd2efecb	-0.04272346
14	0xbe01413b	-0.1262254
15	0xbd76e86c	-0.06028025
16	0x3cd2f647	0.0257522
17	0x3e7dae73	0.24773578
18	0xbc614d80	-0.013751388
19	0xbc632360	-0.0138634145
20	0x3d1abbb0	0.03777665
21	0xbe428210	-0.18994927
22	0xbe8e5d55	-0.27805582
23	0x3e48684f	0.1957104
24	0xbcfef590	-0.031122953
25	0xbe196dc0	-0.14983273
26	0x3e64ec76	0.22355828
27	0x3ca23020	0.019798338
28	0x3eab8797	0.33501884
29	0x3dbb40c7	0.09143215
30	0x3e230583	0.15920071
31	0xbdbd0d1c	-0.09231016
32	0x3e0e037f	0.13868521
33	0x3e798acf	0.24369358
34	0x3d80b8c9	0.06285245
35	0x3e046c40	0.12931919
36	0x3e805096	0.25061482
37	0xbe387889	-0.1801473
38	0xbe64698b	-0.22305886
39	0xbe9003bd	-0.28127852
40	0xbe103502	-0.14082721
41	0xbdd23b3e	-0.10265206
42	0xbd7f566d	-0.06233828
43	0x3e784d40	0.24248219
44	0x3cf9c048	0.030487195
45	0xbe821c53	-0.25412235
46	0xbe80dbbd	-0.25167647
47	0x3eabff8b	0.335934
48	0xbdb6a2bc	-0.08917758
49	0x3e79504a	0.24347034
50	0x3dbbe0d2	0.091737404
51	0x3c8dc873	0.017307496
52	0xbe327b80	-0.17429924
53	0x3e6d274c	0.23159522
54	0xbe686558	-0.2269491
55	0xbd5b7e1e	-0.05358707
56	0xbdf9174a	-0.12162645
57	0x3e375179	0.17902173
58	0xbdbf8088	-0.09350687
59	0xbe32af49	-0.17449678
60	0x3e6c1522	0.23054937
61	0x3e80a2b4	0.25124133
62	0x3e9c74a5	0.30557743
63	0xbe379dda	-0.1793131
64	0x3e84de49	0.2595084
65	0xbd24294f	-0.040078457
66	0x3d834932	0.06410445
67	0x3d46d34e	0.04854136
68	0xbe139cff	-0.14415358
69	0x3e52af3b	0.20574658
70	0x3e620ecc	0.22075957
71	0x3e40d7f7	0.18832384
72	0xbd4edd2b	-0.05050389
73	0x3e401f4e	0.18761942
74	0x3dbb160f	0.09135067
75	0x3e327844	0.1742869
76	0xbdc51988	-0.0962401
77	0xbe8822e8	-0.2658913
78	0x3e414ffe	0.18878171
79	0x3e37edba	0.17961779
80	0x3e96c7ac	0.29449213
81	0xbdbc02c2	-0.091802135
82	0xbc43c012	-0.011947649
83	0xbe114558	-0.14186609
84	0xbe776cc8	-0.2416259
85	0xbe874f2b	-0.26427588
86	0xbe84c219	-0.25929335
87	0x3e818ae6	0.25301284
88	0x3e76c23b	0.2409753
89	0xbb9a6eb6	-0.004712905
90	0x3e8b516c	0.27210557
91	0xbdc1f21e	-0.09470008
92	0x3ebbcfa6	0.3668186
93	0x3d1d4f0e	0.03840547
94	0x3e59340f	0.21211265
95	0xbe2990cf	-0.16559146
96	0xbe4eaaac	-0.20182294
97	0x3be2ddab	0.0069233975
98	0x3e813c7f	0.25241467
99	0x3eb65d77	0.35618183
100	0xbda9fc81	-0.083001144
101	0x3e50f19d	0.20404668
102	0x3e29318e	0.1652281
103	0xbdc103fb	-0.09424587
104	0xbdfa87d2	-0.12232937
105	0xbe6426a6	-0.22280368
106	0xbe5111b6	-0.20416912
107	0x3e3e5678	0.18587673
108	0x3ea3f244	0.32020772
109	0x3d8d06ba	0.068860486
110	0xbe3f31c6	-0.18671331
111	0x3db1f540	0.08689356
112	0x3e336608	0.1751939
113	0xbd621ef3	-0.055205297
114	0x3e1027a8	0.14077628
115	0x3e712c6c	0.23552102
116	0x3e637ff3	0.22216778
117	0x3dfe30cc	0.12411651
118	0xbd7843d9	-0.06061158
119	0xbe0f92ac	-0.14020795
120	0x3e8afb64	0.2714492
121	0xbe357570	-0.1772058
122	0xbdd700ce	-0.104982
123	0x3ea8cf73	0.3297077
124	0x3e837a22	0.25679117
125	0xbd6e2732	-0.05814285
126	0x3da8a421	0.0823443
127	0xbe78a867	-0.2428299

net.6.bias f4 [2]
0	0x3d6483f8	0.055789918
1	0x3dc6e465	0.097115315

exp_avg f4 [64, 4]
0	0x3c6e156e	0.014531476
1	0x3df23453	0.11826386
2	0xbd027832	-0.03185291
3	0xbe4c4d74	-0.19951421
4	0x3b35ccc9	0.002774047
5	0x3d63e88d	0.0556417
6	0xbcb86830	-0.022510618
7	0xbdd2df96	-0.10296552
8	0xbb0c61a4	-0.0021420503
9	0x3a8a7d66	0.0010565936
10	0xb99bf5d8	-0.00029747072
11	0xbaa4dd47	-0.0012578153
12	0x3cc40bea	0.023931462
13	0x3e3cbd6a	0.1843163
14	0xbd23c4b8	-0.039982527
15	0xbe94686d	-0.2898592
16	0xbb241269	-0.0025035387
17	0xbc8d7cf6	-0.0172715
18	0xbc25befc	-0.010116335
19	0x3c3db7ed	0.011579496
20	0xbd2f34d8	-0.042775005
21	0xbe89c90b	-0.26911196
22	0x3ba063b3	0.0048946976
23	0x3ec0e1d8	0.37672305
24	0xbab4b5fc	-0.0013787146
25	0x39de8187	0.00042439645
26	0xb9b826af	-0.00035124036
27	0xba4b9364	-0.00077657984
28	0xbd268938	-0.040658206
29	0xbe9b7ed0	-0.30370188
30	0x3bd0e76d	0.0063752444
31	0x3ed6535c	0.41860473
32	0xb49e57c3	-2.9493648e-07
33	0xb79f3876	-1.8980569e-05
34	0xb579902c	-9.2969526e-07
35	0x37eaadf2	2.7975973e-05
36	0xbbaaf75e	-0.0052174767
37	0x3ae40ce8	0.0017398866
38	0xbabc45a8	-0.0014364021
39	0xbb54a02f	-0.003244411
40	0xb66c99d1	-3.5256273e-06
41	0xb805eddd	-3.19312e-05
42	0xb698abf9	-4.5499733e-06
43	0x386e488d	5.681119e-05
44	0xbc79c71a	-0.015245223
45	0xbd800316	-0.062505886
46	0xbb16cbaa	-0.0023009577
47	0x3dbeddc9	0.09319646
48	0xbc9ab95d	-0.018887216
49	0xbdacb132	-0.08432235
50	0xbb7fa33f	-0.0039007214
51	0x3df3eff8	0.11911005
52	0xb607f908	-2.0261523e-06
53	0xb795b95e	-1.7848502e-05
54	0xb627b8ed	-2.499258e-06
55	0x38036ba4	3.1333082e-05
56	0xb60e3f63	-2.1196545e-06
57	0x36cc59b2	6.0901157e-06
58	0xb5d41f59	-1.5804354e-06
59	0xb6395edd	-2.7622366e-06
60	0x3cb25368	0.021768287
61	0x3e210446	0.15724286
62	0xbd5b379d	-0.053519834
63	0xbe88d2f8	-0.26723456
64	0x34eabcb6	4.3723202e-07
65	0xb87ac2aa	-5.978594e-05
66	0xb60b1406	-2.072427e-06
67	0x38b32e03	8.5439555e-05
68	0xbacb6758	-0.001551847
69	0x3a0651bf	0.00051238755
70	0xb9c30df7	-0.00037203703
71	0xba6450b7	-0.0008709537
72	0x3c8b9739	0.017039882
73	0x3e1bd9dd	0.15219827
74	0xbd75ce61	-0.06001127
75	0xbe907e02	-0.28221136
76	0xbb50cd3e	-0.0031860615
77	0x3adb8215	0.0016747141
78	0xb9ce84cb	-0.0003939032
79	0xbaf6d3f9	-0.0018831483
80	0x3c24818c	0.010040652
81	0x3e0230a7	0.12713872
82	0xbd6b9eff	-0.057524677
83	0xbe7ca0c7	-0.24670707
84	0x3c99c65e	0.018771347
85	0x3e2e78b1	0.17038228
86	0xbd158a8d	-0.036509085
87	0xbe8fbd17	-0.28073952
88	0x3d14d21e	0.036333196
89	0x3e9c6d79	0.3055227
90	0xbdad3842	-0.08457996
91	0xbf032387	-0.51226085
92	0xbc46bf12	-0.012130516
93	0xbd547485	-0.051868934
94	0xbb0e7f32	-0.0021743295
95	0x3d998e91	0.074978955
96	0x3966e654	0.00022020313
97	0xb8b2f91a	-8.5341e-05
98	0x37ebe0bf	2.8118839e-05
99	0x38f0e3fb	0.000114865565
100	0xbb7028d6	-0.0036645434
101	0x3a96d615	0.0011507893
102	0xba52ca4b	-0.0008041008
103	0xbafb8f34	-0.0019192458
104	0xbd62501e	-0.055252187
105	0xbeab18a1	-0.33417228
106	0x3b5d1840	0.0033736378
107	0x3eea37ad	0.45745602
108	0xbb5a5e8e	-0.003332052
109	0x3a99d843	0.0011737425
110	0xba1c9d66	-0.0005974382
111	0xbae0a104	-0.001713783
112	0xb51c24d2	-5.816811e-07
113	0xb8d2045a	-0.00010014391
114	0xb6acfa2e	-5.155124e-06
115	0x391b6062	0.00014817857
116	0xbb3a8594	-0.0028460966
117	0x3a6a3fc2	0.0008935892
118	0xba50f213	-0.0007970642
119	0xbadf14de	-0.0017019769
120	0xbbde34d5	-0.0067812004
121	0x3b329d05	0.0027254235
122	0xba8dda59	-0.0010822519
123	0xbb6d999f	-0.0036254895
124	0xbc6200e6	-0.0137941595
125	0xbdabb168	-0.08383447
126	0x3c62e1ba	0.013847763
127	0x3e028c63	0.12748866
128	0xba69d5d9	-0.00089201104
129	0x39e43712	0.0004352858
130	0xb9010a21	-0.00012306172
131	0xba07bf0d	-0.000517831
132	0xb61b077b	-2.3101154e-06
133	0xb7dfbea3	-2.6672444e-05
134	0xb66c97bb	-3.525506e-06
135	0x3842588b	4.6335666e-05
136	0xbb7769ca	-0.0037752264
137	0x3a9ce042	0.001196869
138	0xba56f9fb	-0.0008200702
139	0xbb04edc0	-0.0020283312
140	0x3a39d3f8	0.0007088776
141	0x3d7d28a8	0.06180635
142	0xbd1e06d6	-0.038580738
143	0xbe09aa7e	-0.13443944
144	0x3c810efb	0.015754214
145	0x3e394956	0.18094382
146	0xbd982c75	-0.074303545
147	0xbea52d13	-0.3226095
148	0x3c7a1048	0.015262671
149	0x3e09a967	0.13443528
150	0xbd052eaa	-0.032515205
151	0xbe624bed	-0.22099276
152	0x3c981c8d	0.018568302
153	0x3e4b4eb0	0.19854236
154	0xbd45ec63	-0.04832114
155	0xbeaa9f3c	-0.3332461
156	0x3c2bfd7c	0.010497447
157	0x3dbe0fd1	0.092803605
158	0xbd3f579c	-0.04671441
159	0xbe30edd7	-0.17278229
160	0xb4a25310	-3.0235287e-07
161	0xb8ba9525	-8.8969515e-05
162	0xb6989a7f	-4.5479387e-06
163	0x390a4257	0.00013185419
164	0xbd4d1de4	-0.050077334
165	0xbeb3e6b8	-0.35136962
166	0x3c2191ea	0.009861449
167	0x3efb2ffa	0.4906004
168	0x3d15a0ed	0.036530424
169	0x3ea4d4f5	0.32193723
170	0xbd99dd90	-0.07512963
171	0xbf0834d4	-0.5320561
172	0x3c55bff9	0.013046258
173	0x3e0c8625	0.13723047
174	0xbd04120e	-0.03224378
175	0xbe633f73	-0.22192173
176	0xbbe6049f	-0.007019594
177	0x3b347145	0.0027533334
178	0xbaa46620	-0.0012542643
179	0xbb7c2551	-0.003847439
180	0xb6f3fbdc	-7.2712846e-06
181	0x382415ef	3.9121074e-05
182	0xb6ec0c50	-7.0347814e-06
183	0xb815f8c3	-3.5756046e-05
184	0x3c2b0f63	0.01044068
185	0x3dcc91d5	0.09988753
186	0xbd666a26	-0.056253575
187	0xbe42878b	-0.18997018
188	0x3caef1b8	0.021355495
189	0x3e5f3eb0	0.21801257
190	0xbda44c7f	-0.08022403
191	0xbec46850	-0.38360834
192	0xb4328a4f	-1.6627858e-07
193	0xb5bea19e	-1.420314e-06
194	0xb43cb98f	-1.757637e-07
195	0x36216ae9	2.40531e-06
196	0xb92fc689	-0.0001676326
197	0x3a0cd9f4	0.0005373054
198	0x3a0a769c	0.00052819564
199	0x391d1477	0.0001498031
200	0x3c2bdf9a	0.0104903225
201	0x3dcf5c0f	0.10124981
202	0xbd23c995	-0.039987165
203	0xbe306384	-0.17225462
204	0xbcf9197d	-0.030407662
205	0xbe256527	-0.16151868
206	0xbb7af641	-0.0038293751
207	0x3e6fa3aa	0.23402277
208	0x3d11ee21	0.035627488
209	0x3ea35ae3	0.3190528
210	0xbd91b668	-0.07114869
211	0xbf077799	-0.52916867
212	0x3c8fbd28	0.017546251
213	0x3e23688e	0.15957853
214	0xbd483e9a	-0.048887827
215	0xbe8b9279	-0.27260187
216	0x3bca1790	0.0061673597
217	0x3dbf1057	0.093292885
218	0xbd4aa5e5	-0.049474616
219	0xbe339097	-0.17535625
220	0x3d0c037f	0.03418302
221	0x3eb3b64a	0.35100013
222	0xbdc933c2	-0.09824325
223	0xbf15c0a1	-0.58497053
224	0x3c06bb22	0.008223327
225	0x3dc32486	0.09528451
226	0xbcda4178	-0.026642546
227	0xbe2f3a2a	-0.17112032
228	0xbc30b9b6	-0.010786464
229	0xbc1266e8	-0.008935668
230	0xbb3cb151	-0.0028792212
231	0x3c010d02	0.007876636
232	0xb13ca01f	-2.744862e-09
233	0x3287b1e6	1.5796967e-08
234	0x2fa2033e	2.9469932e-10
235	0xb28c00c9	-1.6298502e-08
236	0xbb72afe1	-0.0037031102
237	0x3aa78309	0.001278014
238	0xba406211	-0.0007338832
239	0xbb019c76	-0.0019777096
240	0x3d025984	0.03182365
241	0x3e9b050c	0.30277288
242	0xbda630a7	-0.081147484
243	0xbf0376d9	-0.5135322
244	0x3cf0917d	0.02936625
245	0x3e6b858d	0.23000164
246	0xbd915543	-0.070963405
247	0xbec4f414	-0.38467467
248	0x3aeef02d	0.0018229537
249	0x3d20487d	0.03913163
250	0xbc9cd789	-0.019145744
251	0xbd97a30f	-0.07404148
252	0xbb2ad18a	-0.0026064836
253	0x3a7401d6	0.0009308135
254	0xb9f68922	-0.00047022948
255	0xbab2dc99	-0.0013646065

exp_avg_sq f4 [64, 4]
0	0x3a34287e	0.0006872489
1	0x3db0c192	0.086306706
2	0x3aa48c44	0.001255401
3	0x3e5e94d7	0.21736465
4	0x3a2487f7	0.0006276364
5	0x3dbad182	0.09121992
6	0x3ab24b2d	0.0013602726
7	0x3e6a87c2	0.2290335
8	0x359b4398	1.1568072e-06
9	0x3671be05	3.6022404e-06
10	0x351c68ef	5.8267227e-07
11	0x36e9991d	6.961766e-06
12	0x3a406aa7	0.0007340111
13	0x3d95bb8d	0.07311163
14	0x3a80ae48	0.0009817565
15	0x3e343541	0.1759844
16	0x3966d66f	0.00022014392
17	0x3d072214	0.032991484
18	0x39cfbd13	0.00039622988
19	0x3da2058a	0.07911213
20	0x39fd8b11	0.00048359533
21	0x3d9651c5	0.07339815
22	0x3a8dacd1	0.001080895
23	0x3e3cf31d	0.18452115
24	0x34f63930	4.586268e-07
25	0x35e0a7a4	1.673809e-06
26	0x3487da9b	2.5304766e-07
27	0x36885111	4.062553e-06
28	0x3a1e12b7	0.00060300104
29	0x3dc59f14	0.09649482
30	0x3ab23080	0.0013594776
31	0x3e7a7b3f	0.24461077
32	0x33793637	5.802414e-08
33	0x3671fae8	3.6057845e-06
34	0x33d51214	9.921874e-08
35	0x373368d7	1.0693641e-05
36	0x3742c944	1.1610162e-05
37	0x387a55dd	5.968461e-05
38	0x36b726e6	5.4583534e-06
39	0x39021782	0.00012406523
40	0x352fc0a2	6.54729e-07
41	0x37bab9de	2.2259479e-05
42	0x352105f7	5.9985854e-07
43	0x3890e6fb	6.9094785e-05
44	0x377198dd	1.4400311e-05
45	0x39bde2cb	0.00036217863
46	0x36a6f42a	4.97561e-06
47	0x3a4aeac1	0.00077406695
48	0x37c2021d	2.3127586e-05
49	0x3a40b28f	0.0007350826
50	0x36bcd062	5.6270956e-06
51	0x3ab62ec3	0.0013899434
52	0x35c805e5	1.4902877e-06
53	0x38356aec	4.325334e-05
54	0x36231c3f	2.4305334e-06
55	0x38ad9dca	8.278673e-05
56	0x3408dc5d	1.2746155e-07
57	0x3651259a	3.1165314e-06
58	0x3414260d	1.3797417e-07
59	0x370ad32b	8.274607e-06
60	0x3ae9a745	0.001782634
61	0x3e1394b2	0.14412192
62	0x3b065ff1	0.0020503963
63	0x3eb1f9b5	0.34760824
64	0x348e032c	2.645187e-07
65	0x37888ce5	1.6278073e-05
66	0x34da2267	4.0630695e-07
67	0x382bb540	4.093838e-05
68	0x35220302	6.035408e-07
69	0x37039ad6	7.844259e-06
70	0x34f015c0	4.471931e-07
71	0x378993fb	1.6400581e-05
72	0x3b429f06	0.0029696836
73	0x3eab1be8	0.33419728
74	0x3b9dba9d	0.004813506
75	0x3f540419	0.8281875
76	0x36ac46dc	5.1342486e-06
77	0x3720f7bb	9.594422e-06
78	0x36171da1	2.2518e-06
79	0x3768a5ad	1.3866852e-05
80	0x3b1ff4a7	0.0024407299
81	0x3e897340	0.2684574
82	0x3b82b42e	0.0039887642
83	0x3f2c1ab1	0.6722823
84	0x3a7192f0	0.0009215316
85	0x3dde0ff0	0.108428836
86	0x3ad7bbd6	0.0016459178
87	0x3e8bcb85	0.2730371
88	0x3b8e6460	0.0043454617
89	0x3f01949a	0.50617373
90	0x3bf079dc	0.0073387455
91	0x3fa0375f	1.2516898
92	0x3736cd6b	1.0895873e-05
93	0x39920cdc	0.0002785687
94	0x36395267	2.7615113e-06
95	0x3a04acc6	0.00050611456
96	0x34d52e3a	3.9707976e-07
97	0x36495737	3.00021e-06
98	0x355e6117	8.284273e-07
99	0x3703512e	7.82711e-06
100	0x36afa490	5.234564e-06
101	0x371a3c81	9.1932025e-06
102	0x36742958	3.6382899e-06
103	0x37508c05	1.2430367e-05
104	0x3a9250fd	0.0011163052
105	0x3e34af19	0.1764492
106	0x3b2b6e7c	0.0026158383
107	0x3ee62dd4	0.4495684
108	0x368f182c	4.264546e-06
109	0x37995db6	1.8282659e-05
110	0x36440a08	2.9212115e-06
111	0x3863bdf4	5.4297925e-05
112	0x359989ee	1.1439531e-06
113	0x387e28ca	6.0596307e-05
114	0x360f9cb9	2.1399885e-06
115	0x391a9f8e	0.00014746023
116	0x364dbced	3.065735e-06
117	0x36f5f52a	7.33011e-06
118	0x35a1d213	1.2056574e-06
119	0x37779e56	1.4759213e-05
120	0x3752c849	1.2563608e-05
121	0x37e95f96	2.7820275e-05
122	0x36ed7f05	7.0779374e-06
123	0x386b6d8f	5.61304e-05
124	0x395eff31	0.00021266636
125	0x3c85b982	0.016323809
126	0x3970d036	0.00022965748
127	0x3d1ef825	0.038810868
128	0x3485af03	2.4900518e-07
129	0x368ff540	4.290283e-06
130	0x34502e90	1.9388449e-07
131	0x374f91e2	1.23721275e-05
132	0x34a80281	3.129426e-07
133	0x37688779	1.385982e-05
134	0x35073c37	5.0379043e-07
135	0x381fee03	3.813022e-05
136	0x372cf2f7	1.0308569e-05
137	0x38a47c6f	7.843307e-05
138	0x36fe19b8	7.572784e-06
139	0x3941f8b5	0.00018498565
140	0x3abc8eb4	0.001438579
141	0x3e2a81b6	0.16651043
142	0x3b1cde08	0.0023936052
143	0x3ed2cd6d	0.41172352
144	0x3b55c4d7	0.0032618546
145	0x3e9e6ff2	0.30944782
146	0x3b919b0d	0.0044435323
147	0x3f40003c	0.7500036
148	0x3a303233	0.00067213475
149	0x3da48d43	0.08034756
150	0x3a9e6336	0.001208401
151	0x3e4ecb9e	0.20194861
152	0x3ab3cc18	0.0013717441
153	0x3e107c1d	0.14109845
154	0x3b09fb55	0.0021054347
155	0x3eb2ed90	0.3494687
156	0x3ad3c401	0.0016156436
157	0x3e09d7c2	0.13461211
158	0x3b006abb	0.0019594866
159	0x3ea9b7f1	0.3314815
160	0x34bee0bf	3.5553782e-07
161	0x380912a0	3.268069e-05
162	0x3593f5e9	1.1023923e-06
163	0x38c38736	9.3235096e-05
164	0x3a20914d	0.0006125167
165	0x3dd3f223	0.10348918
166	0x3abb9056	0.0014309983
167	0x3e84e879	0.25958613
168	0x3b4995a9	0.003075937
169	0x3e8c321d	0.27381983
170	0x3b7c4606	0.0038493886
171	0x3f28bcb9	0.6591297
172	0x3a3e79eb	0.0007266092
173	0x3d86635f	0.06561922
174	0x3a770e11	0.00094243983
175	0x3e2273d3	0.15864496
176	0x377d4c59	1.5097751e-05
177	0x38a00a07	7.631262e-05
178	0x3719d8cf	9.16999e-06
179	0x39325279	0.00017006126
180	0x358ccd47	1.0490556e-06
181	0x36a99261	5.0536332e-06
182	0x35e521ac	1.7071629e-06
183	0x3704b623	7.91022e-06
184	0x3b18edd1	0.002333511
185	0x3e6a978c	0.22909373
186	0x3b55c0a7	0.003261605
187	0x3f0dda9b	0.5541169
188	0x3b8ba208	0.004261259
189	0x3ee02d17	0.437844
190	0x3bd22a88	0.0064137615
191	0x3f8a827b	1.082107
192	0x35c97e81	1.5012484e-06
193	0x388a0bac	6.582527e-05
194	0x35cef6d3	1.5420031e-06
195	0x3918ee46	0.00014584613
196	0x37024320	7.764233e-06
197	0x38bfc350	9.1439695e-05
198	0x37148300	8.851988e-06
199	0x39466d32	0.0001892343
200	0x3aa56e23	0.0012621324
201	0x3e0f677f	0.14004324
202	0x3b009aa1	0.0019623416
203	0x3eae48de	0.34039968
204	0x38335f36	4.2765598e-05
205	0x3aadc9b0	0.001325896
206	0x3740ecdc	1.149924e-05
207	0x3b2b59b0	0.0026145987
208	0x3b336f6b	0.0027379643
209	0x3e9d9992	0.30781227
210	0x3b92cf0d	0.004480249
211	0x3f42e879	0.76135975
212	0x3ad78c27	0.0016444967
213	0x3e236945	0.15958126
214	0x3b121553	0.0022290542
215	0x3ec58492	0.38577706
216	0x3ade12fa	0.0016942911
217	0x3e3557b0	0.17709231
218	0x3b290b20	0.0025793985
219	0x3ede3ff5	0.4340817
220	0x3bd2536f	0.0064186375
221	0x3f1beff8	0.6091304
222	0x3c0fedd5	0.008784731
223	0x3fbdf00b	1.483888
224	0x3a0581ef	0.0005092909
225	0x3d97ad59	0.0740611
226	0x3a895317	0.0010477033
227	0x3e3db056	0.18524298
228	0x38415f07	4.6103287e-05
229	0x39efba81	0.0004572459
230	0x37db9dd7	2.6180334e-05
231	0x3a46bd77	0.0007581333
232	0x3456b41a	1.9995824e-07
233	0x37a09afc	1.9145657e-05
234	0x341de4e4	1.4705034e-07
235	0x37ceda5b	2.4658793e-05
236	0x36de49b2	6.624695e-06
237	0x38394970	4.417583e-05
238	0x36a35889	4.8680854e-06
239	0x38b4160d	8.587176e-05
240	0x3b8c7f7e	0.004287659
241	0x3ee45278	0.4459417
242	0x3bd2aad0	0.006429054
243	0x3f8be7b3	1.0930084
244	0x3b50eb1d	0.003187842
245	0x3e9de55f	0.3083906
246	0x3b925d0a	0.0044666575
247	0x3f3fee40	0.74972916
248	0x3a11f3c9	0.0005567638
249	0x3d94f3fe	0.072731
250	0x3a889b17	0.0010422197
251	0x3e391cb8	0.18077362
252	0x36575ae6	3.2090406e-06
253	0x37b26601	2.1266753e-05
254	0x35ff43af	1.9018679e-06
255	0x3885c3a3	6.3783744e-05

exp_avg f4 [64]
0	0xbe05eb3d	-0.13078018
1	0xbe5a8aca	-0.21342006
2	0xbd2f4e9a	-0.04279957
3	0xbe1ee1ff	-0.15515898
4	0xbe073e57	-0.13207375
5	0xbf190a88	-0.59781694
6	0xbce3b768	-0.027797416
7	0xbefd8ba1	-0.4952059
8	0x38ce47d9	9.836228e-05
9	0xbdf3291e	-0.11873077
10	0x3943cca3	0.00018672882
11	0xbe9db11b	-0.30799183
12	0xbebaa014	-0.36450255
13	0x38e1648c	0.000107475644
14	0xb74c3a6d	-1.2172951e-05
15	0xbeb29b5b	-0.34884152
16	0x3998c3e6	0.00029137655
17	0xbcff9c10	-0.031202346
18	0xbec3ce1b	-0.38243183
19	0xbd97eae4	-0.07417849
20	0xbedd3a31	-0.4320846
21	0xbdb54a19	-0.08852024
22	0xbee33af7	-0.44380924
23	0xbe765006	-0.24053964
24	0x3b87173e	0.0041226437
25	0xbda80d22	-0.0820563
26	0xbf414ea0	-0.755106
27	0xbd9c5c04	-0.07634738
28	0x3a030140	0.00049974397
29	0xbd8396be	-0.06425236
30	0xbe17f912	-0.14841107
31	0xbc680bc5	-0.014162962
32	0xbc935bd2	-0.01798812
33	0x391ecf1e	0.00015145211
34	0xbdbf141a	-0.09330006
35	0xbec88923	-0.39167127
36	0xbf28cb7d	-0.659355
37	0xbe0bca09	-0.13651289
38	0xbe605738	-0.21908271
39	0xbee5ca80	-0.44881058
40	0x39e94552	0.0004449287
41	0xbf1e39ad	-0.61806756
42	0xbe979866	-0.29608458
43	0xbe4f596a	-0.20248953
44	0xbe1b6090	-0.15173554
45	0x38b2bbea	8.522703e-05
46	0xbf08ac8e	-0.533883
47	0xbf23a54b	-0.6392409
48	0x3709d0f8	8.214491e-06
49	0xbca1dc38	-0.019758329
50	0xbec2ca51	-0.3804498
51	0xbf14baaf	-0.58097357
52	0xbe425d4c	-0.18980902
53	0xbe9e1dfe	-0.30882257
54	0xbf04aeb5	-0.5182908
55	0xbf2a003d	-0.66406614
56	0xbdd59b13	-0.10429969
57	0xbe6a16a9	-0.22860207
58	0x33c5d5d1	9.21242e-08
59	0xbdb1023c	-0.08643004
60	0xbede49ec	-0.43415773
61	0xbed4ca9e	-0.41560835
62	0xbe50fe78	-0.20409572
63	0xbd7c0136	-0.061524592

exp_avg_sq f4 [64]
0	0x3d743d48	0.059628755
1	0x3d7474a9	0.05968157
2	0x3a8f1cea	0.0010918651
3	0x3d59b141	0.053147558
4	0x3cbef477	0.02330993
5	0x3d78fdfa	0.060789086
6	0x39b261c1	0.00034023638
7	0x3d9b5c7a	0.07585998
8	0x3941915d	0.00018460066
9	0x3c52b949	0.012861558
10	0x3a852561	0.0010158235
11	0x3c009bf7	0.007849685
12	0x3c1b7897	0.0094892
13	0x3ac3dbe9	0.0014942858
14	0x396a50e1	0.00022346109
15	0x3dcd7c76	0.10033505
16	0x3a0ca957	0.000536581
17	0x39d0111c	0.000396856
18	0x3e6669a7	0.2250124
19	0x3bec7529	0.007216115
20	0x3e3585d6	0.17726836
21	0x3d8c4158	0.06848401
22	0x3ebc0bed	0.3672785
23	0x3bc64004	0.0060501117
24	0x3a4fbfa0	0.00079249777
25	0x3bacd8fa	0.005274889
26	0x3e041860	0.12899923
27	0x3b80e4b0	0.0039335117
28	0x3b011c9d	0.0019700893
29	0x3b4bc084	0.003109009
30	0x3c28680c	0.010278713
31	0x3c4feff1	0.012691484
32	0x39b994dc	0.0003539686
33	0x3a141fb8	0.00056504784
34	0x3c465327	0.012104786
35	0x3de90ff0	0.11379993
36	0x3e637436	0.222123
37	0x3d5763f8	0.052585572
38	0x3dad9cab	0.08477148
39	0x3dc9a460	0.09845805
40	0x3aa426f8	0.0012523821
41	0x3d99c7f0	0.07508838
42	0x3e31ea7c	0.17374605
43	0x3d319aab	0.043360393
44	0x3c817866	0.01580448
45	0x3ad0e30d	0.0015936807
46	0x3e259972	0.16171816
47	0x3e9e1609	0.30876186
48	0x39c6ec87	0.0003794173
49	0x3c4b224a	0.012398312
50	0x3dcd927d	0.10037706
51	0x3c972e97	0.018454833
52	0x3e494470	0.19655013
53	0x3dd2f625	0.103008546
54	0x3e005204	0.12531286
55	0x3ecaef57	0.39635727
56	0x3d553d30	0.052060306
57	0x3d1eae80	0.038740635
58	0x3976b013	0.00023525981
59	0x3bd40d38	0.0064713024
60	0x3e9a6a07	0.30159017
61	0x3e57c5d8	0.21071565
62	0x3d616564	0.055028334
63	0x3b502633	0.003176105

exp_avg f4 [64, 64]
0	0x3d402f13	0.046919893
1	0x3da45810	0.08024609
2	0xb918fbed	-0.000145897
3	0x3cb6d5c0	0.02231872
4	0x3d11f3da	0.035632946
5	0xbe001f20	-0.12511873
6	0xba28ffd6	-0.0006446814
7	0xbdbe7580	-0.09299755
8	0xb6dc8b0e	-6.572699e-06
9	0xbb3f7017	-0.0029211098
10	0xb5e61dbb	-1.7144988e-06
11	0xbc1dc472	-0.009629356
12	0xbc0dde4a	-0.008658955
13	0xb7022899	-7.758056e-06
14	0xb73894a4	-1.1001863e-05
15	0x3c2511e3	0.010075065
16	0xb78d7e85	-1.6867425e-05
17	0xb963df1e	-0.00021731525
18	0x3d4c4a5c	0.049875602
19	0xbb693224	-0.0035582865
20	0x3d66531a	0.056231596
21	0x3c2f1c99	0.010687971
22	0x3cf25f01	0.029586317
23	0xbbb4a1fd	-0.0055124746
24	0xb9bf2db7	-0.0003646442
25	0xbb334036	-0.0027351505
26	0xbdabda23	-0.08391216
27	0xbbb98af2	-0.0056623155
28	0xb6db574e	-6.536872e-06
29	0xbb87f617	-0.0041492092
30	0xbbac59b0	-0.005259715
31	0x3ca45d07	0.02006389
32	0xb90aa5e7	-0.00013222509
33	0xb6e74fde	-6.8936342e-06
34	0xbbe57d9e	-0.0070035
35	0x3e030835	0.127961
36	0x3ae5859e	0.0017511135
37	0x3c70e203	0.014702323
38	0x3a257dcd	0.0006312996
39	0x3d539c70	0.051662862
40	0xb76ff575	-1.430266e-05
41	0xbd38f9ab	-0.045159977
42	0x3c88223d	0.016617889
43	0xbb988210	-0.0046541765
44	0xbbce986a	-0.0063047903
45	0xb740ab95	-1.1484041e-05
46	0x3d705244	0.058672205
47	0x3c9eb2c5	0.019372353
48	0xb4f36669	-4.533679e-07
49	0xba16b33e	-0.0005748755
50	0x3cefc04d	0.0292665
51	0xbc618af5	-0.01376604
52	0x3d5732c4	0.05253865
53	0x3c451fe8	0.012031533
54	0x3c914ec7	0.01773776
55	0xbbb89b8a	-0.005633776
56	0x3dc47ed3	0.09594502
57	0xbbbb349a	-0.0057130577
58	0xad160fc3	-8.530013e-12
59	0xbb9fc6f2	-0.004876011
60	0x3c8a3071	0.016868802
61	0x3d4596c5	0.04823949
62	0x3c7d59af	0.015463277
63	0xbb2447eb	-0.002506728
64	0x372e6c56	1.0396432e-05
65	0x34425353	1.8097971e-07
66	0x3237c10c	1.0695896e-08
67	0x371299d3	8.738093e-06
68	0x370f204e	8.530986e-06
69	0x374c61d6	1.2182127e-05
70	0x31826dce	3.7959813e-09
71	0x3334eb4a	4.212351e-08
72	0x321ad8c8	9.01327e-09
73	0x00000000	0.0
74	0x2c8f695f	4.076003e-12
75	0x320551a9	7.760186e-09
76	0x3133c5e2	2.6160412e-09
77	0x326e5b35	1.3874161e-08
78	0x2c4f6de4	2.947747e-12
79	0x367e4505	3.7889124e-06
80	0x3280b382	1.4982792e-08
81	0x319712f5	4.3968336e-09
82	0x3796e25d	1.7986802e-05
83	0x32a7b06f	1.9521591e-08
84	0x37acbeaf	2.0592792e-05
85	0x33abc46a	7.9985355e-08
86	0x33c518ea	9.178059e-08
87	0x2d516555	1.1902775e-11
88	0x32c4fe5e	2.2933076e-08
89	0x329f7a5a	1.8565675e-08
90	0x36c0e325	5.748489e-06
91	0x32ad85c5	2.0200682e-08
92	0x31d96ba6	6.3277694e-09
93	0x322f76ab	1.0213323e-08
94	0x324e2a28	1.2000363e-08
95	0x36992d2f	4.5650154e-06
96	0x327b42d5	1.4625319e-08
97	0x31c830b7	5.8263043e-09
98	0x32985f8f	1.7738584e-08
99	0x37d1c848	2.5008005e-05
100	0x369a126d	4.5917027e-06
101	0x36ba3a6e	5.550034e-06
102	0x365fc196	3.3342271e-06
103	0x3787a7fe	1.6171482e-05
104	0x2d26c8f7	9.480631e-12
105	0x365e5350	3.3129072e-06
106	0x36bf6305	5.703771e-06
107	0x3662cddc	3.379645e-06
108	0x325d5ed6	1.2885456e-08
109	0x00000000	0.0
110	0x378aa457	1.6527409e-05
111	0x3728639d	1.0036773e-05
112	0x30e045d2	1.6317989e-09
113	0x3271fd8d	1.4085697e-08
114	0x37507edf	1.2427306e-05
115	0x3147324e	2.8986906e-09
116	0x3787992a	1.6164577e-05
117	0x3714aaa2	8.861216e-06
118	0x3723d2e9	9.764663e-06
119	0x36ae8e46	5.202167e-06
120	0x37b25a86	2.1261407e-05
121	0x3233cf63	1.0466326e-08
122	0x00000000	0.0
123	0x3261bf9e	1.3140292e-08
124	0x33af372b	8.1591075e-08
125	0x375d9e6b	1.3209511e-05
126	0x36ef7f60	7.1375835e-06
127	0x00000000	0.0
128	0xbc14f0a2	-0.009090574
129	0xbbe2386b	-0.006903698
130	0xb8256796	-3.9435537e-05
131	0x3b2a6bec	0.0026004268
132	0xbc1908bf	-0.009340464
133	0xbd5d5b3b	-0.054042082
134	0xb904f7fe	-0.00012680885
135	0xbd1daf9f	-0.038497563
136	0xb619cb25	-2.2917022e-06
137	0xba33e44a	-0.0006862326
138	0xb47791b8	-2.305668e-07
139	0xbb136bed	-0.0022494749
140	0xbb2c0ad8	-0.002625158
141	0xb58bfb31	-1.0429413e-06
142	0xb68b1ae3	-4.145653e-06
143	0xbbe4d2cb	-0.0069831363
144	0xb6e21419	-6.7376645e-06
145	0xb850f43e	-4.9818533e-05
146	0xbc9c8d18	-0.019110247
147	0xba6ecc8b	-0.0009109459
148	0xbcad0b67	-0.021123601
149	0xbc2fb97b	-0.010725374
150	0xbc0f36b5	-0.0087410705
151	0xbabcf7c1	-0.0014417098
152	0xb8bd190d	-9.016888e-05
153	0xba29a92b	-0.00064720464
154	0xbd0af228	-0.033922344
155	0xbaa7f27e	-0.0012813357
156	0xb5960b1b	-1.1179103e-06
157	0xba71e546	-0.0009227585
158	0xba98c5a7	-0.0011655585
159	0x3b21645b	0.0024626467
160	0xb804a759	-3.1627107e-05
161	0xb6285bc9	-2.5087377e-06
162	0xbaca7a21	-0.0015447774
163	0xbbf025e4	-0.0073287357
164	0xbc2a5754	-0.010396797
165	0xbbe1cc40	-0.0068908036
166	0xbb80affc	-0.003927229
167	0xbc9542d7	-0.018220348
168	0xb6c65eab	-5.9118806e-06
169	0xbc9ffd1d	-0.019529874
170	0xbc0d5ce9	-0.008628109
171	0xbc29ee72	-0.010371791
172	0xbab21445	-0.0013586363
173	0xb6868672	-4.0091627e-06
174	0x3c1c11f9	0.009525769
175	0xbc7a9ad9	-0.015295708
176	0xb3814574	-6.019664e-08
177	0xb9197718	-0.00014635583
178	0xbc758965	-0.014986371
179	0xbb900cba	-0.0043960484
180	0xbc233ac6	-0.009962743
181	0xbc53b77a	-0.012922162
182	0xbc6b49c7	-0.014360852
183	0xbc566ab5	-0.013086964
184	0xbc15c3d3	-0.009140926
185	0xbaa5ea5b	-0.0012658344
186	0x00000000	0.0
187	0xba91c3b4	-0.0011120946
188	0xbc1c57e5	-0.00954244
189	0xbc545c9e	-0.012961535
190	0xbc1359ed	-0.008993608
191	0xba0f9ea2	-0.0005478655
192	0xbccee41c	-0.025255255
193	0xbcf6709f	-0.030082999
194	0xb7d71201	-2.5638381e-05
195	0x3b997492	0.0046830857
196	0xbca2a68a	-0.019854803
197	0xbd733b0f	-0.059382495
198	0xb8f6ea5c	-0.00011773847
199	0xbd257078	-0.04039046
200	0x332f1258	4.0762046e-08
201	0xba0e07be	-0.0005418024
202	0x321ca65f	9.1182235e-09
203	0xbaeafa6b	-0.0017927414
204	0xbaf1dedb	-0.0018453257
205	0x33c60e99	9.222749e-08
206	0x33a266a6	7.5623845e-08
207	0xbc70fcd1	-0.014708714
208	0x33fdfe86	1.1827528e-07
209	0xb824ffe9	-3.9338982e-05
210	0xbd2cf52e	-0.04222601
211	0xba2f10ff	-0.0006678253
212	0xbd3ea9ed	-0.046548773
213	0xbca2a245	-0.019852767
214	0xbccd7efa	-0.025084961
215	0xba850558	-0.0010148687
216	0xb886825b	-6.4138985e-05
217	0xba055fbf	-0.00050878146
218	0xbd0ee0aa	-0.034882225
219	0xba897d85	-0.0010489678
220	0x3339b540	4.3238515e-08
221	0xba4a0c2d	-0.0007707503
222	0xba7ef6ac	-0.0009726088
223	0xbb3ee2eb	-0.0029126953
224	0xb7b5f9ae	-2.1693148e-05
225	0x334a950b	4.7167344e-08
226	0xbaaa7016	-0.0013003375
227	0xbd34f0e0	-0.04417503
228	0xbc846a69	-0.016164022
229	0xbc6a6254	-0.01430567
230	0xbbc0e899	-0.005887103
231	0xbd38f50e	-0.045155577
232	0x33d2e5c7	9.820683e-08
233	0xbca8d785	-0.02061058
234	0xbc829b8f	-0.015943317
235	0xbc70f8fb	-0.014707799
236	0xba9a77c8	-0.0011784965
237	0xb5d3c34b	-1.5777563e-06
238	0x3c3cf664	0.0115333535
239	0xbce7c7df	-0.028293548
240	0x30802f57	9.32668e-10
241	0xb8c8e40a	-9.579219e-05
242	0xbcf9ea6f	-0.030507294
243	0xbb524e52	-0.003209014
244	0xbd0750ab	-0.033035915
245	0xbcbd037e	-0.023072954
246	0xbcdecbb1	-0.027196737
247	0xbca4bdf5	-0.02011011
248	0xbd2a34fd	-0.04155444
249	0xba8a36e4	-0.0010544923
250	0x2cba350b	5.292327e-12
251	0xba6c3984	-0.0009011256
252	0xbcd71d08	-0.02625896
253	0xbd04f5d9	-0.03246102
254	0xbc965d9a	-0.01835518
255	0xb9eec9a0	-0.0004554512
