gen_0_agent_0.pt (torch, 64207 bytes, 18 tensors)

net.0.weight f4 [64, 4]
00000000: 19d4 e63d 9752 bf3d d77a 903e 0dd6 1abe
00000010: 2f9a e3bd a124 0c3e c586 593e 2e16 8bbe
00000020: 0f63 a93d eaec c5bc 0b5f 03be acff 593e
00000030: 0454 68be eba9 213e b938 8e3e d9b0 ebbd
00000040: 91f2 f0bb 3ab3 e3bd f3d4 883e 282a 8dbe
00000050: 64a7 8a3e 0d03 193e 45d6 7f3e b2ee 22be
00000060: 609f 633e ee9e 5a3e 5c01 6cbd bf1a 943e
00000070: 8669 9a3e 561f 853e 4894 d9bd e5c5 bd3d
00000080: dad8 46be 63cd 44be aaa9 f3bc 61a8 663c
00000090: d40f 97be dbb1 86be f35b 09bd b8e3 b73d
000000a0: 637a 3d3d a380 c43d 6b39 20be 27f5 d23d
000000b0: 2a90 f13d dc2e 84bc a2a0 91bd b551 fc3d
000000c0: 6463 46be cba6 053e 30be 7d3d e6a0 163e
000000d0: 8ece bb3c f111 debd b0fb 8fbe f7b6 333e
000000e0: 1cef eb3d b030 cdbd 6f8b 2b3d ac19 1b3e
000000f0: 2068 c0bd a792 00bc 1019 33be a6b8 62bd
00000100: 506e 1abe ceda 8cbe 4703 9c3e d8e1 123e
00000110: 6134 8e3e 43a0 a4bc a353 eb3d a8a5 173e
00000120: d645 0ebe bcc7 653e f0be 393e 8514 6ebe
00000130: dca7 a53d 5d48 2abe 4f5c 13bc e603 8a3e
00000140: 2797 943e 1a1b a43e 805c 823d 8715 48be
00000150: 1f62 733e 56f6 83be 5717 443e 679c a5be
00000160: 3f76 d0bc 2fff 8c3e 9e6c 7eba f951 3fbc
00000170: ab44 42be be9d 323e 56c8 8e3e 1eb4 6a3e
00000180: 7996 8cbe b019 50be 3216 b0bd 0e34 973e
00000190: ec1e 63bd 570a 71be 9218 6ebd 5f2b 6b3e
000001a0: 5e01 ca3d 66ad 8a3d e727 34bd f4fa 13bd
000001b0: b4e4 6b3e 73b5 6abe 931a 10be 1d55 873e
000001c0: 7211 2fbe f746 363d aa99 91bd c5a3 1e3e
000001d0: 9d4c 353e c895 c0bd 6607 49bd 6dd3 243e
000001e0: 9bb6 8dbd 21d8 db3c bdf5 a3bd 26a9 733e
000001f0: 4c9a 0bbe 42f9 fabd cd63 723e d80c 71be
00000200: 4ebe d3bd 805b 8ebe e4ec 643e 58cd dc3d
00000210: 4293 b5bc 9fb2 95bd cb71 913e 0c87 063e
00000220: eb06 693e 8367 d8bd 7268 8a3d fa5d 963e
00000230: f11c 5f3e febf 893e 24f9 36be 3139 a3be
00000240: 1676 883e 71d0 463d 6dfe 18be 1429 86bb
00000250: 9f66 353e aca3 173e 40cb ad3d b765 63bc
00000260: 3ce2 dbbd a1bd 35be 2f3f 41be 5893 24be
00000270: 99c0 c63c 136e a13e 77e0 71be 86b8 c9bd
00000280: 4548 473e 1fce 51be 4e64 693e c233 313e
00000290: d216 5fbe 3dbe 96bc aa9b 34bc 5238 a3bd
000002a0: 7aec 88bd 378c 59be b65b 833c 1c8d 69be
000002b0: 00e6 9b3e 13e6 8a3e 8bb2 9f3d 870f 053e
000002c0: 15bd 043e 5502 37bd e5f4 943e 817b 943e
000002d0: 975a 36be 20a7 c13d 188b 2dbe 7a97 5b3e
000002e0: 4e75 44bd be4e 863e f95d 63be 4649 1dbe
000002f0: bc0a 2cbd e5c7 443c bb32 c53d a796 35be
00000300: 444c 67bc 8a94 f13c e469 88be 6aa5 443d
00000310: 0593 9abe 2f8a e2bd aa74 06be 1350 0e3e
00000320: 187e 4f3e fb4f 2d3e 72f3 f9bd 822a dbbd
00000330: c95a 993d dda9 80be df3b 553e 6bd8 d2bd
00000340: 87ba 893d a157 9e3e 3279 133e 8a09 05be
00000350: aea2 e23d 1ec3 81be 3527 c03d 372b a6be
00000360: 58d3 3dbe 39f8 633e 003a 0d3e 1484 8fbd
00000370: fec4 603e 62ce 0f3d e3f0 993d 8514 21bd
00000380: d62c af3d 1037 933e 66b5 1ebe 8289 82be
00000390: 74e7 493c 13cd c7bd 3414 c43d cfad 0d3e
000003a0: d362 1cbe f6d3 efbc ea43 c1bb ceb7 f8bb
000003b0: db00 02bd 0f78 51be 2ecc aabd c7af c63d
000003c0: 3a87 b73d 54cd 8e3d 98f1 893e 915d 0ebe
000003d0: 25f2 093e c447 ac3e 71cd 2b3d 7139 acbc
000003e0: d98a 943e a300 1f3e 0e0c 5cbe 82b1 f73b
000003f0: 6371 90be d347 43be 2008 8a3e d531 8d3e
0.11270923 0.09341925 0.2821872 -0.15120716 -0.111133926 0.13685848 0.21242817 -0.2716536
0.08270847 -0.024160821 -0.12829225 0.21288937 -0.226883 0.15787475 0.2777765 -0.115083404
-0.007353135 -0.11118169 0.26724967 -0.27571225 0.27080834 0.1494257 0.24984081 -0.15911368
0.22228765 0.2134969 -0.057618484 0.28926656 0.30158633 0.2600047 -0.106239855 0.09266261
-0.1941866 -0.19218974 -0.029743988 0.014078231 -0.29504263 -0.26307568 -0.033534955 0.08978981
0.046259295 0.09594848 -0.15646903 0.10300665 0.11795075 -0.016135626 -0.071107164 0.12320272
-0.19373852 0.13051908 0.061948955 0.14709815 0.022925641 -0.10843266 -0.2812171 0.17550264
0.11520216 -0.10019052 0.04188102 0.15146512 -0.0939486 -0.007847465 -0.1749003 -0.055351876
-0.15081143 -0.27510685 0.3047125 0.14343965 0.27774337 -0.02009595 0.11490562 0.14809287
-0.13893828 0.22439474 0.18139243 -0.23250015 0.08088657 -0.16629167 -0.008994176 0.269561
0.2902157 0.32051927 0.06365299 -0.19539462 0.23767899 -0.25773877 0.19149528 -0.32345888
-0.02544701 0.2753844 -0.0009705516 -0.011677259 -0.18971507 0.17442986 0.2788722 0.22920272
-0.27458552 -0.20322299 -0.085979834 0.29531902 -0.05544941 -0.235391 -0.0581289 0.22965764
0.09863542 0.067713544 -0.043983366 -0.036128 0.23036462 -0.2292078 -0.14072637 0.26432124
-0.17096499 0.04450127 -0.07109387 0.1549216 0.17705007 -0.094035685 -0.04907932 0.16096278
-0.06919595 0.026836457 -0.08005855 0.23794994 -0.13633078 -0.122545734 0.23670883 -0.23540056
-0.10339032 -0.27804184 0.22355992 0.10781354 -0.022164945 -0.0730946 0.2840713 0.13137454
0.22756545 -0.10566618 0.067582026 0.29368573 0.21788384 0.2690429 -0.17868477 -0.3187957
0.26652592 0.04853863 -0.14940806 -0.0040942524 0.17714928 0.1480853 0.084860325 -0.013879231
-0.1073651 -0.17748119 -0.18871759 -0.16071832 0.02426176 0.31529292 -0.23620783 -0.09849648
0.19461162 -0.20488785 0.2279217 0.173049 -0.21786049 -0.01840126 -0.011023441 -0.079697266
-0.06685729 -0.21244894 0.016034942 -0.22807735 0.30448914 0.27128658 0.07797726 0.12994204
0.12962754 -0.04467996 0.2909309 0.29000476 -0.17807995 0.09455705 -0.16947591 0.21444502
-0.047963433 0.2623195 -0.22203816 -0.15359983 -0.042002425 0.012010549 0.09628817 -0.1773325
-0.014117304 0.029489774 -0.26643288 0.048009314 -0.30190292 -0.11061513 -0.13130441 0.13897733
0.20262945 0.16925041 -0.12204637 -0.10701467 0.07488019 -0.25129595 0.2082362 -0.10295185
0.067250304 0.3092623 0.14401701 -0.1299192 0.11066185 -0.25344175 0.09382478 -0.32454845
-0.18537652 0.22262658 0.13791656 -0.07007614 0.21950147 0.03510893 0.075166486 -0.03932621
0.08553474 0.28752947 -0.15498886 -0.25495535 0.012323249 -0.09755912 0.09574166 0.13835834
-0.15272073 -0.029275876 -0.0058979886 -0.0075902706 -0.031739097 -0.20455955 -0.083397254 0.097014956
0.08961339 0.06972757 0.26942134 -0.1390288 0.13471277 0.33648503 0.04194397 -0.021023484
0.29012182 0.15527587 -0.21488973 0.0075590024 -0.28211507 -0.19070368 0.26959324 0.2757708

net.0.bias f4 [64]
00000000: f494 4c3d 48a5 fa3c 774f 433b ad1b e23b
00000010: bce4 093b f910 f33b c0b1 3fbc 3ddb 4e3d
00000020: 05db 26bc 94aa 4c3c 9a53 25bc 49b9 c63c
00000030: d3ad 6f3c 5d41 6fbc 05d0 2bbc 2bd3 2e3d
00000040: 1ee9 22bc 3b7d 5cbc f24c 8a3d 505a 243c
00000050: 0969 833d dfc5 553d 720a 783d ecc0 713c
00000060: d63e afb9 6e8d 8a3b a1ee 513d e5a3 e03b
00000070: 7103 72bc deb6 dfb9 3159 b13c 9e65 3dbd
00000080: 88ac 07bc dd4e 62bc 8a6c c33c 3612 4b3d
00000090: c24a 823d 8559 763c 0f4e 0b3d 48a7 2e3d
000000a0: 21c4 4ebc a0f0 f63c 1ba1 583d 1cbe d23c
000000b0: e0e3 ad3c d8ea 71bb 4e24 143d c1c0 823d
000000c0: 98c2 74bc fa33 9b3c 4c64 6d3d a122 40b9
000000d0: 7072 463d 5a21 5b3d fdc7 0e3d 35db 833d
000000e0: b141 e63a 3af1 b83c dd7e 35bc f5d4 753c
000000f0: 2183 763d dfef 823d d6fd 533d 4e86 3d3b
0.04994674 0.03059639 0.0029802003 0.006900272 0.0021040877 0.007417795 -0.011700094 0.05050205
-0.010184054 0.012491841 -0.010090733 0.024258273 0.014628845 -0.014602986 -0.010486607 0.042681854
-0.009943275 -0.013457592 0.067529574 0.010031298 0.06416518 0.052190658 0.060556836 0.014755469
-0.00033425417 0.0042282855 0.051252965 0.0068554753 -0.014771328 -0.0004267012 0.021648975 -0.046239488
-0.008280881 -0.013812748 0.023855466 0.049577914 0.06361915 0.015035992 0.03400999 0.04264
-0.012620003 0.030144036 0.052888017 0.025725417 0.021226823 -0.003691366 0.036167435 0.06384421
-0.014938973 0.018945683 0.05795698 -0.00018323447 0.04844898 0.053498603 0.034858692 0.06438295
0.0017567185 0.022575963 -0.01107761 0.015004386 0.060183648 0.06393408 0.05175575 0.0028919163

net.3.weight f4 [64, 64]
00000000: a16b 10be a30e 30be d151 893c c047 d0bd
00000010: dc07 96bd 60e0 9dbc e98c 523e 30bb 90bd
00000020: f9f4 593e 2238 36be b294 373e 9218 883b
00000030: b0d9 0bbe 171a 36be 74f1 783d 48c2 34be
00000040: 420a 0c3e 0a83 193d 6704 2bbe 820c 36be
00000050: 0327 2bbd 82eb 50be 7fb1 48be 300f 26be
00000060: ab4d 443e dcea cdbd c5ed a73d 4225 5b3e
00000070: 6ecb a1bd 4c96 ca3c 4f98 563e 939f 29be
00000080: 107c 653e 69dc 97bd bb68 363e 1b13 b7bb
00000090: fff4 5b3e 9c27 fdbd a7f6 9b3d e482 463d
000000a0: 0dcb 1d3e cf81 023e 73cb 0b3e 06d5 d23c
000000b0: 12ec dbbc 4673 853d b862 133e 1b73 813b
000000c0: e70a 4a3e 5b7d 16bd 640b 313c ef08 07bb
000000d0: 3095 48be bfc0 813c d5a1 883d c3d2 023e
000000e0: aa35 adbd 2bc4 f2b9 bbea 1ebe d5eb 85bd
000000f0: caad 943d b1e5 35bc 7dbe 18bc 9182 643e
00000100: eaea eebd 555d b3bd df44 47bc b099 6bbd
00000110: a965 b33d f118 e0bd 65b3 463e 9772 d4bd
00000120: 9ba8 ea3b 4e1e d1bd a5dc 58be 471c 33be
00000130: 5cff 52bd 8c4a 1dbe 9653 f3bd b2e0 a23d
00000140: 2f06 df3d acb1 05be 5abb d73d bb99 543e
00000150: badb da3d 8b02 f3bc 7527 d2bd 0b4e d7bd
00000160: 5e6a 87ba 354f c8bd 0cf7 eebd 845c a63d
00000170: 141a c6bd 92f3 10be a35b 5fbe 5743 423e
00000180: a58d 213e 292d 5fbe acb3 b0bd 0908 f7bc
00000190: b1a6 e13d 47d6 a23d 62b9 4ebd 09e0 f13d
000001a0: 8104 403e 0ded 70bd 2404 8fbd 2538 173e
000001b0: d091 263e 0685 b63d 9fee 2a3e ed3e 66be
000001c0: c427 50bd 956e 223e d3f0 523c 8c85 0b3e
000001d0: 354e d8bd 6f73 c13d 46e5 3cbe d863 5b3d
000001e0: ba8a 083d 925e 1f3d 71da 40be 028b 463d
000001f0: 96ae d9bd 24ff 84bd e196 0fbe a8ee 04bd
00000200: eb3a c9bc cd7a c5bd 5d1a f73b baa2 2d3e
00000210: e603 353d ad05 45be 704a 32be 8d82 35be
00000220: ecb1 6fbd 755a 4fbe ac55 653d cf7a a1ba
00000230: 6727 2bbe 1f72 1f3e b97b 29be 1d50 d53d
00000240: 0e3e aebd 59e6 763d c554 133e 10d0 623e
00000250: e3ec 01bd a1e2 8cbd 46f7 253e b056 d03d
00000260: e8dd 30be 25a1 b6bd fcf4 0ebe 213a 153e
00000270: aafc 85bd fe86 28be e0d1 3f3e 087d e4bd
00000280: 404b 3f3e e876 06be 7bc2 2cbe cdbc 843d
00000290: b2a9 d13d 7cdf 09bd 81a3 ebbd 83c2 36be
000002a0: 7afd d23d 32e4 d93c dc44 323e ee4b 34be
000002b0: cefc 233e 0264 38be 9adb 90bd 305b 2b3e
000002c0: 4ecd 143e 57d1 ba3d 963f 43be c7e2 60bd
000002d0: 4a5d a5bc 758e 27bb e156 3bbe 30a2 643e
000002e0: 4477 b9bd 7c05 9ebc e9af 4f3e 1853 bd3a
000002f0: 2125 723d 07e1 3d3e 5dec a93c c98a d63d
00000300: 0407 cc3c b738 8f3d feed 253d 6ecd 08be
00000310: 72e0 c03d 598a f6bd 0ab8 873d 2314 373e
00000320: c469 9abb 2dff 003e 1a65 cb3d b81e 0bbd
00000330: 706f 843d 1065 6a3d 8f41 29be cafb ea3c
00000340: 25e8 183e 20e6 e5bd 5526 d73c b6bd 2abe
00000350: be17 0bbd f302 46be e23b 1d3d 17e6 c0bd
00000360: be14 a73d 5ede cebd 260b c83a 5d1c 143e
00000370: 6bf3 1dbe 4606 853d d2d2 743c 547c 0bbe
00000380: 3667 4d3d b105 2abe 651f 31be 5417 cf3d
00000390: 8777 ac3d 4e62 a2bd 07fa 483e c877 473d
000003a0: 2cef 57be 0648 853d 5794 133e 18fe 823d
000003b0: 6d93 9e3d f485 c3bc 1864 83bd 1491 b73d
000003c0: 4bc4 31be 3d26 08be 1cd9 81bb 5893 083d
000003d0: 9a7a 05be fe48 22be de85 373c f2a3 4bbd
000003e0: 7b61 5cbe 8dba adbc aa28 963d b0ac f23d
000003f0: 0bab ecbd 3af7 ec3d 7cd6 51be ec96 f53d
-0.14103557 -0.17193083 0.016762646 -0.10169935 -0.07325718 -0.01927203 0.20561565 -0.07066953
0.21284856 -0.1779485 0.17927817 0.0041533196 -0.1365726 -0.1778339 0.060777143 -0.17652237
0.13675788 0.037478484 -0.16700898 -0.17778209 -0.04178525 -0.20402339 -0.1959896 -0.16216731
0.19170253 -0.100545615 0.08199648 0.21400931 -0.07900129 0.02472987 0.20956539 -0.16564779
0.22410607 -0.07415087 0.17813389 -0.0055869943 0.21480177 -0.123610705 0.076154046 0.04846467
0.15409489 0.1274483 0.13651828 0.025736343 -0.026845966 0.06516127 0.14393127 0.003950489
0.19730721 -0.036740642 0.010805938 -0.002060469 -0.1958816 0.015838979 0.06671492 0.12775712
-0.08457501 -0.00046303993 -0.1551923 -0.06539122 0.0725971 -0.011102126 -0.00932276 0.22315432
-0.116659 -0.08758036 -0.012162416 -0.057519615 0.087596245 -0.10942257 0.19404371 -0.10373419
0.0071612126 -0.10210858 -0.21177919 -0.17491256 -0.05151306 -0.15360469 -0.11881177 0.079530135
0.10889851 -0.13056058 0.10533781 0.20761769 0.10686441 -0.029664299 -0.10261432 -0.105129324
-0.0010331383 -0.097807325 -0.11668214 0.08123115 -0.09672943 -0.14155415 -0.218123 0.18971
0.1577669 -0.21794571 -0.0862802 -0.030155199 0.11018122 0.079510264 -0.050469764 0.118103094
0.18751718 -0.05881982 -0.06983212 0.14767511 0.1626656 0.08912091 0.16692589 -0.22484942
-0.050819173 0.15862496 0.0128748 0.13625163 -0.10561792 0.09445845 -0.18446836 0.053562015
0.033335425 0.03890855 -0.18833329 0.048472412 -0.10629003 -0.06493977 -0.140224 -0.032454163
-0.024564227 -0.09642563 0.0075409845 0.16956607 0.04419317 -0.19240446 -0.17411208 -0.17725582
-0.05851929 -0.2024935 0.055989906 -0.0012319925 -0.1671425 0.15570877 -0.16551103 0.10415671
-0.0850793 0.06027827 0.14387806 0.22149682 -0.031720053 -0.068791635 0.16207609 0.10172784
-0.1727215 -0.08917455 -0.13960642 0.14572956 -0.065423325 -0.16457745 0.18732405 -0.1115666
0.1868105 -0.13131297 -0.16871063 0.064813234 0.10237445 -0.033660397 -0.11505795 -0.17847638
0.10302253 0.02659807 0.1740908 -0.1760709 0.16014406 -0.180069 -0.07073136 0.16734004
0.14531443 0.0912196 -0.19067225 -0.05490377 -0.020186085 -0.0025567089 -0.1829486 0.22327495
-0.09055951 -0.019289725 0.20281948 0.001444432 0.05911744 0.18542872 0.02074259 0.1047569
0.024905689 0.069932394 0.04051017 -0.13359615 0.094178095 -0.120381065 0.066268995 0.17878775
-0.0047123153 0.12597342 0.09931393 -0.033964843 0.064665675 0.057225287 -0.16528915 0.028684516
0.14932306 -0.112255335 0.026263395 -0.16673931 -0.03395819 -0.19337063 0.038387187 -0.09418886
0.08158253 -0.10101007 0.0015262112 0.14463945 -0.15424888 0.06495337 0.014942842 -0.13621646
0.050147258 -0.16603734 -0.17297132 0.10111871 0.084212355 -0.079289064 0.19626628 0.048698217
-0.2108733 0.06507878 0.14412056 0.06396121 0.07742963 -0.023867585 -0.06415576 0.08963218
-0.17360036 -0.13295837 -0.003962649 0.033343643 -0.1303505 -0.15848157 0.01120135 -0.049716897
-0.21521561 -0.021207118 0.07331975 0.11849344 -0.11556061 0.11570592 -0.20491976 0.11991677

net.3.bias f4 [64]
00000000: 1b29 733c d954 bfbc 78b0 5f3c 0d82 f63a
00000010: 2fd6 85b8 bf4b 4d3d f5f7 5eba 2a7e 7f3d
00000020: b219 54bd b28d 6d3d 00cb b23c c00b 023d
00000030: 0000 0000 00fa fbbc e11a 0d3d 0000 0000
00000040: 34ef e33c f8a5 babc c6ef 38bc fe1d 67bc
00000050: 96aa 29bc efcc 0fbc dea8 04bd 94c3 7b3d
00000060: 5d72 c43b 2184 13bd 4c61 863d 0000 0000
00000070: 94c0 843d c98b cf3c 9a18 753d fce5 d3bb
00000080: 9c64 c1bb 8ad5 ff3b fbea 2f3c afd4 1a3d
00000090: 579a 80bc fe43 133d f772 823c c2e3 bdbc
000000a0: 30c6 c3bc baf9 01bd cbdd a2bc 753d 893d
000000b0: 278b 663d 1c84 46bb 4810 29bc ac8c 2d3d
000000c0: ec77 2b3d 3c6d 9bbb 1434 2a3d 1aee 773d
000000d0: f659 1f3d 0000 0000 3d96 a8bc 1f63 05bd
000000e0: d8e6 103d dbbd d1bc 8e83 e0bc 3919 583d
000000f0: 0133 843d d7d6 b7b9 a791 433d bc36 16bd
0.014841343 -0.023355888 0.013652913 0.0018807069 -6.381829e-05 0.050121065 -0.00085055764 0.06237618
-0.051782317 0.05799646 0.021825314 0.031749487 0.0 -0.030758858 0.03444946 0.0
0.027824022 -0.022784218 -0.011287635 -0.014106272 -0.010355612 -0.008776887 -0.032387607 0.061465815
0.0059950785 -0.03601468 0.06561527 0.0 0.06482044 0.02533521 0.059837915 -0.0064666253
-0.005901886 0.0078074383 0.010737176 0.037800487 -0.015698595 0.035953514 0.01592396 -0.023179892
-0.023898214 -0.0317323 -0.01988115 0.06701175 0.05628505 -0.0030291146 -0.010318823 0.042370483
0.041862413 -0.0047432464 0.04155357 0.060529806 0.038904153 0.0 -0.020579452 -0.032565232
0.0353764 -0.025603225 -0.02740648 0.05275843 0.06455041 -0.00035064548 0.047746327 -0.036673293

net.6.weight f4 [2, 64]
00000000: 52a3 8dbd 0cc4 47be 9c35 043e d66d 923e
00000010: c7e9 4f3e b87e bfbd c012 123d 4477 833e
00000020: 1156 c0bd e566 0b3c 0ddb 553e 0d5f b13d
00000030: 802b e23b 9309 2fbd 8322 1abe 6ce8 76bd
00000040: 1d2f 413b 6886 613e 804d 61bc 6023 63bc
00000050: b0bb 1a3d 6684 42be c15e 8ebe 1fd6 283e
00000060: 90f5 febc 17f0 1fbe fc8e 433e 2030 a23c
00000070: b135 9a3e 96d2 703d fcf5 043e 1c0d bdbd
00000080: 5009 0d3e 65b4 5c3e 38d4 2f3d 23d6 ba3d
00000090: 9650 803e e1b2 53be 7d04 7bbe 0706 90be
000000a0: 7837 10be 9ee5 debd 3561 7fbd 9008 5c3e
000000b0: eaa7 ba3a d367 83be bddb 80be 5685 9b3e
000000c0: 0105 f0bd 6009 683e a5f5 6c3d f5d9 22bc
000000d0: f066 54be 4c27 6d3e 0785 71be b575 78bd
000000e0: f15b 24be 874f 373e b486 bfbd b97e 57be
000000f0: da3c 4d3e 70fd 653e 6227 8e3e b7a0 37be
00000100: 5523 653e b640 30bd 00af b83c 0050 3dbb
00000110: 8ba9 13be 7e73 483e 3868 6a3e 282f 393e
00000120: 5bc7 4ebd e1dc 373e a2b4 603d b05f 163e
00000130: 8819 c5bd aa6b 86be 51df 363e baed 373e
00000140: 2e62 9c3e 5ec6 bcbd 75dd 0ebc 5091 11be
00000150: be20 83be fc87 8cbe 92e7 86be fc73 803e
00000160: 3f23 703e 773f 20bc e9f5 863e 1ef2 c1bd
00000170: 780c b53e 6751 d43c 0afd 4f3e d4ad 29be
00000180: f9f1 56be bfdc 343b 3635 803e 4d42 a83e
00000190: 6027 aabd ba02 4b3e 70d1 023e 35e1 bbbd
000001a0: 47b8 00be 13f6 65be de50 5cbe 7b87 3b3e
000001b0: e9e7 9d3e c700 943d 342f 40be 0502 a03d
000001c0: 37db 243e 08ec 4cbd 023e db3d c0ac 5c3e
000001d0: 9edf 4e3e cc30 fe3d 1e7f 7bbd 7b42 0ebe
000001e0: 52fa 7e3e c9f5 35be 4a24 d8bd 10c1 a03e
000001f0: 6fad 823e bcef 40bd d8e2 983d 6898 7bbe
-0.069159165 -0.1950838 0.12911075 0.28599423 0.20304023 -0.093503416 0.035662413 0.2567693
-0.09391416 0.008508419 0.20884342 0.086607076 0.0069021583 -0.04273374 -0.15052228 -0.06028025
0.0029477545 0.22023928 -0.013751388 -0.0138634145 0.03777665 -0.18995818 -0.27806666 0.1648793
-0.031122953 -0.15618931 0.19097513 0.019798338 0.30119088 0.05879458 0.1298446 -0.09231016
0.13773084 0.2155319 0.042926997 0.091228746 0.25061482 -0.20673706 -0.24513431 -0.28129598
-0.1408366 -0.1088364 -0.062348563 0.21487641 0.0014240716 -0.2566515 -0.25167647 0.30375165
-0.117197044 0.22659826 0.057851452 -0.00993966 -0.20742393 0.23159522 -0.23585902 -0.06065913
-0.16050698 0.17901431 -0.093518645 -0.21044435 0.20042744 0.2245996 0.27764422 -0.17932402
0.2237676 -0.043030463 0.022544384 -0.0028886795 -0.14420144 0.19575307 0.22891319 0.18084395
-0.05048309 0.17955352 0.054859765 0.1468494 -0.0962401 -0.26254016 0.17858626 0.17961779
0.30543655 -0.09217523 -0.008719792 -0.14215589 -0.25610918 -0.27447498 -0.2634855 0.2508849
0.23450945 -0.009780756 0.2635949 -0.09470008 0.35361075 0.025917722 0.2031137 -0.16570216
-0.20990743 0.0027597395 0.25040597 0.32863083 -0.083082914 0.19825259 0.12775207 -0.09173814
-0.12570296 -0.22457151 -0.21515223 0.183134 0.30840996 0.07226711 -0.18768007 0.07812885
0.16099249 -0.050029784 0.107051864 0.21550274 0.2020249 0.12411651 -0.061400525 -0.13892548
0.24900177 -0.17769541 -0.105537966 0.31397295 0.25522944 -0.04710363 0.07465142 -0.24569857

net.6.bias f4 [2]
00000000: 9638 c43c d4a6 7e3d
0.023952764 0.06217082

exp_avg f4 [64, 4]
00000000: 91bb 243c b85e 7d3d b530 64bc 6ff0 d3bd
00000010: c1e2 283c 9a6a 113d bc81 5ebc 3ce7 85bd
00000020: 3784 cdb3 a91f 8638 8648 c5b6 58ee a1b8
00000030: 5701 5e3b 78b2 d4bc 03fb d9bb 3e14 f33c
00000040: bdaf 113c 4f37 873d 374f 70bc 5ab5 e6bd
00000050: 2d69 fa3a 493c 21bd ed98 70bb f4f1 573d
00000060: 57cf 03b7 58cf 3eb8 82df 27b7 6c83 7e38
00000070: e3e0 a93b 69df 5cbc 36d4 07bc 415b 1e3c
00000080: b563 27b8 2668 6db9 37d3 0ab9 280f ae39
00000090: a974 5938 ae13 713a 2898 0639 e15a a9ba
000000a0: 2795 c037 050c 6337 1d94 7bb7 173f 9837
000000b0: a5d4 fa38 3c2a 373a ffc8 8939 2087 70ba
000000c0: 090f dd38 0bc7 f539 9a88 3939 367d 10ba
000000d0: c8bd fdb8 d3f7 8dba f38f b2b9 d303 c53a
000000e0: 4593 d537 5111 73b8 d747 a438 0528 a638
000000f0: 5e8b 093c 80f0 3dbc 3a8e 15bc 07b9 1b3c
00000100: 98f7 0bb8 2dbd 47b9 9181 4db8 f8ab 7939
00000110: ecc0 70b8 ac1e 93b9 92a4 f7b8 2689 bc39
00000120: c2c2 233c 01f8 1fbb 9ca5 85bc 455d 82bc
00000130: b6bb 36b8 95a2 153a 56f5 9fb8 ab79 5fba
00000140: d2b9 853c f870 e23d 7b4b f1bc 97b8 49be
00000150: ab34 573c d176 a53d 428e a3bc fc5f 0fbe
00000160: cd4a e93b 386b c0bd 1e45 4abc 7e0d f43d
00000170: ac4b 0237 23c3 95b7 9dd1 5134 a3ed 3137
00000180: cded 06b8 5fff a339 e4de 57b8 d0c8 fbb9
00000190: cca9 8d37 a3a2 4f3a e95d 19b7 9881 8fba
000001a0: 0149 e0bb e41c 3ebe e833 8e3c 2658 953e
000001b0: b5d1 1438 d72c 8239 0926 2839 2b9b c4b9
000001c0: 7cdb d8b8 3a2a 22ba 3aee 1eb9 316f 4c3a
000001d0: 5e7f 34b7 d8ff f138 3f68 5537 902b 49b9
000001e0: f684 3739 e004 743a 4b47 8a39 2508 95ba
000001f0: 950c bd3b 26b5 123e 14c3 38bc c42c 63be
00000200: 80e2 58b8 98c9 a3b9 5f11 13b9 9501 e639
00000210: 1c57 09b8 39fe a0b9 5c23 adb7 e474 cd39
00000220: e20d 8438 8699 923a 5ad6 3139 8cc4 cfba
00000230: 4ab8 823c 4658 b53d 0fc3 b9bc c18c 1dbe
00000240: 510a 663c 97e4 983d 8d4d bfbc 77af 0dbe
00000250: d1e3 443c d22f c93d b9ff 98bc 6164 28be
00000260: d731 313a 93c6 57bd 66b3 b93a 72c4 a33d
00000270: 118f 07bc ea77 53be 7af2 913c 41e5 a43e
00000280: 7179 8238 c04e 47b9 abb2 8439 df7f 7439
00000290: a242 5f3c adec b93d e3bc a3bc 131a 1dbe
000002a0: 300a 3abc 6796 9abe 6fb1 cf3c 938c f13e
000002b0: 3397 f33b 075e 8c3d ffd6 25bc 1801 e4bd
000002c0: 3fa4 6038 0cda 9d3a 5119 4439 fa19 e0ba
000002d0: 41af ecb8 9cfd 55b9 a001 8ab9 70a2 4e39
000002e0: 27c4 f43b a431 12bd 0433 04bc c81e 2e3d
000002f0: ce94 7fbc 31fe c5be 413a 033d 69e8 193f
00000300: 561e 42b7 5212 8eb9 e0c9 7db8 b9ec c339
00000310: a7f0 c138 9e41 803a df52 53b9 28a3 8bba
00000320: d382 b73b 41bf 80bd 4873 c7bb ae4f b23d
00000330: 29a2 84b8 7d5b a6b8 459f 41b9 191f dc38
00000340: c6b1 bf3b 4250 cabd 5bbe c5bb 80ba 0e3e
00000350: e889 123c 17d5 a23b c0db 4bbc 6781 acbc
00000360: fa83 003c 9b73 15bc 24df 3ebc f309 51b9
00000370: 3183 4cbb de8a 2dbe b4f2 253c 8899 853e
00000380: d628 5bb9 537e 94bd 3ecd 533b d60a e43d
00000390: 4bdf 8a38 5839 993a fe3b 92b9 89cb a3ba
000003a0: ceee f8b6 5214 3338 c0cf 5535 cec3 38b8
000003b0: 37a4 4e38 36af 083a 2fa0 bdb8 a82d 12ba
000003c0: 6bbc abbc a380 e0be b58c 1e3d c990 2e3f
000003d0: 7a00 83bc 575f c6be ba12 093d 912c 1b3f
000003e0: c68b 153c dd6c bc3c f15e 52bc 054c 40bd
000003f0: 22a3 2c38 8d9c 6439 69a4 0c39 5534 a3b9
0.010054485 0.06185791 -0.013927628 -0.103485934 0.010307969 0.035502054 -0.013580736 -0.06538245
-9.570106e-08 6.395515e-05 -5.8795003e-06 -7.721473e-05 0.003387531 -0.025964007 -0.0066522374 0.029672738
0.008891997 0.06602346 -0.014667324 -0.11265059 0.0019104831 -0.039364133 -0.0036712245 0.05272098
-7.8564835e-06 -4.5492634e-05 -1.0006015e-05 6.0680715e-05 0.0051842793 -0.0134809995 -0.008290341 0.009665311
-3.9908762e-05 -0.0002264088 -0.00013239389 0.00033199158 5.184548e-05 0.0009196353 0.00012835918 -0.0012920761
2.2957638e-05 1.3533053e-05 -1.4995251e-05 1.814919e-05 0.00011960537 0.00069871894 0.0002628043 -0.00091754086
0.00010540902 0.0004687834 0.00017693863 -0.0005511822 -0.000120993296 -0.0010831304 -0.00034058056 0.0015031047
2.5460156e-05 -5.7951842e-05 7.8335106e-05 7.922951e-05 0.008395044 -0.011592984 -0.009128148 0.009504563
-3.3370772e-05 -0.00019048592 -4.8996477e-05 0.00023810554 -5.740013e-05 -0.00028060877 -0.000118085314 0.00035960338
0.009995164 -0.0024409296 -0.01631432 -0.015913615 -4.3567e-05 0.00057081255 -7.627408e-05 -0.0008524905
0.016323958 0.11056703 -0.029454937 -0.19699322 0.013135116 0.08079303 -0.019965295 -0.14001459
0.0071195127 -0.0939545 -0.01234558 0.11916636 7.766223e-06 -1.7853052e-05 1.9540899e-07 1.0605351e-05
-3.216956e-05 0.0003128005 -5.1467578e-05 -0.00048024068 1.6887578e-05 0.0007920658 -9.141376e-06 -0.0010948656
-0.0068446402 -0.18565708 0.017358735 0.29168814 3.5481255e-05 0.0002482894 0.00016035898 -0.00037499642
-0.00010340565 -0.0006186102 -0.000151568 0.0007798551 -1.0758491e-05 0.0001153943 1.2720061e-05 -0.00019185082
0.00017501772 0.0009308588 0.00026374529 -0.0011370225 0.005769322 0.14326915 -0.011276979 -0.22185045
-5.1709358e-05 -0.00031239982 -0.00014025484 0.00043870197 -3.2744472e-05 -0.0003070699 -2.0639673e-05 0.00039187737
6.296836e-05 0.001118467 0.00016959888 -0.0015851422 0.015957016 0.088547274 -0.022676019 -0.15385725
0.014040546 0.07465475 -0.023352409 -0.13836466 0.012017206 0.09823574 -0.018676626 -0.16444542
0.0006759441 -0.05267961 0.0014167845 0.07996453 -0.008273856 -0.20651212 0.017815817 0.32206157
6.221503e-05 -0.00019007456 0.0002531012 0.00023317289 0.013626726 0.090783454 -0.01998753 -0.15341978
-0.011354968 -0.30192873 0.025353162 0.47177562 0.007433796 0.06853872 -0.01012206 -0.11133021
5.3558728e-05 0.0012043132 0.00018701448 -0.0017097585 -0.000112860005 -0.0002040774 -0.00026322622 0.00019706204
0.0074696722 -0.035691872 -0.008068804 0.042509824 -0.015599443 -0.38670495 0.032037977 0.60120255
-1.1570364e-05 -0.00027098 -6.050791e-05 0.0003736967 9.247782e-05 0.000978518 -0.000201534 -0.0010653483
0.0056003123 -0.06286479 -0.0060867406 0.08706604 -6.324455e-05 -7.932538e-05 -0.00018465247 0.0001049621
0.0058500497 -0.09878589 -0.006034655 0.13938332 0.008944012 0.00496925 -0.012442529 -0.021057798
0.007843966 -0.009121801 -0.011649881 -0.000199355 -0.0031206126 -0.16947505 0.010128666 0.26093698
-0.0002090068 -0.07250657 0.0032318379 0.11134879 6.621944e-05 0.0011690063 -0.00027891988 -0.0012496571
-7.4187765e-06 4.269585e-05 7.9651e-07 -4.4051376e-05 4.9267164e-05 0.0005214097 -9.042059e-05 -0.00055762613
-0.020963868 -0.43848142 0.038708407 0.68189675 -0.015991438 -0.38744614 0.033465125 0.6061488
0.009127563 0.023001129 -0.012840019 -0.046947498 4.1159925e-05 0.00021802094 0.00013412688 -0.00031128773

exp_avg_sq f4 [64, 4]
00000000: 94d7 9f38 993b 383c 77b1 1539 d97e dc3c
00000010: 9631 e738 54fb 7e3c 1859 6139 d13e 1d3d
00000020: c82d 8d33 06e3 9235 4f4b a533 2c12 eb35
00000030: 0272 1838 bba5 023c 001d aa38 d562 9c3c
00000040: 2f34 5138 1b7b fb3b 5b64 c538 e0a2 973c
00000050: fc8f 1a38 6750 df3b c2b1 b638 c783 893c
00000060: 8a67 0833 7b39 4234 aa39 c232 de32 7a34
00000070: 2adc ac38 9e0c 4f3c 3ac5 2839 a65a f73c
00000080: 8ab9 8d32 45db 8633 97e8 2d33 b270 d633
00000090: 156d 8b34 8b35 7a35 96e8 9f35 856a d135
000000a0: f21c d934 0b46 8734 5ff4 4d34 d77c 4134
000000b0: 92b0 af34 27b4 7636 5d82 0835 6833 c136
000000c0: bdd0 cc34 69d9 cc36 ac98 2935 4b01 1a37
000000d0: a60b c735 9a6a 1b38 4bf0 2336 7d66 7938
000000e0: 3cf4 da33 91cb 1534 fc37 dc33 f8f2 6f33
000000f0: 4084 e838 d268 843c 847c 4e39 5514 203d
00000100: 26dc 0434 51c9 0236 468b 7b34 96c2 4936
00000110: 0c37 0a34 ee9c b436 6544 a034 63f0 1037
00000120: cabf 9b39 788d 373d 04fa 193a f167 e03d
00000130: a8d2 9334 2d36 7536 d36c b435 6bc8 c536
00000140: 4163 4f39 c087 043d 9048 ec39 6cf0 a33d
00000150: 44b0 0239 cefc b23c 06b7 a039 fec9 5f3d
00000160: 326a cb39 8b11 8e3d 59d3 7b3a 1870 303e
00000170: 156b c734 4b34 2237 b46e ad34 4a35 1a37
00000180: 0111 8134 1dcc 5d35 b497 2135 8ba0 ad35
00000190: 91af 3534 a680 8436 d12e 6135 27e7 d436
000001a0: a0e6 9438 d955 313c d2ca fa38 6e39 d03c
000001b0: e9af 2c34 5d69 3f35 8cb6 0134 3371 9c35
000001c0: 4028 4f35 e808 ab37 609a d035 e153 0738
000001d0: fe0e b333 96cb 8835 ff6b 1134 ff80 d435
000001e0: 0263 7435 f930 5536 089b 0636 b704 9636
000001f0: 166e bf37 4f4f 9e3b c3e4 7338 4c0d 443c
00000200: f8a1 7d33 ae3e 8035 dae4 d833 1034 c735
00000210: 5fdd 6934 8757 9236 e201 9e34 11fe e236
00000220: 3f1f 1935 a38b 1e37 0d18 c535 37b7 7c37
00000230: e493 3839 fa8e f43c fec0 dc39 8469 983d
00000240: c213 2339 aff9 c73c bce6 a939 4e3c 753d
00000250: 9e13 8a38 41af 2d3c 9706 1b39 6e28 d83c
00000260: 1a09 9e38 31b9 1e3c 8a9d f938 1721 be3c
00000270: c6a8 9638 6b5a 393c 770b 1039 692a df3c
00000280: c137 5a33 4abe ab34 0d0d 0f35 04d4 ee34
00000290: 1aaf dc38 752a 7d3c dba1 5e39 92e6 1b3d
000002a0: 54bd e938 f93e 883c 1113 5139 4692 243d
000002b0: 9480 f337 715e b73b 0ec7 8438 2bdb 5d3c
000002c0: be2e 9035 13d4 0537 ed58 e435 467f 5937
000002d0: 5914 4935 749b c834 90ec 9935 7f17 fd34
000002e0: c503 e238 027a a23c 0aef 8f39 6a55 4b3d
000002f0: 29e2 3139 f941 cd3c 2f51 9a39 feee 743d
00000300: 30f3 d835 f07d 9438 2eb0 de35 545b 2439
00000310: d008 e835 67b1 b037 3620 8936 b8a0 0938
00000320: ee7c 2339 7058 b33c 98bb 9039 f09e 583d
00000330: 1aca 6533 85ea 0336 842e 8d34 e925 5336
00000340: f07a 7139 87ca 183d 65a8 fb39 26dd bb3d
00000350: 0981 1339 777d be3c 7a32 9b39 6405 683d
00000360: 3049 ba38 d487 873c d763 6e39 1876 293d
00000370: ae84 3139 132c c23c eaf6 9339 2fce 663d
00000380: b977 3638 4afe b53b 290d 7b38 0935 523c
00000390: 37db ac36 1e0e cd37 1322 2037 a2ce 2338
000003a0: 176f 6734 cd1e ad37 a432 2a34 bdf8 de37
000003b0: a44c 0335 92e8 d636 f2a8 a335 f861 2e37
000003c0: 5e7b 9638 a649 5d3c 0910 1039 e427 033d
000003d0: 1509 ce38 12b2 963c c35b 5939 4e28 343d
000003e0: 9c3a 1d39 39ac a83c 622c 8539 0011 483d
000003f0: f9a9 ec33 f348 8534 69c5 1c34 cbd0 7734
7.6218654e-05 0.011244678 0.00014275858 0.026915954 0.000110241745 0.015562851 0.00021490862 0.038389985
6.574152e-08 1.094392e-06 7.69711e-08 1.7514153e-06 3.6345802e-05 0.007974084 8.111633e-05 0.019090096
4.9878083e-05 0.0076745874 9.412385e-05 0.018510282 3.6850557e-05 0.0068150046 8.711546e-05 0.01678647
3.1759136e-08 1.8088569e-07 2.2610795e-08 2.330157e-07 8.242608e-05 0.0126372855 0.00016095201 0.030194592
1.6498934e-08 6.279746e-08 4.049124e-08 9.985651e-08 2.5970135e-07 9.321017e-07 1.1914115e-06 1.5602715e-06
4.044046e-07 2.5196672e-07 1.9181014e-07 1.8019942e-07 3.2724762e-07 3.676172e-06 5.085365e-07 5.7578327e-06
3.8149838e-07 6.1049836e-06 6.3179573e-07 9.179416e-06 1.4830046e-06 3.705416e-05 2.4428762e-06 5.9461676e-05
1.0195842e-07 1.3950763e-07 1.0254732e-07 5.5867503e-08 0.000110872556 0.016163263 0.00019692077 0.03908189
1.2373548e-07 1.948869e-06 2.3426864e-07 3.0064598e-06 1.2872277e-07 5.382687e-06 2.9852086e-07 8.639038e-06
0.00029706798 0.04481265 0.0005873742 0.10957325 2.7534156e-07 3.653938e-06 1.3442717e-06 5.8943892e-06
0.00019778033 0.032356024 0.0004506749 0.08004841 0.0001246343 0.021849062 0.0003065394 0.054635994
0.000387983 0.0693694 0.00096063834 0.1723026 3.714455e-07 9.668128e-06 3.2304308e-07 9.191523e-06
2.4040494e-07 8.262594e-07 6.019793e-07 1.2936229e-06 1.6920809e-07 3.948883e-06 8.388716e-07 6.345002e-06
7.100147e-05 0.01082369 0.00011958707 0.02541801 1.6082744e-07 7.130637e-07 1.2080471e-07 1.1655851e-06
7.717208e-07 2.0388936e-05 1.5542137e-06 3.2264626e-05 8.338064e-08 1.0192041e-06 1.3543466e-07 1.5832774e-06
9.104116e-07 3.176798e-06 2.0057796e-06 4.4708972e-06 2.2820237e-05 0.0048312317 5.8148766e-05 0.011966061
5.9053463e-08 9.554985e-07 1.0099912e-07 1.4841808e-06 2.178035e-07 4.3613286e-06 2.9431163e-07 6.764902e-06
5.704241e-07 9.450046e-06 1.4684643e-06 1.50630285e-05 0.00017602701 0.029853333 0.0004210546 0.074420005
0.00015552252 0.02441105 0.00032406102 0.059871964 6.584007e-05 0.010600866 0.00014784407 0.026386466
7.5357224e-05 0.009687708 0.00011902589 0.023209138 7.183994e-05 0.011313061 0.00013737181 0.027241902
5.0807788e-08 3.1989686e-07 5.329064e-07 4.4485216e-07 0.00010523033 0.015452017 0.00021231866 0.038061686
0.00011145571 0.01663159 0.00019938896 0.04017856 2.9027731e-05 0.005595975 6.331327e-05 0.013541023
1.074244e-06 7.976795e-06 1.7013205e-06 1.2963841e-05 7.4907945e-07 3.736601e-07 1.1468237e-06 4.7142018e-07
0.00010777222 0.019833568 0.00027453183 0.049642004 0.00016964287 0.025055872 0.00029433655 0.059798233
1.6164031e-06 7.0806476e-05 1.6591564e-06 0.00015674281 1.7287912e-06 2.1063444e-05 4.086668e-06 3.2813026e-05
0.00015591431 0.021892756 0.0002760559 0.05288595 5.3502028e-08 1.965703e-06 2.629714e-07 3.1463517e-06
0.00023029349 0.03730252 0.00047999914 0.0917304 0.00014067082 0.023253186 0.00029601512 0.056645766
8.8828034e-05 0.01654426 0.00022734642 0.04137239 0.00016929462 0.023702657 0.0002822199 0.056348976
4.350368e-05 0.0055539953 5.985532e-05 0.012830027 5.1515194e-06 2.4444478e-05 9.544677e-06 3.905467e-05
2.1553966e-07 2.063755e-05 1.5850907e-07 2.658029e-05 4.891283e-07 6.4047717e-06 1.2193616e-06 1.0394018e-05
7.175536e-05 0.013506329 0.00013738884 0.032020465 9.824537e-05 0.018395457 0.00020728917 0.04398375
0.0001499452 0.020589935 0.00025400805 0.048844337 1.1020524e-07 2.4826258e-07 1.460045e-07 2.3079626e-07

exp_avg f4 [64]
00000000: c5d7 cdbd 43a4 0ebe 3952 033b 6f96 13be
00000010: c52e f0bc 70c2 33be 6137 8639 622e 46be
00000020: 40cd 0b3c ccd5 09bd 32d5 fb39 dc22 9dbc
00000030: ffc4 16bc 9bce 723c 07f8 fe3a 5b49 49be
00000040: cad1 883a 65d7 0d3a 6524 9fbe 8ac2 e6bc
00000050: 6239 60be 9f67 16be 3980 edbe d5be 86b9
00000060: a17c dfbb 10cd a4bc 74c3 a4be 71f9 e0bb
00000070: 524e 543b 090f 0ebc 1045 f3bc 0632 413e
00000080: b03e 033c f09e 173b d19f e7bc 91ca 32be
00000090: 42af 81be 1e55 98bd cdd6 11be d624 a8be
000000a0: 67f1 b93b 89ad c4bd 2208 e0be 0d08 2ebd
000000b0: b710 0dbd 5036 2b3c 2bd4 a4be 216d 1dbf
000000c0: ec2c aa3a eab4 88bc f8cc 87be 302f 16bb
000000d0: 5cad c5be 13bd 3abe f2e2 82be 3c04 ddbe
000000e0: eed1 23be 52b2 cebc 298b 8239 0a55 01bc
000000f0: c300 26bf 03d9 0bbf 0cc0 1fbe da1c 08bc
-0.100509204 -0.13929848 0.0020038022 -0.14412855 -0.029319176 -0.17554641 0.00025599732 -0.19353631
0.008532822 -0.03365116 0.00048033294 -0.019181661 -0.009202241 0.014819766 0.001945258 -0.19656889
0.0010438499 0.00054108194 -0.31082454 -0.028168935 -0.2189689 -0.14687966 -0.4638689 -0.00025700653
-0.006820277 -0.020117313 -0.3218037 -0.006865673 0.0032395315 -0.008670577 -0.029696018 0.18866739
0.008010551 0.0023135506 -0.028274449 -0.17460085 -0.25329024 -0.0743811 -0.14242096 -0.32840604
0.0056745294 -0.09603412 -0.43756205 -0.042488147 -0.03443977 0.010449961 -0.3219312 -0.6149464
0.0012983358 -0.016687829 -0.26523566 -0.002291631 -0.38608825 -0.18236189 -0.2556377 -0.43167293
-0.1599805 -0.025231514 0.00024899215 -0.00789381 -0.6484491 -0.5462801 -0.15600604 -0.00830766

exp_avg_sq f4 [64]
00000000: ac0d 273c be19 403c 15ee 5938 735f fe3b
00000010: ae6d d53b 4e39 fd3b 9708 1338 9483 533c
00000020: acff 9938 8c03 963a 2af1 9439 49cb 053a
00000030: f566 bb39 9142 a83a 7d0e 1539 606a 3f3c
00000040: e23b f838 dd27 0c39 4266 253d e7f4 853a
00000050: 988c eb3c f92e 863c b6f7 893d 8dc5 cc39
00000060: 3a50 9c39 d907 103a a71d 523c 29f8 f438
00000070: 001c 443a 609b 1839 5d62 b33a 2a1e c93b
00000080: 0637 d738 80be 8239 fa1b 8f3a 6587 b73c
00000090: 2df4 d73c 2554 0c3c 6eea f23b 524c 533c
000000a0: 04ca 9639 9624 373c e7e7 983c 625d 993b
000000b0: 68f6 bd3a 2f46 253a 8375 b13c 7ada 0b3d
000000c0: 44c6 d339 a613 1f3b a09d a03c 7af0 0339
000000d0: 120e 073d 36ba 943c 6331 763c 6fe9 053d
000000e0: 115a e53b 6a15 b23b 90f4 8439 fdce 1f3a
000000f0: 344d bd3c 9068 c23c f859 a03c f4ea 2939
0.010196131 0.011724887 5.1958563e-05 0.0077628433 0.006513319 0.0077277785 3.505553e-05 0.012909789
7.343231e-05 0.0011445149 0.0002840844 0.0005103839 0.00035744128 0.0012837221 0.00014215145 0.011683077
0.000118367156 0.0001336629 0.040380724 0.0010220081 0.028753564 0.01637982 0.067367 0.000390571
0.00029814412 0.00054943335 0.0128244525 0.0001168105 0.0007480979 0.00014553731 0.0013685931 0.006137629
0.00010262248 0.00024937466 0.0010918372 0.022403428 0.02636155 0.0085649835 0.0074132 0.012896614
0.00028760743 0.011178156 0.018665267 0.0046803216 0.001449299 0.00063047087 0.02166248 0.034143902
0.00040392776 0.0024273186 0.019606411 0.00012582718 0.032972403 0.018155199 0.015026423 0.032693323
0.006999262 0.0054346817 0.00025359215 0.00060962123 0.023108102 0.0237315 0.01957415 0.00016204623

exp_avg f4 [64, 64]
00000000: f7b8 58ba 1b60 5ab9 80f2 0aba 0000 0000
00000010: 0000 0000 0000 0000 99c4 4db8 7026 8bba
00000020: 04bd 34b9 1e05 01ba 7656 f8b6 34fb 4bba
00000030: b952 d5b9 9f4b 6cb9 c113 dfb5 f4ee 82ba
00000040: aba6 4fb9 61bf 87b8 b7b2 90ba 53d0 4cba
00000050: a69c 83ba de0c 72ba 605d 89b4 e0b9 6db4
00000060: dfac 3eba 58f2 2bba 841b 90ba 7fae 55ba
00000070: 09a7 b3b8 2ee2 83b9 e168 62ba 0000 0000
00000080: 5ea1 9cb9 0df1 9eb8 cbdc 8bba f8d0 2dba
00000090: 3eb1 c0ba d227 82b8 8fd0 50ba 74bb 39ba
000000a0: 0000 0000 1281 1dba a642 90ba 2c64 e7b9
000000b0: a92f 4fba 372b 57b9 7241 eab9 5a23 9cba
000000c0: ea0b cfb7 6cd8 35b9 8e88 07b7 1353 1eb8
000000d0: 4323 25ba 8f25 82ba bd02 c5b9 8d35 b5ba
000000e0: 0000 0000 5a5e 16b9 120a c6b2 60e6 30b9
000000f0: 946d 75ba 1552 98ba 7db8 9eba faf0 a2b9
00000100: e9af 9c39 493a 003a 0881 f237 ed10 8039
00000110: 2347 8039 797b 9c39 3321 2c37 3fc3 ee38
00000120: bc5a cc37 0000 0000 6443 3d32 9ef1 af37
00000130: fb3f ed36 2248 1d38 d3df 0832 bea1 bc37
00000140: 81d9 2938 2460 4737 0315 013a 8d4d 5d38
00000150: 979f 223a 4caf 6239 820e 8239 082c 0a33
00000160: fefc 8138 5f77 5238 1d2c 0539 5000 6538
00000170: 9977 8f37 1390 e737 360a 0838 f518 7f39
00000180: 16cc 2538 fd18 8437 1517 4938 7c1c 3e3a
00000190: 4f48 9c38 6dda 0539 ff18 5438 f68d 003a
000001a0: 0c1c dc32 33ca e137 1773 b238 292b b938
000001b0: d612 1238 0000 0000 3e97 fb39 32ab 7939
000001c0: 17fd 9336 09ae 1f38 d237 b039 1e71 0337
000001d0: ec00 e939 b4c5 5539 38a7 0838 d9cd b138
000001e0: 314c 8039 944c ed37 0000 0000 63f6 1438
000001f0: 4e3c 6739 a414 0039 2287 3339 0000 0000
00000200: b3a1 aeb8 a65f ddb7 4c83 0cb8 8ea1 abb5
00000210: 5947 b0b5 6cd3 ddb5 1501 b1b5 fa25 f6b8
00000220: 2284 73b7 bfd0 92b8 0000 0000 2689 a1b8
00000230: ec27 1cb8 19fd 64b7 b18b 2bb6 4258 03b9
00000240: 1ffd afb6 eb46 29b6 f8e3 26b9 e626 6eb8
00000250: af3a bcb8 bb8d 05b9 c554 7fb8 da24 ebb5
00000260: f1f4 81b8 e665 31b8 addd 13b9 1ce8 6bb8
00000270: 1ba7 14b6 3d1b 67b7 a138 abb8 0000 0000
00000280: 9e35 61b7 8f0f cbb6 2af2 b8b8 149d d3b8
00000290: 3e60 24b9 16ec b4b6 d4bf f6b8 ae09 dbb8
000002a0: 324e 15b7 d365 60b8 a530 17b9 cf46 2bb8
000002b0: 7b58 90b8 74a1 1bb8 4014 87b8 0767 19b9
000002c0: 772c 9bb5 c492 30b8 d5e8 69b8 f1cf abb6
000002d0: 8395 7db8 e8a4 ffb8 e441 0eb8 d53d 29b9
000002e0: d87d 66b6 2bbb 85b7 0000 0000 6d25 dfb7
000002f0: 608e ebb8 7e5e 13b9 60da 1db9 390b c9b7
00000300: 2c35 6533 0ea9 9db7 4d88 7a32 e077 0433
00000310: 0000 0000 0000 0000 27d1 4a33 540b 6db8
00000320: fa81 89b7 ecce 70b8 0000 0000 a172 01b8
00000330: d7d0 ceb6 1f86 72b7 0000 0000 f01d beb8
00000340: 0000 0000 0000 0000 01f8 e6b8 06a5 adb6
00000350: 1827 6433 32ef 9cb8 2e25 cbb8 553e 81b6
00000360: 709c 20b8 8f21 38b5 12be bdb8 0000 0000
00000370: e6f1 6f33 0000 0000 0471 08b8 0000 0000
00000380: cb36 c830 50a0 c932 a69a f9b6 c642 b8b8
00000390: 4fdd d0b8 0000 0000 d939 e5b8 2d3f c8b8
000003a0: 0000 0000 0000 0000 b244 c3b8 0784 a533
000003b0: 929d a033 9bfe 46b8 9cd1 7db8 5962 e2b8
000003c0: f5d2 b7b5 cebc 90b8 3710 c5b8 0000 0000
000003d0: f3d4 2a33 b8a8 b7b8 f83d 5933 e5dd 9eb8
000003e0: 0000 0000 d18b 4332 d1bd 7532 c1f3 0eb8
000003f0: c741 30b8 7ed3 99b8 1fec cfb8 32ca a933
-0.0008267308 -0.00020825902 -0.00053004175 0.0 0.0 0.0 -4.9058905e-05 -0.0010616314
-0.00017236552 -0.0004921722 -7.4010413e-06 -0.00077812676 -0.0004068816 -0.00022534885 -1.6620544e-06 -0.0009989426
-0.00019803147 -6.472949e-05 -0.0011039589 -0.0007813025 -0.0010041192 -0.0009233485 -2.5586178e-07 -2.2139966e-07
-0.00072736846 -0.00065592444 -0.0010994528 -0.0008151307 -8.566498e-05 -0.00025154784 -0.0008636844 0.0
-0.00029874867 -7.578926e-05 -0.001067066 -0.0006630565 -0.001470126 -6.2063e-05 -0.0007965648 -0.00070851226
0.0 -0.00060083077 -0.0011006191 -0.00044134387 -0.0007903525 -0.00020520097 -0.0004468072 -0.0011912391
-2.468187e-05 -0.00017342129 -8.078421e-06 -3.7747504e-05 -0.0006299505 -0.0009929406 -0.00037576808 -0.0013825163
0.0 -0.00014340263 -2.3054813e-08 -0.0001687049 -0.0009362337 -0.0011621142 -0.0012109425 -0.0003107859
0.00029885702 0.00048914977 2.8908733e-05 0.00024426673 0.00024467063 0.00029846633 1.0259729e-05 0.00011385092
2.4360947e-05 0.0 1.1016571e-08 2.0974137e-05 7.0705987e-06 3.7498896e-05 7.967134e-09 2.2486664e-05
4.0495306e-05 1.1883709e-05 0.00049240905 5.276273e-05 0.00062035903 0.00021618343 0.0002480634 3.2170675e-08
6.198323e-05 5.0179075e-05 0.00012700302 5.4598146e-05 1.710262e-05 2.7604436e-05 3.2434436e-05 0.00024327992
3.9529135e-05 1.5747262e-05 4.794363e-05 0.00072521693 7.452128e-05 0.00012765238 5.056802e-05 0.00049039663
2.5624125e-08 2.6916246e-05 8.5091386e-05 8.8295266e-05 3.4826655e-05 0.0 0.00047987135 0.00023810266
4.410405e-06 3.8070637e-05 0.00033610925 7.834546e-06 0.0004444191 0.00020386913 3.258066e-05 8.47836e-05
0.0002447083 2.8288261e-05 0.0 3.5515415e-05 0.00022052342 0.0001221472 0.00017121111 0.0
-8.3270854e-05 -2.6389793e-05 -3.350088e-05 -1.2787511e-06 -1.3133787e-06 -1.6527315e-06 -1.3187843e-06 -0.00011737268
-1.4514693e-05 -7.0007045e-05 0.0 -7.702624e-05 -3.723048e-05 -1.3648788e-05 -2.5562297e-06 -0.00012526012
-5.2448736e-06 -2.5224242e-06 -0.00015915919 -5.677985e-05 -8.975469e-05 -0.00012736667 -6.0875685e-05 -1.751959e-06
-6.196823e-05 -4.229499e-05 -0.00014101593 -5.6244535e-05 -2.2150987e-06 -1.3775015e-05 -8.164463e-05 0.0
-1.3423529e-05 -6.0516827e-06 -8.81891e-05 -0.00010090522 -0.00015676112 -5.391902e-06 -0.00011765925 -0.00010444537
-8.899298e-06 -5.3500593e-05 -0.00014418604 -4.0835523e-05 -6.882936e-05 -3.7105245e-05 -6.4410735e-05 -0.00014629598
-1.1561341e-06 -4.2098356e-05 -5.576837e-05 -5.1204047e-06 -6.0459144e-05 -0.00012190064 -3.3916804e-05 -0.0001614013
-3.4345921e-06 -1.5941992e-05 0.0 -2.66011e-05 -0.000112321926 -0.00014054214 -0.00015054038 -2.3966293e-05
5.3366577e-08 -1.879458e-05 1.4582906e-08 3.084267e-08 0.0 0.0 4.7222013e-08 -5.6515753e-05
-1.6392198e-05 -5.741317e-05 0.0 -3.0862753e-05 -6.1635906e-06 -1.44555515e-05 0.0 -9.065482e-05
0.0 0.0 -0.00011013449 -5.175013e-06 5.3120942e-08 -7.483213e-05 -9.6867196e-05 -3.851756e-06
-3.8292666e-05 -6.8594176e-07 -9.047626e-05 0.0 5.586653e-08 0.0 -3.253018e-05 0.0
1.4567488e-09 2.3472381e-08 -7.4387817e-06 -8.786241e-05 -9.959435e-05 0.0 -0.00010930346 -9.5485106e-05
0.0 0.0 -9.31112e-05 7.707427e-08 7.4792425e-08 -4.7444e-05 -6.0515114e-05 -0.000107948385
-1.3695959e-06 -6.901623e-05 -9.396712e-05 0.0 3.9774886e-08 -8.757546e-05 5.058061e-08 -7.575358e-05
0.0 1.13822844e-08 1.4304036e-08 -3.408245e-05 -4.202293e-05 -7.335002e-05 -9.91451e-05 7.906455e-08

exp_avg_sq f4 [64, 64]
00000000: 5a68 1535 f1c6 2633 ee12 a235 0000 0000
00000010: 0000 0000 0000 0000 748e 0b34 2d6e eb35
00000020: f297 6235 7394 d434 5732 ff32 341b 9635
00000030: f89c 4f34 ada3 0436 b6eb cd30 5103 8e35
00000040: 829f 0b36 fc49 5f34 639e 9b35 e711 8136
00000050: 9c00 b735 0d4e 5835 5a71 e834 957a ae31
00000060: cdf7 ad36 3962 6636 cd49 bf35 0c9d 8a36
00000070: 9175 d534 1059 8435 c204 f135 0000 0000
00000080: ea9f 0436 5d88 a634 eeaa 7a36 0ece 3735
00000090: b3da 2f36 aff1 7131 10bb 5035 50f7 5735
000000a0: 0000 0000 2ac7 a034 00a4 9135 566a 1f35
000000b0: aff8 fa35 adbd 8234 ba7b 5f34 7222 b835
000000c0: aed0 2f33 5ca7 0a36 cb39 1d35 fd3d a533
000000d0: c87e ad34 ac9d 7135 26ee f633 6aca 0536
000000e0: 0000 0000 6001 8a35 4e35 d92b e10e de35
000000f0: fc29 5135 58f6 e035 b20a 1a36 4b5f e033
00000100: 53fe 8f38 3615 6739 c9d5 4133 487b 9638
00000110: 682e 7d38 0509 8838 d3df 1832 cd09 bf36
00000120: 4ba5 0933 0000 0000 0da6 922e 3a52 cc32
00000130: db86 3931 9712 a333 d865 192e 027c 6435
00000140: d02c be33 120c 2632 544d 0939 986c 2134
00000150: 5340 a639 e193 dc37 b1ba 4f38 0752 1c30
00000160: e7c5 5e34 9300 1234 e72e 0337 add9 2c34
00000170: 29af 8732 28bb 3033 8fff 7333 4b29 9538
00000180: 6835 b533 1353 6832 288b 0534 eb02 fc39
00000190: 0f48 c734 5dec 9537 7b20 a634 2cc4 5839
000001a0: 8e58 c62f 359f 6e36 d9d2 8b35 06f1 fa36
000001b0: 04ca 8e33 0000 0000 7bce 5b39 d335 1c38
000001c0: 6277 c930 4f15 a833 9681 ac38 7fc8 6331
000001d0: 3eee 3239 ea95 b937 87ca 2737 e328 9135
000001e0: 667e e039 919a 3933 0000 0000 1247 9233
000001f0: 8df6 1938 87c6 bf38 8a4a 8937 0000 0000
00000200: d087 0432 9f80 a631 0e27 cb30 fe69 b930
00000210: 7597 c330 b5dc 1a31 b688 ce2e 9539 4b33
00000220: 1bda 8831 3332 3b33 0000 0000 08e1 8332
00000230: 26a1 c030 449e 8731 570b 6b2e 2215 ed33
00000240: ce2b cc30 ab08 142f a320 3734 f7bd 9f31
00000250: f621 d831 daf8 a933 c8a0 0434 b0c5 602f
00000260: ebdf c732 e878 5d31 03b5 f133 6549 9d31
00000270: 88ab 912f 1c8b 5330 85ee 9532 0000 0000
00000280: 1a43 ca30 d9af c32f 5c93 0932 15e8 f433
00000290: 3ee4 1234 47e6 be2f 26c3 2734 3fad 0534
000002a0: bc0c 3230 532e 1e31 7d56 ff33 1568 cb30
000002b0: 55b8 b231 d373 f932 ec49 4e33 bcb6 2934
000002c0: cde1 322e 0c4f 8633 5573 f533 4fb9 542f
000002d0: 1936 e031 b6bb e033 c86c 1131 4184 b833
000002e0: a332 2732 64d8 0331 0000 0000 6e41 8c32
000002f0: 3bf4 0333 f851 ab33 2653 1034 6c92 0030
00000300: fea3 b62e d87b ca32 bb34 da2c ad04 f42d
00000310: 0000 0000 0000 0000 f500 8f2e 72e0 6434
00000320: e7ba 9932 48bb 6b34 0000 0000 4b62 8833
00000330: e5f9 4031 3c1a 6f32 0000 0000 99ee 1235
00000340: 0000 0000 0000 0000 fb4a 5935 9a50 f530
00000350: 85f6 b42e 433c c834 4542 2835 a81a ec30
00000360: fe4e d233 4bd3 092e f87e 1235 0000 0000
00000370: 1c27 c82e 0000 0000 d9f6 9733 0000 0000
00000380: 525b 8b29 5554 8d2d 465a 8031 0a05 0a35
00000390: 765f 3135 0000 0000 c299 5535 e92f 2335
000003a0: 0000 0000 0000 0000 a100 1b35 ad7a 3e2f
000003b0: 165e 332f 1386 2134 06f6 8234 8a78 5035
000003c0: ba5d 092f 0176 aa34 0eed 1d35 0000 0000
000003d0: 4be9 4a2e a01e 0935 a511 a42e b45a cd34
000003e0: 0000 0000 3bef 842c b9f0 d12c 0825 a633
000003f0: b667 fd33 4914 c134 90dd 2f35 8e71 482f
5.5658677e-07 3.8830823e-08 1.207545e-06 0.0 0.0 0.0 1.2997208e-07 1.754093e-06
8.441267e-07 3.9596088e-07 2.9708799e-08 1.1183788e-06 1.9335482e-07 1.9764805e-06 1.4982706e-09 1.058079e-06
2.080546e-06 2.0795409e-07 1.1594497e-06 3.8465837e-06 1.363474e-06 8.057985e-07 4.3295842e-07 5.0780025e-09
5.1846496e-06 3.4329844e-06 1.4252088e-06 4.131003e-06 3.9759882e-07 9.860687e-07 1.7957284e-06 0.0
1.9762615e-06 3.1019127e-07 3.7352397e-06 6.847266e-07 2.6204332e-06 3.5207497e-09 7.775825e-07 8.045363e-07
0.0 2.9947233e-07 1.0851072e-06 5.9386855e-07 1.8698828e-06 2.4352394e-07 2.0813505e-07 1.3719093e-06
4.0935156e-08 2.0661018e-06 5.857116e-07 7.694687e-08 3.2316007e-07 9.000894e-07 1.14985866e-07 1.9936365e-06
0.0 1.0282201e-06 1.5433572e-12 1.6544619e-06 7.791966e-07 1.6760996e-06 2.2954014e-06 1.04481465e-07
6.866143e-05 0.00022037778 4.513075e-08 7.17552e-05 6.036312e-05 6.4866654e-05 8.898456e-09 5.6933845e-06
3.204813e-08 0.0 6.668808e-11 2.3786118e-08 2.69977e-09 7.5936605e-08 3.4878628e-11 8.5117074e-07
8.855716e-08 9.665216e-09 0.00013094145 1.50338e-07 0.00031709913 2.6294905e-05 4.9526516e-05 5.686904e-10
2.0747358e-07 1.3597518e-07 7.819129e-06 1.6097938e-07 1.5795722e-08 4.114841e-08 5.6810276e-08 7.112565e-05
8.438184e-08 1.3523066e-08 1.2437215e-07 0.0004806736 3.7119068e-07 1.787225e-05 3.0943542e-07 0.00020672445
3.6078912e-10 3.5557434e-06 1.0417672e-06 7.4786394e-06 6.649137e-08 0.0 0.00020962387 3.7243426e-05
1.4658605e-09 7.8269856e-08 8.2257364e-05 3.3146816e-09 0.00017064155 2.2123528e-05 1.000113e-05 1.0815241e-06
0.00042818784 4.3214246e-08 0.0 6.8115824e-08 3.670766e-05 9.144568e-05 1.6366383e-05 0.0
7.714291e-09 4.8458584e-09 1.4781294e-09 1.3490646e-09 1.4231164e-09 2.2535407e-09 9.39208e-11 4.731699e-08
3.9829167e-09 4.3584986e-08 0.0 1.535274e-08 1.401564e-09 3.94701e-09 5.3442886e-11 1.10400165e-07
1.4855404e-09 1.3463601e-10 1.7055076e-07 4.6491055e-09 6.2902883e-09 7.9149416e-08 1.235195e-07 2.0442914e-10
2.3268475e-08 3.222846e-09 1.1255363e-07 4.5776454e-09 2.6497227e-10 7.695904e-10 1.7454349e-08 0.0
1.4716506e-09 3.559524e-10 8.007955e-09 1.1404351e-07 1.3680344e-07 3.472442e-10 1.5624082e-07 1.2449617e-07
6.477412e-10 2.3018358e-09 1.1890095e-07 1.4799776e-09 5.201438e-09 2.9040086e-08 4.8030344e-08 1.580583e-07
4.0673066e-11 6.25424e-08 1.142968e-07 1.9347123e-10 6.525408e-09 1.0464957e-07 2.1162112e-09 8.5922245e-08
9.732193e-09 1.9186013e-09 0.0 1.6327899e-08 3.072294e-08 7.977718e-08 1.3441294e-07 4.6774207e-10
8.3055327e-11 2.3572213e-08 6.201787e-12 2.7741665e-11 0.0 0.0 6.503057e-11 2.1315807e-07
1.7896538e-08 2.1954213e-07 0.0 6.350873e-08 2.8081726e-09 1.3917596e-08 0.0 5.4736444e-07
0.0 0.0 8.094791e-07 1.7849004e-09 8.229243e-11 3.729675e-07 6.268131e-07 1.7178836e-09
9.7932556e-08 3.133786e-11 5.4574e-07 0.0 9.101894e-11 0.0 7.076387e-08 0.0
6.1886816e-14 1.6067295e-11 3.735553e-09 5.141634e-07 6.607655e-07 0.0 7.957243e-07 6.079195e-07
0.0 0.0 5.7742915e-07 1.7323983e-10 1.6313381e-10 1.504307e-07 2.4393393e-07 7.7661446e-07
1.2493376e-10 3.1750827e-07 5.883202e-07 0.0 4.6136688e-11 5.108104e-07 7.460991e-11 3.825022e-07
0.0 3.7782256e-12 5.966863e-12 7.736713e-08 1.18000955e-07 3.596381e-07 6.5514996e-07 1.8230237e-10

exp_avg f4 [64]
00000000: ba2d d4bc 6b38 b53a f201 69bb 867e 33bb
00000010: 6cb4 dfba 8d2b 05be 9419 1d3e 43bf 65be
00000020: 42d9 e13c c306 34be 79e2 15bd 8a1f 89bd
00000030: 0000 0000 406e 853d 4115 eabd 0000 0000
00000040: 64b3 9abd 24fe ea3c f390 a7bb 7a9d 423b
00000050: b72b 413b 3cbf 1d3b c554 29bd 3126 8cbe
00000060: c604 b0b9 f2f3 003d 6df2 94be 0000 0000
00000070: ce15 d0be 033e 14bd b524 37be 8a10 1c3a
00000080: ad78 34bc 2231 42bd 10b0 dcbc af4e b5be
00000090: b790 c33a 784d f5bd 6aa7 80bd e317 98bd
000000a0: 95e9 0f3a 4805 603c b1dc 83b8 d351 6abe
000000b0: 6759 92be adc2 9e3c 0ac7 9e39 e5db c0bd
000000c0: 410f dcbd 146c 333c 65dd 1ebe 2d3f 54be
000000d0: e71f abbe 0000 0000 f3c5 443b 7d3a bb3b
000000e0: 893b 6ebe c657 ef3c 3fab d63b 7332 9ebe
000000f0: 07f4 9abe c231 4fbd 7e64 49be 8e37 d13c
-0.02590071 0.0013826018 -0.0035554138 -0.0027388646 -0.001706732 -0.13004895 0.15341789 -0.22436242
0.027569417 -0.17580704 -0.036592934 -0.06695469 0.0 0.06515169 -0.11429835 0.0
-0.07553747 0.028685637 -0.005113715 0.0029695914 0.002947552 0.0024070283 -0.04134061 -0.27372888
-0.00033572892 0.031482644 -0.29091206 0.0 -0.40641636 -0.03619195 -0.17885096 0.0005953392
-0.0110150995 -0.047410138 -0.026939422 -0.35411593 0.0014920448 -0.119776666 -0.06281932 -0.07426431
0.00054898235 0.013673134 -6.287674e-05 -0.22882776 -0.28583834 0.019379938 0.00030284404 -0.094169416
-0.10745097 0.010951061 -0.15514143 -0.20727225 -0.33422777 0.0 0.0030025213 0.0057137595
-0.23264898 0.029216658 0.006551176 -0.30897865 -0.30264303 -0.050584562 -0.19667241 0.025539186
