gen_1_agent_5.pt (torch, 64207 bytes, 18 tensors)

net.0.weight f4 [64, 4]
0	0x3e385989	0.18002905
1	0xbea4d752	-0.32195526
2	0x3e88a28a	0.26686507
3	0xbd20c32a	-0.039248623
4	0xbdb12cd4	-0.086511284
5	0x3ded10e4	0.11575487
6	0xbd0fb261	-0.035082225
7	0xbdfa074c	-0.12208423
8	0xbe5f35f4	-0.21797925
9	0xbd43822c	-0.047731563
10	0xbe683508	-0.2267648
11	0xbe857c1e	-0.26071256
12	0x3d897090	0.06710923
13	0xbd415dc7	-0.047208574
14	0x3e88756a	0.2665208
15	0xbe6dd63e	-0.23226258
16	0xbe2092ba	-0.15680972
17	0xbe742174	-0.23840886
18	0x3d991b07	0.07475858
19	0x3e4dc957	0.20096336
20	0xbddb7d44	-0.10717252
21	0x3e51738b	0.20454232
22	0xbdb1a390	-0.08673775
23	0x3d2ec6a5	0.04266991
24	0x3e8b4b8e	0.2720608
25	0xbe814adf	-0.25252435
26	0xbe3df7dc	-0.18551582
27	0x3e653c9c	0.22386402
28	0x3dd4a658	0.1038329
29	0x3c97a5bc	0.018511645
30	0x3cea0ea3	0.028571432
31	0x3e80d68a	0.2516368
32	0xbe8f316f	-0.27967402
33	0x3dcf0db3	0.10110035
34	0x3c7bff62	0.015380712
35	0xbe74e5ec	-0.23915833
36	0x3e54d016	0.20782503
37	0xbe29017d	-0.16504474
38	0xbe4cc7eb	-0.19998138
39	0x3ea27f56	0.31737775
40	0xbdd3fb1e	-0.10350631
41	0xbe287baa	-0.16453424
42	0x3e4175ca	0.18892589
43	0xbe87aa20	-0.26496983
44	0xbd8bca58	-0.068257034
45	0x3e6adb46	0.22935209
46	0x3e059977	0.13046823
47	0x3db24fe7	0.087066464
48	0x3e5efb0e	0.21775457
49	0xbe3cd735	-0.1844147
50	0xbe3f8b4a	-0.18705478
51	0xbd38e922	-0.045144208
52	0xbd03e098	-0.03219661
53	0x3e326a1a	0.17423287
54	0x3d79b10c	0.06095986
55	0xbd3950c2	-0.045243032
56	0xbd25a485	-0.0404401
57	0xbd870476	-0.06592648
58	0x3e4eb253	0.20185213
59	0x3e5a24a6	0.21303043
60	0x3d955f08	0.072935164
61	0x3e76e629	0.24111237
62	0xbe55cca0	-0.2087884
63	0x3e5ba00c	0.21447772
64	0x3cc44ae2	0.023961488
65	0xbe8d1ba7	-0.2756016
66	0xbd929424	-0.07157162
67	0x3e40dc4c	0.18834037
68	0x3cb215a1	0.02173883
69	0x3d1dda26	0.03853812
70	0xbd99bcea	-0.075067356
71	0x3d84612b	0.06463846
72	0x3d49d629	0.049276505
73	0x3e765eef	0.24059652
74	0xbcd98a31	-0.026555153
75	0x3d8d942e	0.06913029
76	0x3e9443f5	0.28958097
77	0xbe9324c6	-0.28738993
78	0x3d7f0b6d	0.062266756
79	0x3e7f6224	0.24939781
80	0xbea44ea9	-0.32091263
81	0x3e4aa3a3	0.19788985
82	0xbe527060	-0.2055068
83	0x3eaf7059	0.34265402
84	0x3d9874a0	0.074441195
85	0xbd701993	-0.05861814
86	0x3eac4d31	0.33652642
87	0xbdbd50f0	-0.09243953
88	0xbe60286f	-0.21890424
89	0x3b9dde12	0.0048177326
90	0x3e8548ee	0.26032203
91	0x3def4622	0.11683299
92	0x3e13afcf	0.14422534
93	0xbddd160d	-0.107952215
94	0x3dc73db5	0.097285666
95	0x3e0ffb1d	0.14060636
96	0xbd3c1db8	-0.04592678
97	0x3e009ea8	0.12560523
98	0x3c270dcb	0.01019616
99	0xbea786a0	-0.32719898
100	0xbe47c80e	-0.19509909
101	0x3d5de6d4	0.054175213
102	0xbe71cba7	-0.23612843
103	0x3e6a527c	0.22883028
104	0x3e478bd8	0.1948694
105	0x3ddd59dc	0.10808155
106	0x3dd1d90b	0.10246476
107	0x3e47be57	0.19506203
108	0xbb337817	-0.0027384812
109	0x3e6f73aa	0.23383966
110	0x3e8a529b	0.27016148
111	0xbe3c80c5	-0.18408497
112	0x3e4fe7ca	0.20303264
113	0x3e3dd3d4	0.18537837
114	0x3e84b263	0.25917348
115	0xbe852620	-0.2600565
116	0xbe7c6fd8	-0.2465204
117	0x3db3d7a2	0.08781363
118	0xbe87473a	-0.2642153
119	0x3d49997a	0.049218632
120	0x3e8bc9ad	0.27302304
121	0xbe98247c	-0.29715335
122	0x3dc78686	0.09742455
123	0x3d978772	0.07398881
124	0xbe353006	-0.176941
125	0xbe3b399c	-0.18283695
126	0x3e97bbda	0.29635507
127	0x3ea47202	0.3211823
128	0x3dfc5276	0.12320416
129	0x3eafc26d	0.34328023
130	0xbe61751f	-0.22017334
131	0xbe9d7258	-0.307513
132	0x3e77f3aa	0.24214044
133	0x3d59e68a	0.053198375
134	0xbe5000ae	-0.2031276
135	0x3e1ae89a	0.15127793
136	0x3b6afa07	0.0035854594
137	0xbe9dd703	-0.30828103
138	0xbe246b99	-0.1605667
139	0xbbae5ef6	-0.005321379
140	0xbd68e087	-0.05685475
141	0xbe09cf1b	-0.1345791
142	0x3e68af49	0.22723116
143	0x3d653213	0.055955958
144	0x3dac48a3	0.08412292
145	0x3e848b0f	0.25887343
146	0x3e8b82c6	0.2724821
147	0xbdf69dfc	-0.12041852
148	0xbe140def	-0.1445844
149	0xbe3e75d7	-0.1859964
150	0xbd946b1e	-0.072469935
151	0xbe7ee420	-0.2489171
152	0xbe149988	-0.14511693
153	0x3d405043	0.046951544
154	0xbe24db22	-0.16099218
155	0xbd39f57a	-0.04540012
156	0x3e1d1d69	0.1534325
157	0x3de03caa	0.10949071
158	0xbdcf45bf	-0.10120725
159	0x3dc85bfa	0.09783168
160	0xbe91b67d	-0.2845954
161	0xbea04276	-0.31300706
162	0xbe0fb466	-0.1403366
163	0xbcdc86b4	-0.0269197
164	0xbd814900	-0.06312752
165	0x3e223952	0.15842178
166	0x3de46ba5	0.11153344
167	0x3d8a823d	0.06763122
168	0x3dee96eb	0.11649879
169	0x3c5a29cc	0.013315629
170	0xbc228201	-0.009918691
171	0xbe9395b3	-0.2882515
172	0x3e49bf21	0.19701816
173	0x3e695e0b	0.22789781
174	0x3b93a789	0.0045060557
175	0xbe4b16cf	-0.1983292
176	0x3e2506b8	0.16115844
177	0x3e97f4d6	0.29678982
178	0x3e15d064	0.14630276
179	0xbe15a873	-0.1461504
180	0xbdaa0501	-0.08301736
181	0x3e60666a	0.21914068
182	0xbe676aaa	-0.22599283
183	0x3e388c28	0.18022215
184	0x3e63a596	0.22231135
185	0xbe796a57	-0.24356972
186	0x3dc78407	0.09741979
187	0xbe5f8ace	-0.21830294
188	0xbe9d0519	-0.30667952
189	0x3e1c6ef8	0.15276706
190	0x3d9dbcda	0.07702036
191	0x3d685007	0.056716945
192	0xbe1740be	-0.14770791
193	0x3db55d3b	0.08855673
194	0x3cd7256b	0.02626296
195	0xbe934f23	-0.28771314
196	0x3dc4335a	0.09580107
197	0xbb70efd6	-0.0036764047
198	0x3e674c78	0.22587764
199	0xbe989eef	-0.29808757
200	0x3dff0cf9	0.12453646
201	0xbea1f9ee	-0.31635994
202	0x3dfd6635	0.1237301
203	0x3eb041c7	0.34425184
204	0x3e932e24	0.2874614
205	0xbe3d0b51	-0.18461348
206	0x3c764dd7	0.015033207
207	0x3e9ff4a5	0.31241336
208	0x3eb9f8a1	0.363225
209	0xbd5ce0fa	-0.053925492
210	0xbe254bc0	-0.16142178
211	0xbea01afe	-0.31270593
212	0xbe14e522	-0.14540532
213	0x3e2b73c6	0.16743383
214	0xbe985a53	-0.29756412
215	0xbe982eb7	-0.2972314
216	0x3e29a60a	0.16567245
217	0x3c09baf0	0.008406386
218	0x3e681896	0.22665629
219	0x3eab5355	0.33462015
220	0xbe8e423b	-0.27784905
221	0x3d4174d8	0.04723057
222	0x3dbfaf2f	0.093595855
223	0xbae4719e	-0.001742888
224	0xbe8ea340	-0.27858925
225	0x3e10fd3b	0.141591
226	0x3d589eb0	0.05288571
227	0x3d02a38b	0.031894248
228	0xbe0d6739	-0.13808908
229	0x3e6e3e9e	0.23266074
230	0x3e94ac3e	0.2903766
231	0xbe75dfac	-0.24011105
232	0x3e4ec7f0	0.20193458
233	0xbea06c47	-0.3133261
234	0x3c9aafb4	0.01888261
235	0xbd45d74a	-0.04830102
236	0xbe1b2232	-0.15149763
237	0xbe8cb3af	-0.27480838
238	0x3e4f5e31	0.20250775
239	0xbdd1889b	-0.102311336
240	0xbe57ed75	-0.21086676
241	0xbe4ea182	-0.20178798
242	0x3dd5cdc9	0.10439641
243	0x3de14c9c	0.1100094
244	0xbdf765ce	-0.120799646
245	0xbeae628d	-0.34059563
246	0x3e124d0c	0.14287204
247	0x3ca3ebb4	0.020009853
248	0x3e0043ad	0.12525816
249	0x3dd8f890	0.105942845
250	0x3e6f2ad4	0.23356181
251	0x3dae42dc	0.08508846
252	0xbe8fcf26	-0.2808773
253	0xbe1cfd42	-0.15330985
254	0xbe090a18	-0.13382757
255	0xbd42b508	-0.047535926

net.0.bias f4 [64]
0	0x3e0463f5	0.12928756
1	0xbd4bf6ee	-0.049796037
2	0x3db2b4c3	0.08725884
3	0x3deaa79e	0.11457752
4	0x3e0dd8ee	0.13852283
5	0xbcfd9952	-0.030956898
6	0x3ccf25bf	0.025286553
7	0x3dfcd95b	0.12346145
8	0xbbc0fca7	-0.0058894935
9	0x3dde1cfd	0.10845373
10	0x3d93238e	0.07184516
11	0xbd05a295	-0.032625753
12	0x3db03695	0.08604161
13	0xbc13f97f	-0.0090316525
14	0x3dcca4d4	0.09992376
15	0x3e0b5627	0.13607083
16	0x3e063ef9	0.1310996
17	0x3da812bb	0.082066976
18	0xbc2bc917	-0.010484955
19	0x3e09a41d	0.1344151
20	0x3e35c4a9	0.17750801
21	0x3dc3d137	0.09561389
22	0xbc0b8f47	-0.008518047
23	0xbbaed989	-0.005335991
24	0x3e01634a	0.12635532
25	0x3d7f918f	0.062394675
26	0x3d8fe6a0	0.0702641
27	0x3d9419d7	0.07231491
28	0x3da150d0	0.07876742
29	0xbd00756e	-0.03136199
30	0x3d90c8c2	0.070695415
31	0x3df868c2	0.12129356
32	0x3dd89290	0.105748296
33	0x3df9cc2e	0.12197147
34	0x3dc2ac3c	0.09505507
35	0x3dc4e87d	0.09614656
36	0x3da10bec	0.07863602
37	0xbd0a91be	-0.033830397
38	0x3c811e69	0.015761571
39	0x3d664242	0.056215532
40	0x3e32f096	0.17474589
41	0xbd27cd70	-0.040967405
42	0x3ce00cd6	0.02734987
43	0xbcd4a7c2	-0.0259589
44	0x3df9b799	0.121932216
45	0x3e39680e	0.181061
46	0x3d833729	0.06407005
47	0xbcad2363	-0.021135038
48	0x3db545cf	0.088512056
49	0x3ddcbb99	0.10777969
50	0x3ddd0bee	0.10793291
51	0x3e037672	0.12838152
52	0x3dcefa4c	0.10106334
53	0x3ddf8ac5	0.1091514
54	0x3db17ba4	0.08666161
55	0xbcd38485	-0.025820026
56	0xbcc452e9	-0.023965316
57	0x3cc8d637	0.024516208
58	0x3e086b53	0.13322191
59	0x3d931269	0.07181246
60	0x3d8ef4e1	0.06980301
61	0x3ded2680	0.11579609
62	0x3d1bf12a	0.03807179
63	0x3dd7aac3	0.10530617

net.3.weight f4 [64, 64]
0	0x3ddf294e	0.1089655
1	0xbdfff838	-0.12498516
2	0xbe2b1531	-0.16707303
3	0xbe442caa	-0.19157663
4	0x3dc93fba	0.09826608
5	0xbe2b253e	-0.16713426
6	0x3d9d0a42	0.07667972
7	0x3d6725a8	0.056432396
8	0x3cc91db6	0.0245503
9	0x3dac5d2d	0.08416209
10	0xbdcfd8e8	-0.101487935
11	0x3c88a8e5	0.016682098
12	0x3e0e5d3a	0.1390275
13	0x3e37f184	0.17963225
14	0xbd8c2a4c	-0.06844005
15	0xbe465519	-0.193684
16	0x3b000180	0.0019532144
17	0xbd9363fe	-0.07196806
18	0x3e319639	0.17342462
19	0xbd895b80	-0.06706905
20	0x3e02b5ae	0.12764618
21	0x3de3e851	0.11128295
22	0xbe5d988c	-0.21640223
23	0x3cfb9018	0.030708358
24	0xbd6a4b0f	-0.057200488
25	0xbe26c9e1	-0.16287948
26	0xbe2318d8	-0.15927446
27	0xbbfab3df	-0.007650837
28	0x3d33395b	0.04375587
29	0x3d3ff641	0.046865705
30	0xbe2c7803	-0.16842656
31	0xbd93461e	-0.07191108
32	0x3d4ead9f	0.050458547
33	0x3d6d9dbc	0.058011755
34	0xbdb0c232	-0.0863079
35	0x3e550327	0.20801984
36	0xbdc0b3b6	-0.09409277
37	0xbd0600e3	-0.03271569
38	0xbdd62813	-0.10456862
39	0x3d8e0704	0.06934932
40	0xbe614700	-0.2199974
41	0xbc9d75bb	-0.019221177
42	0x3e100f9e	0.14068457
43	0xba719427	-0.0009215497
44	0xbd1c122b	-0.038103264
45	0x3e2c6ec0	0.16839123
46	0xbded6544	-0.115915805
47	0xbc4588c1	-0.01205653
48	0x3e367ffd	0.17822261
49	0xbd9487b0	-0.07252443
50	0xbe4b2d8c	-0.19841594
51	0xbd3889e8	-0.045053393
52	0x3b56f6b8	0.0032800864
53	0x3d2f9497	0.042866316
54	0x3e4a82dd	0.19776483
55	0x3e476b25	0.19474466
56	0x3e171256	0.14753088
57	0xbdc34354	-0.09534326
58	0x3d890342	0.066900745
59	0x3d2b21d4	0.041780308
60	0xbc26e0a0	-0.010185391
61	0xbe546ae8	-0.20743906
62	0xbde723dc	-0.112861365
63	0x3ab017aa	0.0013434787
64	0x3dc1985b	0.094528876
65	0xbc7052b3	-0.0146681545
66	0xbdaa9eda	-0.0833108
67	0xbcc1de44	-0.023665555
68	0x3d8e39cd	0.069446184
69	0x3da69878	0.0813455
70	0xbc0e47f7	-0.00868415
71	0xbe4e23d0	-0.20130849
72	0xbe6c4f3e	-0.23077103
73	0xbe3cd3ff	-0.18440245
74	0xbaca8f75	-0.001545413
75	0x3e353c08	0.17698681
76	0x3e0ad9cf	0.1355965
77	0xbd843e25	-0.06457166
78	0xbdba3b9f	-0.09093403
79	0x3def1288	0.116734564
80	0x3d78d553	0.060750317
81	0x3e211fd6	0.157348
82	0xbe08dcc7	-0.1336547
83	0x3e135c93	0.14390783
84	0xbcce1eb0	-0.025161117
85	0xbe6de760	-0.23232794
86	0xbd10b0a1	-0.035324696
87	0x3e0e76bf	0.13912486
88	0x3e1eecad	0.15519972
89	0xbdd3fe58	-0.103512466
90	0x3dcdc145	0.10046629
91	0x3dde6c8b	0.10860547
92	0xbc9c6e1e	-0.019095477
93	0x3d8a9188	0.06766039
94	0x3c93b89b	0.018032363
95	0xbe500957	-0.20316063
96	0x3e2d6fca	0.16937175
97	0xbe5e4f08	-0.21709836
98	0x3e3e2131	0.18567349
99	0xbe38cf6d	-0.18047877
100	0x3e360fae	0.17779419
101	0x3da62dce	0.08114205
102	0xbe811b46	-0.2521612
103	0xbd1497cf	-0.03627759
104	0x3db5b1e8	0.088718235
105	0x3c2c2190	0.010506049
106	0x3e1d5c74	0.153673
107	0xbd00b170	-0.031419218
108	0xbdfdbc9e	-0.123894915
109	0xbe2383da	-0.15968266
110	0xbddae53a	-0.10688253
111	0x3e3767a0	0.17910624
112	0xbe201f24	-0.15636879
113	0xbe0bffda	-0.13671818
114	0xbcb29d2b	-0.02180346
115	0xbe44b1cc	-0.19208449
116	0x3e10a76d	0.14126368
117	0xbae820ff	-0.0017710029
118	0xbdfdc411	-0.12390912
119	0x3d16035c	0.036624297
120	0x3e0d7ab8	0.13816345
121	0x3b1c28f9	0.0023828133
122	0xbe2df21b	-0.16986887
123	0x3c536c36	0.0129042175
124	0xbe676231	-0.22596051
125	0x3df7b90a	0.1209584
126	0xbd32347e	-0.04350709
127	0xbe1d37a6	-0.1535326
128	0x3d9cde66	0.07659607
129	0x3d195f39	0.037444327
130	0xbca2ccfb	-0.019873133
131	0x3e3e23b9	0.18568315
132	0x3e0d2781	0.13784601
133	0x3e4cc059	0.1999525
134	0x3dae6e9f	0.08517193
135	0xbda2eaf2	-0.079549685
136	0xbe18c086	-0.14917192
137	0x3d96f4e5	0.07370929
138	0x3e7bd773	0.24593906
139	0x3e0a17b4	0.13485605
140	0xbdf78b91	-0.12087167
141	0x3d4b8d8c	0.049695536
142	0xbca515ee	-0.020152058
143	0x3e8b4af3	0.2720562
144	0x3dbaad6d	0.091151096
145	0x3d19d298	0.037554353
146	0x3dc6c6a3	0.09705856
147	0xbcd3940f	-0.025827436
148	0x3db99682	0.0906191
149	0x3e860506	0.26175708
150	0xbe49aa49	-0.19693865
151	0x3d9d97b7	0.07694953
152	0x3e819815	0.25311342
153	0x3db01fa9	0.08599789
154	0x3e5bf8e3	0.21481661
155	0xbd314bfb	-0.04328535
156	0xbc91701a	-0.01775365
157	0x3e4b30a0	0.19842768
158	0x3e719ea6	0.23595676
159	0xbdb9f3fc	-0.090797395
160	0x3e71419c	0.23560184
161	0x3e5eeed8	0.21770799
162	0x3b3a894c	0.0028463183
163	0xbe1d7e45	-0.15380199
164	0x3de0b60b	0.10972222
165	0x3e4f9d9b	0.20274965
166	0x3e7a7aa9	0.24460854
167	0x3e45e404	0.19325262
168	0x3df6367a	0.12022109
169	0x3d75b498	0.05998668
170	0x3e5eadf7	0.2174605
171	0xbe11543d	-0.1419229
172	0xbdd1637e	-0.10224055
173	0xba0e39c6	-0.0005425479
174	0x3e477a14	0.19480163
175	0xbca5a023	-0.02021796
176	0x3dfc6264	0.12323454
177	0x3e3a1c1d	0.18174787
178	0x3dec3525	0.11533574
179	0x3d7bbb22	0.06145776
180	0x3dcac3b9	0.099006124
181	0xbdd70830	-0.104996085
182	0x3e0b5a3f	0.13608645
183	0x3b3fa09b	0.0029240015
184	0xbdccbbc1	-0.09996749
185	0xbe0bcf06	-0.13653192
186	0x3e817bbb	0.2528971
187	0x3dca6175	0.0988187
188	0x3e0acfb1	0.1355579
189	0x3e15ef3a	0.14642039
190	0x3b269a8f	0.0025421714
191	0xbdb6caa1	-0.08925367
192	0xbc2afd96	-0.010436436
193	0x3d6306cb	0.0554264
194	0x3e186617	0.14882694
195	0xbd2c88f1	-0.042122785
196	0xbcb731a1	-0.022362532
197	0xbd8b7554	-0.06809488
198	0x3e4e3295	0.20136483
199	0xbb0f72c4	-0.0021888474
200	0x3de4b021	0.111664064
201	0x3e8deff5	0.27722135
202	0x3e912a04	0.28352368
203	0xbe25657e	-0.16151997
204	0x3e362ead	0.17791243
205	0x3e62a917	0.22134815
206	0x3e9a26b6	0.3010766
207	0x3d1465d5	0.036229927
208	0x3e8f915e	0.28040594
209	0x3dbb27bd	0.09138439
210	0x3e032dbb	0.12810414
211	0x3cce8b55	0.025212923
212	0x3d775d96	0.060391985
213	0x3dbff077	0.09372037
214	0x3db8332c	0.08994135
215	0x3e223850	0.15841794
216	0xbd8c6d81	-0.06856824
217	0x3e6e997f	0.23300742
218	0xbd6c9038	-0.057754725
219	0xbdc690e8	-0.096956074
220	0xbb83960b	-0.0040156893
221	0x3c19a6e1	0.009378166
222	0xbdacd39e	-0.084388
223	0xbd988f6f	-0.07449233
224	0xbde30c04	-0.11086276
225	0x3e8e98f4	0.2785107
226	0x3e6e61ef	0.23279546
227	0xbdf27dd8	-0.11840409
228	0xbe029005	-0.12750252
229	0x3dca941e	0.09891532
230	0x3dfef7b7	0.124495916
231	0xbde5d462	-0.112221494
232	0x3e9c51f3	0.30531272
233	0x3df7b660	0.12095332
234	0xbe14d503	-0.14534383
235	0x3cca5211	0.024697335
236	0x3e8ffb39	0.28121355
237	0x3e8a45c2	0.27006346
238	0xbdfdc706	-0.12391476
239	0xbdc8a5d5	-0.09797255
240	0xbcc07f54	-0.023498215
241	0xbde4f188	-0.11178881
242	0xbbea6179	-0.007152733
243	0x3dac8f89	0.08425815
244	0x3e012a4b	0.1261379
245	0x3df8d575	0.12150089
246	0x3e975b04	0.29561627
247	0x3e61bcb9	0.22044648
248	0xbe3c8f24	-0.18413979
249	0x3dc0251f	0.0938208
250	0x3e54e6d1	0.20791174
251	0x3cc505be	0.02405059
252	0xbd2a18d5	-0.041527588
253	0x3e90b2ab	0.28261313
254	0x3d460c5e	0.048351638
255	0x3e1cc533	0.153096

net.3.bias f4 [64]
0	0xbd2731e7	-0.040819075
1	0xbd315290	-0.04329163
2	0x3dc0eafc	0.0941982
3	0x3e1e9ba1	0.15489055
4	0x3d5ed7e2	0.0544051
5	0x3d9ee47b	0.07758423
6	0x3c44d0c4	0.012012664
7	0x3dadbc4d	0.08483181
8	0x3d1b7572	0.0379538
9	0x3e0ed467	0.13948213
10	0x3e2b16d9	0.16707934
11	0xbbb19972	-0.0054199034
12	0xbcffcc68	-0.031225398
13	0xbc63de7c	-0.013908025
14	0xbd25c564	-0.04047145
15	0xbd7c7b0c	-0.061640784
16	0x3ddc7b06	0.10765652
17	0x3dbc8a0c	0.09206018
18	0x3df11e45	0.117733516
19	0x3dab9bcd	0.08379326
20	0x3c6bef1f	0.014400273
21	0x3e2aca03	0.16678624
22	0xbd666c14	-0.056255415
23	0xbd014433	-0.03155918
24	0xbcb4dd15	-0.022078076
25	0x3b484cde	0.0030563395
26	0x3e2d77c0	0.16940212
27	0x3e114016	0.14184603
28	0x3d278a4b	0.04090337
29	0x3e247c56	0.16063055
30	0xbd1ff584	-0.0390525
31	0x3e0f4e73	0.1399477
32	0xbd599d88	-0.05312875
33	0xbd5f6523	-0.05453981
34	0xbcada761	-0.021197977
35	0x3e329570	0.17439818
36	0x3ddbb6df	0.10728239
37	0xbc63de7e	-0.013908027
38	0xbc84ae8e	-0.016196515
39	0x3e009965	0.12558515
40	0x3e1919b0	0.14951205
41	0xbd3c8bf5	-0.04603191
42	0xbd8bb5a1	-0.06821752
43	0xbd41bdef	-0.047300275
44	0xbd32852d	-0.043584038
45	0x3cd930bc	0.026512496
46	0x3baf5d29	0.0053516817
47	0xba139dbe	-0.00056311104
48	0x3ca5bd44	0.02023185
49	0xbc17d189	-0.009266266
50	0x3e1f350f	0.15547584
51	0x3e2790d5	0.16363843
52	0x3e2091b8	0.15680587
53	0x3dc1724a	0.09445627
54	0xbd477551	-0.048695866
55	0x3d4feb2c	0.050761387
56	0xbcfc71f2	-0.030816052
57	0x3c0b1e45	0.008491104
58	0x3dac5b98	0.084159076
59	0x3d7a61fd	0.061128605
60	0xbd457617	-0.048208322
61	0xbc44d0c2	-0.012012662
62	0x3e3015f6	0.17195877
63	0xbd2974b2	-0.041371055

net.6.weight f4 [2, 64]
0	0xbe84d50a	-0.25943786
1	0xbdc4909e	-0.09597896
2	0x3e3dfca0	0.185534
3	0x3e700d07	0.2344247
4	0x3e22967f	0.15877722
5	0x3eb17f90	0.34667635
6	0x3e48cefe	0.19610211
7	0x3ea0568c	0.3131603
8	0x3e534e3e	0.20635316
9	0x3eaed2ac	0.34145105
10	0x3e17d816	0.14828524
11	0x3b809173	0.003923589
12	0xbd8a1c58	-0.067436874
13	0x3ceb2bd0	0.028707415
14	0x3c873c1b	0.016508153
15	0xbda07550	-0.078348756
16	0x3e28d8e3	0.16488986
17	0x3e876438	0.26443648
18	0x3d697cbb	0.057003718
19	0x3e82d50a	0.2555316
20	0xbd7dc165	-0.061952014
21	0x3e94b1e2	0.29041964
22	0xbe69e419	-0.22840919
23	0xbe3692cc	-0.17829436
24	0xbce99467	-0.028513147
25	0x3e849fcc	0.25903165
26	0x3eb24127	0.34815332
27	0x3e2f5d3c	0.1712541
28	0x3c8c7c3b	0.017149081
29	0x3ea396ad	0.31950894
30	0xbe51c947	-0.20486937
31	0x3eb1fbc1	0.34762385
32	0xbe1ea152	-0.15491226
33	0x3bde54f9	0.006785032
34	0x3c0ed90b	0.008718739
35	0x3ea66af7	0.32503483
36	0x3ecb221d	0.39674464
37	0x3d5b2870	0.05350536
38	0x3ae0f3df	0.0017162523
39	0x3db6c0d8	0.08923501
40	0x3e9be580	0.30448532
41	0xbc1e79ac	-0.0096725635
42	0xbd51e175	-0.051240403
43	0xbe4381f7	-0.19092546
44	0xbe3c679e	-0.18398902
45	0x3e8d6725	0.27617756
46	0xbe82be2c	-0.25535715
47	0xbd9a52ea	-0.07535346
48	0x3e47f9d5	0.19528897
49	0xbe3c89e0	-0.1841197
50	0x3e9169bc	0.2840098
51	0x3ea8998a	0.3292964
52	0x3e739428	0.23786986
53	0x3ea78d51	0.32725003
54	0xbe4a3080	-0.19745064
55	0x3dfda98a	0.12385853
56	0xbe7557ab	-0.23959224
57	0xbe27c471	-0.1638353
58	0x3ea64c15	0.3247992
59	0x3e2dc0a5	0.1696802
60	0xbe1ff472	-0.15620592
61	0xbd77ba08	-0.060480148
62	0x3ea54a51	0.3228326
63	0xbe2f39a5	-0.17111833
64	0xbe2df217	-0.16986881
65	0xbe1c71ba	-0.15277758
66	0x3d056883	0.032570373
67	0x3ec2641a	0.37966996
68	0xbd837481	-0.06418706
69	0xbddc4c22	-0.10756709
70	0x3d918458	0.07105321
71	0xbc4f2b76	-0.012644639
72	0xbd8d22da	-0.06891413
73	0x3e3fb378	0.18720806
74	0x3deefcf5	0.116693415
75	0x3d8adc24	0.0678027
76	0xbd8b5306	-0.06802945
77	0xbe24ac5e	-0.16081378
78	0xbe2e6a9a	-0.17032853
79	0xbdeb5709	-0.1149121
80	0x3d4aac4b	0.049480718
81	0xbd102df9	-0.035200093
82	0x3e4b277b	0.1983928
83	0xbcb14ba0	-0.021642506
84	0x3e61db19	0.22056235
85	0x3ecff1f4	0.40614283
86	0x3dde6200	0.10858536
87	0xbe917941	-0.28412822
88	0xbe4f73c3	-0.20259003
89	0xbe720d60	-0.23637915
90	0x3ea79845	0.3273336
91	0x3ec5fd33	0.38669738
92	0x3ddf2e7f	0.1089754
93	0x3ecb4a05	0.3970491
94	0x3e1fd341	0.1560793
95	0x3e5b0dc2	0.21391967
96	0xbdfdffa4	-0.12402275
97	0x3c16837c	0.009186622
98	0xbe4d4c86	-0.20048723
99	0x3ec1d122	0.37854868
100	0xbdd1a7d3	-0.10237088
101	0xbe661c88	-0.22471821
102	0xbe7d313a	-0.2472581
103	0x3e3b6fc7	0.18304358
104	0x3e01f4da	0.1269106
105	0xbda7ff99	-0.08203048
106	0xbe54112c	-0.20709676
107	0xbe7f9dc8	-0.24962533
108	0xbd1e33b5	-0.03862353
109	0xbe2c0e68	-0.1680237
110	0x3e8f4044	0.27978718
111	0x3e9ca260	0.30592632
112	0xbe537a1a	-0.20652047
113	0x3e41fbbf	0.1894369
114	0x3ebf2174	0.3733021
115	0x3e3d9db0	0.18517184
116	0x3e7ceff0	0.24700904
117	0x3d4c5fd4	0.049896076
118	0xbe84df99	-0.2595184
119	0xbd0a2bd5	-0.033733208
120	0xbdc6312a	-0.09677346
121	0x3e99f0b9	0.3006647
122	0xbd305097	-0.043045606
123	0xbe0f71b4	-0.14008218
124	0xbe1d22aa	-0.15345255
125	0xbe309087	-0.17242633
126	0x3e9fa2fa	0.3117903
127	0x3e3515e4	0.17684132

net.6.bias f4 [2]
0	0x3e0e9a87	0.13926135
1	0x3dfb6951	0.12275947

exp_avg f4 [64, 4]
0	0xbd14f102	-0.036362655
1	0x3eb70a38	0.35749984
2	0x3cd5c05c	0.0260927
3	0xbeeb4d9b	-0.45957646
4	0x38865f05	6.407317e-05
5	0x3b11d843	0.0022254146
6	0x39cbeb37	0.00038894426
7	0xbb572c21	-0.00328327
8	0xbbcbfdf0	-0.00622534
9	0x3c7dbed2	0.01548739
10	0x3b0992d6	0.0020992062
11	0xbcaff0b7	-0.021477086
12	0xbbd9db93	-0.0066484897
13	0x3cc33b2e	0.02383193
14	0x39dbfb85	0.00041958332
15	0xbd0ff372	-0.035144277
16	0xbd072d77	-0.033002343
17	0x3efe21b6	0.49635094
18	0x3c03b22a	0.008038083
19	0xbf307cb1	-0.68940264
20	0x33ae780c	8.124343e-08
21	0x35dfb3f5	1.6667169e-06
22	0xb4396ed4	-1.7269787e-07
23	0xb60f6af2	-2.137091e-06
24	0xbba762a7	-0.005108196
25	0x3eaa5027	0.33264276
26	0xbc53531b	-0.012898232
27	0xbef9ebff	-0.48812863
28	0xbd10460c	-0.035223052
29	0x3eb3823c	0.35060298
30	0x3c41eb6c	0.011835914
31	0xbef9b094	-0.4876753
32	0xb699b99f	-4.5813645e-06
33	0xb91f4e54	-0.00015192601
34	0xb7e4bbde	-2.72672e-05
35	0x3969bed9	0.00022291708
36	0xbc851ec6	-0.016250025
37	0x3ec5ad16	0.38608617
38	0xbbd9a0ee	-0.0066414988
39	0xbf0ec3af	-0.5576734
40	0xbb8c2903	-0.00427735
41	0x3c422107	0.011848695
42	0x3aa780a2	0.0012779424
43	0xbc872add	-0.016499931
44	0xbba608b3	-0.005066955
45	0xbd0af525	-0.033925194
46	0x3c3462eb	0.011009912
47	0x3d85509b	0.06509515
48	0xbcc5f3c4	-0.024164088
49	0x3ebdd945	0.37079826
50	0x393ba9ef	0.00017897015
51	0xbf08e580	-0.5347519
52	0xb82bd17a	-4.0964667e-05
53	0xbabbdb8f	-0.0014332401
54	0xb98409f1	-0.0002518441
55	0x3b0a98b6	0.0021148152
56	0xbc2b4263	-0.01045284
57	0x3e9633a5	0.29336277
58	0x3a4d5899	0.00078333315
59	0xbed42feb	-0.41442809
60	0xbd3e1c6c	-0.046413824
61	0x3efeec1b	0.4978951
62	0x3ca8a6d2	0.020587359
63	0xbf2e146a	-0.679999
64	0xbd3f10e6	-0.046646975
65	0x3f23fb56	0.64055383
66	0x3c98d20f	0.018654851
67	0xbf607d93	-0.8769161
68	0xbc25b62e	-0.010114236
69	0x3f20be50	0.62790394
70	0xbce00923	-0.027348107
71	0xbf6d126a	-0.9260622
72	0xb51b1005	-5.776531e-07
73	0xb33fe100	-4.467529e-08
74	0xb58c0f82	-1.0435326e-06
75	0xb63dda06	-2.82901e-06
76	0xbcaacddf	-0.02085012
77	0x3f18c128	0.59669733
78	0xbc8a3a55	-0.016873518
79	0xbf5deb66	-0.86687315
80	0xbc9e799e	-0.019345101
81	0x3f6f3f2b	0.9345576
82	0xbcd89192	-0.0264366
83	0xbfaf2a22	-1.3684733
84	0xbcbad223	-0.02280528
85	0x3e940361	0.28908828
86	0x3c7ffd8d	0.015624416
87	0xbec58966	-0.3858139
88	0xbc7a5fbf	-0.015281617
89	0xbd299a82	-0.041407116
90	0x3cab5102	0.020912651
91	0x3db78d1e	0.08962463
92	0xbc12c9a2	-0.008959206
93	0x3e4cc117	0.19995533
94	0xbc034c1d	-0.008013752
95	0xbe98583a	-0.29754812
96	0xbbfc0e9b	-0.007692171
97	0x3c7c2e68	0.0153919235
98	0x3a2fc139	0.00067045126
99	0xbcb38ddc	-0.02191823
100	0xbc4b401f	-0.012405424
101	0x3e84ea06	0.25959796
102	0xb9aed83e	-0.0003334898
103	0xbebbb3db	-0.36660656
104	0xbcc44ac3	-0.02396143
105	0x3e72faf0	0.23728538
106	0x3c4df0d7	0.012569628
107	0xbea1f1bf	-0.3162975
108	0xb9accb39	-0.0003295781
109	0xba91aa05	-0.0011113292
110	0xba9d7203	-0.0012012128
111	0x3a887319	0.0010410278
112	0xbb2afa1d	-0.002608902
113	0xbb81aab7	-0.0039571184
114	0xb83b2443	-4.4618046e-05
115	0x3bb8b220	0.0056364685
116	0xb639cdb1	-2.7686876e-06
117	0xb8341c7f	-4.2941883e-05
118	0x364474af	2.9274195e-06
119	0x3877c62e	5.907396e-05
120	0xbc9cf644	-0.019160397
121	0x3e89b27b	0.26893982
122	0x3c2ea7d7	0.010660133
123	0xbeb9b0c7	-0.36267683
124	0xbd2d76f5	-0.042349774
125	0x3e902c0a	0.281586
126	0x3ce8e821	0.028431
127	0xbebb14ff	-0.36539456
128	0xba2e2dd9	-0.0006644405
129	0xbb564e13	-0.0032700344
130	0xbb1f2304	-0.0024282346
131	0x3b7902af	0.0037995984
132	0xbc689aa4	-0.014197025
133	0x3f3fb792	0.7488948
134	0xbcdec03e	-0.027191278
135	0xbf8cc329	-1.0997058
136	0xbd25098e	-0.040292315
137	0x3df5b687	0.11997705
138	0x3d174bdb	0.036937576
139	0xbdf57f70	-0.119871974
140	0xbcbe3f2d	-0.023223484
141	0x3ef03f26	0.46923178
142	0x39e5ac07	0.00043806454
143	0xbf290ac1	-0.66032034
144	0xbb344369	-0.0027506
145	0xbb6deb7b	-0.0036303687
146	0xb92742eb	-0.0001595129
147	0x3bb00a30	0.005372308
148	0x34ce9347	3.8477648e-07
149	0x361c84cb	2.3323107e-06
150	0xb528cf34	-6.28864e-07
151	0xb66e3736	-3.54969e-06
152	0xba1dc505	-0.0006018433
153	0xba48e524	-0.0007663539
154	0x39476ef1	0.00019019448
155	0x3aa9c6f0	0.0012952965
156	0xbb9dea07	-0.004819158
157	0x3e37aac5	0.17936237
158	0xbbeb6f78	-0.007184919
159	0xbe87cc40	-0.26523018
160	0xbd1906f2	-0.03736014
161	0x3f8dd053	1.10792
162	0xbcacd69d	-0.02109843
163	0xbfcbff42	-1.5937274
164	0xbadbf7a1	-0.0016782173
165	0xbc8136c9	-0.015773194
166	0x3b073ec4	0.0020636776
167	0x3cd3376b	0.025783261
168	0xb9a5c425	-0.00031617392
169	0xbb32d519	-0.002728766
170	0xba9460a4	-0.0011320305
171	0x3b5fbbd8	0.0034139063
172	0x37e11868	2.6833455e-05
173	0x3a6b4e76	0.000897623
174	0x3924594b	0.00015673523
175	0xbaad8685	-0.0013238942
176	0xbc349080	-0.01102078
177	0x3cc1e72f	0.023669807
178	0x3a4af86d	0.0007742707
179	0xbd0a2cd7	-0.03373417
180	0xbcb1e398	-0.02171497
181	0x3f909f0a	1.1298535
182	0xbcf44504	-0.029818065
183	0xbfd24e58	-1.6430159
184	0xbbe7fde2	-0.0070798257
185	0x3d32c449	0.043644223
186	0x3ae4908f	0.0017438101
187	0xbd80bec1	-0.062863834
188	0xb2352d60	-1.0545904e-08
189	0x350f53fa	5.3393853e-07
190	0xb2b96891	-2.1584386e-08
191	0xb509d8cf	-5.1351975e-07
192	0xbac5e246	-0.0015097342
193	0xbadf126b	-0.0017019039
194	0xb9f0c887	-0.00045925772
195	0x3b28cc5f	0.002575658
196	0xbbd8251a	-0.0065962197
197	0x3c6c935f	0.014439433
198	0x3a8c446b	0.0010701542
199	0xbca70d11	-0.020391973
200	0xbd09335f	-0.033496257
201	0x3eab80cf	0.3349671
202	0x3c833dd4	0.016020693
203	0xbee7a6cc	-0.45244443
204	0xbcf925de	-0.030413564
205	0x3e702a00	0.23453522
206	0x3cb43931	0.021999927
207	0xbe9d307b	-0.3070105
208	0xba21ee64	-0.00061771856
209	0xbb307bee	-0.0026929337
210	0xbb167f51	-0.002296407
211	0x3b4a62ab	0.0030881565
212	0xbb42ad19	-0.0029705225
213	0xbb6a915d	-0.003579221
214	0xbaa52f3c	-0.0012602578
215	0x3b9f7324	0.0048660208
216	0x3ba6d681	0.005091489
217	0x3ee2761b	0.44230732
218	0xbd0b0ab1	-0.033945743
219	0xbf2d362f	-0.676608
220	0xb7b71a2b	-2.1827485e-05
221	0xb966d996	-0.00022015566
222	0x37c73fcd	2.3752358e-05
223	0x39ac563f	0.00032870655
224	0x33a0d991	7.490156e-08
225	0x35c1fe04	1.4453549e-06
226	0xb416e0b2	-1.4051582e-07
227	0xb607c6c2	-2.023226e-06
228	0xba9cac46	-0.0011953197
229	0xbaddec55	-0.0016931394
230	0xb8df6202	-0.00010651724
231	0x3b2d4371	0.0026437903
232	0xbd1fbbd8	-0.0389975
233	0x3f414d24	0.7550833
234	0xbb68806b	-0.0035476934
235	0xbf89ea3c	-1.0774608
236	0xbd004d32	-0.03132362
237	0x3e5faf5d	0.2184424
238	0x3c91decc	0.017806433
239	0xbe94b4bb	-0.29044136
240	0xbba644a9	-0.005074103
241	0x3ed57b0d	0.41695443
242	0xbcf349a8	-0.029698208
243	0xbf22a7eb	-0.6353747
244	0xbc34aa0f	-0.011026873
245	0x3edabc7b	0.42721924
246	0xbd0e1367	-0.034686472
247	0xbf28ec3a	-0.65985453
248	0xbc9b8db9	-0.018988477
249	0x3bf92ba5	0.00760408
250	0x3cb241c9	0.021759884
251	0x3cc6b3ed	0.024255717
252	0xbab7d382	-0.0014024826
253	0x3f22f0ef	0.63648885
254	0xbd40c210	-0.047060072
255	0xbf7a99a6	-0.978907

exp_avg_sq f4 [64, 4]
0	0x3c140ea6	0.009036696
1	0x3f519872	0.8187324
2	0x3c8f146d	0.017465794
3	0x400d24eb	2.2053783
4	0x35103831	5.372595e-07
5	0x38b90d43	8.8239576e-05
6	0x3645b31e	2.9459547e-06
7	0x393be950	0.00017920625
8	0x3752e0ce	1.2569317e-05
9	0x39889452	0.0002605045
10	0x36faa9f4	7.4703657e-06
11	0x3a090ece	0.00052283413
12	0x3779c514	1.4887442e-05
13	0x3a02eac2	0.0004994088
14	0x37988233	1.818044e-05
15	0x3a987235	0.0011630716
16	0x3c330694	0.010926861
17	0x3f7ed61d	0.9954546
18	0x3ca9d6d9	0.02073233
19	0x402b73c7	2.6789415
20	0x3323bdab	3.8123897e-08
21	0x3823351d	3.8911694e-05
22	0x34551d66	1.9847866e-07
23	0x388e6df1	6.791566e-05
24	0x3ad1d91f	0.0016010142
25	0x3e1be515	0.15224107
26	0x3b39dcc6	0.002836035
27	0x3ecec8d5	0.40387598
28	0x3c61c193	0.013779062
29	0x3fa0f24f	1.2573947
30	0x3cc87cfe	0.024473663
31	0x40578cd1	3.3679698
32	0x33e04d8e	1.044492e-07
33	0x37a2e8b2	1.9420262e-05
34	0x34af95cd	3.2705285e-07
35	0x381458c7	3.536863e-05
36	0x3bd2cedd	0.0064333514
37	0x3f0d038d	0.55083543
38	0x3c2ba59e	0.010476498
39	0x3fbcb22a	1.4741871
40	0x370038f2	7.642653e-06
41	0x3942daa6	0.00018582735
42	0x370b1271	8.289339e-06
43	0x39c9d92a	0.00038499507
44	0x37b5af31	2.1658461e-05
45	0x3a800e7d	0.0009769943
46	0x38d1f3df	0.00010011321
47	0x3b66f497	0.0035241002
48	0x3c058a08	0.008150585
49	0x3f45fedf	0.7734203
50	0x3c800b4f	0.015630392
51	0x40053513	2.0813644
52	0x3569cca2	8.7097044e-07
53	0x38bd4eba	9.026886e-05
54	0x36419c7e	2.8850332e-06
55	0x39416b6a	0.00018445929
56	0x3a2000e3	0.0006103648
57	0x3d82e04b	0.06390437
58	0x3b2c9ef2	0.0026339856
59	0x3e3e7a8f	0.1860144
60	0x3c98598f	0.018597392
61	0x3fd52c2a	1.6654103
62	0x3d0799c3	0.033105623
63	0x408f15d5	4.471415
64	0x3ccce7f1	0.025012942
65	0x4012bce3	2.2927787
66	0x3d42b155	0.0475324
67	0x40c53e38	6.163845
68	0x3b94090f	0.0045176814
69	0x3ed2ed07	0.41196463
70	0x3bebc2d0	0.0071948543
71	0x3f8b57c4	1.0886159
72	0x348d11a8	2.6276143e-07
73	0x37d9fb7f	2.5985528e-05
74	0x355071cc	7.7651634e-07
75	0x3849c07b	4.8101396e-05
76	0x3c5ee31e	0.013603954
77	0x3f9f1497	1.2428159
78	0x3cc42186	0.023941766
79	0x40548dd6	3.321157
80	0x3b1be995	0.0023790349
81	0x3e8e38ee	0.2777781
82	0x3c2583a0	0.010102183
83	0x3f4b5d17	0.7943892
84	0x3a00f46f	0.0004919236
85	0x3d010c3c	0.03150581
86	0x3b1813db	0.0023205194
87	0x3dd37488	0.10324961
88	0x3b0b7a73	0.0021282702
89	0x3e427806	0.18991098
90	0x3b6faaaa	0.003657023
91	0x3f0251b3	0.50905913
92	0x3b9629dd	0.004582627
93	0x3ecf7691	0.40520146
94	0x3be70c39	0.0070510176
95	0x3f89bd93	1.0760978
96	0x37995ce6	1.828228e-05
97	0x39b0074c	0.00033574773
98	0x37b9f778	2.2168955e-05
99	0x3a37b05d	0.0007007176
100	0x3b221a55	0.0024734933
101	0x3e62f504	0.22163779
102	0x3b94d911	0.004542478
103	0x3f1898b1	0.5960799
104	0x3bc02d4c	0.005864775
105	0x3f044bd5	0.5167821
106	0x3c27d4a1	0.010243566
107	0x3fb17128	1.3862658
108	0x359d80e9	1.1734929e-06
109	0x380d7bc3	3.373228e-05
110	0x36c4a94f	5.8609653e-06
111	0x389a75aa	7.365209e-05
112	0x3712ad25	8.7425915e-06
113	0x3924ae8b	0.00015705281
114	0x37a81d60	2.004084e-05
115	0x39b254b8	0.00034013926
116	0x3601fcc7	1.9369634e-06
117	0x3a58d408	0.0008271341
118	0x36195066	2.2845575e-06
119	0x3ac0a683	0.0014698062
120	0x3b3a5212	0.0028430265
121	0x3e7d2121	0.24719669
122	0x3bb04795	0.005379627
123	0x3f2ac67e	0.66709125
124	0x3c525750	0.0128382
125	0x3f9616e1	1.1725732
126	0x3cc27ee2	0.023742143
127	0x404960c5	3.1465313
128	0x36477987	2.972405e-06
129	0x390c4563	0.00013377289
130	0x378fe975	1.715564e-05
131	0x399ac15d	0.00029517236
132	0x3beab70a	0.0071629332
133	0x3f270b4d	0.6525162
134	0x3c48cc6f	0.012255772
135	0x3fde3682	1.7360384
136	0x3c24fa0b	0.0100693805
137	0x3f61a8f4	0.88148427
138	0x3c9026c4	0.01759661
139	0x40178fa5	2.3681424
140	0x3bcf5d35	0.00632825
141	0x3f13b1bf	0.57693094
142	0x3c3c88ea	0.011507252
143	0x3fc59b11	1.5437948
144	0x36a82eb8	5.012229e-06
145	0x387cf84e	6.0312734e-05
146	0x36e9addc	6.964181e-06
147	0x390cf427	0.00013442394
148	0x35085a62	5.079547e-07
149	0x38205038	3.8221682e-05
150	0x35b30fcb	1.3341136e-06
151	0x389b50be	7.406015e-05
152	0x34f70ef6	4.601822e-07
153	0x37f21025	2.8856166e-05
154	0x35365109	6.7918205e-07
155	0x387db211	6.0485738e-05
156	0x36d60f75	6.3794964e-06
157	0x3b14bb41	0.002269462
158	0x37660b57	1.3711709e-05
159	0x3ba3fd1c	0.005004538
160	0x3cec3bde	0.02883714
161	0x4020f4a3	2.5149314
162	0x3d496f6b	0.049178522
163	0x40d762df	6.730819
164	0x38d73319	0.000102615166
165	0x3c1b9e3d	0.009498176
166	0x393c4f5e	0.00017958644
167	0x3cd2ea06	0.025746357
168	0x3650e5d4	3.1128193e-06
169	0x39312613	0.00016894219
170	0x3747585f	1.18819e-05
171	0x39b55583	0.0003458672
172	0x34e94d3d	4.345583e-07
173	0x380535ae	3.1759664e-05
174	0x35b9b5d9	1.3836499e-06
175	0x388ab667	6.614328e-05
176	0x382936f9	4.0343937e-05
177	0x3a5d352c	0.0008438404
178	0x385fcd5b	5.3358595e-05
179	0x3ae66f2a	0.0017580737
180	0x3af02b73	0.0018323496
181	0x3e3c24b4	0.18373376
182	0x3c0d9df2	0.008643614
183	0x3f09742b	0.53692883
184	0x371f3404	9.489249e-06
185	0x3a1b66a0	0.0005928073
186	0x369da5a5	4.698248e-06
187	0x3aa1f894	0.0012357407
188	0x32fe2bba	2.9589376e-08
189	0x3804e1f7	3.16817e-05
190	0x343a5f79	1.7357333e-07
191	0x386801db	5.531484e-05
192	0x35f68ad8	1.8368837e-06
193	0x377ed608	1.5189413e-05
194	0x367f09bf	3.8003634e-06
195	0x380a8717	3.3027576e-05
196	0x375486d7	1.26675795e-05
197	0x398029a5	0.0002444509
198	0x3741d409	1.1553065e-05
199	0x3a054ff9	0.0005085464
200	0x3c20663d	0.0097900005
201	0x3f5279e1	0.8221722
202	0x3c86b2a2	0.0164426
203	0x400d5c90	2.2087746
204	0x3bc5e7c4	0.0060395915
205	0x3f0a08e7	0.53919834
206	0x3c3c447a	0.011490935
207	0x3fba5f24	1.4560285
208	0x3688075f	4.053974e-06
209	0x3900d370	0.00012285798
210	0x379ab572	1.8442723e-05
211	0x398b5bf3	0.00026580654
212	0x3714367b	8.834172e-06
213	0x391de088	0.00015056331
214	0x37b3b641	2.1423331e-05
215	0x39b01658	0.00033585983
216	0x3a7859b2	0.0009473815
217	0x3df0ea78	0.11763471
218	0x3b0731aa	0.0020628967
219	0x3e9ed22a	0.31019717
220	0x37815010	1.541528e-05
221	0x3afaad9e	0.0019125228
222	0x379818ad	1.8131303e-05
223	0x3b81823f	0.003952294
224	0x345688a6	1.9980016e-07
225	0x3821afd0	3.854913e-05
226	0x3512149c	5.441923e-07
227	0x38a49585	7.8479796e-05
228	0x35f83697	1.8493328e-06
229	0x388bd243	6.667201e-05
230	0x3681651a	3.8562694e-06
231	0x3909a05e	0.0001312508
232	0x3cab7f60	0.02093476
233	0x3ff7377e	1.931381
234	0x3d1f06d4	0.03882487
235	0x40a5b670	5.17852
236	0x3c0ededf	0.008720129
237	0x3f4e6b0c	0.8063209
238	0x3c8169b7	0.01579748
239	0x400a1028	2.157236
240	0x3ba7a8fd	0.0051165805
241	0x3eeb947f	0.4601173
242	0x3c040e20	0.008060008
243	0x3f9c613a	1.2217171
244	0x3c7ddd44	0.015494648
245	0x3fb7d520	1.4361916
246	0x3cd30a87	0.025761856
247	0x40745cd2	3.8181653
248	0x3b1bee9d	0.0023793348
249	0x3e5a8599	0.21340026
250	0x3b8dc0a5	0.0043259435
251	0x3f130995	0.57436496
252	0x38cac98d	9.669652e-05
253	0x3cd70fcc	0.02625265
254	0x39c5b3a7	0.0003770862
255	0x3d880a45	0.06642584

exp_avg f4 [64]
0	0xbf4e7ee9	-0.806624
1	0x3c3dfede	0.01159641
2	0xbe4486e0	-0.19192076
3	0xbe7c0bba	-0.24613848
4	0xbf8b4f70	-1.0883617
5	0x36e860c3	6.9254033e-06
6	0xbf053787	-0.52037853
7	0xbf7f4cb9	-0.99726444
8	0xba4df6de	-0.00078569155
9	0xbf42148d	-0.7581261
10	0xbe0be3db	-0.13661139
11	0x3d69c750	0.057074845
12	0xbf5fc9f2	-0.8741752
13	0xbbf4dd4f	-0.007472671
14	0xbf069aff	-0.52580255
15	0xbfa33ef7	-1.275359
16	0xbfa6e932	-1.3039916
17	0xbf8b9f8d	-1.0908066
18	0xb7c4a712	-2.3442819e-05
19	0xbf9acd18	-1.209384
20	0xbfd9df87	-1.702134
21	0xbf191c8f	-0.598092
22	0xbd029498	-0.03187999
23	0xbee4ea5e	-0.44710058
24	0xbe907aae	-0.28218597
25	0xbf00540b	-0.5012824
26	0xbf17268f	-0.5904321
27	0xbd289d23	-0.041165482
28	0xbdd7f8e0	-0.10545516
29	0x38266153	3.9668124e-05
30	0xbf03e0bb	-0.51514786
31	0xbf6381ce	-0.8886994
32	0xbdaac8e2	-0.083390966
33	0xbfa3196b	-1.2742132
34	0xbf1b4701	-0.6065522
35	0xbf6e5d45	-0.9311107
36	0xbde2c943	-0.11073544
37	0x374435a7	1.1695002e-05
38	0xbc98daff	-0.018659113
39	0xbec6bcc8	-0.38815904
40	0xbffa3991	-1.9548818
41	0x3c488aaa	0.012240091
42	0xbd1a1cb9	-0.03762505
43	0x3b9a063e	0.004700451
44	0xbed15555	-0.40885416
45	0xbfeb0ce2	-1.8363307
46	0xbe6de3bf	-0.2323141
47	0x36684533	3.4610973e-06
48	0xbd8dd6e7	-0.06925755
49	0xbe6bee90	-0.23040223
50	0xbf583504	-0.84455895
51	0xbf22a667	-0.6353516
52	0xbda306fb	-0.07960316
53	0xbe145f33	-0.1448944
54	0xbf2ba6bf	-0.6705131
55	0x39093a96	0.00013087163
56	0x368b6059	4.153739e-06
57	0xbd46b903	-0.048516285
58	0xbfcad052	-1.5844824
59	0xbf3713bf	-0.71514505
60	0xbf5a587f	-0.85291284
61	0xbf932fd7	-1.1498975
62	0xbe2bcd0c	-0.16777438
63	0xbf9ff086	-1.2495277

exp_avg_sq f4 [64]
0	0x3f2a067e	0.66416156
1	0x3b16f42f	0.0023033728
2	0x3c54f770	0.012998447
3	0x3cc1caad	0.023656214
4	0x3f49c3b7	0.7881426
5	0x3a1468ab	0.00056613487
6	0x3dfb3201	0.12265397
7	0x3f6ed729	0.9329706
8	0x39abdb82	0.00032779208
9	0x3ed102f2	0.4082256
10	0x3c10719f	0.008816152
11	0x3b7b60e8	0.0038357321
12	0x3f1b939f	0.60772127
13	0x3acd625f	0.0015669576
14	0x3df378d9	0.11888284
15	0x3fa3c9ce	1.2795961
16	0x3fe435db	1.7828935
17	0x3ea684d9	0.3252323
18	0x3a1cad3a	0.00059767405
19	0x3f6d209f	0.926279
20	0x3f05f184	0.5232165
21	0x3dc92b66	0.09822731
22	0x3e047285	0.1293431
23	0x3e86159d	0.26188365
24	0x3cf1dd75	0.029524544
25	0x3e2f63c0	0.17127895
26	0x3ec41e58	0.383044
27	0x3ba3c937	0.004998352
28	0x3c7b466b	0.015336613
29	0x3a845add	0.001009788
30	0x3e587adb	0.21140616
31	0x3f641cbf	0.89106363
32	0x3c8c000d	0.017089868
33	0x3f08d0ea	0.5344378
34	0x3f2d62e9	0.6772905
35	0x3ee5bb25	0.44869342
36	0x3c0a54b7	0.008443049
37	0x3a0aa7a1	0.0005289261
38	0x3a1af9b8	0.0005911845
39	0x3c31ca18	0.010851406
40	0x3fff7d91	1.9960195
41	0x3bd9aaf0	0.006642692
42	0x3c384a9d	0.011248258
43	0x3a8aca44	0.0010588844
44	0x3d87911c	0.06619474
45	0x3ee8da66	0.45479125
46	0x3c2b910b	0.010471593
47	0x3a17a810	0.0005785236
48	0x3b867d65	0.0041043037
49	0x3c9cb985	0.019131431
50	0x3f217790	0.6307306
51	0x3ee483e4	0.44631875
52	0x3c899cae	0.016798344
53	0x3cb061e9	0.021531062
54	0x3dfa3fac	0.12219176
55	0x3a913865	0.0011079429
56	0x39d2f6d4	0.00040238223
57	0x3b3f7e57	0.0029219592
58	0x3fc1cc6b	1.5140508
59	0x3f16198a	0.5863272
60	0x3ea0a9df	0.313796
61	0x3f8122cb	1.0088743
62	0x3e1da6da	0.1539568
63	0x3dc88523	0.09791019

exp_avg f4 [64, 64]
0	0x00000000	0.0
1	0x36157f1e	2.2276722e-06
2	0x3599ea12	1.1467512e-06
3	0x35d4d9f3	1.5858662e-06
4	0x00000000	0.0
5	0x358aabd0	1.0331805e-06
6	0x00000000	0.0
7	0x31ef5523	6.9654944e-09
8	0x36107961	2.1528324e-06
9	0x318a470e	4.0244066e-09
10	0x357bcb71	9.380083e-07
11	0x3500fb85	4.8049725e-07
12	0x34683ae6	2.1628111e-07
13	0x35cee624	1.5415176e-06
14	0x00000000	0.0
15	0x34c70c9d	3.7075816e-07
16	0x00000000	0.0
17	0x34ac7798	3.2124512e-07
18	0x358ec88e	1.0638194e-06
19	0x00000000	0.0
20	0x333f642d	4.4561762e-08
21	0x350f3e15	5.336199e-07
22	0x00000000	0.0
23	0x00000000	0.0
24	0x366fcaaa	3.5731741e-06
25	0x00000000	0.0
26	0x3227c4ae	9.765399e-09
27	0x360543eb	1.9858078e-06
28	0x3635de55	2.7100516e-06
29	0x322c582d	1.00317665e-08
30	0x00000000	0.0
31	0x00000000	0.0
32	0x36ab199a	5.0991775e-06
33	0x3484b742	2.4720254e-07
34	0x00000000	0.0
35	0x00000000	0.0
36	0x35af8416	1.3076958e-06
37	0x35adb5f8	1.2942464e-06
38	0x34c030e8	3.579837e-07
39	0x34babb0d	3.4781297e-07
40	0x32e90b7d	2.7129994e-08
41	0x3422b2ee	1.515252e-07
42	0x3624243f	2.4459002e-06
43	0x367a7ce9	3.732561e-06
44	0x36435966	2.91093e-06
45	0x35898465	1.0245827e-06
46	0x346e60da	2.2200712e-07
47	0x3462e56e	2.1131356e-07
48	0x36547881	3.1660604e-06
49	0x35f454eb	1.8204131e-06
50	0x00000000	0.0
51	0x00000000	0.0
52	0x361b163f	2.3109749e-06
53	0x3657dc31	3.2165665e-06
54	0x318b34b7	4.0514254e-09
55	0x2f573d88	1.9575996e-10
56	0x34d65734	3.9924055e-07
57	0x36294550	2.5223308e-06
58	0x00000000	0.0
59	0x00000000	0.0
60	0x00000000	0.0
61	0x00000000	0.0
62	0x31a90ec0	4.9202242e-09
63	0x3516a25a	5.6115607e-07
64	0x367d8a50	3.7780446e-06
65	0x35955117	1.1124965e-06
66	0x352f6be8	6.5349604e-07
67	0x35497cc7	7.505991e-07
68	0x370abd6d	8.269545e-06
69	0x350ddaec	5.2845166e-07
70	0x3710b6ee	8.6256605e-06
71	0x36a3ea80	4.885078e-06
72	0x35994e78	1.1422226e-06
73	0x36d5605b	6.359112e-06
74	0x34f748ee	4.6060399e-07
75	0x348b16a6	2.5907246e-07
76	0x33d431b8	9.881063e-08
77	0x354f6b56	7.7269704e-07
78	0x36870c2e	4.0247314e-06
79	0x34c99166	3.754496e-07
80	0x370b14c8	8.289884e-06
81	0x343e7506	1.7737702e-07
82	0x3512198e	5.4426425e-07
83	0x3726b332	9.936093e-06
84	0x362b51af	2.5528532e-06
85	0x347a37ac	2.3303318e-07
86	0x3645d7cc	2.9480898e-06
87	0x36a359d1	4.8682346e-06
88	0x35f0f06d	1.7951367e-06
89	0x325f9d38	1.3016056e-08
90	0x35e2685e	1.6868687e-06
91	0x35903a27	1.0745761e-06
92	0x35abe6e2	1.2807689e-06
93	0x321d9976	9.173496e-09
94	0x369486d9	4.426442e-06
95	0x00000000	0.0
96	0x362ed363	2.6051064e-06
97	0x35006c74	4.7841536e-07
98	0x369b39c6	4.6260857e-06
99	0x3638979b	2.7506383e-06
100	0x353b969b	6.988209e-07
101	0x3522ee38	6.0696357e-07
102	0x3445c53c	1.8418808e-07
103	0x3448cfb6	1.8702016e-07
104	0x36262f01	2.4763287e-06
105	0x3392904b	6.8249015e-08
106	0x35a3489d	1.216558e-06
107	0x36025353	1.942001e-06
108	0x35c60e8e	1.4756386e-06
109	0x350e17ac	5.293357e-07
110	0x33e1d962	1.0516921e-07
111	0x33edec39	1.1079141e-07
112	0x35d4dae4	1.5858936e-06
113	0x35771618	9.204682e-07
114	0x372c9da6	1.0288704e-05
115	0x371b8747	9.270217e-06
116	0x359b5fbd	1.1576263e-06
117	0x35c2f0bc	1.4524189e-06
118	0x317e9797	3.7048034e-09
119	0x2f44d349	1.790116e-10
120	0x345e3f6d	2.0698435e-07
121	0x35adda00	1.2952951e-06
122	0x00000000	0.0
123	0x35c04e11	1.4327835e-06
124	0x36b6e84d	5.451066e-06
125	0x36b8e89b	5.510706e-06
126	0x319a9803	4.4992716e-09
127	0x3497888c	2.8225293e-07
128	0xbc9277fe	-0.017879482
129	0xb92a2e56	-0.00016229725
130	0xbb51e127	-0.003202507
131	0xbbcce31f	-0.006252661
132	0xbd1f2f7f	-0.038863655
133	0xb41a9d48	-1.4399586e-07
134	0xbc503e19	-0.012710118
135	0xbd014c6c	-0.031567022
136	0xb9ecb4d3	-0.00045148152
137	0xbc971f99	-0.018447684
138	0xbb406e88	-0.0029362757
139	0x39d3ae1f	0.00040374786
140	0xbcb48934	-0.02203808
141	0xb90dede9	-0.00013535436
142	0xbd02cc9d	-0.031933416
143	0xbcd24550	-0.025667816
144	0xbcc03f75	-0.023467759
145	0xbc527b07	-0.012846715
146	0xb591941d	-1.0846449e-06
147	0xbd2a84ed	-0.041630674
148	0xbd4a3380	-0.04936552
149	0xbbc9673a	-0.006146339
150	0x3c5f611b	0.013633992
151	0xbc4d6ac4	-0.012537662
152	0xbbc87002	-0.006116868
153	0xbc84daa1	-0.016217532
154	0xbc20c0fd	-0.009811637
155	0xbafa1a4f	-0.0019081327
156	0xbb737543	-0.003714875
157	0xb4058f39	-1.2438694e-07
158	0xbcd576e5	-0.02605767
159	0xbd0fd106	-0.03511145
160	0xbb2fc8e4	-0.002682262
161	0xbccdd14d	-0.025124216
162	0xbc6a1226	-0.0142865535
163	0xbc984d4f	-0.018591551
164	0xbb70c580	-0.0036738813
165	0xb4846106	-2.465751e-07
166	0xb9863121	-0.00025595076
167	0xbbc5f215	-0.0060408213
168	0xbcd0634f	-0.025437979
169	0x39b1687e	0.00033837924
170	0xba15eabb	-0.00057188765
171	0xba09e153	-0.0005259711
172	0xbbdc0fac	-0.0067157354
173	0xbce2b016	-0.027671855
174	0xbb64cf32	-0.0034913537
175	0xb2993f21	-1.7840252e-08
176	0xbb81cfdd	-0.003961547
177	0xbbb633b4	-0.0055603627
178	0xbd23acda	-0.039959766
179	0xbd2063f4	-0.039157823
180	0xbb14eb44	-0.0022723237
181	0xbba9ddae	-0.005183897
182	0xbcc716b2	-0.024302814
183	0xb6fdc846	-7.5633025e-06
184	0xb316567c	-3.5003254e-08
185	0xbaa2a0d6	-0.0012407552
186	0xbd11ae3b	-0.03556655
187	0xbc3d8584	-0.011567477
188	0xbd54ac1b	-0.051921945
189	0xbd56ffa2	-0.052489884
190	0x3ad584ab	0.0016290148
191	0xbc9585b5	-0.018252233
192	0xbe48ed32	-0.19621733
193	0xb9568253	-0.0002045718
194	0xbb84c22e	-0.0040514683
195	0xbc159d31	-0.009131716
196	0xbec13388	-0.37734628
197	0x00000000	0.0
198	0xbe9b55e3	-0.30338964
199	0xbdf6ac5e	-0.12044595
200	0xba15723a	-0.000570092
201	0xbec45450	-0.38345575
202	0xbb8d357b	-0.004309354
203	0x3a06168d	0.00051150547
204	0xbd48c8a9	-0.04901949
205	0xb932fa1d	-0.00017068577
206	0xbe85b7a1	-0.2611666
207	0xbe00dee8	-0.12585032
208	0xbec17586	-0.37784976
209	0xbd960bd6	-0.07326476
210	0xb59b445c	-1.1568295e-06
211	0xbed7db59	-0.42159536
212	0xbe9ca6d8	-0.30596042
213	0xbcaac94d	-0.02084794
214	0xbdbab866	-0.091172025
215	0xbe25144f	-0.16121028
216	0xbc0f454c	-0.008744549
217	0xbe3f21b5	-0.18665202
218	0xbe17278b	-0.14761178
219	0xbb4558d5	-0.0030112762
220	0xbb99fbb7	-0.004699196
221	0xb6064fc3	-2.0013983e-06
222	0xbe8b8448	-0.2724936
223	0xbe3d3060	-0.18475485
224	0xbb885d83	-0.004161538
225	0xbe2e1979	-0.17001905
226	0xbe6e83fd	-0.23292537
227	0xbe2df4ef	-0.16987966
228	0xbb9841d1	-0.004646518
229	0x00000000	0.0
230	0xb9a9bacc	-0.00032373366
231	0xbcc44283	-0.023957497
232	0xbe84b8a3	-0.25922117
233	0x39bd780b	0.00036138328
234	0xba5d645f	-0.00084454374
235	0xba2e0559	-0.000663837
236	0xbc1bfef0	-0.009521231
237	0xbe08bbd9	-0.13352908
238	0xbb989f6b	-0.004657676
239	0x00000000	0.0
240	0xbbb7d419	-0.005610001
241	0xbbe67513	-0.0070329993
242	0xbeffe5da	-0.4998005
243	0xbe31ee0c	-0.17375964
244	0xbb6fa03d	-0.0036564015
245	0xbbefbab1	-0.0073159565
246	0xbea7ce54	-0.32774603
247	0xb68fa421	-4.280839e-06
248	0x00000000	0.0
249	0xbad7d7d4	-0.001646752
250	0xbe6b4f53	-0.22979479
251	0xbd37a252	-0.044832535
252	0xbe95408c	-0.29150808
253	0xbe8f425d	-0.2798032
254	0xbc88bd89	-0.01669194
255	0xbd9de0ca	-0.07708891
