gen_1_agent_2.pt (torch, 64207 bytes, 18 tensors)

net.0.weight f4 [64, 4]
0	0x3da8ac66	0.082360074
1	0xbe335702	-0.1751366
2	0xbca97a9d	-0.02068835
3	0xbe4341e1	-0.190681
4	0x3d38faff	0.045161244
5	0x3e46d0a9	0.19415535
6	0xbdc3edfa	-0.09566875
7	0x3dc2fbd8	0.09520692
8	0x3d3799e6	0.044824503
9	0x3c829da3	0.015944308
10	0x3e13fe7f	0.14452551
11	0xbe4c87ed	-0.19973727
12	0x3d840b5f	0.06447481
13	0x3d15871e	0.03650581
14	0x3e02022a	0.12696138
15	0xbe0a9e2a	-0.13536897
16	0x3dfb8b4a	0.12282427
17	0xbd36b39b	-0.04460488
18	0xbd8cc13d	-0.06872795
19	0x3e975a3c	0.2956103
20	0x3e81e780	0.25371933
21	0xbe7f87a4	-0.24954087
22	0x3e106a1e	0.1410298
23	0x3e3734e6	0.17891273
24	0xbe692145	-0.22766598
25	0x3e949173	0.2901722
26	0x3e611d27	0.21983777
27	0x3e53ca5c	0.20682663
28	0xbe3010e8	-0.17193949
29	0xbe1fe0dd	-0.15613122
30	0x3e110f41	0.14165975
31	0xbdb10cb1	-0.08644999
32	0xbe28dec5	-0.1649123
33	0x3dda46cc	0.10658035
34	0x3e0b8741	0.13625814
35	0x3e083221	0.13300373
36	0xbcb0f6d1	-0.021602066
37	0x3e588ed9	0.21148242
38	0xbe6c540f	-0.23078941
39	0xbd5545dd	-0.05206858
40	0xbd1224d9	-0.035679672
41	0x3e812ba4	0.25228608
42	0xbe47e834	-0.19522172
43	0xbde547f5	-0.11195365
44	0x3e65a1e3	0.22425036
45	0xbdf84377	-0.12122243
46	0x3e480b9a	0.19535676
47	0x3e8ee270	0.27907133
48	0x3e6b23ff	0.2296295
49	0xbe45ecc2	-0.19328597
50	0x3deb7486	0.114968345
51	0xbdf65fa3	-0.1202996
52	0xbe62ff90	-0.22167802
53	0x3d92ad5c	0.07161972
54	0xbdce25d7	-0.10065811
55	0x3b22c736	0.0024837977
56	0xbe808d3e	-0.2510776
57	0xbdcf70ee	-0.101289615
58	0xbe44603d	-0.19177337
59	0xbe33e940	-0.17569447
60	0x3e3ffd2a	0.18748918
61	0x3e047aec	0.12937516
62	0x3de87704	0.113508254
63	0x3e77b5be	0.24190423
64	0xbdd35031	-0.1031803
65	0x3e0e4e59	0.13897075
66	0x3da725a0	0.08161473
67	0xbc9c2473	-0.01906035
68	0xbe478232	-0.1948326
69	0x3e0027e5	0.12515219
70	0xbe6b4778	-0.22976482
71	0x3e226f18	0.15862691
72	0xbe89961d	-0.2687234
73	0x3e9272a1	0.2860308
74	0x3e62fcc7	0.2216674
75	0xbe15a1aa	-0.14612451
76	0x3e058683	0.13039593
77	0xbe34072a	-0.17580858
78	0x3c190d6e	0.009341581
79	0xbe004375	-0.12525733
80	0x3ddf44fc	0.109018296
81	0xbe6a6722	-0.22890905
82	0xbdb2fd7a	-0.08739753
83	0x3e719510	0.23592019
84	0xbe1456a8	-0.14486182
85	0x3e7fd8ad	0.24984999
86	0x3e1f4517	0.155537
87	0xbe4187da	-0.1889948
88	0xbe34b1d2	-0.17645958
89	0x3e815c31	0.2526565
90	0x3dd2b9f1	0.10289372
91	0x3dc60fa1	0.0967095
92	0xbdf3db20	-0.11907029
93	0xbe69433e	-0.22779557
94	0xbd5f6a7c	-0.05454491
95	0xbe97eef9	-0.2967451
96	0x3e23030f	0.15919136
97	0xbe5705fd	-0.20998378
98	0xbdbb9365	-0.09158973
99	0xbb324c02	-0.0027205949
100	0xbc9eaf59	-0.019370722
101	0x3e2164b7	0.15761076
102	0xbe1a2493	-0.15053014
103	0xbe93183b	-0.28729424
104	0xbd549bc8	-0.051906377
105	0x3e90685c	0.2820462
106	0xbd3492a8	-0.044085175
107	0x3e445910	0.191746
108	0x3e602d69	0.21892323
109	0x3e980ea3	0.29698667
110	0x3da3819c	0.079837054
111	0xbbee9daf	-0.007281981
112	0xbe3c1e06	-0.18370828
113	0x3ccacb10	0.02475503
114	0x3e8af6cc	0.27141416
115	0x3dfd40cb	0.12365874
116	0x3e9c0bbf	0.30477712
117	0x3e39c8b5	0.1814297
118	0x3e9185a6	0.28422278
119	0xbd0f58d4	-0.034996822
120	0x3ea09f5a	0.31371576
121	0xbe9242df	-0.28566644
122	0x3e1a36dc	0.1505999
123	0xbd90fd6c	-0.070795864
124	0x3ddab04c	0.10678157
125	0x3c08cf7f	0.008350252
126	0xbe2c4d27	-0.16826306
127	0x3de40ce8	0.11135274
128	0xbdb5c1d3	-0.0887486
129	0xbc137ce2	-0.009001942
130	0x3e5a9786	0.21346864
131	0xbe8d1ac0	-0.2755947
132	0xbe3d7b23	-0.18504004
133	0x3e8fced9	0.280875
134	0xbe252b11	-0.1612971
135	0x3d8b6331	0.06806029
136	0x3d7070c0	0.058701277
137	0xbe2a3b6f	-0.16624235
138	0xbdc35d63	-0.095392965
139	0x3c46d501	0.012135745
140	0x3e0e0b2b	0.13871448
141	0xbdce13e7	-0.1006239
142	0x3e1ac377	0.15113626
143	0xbe88cc7c	-0.2671851
144	0x3e77bdb5	0.24193461
145	0x3d81a52c	0.06330332
146	0xbdaa7539	-0.0832314
147	0xbe26bd11	-0.1628306
148	0x3e720d01	0.23637773
149	0x3e0faccd	0.14030762
150	0xbe6620db	-0.22473471
151	0x3e6d1889	0.2315389
152	0xbe3b3b3a	-0.18284312
153	0x3e16863c	0.14699644
154	0xbe97f987	-0.29682562
155	0xbe5f0798	-0.2178024
156	0x3e5a9e62	0.21349481
157	0xbe67cd2b	-0.22636859
158	0x3da2d3b1	0.07950533
159	0xbd4a4d5f	-0.049390193
160	0x3e20ad68	0.15691149
161	0x3e031749	0.12801851
162	0xbccb3334	-0.024804689
163	0x3d55c163	0.05218638
164	0x3e88339a	0.2660187
165	0xbdda8cc3	-0.106713794
166	0x3c6f87f2	0.014619814
167	0xbca809af	-0.02051243
168	0xbd3095f1	-0.043111745
169	0x3e9af9ac	0.3026861
170	0xbcfb0839	-0.03064357
171	0xbe9b04b4	-0.30277026
172	0xbe43f0fd	-0.19134898
173	0x3e5bc398	0.21461332
174	0xbd9261ca	-0.07147558
175	0x3bbab802	0.005698205
176	0xbd7ff7ee	-0.062492304
177	0xbd2d0a65	-0.04224624
178	0x3e98ede3	0.29868993
179	0xbe5a8f06	-0.21343622
180	0x3dd60330	0.10449827
181	0xbe876881	-0.26446918
182	0xbe80bffc	-0.25146472
183	0x3d8d7c8a	0.069085196
184	0xbdd7a5d7	-0.10529678
185	0xbe9b6823	-0.30352888
186	0xbe0bd580	-0.13655663
187	0xbd3b2225	-0.04568686
188	0xbd854688	-0.065075934
189	0x3e4b29b8	0.19840133
190	0x3dd6e011	0.10491956
191	0xbe8b004c	-0.27148664
192	0x3e65aadc	0.22428459
193	0x3e0afa06	0.13571939
194	0x3dd32813	0.10310378
195	0xbd9e28b3	-0.077226065
196	0xbddbfa2b	-0.10741075
197	0xbe2381ab	-0.15967433
198	0xbd7ae8f3	-0.061257314
199	0xbe04ffe4	-0.1298824
200	0xbde9d197	-0.11416929
201	0x3ccb07cf	0.024783997
202	0x3dd69787	0.1047812
203	0xbe1d16a0	-0.15340662
204	0xbe96063c	-0.2930163
205	0xbdef1fbf	-0.11675977
206	0xbe1c7f06	-0.1528283
207	0x3d0cca9f	0.034372922
208	0x3dea46f1	0.11439312
209	0x3d971f2f	0.07378995
210	0x3e242b78	0.16032207
211	0xbe7b438e	-0.24537489
212	0xbc4eb64b	-0.012616704
213	0x3d63805d	0.05554234
214	0xbe8653e7	-0.26235887
215	0xbbc2a461	-0.0059400056
216	0xbca73814	-0.020412482
217	0x3c20f679	0.009824389
218	0xbe018579	-0.12648572
219	0xbdde5bb4	-0.10857335
220	0x3e0be841	0.13662817
221	0xbe6150fe	-0.22003552
222	0xbe87efc4	-0.26550114
223	0x3ba37304	0.004988076
224	0x3de538bd	0.111924626
225	0x3e6682eb	0.22510879
226	0xbcbf2141	-0.023331286
227	0x3d3dfcf8	0.046383828
228	0x3d474062	0.048645385
229	0x3dc38cce	0.09548341
230	0xbe22c2f0	-0.15894675
231	0xbe990012	-0.29882866
232	0x3db79897	0.08964651
233	0xbe30bfc3	-0.17260651
234	0xbd9ead7b	-0.077479325
235	0xbe2f035b	-0.17091124
236	0xbe5a1485	-0.2129689
237	0xbdbe12df	-0.09280943
238	0x3e17a3d5	0.1480859
239	0xbdda0b61	-0.106467016
240	0xbdcd511c	-0.10025236
241	0xbe6f6014	-0.23376495
242	0x3df9772c	0.12180933
243	0xbd4e0680	-0.050299168
244	0xbe06fabf	-0.1318159
245	0x3e89545a	0.26822168
246	0x3e2e99e1	0.17050888
247	0x3e4578fc	0.19284433
248	0xbe1f891e	-0.1557965
249	0x3d9e488e	0.077286825
250	0xbbbc999f	-0.0057556177
251	0xbdc85b63	-0.09783056
252	0x3dc1aaed	0.0945643
253	0x3da35893	0.079758786
254	0x3d9e0e70	0.077175975
255	0x3e63aaac	0.22233075

net.0.bias f4 [64]
0	0x3cb4320c	0.02199652
1	0xbc50a8ec	-0.012735587
2	0xbc1d241c	-0.009591129
3	0x3c8791df	0.016549049
4	0xbadb3f9a	-0.0016727329
5	0xb9286622	-0.00016059776
6	0x3be54ff7	0.006998058
7	0xbc470075	-0.012146105
8	0xbb8b7fe0	-0.0042571872
9	0x3c9fb1ec	0.01949402
10	0xbc8d7b3e	-0.01727068
11	0x3ca4d057	0.020118875
12	0xbba743fe	-0.005104541
13	0xba267d85	-0.00063511013
14	0x3ccb0e6d	0.024787152
15	0xbadd31b8	-0.0016875779
16	0xb9a24ad2	-0.00030954793
17	0xbc36429e	-0.011124281
18	0x3cda4039	0.026641952
19	0x3ca2c186	0.01986767
20	0x3cd8b7bd	0.0264548
21	0xbc7288c9	-0.01480312
22	0x3c5bc613	0.013413924
23	0x3cf5a736	0.029986959
24	0xbc556631	-0.013024853
25	0x3c3ea915	0.011636992
26	0x3b1fe836	0.0024399883
27	0x3cad55b0	0.021159023
28	0x3ba986c0	0.005173534
29	0x3ca49f23	0.020095414
30	0x3cda4d9f	0.02664834
31	0xbbdf4a2e	-0.006814263
32	0xbc52586e	-0.012838466
33	0xbbaa7d84	-0.005202951
34	0x3a368270	0.0006962186
35	0x3bba59c0	0.0056869686
36	0x3c826333	0.015916442
37	0x3ca87ef4	0.020568348
38	0xba4bcb30	-0.0007774113
39	0x3c08842b	0.008332293
40	0xbb023dc5	-0.0019873243
41	0x3c87777e	0.01653647
42	0x3caa992a	0.020824987
43	0x3b066ebd	0.0020512783
44	0x3bc8968a	0.0061214613
45	0x3b66a0f6	0.0035191155
46	0x3cccc23c	0.024994962
47	0x3c50d9cc	0.012747239
48	0xbc93990a	-0.01801731
49	0x3c8017e9	0.015636401
50	0x3b0829f1	0.0020776952
51	0xbb8cbbad	-0.0042948336
52	0x3cc4bf5e	0.024017032
53	0xbc694e25	-0.0142398225
54	0x3c93bea2	0.018035237
55	0xb9d78516	-0.00041107152
56	0x3ca837d1	0.020534428
57	0x3cf32287	0.02967955
58	0x3ca3797e	0.019955393
59	0x3b990626	0.0046699224
60	0x3cb811dd	0.022469455
61	0x3bf03853	0.007330933
62	0x3c07e538	0.008294396
63	0x3bcff7c5	0.006346675

net.3.weight f4 [64, 64]
0	0xbdd1b0c5	-0.10238794
1	0xbe1dc31c	-0.1540646
2	0x3d944370	0.07239425
3	0xbde8fad4	-0.11375967
4	0x3ddb9d35	0.10723344
5	0x3cffb87c	0.031215899
6	0x3de37fa7	0.11108332
7	0x3ce6c5ce	0.028170493
8	0x3dc67dcc	0.096919626
9	0x3e41cba0	0.18925333
10	0x3dba4823	0.0909579
11	0x3cc55e93	0.024092948
12	0x3e3d41b6	0.18482098
13	0x3e20f049	0.15716662
14	0xbe531fa6	-0.20617542
15	0x3dcb96ec	0.099408954
16	0x3dd940fd	0.10608099
17	0x3e197cda	0.14989033
18	0xbe5aad88	-0.2135526
19	0xbe1d30b1	-0.15350606
20	0x3d4ee7a1	0.050513867
21	0xbcfbc946	-0.030735623
22	0x3bfbc0c5	0.007682892
23	0x3e087586	0.13326082
24	0xbe5e9da9	-0.2173983
25	0xbdc06487	-0.09394174
26	0x3d222503	0.03958608
27	0x3d5028f3	0.050820302
28	0xbdf76bf3	-0.120811366
29	0xbd62c4a2	-0.055363305
30	0xbe3e1a47	-0.18564712
31	0x3c883169	0.016625123
32	0xbd5b0c62	-0.053478606
33	0x3d849f78	0.06475729
34	0x3dea522e	0.11441456
35	0x3e13112c	0.1436202
36	0x3d00b97e	0.0314269
37	0xbdf34f00	-0.118803024
38	0x3da885a6	0.082286164
39	0xbe5bd854	-0.21469241
40	0xbced6378	-0.028978094
41	0x3c1053b7	0.008809022
42	0x3e09c0b8	0.13452423
43	0xbdb4bf39	-0.08825535
44	0x3dae4859	0.08509893
45	0xbd01e79b	-0.031715017
46	0xbd9787ec	-0.07398972
47	0xbcbe7512	-0.023249183
48	0x3e1b7a9d	0.15183492
49	0x3dfce751	0.123488076
50	0xbe52269d	-0.20522542
51	0x3e1162d3	0.14197855
52	0x3d626e66	0.055281065
53	0xbe6c07a6	-0.23049793
54	0x3db090f8	0.086214006
55	0xbd9124aa	-0.07087071
56	0xbe3f6bcb	-0.18693464
57	0xbe2195a1	-0.15779735
58	0x3d7bac89	0.06144384
59	0xbe0ee234	-0.13953477
60	0xbdd979ef	-0.1061896
61	0x3e2a59d3	0.16635828
62	0x3e4ac950	0.19803357
63	0x3e15f54d	0.14644356
64	0xbded9311	-0.11600316
65	0x3ca918a8	0.02064164
66	0x3da6e1b1	0.08148516
67	0xbda3d15d	-0.07998917
68	0xbd8d89c1	-0.0691104
69	0x3d9f5190	0.07779229
70	0xbe4ddf73	-0.2010477
71	0xbd35ad47	-0.044354703
72	0xbe3449cd	-0.17606278
73	0x3dfdcc32	0.12392463
74	0xbd8024c8	-0.062570155
75	0xbe59afde	-0.21258494
76	0x3dcddfb4	0.100524336
77	0x3df572e6	0.11984806
78	0x3cfac98e	0.030613687
79	0xbdd4c658	-0.103893936
80	0xbe227bf8	-0.15867603
81	0xbda4cba8	-0.08046657
82	0x3e47b9b5	0.19504435
83	0xbbaeec1d	-0.0053382055
84	0x3e0cd1c2	0.13751891
85	0xbd12058c	-0.03564982
86	0x3e389275	0.18024619
87	0x3e1e6956	0.1546987
88	0xbe1d7618	-0.1537708
89	0xbe1d7978	-0.15378368
90	0xbdefafb6	-0.11703436
91	0x3d00ec04	0.031475082
92	0xbdfa051b	-0.12208005
93	0xbd879646	-0.06620459
94	0xbddef95c	-0.10887405
95	0x3e28f3c1	0.16499235
96	0x3dc36f37	0.09542697
97	0xbd948d42	-0.07253505
98	0xbddca378	-0.10773367
99	0x3dbf518e	0.09341727
100	0xbe1db442	-0.15400794
101	0x3e39098c	0.18070048
102	0x3d691611	0.05690581
103	0xbe187a89	-0.14890493
104	0xbe1d0438	-0.1533364
105	0x3e32abf2	0.17448404
106	0xbde0046b	-0.10938343
107	0x3e21ea2b	0.15811984
108	0x3dfe68be	0.12422322
109	0xbde9512b	-0.11392435
110	0x3dc72284	0.0972338
111	0xbc932e58	-0.017966434
112	0x3e0a8ff3	0.13531475
113	0x3e1555ad	0.14583464
114	0xbcd33858	-0.025783703
115	0x3e2713af	0.16316102
116	0xbe56bcdb	-0.2097048
117	0xbddb933e	-0.107214436
118	0xbdbb2967	-0.09138756
119	0xbde2e309	-0.1107846
120	0xbdf4b7bc	-0.11949107
121	0xbc801acc	-0.015637778
122	0xbe1a19be	-0.15048882
123	0xbcc2d8e0	-0.023785055
124	0x3dd3c8a0	0.103410006
125	0xbe092a04	-0.13394934
126	0xbd933bac	-0.07189116
127	0x3d171e42	0.03689409
128	0xbe552fa9	-0.20818962
129	0xbcc82c40	-0.024435163
130	0xbe366e9a	-0.17815629
131	0xbe155fa6	-0.14587268
132	0x3e26aaac	0.16276044
133	0xbd3c344b	-0.045948308
134	0x3d14c56e	0.036321096
135	0xbe2ff5ab	-0.17183559
136	0x3cc79aa7	0.024365736
137	0xbd9b2653	-0.07575669
138	0x3d93fc0f	0.07225811
139	0xbd9f35e2	-0.07773949
140	0x3e1a6de9	0.1508099
141	0x3e4bdb81	0.19907953
142	0xbdf8070f	-0.12110721
143	0xbe327c68	-0.1743027
144	0x3bb22bac	0.005437335
145	0x3db61765	0.08891181
146	0x3e3ab33d	0.18232436
147	0xbd0dc5e5	-0.034612555
148	0x3e112deb	0.14177673
149	0x3e42d15e	0.1902518
150	0xbe364643	-0.1780024
151	0xbd79e560	-0.061009765
152	0x3d0b2a70	0.03397602
153	0x3d9d69c2	0.07686187
154	0x3de71c59	0.11284704
155	0x3e2b3919	0.16721
156	0xbe39b13a	-0.18134013
157	0xbd86dc2c	-0.06584963
158	0x3e20ba31	0.15696026
159	0xbd67e419	-0.056614015
160	0x3e400b85	0.18754394
161	0xbd5e1bae	-0.054225616
162	0xbd2b0918	-0.04175672
163	0xbb00b500	-0.0019639134
164	0xbe023b50	-0.12717938
165	0xbe3342e5	-0.17505987
166	0x3e31a3ad	0.17347594
167	0xbe2805cb	-0.1640846
168	0xbd9713de	-0.07376836
169	0x3e10d964	0.14145428
170	0xbd5d2ad5	-0.053995926
171	0x3e4bbbd9	0.19895877
172	0xbe6910fd	-0.22760387
173	0x3dca6b1e	0.09883712
174	0xbdefa4c2	-0.11701347
175	0xbe4fb99c	-0.20285648
176	0x3daff1ef	0.08591067
177	0x3d6b007d	0.057373513
178	0x3a68eb30	0.00088851433
179	0x3db6517d	0.089022614
180	0xbca173f6	-0.019708615
181	0xbe586cc1	-0.21135236
182	0xbda72e9c	-0.08163187
183	0xbda1224f	-0.07867872
184	0xbd0e4386	-0.034732364
185	0x3e1335a3	0.1437593
186	0x3d6e3fd6	0.058166347
187	0xbd63b6d0	-0.055594265
188	0xbe321372	-0.1739023
189	0x3de1ef8e	0.110320196
190	0x3e4e4307	0.20142756
191	0xbe0c0050	-0.13671994
192	0xbd549b7d	-0.051906098
193	0xbe4f9f00	-0.20275497
194	0xbce8888b	-0.028385421
195	0x3b8ca7a3	0.004292445
196	0xbd8ccdc1	-0.06875182
197	0xbe0ee153	-0.13953142
198	0x3dcddbf5	0.10051719
199	0x3e5646a9	0.20925392
200	0xbda37bcb	-0.07982596
201	0xbde6fd94	-0.11278835
202	0x3cf2753a	0.029596914
203	0x3e05e121	0.13074161
204	0x3e5aa1b0	0.21350741
205	0xbd6f8512	-0.058476515
206	0x3e68dbf5	0.22740157
207	0x3b5b01c3	0.0033417798
208	0x3e2c58cb	0.16830747
209	0x3c772b05	0.01508594
210	0x3dfdd57f	0.12394237
211	0xbde8e498	-0.11371726
212	0x3e58f30f	0.2118647
213	0x3cf8a99b	0.030354312
214	0x3c1b5ac1	0.009482087
215	0x3a744de6	0.0009319469
216	0x3d5c1738	0.05373308
217	0x3d0e2649	0.03470448
218	0x3dad034c	0.084478945
219	0xbe2eda23	-0.170754
220	0xbde72c6a	-0.11287768
221	0x3dc10806	0.094253585
222	0x3df03d15	0.117304005
223	0xbe293e3c	-0.16527647
224	0xbcf9dcaf	-0.030500738
225	0x3e1292da	0.14313832
226	0x3d7c7a35	0.061639983
227	0x3dca4554	0.098765045
228	0x3d866eb9	0.065640874
229	0xbd790c24	-0.060802594
230	0x3e2d968f	0.16951965
231	0x3d921857	0.07133549
232	0xbe347140	-0.17621326
233	0x3d003981	0.03130484
234	0xbe2f0463	-0.17091517
235	0x3d7991bd	0.060930002
236	0x3d413fcc	0.047179982
237	0xbdf33f1b	-0.11877271
238	0xbe481840	-0.195405
239	0x3da9b294	0.08286014
240	0x3cb9d798	0.02268581
241	0xbe453513	-0.19258527
242	0xbd37217b	-0.044709664
243	0x3e5659b1	0.20932652
244	0xbd8d1c3f	-0.06890153
245	0x3de34b0b	0.11098298
246	0xbd1ea15b	-0.0387281
247	0xbe29abf1	-0.16569497
248	0xbda2729b	-0.079320155
249	0x3d5e2aab	0.05423991
250	0x3e5f4a6d	0.21805735
251	0xbdb51ce0	-0.08843398
252	0xbe4a6fd2	-0.19769219
253	0x3dffbbf5	0.12487022
254	0xbe30c572	-0.1726282
255	0x3d33bc2d	0.04388063

net.3.bias f4 [64]
0	0xbc9fa075	-0.019485692
1	0xb9a57f48	-0.00031566084
2	0xbca5d3aa	-0.02024253
3	0x3cd9ea95	0.026601115
4	0x3cc280d2	0.023743067
5	0xb8bdc3cc	-9.048692e-05
6	0x3ce66c51	0.028127821
7	0xbb352591	-0.00276408
8	0x3965982d	0.00021895832
9	0x3b7899b1	0.0037933404
10	0x3c8945df	0.01675695
11	0x00000000	0.0
12	0xba14c4cd	-0.00056750776
13	0x3d1536d3	0.036429238
14	0x3b2e11e5	0.002656096
15	0x3ccfb6cc	0.025355719
16	0xba7ad645	-0.0009568672
17	0x3cf36894	0.029712953
18	0xbbbb77f4	-0.0057210866
19	0x3cc314f7	0.023813708
20	0x3ccc281f	0.024921475
21	0xbb8cf06e	-0.0043011224
22	0x3d0b379f	0.03398859
23	0xbbe6172c	-0.0070218053
24	0xbca4f646	-0.020136964
25	0xbbac8acf	-0.0052655707
26	0x3d027b90	0.03185612
27	0x3c282878	0.010263555
28	0x3d01dce6	0.031704806
29	0x3cbd88f6	0.023136597
30	0x00000000	0.0
31	0x3c224585	0.00990427
32	0xbcd4b75e	-0.025966343
33	0x3cb23dd2	0.021757994
34	0x3ac3b390	0.0014930833
35	0x3b129874	0.0022368701
36	0xbce47dea	-0.027892072
37	0xbc506af4	-0.012720812
38	0xbc0a0654	-0.00842436
39	0xbc7c712d	-0.015407843
40	0x00000000	0.0
41	0xbcb16dcc	-0.0216588
42	0x3cefa050	0.029251248
43	0x3c0508b8	0.0081197545
44	0x3ac4f407	0.0015026339
45	0x3cd1cf7b	0.02561163
46	0xbb9dec02	-0.004819394
47	0xbbce78cd	-0.0063010217
48	0xbc701c52	-0.01465519
49	0x3b8a9f04	0.004230382
50	0x3cea4121	0.028595509
51	0x3d01c38b	0.031680625
52	0xbb5fb904	-0.0034137378
53	0x3cda0575	0.02661393
54	0x00000000	0.0
55	0xbcdb63c7	-0.026780976
56	0x3bf34070	0.007423453
57	0xbae5c010	-0.0017528553
58	0x3d001246	0.031267427
59	0xbb41a175	-0.0029545699
60	0xbbcbf190	-0.006223865
61	0xbc63f8e8	-0.013914324
62	0xbc0b0084	-0.00848401
63	0xbcb8265e	-0.022479232

net.6.weight f4 [2, 64]
0	0xbe0c213d	-0.13684554
1	0xbe1e4d4c	-0.15459174
2	0xbe86d6ef	-0.26335856
3	0x3e232fb5	0.15936168
4	0x3dbdef6a	0.0927418
5	0xbe8abe30	-0.27098227
6	0x3e1c48c8	0.15262139
7	0xbd268ae4	-0.0406598
8	0xbe56a91b	-0.20962946
9	0x3e48b2c0	0.19599438
10	0x3dd03e98	0.10168189
11	0xbe16ee98	-0.14739454
12	0x3e0ee758	0.13955438
13	0x3e997430	0.29971457
14	0x3d7ef811	0.062248293
15	0x3dc24c86	0.09487252
16	0xbe38d986	-0.18051729
17	0x3e84b734	0.25921023
18	0xbe224693	-0.15847234
19	0x3e39fc40	0.18162632
20	0x3e9bd8e7	0.3043892
21	0xbe71afca	-0.23602214
22	0x3e09582a	0.13412538
23	0xbe7d2d71	-0.24724366
24	0xbd266b47	-0.04062965
25	0xbdd7ad4f	-0.10531103
26	0x3da3fe2a	0.08007462
27	0xbd372834	-0.044716075
28	0x3dbbcde7	0.09170132
29	0x3dddad41	0.10824061
30	0xbe808d8c	-0.25107992
31	0xbcfb98a2	-0.03071243
32	0xbda0a0d8	-0.078431785
33	0x3e178356	0.14796194
34	0xbcc64de1	-0.024207057
35	0xbe292b99	-0.16520537
36	0xbcd593b7	-0.026071412
37	0xbe9165c3	-0.2839795
38	0xbd9f01d4	-0.077640206
39	0x3d0535f0	0.032522142
40	0x3e3244ce	0.1740906
41	0xbbaf0484	-0.0053411145
42	0x3e5653f9	0.2093047
43	0xbd803dd5	-0.062617935
44	0x3e4c62ae	0.19959518
45	0x3dd9d9d9	0.10637254
46	0x3d0e84e1	0.034794692
47	0x3e1c82db	0.15284292
48	0x3bcd8fc5	0.006273242
49	0x3e4b6668	0.19863284
50	0x3e89e845	0.2693502
51	0x3e65deda	0.22448292
52	0x3e8a054a	0.2695716
53	0x3e22c85e	0.15896747
54	0xbdee6e60	-0.11642146
55	0xbe482cfd	-0.19548412
56	0x3e00ec14	0.12590057
57	0x3e5af438	0.21382225
58	0x3dcc7e15	0.09984986
59	0xbe1be2c2	-0.1522322
60	0xbe081bfb	-0.13291924
61	0xbe680206	-0.22657022
62	0xbe85127d	-0.25990668
63	0xbd3471c6	-0.044053815
64	0xbd4b3324	-0.04960932
65	0x3e383937	0.17990576
66	0xbda32a3a	-0.079670385
67	0x3e1cc26b	0.1530854
68	0x3e8705e4	0.26371682
69	0x3e9dc47e	0.30813974
70	0x3e2ce63b	0.16884701
71	0x3d59def8	0.053191155
72	0x3e3730d2	0.17889717
73	0xbe224aba	-0.15848818
74	0xb99ea45c	-0.00030258566
75	0x3e444402	0.19166568
76	0xbe07f194	-0.13275748
77	0x3ea07f2b	0.3134702
78	0xbe227337	-0.15864263
79	0x3dac73ef	0.0842055
80	0x3e8eca83	0.2788888
81	0x3de771f3	0.11301031
82	0xbe3a2ac7	-0.18180381
83	0x3d5fd763	0.05464877
84	0x3cee9b9b	0.029126933
85	0x3e4ac496	0.19801554
86	0x3d5b68cc	0.05356674
87	0x3e0c66da	0.1371111
88	0xbdfaa234	-0.12237969
89	0x3dfdcfa8	0.12393123
90	0x3e82418d	0.25440636
91	0x3e156f49	0.14593233
92	0x3e9e44d8	0.309119
93	0x3e891bb4	0.26778948
94	0xbe2953e2	-0.16535905
95	0x3e039f0c	0.1285364
96	0xbc88f391	-0.016717704
97	0x3bd25900	0.006419301
98	0x3d3040fd	0.043030728
99	0x3df38055	0.11889712
100	0xbd354d51	-0.044263188
101	0xb9d6967b	-0.00040929377
102	0xbe480f7d	-0.19537158
103	0xbdce63d3	-0.10077634
104	0xbe49e3fc	-0.19715875
105	0xbe84be49	-0.25926426
106	0x3dd5aec9	0.10433728
107	0x3e24dc83	0.16099744
108	0xbe409b0b	-0.18809144
109	0x3caa1fe0	0.020767152
110	0xbd20a7f6	-0.03922268
111	0xbe67ebe2	-0.22648576
112	0xbd9f0714	-0.07765022
113	0xbe1681e3	-0.14697985
114	0x3e958bad	0.29208127
115	0x3e62129c	0.22077411
116	0xbe88aa9e	-0.2669267
117	0x3e9c6406	0.30545062
118	0xbe5d54a5	-0.2161432
119	0xbd8ab52d	-0.06772838
120	0xbd6b764d	-0.057485867
121	0xbe8cd286	-0.27504367
122	0x3e81f135	0.2537934
123	0x3e0d2933	0.13785248
124	0xbd93edc2	-0.07223083
125	0xbe0f33de	-0.1398463
126	0x3daf8db7	0.08571952
127	0xbdf373cc	-0.11887321

net.6.bias f4 [2]
0	0x3ce59ade	0.028027948
1	0x3cd25413	0.025674855

exp_avg f4 [64, 4]
0	0xbbc6b586	-0.0060641197
1	0x3cba24bc	0.022722594
2	0x3c308b4d	0.010775399
3	0x3c8add7e	0.016951319
4	0x391d65c8	0.00015010603
5	0x3a67a01b	0.0008835808
6	0xb8ddde5a	-0.000105795174
7	0xba8679c2	-0.0010259675
8	0x3b197ee2	0.0023421575
9	0xba6f8d02	-0.0009138138
10	0xbb2809a0	-0.0025640503
11	0xbc396ad7	-0.0113169765
12	0xbb07866b	-0.0020679485
13	0xb9d6b27e	-0.00040950248
14	0x3b20a68c	0.0024513332
15	0x3c0e6eba	0.008693391
16	0xbb0714c0	-0.0020611733
17	0x3c8cfe6d	0.017211163
18	0x3b234a2d	0.0024916038
19	0xbc5d8549	-0.013520547
20	0xba59c3a7	-0.00083070475
21	0x3bbbf7e1	0.0057363366
22	0x3aa2a32d	0.0012408249
23	0xbb82fd33	-0.003997469
24	0xb72dd202	-1.03605e-05
25	0xb932c3ff	-0.00017048417
26	0xb6d1e9ed	-6.255918e-06
27	0x3929a11b	0.00016177112
28	0x3ae8e231	0.0017767606
29	0xbc97447c	-0.018465273
30	0xbb935eb2	-0.0044973725
31	0x3b708066	0.0036697625
32	0xb69f5a76	-4.7491003e-06
33	0xb49679b7	-2.8028236e-07
34	0x3716427c	8.956176e-06
35	0x372078a9	9.564837e-06
36	0xbb3c9739	-0.002877666
37	0x3a988dd4	0.0011638948
38	0x3b6f35c7	0.003650056
39	0x3c67ad59	0.01414045
40	0x3a8b7f30	0.0010642763
41	0x3af39857	0.001858483
42	0xba939d9f	-0.0011262185
43	0xbbfdeba9	-0.00774904
44	0xbbc35a75	-0.005961711
45	0x3d4a1e67	0.0493454
46	0x3bf97569	0.0076128733
47	0xbd186a01	-0.03721047
48	0xbb90b44a	-0.0044160234
49	0x3c668f1e	0.014072208
50	0x3ba2800a	0.004959111
51	0x3be58f47	0.0070056054
52	0x3a3860d8	0.0007033474
53	0x3b7cd032	0.0038576243
54	0xba1944d1	-0.0005846741
55	0xbbfa167c	-0.007632075
56	0xbc7d1ad0	-0.015448287
57	0x3d3d5fcf	0.04623395
58	0x3cc0ee6a	0.023551185
59	0x3d3df7a5	0.04637875
60	0x39aeb2f1	0.00033321188
61	0xbacdd80a	-0.0015704643
62	0x392f3ab8	0.00016711175
63	0x3b56a460	0.0032751784
64	0xba7c1717	-0.0009616478
65	0xbb98815f	-0.004654094
66	0x3a5a5544	0.00083287456
67	0x3c17d8ce	0.009267999
68	0x39cdded2	0.0003926666
69	0xbb270419	-0.002548462
70	0xb9cbc765	-0.00038867738
71	0x3b2a9db5	0.0026033942
72	0xbbe128f0	-0.006871335
73	0xb9456ae5	-0.00018827205
74	0x3bf1cf05	0.007379415
75	0x3d118d6d	0.035535265
76	0xbbdee80c	-0.0068025645
77	0x3c7f9d19	0.01560142
78	0x3c162207	0.009163386
79	0x3cc13f94	0.023589887
80	0xbc158577	-0.009126059
81	0x3d4ab225	0.049486298
82	0x3c45efb2	0.012081074
83	0xbc88d132	-0.016701315
84	0x3a1ce644	0.000598524
85	0xb9e542bb	-0.00043728002
86	0xba991725	-0.0011679871
87	0xbbb054b1	-0.0053811898
88	0xb98a9d2f	-0.00026438522
89	0xbaf4a303	-0.0018664304
90	0x3948c172	0.0001914555
91	0x3b38bedb	0.002818993
92	0xbc44829a	-0.011994028
93	0x3d337202	0.0438099
94	0x3c89b7b7	0.016811235
95	0x3ca03967	0.019558622
96	0x3a4ded43	0.0007855484
97	0x3ac5cced	0.001509098
98	0xbb0a30c9	-0.0021086207
99	0xbc093908	-0.008375414
100	0xbb33f341	-0.0027458223
101	0x3b91f4f9	0.004454252
102	0x3b8fcdc7	0.0043885442
103	0x3c74e15e	0.01494631
104	0xb73221a0	-1.0617456e-05
105	0xb92fbdfb	-0.00016760074
106	0x36d51405	6.3502252e-06
107	0x397d832f	0.0002417683
108	0xbb7f73e6	-0.0038978993
109	0xbb200b4c	-0.0024420796
110	0x3b65f308	0.0035087485
111	0x3c91161c	0.017710738
112	0xbb07dace	-0.0020729783
113	0x3c8f38d3	0.01748315
114	0x3b13bc33	0.0022542595
115	0xbc6a5e0f	-0.014304652
116	0xbb232f6c	-0.0024900092
117	0xbb959bd9	-0.0045656976
118	0x3b0bf573	0.0021356016
119	0x3c4e6807	0.012598044
120	0xbc6daef6	-0.014507046
121	0x3d4ee1e6	0.050508402
122	0x3c9f0cb0	0.01941523
123	0x3cc65645	0.024211058
124	0x3b7945e8	0.0038036052
125	0xbce7d483	-0.028299576
126	0xbb7a1e1e	-0.0038164924
127	0x3cd1a6a2	0.025592152
128	0x3ae23289	0.0017257492
129	0xba15d7ef	-0.00057160755
130	0xbb207f74	-0.002449003
131	0xbc3408f4	-0.010988463
132	0x37d1552a	2.49544e-05
133	0xba22d684	-0.0006211775
134	0xb88363f8	-6.2651874e-05
135	0x3a997986	0.001170919
136	0x3acc0c8e	0.0015567706
137	0xbb64e1b1	-0.0034924562
138	0xbad93580	-0.001657173
139	0xbb014e9d	-0.0019730695
140	0xbb90e673	-0.004422003
141	0x3c1f1da0	0.009711653
142	0x3be0e009	0.0068626446
143	0x3cb13657	0.021632357
144	0xbbe163b1	-0.006878339
145	0x39cd539a	0.00039162935
146	0x3c0babdd	0.008524862
147	0x3d2c138e	0.042010836
148	0xbb8e5c3a	-0.0043444904
149	0x3cd16342	0.025560025
150	0x3b971f2c	0.0046118703
151	0xbc8f75c0	-0.017512202
152	0xbb3cdb07	-0.0028817074
153	0x3bc61fed	0.0060462863
154	0x3b93aca1	0.004506663
155	0x3c85c320	0.016328394
156	0xbbe248c8	-0.006905649
157	0x3d3ac685	0.04559948
158	0x3c170ea9	0.009219804
159	0xbcb3c749	-0.021945613
160	0x3a1323ff	0.0005612969
161	0x3813fed2	3.528485e-05
162	0xb9e8580d	-0.0004431609
163	0xbaaad1d9	-0.001303251
164	0xbb39f199	-0.0028372763
165	0x3cab280d	0.020893121
166	0x3b847de5	0.004043328
167	0xbc45fb48	-0.012083836
168	0xbb6111e6	-0.0034342944
169	0xba894d4e	-0.0010475309
170	0x3b85a260	0.0040781945
171	0x3ca6795f	0.020321546
172	0xb8ddee63	-0.00010582504
173	0x38886558	6.503862e-05
174	0x390ef709	0.00013634203
175	0xb8147246	-3.5392375e-05
176	0x3aac9e92	0.0013169816
177	0x376b1430	1.4011792e-05
178	0xbaf8b4e2	-0.0018974806
179	0xbc374494	-0.011185784
180	0x3a436360	0.00074534677
181	0xbbb0d5de	-0.0053965887
182	0xba84225b	-0.001008104
183	0x3a92f01d	0.0011210475
184	0xbc27c96a	-0.010240892
185	0x3d65cfa6	0.056106232
186	0x3c727998	0.014799498
187	0xbc48490a	-0.012224445
188	0xbb552edf	-0.0032529158
189	0xbb2ea858	-0.0026650634
190	0x3b60b93d	0.0034290098
191	0x3c8d7774	0.017268874
192	0x3aa08786	0.001224742
193	0x3b8baba0	0.0042624027
194	0xba9a8267	-0.001178813
195	0xbbfbfd34	-0.0076900963
196	0xbbcca757	-0.0062455344
197	0x3cd940d3	0.026520168
198	0x3c00b56b	0.007855753
199	0x39e53ad0	0.00043722102
200	0xbb973ca5	-0.0046153837
201	0xbaccc26d	-0.0015621908
202	0x3bd27d5a	0.0064236345
203	0x3d0f38a0	0.03496611
204	0xbb01ecea	-0.001982505
205	0x3c7d65cf	0.015466168
206	0x3b280169	0.0025635606
207	0xbc22c6b7	-0.009935073
208	0xbb4fa23b	-0.003168239
209	0x38fc96cb	0.00012044384
210	0x3b86180f	0.0040922235
211	0x3c8aaea4	0.016928978
212	0x3ad6aa92	0.0016377738
213	0xbb83f94a	-0.0040275203
214	0xbb6442e7	-0.0034829916
215	0xbc05d96a	-0.008169511
216	0xbaec87da	-0.0018045858
217	0x3c296757	0.01033958
218	0x3b3fae2a	0.0029248097
219	0xbb052124	-0.0020313943
220	0x3aa80bc9	0.0012820895
221	0x3c5bfdb6	0.013427189
222	0xbb30139a	-0.0026867152
223	0xbd0c5b33	-0.03426666
224	0xbb5aad73	-0.0033367544
225	0xbb7e5eac	-0.0038813753
226	0x3b50b5ad	0.0031846568
227	0x3c9ed1c1	0.019387128
228	0xbbecce8f	-0.007226772
229	0x3bb02929	0.0053760004
230	0x3c2638fc	0.010145422
231	0x3d1705a6	0.03687062
232	0xbbc1f7ef	-0.0059194486
233	0x3ca5e1df	0.020249305
234	0x3beb73ef	0.007185451
235	0x3c01a321	0.007912428
236	0x39f95384	0.00047555205
237	0x3baa476b	0.005196502
238	0xb986719c	-0.00025643117
239	0xbc1c70dd	-0.009548393
240	0xbc0ada26	-0.008474862
241	0x3d3edbb9	0.046596263
242	0x3c41c482	0.011826636
243	0xbbf52efa	-0.0074824067
244	0xb7f422ac	-2.9103212e-05
245	0x37a78090	1.9967818e-05
246	0x36cbee29	6.077597e-06
247	0xb90809ca	-0.00012973617
248	0xbb92616c	-0.00446718
249	0x3b2c47b7	0.0026287863
250	0x3bc8556d	0.006113699
251	0x3ceeb9f9	0.029141413
252	0xba3abd10	-0.00071235094
253	0x3b9ba84a	0.004750286
254	0x3a743117	0.0009315176
255	0xbb701d4f	-0.0036638563

exp_avg_sq f4 [64, 4]
0	0x3853f508	5.0534523e-05
1	0x3a9ef092	0.0012126139
2	0x3910b66a	0.00013800865
3	0x3a2367d4	0.0006233428
4	0x36a5d7b0	4.9424925e-06
5	0x3948e79a	0.00019159765
6	0x36d36959	6.300554e-06
7	0x398d4e17	0.00026951797
8	0x36d733a3	6.4135106e-06
9	0x3821c43b	3.8568145e-05
10	0x3712c34d	8.74775e-06
11	0x38b096e0	8.420437e-05
12	0x3870179f	5.7242458e-05
13	0x3a76d24c	0.0009415492
14	0x38bcf83e	9.010777e-05
15	0x3ab7c86c	0.0014021522
16	0x36d815a8	6.4398228e-06
17	0x39af44cd	0.00033429862
18	0x37941a49	1.7655215e-05
19	0x399f179d	0.00030344437
20	0x370f97cc	8.558807e-06
21	0x39744bf0	0.00023297942
22	0x37dd42eb	2.6376414e-05
23	0x394462d1	0.00018728829
24	0x35aed47f	1.3025855e-06
25	0x38ef5d4e	0.000114137874
26	0x3647a6a8	2.9750317e-06
27	0x39378acd	0.00017503947
28	0x3686cb06	4.0171462e-06
29	0x39ac9a69	0.0003292144
30	0x37a8fa83	2.0143814e-05
31	0x398fb327	0.00027408564
32	0x348d44fb	2.6313487e-07
33	0x371c1e53	9.305385e-06
34	0x35620247	8.4194875e-07
35	0x3797cd82	1.80963e-05
36	0x37b9661a	2.2101263e-05
37	0x38fa3a4f	0.0001193179
38	0x381171c1	3.4676636e-05
39	0x39b3871a	0.000342422
40	0x3703fb12	7.866665e-06
41	0x399b46e1	0.00029616713
42	0x3713ab93	8.8018305e-06
43	0x39f655b1	0.0004698462
44	0x37732ac2	1.4493884e-05
45	0x3a31af83	0.00067781674
46	0x3811a32c	3.472266e-05
47	0x3a14d12c	0.0005676921
48	0x37804daf	1.5294963e-05
49	0x39942523	0.0002825643
50	0x37b94663	2.2086495e-05
51	0x3a007f36	0.00049017684
52	0x374ecbd2	1.2326012e-05
53	0x3a09ec6f	0.00052613666
54	0x374fd6e0	1.2388191e-05
55	0x3a605c3c	0.0008558666
56	0x390f9569	0.00013693202
57	0x3b22a50b	0.0024817612
58	0x399108f5	0.0002766323
59	0x3b7ee483	0.0038893528
60	0x36d31cba	6.2916342e-06
61	0x39bf38d1	0.0003647269
62	0x378dfc5c	1.6926024e-05
63	0x39a5c8f8	0.00031620986
64	0x37673823	1.3781743e-05
65	0x39ba83a9	0.0003557478
66	0x378f2c99	1.7067696e-05
67	0x3a3b4f12	0.0007145266
68	0x35771fe2	9.2061066e-07
69	0x395ecdcf	0.0002124824
70	0x36192aaf	2.2823622e-06
71	0x39d20662	0.00040059077
72	0x37df2792	2.6602098e-05
73	0x397d6d83	0.00024168756
74	0x381564a8	3.561811e-05
75	0x3a269549	0.00063546427
76	0x376e0abb	1.4188404e-05
77	0x397880bb	0.00023699079
78	0x38283c82	4.0110674e-05
79	0x397faa27	0.00024382082
80	0x37ba8f15	2.2239556e-05
81	0x39e79ae4	0.00044175156
82	0x386be94f	5.624565e-05
83	0x39af63e9	0.0003345304
84	0x368f0320	4.262096e-06
85	0x38a84497	8.02364e-05
86	0x36f016b4	7.1552004e-06
87	0x3935bee0	0.00017332612
88	0x36bde6d6	5.6595118e-06
89	0x39bc8e80	0.00035964325
90	0x36cc2fbd	6.0852312e-06
91	0x3a14b86b	0.00056732324
92	0x38443e44	4.678803e-05
93	0x3a95d963	0.0011432584
94	0x38c2826a	9.2749324e-05
95	0x3aca8add	0.0015452761
96	0x37c6d0f4	2.370074e-05
97	0x39caaade	0.00038655748
98	0x385adaea	5.217913e-05
99	0x3983875b	0.00025087115
100	0x3860084a	5.341348e-05
101	0x3a8f48ab	0.0010931691
102	0x38c16b88	9.2229864e-05
103	0x3ad5ab1a	0.0016301603
104	0x35ac6581	1.284454e-06
105	0x38a1d5c3	7.7168945e-05
106	0x35f60c03	1.8331924e-06
107	0x390860fc	0.000130061
108	0x3750ac33	1.2437859e-05
109	0x38b8766d	8.795862e-05
110	0x377c35ff	1.5032942e-05
111	0x397f7fdc	0.00024366326
112	0x35f74b5b	1.8424865e-06
113	0x38b1e2e8	8.482282e-05
114	0x36acd04f	5.1502498e-06
115	0x38f8ebf8	0.00011869514
116	0x3827de0e	4.0022707e-05
117	0x39fa2bb9	0.00047716292
118	0x383fa65e	4.569289e-05
119	0x3a65c3a4	0.00087648095
120	0x37d402bd	2.5273644e-05
121	0x39d3ab12	0.00040372513
122	0x389aa90c	7.37478e-05
123	0x3a08dad9	0.0005220599
124	0x3790e6b4	1.7273567e-05
125	0x39f4f464	0.00046721392
126	0x3818f28f	3.6465524e-05
127	0x39c252eb	0.00037064342
128	0x3719e7f2	9.173515e-06
129	0x39944b0e	0.0002828468
130	0x37798b7e	1.4874035e-05
131	0x39f6118e	0.00046933856
132	0x3687c3c8	4.0461055e-06
133	0x389682b4	7.176903e-05
134	0x36a9b87d	5.0580697e-06
135	0x39080dfc	0.0001297518
136	0x3782ae2b	1.5578311e-05
137	0x38b5937e	8.658225e-05
138	0x37d25d0a	2.5077275e-05
139	0x38e1837f	0.00010753329
140	0x37242b28	9.78521e-06
141	0x3978b1dd	0.00023717382
142	0x37e937f9	2.7801829e-05
143	0x39477dbb	0.00019024957
144	0x38674de3	5.514723e-05
145	0x3a81701e	0.0009875332
146	0x38ec5825	0.00011269775
147	0x3ab6821b	0.0013924272
148	0x3741c207	1.1548872e-05
149	0x397613d4	0.00023467775
150	0x37a09a45	1.9145324e-05
151	0x397f58c6	0.00024351766
152	0x36da1d28	6.5003005e-06
153	0x394af382	0.00019354935
154	0x379d7ca9	1.8773908e-05
155	0x3977f47a	0.0002364683
156	0x3776b800	1.4705583e-05
157	0x3a3207c2	0.0006791317
158	0x382cd502	4.1206375e-05
159	0x3a198e52	0.0005857694
160	0x3710298b	8.592741e-06
161	0x39196e85	0.00014632389
162	0x371f408d	9.492168e-06
163	0x398c997a	0.0002681723
164	0x36954ea3	4.4497006e-06
165	0x390fa56e	0.0001369917
166	0x3744be7f	1.1726864e-05
167	0x389c931e	7.4660624e-05
168	0x377883b5	1.4812617e-05
169	0x3969677b	0.00022259161
170	0x37a23d49	1.9340443e-05
171	0x39f7baf6	0.00047250808
172	0x365c2a8a	3.2807316e-06
173	0x38e45e39	0.000108894375
174	0x3664490d	3.4017169e-06
175	0x39498889	0.00019219717
176	0x37c6ddce	2.3706725e-05
177	0x3a0df0b5	0.0005414591
178	0x3822f100	3.884826e-05
179	0x3a7632c9	0.0009391723
180	0x3709b15f	8.207134e-06
181	0x39970d9f	0.00028811113
182	0x37df4956	2.6617821e-05
183	0x39726167	0.00023115204
184	0x3822c2f7	3.8805385e-05
185	0x3a82f942	0.0009992498
186	0x38d8ecec	0.00010343813
187	0x39e4b291	0.0004362059
188	0x380f482c	3.4161072e-05
189	0x3a806b28	0.000979756
190	0x3826b40d	3.974517e-05
191	0x3aec938f	0.0018049347
192	0x37eb79c4	2.8070885e-05
193	0x3a43475c	0.0007449293
194	0x37f59b17	2.9278495e-05
195	0x3aaa85a4	0.0013009799
196	0x3703937b	7.842546e-06
197	0x38a1ef88	7.7216944e-05
198	0x378f7cec	1.71051e-05
199	0x392df9a6	0.00016591567
200	0x384490aa	4.686477e-05
201	0x3a87a341	0.0010348336
202	0x38c1b8d7	9.237386e-05
203	0x3b0a1122	0.002106734
204	0x36c25d6f	5.7925276e-06
205	0x3997a47d	0.00028923518
206	0x38019331	3.089308e-05
207	0x39820ec4	0.00024806533
208	0x37edf403	2.8366228e-05
209	0x39a69196	0.00031770457
210	0x3818b213	3.640547e-05
211	0x3a223d3b	0.00061889336
212	0x3791f362	1.7398681e-05
213	0x39b388db	0.00034243506
214	0x38359506	4.329255e-05
215	0x39d7bb97	0.0004114776
216	0x36e5c918	6.848142e-06
217	0x392d656a	0.00016536345
218	0x37831bd3	1.5629374e-05
219	0x3934c1d3	0.00017238343
220	0x382309b4	3.8871265e-05
221	0x3a39913e	0.0007078833
222	0x38ae7ddb	8.320409e-05
223	0x3a487dcc	0.000764814
224	0x37bddfd4	2.2634784e-05
225	0x397e1d16	0.00024234163
226	0x37d72f5c	2.565205e-05
227	0x3a0a231d	0.00052695145
228	0x383ca0c2	4.497241e-05
229	0x3a2175f9	0.0006159242
230	0x38b2fa00	8.5342675e-05
231	0x3aa55fa3	0.0012617003
232	0x373aff21	1.1145866e-05
233	0x39908af2	0.00027569343
234	0x37a437ea	1.957636e-05
235	0x399b07a3	0.00029569594
236	0x363801fd	2.7419294e-06
237	0x394c12cf	0.00019461963
238	0x37b3c505	2.1430207e-05
239	0x39539256	0.00020177042
240	0x36c37a4b	5.8256896e-06
241	0x39a1ae67	0.00030838253
242	0x3805a0c1	3.1859385e-05
243	0x39642e38	0.00021760992
244	0x36d1569b	6.2387676e-06
245	0x3a13467e	0.0005618109
246	0x372eec88	1.042628e-05
247	0x3a61d09f	0.0008614156
248	0x36d87ea8	6.4520464e-06
249	0x38b9345a	8.831239e-05
250	0x37b89ab7	2.2006554e-05
251	0x39987866	0.00029081403
252	0x365bc644	3.2748949e-06
253	0x39286ee9	0.00016063046
254	0x37115e57	8.664639e-06
255	0x38f4936c	0.00011662286

exp_avg f4 [64]
0	0xbe28f603	-0.16500096
1	0x3b294b2c	0.002583216
2	0x3dac50c3	0.084138416
3	0xbd1551f7	-0.03645512
4	0xbd88bc85	-0.06676582
5	0xbc97852d	-0.01849612
6	0xba337238	-0.0006845328
7	0x3d5c36cb	0.053763192
8	0x3912de25	0.000140064
9	0xbda75de5	-0.08172206
10	0x3d25604e	0.040375046
11	0xbe48ec9b	-0.19621508
12	0xbe38c8e8	-0.1804539
13	0x3c8fa2da	0.017533708
14	0xbf007625	-0.50180274
15	0x3c97f60b	0.01854994
16	0xbcaff2bb	-0.021478048
17	0x3c0ae04f	0.008476331
18	0xbe786a19	-0.24259223
19	0xbe81edf7	-0.25376865
20	0xbe97e0d8	-0.2966373
21	0x3cb1e18f	0.021714
22	0xbbc3bb32	-0.005973243
23	0xbedd2e3e	-0.43199342
24	0xbc801137	-0.015633209
25	0xbdaa291c	-0.08308622
26	0xb94900ae	-0.00019169107
27	0xbdf4b4f0	-0.119485736
28	0xbdb09330	-0.08621824
29	0xbd7015ad	-0.05861442
30	0xbf0787b8	-0.52941465
31	0x3dffb0dd	0.12484906
32	0x3d706949	0.058694158
33	0xbb2164df	-0.0024626774
34	0x3d4d774f	0.05016261
35	0xbe1cff41	-0.15331747
36	0xbe825a30	-0.25459433
37	0xbe15cb82	-0.14628413
38	0xbde52c40	-0.11190081
39	0xbe749ec8	-0.23888695
40	0x3c5c465d	0.01344451
41	0xbdaa3a40	-0.083118916
42	0xbddf058e	-0.10889731
43	0x39b36b27	0.00034221375
44	0x3d7c2cde	0.061566226
45	0x3d1e3971	0.038629
46	0xbea3dc2f	-0.32003924
47	0xbdba1889	-0.09086711
48	0x3c89dfc1	0.016830327
49	0xbe6c3fd2	-0.2307122
50	0xbe297d2e	-0.16551659
51	0xbd870376	-0.06592457
52	0xbda94273	-0.08264627
53	0x3cbeb856	0.023281258
54	0xbd3bd671	-0.045858804
55	0x3d41cea9	0.047316227
56	0xbddf70b1	-0.10910166
57	0xbe4879e1	-0.19577743
58	0xbe6b5ec5	-0.2298537
59	0x3cd277a4	0.025691815
60	0xbea0895c	-0.31354797
61	0xba83528f	-0.0010019111
62	0xbe2e8d92	-0.17046192
63	0xbc3907bd	-0.011293349

exp_avg_sq f4 [64]
0	0x3bb50e72	0.0055254037
1	0x3ae6bd8a	0.0017604094
2	0x3a4a13ff	0.0007708668
3	0x3c171e33	0.009223509
4	0x3b1b343a	0.0023682253
5	0x3aab729f	0.0013080424
6	0x3a709c72	0.00091785856
7	0x3ac2aa0d	0.0014851704
8	0x394f37cc	0.00019761844
9	0x3b126e0c	0.0022343425
10	0x3adecb87	0.0016997912
11	0x3ba8b4d7	0.005148511
12	0x3b2c3873	0.0026278764
13	0x3b4a1008	0.003083231
14	0x3ca4217b	0.020035496
15	0x3abd1fc6	0.0014429025
16	0x3b1712ef	0.0023052057
17	0x3a99260a	0.001168431
18	0x3bb0102e	0.0053730225
19	0x3b7631f0	0.0037566386
20	0x3ba233a9	0.004950006
21	0x3a4bcde7	0.0007774517
22	0x3acb7176	0.0015521485
23	0x3c23cd08	0.009997614
24	0x3b3f3b43	0.002917961
25	0x3c18e0a2	0.0093309
26	0x39e1b194	0.0004304765
27	0x3ae95b80	0.0017803758
28	0x3afc2f7c	0.0019240226
29	0x3b9f0a9c	0.0048535597
30	0x3c191383	0.009343031
31	0x3b699970	0.0035644434
32	0x3ac81edd	0.0015267987
33	0x3a24effb	0.00062918634
34	0x3ab747a1	0.0013983139
35	0x3b0f32f8	0.0021850448
36	0x3c0dddb4	0.008658815
37	0x3b17445e	0.0023081522
38	0x3ae75748	0.0017649913
39	0x3b91d613	0.0044505685
40	0x3a9a4f2e	0.0011772865
41	0x3a840865	0.0010073303
42	0x3afdf225	0.0019374533
43	0x3a0708da	0.00051511603
44	0x3b9595e2	0.0045649866
45	0x3af6b620	0.0018822588
46	0x3bb76b35	0.005597497
47	0x3ba255db	0.0049540824
48	0x3b6d9abe	0.0036255564
49	0x3afd2024	0.0019311947
50	0x3c08715e	0.00832781
51	0x3b11e947	0.0022264288
52	0x3b5710ad	0.0032816336
53	0x3b162b3a	0.0022913949
54	0x3ab41081	0.0013737829
55	0x3be12d9a	0.006871891
56	0x3b2ae787	0.0026077942
57	0x3bbed6cf	0.005823947
58	0x3b26c939	0.0025449528
59	0x3b029653	0.0019926026
60	0x3b6a199c	0.003572083
61	0x3b73690a	0.0037141466
62	0x3b15774a	0.0022806698
63	0x3a49432a	0.000767755

exp_avg f4 [64, 64]
0	0x39594767	0.00020721332
1	0x38dcf3fe	0.000105358646
2	0x39c352cd	0.0003725499
3	0x39a16cb6	0.0003078931
4	0x37dd358b	2.6370186e-05
5	0x3809e186	3.287338e-05
6	0x37d62148	2.5526286e-05
7	0x367d427f	3.7738644e-06
8	0x3707397f	8.060014e-06
9	0x39ef9d29	0.00045702726
10	0x39f45172	0.00046599988
11	0x37e51615	2.730921e-05
12	0x3882109a	6.201975e-05
13	0x3888e3cd	6.5274166e-05
14	0x38f7ee20	0.00011822232
15	0x37682983	1.3837943e-05
16	0x39041799	0.00012597292
17	0x36c2c904	5.805052e-06
18	0x39f4efd8	0.00046718004
19	0x389ee6b5	7.5769996e-05
20	0x37f53348	2.9230156e-05
21	0x3a241f91	0.0006260807
22	0x38a22806	7.732217e-05
23	0x39953c92	0.00028464623
24	0x372fe603	1.0484367e-05
25	0x3a5ec2bd	0.0008497646
26	0x37fbd5d0	3.0021096e-05
27	0x39dd6b87	0.0004223252
28	0x373df36a	1.1321952e-05
29	0x397622e1	0.00023473382
30	0x374d8763	1.2250474e-05
31	0x370042ad	7.644919e-06
32	0x39b02fb0	0.00033604866
33	0x39584667	0.00020625592
34	0x3726cd89	9.942226e-06
35	0x39a2e276	0.00031067774
36	0x3a0b1034	0.00053048437
37	0x37e7cac4	2.7631766e-05
38	0x3a282a35	0.0006414981
39	0x371710c0	9.004201e-06
40	0x38c224a2	9.257464e-05
41	0x3880df1a	6.1450715e-05
42	0x3a84feeb	0.0010146772
43	0x39676361	0.00022066898
44	0x3972120b	0.0002308564
45	0x375a5d57	1.3015545e-05
46	0x37121636	8.7074495e-06
47	0x3a357759	0.0006922386
48	0x39d077a0	0.0003976198
49	0x37d3b724	2.5238442e-05
50	0x396f850b	0.00022842379
51	0x372cfba2	1.0310587e-05
52	0x3a1400bf	0.0005645863
53	0x39224a1a	0.00015477129
54	0x3976b5e8	0.00023528154
55	0x37bcd069	2.2508395e-05
56	0x3904ae67	0.00012653471
57	0x3a544b68	0.00080983946
58	0x393c9de8	0.00017987902
59	0x377d84ac	1.5110865e-05
60	0x36a63205	4.9530086e-06
61	0x37f508b3	2.9210327e-05
62	0x39419284	0.00018460496
63	0x37835bda	1.5659189e-05
64	0x3af0f801	0.0018384458
65	0x00000000	0.0
66	0x3867be6f	5.5252047e-05
67	0x3789a2b2	1.6407434e-05
68	0xba73b798	-0.0009297072
69	0xb9fff9c5	-0.00048823483
70	0x00000000	0.0
71	0x39f66e25	0.0004700284
72	0x00000000	0.0
73	0x00000000	0.0
74	0x00000000	0.0
75	0x3a6fa147	0.00091411587
76	0x3a852f64	0.0010161218
77	0x00000000	0.0
78	0x3ab23535	0.0013596179
79	0xba41f5f8	-0.0007399018
80	0x00000000	0.0
81	0x00000000	0.0
82	0x00000000	0.0
83	0x3a76ae6e	0.00094101473
84	0xba7085ec	-0.00091752294
85	0x00000000	0.0
86	0x00000000	0.0
87	0x3b02a7bb	0.00199364
88	0x3a9dab10	0.001202913
89	0x38d42b84	0.00010117053
90	0x00000000	0.0
91	0x00000000	0.0
92	0xb9b2f292	-0.00034131535
93	0x00000000	0.0
94	0x3a473caa	0.0007600287
95	0xba05abeb	-0.0005099165
96	0x38ddb25e	0.00010571325
97	0x00000000	0.0
98	0x39a16729	0.00030785173
99	0x00000000	0.0
100	0x3958e7bf	0.00020685697
101	0xba371768	-0.0006984384
102	0x38979059	7.227128e-05
103	0xb861695d	-5.3742308e-05
104	0x00000000	0.0
105	0x3a8738d6	0.0010316621
106	0x00000000	0.0
107	0x00000000	0.0
108	0x00000000	0.0
109	0x3b1eeab6	0.0024248785
110	0x3a9625c8	0.0011455351
111	0x00000000	0.0
112	0x00000000	0.0
113	0x3a996768	0.0011703791
114	0x00000000	0.0
115	0x39e643e4	0.000439196
116	0x3835e9bc	4.3371445e-05
117	0x38a3582d	7.78887e-05
118	0x399bc093	0.00029707383
119	0x3a23a7c8	0.0006242958
120	0x00000000	0.0
121	0x39c6f50e	0.00037948083
122	0x00000000	0.0
123	0x39b1a27a	0.00033881125
124	0x3a585c4e	0.00082535006
125	0x00000000	0.0
126	0x00000000	0.0
127	0x38f6f47b	0.00011775732
128	0x3a5d7348	0.0008447659
129	0x399521b3	0.00028444603
130	0x3b1e08e7	0.0024114193
131	0x3b0f2328	0.0021841023
132	0x37998c2d	1.8304296e-05
133	0x37b09ef1	2.1054848e-05
134	0x381cb446	3.736119e-05
135	0x394e903e	0.00019699425
136	0x3693b29f	4.4017356e-06
137	0x3b2f3df0	0.0026739798
138	0x3b32c2b2	0.0027276692
139	0x3a8ab35f	0.0010582021
140	0x3a25ff2d	0.00063322746
141	0x39b2678c	0.00034027954
142	0x3ad6477e	0.0016348211
143	0x374638a1	1.1814905e-05
144	0x3a62290d	0.0008627333
145	0x368003dd	3.815147e-06
146	0x3b6adc61	0.0035836922
147	0x3a42077c	0.0007401628
148	0x3ad23d2f	0.0016039963
149	0x3b698811	0.003563408
150	0x3a0a2cb7	0.0005270945
151	0x3b331454	0.002732535
152	0x3a83108e	0.000999944
153	0x3ba51751	0.00503818
154	0x3899b7b6	7.329827e-05
155	0x3b27cf9b	0.002560592
156	0x36e48d50	6.8113804e-06
157	0x3b032091	0.0020008425
158	0x3a8283bd	0.0009957474
159	0x3614fb6a	2.220006e-06
160	0x3b2d4136	0.0026436574
161	0x3a7880c8	0.0009479639
162	0x3a5c70b8	0.00084091304
163	0x3b15fd0f	0.002288643
164	0x3b4aa877	0.0030923167
165	0x39bd767c	0.00036137167
166	0x3b72265d	0.0036949136
167	0x36d09d3f	6.217189e-06
168	0x39ced9c4	0.0003945363
169	0x3a16c219	0.00057509687
170	0x3bc2984f	0.0059385668
171	0x3aa29b7f	0.0012405961
172	0x3b04d9a8	0.0020271335
173	0x3aca6f38	0.0015444523
174	0x3a980dfe	0.001160085
175	0x3b98bdb9	0.0046612886
176	0x3add6639	0.0016891427
177	0x3a5fd63f	0.00085387
178	0x3ae26b64	0.0017274437
179	0x36d88f58	6.453989e-06
180	0x3b801d3f	0.0039097364
181	0x39eff5b4	0.00045768695
182	0x3ad62d84	0.0016340469
183	0x3aa1b51f	0.0012337303
184	0x3aa801e9	0.0012817952
185	0x3ba4ef45	0.005033406
186	0x3a61e75e	0.0008617545
187	0x39cc4c67	0.00038966836
188	0x3a1ee751	0.00060616905
189	0x386d257e	5.654012e-05
190	0x3abc2429	0.0014354038
191	0x391784d1	0.0001444996
192	0xbc539b57	-0.012915454
193	0xb8c35108	-9.313418e-05
194	0xbb75bcde	-0.0037496607
195	0xbbae255b	-0.0053145117
196	0xbc17b8a5	-0.009260331
197	0xbc299cbd	-0.010352311
198	0xb76aee87	-1.4003023e-05
199	0xba9e5bef	-0.0012081842
200	0xb651d78c	-3.1268892e-06
201	0xbba4f9de	-0.0050346693
202	0xbadf6af7	-0.0017045428
203	0xbc6497d5	-0.013952215
204	0xbbb6bd7e	-0.0055767884
205	0xb91e54a2	-0.00015099582
206	0xbc16b970	-0.009199485
207	0xbae775e4	-0.0017659036
208	0xb9d61357	-0.0004083167
209	0xb817a579	-3.6155314e-05
210	0xbba89ff8	-0.005146023
211	0xbc2f8f77	-0.010715357
212	0xbc9d3358	-0.019189522
213	0xbb137540	-0.0022500306
214	0xb97feaa8	-0.00024406111
215	0xbc8169d6	-0.015797537
216	0xbbf5a721	-0.00749673
217	0xbc239f3e	-0.009986697
218	0xb7dbc2a7	-2.6197476e-05
219	0xbb6f7fd5	-0.00365447
220	0xba649f0a	-0.00087212084
221	0xbb6cf007	-0.003615381
222	0xbc98cb9b	-0.018651774
223	0xbb4b9024	-0.0031061256
224	0xbb837bd9	-0.0040125665
225	0xb9db8599	-0.00041870473
226	0xbc156282	-0.009117724
227	0xbbf256dd	-0.007395609
228	0xbc066021	-0.00820163
229	0xbbaafea7	-0.005218345
230	0xbbcefddd	-0.006316884
231	0xbc3294a8	-0.0108997
232	0xb98d4d29	-0.00026951105
233	0xbc0e952b	-0.008702557
234	0xbc162889	-0.009164938
235	0xba196791	-0.00058519194
236	0xbba12a05	-0.004918339
237	0xbc6450db	-0.013935293
238	0xbc9d79c2	-0.019223098
239	0xbbf4484c	-0.0074549075
240	0xba71c367	-0.00092225376
241	0xbc0f1241	-0.008732379
242	0xbb4c647f	-0.003118783
243	0xbb88ba7c	-0.0041726213
244	0xbc038c0e	-0.008028997
245	0xba32b3ae	-0.00068169355
246	0xbbbd3dda	-0.0057751955
247	0xbc3579fb	-0.011076446
248	0xbb1ca7a3	-0.002390363
249	0xbc30ffd6	-0.010803184
250	0xbc3656c2	-0.011129083
251	0xbb189e82	-0.0023287837
252	0xbc4b17eb	-0.012395839
253	0xb7852673	-1.587274e-05
254	0xbb23f087	-0.0025015192
255	0xbb3dec7f	-0.0028980074
