gen_0_agent_3.pt (torch, 64207 bytes, 18 tensors)

net.0.weight f4 [64, 4]
-0.16571958 0.14797181 -0.19112322 -0.23686118 -0.08484394 0.04767219 0.20221634 0.17087525
0.17239816 -0.005136481 0.28424302 0.26039195 0.27845886 0.1978047 -0.13684411 0.033895
0.1110266 -0.023221707 -0.26778716 -0.32832816 0.23860559 -0.2679393 -0.17982538 -0.24015586
0.15747488 0.2031468 0.16145568 0.25473714 0.27862805 -0.12331415 0.11429241 0.12018649
-0.2335472 0.2843323 0.17248844 0.26053518 -0.2396119 -0.096487634 0.043014124 0.07448535
-0.08071132 0.064006805 -0.15567414 -0.098137766 -0.24269836 0.08284004 -0.18841958 -0.030685887
-0.2346402 -0.10224377 0.10647695 0.09596246 -0.25472373 -0.054213542 0.093050756 -0.31885552
0.25009334 -0.11305167 -0.11467157 0.12737998 -0.024902292 -0.13813412 -0.18896975 -0.19943269
-0.19978076 -0.08955892 0.09806657 -0.009801078 -0.11997343 0.2910838 0.064993605 0.2924958
-0.19384772 -0.17530648 -0.1402666 -0.19217451 0.3082584 0.12692869 -0.06545743 0.06532749
0.22147365 0.2271099 -0.12300146 -0.0012179567 0.07240061 0.12919031 -0.0026868435 0.15441415
0.0638222 0.019265326 0.1444005 -0.24239272 0.1666481 0.055588633 -0.095937885 0.19421704
-0.081534065 0.1563108 -0.1698969 -0.03757629 -0.07011971 0.10036355 -0.21644521 -0.26447797
-0.14975229 -0.018940497 0.11779781 0.25131142 0.31019142 -0.15796097 -0.3216842 -0.30325302
-0.16394167 0.3081077 0.053979922 0.17914616 -0.20940529 0.04587087 0.056995828 0.077010244
0.15399894 0.082417704 0.12273267 -0.04296479 -0.23997773 -0.2092098 -0.26431528 -0.0674138
-0.3058099 0.23955595 -0.020250052 0.047233745 0.18905622 -0.23972678 0.090799674 0.1404231
-0.25451145 -0.18902422 0.13654298 0.24397221 0.1596444 0.17720911 0.0052853324 0.2687721
-0.029741252 -0.27628672 -0.20204565 -0.19823246 -0.24862175 0.232769 0.1326694 -0.10800705
-0.083588265 -0.10847728 -0.22240847 0.1983918 0.051600475 0.21519397 -0.11072158 -0.025239933
0.07443679 0.05633542 0.042751845 -0.21546806 -0.051617734 0.15794097 -0.23386611 -0.27502248
-0.2066654 0.26702252 0.009290146 -0.001558922 0.24189436 0.0052099875 0.09408973 -0.15260778
-0.2012946 -0.21883486 -0.24773745 0.1943802 0.02652833 -0.0075754113 -0.18040253 -0.15102129
0.11031522 -0.2702324 0.08528371 -0.27971467 0.16849792 0.23898095 0.16348635 -0.17448531
0.18186311 0.07499891 0.025937887 0.21716946 0.10266043 0.28415418 0.2656053 0.054008465
0.031056782 0.029682517 -0.27840155 -0.28482836 -0.15479784 0.083909295 -0.15509559 -0.30024338
-0.0031926194 0.23542406 0.120538406 -0.12133468 -0.159564 0.12803186 -0.23049125 -0.29170004
-0.23338348 -0.07311189 -0.12992388 0.15289451 0.21651648 -0.14139271 0.1980544 0.2948311
-0.12445589 0.17716587 -0.13942589 -0.28998294 0.21013407 0.26713124 -0.010611547 -0.15308116
0.07824544 -0.10548738 -0.1833621 -0.06981845 0.15540504 -0.20454599 0.10901322 0.009931326
0.02491334 0.12366358 0.055103038 0.026873238 -0.26387817 0.25883454 -0.014576936 -0.007234912
-0.018819192 -0.10970148 0.2153444 0.11205115 0.056893714 -0.24115774 0.25865746 0.14041041
00000000: 65b2 29be ec85 173e ceb5 43be bd8b 72be
00000010: a9c2 adbd ea43 433d cd11 4f3e ecf9 2e3e
00000020: 2589 303e ed4f a8bb 4d88 913e 1852 853e
00000030: 2992 8e3e 518d 4a3e dd20 0cbe 7cd5 0a3d
00000040: ea61 e33d 733b bebc 661b 89be a11a a8be
00000050: 0655 743e 572f 89be 2524 38be 6beb 75be
00000060: 1841 213e b705 503e a354 253e e86c 823e
00000070: 56a8 8e3e 218c fcbd 2412 ea3d 5624 f63d
00000080: ff26 6fbe 0194 913e cfa0 303e de64 853e
00000090: d25c 75be 4f9b c5bd 942f 303d c68b 983d
000000a0: fa4b a5bd 0016 833d 0b69 1fbe 74fc c8bd
000000b0: eb85 78be 0aa8 a93d 10f1 40be f860 fbbc
000000c0: 8545 70be 2f65 d1bd 9610 da3d f787 c43d
000000d0: 266b 82be 050f 5ebd 6591 be3d 0841 a3be
000000e0: 3c0c 803e a287 e7bd eed8 eabd e66f 023e
000000f0: e4ff cbbc 0873 0dbe 4981 41be 1538 4cbe
00000100: 5493 4cbe ab6a b7bd 20d7 c83d b394 20bc
00000110: a1b4 f5bd f008 953e 5e1b 853d 02c2 953e
00000120: 0480 46be 8b83 33be 0ca2 0fbe 65c9 44be
00000130: 0cd4 9d3e 98f9 013e 8c0e 86bd 6bca 853d
00000140: fdc9 623e 7f8f 683e 31e8 fbbd d8a3 9fba
00000150: c546 943d 774a 043e c115 30bb be1e 1e3e
00000160: 37b5 823d 51d2 9d3c badd 133e cc35 78be
00000170: cda5 2a3e e8b0 633d 157b c4bd d5e0 463e
00000180: 55fb a6bd f00f 203e 74f9 2dbe 99e9 19bd
00000190: ec9a 8fbd 688b cd3d d0a3 5dbe a869 87be
000001a0: aa58 19be 1a29 9bbc fa3f f13d e4ab 803e
000001b0: 69d1 9e3e 85c0 21be cbb3 a4be fb43 9bbe
000001c0: 53e0 27be 4bc0 9d3e 0d1a 5d3d 1772 373e
000001d0: 576e 56be 18e3 3b3d 7574 693d 8cb7 9d3d
000001e0: e6b1 1d3e 9dca a83d 445b fb3d d9fb 2fbd
000001f0: b9bc 75be 183b 56be 5554 87be 3f10 8abd
00000200: 1d93 9cbe 284e 753e 70e3 a5bc 2c78 413d
00000210: f497 413e f07a 75be 2ef5 b93d 13cb 0f3e
00000220: 534f 82be 918f 41be ecd1 0b3e dad3 793e
00000230: d279 233e 4e76 353e 9530 ad3b 7f9c 893e
00000240: eda3 f3bc 7475 8dbe 0ee5 4ebe 73fd 4abe
00000250: b396 7ebe ff5a 6e3e 7dda 073e cd32 ddbd
00000260: 5330 abbd 5629 debd 0cbf 63be 3827 4b3e
00000270: 055b 533d cf5b 5c3e ffc1 e2bd fac3 cebc
00000280: 5172 983d f8bf 663d 8f1c 2f3d a9a3 5cbe
00000290: 1e6d 53bd 47bb 213e 997a 6fbe bfcf 8cbe
000002a0: 18a0 53be 2db7 883e b235 183c be54 ccba
000002b0: 28b3 773e 8bb8 aa3b 1eb2 c03d 3745 1cbe
000002c0: 2c20 4ebe 3f16 60be e3ae 7dbe 9a0b 473e
000002d0: f151 d93c 283b f8bb 71bb 38be 53a5 1abe
000002e0: f2ec e13d e75b 8abe 3aa9 ae3d c336 8fbe
000002f0: b88a 2c3e 6cb7 743e f768 273e 47ac 32be
00000300: 533a 3a3e 0799 993d b17b d43c ac61 5e3e
00000310: a23f d23d a87c 913e 6bfd 873e fb37 5d3d
00000320: cb6a fe3c c028 f33c a68a 8ebe 06d5 91be
00000330: 5383 1ebe a3d8 ab3d 61d1 1ebe 80b9 99be
00000340: 443b 51bb 0113 713e d7dc f63d 517e f8bd
00000350: bf64 23be c91a 033e e605 6cbe b559 95be
00000360: 14fc 6ebe b0bb 95bd c40a 05be 6190 1c3e
00000370: 7fb6 5d3e 40c9 10be c6ce 4a3e 1af4 963e
00000380: bbe2 febd f86a 353e a9c5 0ebe a578 94be
00000390: 632d 573e 6dc5 883e 0edc 2dbc 4fc1 1cbe
000003a0: 253f a03d c409 d8bd 46c3 3bbe fafc 8ebd
000003b0: 8022 1f3e 8174 51be 5342 df3d 00b7 223c
000003c0: 1017 cc3c 5543 fd3d b9b3 613d 4425 dc3c
000003d0: 0a1b 87be f685 843e 1ad4 6ebc d712 edbb
000003e0: b52a 9abc 2bab e0bd 3e83 5c3e 137b e53d
000003f0: 6209 693d 0ef2 76be c06e 843e bfc7 0f3e

net.0.bias f4 [64]
0.06436532 -0.007007016 0.0024118205 0.036386464 0.05450499 0.029454704 0.018869093 0.028483596
0.010443412 -0.013381343 0.023308268 -0.025492096 0.015895037 0.050530545 -0.010866552 0.055037726
-0.007512074 -0.009590313 -0.036359105 0.04472087 0.04435415 0.0121373385 0.053213514 0.0018326354
0.042760916 0.0138271 -0.011730986 0.06111868 0.037739556 0.025675364 0.04342817 -0.0068187974
-0.040139474 0.025632117 0.005427293 0.0004393519 -0.020764444 0.005818264 -0.0016568594 0.005565079
0.052661393 0.0036969646 -0.021554861 0.04734777 -0.0023372394 0.017591912 0.044360973 0.059583787
-0.011735244 0.05091776 -0.010832549 0.05504102 -0.014556944 0.015902234 0.013460967 0.01168268
0.053429626 0.03207096 -0.02445369 -0.01167589 -0.030755198 0.050608505 -0.007007015 0.0043447353
00000000: f7d1 833d 1c9b e5bb a20f 1e3b f909 153d
00000010: a040 5f3d fe4a f13c 5b93 9a3c 6e56 e93c
00000020: d81a 2b3c 6c3d 5bbc fbf0 be3c cdd4 d0bc
00000030: 4f36 823c 1ef9 4e3d 9f09 32bc 3d6f 613d
00000040: d827 f6bb b020 1dbc 49ed 14bd 3b2d 373d
00000050: b2ac 353d b0db 463c 6af6 593d 0a35 f03a
00000060: 1226 2f3d 108b 623c 5233 40bc 9557 7a3d
00000070: cb94 1a3d 2455 d23c bde1 313d 3870 dfbb
00000080: 4a69 24bd 72fa d13c 6fd7 b13b d058 e639
00000090: 321a aabc 23a7 be3b fa2a d9ba 445b b63b
000000a0: 79b3 573d c648 723b d293 b0bc bcef 413d
000000b0: 5f2c 19bb ea1c 903c dab3 353d 210e 743d
000000c0: 2e45 40bc 248f 503d 017b 31bc b172 613d
000000d0: 4080 6ebc 6745 823c 638b 5c3c b668 3f3c
000000e0: 06d9 5a3d d75c 033d 1b53 c8bc 3b4c 3fbc
000000f0: 53f2 fbbc dd4a 4f3d 1a9b e5bb 485e 8e3b

net.3.weight f4 [64, 64]
0.14499363 -0.16609628 -0.18032248 0.13976271 -0.044322193 0.08228167 -0.016992465 -0.066737525
0.14970288 -0.009222268 0.09418351 0.25254843 -0.12008572 0.2231283 0.19002773 0.17634735
-0.06471461 0.019064792 -0.1752963 0.1711972 0.22902624 0.037219357 0.08732541 -0.13758956
-0.062116485 0.07184703 -0.035171036 0.17278147 -0.019205317 0.05647504 -0.01098861 -0.18739456
-0.17299838 0.0048819794 0.09241222 0.052503046 0.0047933995 0.21920633 -0.14573279 0.0440521
0.20166616 -0.07647053 -0.035602577 0.1657123 0.21038802 -0.09939642 0.14825517 0.17436099
0.051213335 0.25240615 0.09303798 0.13656886 -0.12742758 0.22952175 0.16233732 -0.11075397
0.02003253 0.212317 0.018284922 0.07332763 -0.15761119 0.19867983 -0.15896787 0.11330859
-0.15610845 -0.16784498 -0.11402809 0.1500611 -0.20966701 -0.22593722 -0.022448778 0.17280553
-0.17176983 -0.16013041 0.029974096 -0.050308395 0.20951457 -0.11454017 -0.1892119 0.11831592
-0.089732125 0.044214055 0.0520797 0.059324503 -0.116628714 0.06694417 0.09958925 -0.1642151
-0.016436549 -0.061369523 0.046008125 0.10781437 0.041242726 0.14372335 -0.2103404 0.073362656
0.07885416 0.06712286 0.178014 -0.057971224 0.03335547 -0.040280167 0.044297382 0.16177277
-0.19500364 -0.15577237 0.17214383 0.02163952 -0.12463967 0.106647335 -0.22328334 -0.1885452
-0.085225806 -0.13851704 0.019085953 0.1519624 0.15199561 -0.006501239 -0.15208048 0.09432332
0.059031952 0.070228145 -0.10472361 0.075902626 -0.18558115 -0.20040998 -0.2093645 0.014081672
-0.031917475 -0.1132792 -0.05389924 0.0963618 -0.122251324 0.051742382 0.20632018 -0.16504346
-0.06358729 0.052494362 -0.16459835 0.08204104 -0.012291342 -0.15938884 0.08166082 0.06599079
0.20069714 0.038302675 0.00422363 -0.12939458 -0.13391577 0.19154222 -0.06674102 -0.13294078
-0.08143329 0.046014383 -0.09948117 -0.004529416 0.05114345 -0.03424847 -0.19026446 -0.161384
-0.10870639 -0.14151618 -0.20269774 0.1980288 -0.049500436 -0.1651062 0.12472906 -0.094484314
-0.12983426 -0.058633894 0.17044912 0.08368784 -0.020053117 0.02122736 -0.05400002 -0.030506182
0.16603944 0.05163853 -0.17761984 0.1873041 0.17985962 -0.064841196 0.09125403 0.07486442
-0.16882958 -0.17522126 0.12970391 -0.19155523 -0.043333337 -0.06380294 -0.061393037 0.038573608
0.13662037 -0.057353187 0.1677962 0.1983177 -0.124131106 0.19807571 0.09917016 0.17945829
0.11065063 0.072701134 -0.115086116 -0.1637833 -0.08312579 0.1135999 0.14342795 -0.1876956
0.096598394 0.119502716 0.10791869 -0.1855871 0.008611169 -0.11838162 0.17332311 -0.16969524
-0.10534968 -0.0053668804 0.16121945 -0.1319899 0.06801795 -0.02839372 0.117323264 -0.15090893
-0.020069692 0.13925585 -0.018203244 0.1655793 0.027854718 -0.113609 -0.16849957 -0.07064684
0.024835533 -0.07900362 -0.17414764 -0.06887808 0.05865524 0.030951563 -0.19463392 0.101337396
-0.20203747 -0.21323134 0.04800348 -0.06715013 -0.19621609 0.13863441 -0.110910214 -0.057729736
-0.1307179 0.0837671 -0.0114464555 0.042262483 0.20102075 -0.19528344 -0.05379586 -0.18831079
00000000: 3679 143e 2515 2abe 75a6 38be f51d 0f3e
00000010: 308b 35bd 4b83 a83d c833 8bbc afad 88bd
00000020: b64b 193e ff18 17bc 49e3 c03d 074e 813e
00000030: 81ef f5bd bf7b 643e a196 423e 6694 343e
00000040: 1889 84bd c42d 9c3c e080 33be 524e 2f3e
00000050: db85 6a3e 5373 183d aad7 b23d 47e4 0cbe
00000060: db6d 7ebd 8924 933d 810f 10bd a0ed 303e
00000070: 7854 9dbc 5f52 673d 9209 34bc 5ce4 3fbe
00000080: 7d26 31be 03f9 9f3b 9e42 bd3d 6f0d 573d
00000090: f311 9d3b a077 603e fa3a 15be fa6f 343d
000000a0: 9381 4e3e 959c 9cbd 02d4 11bd 7cb0 293e
000000b0: f56f 573e 5a90 cbbd 34d0 173e b08b 323e
000000c0: 13c5 513d 613b 813e b28a be3d b5d8 0b3e
000000d0: 607c 02be c007 6b3e c13b 263e fad2 e2bd
000000e0: 431b a43c a169 593e 43ca 953c cc2c 963d
000000f0: d464 21be ba72 4b3e 79c8 22be 560e e83d
00000100: e5da 1fbe 8edf 2bbe 8f87 e9bd 9ea9 193e
00000110: f3b2 56be 165c 67be 80e6 b7bc eff3 303e
00000120: 6ee4 2fbe 3af9 23be 3c8c f53c 2d10 4ebd
00000130: fd8a 563e 0994 eabd c4c0 41be 9e4f f23d
00000140: 7ac5 b7bd cc19 353d 8651 553d 40fe 723d
00000150: 09db eebd 061a 893d 73f5 cb3d 0128 28be
00000160: f1a5 86bc 9c5e 7bbd 0473 3c3d c8cd dc3d
00000170: 22ee 283d 372c 133e 7963 57be 293f 963d
00000180: 4a7e a13d b677 893d 4d49 363e 3c73 6dbd
00000190: bf9f 083d d1fc 24bd 2c71 353d c3a7 253e
000001a0: 09af 47be cb82 1fbe 7946 303e 5d45 b13c
000001b0: 1543 ffbd eb69 da3d 63a4 64be fe11 41be
000001c0: de8a aebd 69d7 0dbe 255a 9c3c 089c 1b3e
000001d0: bda4 1b3e 5808 d5bb fcba 1bbe 962c c13d
000001e0: 7dcb 713d c6d3 8f3d 5579 d6bd d672 9b3d
000001f0: fc08 3ebe 4638 4dbe a663 56be d0b6 663c
00000200: e6bb 02bd edfe e7bd 73c5 5cbd 5659 c53d
00000210: e75e fabd d2ef 533d 9945 533e 2701 29be
00000220: 0e3a 82bd 5404 573d 788c 28be 2205 a83d
00000230: a061 49bc d436 23be ca3d a73d 2e26 873d
00000240: 8d83 4d3e 44e3 1c3d 6066 8a3b 0380 04be
00000250: 3721 09be a523 443e 84af 88bd a121 08be
00000260: 7fc6 a6bd 9479 3c3d c9bc cbbd 7f6b 94bb
00000270: cb7b 513d 2048 0cbd b0d4 42be d941 25be
00000280: 75a1 debd 9ee9 10be ff8f 4fbe 10c8 4a3e
00000290: f8c0 4abd 9a11 29be f371 ff3d fe80 c1bd
000002a0: 46f3 04be 182a 70bd 378a 2e3e 8864 ab3d
000002b0: 6f46 a4bc 00e5 ad3c 202f 5dbd 1ae8 f9bc
000002c0: 3e06 2a3e ec82 533d fae1 35be a5cc 3f3e
000002d0: 1f2d 383e 76cb 84bd 65e3 ba3d 8452 993d
000002e0: a9e1 2cbe 346d 33be 1ad1 043e 0e27 44be
000002f0: 4c7e 31bd 1eab 82bd 4477 7bbd 5cff 1d3d
00000300: 36e6 0b3e 2deb 6abd c4d2 2b3e cc13 4b3e
00000310: 7338 febd 5cd4 4a3e ba19 cb3d eac3 373e
00000320: cc9c e23d 55e4 943d 45b2 ebbd cfb6 27be
00000330: db3d aabd 10a7 e83d c7de 123e 4633 40be
00000340: 61d5 c53d d7bd f43d 7904 dd3d 8b0a 3ebe
00000350: dc15 0d3c 1072 f2bd 9d7b 313e 97c4 2dbe
00000360: 93c1 d7bd a8dc afbb b616 253e 5c28 07be
00000370: ff4c 8b3d f299 e8bc 2e47 f03d df87 1abe
00000380: 3269 a4bc 1699 0e3e f81e 95bc 9f8d 293e
00000390: 942f e43c d6ab e8bd 278b 2cbe 4aaf 90bd
000003a0: e373 cb3c a6cc a1bd c253 32be f30f 8dbd
000003b0: 7a40 703d 228e fd3c 1d4e 47be fb89 cf3d
000003c0: e9e2 4ebe 5159 5abe 4c9f 443d 0286 89bd
000003d0: dfec 48be 2ef6 0d3e e524 e3bd 0476 6cbd
000003e0: eada 05be 168e ab3d ea89 3bbc 6d1b 2d3d
000003f0: 62d8 4d3e 62f8 47be 0c59 5cbd 8bd4 40be

net.3.bias f4 [64]
0.06320937 -0.021059247 0.005214715 -0.016059142 -0.018117784 0.05845795 -0.024882996 0.04889164
-0.024088338 -0.016432878 0.054530688 0.008638544 0.0 0.06062634 -0.012493841 -0.016867382
0.0 0.059748285 0.005140025 -0.00969063 -0.016595539 0.042321708 -0.019334106 -0.015306615
0.053784482 0.010016356 -0.013956516 -0.014750583 -0.012529408 0.04166821 -0.04580157 -0.025833158
0.056729067 0.05610676 0.01000948 0.0 -0.022282904 0.013619596 0.0 0.029976653
0.052667614 0.048709784 -0.011202917 -0.017521208 0.029650649 -0.015509256 0.05865636 -0.01826738
-0.009380726 0.05842407 -0.02177629 0.055436626 0.0070070163 0.054211497 0.0 -0.031435125
0.05467126 0.046947334 0.0064920485 -0.034326978 -0.009672378 0.03158527 -0.028265037 0.01875604
00000000: ea73 813d 7184 acbc 33e0 aa3b 768e 83bc
00000010: bf6b 94bc 9a71 6f3d 6dd7 cbbc 9a42 483d
00000020: e854 c5bc 3e9e 86bc 925b 5f3d ae88 0d3c
00000030: 0000 0000 5353 783d f8b2 4cbc 772d 8abc
00000040: 0000 0000 9eba 743d a86d a83b 73c5 1ebc
00000050: 5ef3 87bc 8759 2d3d 8f62 9ebc 99c8 7abc
00000060: 1e4d 5c3d a41b 243c dfa9 64bc 6eac 71bc
00000070: 2548 4dbc 49ac 2a3d 6d9a 3bbd 0fa0 d3bc
00000080: bd5c 683d 34d0 653d cdfe 233c 0000 0000
00000090: a38a b6bc ba24 5f3c 0000 0000 9991 f53c
000000a0: ffb9 573d e983 473d 718c 37bc a388 8fbc
000000b0: ebe5 f23c 891a 7ebc a741 703d 79a5 95bc
000000c0: 9eb1 19bc 144e 6f3d 3164 b2bc 8411 633d
000000d0: 1d9b e53b e00c 5e3d 0000 0000 1ec2 00bd
000000e0: f9ee 5f3d d94b 403d 40bb d43b 729a 0cbd
000000f0: e578 1ebc 8e5f 013d 148c e7bc 44a6 993c

net.6.weight f4 [2, 64]
0.126 0.0009317329 0.24993128 0.2568524 -0.011335366 -0.09283925 0.07149725 -0.18798222
-0.07103156 0.20652491 0.0038284634 0.28749144 -0.20406282 0.006928743 -0.09958403 -0.19138774
0.2640987 -0.021995494 -0.28605136 0.27197856 -0.123049304 -0.17854784 0.1224482 -0.19636978
0.27413094 0.03681785 -0.25017416 0.041051198 0.1314914 -0.17809644 0.15167716 0.19397144
-0.087911926 0.2763911 0.004143119 -0.2257303 -0.10172807 0.19822769 0.16350073 -0.1680945
0.21210706 -0.10735039 -0.2377474 0.048644613 0.028000597 -0.19179049 0.0654835 -0.08336595
-0.11048138 0.006170414 0.010163905 -0.034019586 -0.1631753 -0.05912956 0.19509962 -0.24990758
-0.035848822 -0.119695246 0.15106136 -0.27983418 0.1170477 0.057238314 -0.07550552 -0.09665272
0.22854 -0.26408544 0.053414002 -0.10886052 -0.1283886 0.262407 -0.25937644 0.3024213
-0.004153537 -0.074518435 0.13245028 -0.12649763 0.12865001 0.23682545 -0.008477507 -0.05931039
0.09216848 0.27556914 0.23088512 -0.19859563 -0.116929315 0.3289695 -0.1403495 -0.12194884
0.124819085 0.16662994 -0.108458154 -0.18953274 -0.28616095 0.258319 -0.23445834 -0.09649925
0.19146612 0.3080176 0.19452165 0.15209725 -0.16119152 0.01183195 -0.011036754 0.10800917
0.079592384 0.33703816 -0.28239912 -0.027726848 0.036640354 -0.011554146 0.26467523 -0.21289998
-0.0029867934 0.14718442 -0.020671217 0.09621964 0.25030503 0.23383352 0.19163847 -0.20929976
0.15988064 0.24189073 0.01312999 -0.21431062 -0.24984229 0.030747104 -0.28004244 0.031673744
00000000: 2506 013e 893f 743a fced 7f3e 2882 833e
00000010: f9b7 39bc 8122 bebd 266d 923d 697e 40be
00000020: ff78 91bd 447b 533e f5e6 7a3b 1432 933e
00000030: d8f5 50be 820a e33b b6f2 cbbd 26fb 43be
00000040: f237 873e e52f b4bc 5375 92be c640 8b3e
00000050: 4601 fcbd 3fd5 36be 1fc6 fa3d 2915 49be
00000060: e45a 8c3e 50ce 163d d416 80be 4d25 283d
00000070: aea5 063e ea5e 36be 4251 1b3e 73a0 463e
00000080: 2b0b b4bd 2283 8d3e 00c3 873b d825 67be
00000090: ce56 d0bd 33fc 4a3e bc6c 273e f720 2cbe
000000a0: 9832 593e 85da dbbd 0e74 73be 933f 473d
000000b0: 8261 e53c ba64 44be 371c 863d c4bb aabd
000000c0: 1044 e2bd 2f31 ca3b 8286 263c 1f58 0bbd
000000d0: 6d17 27be d631 72bd 32c8 473e c6e7 7fbe
000000e0: 37d6 12bd c822 f5bd d4af 1a3e 6d46 8fbe
000000f0: b4b6 ef3d b972 6a3d a3a2 9abd dcf1 c5bd
00000100: 6406 6a3e 3536 87be a4c8 5a3d 44f2 debd
00000110: 4d78 03be 365a 863e fdcc 84be f7d6 9a3e
00000120: 651a 88bb 1f9d 98bd 0ca1 073e 9888 01be
00000130: d4bc 033e 5f82 723e 3ee5 0abc 74ef 72bd
00000140: d4c2 bc3d 6617 8d3e 266d 6c3e a75c 4bbe
00000150: a378 efbd b16e a83e c8b7 0fbe 50c0 f9bd
00000160: 26a1 ff3d 0aa1 2a3e 4f1f debd df14 42be
00000170: b083 92be 6342 843e d915 70be 66a1 c5bd
00000180: b20f 443e 7cb4 9d3e af30 473e 62bf 1b3e
00000190: 640f 25be ccda 413c 80d3 34bc e933 dd3d
000001a0: 5501 a33d 4490 ac3e 9e96 90be 6a23 e3bc
000001b0: 3214 163d 9a4d 3dbc 8383 873e 7402 5abe
000001c0: 14be 43bb 83b7 163e af56 a9bc cd0e c53d
000001d0: fb27 803e 0e72 6f3e e03c 443e ad52 56be
000001e0: c0b7 233e 34b2 773e 2b1f 573c 3e74 5bbe
000001f0: a8d6 7fbe 5ae1 fb3c b961 8fbe 54bc 013d

net.6.bias f4 [2]
0.01972355 0.060745936
00000000: 4893 a13c bbd0 783d

exp_avg f4 [64, 4]
0.0017961125 -0.10460466 0.0002443952 0.18747276 -0.0001255425 -0.0006318736 -1.8893683e-05 0.000882208
-4.673393e-05 0.0011988175 -0.00029004834 -7.884775e-06 0.0010716567 -0.055429764 0.0027775392 0.096380986
0.00462235 -0.12594348 0.002404793 0.22950219 0.0018126183 -0.021075828 -0.0007200594 0.0400618
6.910992e-05 0.0017370408 -0.0004381986 0.00024296746 0.00042529107 0.002029049 0.00013022634 0.00040659768
0.000111550005 0.000633465 1.1045407e-05 -0.0009060127 -0.00045664253 -0.0012455638 -6.606856e-05 0.0016981188
0.0005604677 -0.102311425 0.0030854817 0.17871837 -0.0008085315 -0.002868254 0.0027730197 0.0065130405
0.0003282466 0.0023649605 9.0274036e-05 -0.0006835862 0.0018411115 -0.050374903 0.0015004091 0.09110769
-9.830904e-05 -0.0005354053 -2.1498263e-05 0.0007468358 -0.0013861286 -0.10037716 0.0071087303 0.17919384
-0.00012853363 -0.0005076439 -2.644927e-05 0.0006973224 -6.880622e-05 -0.000343234 -1.0862312e-05 0.0004795201
0.001573631 0.035936926 -0.005664852 -0.058694553 0.0011484472 -0.028568832 0.0040743058 0.055244755
-0.0025103423 -0.08137017 0.00624066 0.13615745 -4.7960533e-05 0.0005068107 -0.00020125933 0.00040921284
0.0024835023 -0.04025739 -0.0007493512 0.0738531 0.00018402055 0.0009240695 2.7110904e-05 -0.001289725
0.0034489941 -0.044411924 -0.0016695432 0.07732195 -0.0021872602 -0.060244676 0.0023962765 0.104442105
-0.0004367184 -0.0011308789 -4.8220427e-05 0.0014729839 0.0027322853 -0.107886285 0.0038867418 0.19220224
-7.26664e-05 -0.039598934 0.002134192 0.072001286 -0.0011399561 -0.015076915 0.0012254443 0.031397816
-0.0050640083 -0.20802388 0.017892508 0.35029545 6.908509e-05 0.0011091391 0.00011811231 -0.001302006
-0.000896332 0.0048429505 -0.0004608609 -0.007870802 0.00025514796 0.001981166 -0.000119847085 -0.0005751011
8.349761e-05 -3.6849724e-05 1.5069299e-05 9.427797e-05 -6.223877e-06 8.138973e-06 -4.5978195e-06 -2.1717526e-06
-0.0007003091 -0.008208562 0.0010540752 0.014393583 0.0011057925 -0.019692885 0.0009153491 0.037604272
9.6538344e-05 0.0005219347 -0.00011683746 -0.0011239445 -0.0007548082 -0.03433697 0.00311578 0.058254976
0.00045907535 -0.07810021 0.0048062755 0.13398919 -7.9575606e-05 -0.061389882 0.003032745 0.109750256
0.0006437151 0.027120167 -0.00023604266 -0.041599665 -0.0010599601 -0.074519664 0.0049749017 0.13110346
-0.00010498964 -6.131393e-05 -0.00024457907 -0.000852833 0.001101187 -0.031039646 -0.0018091243 0.053352118
0.0013543231 -0.07364363 0.0027800489 0.12955628 0.0006264843 -0.11172188 0.0051963315 0.19477668
-0.00019610445 -0.0009931646 -3.1193747e-05 0.001387902 0.0045401794 -0.0389456 -0.0011280675 0.07640358
-0.0018311557 -0.049984146 0.0043527884 0.08447295 -0.002202427 -0.14022832 0.010431908 0.24396814
4.064165e-05 -0.009031707 -0.00016285482 0.019035762 -0.0014675427 -0.11232481 0.007964577 0.1913481
0.0005210276 0.0007158351 0.0006466657 0.0010629226 -1.5343005e-05 0.00013608615 -3.1746607e-05 1.5898746e-05
0.0013171905 -0.09272386 0.00043012397 0.16764776 0.00026035385 -0.11172309 0.0046163225 0.19693382
-0.000946032 -0.012781635 0.0018631433 0.021278327 -4.552491e-05 -0.000230676 -7.27337e-06 0.000322383
-0.0017654945 -0.029220765 0.0037357567 0.046319 0.00021045424 -0.08763633 0.0040800506 0.14935756
-8.3784085e-05 -0.00042169733 -1.2609193e-05 0.00058876467 -5.0189425e-05 0.0009308123 -0.00024033035 7.290795e-05
00000000: 896b eb3a f83a d6bd 2b22 8039 dcf8 3f3e
00000010: 0fa4 03b9 52a4 25ba e07d 9eb7 fa43 673a
00000020: 2d04 44b8 a421 9d3a a111 98b9 da48 04b7
00000030: d576 8c3a 520a 63bd 6007 363b 6563 c53d
00000040: 1577 973b 54f7 00be bb99 1d3b 9f02 6b3e
00000050: 6195 ed3a 37a7 acbc 5ec2 3cba d817 243d
00000060: 1bef 9038 6bad e33a 05be e5b9 15c5 7e39
00000070: 9af9 de39 cbf9 043b 5e8d 0839 9e2c d539
00000080: f4ef e938 1e0f 263a a94f 3937 7c81 6dba
00000090: 8669 efb9 3042 a3ba 4a8e 8ab8 6993 de3a
000000a0: 5aec 123a a788 d1bd cb35 4a3b f301 373e
000000b0: a1f3 53ba 51f9 3bbb 8dbb 353b 586b d53b
000000c0: 8318 ac39 74fd 1a3b 8151 bd38 b132 33ba
000000d0: 7351 f13a ea55 4ebd 60a9 c43a ab96 ba3d
000000e0: 442b ceb8 715a 0cba 2b57 b4b7 4dc7 433a
000000f0: c2ae b5ba 8a92 cdbd 5af0 e83b 977e 373e
00000100: fcc6 06b9 6813 05ba 60df ddb7 84cc 363a
00000110: 0f4c 90b8 16f4 b3b9 463d 36b7 1968 fb39
00000120: 4b42 ce3a 9932 133d 39a0 b9bb b369 70bd
00000130: 7e87 963a 2f09 eabc c181 853b 5348 623d
00000140: 8e84 24bb 67a5 a6bd 737e cc3b dc6c 0b3e
00000150: 3b29 49b8 7edb 043a 2409 53b9 9e8b d639
00000160: 41c2 223b efe4 24bd 1c70 44ba 4b40 973d
00000170: a4f5 4039 413d 723a 396c e337 fd0b a9ba
00000180: 8508 623b 47e9 35bd 93d4 daba f85a 9e3d
00000190: 2358 0fbb 1fc3 76bd d90a 1d3b bee5 d53d
000001a0: 5af7 e4b9 003a 94ba 4a40 4ab8 2311 c13a
000001b0: 2410 333b 7cf3 dcbd b5b8 7e3b aad0 443e
000001c0: 7a64 98b8 7e32 22bd cddd 0b3b 6975 933d
000001d0: 946a 95ba 2a05 77bc 169f a03a ff9a 003d
000001e0: fbef a5bb 3604 55be 4f93 923c ed59 b33e
000001f0: c6e1 9038 8860 913a 10b3 f738 12a8 aaba
00000200: d3f7 6aba 9db1 9e3b b49f f1b9 89f4 00bc
00000210: 61c5 8539 73d6 013b 6a56 fbb8 62c2 16ba
00000220: 701b af38 178f 1ab8 25d2 7c37 1ab7 c538
00000230: b2d6 d0b6 9f8c 0837 f846 9ab6 6dbe 11b6
00000240: f394 37ba 347d 06bc e528 8a3a 10d3 6b3c
00000250: 3df0 903a f952 a1bc 0af4 6f3a f006 1a3d
00000260: a174 ca38 72d2 083a a206 f5b8 5251 93ba
00000270: 52de 45ba eca4 0cbd 1d32 4c3b c59c 6e3d
00000280: 0db0 f039 01f3 9fbd f67d 9d3b 7634 093e
00000290: d4e1 a6b8 f573 7bbd 05c1 463b bec4 e03d
000002a0: fdbe 283a 1d2b de3c 3882 77b9 6964 2abd
000002b0: 5cee 8aba c49d 98bd 8004 a33b fc3f 063e
000002c0: e22d dcb8 aa95 80b8 d93a 80b9 a790 5fba
000002d0: b455 903a db46 febc 2320 edba c087 5a3d
000002e0: 8b83 b13a 79d2 96bd 7b31 363b 67aa 043e
000002f0: a63a 243a 71ce e4bd fd45 aa3b 8a73 473e
00000300: 63a1 4db9 132d 82ba 08d6 02b8 43ea b53a
00000310: c9c5 943b 6c85 1fbd aadb 93ba 7b79 9c3d
00000320: 6403 f0ba 2dbc 4cbd d6a1 8e3b 2700 ad3d
00000330: 9856 10bb 0398 0fbe 98ea 2a3c c9d2 793e
00000340: a476 2a38 baf9 13bc 02c4 2ab9 e3f0 9b3c
00000350: 905a c0ba 8d0a e6bd db7d 023c c2f0 433e
00000360: 9295 083a e1a6 3b3a 0085 293a c451 8b3a
00000370: dab4 80b7 59b2 0e39 a927 05b8 4c5e 8537
00000380: 94a5 ac3a 02e6 bdbd 4382 e139 dbab 2b3e
00000390: 1a80 8839 13cf e4bd 8544 973b 05a9 493e
000003a0: 22ff 77ba 106a 51bc b734 f43a e34f ae3c
000003b0: 00f2 3eb8 9ee1 71b9 c60d f4b6 8405 a939
000003c0: 2a68 e7ba 6360 efbc 99d3 743b feb8 3d3d
000003d0: 61ad 5c39 ad7a b3bd f2b1 853b 30f1 183e
000003e0: 3db5 afb8 4217 ddb9 128c 53b7 5457 1a3a
000003f0: 7c82 52b8 c201 743a 3001 7cb9 28e6 9838

exp_avg_sq f4 [64, 4]
0.00011100303 0.036687423 0.00042226765 0.0936872 2.4183163e-07 6.1262112e-06 5.4772773e-09 1.1941904e-05
1.3419276e-08 5.2279535e-07 4.2964814e-08 1.5213986e-07 4.565262e-05 0.011676849 0.00014485636 0.030002281
0.00041114984 0.11394948 0.0013353757 0.28832698 4.4435048e-05 0.01863319 0.00021724822 0.04750776
2.0043242e-06 1.2622828e-06 8.8777426e-07 8.8123966e-07 1.3215943e-06 2.6113692e-06 4.6352875e-07 3.9911442e-06
7.752312e-07 6.710025e-06 2.1849067e-07 1.2829405e-05 1.5085145e-06 2.5348589e-05 1.1671002e-07 4.9108217e-05
7.158127e-05 0.025717309 0.00031557473 0.066134594 9.156842e-06 0.0024523772 3.0344914e-05 0.006175662
6.3371016e-07 1.3623943e-05 2.4751358e-07 2.5707997e-05 3.0854906e-05 0.012217677 0.00013574533 0.030925483
6.3435436e-07 4.4215185e-06 6.2157693e-07 8.89603e-06 6.427725e-05 0.017768275 0.00019241386 0.04449612
3.2331215e-07 3.929154e-06 6.158145e-09 7.68934e-06 1.9597492e-07 2.07158e-06 1.8571765e-07 3.7698223e-06
3.969038e-06 0.0011196703 1.529943e-05 0.0028656744 4.6764868e-05 0.015668217 0.0001693284 0.03962953
8.077078e-06 0.003227671 3.417616e-05 0.008119998 3.1644134e-07 1.0245441e-06 6.482526e-08 1.6942754e-06
6.45508e-05 0.019377017 0.00023672462 0.049516976 5.2755246e-07 1.3100505e-05 2.6383189e-08 2.5543275e-05
6.421496e-05 0.02197199 0.00025299407 0.055658814 6.8286113e-06 0.0019645141 1.7700966e-05 0.0048274593
1.1096707e-06 1.9339226e-05 2.0795776e-08 3.7764305e-05 0.00013345192 0.041827008 0.0004834541 0.10585468
7.1106097e-06 0.0031135012 3.563023e-05 0.008310313 9.070665e-07 2.3196566e-05 4.6617677e-07 7.182486e-05
5.012225e-05 0.01718118 0.00016902597 0.042474676 1.0742181e-06 1.5459367e-05 2.8734618e-07 3.0172081e-05
2.0017169e-05 0.004216192 5.4136566e-05 0.010558485 6.2992416e-07 7.5161497e-06 1.673102e-07 1.3902761e-05
2.6338117e-07 2.621403e-08 5.1849756e-09 9.607348e-08 4.1616826e-08 9.343759e-09 5.7380824e-08 2.4823713e-08
6.2979425e-06 0.001400543 1.6622955e-05 0.0034802095 1.6874008e-05 0.0056651253 6.670508e-05 0.014447562
4.186027e-07 6.9253306e-06 2.4353196e-07 1.3574579e-05 4.571632e-06 0.0011294787 1.2671234e-05 0.002842721
3.048974e-05 0.013583962 0.00014482086 0.034239564 2.6875967e-05 0.008345833 0.000105917774 0.021370137
3.9649663e-06 0.0018037048 2.4939221e-05 0.004547686 3.7414888e-05 0.009575379 0.00011433906 0.023938036
1.6348439e-07 1.624673e-06 1.5706519e-07 3.1395311e-06 9.934199e-06 0.0028386125 3.1287433e-05 0.0071945507
0.000105896164 0.043307982 0.00046770202 0.1090056 7.506585e-05 0.025837863 0.00028572153 0.06512771
6.841163e-07 1.51421755e-05 1.3525607e-07 2.9569077e-05 0.00019829224 0.06411135 0.0007224559 0.16192794
4.7401936e-06 0.0012857704 1.0976638e-05 0.0031920753 4.516074e-05 0.01643908 0.00017091422 0.041676447
1.3704388e-05 0.004297707 5.2233117e-05 0.01080813 2.565208e-05 0.010157153 0.000101573394 0.02514969
2.7264682e-06 9.574771e-07 2.0760906e-06 2.5142326e-06 6.217431e-08 7.2042723e-09 3.0993068e-08 3.7064222e-08
0.00025280425 0.07775207 0.00089420425 0.19625545 0.00011076032 0.038613826 0.00044207307 0.09801853
9.232278e-06 0.0022162131 3.1922584e-05 0.005596956 3.7693688e-08 8.1690683e-07 8.404835e-09 1.5957005e-06
1.24983135e-05 0.0038107596 4.792011e-05 0.009487918 5.011708e-05 0.019782182 0.00021516814 0.049833905
1.07709646e-07 2.7285591e-06 2.4395292e-09 5.3188155e-06 8.8655805e-10 3.0493493e-07 2.0328256e-08 1.8708226e-09
00000000: 4cca e838 8d45 163d ce63 dd39 13df bf3d
00000010: 16d5 8134 c18f cd36 a432 bc31 165a 4837
00000020: 9a8a 6632 3956 0c35 5088 3833 e35b 2334
00000030: 217b 3f38 4150 3f3c 95e4 1739 58c7 f53c
00000040: 998f d739 585e e93d c607 af3a 989f 933e
00000050: c55f 3a38 a2a4 983c 20cd 6339 7f97 423d
00000060: 0782 0636 b56b a935 624f 6e35 548e 6c35
00000070: a261 b135 fb3e 2f36 e8da f834 abeb 8536
00000080: 7b19 5035 ad26 e136 429a 6a34 e03d 5737
00000090: 2a78 ca35 aea3 d437 03a2 fa33 8cf9 4d38
000000a0: e71d 9638 1bad d23c b973 a539 9371 873d
000000b0: 56a0 1937 10b8 203b 358d fe37 355d ca3b
000000c0: 3b1c 2a35 6492 6437 02e2 8434 81a7 d737
000000d0: 346a 0138 a72c 483c dc56 0e39 7057 fd3c
000000e0: 8048 2a35 8e5c 9436 71da 2635 2840 1537
000000f0: 96cc 8638 c68e 913c b4c2 4939 9041 363d
00000100: af93 ad34 2dd7 8336 9e97 d331 7701 0137
00000110: 2d6d 5234 7905 0b36 ae69 4734 0efd 7c36
00000120: c72d 8536 e7c1 923a 4757 8037 0ace 3b3b
00000130: 6525 4438 a25a 803c bf8d 3139 9352 223d
00000140: c982 0737 5587 533b 5f58 0f38 bd09 053c
00000150: 5ee3 a934 1183 8935 1036 8b33 dc66 e335
00000160: 725f 8738 8dbc 9e3c 4839 7839 50d2 4a3d
00000170: 219d 0d35 3eca 5b37 3fa1 e232 c445 d637
00000180: 25ab 8638 9afe b33c 4aa4 8439 7ffa 633d
00000190: 5321 e536 14bf 003b 897c 9437 aa2f 9e3b
000001a0: ffef 9435 ac3a a237 65a2 b232 1d65 1e38
000001b0: 3aef 0b39 cc52 2b3d 1c78 fd39 57ca d83d
000001c0: ac97 ee36 e20b 4c3b ab71 1538 fb27 083c
000001d0: 237d 7335 3f96 c237 d946 fa34 aea0 9638
000001e0: 5b3a 5238 8cbf 8c3c 903c 3139 edf9 2d3d
000001f0: da2d 9035 bdae 8137 8f44 9a34 0d1a fd37
00000200: 8bea a737 fb27 8a3b b210 6338 7ffd 2c3c
00000210: 0f18 2935 3c33 fc36 e1a5 3334 e73f 6937
00000220: d566 8d34 432d e132 8727 b231 f450 ce33
00000230: 2fbe 3233 4986 2032 e272 7633 ec3b d532
00000240: ea52 d336 6d92 b73a 8671 8b37 3a14 643b
00000250: a88c 8d37 84a2 b93b 04e4 8b38 78b5 6c3c
00000260: 51bc e034 2360 e836 c7be 8234 5fbe 6337
00000270: 0566 9936 040b 943a 8996 5437 f24c 3a3b
00000280: 38c4 ff37 448f 5e3c 0edb 1739 c93e 0c3d
00000290: b373 e137 f6bc 083c 2c20 de38 6d10 af3c
000002a0: cd0a 8536 4a6a ec3a 9234 d137 c104 953b
000002b0: eeed 1c38 0de2 1c3c 51c9 ef38 b319 c43c
000002c0: 3f8a 2f34 570f da35 c0a5 2834 bcb0 5236
000002d0: 0fab 2637 0408 3a3b a03a 0338 44c0 eb3b
000002e0: 9214 de38 b663 313d e735 f539 543e df3d
000002f0: ac6c 9d38 eda9 d33c e5cc 9539 ad61 853d
00000300: 1da4 3735 260b 7e37 e83a 1134 1c0b f837
00000310: abec 4f39 d04c 833d 3263 3d3a 70d0 253e
00000320: f40d 9f36 4c87 a83a 4d28 3837 2332 513b
00000330: fa6a 3d38 40ab 863c 7037 3339 ecb4 2a3d
00000340: e6eb 6537 c8d3 8c3b e214 5b38 9514 313c
00000350: 6c2f d737 306a 263c cd03 d538 b906 ce3c
00000360: 5ef8 3636 aa82 8035 f752 0b36 30ba 2836
00000370: b084 8533 7389 f731 3d1d 0533 8b30 1f33
00000380: d08a 8439 7a3c 9f3d 0869 6a3a 30f7 483e
00000390: fe47 e838 8829 1e3d 0bc6 e739 f0bd c83d
000003a0: 55e4 1a37 e33d 113b 9de4 0538 ab66 b73b
000003b0: a6e4 2133 6949 5b35 db64 1032 da2b d635
000003c0: d9af 5137 f0bd 793b d4fd 4838 3673 1b3c
000003d0: ce34 5238 3e0e a23c c29e 6139 a31e 4c3d
000003e0: 014e e733 4a1c 3736 a7a4 2731 4778 b236
000003f0: fab1 7330 f0b5 a334 4f9e ae32 dc8f 0031

exp_avg f4 [64]
-0.6079267 0.0032121856 -0.029144464 -0.2520748 -0.80669975 -0.23867975 -0.051155668 -0.05610786
-0.0029682387 0.01252739 -0.5050117 0.036402807 -0.04532235 -0.2971629 0.002975288 -0.4809127
0.0034193567 0.0017638002 -0.00077741983 -0.19581477 -0.20501496 -0.018978635 -0.265451 -0.0046867714
-0.26180172 -0.21470748 0.010899552 -0.55191755 -0.2507657 -0.14885433 -0.47936076 -0.0044642757
0.009817293 -0.041412115 -0.0021961194 0.0003777914 -0.00017048058 -0.14399928 0.0008904631 -0.091806136
-0.26969957 -0.3047914 0.02839003 -0.2712365 0.011045715 -0.1559618 -0.4523232 -0.49092492
0.0050799954 -0.4882358 -0.08359729 -0.51484007 -0.11823546 -0.31103054 -0.028281607 -0.0037488171
-0.6441496 -0.56776416 -0.006408781 0.0011804845 -0.009738353 -0.34417102 0.002143736 -0.023735598
00000000: 16a1 1bbf 8883 523b 5fc0 eebc f30f 81be
00000010: e083 4ebf 7768 74be 9b88 51bd 5bd1 65bd
00000020: c886 42bb af3f 4d3c 7248 01bf 1c1b 153d
00000030: eea3 39bd bc25 98be 0dfd 423b 303a f6be
00000040: 4917 603b 502f e73a c3cb 4bba ab83 48be
00000050: 71ef 51be 1579 9bbc 32e9 87be 7d93 99bb
00000060: e00a 86be 47dc 5bbe 0994 323c 784a 0dbf
00000070: 5d64 80be 456d 18be c66e f5be 0f49 92bb
00000080: b6d8 203c c09f 29bd c5ec 0fbb 4e12 c639
00000090: 08c3 32b9 8c74 13be f86d 693a db04 bcbd
000000a0: 1016 8abe 9e0d 9cbe 3592 e83c 83df 8abe
000000b0: 16f9 343c 73b4 1fbe e896 e7be 835a fbbe
000000c0: 1776 a63b 0bfa f9be 0e35 abbd 8fcc 03bf
000000d0: 6f25 f2bd 653f 9fbe d4ae e7bc b7ae 75bb
000000e0: fde6 24bf fe58 11bf c000 d2bb 7dba 9a3a
000000f0: 9d8d 1fbc 2f37 b0be ec7d 0c3b 2871 c2bc

exp_avg_sq f4 [64]
0.039584924 0.00015831884 0.00029919276 0.012034518 0.118131824 0.018936876 0.002457592 0.0016912402
0.0005785275 0.0013589185 0.026099766 0.0028264134 0.0008722109 0.013975496 0.00039318364 0.022897663
0.000207499 0.00017832196 0.0018208777 0.01892083 0.0039014425 0.00033055485 0.015295672 0.00034457064
0.018230643 0.0042593116 0.00070679287 0.04801042 0.006767091 0.0015010921 0.019032547 0.00079413434
0.0044207927 0.00083715416 0.00017186343 4.1727348e-05 0.00219116 0.0066068205 0.00029530498 0.0018099357
0.013475843 0.010727323 0.0038273367 0.00963417 0.00023024839 0.0047923704 0.04242547 0.027677309
0.00044123136 0.061871074 0.0021558811 0.023760261 0.0041071274 0.010361333 0.002250046 6.505793e-05
0.07754602 0.038559247 0.001959691 2.4258357e-05 0.0034156046 0.018730845 7.051377e-05 0.00019828198
00000000: cd23 223d 6402 2639 f9dc 9c39 6d2c 453c
00000010: 19ef f13d 8221 9b3c 8d0f 213b 9bac dd3a
00000020: 53a8 173a bd1d b23a 2dcf d53c 593b 393b
00000030: 15a5 643a 7bf9 643c 3724 ce39 e193 bb3c
00000040: 1794 5939 f0fb 3a39 84aa ee3a dbff 9a3c
00000050: 58af 7f3b 524e ad39 b39a 7a3c 7da7 b439
00000060: 6e58 953c b291 8b3b 1148 393a 93a6 443d
00000070: 79be dd3b 4bc0 c43a 25ea 9b3c 742d 503a
00000080: 4cdc 903b 7774 5b3a 3d36 3439 6604 2f38
00000090: 9199 0f3b 077e d83b 2ad3 9a39 5d3b ed3a
000000a0: c8c9 5c3c a7c1 2f3c 0ed4 7a3b a3d8 1d3c
000000b0: d56e 7139 5109 9d3b 54c6 2d3d 86bb e23c
000000c0: 1255 e739 866c 7d3d af49 0d3b e1a4 c23c
000000d0: 1595 863b 95c2 293c 8275 133b b66f 8838
000000e0: 73d0 9e3d 4df0 1d3d 296e 003b 6d7e cb37
000000f0: 56d8 5f3b 6e71 993c cbe0 9338 eae9 4f39

exp_avg f4 [64, 64]
-0.10699966 -0.00022396065 -0.0003048031 -0.044186063 -0.11455893 -0.041845676 -0.00038094353 -0.001508536
-0.0002707152 -0.00028734215 -0.053513974 -0.017141895 -0.0009659453 -0.09596201 -0.00023375894 -0.06014689
-0.000197639 -0.0001279922 -0.01923167 -0.02480164 -0.062888436 -0.00034352255 -0.09336391 -0.0001449159
-0.043559477 -0.11492279 -0.00042352974 -0.087732606 -0.008809534 -0.0012737775 -0.04023029 -0.0001424751
-0.013355569 -0.0017020444 -0.0006678467 -1.1611211e-05 -0.005922274 -0.05564818 -0.0003723383 -0.04320912
-0.09525527 -0.09698242 -0.037901685 -0.058625873 -0.00082462 -0.04300794 -0.04829847 -0.10783442
-0.0001877791 -0.046677157 -0.09955639 -0.13858049 -0.07474303 -0.10008186 -0.00010729707 -0.0006668161
-0.12955807 -0.10921369 -0.00053475465 -0.000179646 -0.0013487164 -0.070344344 -0.00028677695 -0.00044037582
0.0012623459 0.0 0.0 0.0070261303 0.0011609655 0.0057142638 0.0 0.0
5.8532418e-08 0.0 0.009361614 0.0052820784 0.0 0.017551456 0.0 0.008679109
0.0 7.513274e-08 0.0056526074 0.0022675907 0.010387899 0.0 0.017385716 0.0
0.010192341 0.022556478 0.0 0.015783528 1.7039484e-07 7.6319886e-08 0.005585531 9.029308e-07
0.005910612 0.0 0.0 0.0 0.0018339829 0.01567298 0.0 0.00054504955
0.016072292 8.543304e-05 0.01073386 0.01096749 0.0 0.010529107 0.00715287 0.021776203
0.0 0.008298018 0.019381667 0.024002617 0.016816419 0.024688382 0.0 0.0
0.028058652 0.021667764 9.796094e-05 0.0 0.0017965928 0.011056742 0.0 0.0
-7.4882045e-08 0.0 -4.591288e-08 -3.034999e-07 -2.414763e-07 -1.9415057e-07 -1.3979152e-07 -1.5228659e-07
0.0 0.0 0.0 0.0 0.0 0.0 -3.6213353e-07 -4.434836e-08
0.0 0.0 0.0 -3.1932376e-07 -4.2777523e-07 -1.5238253e-07 0.0 -3.3766375e-07
-1.1160388e-07 0.0 0.0 -4.5438853e-07 -7.897827e-08 0.0 0.0 0.0
0.0 -1.0683329e-07 0.0 -2.800469e-07 0.0 0.0 -2.520743e-07 0.0
0.0 0.0 0.0 -1.2886e-07 -1.4458934e-07 -9.1357414e-08 0.0 -5.072635e-08
-2.60812e-07 0.0 -9.103062e-08 0.0 0.0 0.0 -1.9118435e-08 -1.3144115e-07
0.0 -2.5441363e-08 -6.2081176e-09 -1.5340474e-08 0.0 -7.3290916e-09 0.0 0.0
0.007728121 0.000118832766 0.00015135757 0.0022497461 0.0075322273 0.0024624423 0.0 0.00015875549
7.596448e-05 0.00013124871 0.00241653 0.0011472905 0.00014246546 0.0063428394 0.00012288675 0.0010226358
6.871513e-05 6.788679e-05 0.0014367002 0.0010604406 0.0033606808 7.489826e-05 0.0057852063 7.6186785e-05
0.003422986 0.006686762 0.00022202804 0.0056826132 0.000207149 7.44097e-05 0.0020988078 5.831197e-05
0.001036031 0.00023751636 0.0003221353 0.0 0.00061233365 0.0044337544 0.00019703516 0.0028549165
0.0056709023 0.007264914 0.0025238332 0.0037576852 0.00029338902 0.0033337346 0.00086456863 0.0068843733
9.909032e-05 0.002725823 0.005801972 0.007840901 0.0044218153 0.0074191536 0.0 0.0
2.0557095e-06 0.0064324504 3.1693503e-07 9.5287556e-05 0.00024084846 0.0030012876 0.00015216292 0.0
00000000: a322 dbbd fbd6 6ab9 fbcd 9fb9 72fc 34bd
00000010: df9d eabd 5f66 2bbd 60b9 c7b9 12ba c5ba
00000020: c7ee 8db9 69a6 96b9 7831 5bbd 296d 8cbc
00000030: 7e37 7dba bb87 c4bd 301d 75b9 965c 76bd
00000040: 513d 4fb9 a535 06b9 bc8b 9dbc cf2c cbbc
00000050: a7cb 80bd d11a b4b9 9435 bfbd 91f4 17b9
00000060: 6c6b 32bd a45c ebbd 330d deb9 27ad b3bd
00000070: dd55 10bc e1f4 a6ba 84c8 24bd 5e65 15b9
00000080: 51d1 5abc 2217 dfba 6f12 2fba c6cd 42b7
00000090: a30f c2bb 59ef 63bd 6736 c3b9 0cfc 30bd
000000a0: 3215 c3bd b89e c6bd cc3e 1bbd af21 70bd
000000b0: 502b 58ba 1829 30bd 9ed4 45bd 4bd8 dcbd
000000c0: 91e6 44b9 8c30 3fbd 38e4 cbbd 0be8 0dbe
000000d0: e012 99bd b8f7 ccbd ad04 e1b8 45cd 2eba
000000e0: dfaa 04be 6dab dfbd c72e 0cba 5b5f 3cb9
000000f0: 6ac7 b0ba b210 90bd 8d5a 96b9 3ee2 e6b9
00000100: 4d75 a53a 0000 0000 0000 0000 743b e63b
00000110: 8a2b 983a b83e bb3b 0000 0000 0000 0000
00000120: 1365 7b33 0000 0000 7461 193c 4915 ad3b
00000130: 0000 0000 12c8 8f3c 0000 0000 d232 0e3c
00000140: 0000 0000 a958 a133 8239 b93b dc9b 143b
00000150: 0232 2a3c 0000 0000 7d6c 8e3c 0000 0000
00000160: c7fd 263c 5dc8 b83c 0000 0000 754c 813c
00000170: c7f5 3634 4de5 a333 d406 b73b ef60 7235
00000180: cfad c13b 0000 0000 0000 0000 0000 0000
00000190: 4162 f03a 9f64 803c 0000 0000 a8e1 0e3a
000001a0: 0aaa 833c 842a b338 12dd 2f3c fdb0 333c
000001b0: 0000 0000 4782 2c3c 9f62 ea3b 0264 b23c
000001c0: 0000 0000 69f4 073c 4dc6 9e3c 23a1 c43c
000001d0: 96c2 893c 4a3f ca3c 0000 0000 0000 0000
000001e0: 42db e53c 9880 b13c 6170 cd38 0000 0000
000001f0: a77b eb3a 5627 353c 0000 0000 0000 0000
00000200: d7ce a0b3 0000 0000 bf31 45b3 b5f0 a2b4
00000210: 40a4 81b4 b477 50b4 9a19 16b4 3884 23b4
00000220: 0000 0000 0000 0000 0000 0000 0000 0000
00000230: 0000 0000 0000 0000 416b c2b4 8a79 3eb3
00000240: 0000 0000 0000 0000 0000 0000 866f abb4
00000250: fba8 e5b4 979e 23b4 0000 0000 2748 b5b4
00000260: e2aa efb3 0000 0000 0000 0000 aff2 f3b4
00000270: c39a a9b3 0000 0000 0000 0000 0000 0000
00000280: 0000 0000 396c e5b3 0000 0000 5a59 96b4
00000290: 0000 0000 0000 0000 d454 87b4 0000 0000
000002a0: 0000 0000 0000 0000 0000 0000 c45c 0ab4
000002b0: 6a40 1bb4 4530 c4b3 0000 0000 36de 59b3
000002c0: ba05 8cb4 0000 0000 9d7c c3b3 0000 0000
000002d0: 0000 0000 0000 0000 e239 a4b2 4522 0db4
000002e0: 0000 0000 268a dab2 2e4f d5b1 0fc6 83b2
000002f0: 0000 0000 5fd3 fbb1 0000 0000 0000 0000
00000300: 2d3c fd3b db35 f938 bdb5 1e39 7a70 133b
00000310: e7d0 f63b ed60 213b 0000 0000 9a77 2639
00000320: 1f4f 9f38 cf9f 0939 a55e 1e3b ae60 963a
00000330: c862 1539 98d7 cf3b 29db 0039 f709 863a
00000340: 281b 9038 715e 8e38 a94f bc3a 7bfe 8a3a
00000350: de3e 5c3b b212 9d38 d491 bd3b 78c6 9f38
00000360: 2d54 603b a01c db3b 33d0 6839 3735 ba3b
00000370: 2336 5939 670c 9c38 278c 093b 0094 7438
00000380: 6fcb 873a d00d 7939 45e4 a839 0000 0000
00000390: 0485 203a 0749 913b 399b 4e39 8d19 3b3b
000003a0: fad2 b93b 840e ee3b e566 253b 7f43 763b
000003b0: 02d2 9939 c97a 5a3b 38a4 623a 4f96 e13b
000003c0: b6ce cf38 b9a3 323b 781e be3b 1f77 003c
000003d0: e0e4 903b 5f1c f33b 0000 0000 0000 0000
000003e0: d2f4 0936 4ec7 d23b 3827 aa34 1ed5 c738
000003f0: 448c 7c39 40b1 443b ec8d 1f39 0000 0000

exp_avg_sq f4 [64, 64]
0.005591482 7.696173e-07 1.2504819e-06 0.0005925948 0.005492404 0.00043321782 1.008533e-07 1.9473905e-06
4.6488762e-07 9.508111e-07 0.0010497413 0.00036307736 1.2938268e-06 0.0039974465 9.345979e-07 0.00089435413
2.934622e-07 2.5243708e-07 0.00048068742 6.37808e-05 0.0013172147 3.8059028e-07 0.0035841113 4.1296553e-07
0.0012082774 0.006221464 2.6870275e-06 0.0031857288 3.5485125e-06 6.220887e-07 0.00024165947 2.3046239e-07
0.00041282087 3.6445567e-06 5.6867493e-06 8.025944e-08 6.452175e-05 0.0028762168 2.16972e-06 0.0011414547
0.0030936133 0.006598611 0.0013253927 0.0014068342 4.7905473e-06 0.0013295284 0.0005903102 0.005818247
5.927808e-07 0.0007221138 0.004867831 0.005955426 0.003450177 0.0074051823 9.001513e-08 1.7112504e-07
0.009092345 0.005444279 5.7456273e-06 4.950506e-07 5.7393823e-05 0.0015318701 1.2618852e-06 6.825427e-08
0.00025822734 0.0 0.0 0.0001455534 0.0001277666 9.8560355e-05 0.0 0.0
1.8825566e-09 0.0 0.0002705706 0.00010556491 0.0 0.00096330856 0.0 0.00021686268
0.0 3.1017977e-09 0.00013403111 1.4002015e-05 0.00031753245 0.0 0.0009009159 0.0
0.00030705528 0.0015959691 0.0 0.000752648 1.2881611e-08 2.2476525e-09 8.674552e-05 1.7989484e-07
0.00013351465 0.0 0.0 0.0 2.0512904e-05 0.0007957002 0.0 6.9383874e-05
0.00080757507 0.0003079719 0.00037346318 0.00035131793 0.0 0.00034386068 0.00014576879 0.0014283658
0.0 0.00019126019 0.001119041 0.001761636 0.000927937 0.0019512468 0.0 0.0
0.002409457 0.0014651786 3.3034428e-06 0.0 1.2359936e-05 0.0003842792 0.0 0.0
3.067788e-10 0.0 1.15329184e-10 5.0394964e-09 3.190209e-09 2.0622808e-09 1.0691338e-09 1.2688006e-09
0.0 0.0 0.0 0.0 0.0 0.0 7.1747617e-09 1.07603336e-10
0.0 0.0 0.0 5.578691e-09 1.0011552e-08 1.270399e-09 0.0 6.237909e-09
6.8144146e-10 0.0 0.0 1.1296008e-08 3.4126005e-10 0.0 0.0 0.0
0.0 6.2442973e-10 0.0 4.2907367e-09 0.0 0.0 3.4763794e-09 0.0
0.0 0.0 0.0 9.0846114e-10 1.1437795e-09 4.5662282e-10 0.0 1.4077892e-10
3.7215642e-09 0.0 4.53362e-10 0.0 0.0 0.0 1.9997453e-11 9.452199e-10
0.0 3.5412045e-11 2.1085796e-12 1.2875019e-11 0.0 2.9388033e-12 0.0 0.0
3.7935457e-05 2.1667265e-07 3.5151177e-07 3.1037127e-06 3.6038167e-05 3.384614e-06 0.0 3.8671328e-07
8.854265e-08 2.6431474e-07 4.768832e-06 1.7896805e-06 3.1142295e-07 2.504915e-05 2.3170834e-07 1.5202379e-06
7.244968e-08 7.0713455e-08 2.4642816e-06 5.7887087e-07 6.934046e-06 8.607459e-08 2.0755137e-05 8.9061665e-08
6.5916624e-06 3.141346e-05 7.5639207e-07 1.9184123e-05 3.494383e-08 8.495533e-08 2.5093232e-06 5.217312e-08
2.1064377e-06 8.656026e-07 1.5922386e-06 0.0 4.3484198e-07 1.5508422e-05 5.9568816e-07 6.393069e-06
2.006189e-05 3.170187e-05 4.3058144e-06 8.328164e-06 1.3207466e-06 7.3134056e-06 1.1479801e-06 3.0487632e-05
1.5065868e-07 4.3266145e-06 2.6184065e-05 3.9759365e-05 1.6332498e-05 3.9694016e-05 0.0 0.0
6.3426864e-06 2.8838325e-05 6.765047e-08 1.3931688e-07 3.447241e-07 8.294343e-06 3.5526236e-07 0.0
00000000: c038 b73b b397 4e35 3bd6 a735 5d58 1b3a
00000010: a0f9 b33b 8321 e339 b094 d833 eaaf 0236
00000020: ab95 f934 3e3b 7f35 7997 893a 6b5b be39
00000030: 8da7 ad35 03fd 823b 14e1 7a35 1773 6a3a
00000040: 238d 9d34 b086 8734 c604 fc39 0ec2 8538
00000050: 64a6 ac3a ee53 cc34 69e3 6a3b 8db5 dd34
00000060: 105f 9e3a 6cdd cb3b c852 3436 a9c7 503b
00000070: fb22 6e36 9cfd 2635 f865 7d39 0575 7734
00000080: e16f d839 0295 7436 ced0 be36 185b ac33
00000090: da4f 8738 e97e 3c3b 819b 1136 dd9c 953a
000000a0: 38be 4a3b 2939 d83b cdb8 ad3a 8665 b83a
000000b0: 7dbe a036 9243 ae3a 0cbf 1a3a fea6 be3b
000000c0: 961f 1f35 3d4c 3d3a 5382 9f3b bc25 c33b
000000d0: 5d1c 623b 2ca7 f23b 574e c133 7ebe 3734
000000e0: 0ff8 143c ec65 b23b 90ca c036 9ee3 0435
000000f0: 26ba 7038 08c9 c83a 0c5e a935 2f93 9233
00000100: b062 8739 0000 0000 0000 0000 b19f 1839
00000110: 16f9 0539 30b2 ce38 0000 0000 0000 0000
00000120: 495e 0131 0000 0000 5fdb 8d39 bb62 dd38
00000130: 0000 0000 8b86 7c3a 0000 0000 a265 6339
00000140: 0000 0000 6727 5531 b48a 0c39 32ea 6a37
00000150: 7c7a a639 0000 0000 712b 6c3a 0000 0000
00000160: 43fc a039 d62f d13a 0000 0000 5a4d 453a
00000170: ed4d 5d32 1f75 1a31 25eb b538 1e29 4134
00000180: 1100 0c39 0000 0000 0000 0000 0000 0000
00000190: 2013 ac37 8996 503a 0000 0000 2f82 9138
000001a0: 72b3 533a 4a77 a139 61cd c339 1831 b839
000001b0: 0000 0000 3348 b439 83d9 1839 0138 bb3a
000001c0: 0000 0000 048d 4839 c9ac 923a b2e6 e63a
000001d0: cc40 733a fac0 ff3a 0000 0000 0000 0000
000001e0: fbe7 1d3b 3c0b c03a b7b0 5d36 0000 0000
000001f0: 855d 4f37 1579 c939 0000 0000 0000 0000
00000200: 47a7 a82f 0000 0000 8f9c fd2e e127 ad31
00000210: c03a 5b31 07b8 0d31 cdf0 9230 f461 ae30
00000220: 0000 0000 0000 0000 0000 0000 0000 0000
00000230: 0000 0000 0000 0000 df85 f631 4b9f ec2e
00000240: 0000 0000 0000 0000 0000 0000 afae bf31
00000250: 45ff 2b32 319a ae30 0000 0000 3a55 d631
00000260: 2e50 3b30 0000 0000 0000 0000 5e10 4232
00000270: 159c bb2f 0000 0000 0000 0000 0000 0000
00000280: 0000 0000 56a4 2b30 0000 0000 b86d 9331
00000290: 0000 0000 0000 0000 1de5 6e31 0000 0000
000002a0: 0000 0000 0000 0000 0000 0000 45b7 7930
000002b0: 2a33 9d30 f307 fb2f 0000 0000 bec9 1a2f
000002c0: 73be 7f31 0000 0000 073d f92f 0000 0000
000002d0: 0000 0000 0000 0000 43e6 af2d f8e8 8130
000002e0: 0000 0000 6bbe 1b2e cb60 142c ee7f 622d
000002f0: 0000 0000 c6cc 4e2c 0000 0000 0000 0000
00000300: e31c 1f38 86a6 6834 69b7 bc34 6149 5036
00000310: b027 1738 3a23 6336 0000 0000 789d cf34
00000320: d624 be33 24e7 8d34 f403 a036 f434 f035
00000330: a531 a734 a420 d237 81cb 7834 fa0a cc35
00000340: a295 9b33 22db 9733 0960 2536 b463 1b35
00000350: 00ab e836 02d8 b833 511b ae37 2b42 bf33
00000360: f32d dd36 f2c1 0338 de0a 4b35 97ed a037
00000370: 2615 1633 b070 b633 d865 2836 f414 6033
00000380: 535c 0d36 c25b 6835 e7b4 d535 0000 0000
00000390: 3a74 e934 1518 8237 61e7 1f35 0b84 d636
000003a0: 954a a837 a0f7 0438 aa7a 9036 31b9 0b37
000003b0: 8244 b135 ad65 f536 4c14 9a35 b1bf ff37
000003c0: bec4 2134 562d 9136 daa5 db37 4bc3 2638
000003d0: c601 8937 207d 2638 0000 0000 0000 0000
000003e0: 43d3 d436 d5e9 f137 3d47 9133 2297 1534
000003f0: 8512 b934 ef27 0b37 e3ba be34 0000 0000

exp_avg f4 [64]
-0.48103607 0.029010199 -1.5963376e-05 0.023192784 0.0035405913 -0.44517618 0.014210967 -0.44982427
0.0018331086 0.02417003 -0.22451018 -0.0024614402 0.0 -0.44790715 0.00028409561 0.009433816
0.0 -0.459326 0.0036271357 0.0008271877 0.00019063847 -0.4845126 0.022112833 0.00038482132
-0.3818551 -0.028743584 0.0001564554 0.07862578 0.00029813926 -0.37209195 0.32746965 -0.023272566
-0.2537299 -0.678291 -0.033573106 0.0 -0.02738766 -0.14355345 0.0 -0.058825698
-0.2820473 -0.5661609 0.006305827 0.0039092978 -0.06921074 0.0031933098 -0.50464344 0.0011414896
9.2795235e-05 -0.18834211 0.0024885796 -0.16620947 -0.005278648 -0.35908708 0.0 0.008541347
-0.17168537 -0.32589746 -0.0047061057 0.00508432 0.00244455 -0.05312882 0.004116685 0.0006989364
00000000: 5c4a f6be cca6 ed3c 17e9 85b7 cbfe bd3c
00000010: 4409 683b 22ee e3be 1ed5 683c 5e4f e6be
00000020: eb44 f03a 3a00 c63c ffe5 65be 1d50 21bb
00000030: 0000 0000 1654 e5be abf2 9439 4b90 1a3c
00000040: 0000 0000 c72c ebbe 3db5 6d3b a0d7 583a
00000050: 20e6 4739 0912 f8be f925 b53c d8c1 c939
00000060: 8382 c3be aa77 ebbc 2d0e 2439 8e06 a13d
00000070: 934f 9c39 d682 bebe 1aaa a73e 1ca6 bebc
00000080: e3e8 81be 7ba4 2dbf f483 09bd 0000 0000
00000090: 165c e0bc adff 12be 0000 0000 37f3 70bd
000000a0: 8168 90be ecef 10bf 1ca1 ce3b 9119 803b
000000b0: 5cbe 8dbd d946 513b 5030 01bf 099e 953a
000000c0: 109b c238 c1dc 40be 7017 233b d132 2abe
000000d0: 82f8 acbb 43da b7be 0000 0000 02f1 0b3c
000000e0: 4ace 2fbe 08dc a6be ad35 9abb 5e9a a63b
000000f0: be34 203b 9b9d 59bd 42e5 863b d438 373a
