gen_3_agent_5.pt (torch, 64207 bytes, 18 tensors)

net.0.weight f4 [64, 4]
0	0xbe7b9f32	-0.24572447
1	0x3e0150b2	0.12628439
2	0x3e8dfbfb	0.27731308
3	0x3ea765ac	0.32694757
4	0xbc548c00	-0.012972832
5	0x3e6a9cf7	0.2291144
6	0xbe0f077a	-0.13967696
7	0xbe8360d6	-0.25659817
8	0xbe510b8d	-0.20414563
9	0x3df7900a	0.1208802
10	0x3eafb774	0.3431965
11	0x3e0fb4a4	0.14033753
12	0x3ae5101e	0.0017476117
13	0xbcc3c775	-0.02389882
14	0xbe19714b	-0.14984624
15	0x3dc5b025	0.096527375
16	0xbc0620ba	-0.008186514
17	0xbe2a87c1	-0.16653349
18	0xbe867558	-0.262614
19	0x3e941c15	0.28927675
20	0xbe54c0fa	-0.2077674
21	0xbe868b1d	-0.2627801
22	0xbe689f0b	-0.2271692
23	0x3d3100fa	0.043213822
24	0xbe9a717c	-0.30164707
25	0x3e33e0ec	0.1756627
26	0xbe3087b3	-0.17239265
27	0xbe83eb87	-0.2576563
28	0x3e4d43ef	0.20045446
29	0x3da6ca1f	0.0814402
30	0xbe0da5ad	-0.13832732
31	0xbdeaaf9d	-0.11459277
32	0xbe8627fa	-0.26202375
33	0x3e671d22	0.22569707
34	0x3de56624	0.112011224
35	0xbdb2461a	-0.08704777
36	0xbe74a10b	-0.23889558
37	0xbdba3535	-0.0909218
38	0x3c68c95e	0.014208166
39	0x3e35dfbb	0.17761128
40	0x3de58acc	0.11208114
41	0xbe761198	-0.24030149
42	0x3e091434	0.13386613
43	0x3e80cd09	0.2515643
44	0xbd306014	-0.043060377
45	0xbdd69671	-0.10477913
46	0x3d654e18	0.05598268
47	0xbb9b6ab8	-0.0047429465
48	0x3dca7b12	0.09886755
49	0xbe03a9d1	-0.12857749
50	0xbd8c0107	-0.068361335
51	0x3e0af815	0.13571198
52	0x3dc5fb34	0.09667054
53	0x3e793640	0.24337101
54	0x3ea61f43	0.32445726
55	0xbd3f506f	-0.046707567
56	0xbe672e78	-0.2257632
57	0xbe1c2d54	-0.15251666
58	0xbe507c53	-0.20359926
59	0xbd5d047e	-0.053959362
60	0x3d1b5a91	0.037928168
61	0x3dee330b	0.116308294
62	0xbe5514bb	-0.2080869
63	0xbe88eedd	-0.26744738
64	0xbd79b9eb	-0.06096832
65	0xbe946a74	-0.28987467
66	0x3e8d749c	0.27628028
67	0xbe4fab35	-0.20280154
68	0xbe820d8d	-0.25400963
69	0xbe86975a	-0.26287347
70	0xbd1f12da	-0.038836338
71	0x3c702b66	0.0146587845
72	0x3e38578d	0.18002148
73	0xbe877364	-0.26455224
74	0x3e17fe67	0.1484314
75	0xbe639b10	-0.2222712
76	0x3e0cc66b	0.13747565
77	0x3e38e6c3	0.18056779
78	0xbe475a00	-0.19467926
79	0x3e93f453	0.28897342
80	0xbdc53cf1	-0.09630764
81	0x3e571cdb	0.21007101
82	0xbe8b1061	-0.27160934
83	0xbe32b042	-0.1745005
84	0xbe8bf833	-0.27337798
85	0xbe7619e2	-0.24033311
86	0x3e48d69b	0.19613115
87	0x3da0682b	0.078323685
88	0x3e606a19	0.21915473
89	0xbdb9bbe6	-0.09069042
90	0x3e5b544d	0.21418877
91	0xbdf1f6df	-0.11814665
92	0x3da24c07	0.07924657
93	0xbe341ed4	-0.17589885
94	0x3e6aca14	0.22928649
95	0xbe02f3d6	-0.12788329
96	0x3e71df94	0.23620445
97	0xbda6c37a	-0.08142753
98	0x3e4130eb	0.18866317
99	0x3d92c649	0.07166726
100	0xbe7c40da	-0.24634114
101	0x3e8e2e02	0.27769476
102	0x3e7713fd	0.24128719
103	0x3d9a9271	0.07547463
104	0x3e7f7618	0.24947393
105	0x3e06d6f8	0.13167942
106	0x3e697419	0.22798194
107	0x3e38c57b	0.18044083
108	0xbe98165d	-0.29704562
109	0x3e070107	0.13183986
110	0xbd220fa2	-0.03956569
111	0x3e94ec79	0.29086664
112	0xbd8f18eb	-0.069871746
113	0x3d674200	0.056459427
114	0x3d9116fb	0.07084461
115	0xbdfd767a	-0.12376113
116	0xbeb9554c	-0.3619789
117	0xbe7fdbd9	-0.24986209
118	0x3d06c462	0.03290213
119	0x3e870216	0.2636878
120	0xbe082f32	-0.13299254
121	0x3ea74c5a	0.3267544
122	0x3c983ff3	0.01858518
123	0xbe8c5ce6	-0.27414626
124	0xbd41fe04	-0.04736139
125	0x3e9cb1d4	0.30604422
126	0x3d814e75	0.063137926
127	0xbe2f6293	-0.17127447
128	0x3e33cd1c	0.17558712
129	0xbe9a8507	-0.30179617
130	0x3d7900a8	0.06079164
131	0x3e443752	0.19161728
132	0xbea9ec8f	-0.33188292
133	0x3da30a5b	0.079609595
134	0x3d5274de	0.051380984
135	0x3ea1212c	0.3147062
136	0x3e23d1e1	0.15998031
137	0xbe259b3f	-0.16172503
138	0x3ea69b76	0.32540482
139	0x3de14f3b	0.1100144
140	0xbe318d07	-0.17338954
141	0x3e554367	0.20826493
142	0xbe221f3e	-0.1583223
143	0xbe0c90dc	-0.13727134
144	0x3c93d38c	0.01804521
145	0xbe9efdae	-0.31052917
146	0xbd1ab2b6	-0.03776809
147	0xbdaf1fc1	-0.085509785
148	0x3e53e90d	0.2069437
149	0x3d3fd238	0.04683134
150	0x3e3f6e73	0.18694477
151	0xbda052db	-0.078283034
152	0xbdb5cd3a	-0.088770345
153	0xbb9efc1d	-0.0048518316
154	0x3e5376e8	0.20650828
155	0x3c86885d	0.016422445
156	0xbdd8edbf	-0.105922215
157	0xbdbf093e	-0.09327935
158	0x3deb1b1c	0.1147978
159	0xbe883486	-0.26602572
160	0x3e476572	0.19472292
161	0x3c5b83a0	0.013398081
162	0x3d544dd0	0.05183202
163	0x3c14a06d	0.009071452
164	0xbeab2789	-0.334286
165	0x3e4dc617	0.20095097
166	0x3e91294a	0.28351814
167	0x3e09fe51	0.1347592
168	0xbe83727e	-0.25673288
169	0x3da45e6a	0.080258206
170	0x3e96260d	0.29325905
171	0xbe068c67	-0.13139497
172	0x3e542a7a	0.20719329
173	0x3dd3dfc1	0.10345412
174	0xbe3c16a8	-0.18368018
175	0x3e930873	0.28717384
176	0x3da46aad	0.08028159
177	0xbc53bbaa	-0.012923161
178	0x3cabf27a	0.020989645
179	0xbe460a4b	-0.19339864
180	0xbd548940	-0.051888704
181	0xbc034633	-0.008012342
182	0x3e1f163b	0.15535824
183	0x3d905ddc	0.07049152
184	0x3c8e3896	0.017360967
185	0xbe509132	-0.20367888
186	0x3df1d1eb	0.11807617
187	0x3e25a316	0.16175494
188	0x3e2d6b01	0.1693535
189	0xbe7ffb26	-0.2499815
190	0x3e50c126	0.2038618
191	0xbe7c02e1	-0.24610473
192	0xbe6d7e13	-0.23192625
193	0x3bee9c28	0.007281799
194	0x3cd31382	0.025766138
195	0x3e5c16f0	0.21493125
196	0x3ddbc4df	0.107309096
197	0x3db0d029	0.086334534
198	0x3e0ce782	0.13760188
199	0x3e872f69	0.2640336
200	0xbde29332	-0.110632315
201	0x3e6cf4cc	0.23140258
202	0xbc25a263	-0.010109517
203	0x3dd9aac3	0.10628273
204	0x3d2c8f48	0.04212883
205	0x3e01922a	0.12653413
206	0xbe1ede3c	-0.15514463
207	0xbce58173	-0.028015828
208	0x3e1f3502	0.15547565
209	0x3dbc3947	0.09190612
210	0x3e1efcde	0.15526149
211	0x3dc5b29b	0.09653207
212	0x3dd63bfc	0.1046066
213	0x3e7c538a	0.24641243
214	0x3c073cdb	0.008254255
215	0xbe9867f6	-0.29766816
216	0x3e8cd032	0.2750259
217	0x3c6f8da4	0.014621172
218	0xbd60fecf	-0.054930504
219	0xbde36d01	-0.11104775
220	0xbe083b82	-0.1330395
221	0x3e432847	0.19058333
222	0x3e875712	0.26433617
223	0x3e93a02d	0.28833142
224	0xbe659396	-0.22419581
225	0x3d845cd1	0.06463016
226	0x3dac6afb	0.084188424
227	0x3e28cd0f	0.16484474
228	0xbe3513bf	-0.17683314
229	0xbe0a744b	-0.13520925
230	0xbde4d124	-0.11172703
231	0x3e8a5094	0.270146
232	0xbe15d5c4	-0.14632326
233	0xbe66a477	-0.22523676
234	0x3e952185	0.29127136
235	0xbe43c326	-0.19117412
236	0x3e24aec2	0.1608229
237	0x3d2125d2	0.03934271
238	0x3e638d84	0.22221953
239	0xbd93d8e4	-0.07219103
240	0xbe3795a8	-0.17928183
241	0x3e86e3df	0.26345727
242	0x3dc98f73	0.09841814
243	0x3dd0710a	0.101778105
244	0x3e6fff18	0.23437154
245	0x3e8473f6	0.2586972
246	0xbe11dccd	-0.14244385
247	0xbe01bb94	-0.12669212
248	0x3d3ea237	0.04654142
249	0xbe3b05af	-0.18263887
250	0x3e3b9f99	0.183226
251	0xba9188a4	-0.0011103344
252	0xbe93116e	-0.28724235
253	0xbde97014	-0.1139833
254	0xbe545a43	-0.20737557
255	0xbe25cb3d	-0.1619081

net.0.bias f4 [64]
0	0x3daf6156	0.08563487
1	0x3a540a20	0.0008088667
2	0x3dd3d928	0.10344154
3	0x3d9f31ba	0.077731565
4	0x3d2a7df9	0.041624043
5	0x3d65374b	0.055960935
6	0x3d98a48e	0.07453261
7	0x3d831303	0.064001106
8	0x3cf7c2b8	0.030244216
9	0x3b8164e5	0.003948795
10	0x3ca7ac7a	0.020467985
11	0xbc273055	-0.010204394
12	0x3d88cd2d	0.06679759
13	0x3d6563e5	0.05600347
14	0x394d4148	0.00019574643
15	0x3d63bf74	0.055602506
16	0xbd0d6ea7	-0.034529354
17	0x3d3c2b28	0.045939595
18	0x3d7fa4df	0.062413093
19	0x3db5a3c3	0.08869126
20	0x3d1fa95e	0.03897988
21	0x3d9b12fe	0.07571982
22	0x3ce4e45c	0.027940921
23	0xbc82a7eb	-0.01594921
24	0x3d6b868b	0.057501357
25	0x3b683bb5	0.0035435979
26	0xbcb36e57	-0.0219032
27	0xbab8d7fc	-0.0014102454
28	0x3d0986e9	0.033575926
29	0x3d8d4dbb	0.068995915
30	0x3d9a3c43	0.07531025
31	0x3d6fc2f3	0.058535527
32	0x3d63b339	0.055590842
33	0x3dbf9289	0.09354121
34	0x3db8af02	0.09017755
35	0x3d13786f	0.036003526
36	0x3d6f3ea1	0.058409337
37	0x3d2f647c	0.04282044
38	0x3d7ff160	0.062486053
39	0x3d281def	0.041044172
40	0xbb28a981	-0.0025735798
41	0x3db0c8b8	0.08632034
42	0x3db2d094	0.08731189
43	0x3d4df7aa	0.05028502
44	0x3d85b82b	0.06529268
45	0x3dc05034	0.093902975
46	0xbd0e337e	-0.034717076
47	0x3d6bf839	0.05760977
48	0x3c510f0e	0.012759937
49	0x3d8a80a7	0.0676282
50	0x3d0b5d84	0.03402473
51	0x3cbce40f	0.023057966
52	0xbd0ae406	-0.033908866
53	0x3d23d287	0.039995696
54	0xbce6badd	-0.028165275
55	0xbc0cd259	-0.008595073
56	0x3d059037	0.032608237
57	0xbc88ff5d	-0.01672333
58	0x3d32d048	0.043655664
59	0xbbda6077	-0.0066643315
60	0xbd1482ec	-0.03625767
61	0x3d11d1b3	0.035600375
62	0x3d1616d2	0.036642857
63	0x3d18c3b6	0.03729602

net.3.weight f4 [64, 64]
0	0xbe0b16fe	-0.1358299
1	0xbd96729c	-0.07346079
2	0xbd8a143d	-0.067421414
3	0xbe37ee6f	-0.17962049
4	0x3d832e55	0.064053215
5	0xbe29eca7	-0.16594182
6	0xbe35d7be	-0.1775808
7	0xbe5960cc	-0.21228331
8	0x3be7f7c0	0.0070790946
9	0xbe0d5f8c	-0.1380598
10	0xbddfa9b9	-0.10921044
11	0x3d5bb68f	0.0536409
12	0xbdbbd52b	-0.09171518
13	0x3d0afa84	0.033930317
14	0x3e31effa	0.173767
15	0x3bdd8c60	0.006761119
16	0x3e623d8c	0.22093791
17	0x3dc6e5f9	0.097118326
18	0x3d878b7a	0.066184
19	0xbcb91cef	-0.022596804
20	0xbd9c1a4e	-0.07622205
21	0x3e38c27f	0.18042944
22	0xbdcb762a	-0.099346474
23	0xbe23affa	-0.15985098
24	0xbd7db776	-0.06194254
25	0xbc6a8943	-0.014314952
26	0xbe214b2d	-0.15751334
27	0x3c8a4428	0.016878203
28	0xbdeadaf2	-0.11467542
29	0xbe59bd56	-0.21263632
30	0x3d864846	0.06556754
31	0xbd156fe4	-0.03648366
32	0x3def47f3	0.11683645
33	0x3db5b2ff	0.088720314
34	0xbc12831f	-0.0089423945
35	0xbd86898c	-0.06569204
36	0xbd8068f8	-0.06270021
37	0x3e1b5f3d	0.1517305
38	0x3dc4242c	0.09577212
39	0xbd08db4c	-0.033412263
40	0xbe5b09d7	-0.21390472
41	0xbe4987a7	-0.19680654
42	0x3db16dc8	0.08663517
43	0x3e40efc7	0.18841468
44	0xbe10b5d7	-0.14131866
45	0x3e105e81	0.1409855
46	0xbe1333a3	-0.14375167
47	0x3ccdf324	0.025140353
48	0xbdff666f	-0.124707095
49	0x3e3bfab1	0.1835735
50	0xbd898af1	-0.06715954
51	0xbd8f3eb8	-0.069943845
52	0xbe07e66d	-0.13271494
53	0x3e2ec189	0.17066015
54	0x3d813d36	0.06310503
55	0x3e116381	0.14198114
56	0x3d52819c	0.051393136
57	0x3da888ef	0.08229243
58	0x3d9218d8	0.07133645
59	0x3ddd74e6	0.10813312
60	0xbe60b0c4	-0.2194243
61	0x3d8f5d12	0.07000174
62	0x3e2bdc5b	0.16783278
63	0xbe049e15	-0.12950929
64	0x3dab6d69	0.08370478
65	0x3df0dde1	0.1176107
66	0x3e22ba0e	0.15891287
67	0x3c6d09bb	0.014467652
68	0xbc75ee21	-0.015010388
69	0x3d875036	0.06607096
70	0x3de2c350	0.11072409
71	0x3d2a7125	0.04161181
72	0x3e02b629	0.12764801
73	0x3e4b8228	0.1987387
74	0x3ca4bc6f	0.020109383
75	0x3d47be74	0.048765615
76	0xbdcceac4	-0.100057155
77	0x3e1f8b0b	0.15580384
78	0xbd47d3bb	-0.048785906
79	0x3dfb629b	0.12274667
80	0xbc99dabe	-0.018781062
81	0xbe3ccd76	-0.18437752
82	0x3cf692f6	0.030099373
83	0xbce80bd0	-0.028325945
84	0x3e1c0832	0.15237501
85	0xbe107786	-0.14108095
86	0xbe1adfaf	-0.15124391
87	0x3df39e21	0.11895395
88	0x3dbbea8e	0.09175597
89	0xbd073a8c	-0.03301482
90	0xbe105ff4	-0.14099103
91	0x3df3d132	0.11905135
92	0xbe6d1b58	-0.23154962
93	0xbe282288	-0.16419423
94	0xbdcece21	-0.1009791
95	0xbdf52e94	-0.11971775
96	0x3da5337a	0.08066459
97	0x3e06fa23	0.13181357
98	0x3dea9393	0.11453929
99	0xbe202967	-0.15640794
100	0xbe34eeef	-0.17669271
101	0xbe52a3d4	-0.20570308
102	0xbe5ebc36	-0.21751484
103	0x3d89cf03	0.067289375
104	0x3d46eed8	0.048567623
105	0xbda85b33	-0.0822052
106	0x3c10b296	0.008831641
107	0xbdae742f	-0.08518254
108	0xbd7bef77	-0.06150767
109	0xbe428f4b	-0.18999974
110	0xbd2fccd1	-0.042919938
111	0x3c65d2ec	0.0140273385
112	0x3dd6cd8a	0.10488422
113	0x3d076e8d	0.033064414
114	0xbd4ea430	-0.05044955
115	0x3dfadb55	0.122488655
116	0xbdde1860	-0.10844493
117	0x3cdaff7a	0.026733149
118	0xbdf10ce2	-0.11770035
119	0xbe28d40a	-0.16487136
120	0xbdb1f142	-0.086885944
121	0xbe0b3f42	-0.1359835
122	0x3db51023	0.088409685
123	0xbe64a846	-0.22329816
124	0x3d76a6a5	0.06021752
125	0xbe55cdae	-0.20879242
126	0x3dce6cd4	0.10079351
127	0x3e026b22	0.1273618
128	0xbe12e7b5	-0.14346202
129	0x3e2a668b	0.1664068
130	0x3e7feed3	0.24993448
131	0x3e4e6870	0.20157027
132	0xbe4bab8e	-0.19889662
133	0xbe14086f	-0.14456342
134	0x3cff1b0b	0.031140825
135	0x3de00d83	0.10940077
136	0x3dd759a5	0.10515145
137	0x3e6c8364	0.23096997
138	0x3e31cd2b	0.17363422
139	0xbda8ffae	-0.08251892
140	0xbd97be71	-0.07409371
141	0x3d3deff2	0.046371408
142	0x3e0d91ed	0.13825198
143	0x3dc46196	0.095889255
144	0xbdaa8a0f	-0.08327114
145	0xbda64fb5	-0.08120672
146	0xbdd890a2	-0.105744615
147	0x3e67d5ba	0.22640124
148	0x3e46b489	0.19404806
149	0xbe309704	-0.17245108
150	0x3d775635	0.060384948
151	0x3cb3abc8	0.021932498
152	0x3da1ad01	0.07894326
153	0xbdb6f5fe	-0.08933638
154	0xbd163e34	-0.036680415
155	0xbe225522	-0.15852788
156	0x3e1b5578	0.15169322
157	0x3d73eab9	0.05955002
158	0xbdb98f27	-0.09060507
159	0x3e7bbaec	0.24583024
160	0xbe451b9b	-0.19248812
161	0x3d318c7f	0.04334688
162	0xbe3f31f5	-0.18671401
163	0x3e52fbbd	0.20603843
164	0x3e0bd49d	0.13655324
165	0xbce9289b	-0.028461745
166	0x3c917d49	0.017759936
167	0x3dac5c22	0.084160104
168	0xbe0d1da7	-0.13780843
169	0x3e0b4107	0.13599025
170	0x3dd05cb4	0.10173932
171	0xbd454ffb	-0.04817198
172	0xbcbdf280	-0.023186922
173	0x3e03b579	0.12862195
174	0xbdc85413	-0.09781661
175	0x3e671a72	0.22568682
176	0xbdd92cec	-0.10604271
177	0xbe289bc9	-0.16465677
178	0xbe2c18c0	-0.16806316
179	0xbd4c861b	-0.04993258
180	0xbdce00fd	-0.10058782
181	0x3e850233	0.2597824
182	0x3cc69cc2	0.02424467
183	0x3e08a8ed	0.1334569
184	0xbd861bcc	-0.065482706
185	0x3dfac9cb	0.1224552
186	0xbe17560b	-0.14778917
187	0x3e5a7751	0.21334578
188	0x3cd34ca7	0.025793387
189	0x3e06f6b9	0.13180055
190	0x3ddee301	0.10883141
191	0x3d82eb75	0.06392566
192	0xbcfc7e73	-0.030822014
193	0x3da038e1	0.07823349
194	0x3d8a945b	0.06766578
195	0xbe0390b6	-0.12848172
196	0x3e16c0ea	0.14722028
197	0xbc0debd1	-0.00866218
198	0x3daf2e57	0.085537605
199	0x3de9f8ab	0.11424383
200	0x3e6d2d6a	0.23161855
201	0x3c2faea0	0.010722786
202	0x3d799aba	0.060938574
203	0x3e84e087	0.2595255
204	0x3c337958	0.010954224
205	0x3e12c297	0.14332043
206	0xbcc5b5a6	-0.024134468
207	0x3da31308	0.07962614
208	0x3d330a11	0.043710772
209	0x3e7a2605	0.24428566
210	0x3e588575	0.2114466
211	0xbb5a7274	-0.003333238
212	0xbe0371b0	-0.12836337
213	0x3da508e1	0.08058334
214	0x3e5a1713	0.21297865
215	0x3df42d04	0.119226485
216	0x3df13bc6	0.11778979
217	0x3e255c44	0.16148478
218	0x3e80b0ce	0.2513489
219	0xbd9898eb	-0.07451042
220	0xbd21a978	-0.03946826
221	0x3e447281	0.19184305
222	0xbd8d7f97	-0.069091015
223	0x3e2dfd59	0.16991176
224	0xbcdef9c4	-0.027218707
225	0x3d85faec	0.06542
226	0x3dc3bd67	0.0955761
227	0x3e2c2ae3	0.16813235
228	0xbcbd1baa	-0.02308448
229	0xbd9dba0e	-0.07701503
230	0xbc7b5026	-0.015338933
231	0x3df00e4d	0.11721478
232	0xbd30c6b9	-0.043158267
233	0x3d2f2053	0.042755436
234	0x3d848291	0.06470216
235	0xbd5ba2c5	-0.053622026
236	0x3e152b7a	0.14567366
237	0x3e51a887	0.20474444
238	0x3a40f21a	0.00073602947
239	0x3e6d7252	0.23188141
240	0xbe0c1fb8	-0.13683975
241	0xbdddbfbb	-0.10827585
242	0xbd058256	-0.032595
243	0x3e06b05b	0.13153212
244	0x3d28e11d	0.04123031
245	0xbdea3ecc	-0.11437759
246	0x3e4ab011	0.19793727
247	0xbe063073	-0.1310442
248	0x3e913e71	0.28367952
249	0xbcf79e04	-0.030226715
250	0x3e82bb57	0.25533554
251	0xbe27cfc7	-0.16387855
252	0x3e0450b3	0.1292141
253	0x3e7c8637	0.24660574
254	0x3e1f2a6b	0.15543525
255	0x3cd6a359	0.026200937

net.3.bias f4 [64]
0	0xbc1c956b	-0.009557108
1	0xbc8a33b1	-0.016870352
2	0x3d5cb7be	0.053886168
3	0x3dbc54b9	0.09195847
4	0x3c6a4b6c	0.014300209
5	0x3d1cb5f3	0.038259458
6	0xbc44dc42	-0.012015404
7	0x3da7342e	0.08164249
8	0xbc974bb1	-0.01846871
9	0xbccd0611	-0.025027307
10	0x3d7c4008	0.061584502
11	0x3d394d8e	0.045239978
12	0xbce421c7	-0.027848138
13	0x3da1f2c8	0.07907635
14	0xbcd3db7a	-0.02586149
15	0x3cce481a	0.025180865
16	0x3d851842	0.064987674
17	0xbcb64428	-0.022249296
18	0xbd1574ee	-0.036488466
19	0x3d9a0327	0.075201325
20	0x3d9b7b0d	0.075918294
21	0xbc8176a2	-0.015803639
22	0x3d63b2f4	0.055590585
23	0x3cac7aa6	0.021054577
24	0x3d9e506e	0.077301845
25	0xbca70cbc	-0.020391814
26	0x3dc6e8f6	0.097124025
27	0x3d1be1cf	0.038057145
28	0x3da38725	0.07984761
29	0x3c687878	0.014188878
30	0xbc98edde	-0.018668111
31	0x3da43bb7	0.08019202
32	0xbc7f0711	-0.01556565
33	0x3dd51d5b	0.1040599
34	0xbcbe9526	-0.023264479
35	0xbca96103	-0.020676142
36	0xbd00cab4	-0.031443313
37	0x3dbda66e	0.092602596
38	0x3bc29ceb	0.0059391162
39	0xbccd017b	-0.02502512
40	0x3bb8ab41	0.0056356494
41	0x3db8f084	0.0903025
42	0xbc29f356	-0.010372957
43	0xbc2eb1a9	-0.010662475
44	0x3dafee9a	0.085904315
45	0xbc821541	-0.015879275
46	0xbc5751a1	-0.01314202
47	0x3d5e2b93	0.054240774
48	0x3cefb5aa	0.029261429
49	0xbc8f375a	-0.017482448
50	0xbc1e1b0a	-0.009650001
51	0x3c0ce7d0	0.00860019
52	0x3ce73313	0.028222596
53	0x00000000	0.0
54	0x3dc4f2e2	0.09616639
55	0x3c16b191	0.009197609
56	0x3d1f290a	0.038857497
57	0x3d102748	0.03519371
58	0x3d219290	0.039446414
59	0x3c3e0849	0.011598655
60	0xbc1fc22a	-0.009750882
61	0x3d6e581f	0.058189508
62	0x3daa37cb	0.08311423
63	0x3cd279ae	0.025692787

net.6.weight f4 [2, 64]
0	0x3e946882	0.28985983
1	0xbd857913	-0.06517234
2	0x3e0ae86b	0.13565223
3	0x3e36cd4e	0.17851755
4	0x3e48ec30	0.19621348
5	0x3e89f4b2	0.269445
6	0xbd15e06b	-0.036590975
7	0x3deb6466	0.11493759
8	0xbddbd00a	-0.1073304
9	0xbe7487cd	-0.23879929
10	0x3ebd816d	0.37012807
11	0x3cc67168	0.024223998
12	0xbe6f4a78	-0.23368251
13	0x3e85b92b	0.26117834
14	0x3c864edf	0.01639503
15	0xbe5bc90a	-0.21463409
16	0x3eb73335	0.35781255
17	0x3c09a246	0.008400505
18	0xbe151243	-0.14557748
19	0x3d86e76a	0.065871075
20	0x3da7d3f0	0.08194721
21	0x3e28cda6	0.16484699
22	0x3c4244f5	0.011857261
23	0xbe0192db	-0.12653677
24	0x3eae4f16	0.34044713
25	0xbe8acc4b	-0.27108988
26	0x3e1cc78a	0.15310493
27	0x3e76deaf	0.24108385
28	0x3e2f580c	0.17123431
29	0xbe428a7c	-0.1899814
30	0x3e890162	0.26758868
31	0x3ea4548e	0.3209576
32	0x3d90a2f0	0.07062328
33	0x3deb2a1b	0.1148264
34	0xbdb88627	-0.090099625
35	0xbd1e111c	-0.038590536
36	0x3c3236cd	0.010877323
37	0x3e308a32	0.17240217
38	0x3e6f09cc	0.23343581
39	0xbe4879d5	-0.19577725
40	0xbe342f72	-0.17596224
41	0x3ea73883	0.32660303
42	0x3e14141a	0.14460793
43	0xbe73773b	-0.23775952
44	0x3e97d93b	0.2965792
45	0x3bd48a0f	0.0064861844
46	0xbe30fdd9	-0.17284335
47	0x3cb3b718	0.021937892
48	0x3e17bc15	0.14817841
49	0xbdd5167e	-0.10404681
50	0xbc5eb2dc	-0.013592448
51	0xbe74a920	-0.23892641
52	0x3ea200c6	0.31641215
53	0x3a5e9a00	0.0008491576
54	0x3e6cf44b	0.23140065
55	0x3e1d5d25	0.15367563
56	0x3e0c8d97	0.13725887
57	0x3e6658c1	0.22494794
58	0x3e024dcc	0.1272499
59	0x3e0e289d	0.1388268
60	0x3d9ffc4f	0.07811796
61	0x3ec0991c	0.37616813
62	0x3ebf7df5	0.37400785
63	0xbdfac2ff	-0.12244224
64	0xbe5da0d3	-0.21643381
65	0x3e94dcec	0.290748
66	0xbd1b917a	-0.037980534
67	0x3e612fce	0.21990892
68	0xbe4136a8	-0.18868506
69	0xbe7c197c	-0.24619097
70	0xbc854c0a	-0.01627161
71	0x3ea20d97	0.31650993
72	0xbe13a52a	-0.14418474
73	0xbe0d7cc7	-0.1381713
74	0xbd07ff40	-0.03320241
75	0x3e8ef9e0	0.27925014
76	0xbb03cebc	-0.0020112237
77	0x3da486a2	0.08033492
78	0xbe20682a	-0.15664735
79	0x3ea78757	0.32720444
80	0x3c487536	0.0122349765
81	0xbd39d38c	-0.045367762
82	0xbe254ac7	-0.16141807
83	0x3e16255c	0.14662689
84	0x3ea5f7c5	0.32415596
85	0xbc37e9c7	-0.01122517
86	0x3e87abc9	0.2649825
87	0x3e8d49e0	0.27595425
88	0x3dcca748	0.09992844
89	0x3e2a5aa6	0.16636142
90	0x3e38c438	0.18043602
91	0xbe3adfe2	-0.18249467
92	0x3d9b9a15	0.07597748
93	0x3ea956ba	0.3307398
94	0xbe143b1c	-0.14475673
95	0x3dbeb26d	0.09311376
96	0xbe48ee3e	-0.19622132
97	0x3e125b51	0.14292647
98	0xbcc4a12a	-0.02400263
99	0x3c58bfa0	0.013229281
100	0xbe01ea66	-0.12687072
101	0x3e8c8e12	0.2745214
102	0xbe709949	-0.23495974
103	0x3e0d9496	0.13826212
104	0x3e6def6c	0.23235863
105	0x3eb9535e	0.36196417
106	0xbe701e90	-0.23449159
107	0x3e69fbfa	0.22850028
108	0x3e3668fb	0.17813484
109	0x3dad8d88	0.084742606
110	0x3dbd8a87	0.092549376
111	0x3eb8f7cf	0.36126563
112	0xbe1fd177	-0.15607248
113	0xbca49ea9	-0.020095186
114	0x3e018330	0.126477
115	0x3eb4e8ef	0.35333964
116	0xbe87c41c	-0.26516807
117	0xbe261f37	-0.16222845
118	0x3e4eeae1	0.20206787
119	0xbe2c9581	-0.16853906
120	0xbdf124c7	-0.11774593
121	0xbe556c6f	-0.20842145
122	0xbc81bcd8	-0.015837118
123	0xbd8d7280	-0.06906605
124	0xbe62f02e	-0.22161934
125	0xbe168ecf	-0.14702915
126	0x3e4ba811	0.19888331
127	0x3e9f31a4	0.3109256

net.6.bias f4 [2]
0	0x3d904948	0.07045227
1	0x3d84b6a0	0.064801455

exp_avg f4 [64, 4]
0	0x3de691b6	0.11258261
1	0x3db87096	0.09005849
2	0xbd6a449d	-0.05719434
3	0xbe2b1bff	-0.16709898
4	0x3bb28ba6	0.0054487763
5	0xbba4e4d3	-0.005032161
6	0xbb2d1c0c	-0.0026414422
7	0x3bd2d981	0.00643462
8	0x3da9aafc	0.08284566
9	0x3d800372	0.06250657
10	0xbd1b5113	-0.037919115
11	0xbdc7fd46	-0.09765105
12	0x3d1596dd	0.036520828
13	0x3cfd85ee	0.030947652
14	0xbc888a91	-0.016667636
15	0xbd48c65f	-0.049017306
16	0x3d27d160	0.04097116
17	0x3d71052b	0.05884282
18	0xbcc30f01	-0.023810865
19	0xbde7f226	-0.11325483
20	0x3d466b28	0.048442036
21	0x3d1644af	0.036686596
22	0xbcd51294	-0.026009835
23	0xbd95c568	-0.07313043
24	0x3d5d7f66	0.054076575
25	0x3b945953	0.00452725
26	0xbcc94de2	-0.02457327
27	0xbb7cfed9	-0.003860405
28	0x3d46af37	0.04850694
29	0xbc280c6c	-0.010256868
30	0xbcccc4e2	-0.024996225
31	0x3b3d8646	0.0028919145
32	0x3ce61780	0.028087378
33	0xbc1a5853	-0.009420472
34	0xbc72e1e3	-0.014824363
35	0x3b960dd4	0.004579285
36	0x3c8a5cbc	0.016889922
37	0x3cdcd551	0.026957186
38	0xbc4613af	-0.012089654
39	0xbd7d852c	-0.06189458
40	0x3c0f6851	0.008752898
41	0x3cb02ded	0.021506274
42	0xbb62f031	-0.0034628029
43	0xbcfc25f6	-0.03077982
44	0xbafe9a26	-0.0019424602
45	0x3c36c96a	0.011156419
46	0x398567e6	0.00025445147
47	0xbc9f6e4d	-0.019461775
48	0x3d829fea	0.063781574
49	0x3d905cdc	0.070489615
50	0xbd0aeb6b	-0.03391592
51	0xbe050b48	-0.12992585
52	0x3d3420c7	0.04397657
53	0xbc8b7560	-0.017023742
54	0xbcaabe16	-0.020842593
55	0x3cb7eabc	0.022450797
56	0x3ccae617	0.024767919
57	0x3cac3c17	0.021024747
58	0xbc5e81cd	-0.013580752
59	0xbd2be66e	-0.0419678
60	0x3cd2a4f3	0.02571342
61	0xbc8ddc4c	-0.01731696
62	0xbc3cb7e7	-0.011518455
63	0x3cdd72e0	0.027032316
64	0xbacd1611	-0.0015646835
65	0xbab2c7a1	-0.0013639816
66	0xb9263a6c	-0.00015852757
67	0xba6c6d6e	-0.0009018992
68	0x3d4a824b	0.049440663
69	0x3d12227e	0.035677426
70	0xbcdd31b7	-0.027001245
71	0xbd9a7a91	-0.07542909
72	0x3db1b419	0.08676929
73	0x3d4311d1	0.047624413
74	0xbd352763	-0.044227015
75	0xbdc0c6cd	-0.09412918
76	0x3d967acf	0.07347643
77	0x3d296ac0	0.04136157
78	0xbd18747e	-0.03722047
79	0xbda48e7e	-0.08034991
80	0x3d2308a4	0.039803162
81	0xbc55c738	-0.013047986
82	0xbc9ac954	-0.018894829
83	0x3c89a858	0.016803905
84	0x3d499731	0.049216453
85	0x3ce2434d	0.027619982
86	0xbcd0907f	-0.025459526
87	0xbd663dab	-0.056211155
88	0x3c5e4af3	0.013567674
89	0xbbfa1536	-0.007631923
90	0xbbf671c0	-0.0075208843
91	0x3bc10318	0.0058902614
92	0xb9d4adbf	-0.00040565242
93	0x37d76eee	2.5681653e-05
94	0x383ed52c	4.549806e-05
95	0xba3b90c6	-0.0007155057
96	0x3d920399	0.071295924
97	0x3d9971f8	0.07492441
98	0xbd167c3a	-0.036739565
99	0xbe099ea7	-0.13439427
100	0x3c9a3f82	0.018829111
101	0xbb54e533	-0.0032485246
102	0xbc1717bd	-0.009221968
103	0x3b32bbaa	0.00272725
104	0x38949878	7.0855895e-05
105	0x3ac48870	0.0014994275
106	0x38b9f41a	8.866955e-05
107	0xbae2be69	-0.0017299178
108	0x3cb7bbdd	0.022428447
109	0x3c89710e	0.016777541
110	0xbc4a478f	-0.012346162
111	0xbd129e2b	-0.035795372
112	0x3cc618c8	0.024181738
113	0xbbb04304	-0.0053790826
114	0xbc39d14f	-0.011341407
115	0x3bfe273e	0.007756143
116	0x3d562814	0.052284315
117	0x3d13fb7f	0.036128517
118	0xbce0bade	-0.027432855
119	0xbd922b49	-0.07137162
120	0x3d334c53	0.04377396
121	0xbc890176	-0.01672433
122	0xbcacc3b0	-0.021089405
123	0x3c9841d5	0.018586079
124	0x3d2f5325	0.042803902
125	0xbcc37246	-0.0238582
126	0xbca78c16	-0.02045254
127	0x3d02ff35	0.031981666
128	0x3d233671	0.03984684
129	0x3d41feb7	0.047362056
130	0xbcb2f081	-0.021843197
131	0xbdb5e72f	-0.088819854
132	0x3daae081	0.08343602
133	0x3d2694b4	0.040669158
134	0xbd2cd12c	-0.04219167
135	0xbda9764c	-0.082745165
136	0x3da5e6b6	0.08100645
137	0x3d821da0	0.06353307
138	0xbd23cd73	-0.039990854
139	0xbde760e7	-0.112977795
140	0x3ce1523c	0.027505033
141	0xbc1e8ca3	-0.009677085
142	0xbc6f2fe9	-0.014598825
143	0x3baecf10	0.0053347424
144	0x3da06f87	0.07833772
145	0x3cf94b14	0.030431308
146	0xbd2464a0	-0.040135026
147	0xbd8b0a51	-0.06789077
148	0x3cc09a6d	0.023511136
149	0xbc75611d	-0.014976767
150	0xbc0fad5a	-0.008769358
151	0x3cff1326	0.03113706
152	0x3d88a89c	0.06672785
153	0x3c44e192	0.012016671
154	0xbd011f1a	-0.0315238
155	0xbcca0dad	-0.024664724
156	0x3d0005fd	0.03125571
157	0xbc4da645	-0.012551849
158	0xbc7506f4	-0.014955271
159	0x3c7dac56	0.015482983
160	0xb4f1a955	-4.5012953e-07
161	0x3783ad84	1.5697216e-05
162	0xb72db6c0	-1.0354153e-05
163	0xb898506d	-7.262905e-05
164	0x3d8b085e	0.06788705
165	0x3cf0fe83	0.029418236
166	0xbcfbea3a	-0.030751336
167	0xbd44568d	-0.047934104
168	0x3d9a1dec	0.075252384
169	0x3d435406	0.047687553
170	0xbd08d66e	-0.03340762
171	0xbd8c15b7	-0.06840079
172	0x3d271a99	0.04079685
173	0x3d5c4860	0.05377996
174	0xbcb56b32	-0.022145841
175	0xbdc9ae6f	-0.09847724
176	0x3d1b4541	0.037907843
177	0x3b5de4d0	0.0033858307
178	0xbc8da906	-0.01729251
179	0xbb4f4239	-0.0031625165
180	0x3d8cfc64	0.06884077
181	0x3d0d0a34	0.03443356
182	0xbd06dfdc	-0.032928333
183	0xbd7bd522	-0.061482556
184	0x3ae528f0	0.0017483514
185	0x3b3488af	0.002754729
186	0xbaa744f6	-0.0012761641
187	0xbbb81f45	-0.005618962
188	0x3d3c2207	0.04593089
189	0x3c15af9b	0.009136106
190	0xbcb6e374	-0.022325255
191	0xbca80785	-0.020511398
192	0x3cee7117	0.02910666
193	0x3d0e82d8	0.03479275
194	0xbc8f2ac2	-0.017476443
195	0xbd94f33a	-0.07272954
196	0x3d2f233b	0.042758208
197	0x3c603f7e	0.013687013
198	0xbcb5578c	-0.022136472
199	0xbd0c40ae	-0.03424137
200	0x3c117bea	0.008879641
201	0x3bfc502b	0.0076999865
202	0xbb2e06d4	-0.0026554363
203	0xbbdd98b9	-0.0067625907
204	0x3cbe4c79	0.023229824
205	0xbbaf786c	-0.0053549316
206	0xbc42e023	-0.011894259
207	0x3b2a73f7	0.0026009062
208	0x364e611f	3.0752924e-06
209	0x38c6b3f6	9.474896e-05
210	0x3862df9c	5.409085e-05
211	0x39038079	0.00012540993
212	0x3ce22ce1	0.02760929
213	0xbc5bb02f	-0.013408705
214	0xbc5fae40	-0.013652384
215	0x3c7a5c86	0.015280848
216	0xb8d02aa5	-9.926156e-05
217	0x3a2a4dc8	0.00064965757
218	0xb8469d6a	-4.7353482e-05
219	0xba82f4df	-0.000999119
220	0x3c82ace4	0.015951581
221	0x3baeed1c	0.0053383242
222	0xbc00b90f	-0.007856621
223	0xbc3c2dda	-0.011485541
224	0x3d51ef97	0.05125388
225	0x3d501866	0.05080452
226	0xbce84a6f	-0.028355805
227	0xbdce6b55	-0.10079066
228	0xbc39e676	-0.01134645
229	0x3c281d15	0.01026084
230	0x3bdafe65	0.006683158
231	0xbc22fc09	-0.009947785
232	0x3d367be7	0.044551756
233	0x3b78ec3a	0.00379826
234	0xbcb58c18	-0.022161528
235	0xbc667c3b	-0.014067705
236	0x3a262bb0	0.00063389074
237	0xba915805	-0.0011088854
238	0xb9cdadcb	-0.00039230133
239	0x3a87b65d	0.0010354031
240	0xbb62f094	-0.003462826
241	0xbb1059c1	-0.0022026154
242	0x3b15b47c	0.0022843173
243	0x3bd1a064	0.006397294
244	0x3b307fe2	0.0026931693
245	0xb6968840	-4.48621e-06
246	0xba1788cb	-0.00057805766
247	0x3b29f5be	0.0025933827
248	0x3d6c6120	0.057709813
249	0x3c8d7099	0.017265605
250	0xbcef80a4	-0.029236145
251	0xbd21ebaa	-0.039531387
252	0x3d574f5e	0.052565925
253	0xbae431f6	-0.0017409909
254	0xbccdeb0e	-0.025136497
255	0xbb67ecc5	-0.0035388928

exp_avg_sq f4 [64, 4]
0	0x39c71669	0.00037972935
1	0x3b1d2d46	0.0023983284
2	0x39a6e501	0.00031832609
3	0x3b92570a	0.0044659423
4	0x36b0a3c3	5.264273e-06
5	0x37834e2f	1.5652824e-05
6	0x360d399d	2.1044173e-06
7	0x375a0553	1.2995052e-05
8	0x39825776	0.00024860696
9	0x3aaa33d1	0.0012985413
10	0x39182a5e	0.00014511633
11	0x3b1c6147	0.0023861693
12	0x3891b144	6.947157e-05
13	0x39b30c28	0.00034150598
14	0x37ea37f5	2.792103e-05
15	0x3a1fa726	0.0006090276
16	0x394f275f	0.00019755725
17	0x3a693a85	0.0008896965
18	0x3950692b	0.00019875604
19	0x3b091f51	0.0020923207
20	0x388e7fea	6.7949135e-05
21	0x396db66a	0.00022670036
22	0x37a758fc	1.9949388e-05
23	0x39da8f16	0.00041686808
24	0x3989b6d3	0.0002626689
25	0x3a158c0b	0.0005704767
26	0x38f99dec	0.000119026605
27	0x39c19db1	0.00036929318
28	0x38d916c7	0.00010351609
29	0x3818f30e	3.6465986e-05
30	0x37ce49e8	2.4591529e-05
31	0x38c912f1	9.587955e-05
32	0x383331c6	4.272328e-05
33	0x38af9902	8.37315e-05
34	0x37d3d7d2	2.525366e-05
35	0x38e81e42	0.00011068258
36	0x390c0c92	0.00013356123
37	0x3a2c90e5	0.000658287
38	0x3923e192	0.00015628923
39	0x3aa261cd	0.0012388766
40	0x371a7bb4	9.207917e-06
41	0x38b5a803	8.662047e-05
42	0x36daa172	6.515701e-06
43	0x3954e15b	0.00020301847
44	0x37b18dda	2.1166099e-05
45	0x38b4923c	8.610307e-05
46	0x3628fb81	2.5180345e-06
47	0x391c2662	0.00014891618
48	0x3949cc49	0.00019244956
49	0x3a92c434	0.0011197389
50	0x395c0cd4	0.00020985614
51	0x3b3b2320	0.0028554872
52	0x3940e27e	0.00018394922
53	0x3a824efc	0.0009941752
54	0x39631ada	0.0002165841
55	0x3a8b27d2	0.0010616726
56	0x37fb681a	2.9970008e-05
57	0x386d6a1f	5.6604036e-05
58	0x37285c20	1.003503e-05
59	0x3906a850	0.00012841937
60	0x38aae2dc	8.1484875e-05
61	0x38b31814	8.53987e-05
62	0x37c6b0a2	2.368569e-05
63	0x38ba47dc	8.882556e-05
64	0x37257b8a	9.86353e-06
65	0x383c3c1e	4.487868e-05
66	0x35b22b29	1.3274595e-06
67	0x38b730fc	8.735244e-05
68	0x38d40860	0.00010110508
69	0x39a0bddd	0.00030659037
70	0x38049f9f	3.161991e-05
71	0x3a095400	0.0005238652
72	0x3956ecb4	0.00020496809
73	0x3a14fcc8	0.00056834193
74	0x38550f60	5.0797476e-05
75	0x3a76c3c4	0.00094133266
76	0x3930d80f	0.00016865156
77	0x3a242bf5	0.00062626536
78	0x38ff16d5	0.000121636
79	0x3aa1b3fe	0.0012336967
80	0x390a1d8e	0.00013171716
81	0x394186ae	0.00018456086
82	0x38547e96	5.066263e-05
83	0x390aec46	0.00013248724
84	0x388575dd	6.363888e-05
85	0x39535781	0.00020155126
86	0x37f40ea0	2.9093877e-05
87	0x3a06c799	0.00051414367
88	0x377126fe	1.4373798e-05
89	0x37568c21	1.278802e-05
90	0x3686621f	4.004934e-06
91	0x37baf74f	2.228809e-05
92	0x35cf9b9c	1.546799e-06
93	0x35ca45cb	1.5070485e-06
94	0x3381393d	6.017442e-08
95	0x36e2b8c4	6.7568344e-06
96	0x393d9905	0.00018081449
97	0x3a9186f7	0.0011102845
98	0x392ed8f9	0.00016674762
99	0x3b170472	0.002304342
100	0x37fa156f	2.9812303e-05
101	0x38e1aee0	0.00010761409
102	0x37c63331	2.3627277e-05
103	0x398337ea	0.00025027926
104	0x35d818d8	1.6100485e-06
105	0x389f81f5	7.605917e-05
106	0x37939361	1.7592394e-05
107	0x3933b74c	0.00017139054
108	0x37cd7c79	2.4495866e-05
109	0x395fed24	0.00021355279
110	0x3804c55f	3.165507e-05
111	0x3989fffd	0.00026321402
112	0x386f05b3	5.698735e-05
113	0x379eda4c	1.893672e-05
114	0x3779776b	1.4869361e-05
115	0x3869c7e5	5.5737695e-05
116	0x38a5da39	7.90846e-05
117	0x39a36f1d	0.0003117257
118	0x383102df	4.2202762e-05
119	0x3a217784	0.0006159472
120	0x39225349	0.0001548055
121	0x3a25b8cd	0.0006321788
122	0x390b4676	0.00013282322
123	0x3a1ee131	0.0006060778
124	0x397ce178	0.00024116586
125	0x3a6b7693	0.00089822075
126	0x3968dc86	0.00022207396
127	0x3a8752de	0.0010324379
128	0x3904e859	0.00012675057
129	0x3a16a485	0.0005746561
130	0x390c7c47	0.00013397737
131	0x3aefca49	0.0018294539
132	0x39629c07	0.00021611164
133	0x3a917b0c	0.0011099293
134	0x39337498	0.00017114205
135	0x3ace4149	0.0015736009
136	0x396271e5	0.00021595469
137	0x3a951ae4	0.0011375812
138	0x390138c0	0.0001232354
139	0x3af3524a	0.0018563953
140	0x381eb519	3.7838796e-05
141	0x388e3bd0	6.7822286e-05
142	0x3785cdc8	1.595066e-05
143	0x38b95eaa	8.83912e-05
144	0x39482206	0.00019086161
145	0x39a04a1d	0.00030572797
146	0x38422b6e	4.629365e-05
147	0x3a174d73	0.00057717337
148	0x390510c0	0.00012690108
149	0x3a1f1661	0.00060687034
150	0x39191e92	0.00014602605
151	0x3a2d60a9	0.000661383
152	0x395f7935	0.0002131209
153	0x3a41b432	0.0007389217
154	0x38e2a35d	0.000108069486
155	0x3a8ad0ee	0.001059083
156	0x38d26e24	0.000100340956
157	0x3836d004	4.358591e-05
158	0x37e6309f	2.7440778e-05
159	0x38ea1b1c	0.00011163039
160	0x34cef408	3.8548046e-07
161	0x38a6b359	7.948903e-05
162	0x37626045	1.3493064e-05
163	0x383e6f7f	4.540337e-05
164	0x397dd136	0.00024205897
165	0x3aba126b	0.0014196163
166	0x3934ec6c	0.00017254212
167	0x3af5c488	0.0018750587
168	0x39b0be90	0.00033711316
169	0x3ac0a854	0.0014698603
170	0x394cdad0	0.0001953647
171	0x3af770bc	0.0018878202
172	0x391a6079	0.00014722523
173	0x3a6f7c44	0.00091356435
174	0x39597d6b	0.00020741455
175	0x3b0661ec	0.0020505143
176	0x38ece8b9	0.00011296705
177	0x381d7060	3.7536374e-05
178	0x37c86d50	2.389276e-05
179	0x3905b752	0.0001275216
180	0x39332021	0.00017082739
181	0x3a4aebfb	0.00077408523
182	0x389e3fee	7.545935e-05
183	0x3a898580	0.0010492057
184	0x3740af12	1.14848535e-05
185	0x39499127	0.00019222927
186	0x380b3b03	3.319514e-05
187	0x39ce046e	0.00039294682
188	0x38e80bbd	0.000110648085
189	0x397484ec	0.0002331917
190	0x37c8dce1	2.3944713e-05
191	0x39cb0487	0.0003872255
192	0x38ec8194	0.00011277493
193	0x3a491f4e	0.0007672206
194	0x38eacd43	0.000111962225
195	0x3ab1528b	0.0013528628
196	0x38757bfc	5.852802e-05
197	0x39ae6879	0.00033265704
198	0x385ee667	5.3143503e-05
199	0x39e83213	0.00044287796
200	0x37cd2712	2.4456098e-05
201	0x3901830c	0.00012351217
202	0x37a93540	2.0171166e-05
203	0x398991e9	0.00026239388
204	0x3807ab89	3.2346263e-05
205	0x39611d4a	0.00021468583
206	0x386adb69	5.599429e-05
207	0x395d0264	0.00021077093
208	0x36113732	2.1638812e-06
209	0x385e5b2b	5.301383e-05
210	0x3756582c	1.2775923e-05
211	0x38e4993d	0.0001090043
212	0x3857ee94	5.1482188e-05
213	0x39124c60	0.00013952097
214	0x37f98644	2.9745635e-05
215	0x38db4d1f	0.00010457099
216	0x36a2b5a7	4.8491233e-06
217	0x391c6460	0.00014914712
218	0x36ecccbb	7.057182e-06
219	0x39587c89	0.00020645758
220	0x380a4db0	3.2974116e-05
221	0x393d02a2	0.00018025425
222	0x37c1878c	2.3070512e-05
223	0x39b81db7	0.00035117354
224	0x391ad42a	0.00014765622
225	0x3a814e04	0.0009865169
226	0x3931ace2	0.00016944439
227	0x3ae96bdf	0.0017808637
228	0x381466b5	3.5381603e-05
229	0x3947f3d9	0.00019068959
230	0x3864f84e	5.4590688e-05
231	0x39b7e56a	0.00035075407
232	0x38bf10a6	9.110691e-05
233	0x392cc093	0.00016474938
234	0x37b25fde	2.1263895e-05
235	0x39899d90	0.0002624807
236	0x35546bce	7.913303e-07
237	0x37ebd856	2.8114922e-05
238	0x36abe726	5.1231063e-06
239	0x38025f13	3.108296e-05
240	0x36d31486	6.2906793e-06
241	0x39188e6c	0.00014548906
242	0x383162de	4.2292166e-05
243	0x39c72086	0.0003798047
244	0x367eea45	3.7985312e-06
245	0x37f80d4a	2.9570092e-05
246	0x36982cb9	4.5351594e-06
247	0x383175ea	4.2309905e-05
248	0x38ea1a80	0.000111629255
249	0x396f1732	0.00022801457
250	0x37dac2df	2.6078369e-05
251	0x39d7ecdc	0.0004118447
252	0x392ffe4a	0.0001678403
253	0x399ffc0a	0.00030514627
254	0x381009e1	3.4341476e-05
255	0x3a0d0288	0.00053791003

exp_avg f4 [64]
0	0xbf9502d7	-1.1641492
1	0xbd756c8c	-0.05991797
2	0xbf662e8b	-0.8991477
3	0xbec983a2	-0.3935824
4	0xbec6fb90	-0.38863802
5	0xbef44507	-0.47708914
6	0xbf15ebb3	-0.58562773
7	0xbefc36e4	-0.49260628
8	0xbe912e9a	-0.28355867
9	0xbe0f1b80	-0.13975334
10	0xbdcf67ee	-0.10127245
11	0x3cdb87af	0.026798097
12	0xbf2401c9	-0.64065224
13	0xbef29547	-0.47379515
14	0xbe74c1b4	-0.23902017
15	0xbe90a532	-0.28251034
16	0x3d0cf690	0.034414828
17	0xbef9ef26	-0.48815268
18	0xbf61684e	-0.8804978
19	0xbf42d4dd	-0.76106054
20	0xbed68758	-0.41900134
21	0xbf003614	-0.50082517
22	0xbe05db58	-0.13071954
23	0x3bebe0be	0.007198422
24	0xbf397c89	-0.7245565
25	0xbe466e34	-0.19377977
26	0xbaf6f95a	-0.0018842623
27	0xbe62fd38	-0.22166908
28	0xbe822b1e	-0.2542352
29	0xbf065df1	-0.52487093
30	0xbef096a0	-0.46989918
31	0xbee8dcf4	-0.45481074
32	0xbec9ba9a	-0.39400178
33	0xbf5c31dc	-0.8601358
34	0xbf58c28d	-0.8467186
35	0xbe8d5313	-0.27602443
36	0xbf4bba65	-0.7958129
37	0xbe8fbaff	-0.28072354
38	0xbf35dc52	-0.7103931
39	0xbea92320	-0.3303461
40	0xb8803b7c	-6.1145955e-05
41	0xbf3ef1a4	-0.74587464
42	0xbf52d36c	-0.82353854
43	0xbed1f9d9	-0.4101093
44	0xbed047fd	-0.40679923
45	0xbf3ab283	-0.7292864
46	0xbc44c1f5	-0.012009134
47	0xbef422e5	-0.47682872
48	0xbe8afb54	-0.27144873
49	0xbedfe983	-0.43732843
50	0xbdefff29	-0.1171859
51	0xbe6fbcda	-0.23411885
52	0x39c40fe1	0.00037395864
53	0xbe940e7a	-0.28917295
54	0x3b6464ba	0.0034850077
55	0xbe26617b	-0.16248123
56	0xbf0161d9	-0.5053993
57	0x3dd282fc	0.102788895
58	0xbee90aad	-0.45515957
59	0xbbc968c6	-0.006146523
60	0x3cfcb6f0	0.03084895
61	0xbd1f4272	-0.038881727
62	0xbf15c46f	-0.5850286
63	0xbf0ccc5f	-0.54999346

exp_avg_sq f4 [64]
0	0x3da2ab1b	0.07942792
1	0x3adc0e57	0.0016788942
2	0x3d5a62f8	0.05331704
3	0x3c48782a	0.012235681
4	0x3d2e1a2b	0.042505424
5	0x3c22a2cd	0.00992651
6	0x3d4fdcce	0.050747685
7	0x3c7eba57	0.015547357
8	0x3bf7b363	0.0075592264
9	0x3cf5f858	0.030025646
10	0x3b1ae3aa	0.0023634234
11	0x3b714124	0.0036812508
12	0x3d2831c2	0.041063078
13	0x3d396a24	0.04526724
14	0x3b95f519	0.004576337
15	0x3c4b9cf1	0.0124275545
16	0x3bd6b7ad	0.0065526576
17	0x3c81e816	0.015857738
18	0x3cf033db	0.029321602
19	0x3cff0bd7	0.031133575
20	0x3cbe6101	0.023239614
21	0x3c3a90e8	0.011387087
22	0x3ad91815	0.0016562963
23	0x3a4d473c	0.0007830744
24	0x3d2f1104	0.042740837
25	0x3bc00372	0.0058597857
26	0x3af2ecce	0.0018533708
27	0x3bae2686	0.005314651
28	0x3bf290a2	0.0074024955
29	0x3c56edaf	0.013118192
30	0x3d0b53ec	0.03401558
31	0x3d42e9ad	0.04758613
32	0x3cdfeece	0.02733555
33	0x3d24d6c1	0.040243868
34	0x3d22fca5	0.03979172
35	0x3c09274a	0.008371184
36	0x3cd1a98a	0.025593538
37	0x3d02dcbf	0.0319488
38	0x3d19311f	0.03740036
39	0x3c85821b	0.01629739
40	0x3a04eed1	0.0005070987
41	0x3d5c78c0	0.053826094
42	0x3d8a74ea	0.06760581
43	0x3d0ef868	0.034904867
44	0x3c8f9b77	0.017530186
45	0x3cfe7e1a	0.03106599
46	0x3b824777	0.0039758044
47	0x3c7541d3	0.014969307
48	0x3cd5fac0	0.026120543
49	0x3c2ad7b4	0.010427404
50	0x3c02fb79	0.007994526
51	0x3bc915f2	0.0061366493
52	0x3af2b692	0.0018517545
53	0x3c182d76	0.0092881825
54	0x3b840191	0.004028507
55	0x3bb66cc0	0.005567163
56	0x3cfcfaf5	0.030881384
57	0x3c136811	0.008996979
58	0x3c468898	0.012117527
59	0x3a575dd2	0.00082155794
60	0x3b6a8539	0.0035784973
61	0x3ae6e88a	0.001761691
62	0x3c6de715	0.014520426
63	0x3ccfd76f	0.025371281

exp_avg f4 [64, 64]
0	0x3c042623	0.008065733
1	0x00000000	0.0
2	0x3bc074b5	0.0058732876
3	0x3b168810	0.0022969283
4	0x3bf06764	0.007336544
5	0x3b94d214	0.004541645
6	0x00000000	0.0
7	0x00000000	0.0
8	0x00000000	0.0
9	0x3ac49e43	0.0015000779
10	0x3b85db1f	0.004084959
11	0x3a6c1fc8	0.00090074213
12	0x3bac3337	0.0052551287
13	0x00000000	0.0
14	0x3a3a12bf	0.00070981303
15	0x00000000	0.0
16	0xb656236f	-3.190911e-06
17	0x3a9b8d1e	0.0011867618
18	0x3a2a6648	0.00065002264
19	0x3b989652	0.0046565915
20	0x00000000	0.0
21	0x3bfbcd08	0.0076843537
22	0x00000000	0.0
23	0x00000000	0.0
24	0x3b4dd87e	0.0031409557
25	0x375e2041	1.3239741e-05
26	0x3917c879	0.00014475164
27	0x3b7ab67b	0.003825574
28	0x00000000	0.0
29	0x3bc540eb	0.0060197017
30	0x00000000	0.0
31	0x00000000	0.0
32	0x3bf98972	0.0076152617
33	0x3c0e6021	0.008689911
34	0x3be516e3	0.0069912537
35	0x00000000	0.0
36	0x3b665337	0.0035144815
37	0x00000000	0.0
38	0x3b2a695c	0.002600274
39	0x00000000	0.0
40	0x00000000	0.0
41	0x3b9bf32d	0.0047592134
42	0x3ae3fc9b	0.0017394008
43	0x3b1ae322	0.0023633917
44	0x00000000	0.0
45	0x3b56b6ef	0.0032762846
46	0x3b5ef45d	0.0034020164
47	0x39eb9bb2	0.00044938695
48	0x3b36f90b	0.0027919437
49	0x3ba9f2d2	0.005186417
50	0x385abac1	5.214918e-05
51	0x00000000	0.0
52	0x34a34df7	3.0417843e-07
53	0x00000000	0.0
54	0x00000000	0.0
55	0x3b2cedb7	0.0026386806
56	0x3b7bb8b8	0.0038409662
57	0x3bb51dec	0.0055272486
58	0x3ad95d6f	0.0016583632
59	0x00000000	0.0
60	0x33f2c4fe	1.1304836e-07
61	0x00000000	0.0
62	0x3b22ffe7	0.0024871768
63	0x38b7b199	8.7592e-05
64	0x370a39a1	8.238859e-06
65	0x37d3ebb2	2.5262914e-05
66	0x37680424	1.3829242e-05
67	0x361c09c3	2.3251494e-06
68	0xb50ee646	-5.3234214e-07
69	0x00000000	0.0
70	0x38196b24	3.6577825e-05
71	0x373ec66c	1.1371081e-05
72	0x37a84d68	2.0063206e-05
73	0xb41eca3f	-1.4788473e-07
74	0xb4ffb904	-4.7632068e-07
75	0x00000000	0.0
76	0xb3d17562	-9.753673e-08
77	0x37dfc8d9	2.6677199e-05
78	0x349801fb	2.8313647e-07
79	0x37db0e45	2.611348e-05
80	0x313d404b	2.7539666e-09
81	0x309607b8	1.091613e-09
82	0x35464c39	7.3871666e-07
83	0x36b1d985	5.3003337e-06
84	0x37d77c98	2.5688016e-05
85	0xb5061411	-4.994809e-07
86	0x34b16446	3.3041778e-07
87	0x2f73a25e	2.2158406e-10
88	0x35b9ea51	1.3851769e-06
89	0x374aaa4f	1.2079791e-05
90	0x36aa8348	5.081678e-06
91	0x35c3a043	1.4575274e-06
92	0x37014b55	7.706539e-06
93	0xb51c4996	-5.822161e-07
94	0x3849e084	4.813123e-05
95	0x3826bcbf	3.9753268e-05
96	0x352403d8	6.1100354e-07
97	0x359366c4	1.0982262e-06
98	0x3530778f	6.573909e-07
99	0x37ba4c51	2.2208465e-05
100	0x00000000	0.0
101	0x370f039c	8.524305e-06
102	0x35d3261c	1.5731816e-06
103	0x376beb53	1.4061882e-05
104	0x35006631	4.7832424e-07
105	0x37a3ffd1	1.9550238e-05
106	0x37598747	1.2965705e-05
107	0x366e56a3	3.5515193e-06
108	0x3752119e	1.2521077e-05
109	0x37024a10	7.765848e-06
110	0xb52c2d6e	-6.41411e-07
111	0x36a1f83e	4.827073e-06
112	0x35d63a2f	1.5961176e-06
113	0x36a31a96	4.8608736e-06
114	0x36f531af	7.307353e-06
115	0x3713e7e8	8.815878e-06
116	0x36649eee	3.4067157e-06
117	0x3811b7ae	3.474176e-05
118	0x368c2efd	4.1777953e-06
119	0x36bbb786	5.594399e-06
120	0x3666cd14	3.4392042e-06
121	0x35b1d6e5	1.325007e-06
122	0x3632a01a	2.6617258e-06
123	0x35e377d1	1.6947689e-06
124	0x36f2bb50	7.233968e-06
125	0x37a034e5	1.9098117e-05
126	0xb1f00bc1	-6.9862556e-09
127	0x370310e0	7.8121375e-06
128	0xbc52aeb5	-0.012859036
129	0xbb1d1fae	-0.0023975181
130	0xbc9beae9	-0.019032912
131	0xbbde24f1	-0.006779306
132	0xbb84ddbf	-0.0040547545
133	0xbbcced3c	-0.0062538665
134	0xbbe3387d	-0.006934224
135	0xbb8dbe8e	-0.0043256944
136	0xbbf0e1be	-0.0073511293
137	0xbb556d30	-0.0032566302
138	0xbb2d4b48	-0.0026442576
139	0xb98ee88f	-0.0002725762
140	0xbbb3336e	-0.0054687774
141	0xbbf37e2d	-0.007430813
142	0xba091654	-0.00052294624
143	0xbbc0d277	-0.0058844644
144	0xb7e96c5d	-2.7826225e-05
145	0xbba2d03a	-0.00496867
146	0xbb9819c1	-0.004641742
147	0xbb0cfe12	-0.0021513742
148	0xbbaa278a	-0.0051927017
149	0xbc07d1a6	-0.00828973
150	0xba8eeff5	-0.0010905253
151	0xb77c10e2	-1.5024301e-05
152	0xbb72b09a	-0.0037031532
153	0xbb9035a8	-0.0044009276
154	0x3718a25a	9.097706e-06
155	0xba012547	-0.0004926514
156	0xbb9e8f16	-0.0048388345
157	0xbc2ab291	-0.01041855
158	0xbc559e1c	-0.0130381845
159	0xbc0ccd5c	-0.008593883
160	0xbbbe71ff	-0.0058119292
161	0xbc647804	-0.01394463
162	0xbbe13fc1	-0.006874055
163	0xbbc0ffa5	-0.00588985
164	0xbb9735c2	-0.0046145627
165	0xbb467e88	-0.003028782
166	0xbc12a9c6	-0.00895161
167	0xbbde6e93	-0.006788084
168	0xb588cde2	-1.0192709e-06
169	0xbc3da961	-0.011576028
170	0xbc190c60	-0.009341329
171	0xbb089a0c	-0.0020843772
172	0xbb884d2d	-0.0041595907
173	0xbc642f9a	-0.013927365
174	0xba2967f4	-0.00064623286
175	0xbba5e32c	-0.0050624814
176	0xbb732e43	-0.0037106432
177	0xbbd8717a	-0.0066053243
178	0xbafdee34	-0.0019373358
179	0xbaa1ec8e	-0.0012353824
180	0xb7777218	-1.4748912e-05
181	0xbbb43e23	-0.0055005713
182	0xb78c9427	-1.675829e-05
183	0xbae03962	-0.0017106945
184	0xbb968553	-0.00459353
185	0x39fca093	0.00048184823
186	0xbbf6ba77	-0.0075295526
187	0xb9a1e425	-0.00030878294
188	0xba4b6688	-0.0007759114
189	0xba16c2df	-0.0005751084
190	0xbb34a4fe	-0.0027564163
191	0xbbc229e1	-0.0059254025
192	0xbd5fdec3	-0.0546558
193	0xbb4d913d	-0.0031367086
194	0xbd19bd64	-0.037534133
195	0xbc79b628	-0.015241183
196	0xbccde2ab	-0.025132498
197	0xbccf34bb	-0.025293699
198	0xbc98e1b6	-0.018662315
199	0xbc00d575	-0.007863392
200	0xbc83c200	-0.016083717
201	0xbc87d9cc	-0.016583346
202	0xbc28c145	-0.010299985
203	0xbae8a04e	-0.001774797
204	0xbcd49f53	-0.025954878
205	0xbc964d09	-0.01834728
206	0xbb1a7bf8	-0.0023572426
207	0xbc0a19b3	-0.008428979
208	0xb84bbf97	-4.8577404e-05
209	0xbcb82a76	-0.022481184
210	0xbc39e37b	-0.0113457395
211	0xbcd6e2c4	-0.026231177
212	0xbc00d6c2	-0.007863702
213	0xbd361039	-0.044449065
214	0xbad5a730	-0.0016300436
215	0xb7a5294f	-1.9688769e-05
216	0xbc8fa193	-0.0175331
217	0xbc59e8a8	-0.0133000985
218	0xb94806f4	-0.00019076077
219	0xbc863acb	-0.016385457
220	0xbc2fe59d	-0.010735896
221	0xbd410043	-0.04711939
222	0xbcc0a59d	-0.02351647
223	0xbc94b602	-0.018153194
224	0xbcdb8c6f	-0.026800362
225	0xbd6c6f28	-0.057723194
226	0xbd05513a	-0.032548167
227	0xbc3a18d9	-0.011358463
228	0xbc8b237d	-0.016984696
229	0xbbeecff3	-0.007287973
230	0xbceab059	-0.028648542
231	0xbc4bb56e	-0.012433393
232	0xb6a54d3f	-4.926376e-06
233	0xbd3af99f	-0.045648213
234	0xbd077707	-0.033072498
235	0xbc677786	-0.014127618
236	0xbc2c6e5b	-0.010524358
237	0xbce1fe17	-0.02758698
238	0xbbd1c131	-0.006401204
239	0xbc3aad34	-0.011393834
240	0xbca0d7da	-0.019634176
241	0xbcd92ad6	-0.026509684
242	0xbc1c2d61	-0.009532304
243	0xbad97728	-0.0016591297
244	0xb808fd8c	-3.266106e-05
245	0xbbf67c1f	-0.0075221206
246	0xb7bae980	-2.228166e-05
247	0xbc4dcd65	-0.012561177
248	0xbca798bf	-0.020458577
249	0xbc4a2597	-0.012338064
250	0xbcaf11de	-0.021370824
251	0xb9d86458	-0.00041273492
252	0xba8fc458	-0.0010968549
253	0xba3c2ee5	-0.00071786187
254	0xbc5c45be	-0.013444362
255	0xbc637687	-0.01388324
