gen_2_agent_3.pt (torch, 64207 bytes, 18 tensors)

net.0.weight f4 [64, 4]
00000000: a057 cabd 3eff ca3d 80f5 353e e419 843e
00000010: 8418 883e bef6 213d 0177 233e d760 933e
00000020: 39e8 f93d 3c38 e0bd 9260 e23d f7dd 4dbe
00000030: c1af 533e 6eef 5fbe eded a1bb 5e5d 64be
00000040: cf81 28be 8e80 8dbe 7995 48bd 2374 7ebe
00000050: 5587 843e 5ec6 8ebe ec04 40bc 6f2a 77be
00000060: 24b7 3a3c 71ac 36bd bcd5 5bbe b993 8f3e
00000070: 5f55 0b3e 0df5 d8bd 5254 0a3e a208 923e
00000080: 0f29 b63d b2f3 bfbd 3c06 26be 5d96 69be
00000090: 7519 b83c 383f 8cbe 387a 6bbe 99cf 383d
000000a0: 73bf 1b3e cc1e 19be b607 05be dc5a efbd
000000b0: 45b9 883d 4298 5e3e 0145 2f3d cc8c 9fbd
000000c0: 6aec 8e3e f1ac 82be e04d 92be 707d 89bc
000000d0: 6946 ac3d 73ca a3bd 8de2 973e 6db6 0a3e
000000e0: 17cc 203d f998 8abe a40a 0cbe 5126 9c3d
000000f0: 48a6 3a3e 6334 713e 3846 883d 8fcd ffbd
00000100: 0624 2f3e 085d 88be ad79 8e3e cff1 ed3d
00000110: 64c5 4e3e 3faa 383d 0e27 90be 4642 8dbe
00000120: a736 35be 4c31 f1bc 2f3c 423e 6440 833e
00000130: 68c6 963c 8c2e 5dbd 4a1d 85be 4033 8fbe
00000140: 3f44 6f3d dc2d 4ebd d7da 083d 094e 90bd
00000150: ae1b a13c cb4b 3ebe a3bb 6cbe e538 4cbe
00000160: 33cb e1bd 0844 6e3d ee42 f43d 5306 89bd
00000170: 21fb 633d 511b 203d 9cc7 9dbd ff7e 973e
00000180: 2e71 883e b81e d83a e7be 543d 6d2a daba
00000190: a4c3 5d3e 71fa 38be 5cb8 3bbd 49dc 23be
000001a0: 2295 babd 6754 83be cd5b 7abe eed4 d83d
000001b0: b838 0a3d f72a 8dbd e649 84be 153c 1d3e
000001c0: e670 98be db49 40be a79c 1fbe ab93 003e
000001d0: 9618 c23c 8cb9 5fbe 0c7d 74be b405 54be
000001e0: a443 87be 8232 863d 6ae7 92be 5a4e 84be
000001f0: 3e64 673e 9503 293e 6fbf db3d 6b43 84be
00000200: 83de 763c c14e 7bbe e9a1 8ebe 63ff 573e
00000210: 4889 8e3d a89c 16be 90c9 833d f98c 7e3e
00000220: 5044 86bc 5ccd 7f3d b70e 8d3e 64ac 263e
00000230: 87d8 693e b832 4f3e 3bf8 333e 18e9 ca3d
00000240: 1d64 333e 55ef 873e 5ffd ca3d 6bc5 8f3e
00000250: d0ac 633e e6e3 b3bd 79fe 1a3e 205c 683e
00000260: fae6 383d 4096 543e 03c8 54be 4cb9 74be
00000270: 43ed 653e fce3 013e c0c8 123e 1a14 903e
00000280: 4302 57be 6b81 cd3d 71c2 003d 4dfe 283e
00000290: f7dd b6bd 2ae3 7ebe 9a9d 24bd 975d 0f3d
000002a0: b12d 4ebe 702c 8c3d 0e90 5ebe aa0b 93be
000002b0: a5ff e9bd e9cf 32be 5235 903d a8f0 babc
000002c0: 8d12 64be 2b45 06be 668a 89be 69ff 05bd
000002d0: aed5 4c3e a5c2 573e 98d4 32be a185 16be
000002e0: 8bd1 dd3d 8c7d 103e 856d 8bbe eee2 cb3a
000002f0: 8152 51be 919f 873e 3d6d 2ebd 3219 c6bd
00000300: 932e a6bd 0d2e 3fbe 909b c93d 8dcf 223e
00000310: 3990 06be 5ef3 dc3d ab6e 6ebe 2e5c 873e
00000320: 8506 203e 78d3 6d3e 4211 64be c755 4ebe
00000330: 3932 01be b615 4b3e 5014 833e d51f 833e
00000340: 2278 75bd ff80 32be 6958 97bc 3a07 e0bd
00000350: 3d78 03bd 3127 7b3d 0335 463d e98c 633e
00000360: 2388 d13c 7b79 c23d 754b 6c3e 1d74 003e
00000370: 9595 563d 5182 aa3d 3143 0b3e e930 99be
00000380: f4f4 d5bd 8832 4e3d efc5 1bbe 0670 61be
00000390: 7d29 843e dacc 30be 8015 12be 497f 37bd
000003a0: 0cbc 713e c2fe 273e 2174 4d3d 0149 003d
000003b0: e100 87be 3b34 b0bd 37f7 953c 7497 8abe
000003c0: a13c 73be b837 6bbe 2c2a 3bbe 39a8 ed3d
000003d0: 4e68 5d3e 8fe4 cebd 7ee3 223e b9ec f33c
000003e0: 5849 4fbd 5810 94be cfd2 debd bdea 80bd
000003f0: 3d87 b33d e443 9a3d 2d77 37be 8add 983e
-0.098799944 0.09911965 0.17769432 0.25801003 0.26581204 0.039541952 0.15963365 0.2878482
0.12202496 -0.10948226 0.110535756 -0.20104204 0.20672514 -0.21868679 -0.004941693 -0.22301242
-0.16455768 -0.27637142 -0.048970673 -0.2484899 0.258845 -0.27885717 -0.0117199235 -0.24137281
0.011396203 -0.044598047 -0.21468252 0.2804239 0.13606785 -0.10593615 0.13508728 0.2852221
0.0889455 -0.09372653 -0.16213316 -0.22811265 0.022473076 -0.27391982 -0.22995842 0.045119856
0.15209751 -0.14953154 -0.12991223 -0.11687252 0.06675962 0.21737769 0.042790417 -0.07790527
0.27914745 -0.2552257 -0.2857504 -0.016783446 0.08411867 -0.079975985 0.29665032 0.13546152
0.039257135 -0.27069834 -0.13675934 0.07624496 0.18227494 0.2355514 0.06654018 -0.12490379
0.17103586 -0.26633477 0.27827206 0.11618387 0.20192486 0.045084234 -0.28154796 -0.27589625
-0.1769663 -0.029442452 0.1896827 0.25635064 0.018405154 -0.05399947 -0.25998908 -0.27968788
0.058414694 -0.050336704 0.033411827 -0.07046134 0.019666519 -0.185836 -0.23118453 -0.19943579
-0.11025085 0.05817035 0.11926828 -0.066906594 0.055659417 0.03908855 -0.07704088 0.29589078
0.2664885 0.0016488647 0.05193987 -0.0016644724 0.21656662 -0.18064286 -0.045830116 -0.16002001
-0.09110476 -0.2565033 -0.24449082 0.10587488 0.033745497 -0.068929605 -0.2583763 0.1535495
-0.29773635 -0.18778174 -0.15587102 0.12556331 0.023693364 -0.21848124 -0.23875827 -0.207053
-0.26418793 0.06552602 -0.2869218 -0.25841027 0.22596833 0.16505273 0.107298724 -0.25832686
0.015067699 -0.24541761 -0.27857903 0.21093516 0.06959778 -0.14708197 0.06434929 0.24858464
-0.016389996 0.062451705 0.2755029 0.162767 0.22836505 0.20234191 0.17575161 0.0990774
0.17518659 0.26549783 0.09911608 0.28080305 0.22233891 -0.087837026 0.15136136 0.22691393
0.04514215 0.20760441 -0.20779423 -0.2389881 0.2245379 0.12684625 0.14334393 0.28140336
-0.20996957 0.1003445 0.031435434 0.16503258 -0.08929055 -0.24891344 -0.040189363 0.035001364
-0.20134617 0.06844413 -0.2173464 -0.28719836 -0.114257134 -0.17462124 0.0704142 -0.022819832
-0.22272702 -0.13112323 -0.26863402 -0.03271428 0.20003387 0.21070345 -0.1746391 -0.14699413
0.10830983 0.14110392 -0.27231994 0.0015555301 -0.20441629 0.26488927 -0.042584646 -0.096727744
-0.08114352 -0.1866991 0.09844124 0.15899487 -0.13140954 0.10788606 -0.23284404 0.26437515
0.15627487 0.232252 -0.22272208 -0.20149909 -0.12616815 0.19832501 0.25601435 0.25610223
-0.05992902 -0.1743202 -0.018474774 -0.10938878 -0.03209709 0.061316673 0.0483904 0.22221722
0.02557761 0.09495827 0.2307566 0.12544294 0.052388746 0.08325637 0.1359985 -0.29920128
-0.10447112 0.05034116 -0.15212224 -0.2201539 0.25812903 -0.17265645 -0.14266014 -0.044799123
0.2360689 0.16405776 0.050159577 0.031319622 -0.26367858 -0.08603712 0.018306358 -0.27068675
-0.23753597 -0.22970474 -0.18277806 0.116043516 0.2162182 -0.10102188 0.15907094 0.029775964
-0.050607055 -0.2891872 -0.10880052 -0.06294773 0.08766029 0.0753248 -0.17916556 0.2985652

net.0.bias f4 [64]
00000000: f1ef adbb 6e61 cc3b a087 1c3b ca7e aebb
00000010: cdd3 093b eca7 003c c7c7 1c3c fe0c f9bb
00000020: 4311 0d3c 1eb8 c13b 35ec bf3b 3aba 59bb
00000030: bda0 fe3b f70f 143b 2e68 c9bb 26a3 43bb
00000040: b95b b53b 745b efbb 90bf 1d3c 48bd 643b
00000050: 28cd 253c 71c2 593b c23f 50bc a608 123c
00000060: f9a1 c73b b9e2 aabb 6f27 c03b 2e58 18bc
00000070: f55c 243c b2df b53b 467a 813c 193a 4c3c
00000080: 1ff6 d2bb 24b3 1fbc f97b debb 6684 42bc
00000090: d005 063a 4044 023c b664 4a3c eb73 22bc
000000a0: fab2 c43a 731e db3b dc43 1b3c 6c92 e0bb
000000b0: ea04 b3bb 2008 6a3c 4937 293b 6ec8 3b3b
000000c0: ad29 a03a e65e a93a 19ec 1d3c ba0f 9dba
000000d0: 5e1c acbb 8b90 b8bb 59c7 0cbc aa9c 5e3c
000000e0: df31 5fbc 145c c2bb c270 303c c9bc 2dbb
000000f0: 0d1f 99bb 72aa 2a3c 0e74 c9bb 26e5 963b
-0.0053081443 0.0062372005 0.002388455 -0.005325173 0.0021030784 0.007852536 0.009569115 -0.0076004257
0.008610073 0.005911841 0.0058570155 -0.0033222572 0.0077706263 0.0022592524 -0.0061464524 -0.0029851883
0.005534616 -0.0073046032 0.009628192 0.003490286 0.010119714 0.0033227468 -0.012710514 0.008913195
0.0060923067 -0.0052150157 0.005864076 -0.009298367 0.010031928 0.005550348 0.015805375 0.012465023
-0.0064380313 -0.0097473 -0.006789681 -0.011872387 0.00051125605 0.007950842 0.012353113 -0.009915332
0.0015006952 0.0066869794 0.009476628 -0.0068533923 -0.0054632323 0.014284164 0.0025820306 0.00286534
0.0012219452 0.0012921959 0.00963881 -0.0011982836 -0.005252405 -0.0056324652 -0.00859245 0.013587156
-0.01362273 -0.0059313867 0.010769071 -0.002651023 -0.004672891 0.010416614 -0.006147868 0.0046049533

net.3.weight f4 [64, 64]
00000000: 75aa 323e 1936 b03d d3bb 05bc 17d9 393c
00000010: 78e5 653d 3f87 43be fa61 463e 57eb 52bd
00000020: 2b12 813c 3951 1e3e 6caf 7fbc 14a9 0cbe
00000030: fc51 43be d73b c93d 0a0f 86bd 6b17 5ebe
00000040: ff99 273e be5e 363c f784 ba3c 6e78 bb3c
00000050: 5dfd 383e fcba 283e d511 4ebe a920 fb3d
00000060: e3b4 063e 0f79 22be c108 60be 29fb 15bd
00000070: 415d 393e e066 d13d 0c30 373e 52ef 203c
00000080: 53fd e1bc 5c26 6abc 6534 7cbc 1edd 1f3d
00000090: f2df 28be c558 bc3a b996 b13d efce 26be
000000a0: 21de 1a3e 87df f63d 102f 4b3e e0d0 51be
000000b0: 1c0f b33c 043a eabd 54a3 03be 2160 b53d
000000c0: 059b 01be 2c79 37bd eb83 9abd 8536 ecbd
000000d0: 88b0 93bd c050 a0bc a8cf 91bd 4b88 3abe
000000e0: e232 cbbd 21b9 053e ca1e 183d a9cb 183e
000000f0: 82f4 11be 957f 8a3b ad5f e3bd 8c0b f6bd
00000100: e37e 24be 167e 093d 2789 0abe 3d6e 2a3e
00000110: 93ca 5a3d cf00 323e 5430 44be c780 2dbe
00000120: 4d17 bd3d 9290 cb3d 9607 523c e76f 4e3e
00000130: 7da4 e6bd 5d00 263e eecf ddbd ccb1 4f3e
00000140: 58b4 06be f332 423e cedd af3d 21f2 013e
00000150: cd9f 703d 4da7 fbbd 4252 943d ec74 eabd
00000160: b136 da3d 75b9 16bb ee2d 993d 2515 aa3c
00000170: 7bcc f1bd 7e48 263e 00ad b3bd 8836 9e3d
00000180: 1c78 303e ec60 313d 931e 92bc 6d5f 053e
00000190: 9376 edbd f706 713c 75e1 4ebe 6e55 2e3b
000001a0: b35c 333d 8a63 b5bd f989 26be 80f4 99bd
000001b0: 8dac 433e 8ff0 93bd 4130 ca3c 5d46 113e
000001c0: 9005 37be 5cac 423d eab3 653d 0a86 9a3c
000001d0: 8ea4 2f3e b9b2 7c3d baba fe3d e932 cc3d
000001e0: 5b2b 3abe 3b42 1abe 2784 cabd edca da3d
000001f0: 80c0 91bb c8c4 a5bc 294f fbbd 95a3 203d
00000200: 9d5d 3dbe 009c fe3d c521 053e 3d72 9cbd
00000210: 15e3 473e efd1 44be cca3 fe3d 3d46 90bd
00000220: 59e3 483e 413c adbd e6c9 97bd b131 993d
00000230: b5c4 253e 7cae bcbd 8d04 86bd b5c5 d23c
00000240: 2732 4ebe a9a6 7dbd 2cb0 713d dd88 6fbc
00000250: c8a5 803c 7ad8 053e 70e7 40be 53da f03d
00000260: 6534 203d f15e 46bd 08a3 08bd f88b f63d
00000270: f86c 3fbd b900 abbd 3439 0f3e a970 2c3e
00000280: 38d9 7fbd 1318 473e 4be9 d7bd 2054 dbbd
00000290: d10b 1cbe 4af8 abbd 2482 d53d 1dc3 39be
000002a0: 2ae5 fcbc fa5f 60bd 816c 16be 1df1 053e
000002b0: 999e 0ebe 9f7c 493c 3a4f f8bc 65bd a43d
000002c0: e537 063e 7e10 a7bc 56fe 3c3e 2b78 ba3d
000002d0: 381f 2f3e de73 553e b86a 0cbe 3c16 51bd
000002e0: 7575 dfbd 797a 6ebd 2606 a0bd ca3d 0e3e
000002f0: ff87 443e c06b d5bd 1633 493e 8f0c 773d
00000300: 4d9d 883d b7bd 7fbd b6ab d83b 8160 4cbd
00000310: 1842 84bd 68a3 4b3d ac25 b73d 0834 8bbd
00000320: d004 c13d 2d18 103d 22b9 a1bd 69ab c0bc
00000330: 34ff 8bbd a038 543e 2e5d 3d3e 7221 513e
00000340: 8c03 b83d 56b3 a0bc c1f7 173c f4ff c83d
00000350: 07b6 94bc 8b55 5c3e af82 de3c 44ce c63d
00000360: 8916 1abe 036f b83c e3cb 0b3d da61 8c3d
00000370: 3c55 263e bd90 c9bb a806 563e a9a9 363e
00000380: c92a dd3d 91b8 bb3c 412d 53be 7e62 c3bd
00000390: 9b01 38be 2294 5ebd caff 3b3e 53c7 953c
000003a0: ea90 603e 5093 59bd b75f d8bd 2126 c0bd
000003b0: 1d4e 293e c535 04be 5bea 1bbe c75a f9bd
000003c0: 4c0c 603e 767b f1bd 7695 b83d f011 363e
000003d0: b8a1 b83d 89ee 48be d93b e83d dd5e 87bd
000003e0: 4809 cc3d 9a1b 33be 621f 403e 47b1 403e
000003f0: 5ae9 09be df11 abbd dc4f 893d a930 163a
0.17447837 0.08604068 -0.008162457 0.011343262 0.05612704 -0.19094561 0.19373313 -0.05149397
0.015755733 0.15460671 -0.015605789 -0.13736373 -0.19074243 0.09825867 -0.06545837 -0.21688621
0.16367339 0.011130987 0.02276848 0.022884574 0.180654 0.16477579 -0.2012399 0.12262089
0.1315494 -0.15866493 -0.2187834 -0.036616478 0.1810198 0.102247 0.17889422 0.009822683
-0.027586615 -0.014291372 -0.015393351 0.039029233 -0.16491678 0.0014369717 0.08671326 -0.16289876
0.15123798 0.12054353 0.19842172 -0.20489836 0.02185779 -0.11436847 -0.12855273 0.08856226
-0.12656792 -0.044793293 -0.075446926 -0.11533836 -0.07211405 -0.019569755 -0.071196854 -0.18216054
-0.099218145 0.13058902 0.037138738 0.1492144 -0.14253429 0.0042266347 -0.11102233 -0.12013921
-0.16064028 0.03356751 -0.13528882 0.16643615 0.053415846 0.17383121 -0.1915906 -0.16943656
0.0923296 0.09939684 0.012819191 0.20159875 -0.112618424 0.16211076 -0.10830675 0.20282668
-0.13154733 0.18964748 0.08587228 0.12690021 0.058746148 -0.122877695 0.07242252 -0.11448082
0.10654963 -0.0022998725 0.074794635 0.020762036 -0.1180658 0.16238591 -0.087732315 0.07725245
0.17233318 0.043305323 -0.017836845 0.13024683 -0.11594882 0.014711133 -0.20203193 0.0026601213
0.043789577 -0.08856876 -0.1626357 -0.07517338 0.19108792 -0.07223617 0.024681212 0.14186998
-0.17873216 0.047527656 0.056079783 0.018862743 0.17152616 0.06169388 0.12437959 0.09970648
-0.18180601 -0.15064327 -0.09888487 0.10683236 -0.0044479966 -0.020235434 -0.12270958 0.039218504
-0.18492742 0.124320984 0.13001163 -0.07638977 0.19520219 -0.19220708 0.124335855 -0.07044647
0.19617976 -0.08458758 -0.07411556 0.07480181 0.16188319 -0.09212968 -0.06543837 0.02572904
-0.20136319 -0.061926518 0.0590059 -0.014620033 0.01570405 0.1307086 -0.18838286 0.11760392
0.039112467 -0.048430387 -0.033358604 0.12038416 -0.04673478 -0.08349747 0.13986665 0.16839851
-0.062463015 0.19442777 -0.10542544 -0.10709405 -0.15238883 -0.08396967 0.10425213 -0.18140836
-0.030870993 -0.05477903 -0.14689828 0.13080259 -0.13927688 0.012297778 -0.030311216 0.08043937
0.1310726 -0.020393606 0.18456396 0.091049515 0.17101753 0.20844981 -0.13712585 -0.051046595
-0.10911075 -0.058222268 -0.07813673 0.13890758 0.19192503 -0.10420942 0.19648394 0.06031471
0.06670628 -0.062436786 0.0066122664 -0.04989672 -0.06457919 0.049716383 0.08942732 -0.067970335
0.09424746 0.035179306 -0.078966394 -0.023519235 -0.068357855 0.20724726 0.18492576 0.20422915
0.089850515 -0.019616764 0.009275378 0.09814444 -0.018153204 0.21517007 0.027161924 0.09707311
-0.15047659 0.022513872 0.03412999 0.06854601 0.16243452 -0.0061512874 0.20900977 0.17838158
0.10799176 0.022915157 -0.20622732 -0.0954027 -0.17969362 -0.05434049 0.18359295 0.018283522
0.2193028 -0.053119004 -0.10565131 -0.093822725 0.16533704 -0.12911136 -0.15226118 -0.121755175
0.21879691 -0.117911264 0.090128824 0.1778028 0.090152204 -0.19622244 0.1133954 -0.066098906
0.09962708 -0.17490998 0.18761972 0.18817626 -0.13467923 -0.08353018 0.06704685 0.0005729297

net.3.bias f4 [64]
00000000: bf9d 963a e193 31bb 35bb a03c 4636 633c
00000010: 22be 88b9 c3c5 133a 7f28 803b a3ab e139
00000020: 6be5 5b3c 9af7 323c 1555 c4bb 94df 9b3b
00000030: b72a 813c 2d57 3b3c aae4 8fbb a91d 8d3c
00000040: de5a 66bb b2db 39bc 4219 3abb 46d9 5dbb
00000050: bfc1 843c 36ea 67ba 9886 c8bb aca9 cbbb
00000060: 234e 843c 1889 113c b7d7 943c 5d88 303b
00000070: e58a 883b 42e0 033c ae8f bbbb 9f34 163a
00000080: bebb 51bc 28bf 983b 8289 433c a28e cd38
00000090: f718 0abc fb6e ed39 ecd4 46bc 4bb3 d5bb
000000a0: 7d09 1bbb a620 66bc fff8 943c 8810 e838
000000b0: 58ed 99bb 67b6 823c e5ce a53a 43cd ca3b
000000c0: 8211 e23a df18 073c 0ce2 023c 5a7a 5fbc
000000d0: 92bd fd3a b817 a6ba 3a2b 0ebc 886f 943c
000000e0: 0f2e 45bc 2078 b53b 9cda c63b 0170 2dba
000000f0: ebc0 23bb f89c 05bc 3c23 6b3c 4c38 4ebc
0.0011491104 -0.00270962 0.019620517 0.01386792 -0.000260816 0.0005637074 0.0039110775 0.00043043224
0.013421397 0.010923291 -0.005991588 0.004756877 0.015767438 0.011434359 -0.0043912726 0.017226057
-0.0035149376 -0.011343883 -0.0028396402 -0.003385143 0.016205667 -0.0008846851 -0.0061195605 -0.006215295
0.01615054 0.008882783 0.018169267 0.0026936748 0.004166948 0.008049073 -0.005723915 0.0005729887
-0.012801109 0.0046614595 0.01193464 9.801729e-05 -0.008428804 0.0004528685 -0.0121357255 -0.0065216175
-0.0023656779 -0.01404587 0.018185137 0.00011065701 -0.004697483 0.015956117 0.001265016 0.00618902
0.0017247649 0.008245676 0.007988464 -0.013640011 0.0019358865 -0.0012671864 -0.008677298 0.018119588
-0.012034907 0.0055380017 0.0060685407 -0.0006616116 -0.0024986814 -0.0081551 0.014351662 -0.012586664

net.6.weight f4 [2, 64]
00000000: 6946 483e 98a8 053e 3218 733e e794 753e
00000010: 57e6 4cbe 73e1 8dbe e9aa 283e 7dcb 92be
00000020: 8dc2 8d3e b154 6e3e ce74 3abe 207e c13d
00000030: 2105 603e 27c0 36bd 71ef 263d b515 973e
00000040: 2869 78be ab3a 98bb 4b1f 8abe 7379 5bbe
00000050: 3878 0a3e 3598 84be 2330 6cbe 1924 193e
00000060: 8065 8e3e 191b 953e 5ea3 993e 80df 503e
00000070: ab05 12be a10b 403e 484c 533e 2557 f7bd
00000080: 1903 04be 22c1 1dbe 8160 1ebd 23d3 15be
00000090: 75b9 81bd da7b 943e 0e9e 4fbd 2e7e 49be
000000a0: 91ee dcbd 7f3f 42be a273 683d c8b2 333e
000000b0: 1da5 733d 4036 c03c 4724 233e 8dc9 223e
000000c0: 6913 96be 99a5 9a3e c6e8 543e d540 0dbd
000000d0: 563e 503e 4c17 173e 0a73 87be 3160 063d
000000e0: 104b a9bd 6db5 3bbe 6b27 6abe bb35 053e
000000f0: 0913 71bc 0661 80bd 6fd9 3a3c ee7b d6bd
00000100: e7ce 02be 2035 05be 4a6f 333e feee 5a3c
00000110: bad5 833e 380e 8c3e d745 64bd e634 6b3e
00000120: a314 b539 8e5c 4a3e a6cc 56bb 74ec 20bd
00000130: cb50 033d fa65 793e 7927 c0bd 53af 8c3d
00000140: 9c1b d13c d70d 80be 7578 0a3e 0d3c 5abe
00000150: 74d9 213e d5e5 533d 4dc4 913d 3349 92be
00000160: 9201 613d ddff 413e 4045 943e 71a1 e6bd
00000170: 6dac 7d3e 019c 55bb 6ac5 28be 16a5 1d3e
00000180: 7192 66be 267a 653e dfab 5e3e c3b1 853d
00000190: 5ab3 46be 3d3a c1bd cca4 50be c770 42be
000001a0: 6b41 91be 26db cfbb 0420 853d 2ce2 83bd
000001b0: 6cc0 d8bd 4667 df3d 3ada d5bd fb83 693e
000001c0: e083 083e 2a73 46bd 9c2b 89bd 3430 b8bd
000001d0: a220 883e ebdf 71be 2f96 84bd bbd2 a53d
000001e0: 351c 5bbd 32c8 1a3e 21e8 993e 002f 02bd
000001f0: 702d 453d 7ae2 82bd 69c5 353e 0132 76be
0.1955811 0.13052595 0.23739699 0.23982583 -0.20009743 -0.27711067 0.16471447 -0.28670874
0.27687493 0.23274495 -0.1820862 0.094478846 0.21876957 -0.044616845 0.040755693 0.2950875
-0.24258864 -0.0046456656 -0.26977 -0.21433048 0.13522422 -0.25897375 -0.23065238 0.14955176
0.27811813 0.29122236 0.30007452 0.20397758 -0.14259975 0.18754436 0.20634568 -0.120771684
-0.12891807 -0.15405706 -0.038666252 -0.14631324 -0.06334201 0.2900074 -0.050687842 -0.1967704
-0.107876904 -0.18969534 0.0567509 0.17548668 0.059483636 0.023463368 0.15931807 0.15897198
-0.29311684 0.30204466 0.20791921 -0.034485657 0.2033628 0.14754981 -0.26454955 0.03280658
-0.0826627 -0.18330927 -0.228666 0.13008778 -0.014714011 -0.06268506 0.011404379 -0.104728565
-0.1277424 -0.13008547 0.17522922 0.013362644 0.25748998 0.27354598 -0.055730667 0.22969398
0.00034538386 0.1976187 -0.0032775789 -0.039288 0.032059472 0.24355307 -0.09382529 0.06869378
0.02552586 -0.2501056 0.13522513 -0.2131197 0.15805608 0.051732857 0.071175195 -0.28571472
0.05493314 0.1894526 0.28959084 -0.11261261 0.24772806 -0.0032594206 -0.16481557 0.15395007
-0.225168 0.22409877 0.21745251 0.06528046 -0.19404355 -0.09434936 -0.20375365 -0.18988334
-0.28370222 -0.006343263 0.06500247 -0.06439623 -0.105835766 0.1090837 -0.10442014 0.22804253
0.13331556 -0.048449673 -0.06697771 -0.08993569 0.26587397 -0.23620574 -0.06473958 0.08096834
-0.053493697 0.15115431 0.30059913 -0.031783104 0.048139036 -0.06390853 0.17751087 -0.24042512

net.6.bias f4 [2]
00000000: 40ab 6d3c 9d53 733c
0.014506161 0.014851478

exp_avg f4 [64, 4]
00000000: 0db1 25bb e17c 66bb e89d 423b 2ce7 753c
00000010: fc86 523b 5f96 be3b 4404 82bb 3026 96bc
00000020: 7820 8fb9 5b90 263b 3dfe dc39 d534 12bb
00000030: 57ed 74b8 537c 193b aef6 0539 df6b 0abb
00000040: 76ea 2dbb 01ce 31bc a4ef 873b 3616 a63c
00000050: 629e 4eba 60e1 06bc ce32 9b3a 0ee6 433c
00000060: b03d c23b 0f6e 003b 4201 d2bb f518 9abc
00000070: e7d9 96bb e196 a33a 8d8f a33b 4839 253c
00000080: 0591 e8ba 05ff a1bc 4e88 343b 8acd e03c
00000090: 5641 973a bf59 2d3b e54c afba 4ff0 debb
000000a0: 0634 be39 3948 8dbb 45ce 1dba 84bd 7e3b
000000b0: 2c96 713a 4ecc 873c 1042 bdba 8fe9 9bbc
000000c0: 1929 553b 48bc 423c 01bb 4cbb ca48 dfbc
000000d0: 62c1 deb9 a1b1 273c bf77 383a 2252 30bc
000000e0: 9639 1bbb baca f5bb f1ea 253b e4e2 8f3c
000000f0: 5632 22ba 0ca2 8cbb 207c 5b3a 4997 eb3b
00000100: 5160 ab3a 36c5 8d3b c509 bdba b70e 27bc
00000110: fc32 0f3b d0e6 d83b 681f 5abb f364 52bc
00000120: 6cae ee3b 28ec bebb 8975 1ebc 19f5 c4bc
00000130: 986d 8f39 735c 9fbc dc21 1fba 8a79 a83c
00000140: fc26 5d3b 977d 6ebd 2268 5fbb 334f 7a3d
00000150: 23c3 83ba 340f 66bb 26c7 c33a 6a78 d03b
00000160: 8328 a4ba 6b1d 1f3d 6a02 173b e2b8 16bd
00000170: 1f17 a03b 9eef eb3b f059 afbb 5a61 d5bc
00000180: a57b 70ba a398 a43a d3f1 d63a 3d06 443b
00000190: 0495 c9b9 28e3 4a3b 09c6 2d3a f72c 03bb
000001a0: 64c5 9f3b 35cd 163c 40be b6bb 4795 e5bc
000001b0: 5595 50bb 0043 24bc a11b 593b 5fd9 c53c
000001c0: 9fb1 373c a152 a2ba e636 3cbc 204f cebc
000001d0: 45c2 09bb 711c febb 91c9 563b 51bc 703c
000001e0: cbff 773b 8e71 b3bd f153 a3bb f109 a83d
000001f0: 49cd 0b3b 1754 38bd 9c8a 2ebb fcf6 353d
00000200: 0de1 99ba 6d93 feba 0b96 ad3a 5496 da3b
00000210: 19de 25bb e8a0 cebb 8444 293b 4e91 833c
00000220: 9a0c 8abb cb86 3c3c 3711 a13b 6a1c 52bb
00000230: 8a68 abbb 2ccb 6b3d 7e55 f53b 731f 47bd
00000240: d71f a53a f66e f13a 96e4 b9ba 7297 86bb
00000250: 2ea3 353b fc40 323c 9541 5bbb ba86 d7bc
00000260: aa00 9e3b ee85 96bd 3ac4 cdbb e35b 923d
00000270: 19d7 16bc 2534 7b3c f18e 3b3c bbca 643c
00000280: 41b4 a83b 2f87 acbc ed80 00bc 379b 2dba
00000290: 37e0 8c3b dd57 d23b 2197 91bb a24b a5bc
000002a0: b823 9b3b c525 09bd 71e5 d7bb aa48 bd3c
000002b0: 2a35 3cbb 90e7 14bc 09a9 3f3b cace a93c
000002c0: 1b46 d0b9 72ee 4cbb 65c0 e0b7 2a97 be3b
000002d0: 1406 203b ed32 68bd 7bd7 8abb 973f 3f3d
000002e0: d9f4 a33a 1efd 8abb 04a5 02bb 6f98 0d3a
000002f0: d2f9 caba 7309 753b cd47 aa3a a570 a3bb
00000300: 4798 233b 0fd7 b3bb e215 2abb af3a 353b
00000310: ec20 943a 7317 863c 8ffb 7eba c15e c7bc
00000320: f182 5c3a 5b0a 0abd 4267 e9ba f839 023d
00000330: 3bad 853b 041a 5ebd a8eb e3bb 3824 4d3d
00000340: ca10 c83a 9c90 b03b 7425 1abb fb58 2bbc
00000350: 596a 9fba 3b9f af3b 9b12 083b 2701 073b
00000360: da10 86bb add9 82bc 1de9 793b 1266 013d
00000370: db03 103b d058 74bd 991d 79bb 0337 593d
00000380: 3c93 09bb 59a8 703d de6a 413b 7bf4 77bd
00000390: f0ad 79b7 c6e9 69b6 9fc0 92b7 b82e 3438
000003a0: ca31 3b3b 4823 dbbc 5e0d 76bb 0a72 a43c
000003b0: 5440 aeba 07f9 cf3b 8811 ba3a 62b4 e6bb
000003c0: 7d09 203a bf35 2939 1b09 56ba cecc 0fbb
000003d0: b2a2 c33b e680 eb3b c2c7 d8bb aa51 e3bc
000003e0: e2ff 94ba 4fe9 70bb be99 953a f415 073c
000003f0: 160a d73a 9ab3 a63b d12e 8fba 8d16 b4bb
-0.0025282532 -0.0035169648 0.002969617 0.015008729 0.0032123914 0.0058162655 -0.0039677937 -0.018328756
-0.00027299277 0.0025415632 0.00042151092 -0.0022309322 -5.8395173e-05 0.002342005 0.00012775764 -0.0021121425
-0.0026537455 -0.010852338 0.0041484404 0.020274263 -0.0007881877 -0.0082324445 0.0011840703 0.011956705
0.005927764 0.001959685 -0.0064088413 -0.018810729 -0.0046036127 0.0012480879 0.004991478 0.010084458
-0.0017743415 -0.019774923 0.0027547064 0.027441759 0.0011539857 0.0026451198 -0.0013374357 -0.0068035494
0.00036278385 -0.004311588 -0.0006019811 0.0038870284 0.0009215798 0.016576912 -0.0014439244 -0.019032268
0.0032525717 0.01188571 -0.0031239393 -0.027256388 -0.0004248722 0.010235221 0.00070368865 -0.0107617695
-0.0023685447 -0.0075009735 0.0025317038 0.017564245 -0.000618731 -0.0042917784 0.0008372683 0.0071896655
0.0013074969 0.004326488 -0.0014422467 -0.010196379 0.0021850457 0.006619312 -0.003328288 -0.012841451
0.0072839763 -0.005826492 -0.009671577 -0.024042653 0.0002735674 -0.019453263 -0.0006070414 0.020565767
0.003374516 -0.05822524 -0.0034089168 0.061110687 -0.0010052662 -0.0035104277 0.001493667 0.0063620107
-0.001252428 0.038846415 0.002304221 -0.03679741 0.0048855687 0.0072001955 -0.0053512976 -0.026047397
-0.0009173698 0.0012557696 0.0016398974 0.0029910945 -0.00038448733 0.003095815 0.0006628936 -0.0020015815
0.0048758257 0.009204199 -0.005576879 -0.028025283 -0.003182729 -0.01002574 0.003312804 0.024151502
0.011211782 -0.0012384244 -0.011487698 -0.025184214 -0.0021020335 -0.0077548553 0.0032773952 0.014693336
0.0037841673 -0.08761893 -0.004984372 0.08205021 0.0021332076 -0.04500207 -0.002663291 0.044424996
-0.0011740044 -0.0019422598 0.0013243569 0.0066707525 -0.0025309382 -0.0063058026 0.0025828192 0.016060498
-0.004212928 0.0115067465 0.0049153822 -0.0032060393 -0.005230968 0.057566807 0.007486998 -0.048613977
0.001259799 0.001841991 -0.0014182504 -0.004107409 0.002771567 0.010879751 -0.0033455838 -0.02630936
0.0048218565 -0.07349764 -0.0062794955 0.07146432 -0.009206557 0.015332256 0.011447654 0.01396435
0.005148441 -0.021060554 -0.007843238 -0.0006622555 0.0042991894 0.0064191655 -0.004443065 -0.020177666
0.0047344826 -0.033483285 -0.006588631 0.023105938 -0.0028718212 -0.009088412 0.002924504 0.020728488
-0.00039725084 -0.0031270054 -2.6792472e-05 0.00581636 0.0024417685 -0.05668919 -0.004237113 0.046691503
0.0012508883 -0.0042415997 -0.0019934783 0.00054014375 -0.0015485829 0.0037389665 0.0012991369 -0.0049877935
0.002496259 -0.0054882835 -0.0025952985 0.0027653386 0.0011301315 0.016368603 -0.0009726816 -0.024337174
0.0008411846 -0.033701282 -0.0017807262 0.031793565 0.0040794886 -0.05422403 -0.0069555826 0.05008337
0.0015263793 0.0053883325 -0.002352086 -0.010458226 -0.0012162431 0.005359558 0.0020763043 0.0020600052
-0.0040913643 -0.015972937 0.003813333 0.031591482 0.0021974954 -0.05965501 -0.0038012026 0.05303098
-0.00209923 0.0587543 0.002951316 -0.06053589 -1.48820545e-05 -3.485578e-06 -1.7494252e-05 4.2958854e-05
0.0028563612 -0.026750222 -0.0037544589 0.02007391 -0.0013294318 0.006346825 0.0014195899 -0.0070405463
0.00061049295 0.00016137118 -0.0008164809 -0.0021942141 0.0059703225 0.0071869968 -0.00661561 -0.027748901
-0.0011367763 -0.0036760157 0.0011413617 0.00824498 0.0016406204 0.005087328 -0.0010923987 -0.0054958523

exp_avg_sq f4 [64, 4]
00000000: 39af 2236 16b5 ae37 8452 2e36 273b 9038
00000010: 3441 9836 135c 7738 e98a bc36 05e0 0739
00000020: e259 b936 63ff be39 c47b 1137 46d8 423a
00000030: 8591 2737 eded 143a 7a3f 7437 bf07 a93a
00000040: d3b7 8f37 303a 773a 499a ee37 3b1c 0b3b
00000050: 48c9 2436 3e03 2739 2c1c 9836 dc6b bc39
00000060: 6df0 c836 45c2 7438 be20 9636 fb0b 3d39
00000070: bd2f 8336 630f 7837 f000 7f36 a88c 7338
00000080: f7d7 1437 4436 9539 bd77 9937 2a4a 303a
00000090: 8696 d235 37e4 8837 0461 eb35 2441 5638
000000a0: df19 3b37 6e23 183a a004 9a37 54c2 b23a
000000b0: 0fd1 5837 b0ac 003a 2f06 aa37 6e55 893a
000000c0: 8738 f936 4508 e538 c69b d236 ab07 c539
000000d0: 6367 2636 a5b4 9f37 a724 1836 6ac4 8438
000000e0: 0202 2436 7724 4d38 684a a635 eb86 2439
000000f0: 0799 7b36 c385 7d39 3287 c636 4e62 043a
00000100: c103 9535 1c2c 4737 a7fb 3735 9c4e 3a38
00000110: 5de6 8a37 b537 653a 1adc d537 23f6 f03a
00000120: a681 a436 db1f 8738 c207 af36 5687 4e39
00000130: 8d1e fd36 89a8 9a39 859e 5437 15e9 2f3a
00000140: 931e 0938 4edc 023b d53d 6938 f849 8f3b
00000150: 55ac d636 67f6 aa39 180c 2837 3784 353a
00000160: 08b9 7537 46bb 5e3a 53a1 b437 0215 003b
00000170: c47f 8436 170f 3838 5197 4c36 d84e 2b39
00000180: 40e0 3837 6f18 1b3a 911a 9637 6f76 b73a
00000190: 8969 ac37 308f 913a d07f 0538 7b89 263b
000001a0: 1b9e a536 39cb 5e38 0e76 6c36 7802 5439
000001b0: 86a8 8336 d55f 3b38 20ff 4236 4502 3b39
000001c0: 2650 cd37 82bc b738 b894 8737 6d3c 8839
000001d0: 051e 0c37 68ff 7f39 526c 9537 7cd3 203a
000001e0: 8210 3338 4b1f e53a 296d a638 e0de 793b
000001f0: 093d 9737 13eb 1e3a 55f0 f737 4d83 b33a
00000200: 194c 8c35 6dfe 4437 001d 1d35 cf7f 0f38
00000210: 5aae 1d36 34b4 f437 40b9 ac35 f4d5 d838
00000220: 1d78 9836 ebea 8937 7d25 8136 ed1a d437
00000230: 9878 ed37 b716 d03a 7503 3338 8b75 663b
00000240: 9cc6 0d36 34be 2438 fed8 3336 0a8e 6738
00000250: 2262 b736 4190 8738 8cf6 8d36 af11 6439
00000260: 6ca0 0538 a6bb 943a cdd8 5138 5b26 143b
00000270: d86a 1237 aaf8 9838 72ff 0c37 e5d3 2e39
00000280: e79a 0136 2cb5 4238 8f39 2036 b0f8 6e38
00000290: ef64 7f36 eae1 1e38 9405 3736 6571 1439
000002a0: 9026 5b37 90b8 143a 1022 9637 f7e7 943a
000002b0: 90ad ba36 c926 9b38 695a 0c36 3db4 7739
000002c0: e8dc 4f36 629c 2738 3aa8 6436 cf46 0039
000002d0: 8d55 a937 888e 6a3a bd31 1038 eb89 fc3a
000002e0: 952e e336 113c 9939 745c 1937 1fa5 343a
000002f0: b839 8537 39e9 5e3a 7a4b a237 9d1d df3a
00000300: d3e1 7936 4899 8737 eef8 5136 1d0d 5c38
00000310: ba95 0d37 c436 5f38 3e75 db36 b5ee 4139
00000320: 9124 d436 3a96 a939 ec85 4d37 84fa 2e3a
00000330: 2580 e137 45a8 8839 38e0 bd37 9244 de39
00000340: bd44 5336 7ee7 aa38 2421 e536 ca49 6c39
00000350: 7354 c635 7ad9 e337 5711 9035 eedd 5c38
00000360: c7f7 a036 be33 7938 2a21 6e36 baf5 3939
00000370: e192 0c38 864d 003b f03e 5738 e866 8e3b
00000380: 4e62 d637 3358 943a 84de 3838 6abf 273b
00000390: cf84 cd35 434f 1c38 f9ed 9c34 c47e d138
000003a0: 5adc e636 6a32 9f39 a21a 3e37 a834 363a
000003b0: 10a0 2937 1055 f339 e58f 8237 91f1 803a
000003c0: b6b8 ae35 e317 cb37 7d0d 1735 516c 9e38
000003d0: 2436 c036 e453 c138 f18f 8536 6468 9b39
000003e0: 41a7 5235 d81f 5a37 cb99 d034 63c8 3338
000003f0: 3146 dc35 e6dc 9137 72e5 fc35 24f5 4638
2.4241874e-06 2.0826741e-05 2.597605e-06 6.877473e-05 4.5375436e-06 5.897514e-05 5.619008e-06 0.00012958057
5.5238934e-06 0.00036429902 8.67149e-06 0.000743274 9.987857e-06 0.00056812057 1.4558313e-05 0.0012895985
1.7132528e-05 0.0009430973 2.8443656e-05 0.0021226543 2.4555065e-06 0.00015927569 4.5332326e-06 0.00035938516
5.9884537e-06 5.835506e-05 4.47416e-06 0.00018028908 3.9096617e-06 1.4785534e-05 3.7998507e-06 5.806671e-05
8.871771e-06 0.00028459926 1.8294779e-05 0.00067249185 1.5690027e-06 1.6318734e-05 1.75371e-06 5.1082243e-05
1.1152092e-05 0.0005803619 1.8360384e-05 0.0013638237 1.29232785e-05 0.0004908545 2.0268459e-05 0.001047773
7.427359e-06 0.00010921111 6.276622e-06 0.0003758048 2.4796107e-06 1.9038396e-05 2.26711e-06 6.3308355e-05
2.4439073e-06 4.890977e-05 1.2389619e-06 0.0001569052 3.7490988e-06 0.0002417779 5.9165986e-06 0.0005050049
1.1102458e-06 1.1871594e-05 6.8539015e-07 4.4419066e-05 1.6558153e-05 0.0008743958 2.5494071e-05 0.0018383901
4.902674e-06 6.443235e-05 5.2163095e-06 0.00019696107 7.543544e-06 0.00029498737 1.2673093e-05 0.0006710452
3.269182e-05 0.0019967738 5.5609114e-05 0.0043728314 6.397759e-06 0.0003260851 1.0016396e-05 0.00069243036
1.4646219e-05 0.0008496534 2.1532795e-05 0.0019543772 3.9487804e-06 4.3883072e-05 3.0486447e-06 0.00016337202
1.1019467e-05 0.00059164217 1.7893764e-05 0.0013997088 2.0553141e-05 0.0011105295 3.1828706e-05 0.0025411535
4.935789e-06 5.311819e-05 3.5235457e-06 0.00020218815 3.923723e-06 4.4673525e-05 2.9056755e-06 0.00017834555
2.4475226e-05 8.761232e-05 1.6162507e-05 0.00025984962 8.35164e-06 0.00024413841 1.7812625e-05 0.0006135029
4.26923e-05 0.001748064 7.9358295e-05 0.0038127229 1.8029024e-05 0.00060622505 2.9556608e-05 0.0013695747
1.045296e-06 1.17417485e-05 5.852926e-07 3.4212888e-05 2.349631e-06 2.917098e-05 1.2868913e-06 0.000103395345
4.543936e-06 1.6441065e-05 3.848864e-06 2.5284908e-05 2.8308757e-05 0.001587591 4.2680145e-05 0.0035165276
2.1126243e-06 3.9277787e-05 2.6799385e-06 5.5206976e-05 5.465249e-06 6.464171e-05 4.2308293e-06 0.00021750362
3.1859076e-05 0.0011347427 5.0031394e-05 0.002260587 8.727155e-06 7.294242e-05 8.404126e-06 0.0001667287
1.9312663e-06 4.6421934e-05 2.3875361e-06 5.697523e-05 3.8056712e-06 3.7880534e-05 2.7272372e-06 0.00014156623
1.3062396e-05 0.0005673254 1.7897255e-05 0.0011360635 5.5634373e-06 7.3982e-05 2.0914251e-06 0.000236229
3.0973988e-06 3.9961546e-05 3.4072568e-06 0.0001223341 2.0186208e-05 0.00089476304 3.4378598e-05 0.0019267177
6.77055e-06 0.00029227187 9.141037e-06 0.000689106 1.5881713e-05 0.0008503381 1.9347051e-05 0.0017022375
3.7235338e-06 1.6164631e-05 3.1288323e-06 5.24643e-05 8.439116e-06 5.3218348e-05 6.5403574e-06 0.0001849484
6.3223492e-06 0.0003234612 1.2250133e-05 0.0006674903 2.6881762e-05 0.00026065312 2.2634966e-05 0.00042394229
3.148146e-06 8.1493505e-05 6.82859e-06 0.00022534202 1.4776728e-06 2.716178e-05 1.0733883e-06 5.2658776e-05
4.7972167e-06 5.9414415e-05 3.5484068e-06 0.00017734515 3.3515393e-05 0.0019577458 5.131861e-05 0.0043457635
2.5556565e-05 0.0011317789 4.4076252e-05 0.002559627 1.5312343e-06 3.7267117e-05 2.9230412e-07 9.9895085e-05
6.8801864e-06 0.00030364405 1.1331083e-05 0.00069505954 1.0110452e-05 0.00046411948 1.5564214e-05 0.0009837617
1.3017768e-06 2.4210609e-05 5.627151e-07 7.5542026e-05 5.7283487e-06 9.218583e-05 3.980466e-06 0.0002964168
7.847448e-07 1.3001227e-05 3.8854918e-07 4.286355e-05 1.6411706e-06 1.738821e-05 1.884224e-06 4.7435184e-05

exp_avg f4 [64]
00000000: b7cb 613d 9a8d 4dbd a70b a23b 61a1 e13b
00000010: b446 c6bc 8e97 7fbc cc7b e5bd 4453 ae3d
00000020: ad39 4ebd da7d 69bc 7da2 07bc 9c28 663d
00000030: da18 a6bd cf17 9b3c 00de 373d 458b bbba
00000040: a075 c9bc ed09 943c e395 1dbe a780 3cbd
00000050: d369 40be 70c3 37bc 4c59 d63d 3bba cfbd
00000060: d4c8 f93b 813c 023c 4e0f b6bd 8148 873d
00000070: 2951 5cbe 61e6 a6bc 0686 98be 3657 16be
00000080: 83cd c33c a6af 4f3d 60e0 ab3d aa39 403e
00000090: 0de7 3fbc 3ed6 62bd 8664 69be cf93 453e
000000a0: 5b37 00be 3547 a7bd 3886 05be ca4b 633d
000000b0: cda9 df3c e217 44be a6be 53bc 00ab a23c
000000c0: 02d5 36bd a3f6 2cbc a1fb bdbd 5292 dcbd
000000d0: e910 5d3c aa0e 123d d87d 9e3d 209d 40be
000000e0: 4008 293e d7f7 8a3a adc7 e3bd 0951 983c
000000f0: deb5 19bc dc2e e7bd e8a9 b53c 2907 91bc
0.05512592 -0.05018387 0.0049452367 0.006885693 -0.024203636 -0.015600098 -0.11205253 0.085119754
-0.050347973 -0.014251197 -0.008278486 0.056191072 -0.08110209 0.018932251 0.04488945 -0.0014308473
-0.02459222 0.01807114 -0.15389208 -0.04602113 -0.18790369 -0.0112160295 0.10466251 -0.101429425
0.0076228175 0.007948996 -0.08889638 0.06605626 -0.21515335 -0.020373525 -0.29789752 -0.14681706
0.023901707 0.05070462 0.083924055 0.18771997 -0.011712802 -0.0553801 -0.22792253 0.19294666
-0.12521116 -0.081678785 -0.13039482 0.0554922 0.027302647 -0.19149736 -0.012923872 0.01985693
-0.044636734 -0.01055685 -0.0927651 -0.10770096 0.013492801 0.035658516 0.077388465 -0.18809938
0.16507053 0.0010602426 -0.111220695 0.018593328 -0.009381739 -0.112882346 0.022175744 -0.01770361

exp_avg_sq f4 [64]
00000000: 212a a93a 3466 0d3b 508e 123b 67f9 163b
00000010: c64d 6f3b 8588 313a 34a1 423b 2592 cc3a
00000020: eb2d bc3a fe68 283a f88c 1d3b 9f41 7f3b
00000030: 46cb 553b 80b1 813a bf35 ab3a 8ce4 9a3a
00000040: 48e8 ee39 260f a13b 6340 193b e36a ed3a
00000050: eb5d 093c b70f 073b 665e 563b 076e 1b3b
00000060: 490f 163b 7b53 a33b c028 163b 933b 133b
00000070: 2e8e 3e3c f4b0 9d3a ac53 263c b0ec 7e3b
00000080: 4bf8 383a efa5 9b3a b579 f03a 3e5c e33b
00000090: e86f 833a e96e 313b e9bd 1c3c f312 863b
000000a0: f448 a23a 9ea9 d33a 6011 8b3b 529a 3c3b
000000b0: 8e81 8d3a 34fc c33b 72f3 f03a 945c fe3b
000000c0: 99a6 d53a e93c 813b 5be3 ee3a 015e 5a3c
000000d0: 7edc ab39 0863 7f3a 3331 023b bf9e 133c
000000e0: a05f ac3b 68ef 7c3a d938 d33a 81fa 493b
000000f0: 3586 4b3a 778b 493b 1b51 b739 9c4b 3f3a
0.0012906232 0.002157581 0.0022362657 0.002303684 0.0036514862 0.0006772357 0.0029698135 0.0015607519
0.0014356946 0.00064243365 0.0024040323 0.0038949025 0.003262238 0.0009894818 0.0013062282 0.001181738
0.0004556796 0.004915136 0.0023384325 0.001811352 0.008384208 0.0020608732 0.0032710074 0.0023716704
0.0022897294 0.004984317 0.0022912472 0.002246593 0.011630578 0.0012030886 0.010151785 0.00388984
0.00070560415 0.0011875014 0.0018346818 0.0069384864 0.0010027857 0.0027074164 0.0095667625 0.0040916144
0.0012381361 0.0016148572 0.0042440146 0.0028778506 0.0010796057 0.0059809927 0.0018383099 0.007762501
0.001630026 0.0039440286 0.0018225716 0.013328076 0.0003277994 0.0009742235 0.001986575 0.009010016
0.005260423 0.00096487114 0.0016114964 0.0030819478 0.0007763834 0.0030753294 0.00034964908 0.00072973385

exp_avg f4 [64, 64]
00000000: bed5 3437 9341 0c3b efee b2ba e511 bbba
00000010: da75 72ba 2411 c8ba 672b 033b 2880 213b
00000020: 108f 87ba 9b53 c63a ddf5 8eba c52f e7ba
00000030: 100d 7c39 1dff 003a 39d3 8e3a e7f4 f637
00000040: 84c3 013b af9d 10bb 8096 adba 5ab2 4dbb
00000050: 6a0f a8b8 4558 dfba cf61 84b9 b3d7 d83a
00000060: b130 d6b9 3af3 92ba 8fd4 113b 61b2 b63a
00000070: 784f 1839 5f3e d7ba 2f9c 60bb 66ce 63bb
00000080: 765a 413b 9d41 3a3b b93e 6eb9 e412 18b9
00000090: c765 8fb9 d1d7 d33a a4ab 82bb 2dfa ddb9
000000a0: ce2f 47b9 c8a7 cf3a 3931 62bb 1daa 393a
000000b0: 15a0 44b8 370c 58bb 4c1f ceba d481 45bb
000000c0: 68b5 303a a7e5 453a 84db 7ebb 58cf 8d39
000000d0: 938f 4eb9 37f4 c03a 24b4 bb39 2c74 57bb
000000e0: 5ffc 20bb 9a54 b2b8 d199 4cba fb86 e1ba
000000f0: e367 103b b1bc 213a d031 d839 491e cf3a
00000100: 4242 743a d15d 2935 5ba1 20bb 56be 2aba
00000110: b388 21ba 87a2 72ba 63f1 0f34 0000 0000
00000120: 83b8 c8ba a0f5 b531 fd9f 29ba 37f7 4ab7
00000130: 31cf 9734 0000 0000 0000 0000 0f8c 86bb
00000140: 0000 0000 93e4 38bb fb0b e339 1a9d 92bb
00000150: ce93 01ba 8da9 caba 7dbd c0ba 6085 0e34
00000160: 9f4a a6b9 d104 31ba 0000 0000 f096 1034
00000170: a8cb 1633 9be8 80ba a81e dabb b712 dcbb
00000180: 717c 0233 0000 0000 1d6b c639 706f 2aba
00000190: 1058 b83a 9740 6a33 b4c8 f7bb 2e9f 1d39
000001a0: 5e37 a63a 0000 0000 331b e6bb 2415 8b32
000001b0: fc76 17b8 6d40 87bb a14c 1abb ea59 42bb
000001c0: 0000 0000 2ed6 3438 2695 06bc 5e8e e43a
000001d0: 8d52 22b9 d0db 8d38 78e8 863a 72b7 c8bb
000001e0: 8fc6 97bb 5d92 72b8 8534 a9ba 36d6 20bb
000001f0: 0000 0000 b681 4233 0000 0000 1da0 8334
00000200: 1aa6 49bc b94e 42bc 929a 13bc 460c a6bb
00000210: 73f9 74bb 08ff b6bb cffd 29bc ced5 49bc
00000220: 5495 46bc 1c59 7fbb fca8 78bb 0981 a7bc
00000230: dd44 ceba d022 20bc bff7 80bb 5490 ecbc
00000240: eab1 11bc 229a a9bc c217 8cbc b024 a7bc
00000250: 6181 42bb 9ee7 aebb 4a91 21bc b9d6 49bc
00000260: fa60 c0ba 2bad 88bb 0f2d ccbb 8924 7dbb
00000270: 8299 ffbb 083c cebb e146 fbbc 53c1 29bd
00000280: 4801 eabb eeca 2abc 98f3 32bc 6207 17bc
00000290: 5848 83bc 6960 39bc f7aa 10bd 059c 02bc
000002a0: 4d2a 45bc a9cc 7dbb 67b3 05bd 56b8 03bb
000002b0: c3a1 fcb9 2a30 ddbc 5787 3bbc b160 e7bc
000002c0: e984 15bc 0e0d 26bc 6ebc 18bd fc2d a3bc
000002d0: 27fe 02ba 1e20 0fbc d1cd 04bc dab0 1ebd
000002e0: 600f aabc 1bff 2cba 1c8b 73bc d0c6 52bc
000002f0: 1239 debb e256 33bb e3be 86ba db69 24bc
00000300: 59ab c2bb a433 3bbb 7256 dfbb 67b2 35bb
00000310: c4b6 28bb 5808 81bb c6ec 10bb 9eb9 17bb
00000320: 5919 f2bb c42f 04ba bc53 33bb 87c0 6abc
00000330: 7a74 66ba 3def 41bb 7093 9fb9 bf63 a8bc
00000340: 9dea e1ba b9c1 5ebc b15c e1bb 5cca 73bc
00000350: c837 09bb 6d04 77bb f97b e6bb 3b30 52bb
00000360: fb80 91ba 3e10 3fbb 246a f0b9 0c22 99b9
00000370: c735 1ebb 49a9 8fbb ba66 bcbc 7810 f5bc
00000380: 9d07 06ba 8b39 b2ba 13e4 99bb 33ae debb
00000390: 5239 00bc 40d6 26bb 1364 c6bc 17f9 48bb
000003a0: a586 a3bb 1462 00ba 5d1d c6bc 0c78 20b9
000003b0: cb59 aab9 c590 9dbc 833a 0bbc 178d a6bc
000003c0: 8771 09bb 7652 59bb 27cc ddbc e19e 17bc
000003d0: 6d45 f2b9 9074 0fbb 5f19 4cbb c82b e2bc
000003e0: 353b 76bc 7e6b 2dba d30e 30bc 60bd 11bc
000003f0: 7b67 2eba 4bd6 22ba d2cd b3b8 9207 1bbb
1.0778602e-05 0.002140139 -0.001365153 -0.0014272301 -0.00092491286 -0.0015263897 0.0020014883 0.0024643037
-0.0010342319 0.0015131118 -0.0010907013 -0.0017638138 0.00024037459 0.00049208273 0.001089669 2.9439527e-05
0.0019800374 -0.0022066643 -0.0013243705 -0.0031386823 -8.013735e-05 -0.0017039856 -0.00025249875 0.0016543776
-0.0004085354 -0.0011211403 0.002225194 0.0013938659 0.00014525454 -0.0016421786 -0.003427278 -0.0034760474
0.0029503382 0.0028420456 -0.00022720815 -0.00014502887 -0.00027350915 0.0016162341 -0.0039877463 -0.000423388
-0.00018995928 0.0015842849 -0.0034514202 0.0007082539 -4.687913e-05 -0.0032966265 -0.001572588 -0.0030137198
0.0006740899 0.00075491745 -0.0038888166 0.000270481 -0.00019699176 0.0014721219 0.00035801635 -0.003287564
-0.0024564487 -8.50346e-05 -0.0007804903 -0.0017206365 0.0022034578 0.000616978 0.00041235844 0.0015801872
0.00093177345 6.3093927e-07 -0.0024510238 -0.00065133476 -0.00061620324 -0.0009255786 1.3405729e-07 0.0
-0.0015313778 5.2957176e-09 -0.00064706785 -1.2097697e-05 2.8276693e-07 0.0 0.0 -0.0041060518
0.0 -0.0028212413 0.0004330574 -0.0044742944 -0.0004942984 -0.0015461907 -0.0014704909 1.3273302e-07
-0.00031717584 -0.0006752732 0.0 1.3465956e-07 3.510982e-08 -0.0009834947 -0.0066564865 -0.006716098
3.0381162e-08 0.0 0.00037845309 -0.0006501591 0.0014064331 5.4541115e-08 -0.0075617675 0.00015031986
0.0012681296 0.0 -0.0070222854 1.6191343e-08 -3.611202e-05 -0.004127553 -0.002354421 -0.0029655644
0.0 4.3114815e-05 -0.008214271 0.0017437448 -0.00015480276 6.764347e-05 0.001029267 -0.006125384
-0.0046318243 -5.7833608e-05 -0.0012909329 -0.0024541742 0.0 4.5287116e-08 0.0 2.451715e-07
-0.012307668 -0.011859589 -0.00900902 -0.005067381 -0.0037380129 -0.0055846013 -0.010375454 -0.012319041
-0.012120564 -0.0038963025 -0.003794252 -0.020447271 -0.0015737076 -0.009773925 -0.0039357836 -0.028877415
-0.008892516 -0.020703379 -0.017101172 -0.020403236 -0.0029679167 -0.0053376695 -0.0098613 -0.01231926
-0.0014677339 -0.004171034 -0.0062309573 -0.0038626513 -0.007800282 -0.0062937774 -0.030673446 -0.041444134
-0.007141266 -0.010424359 -0.010922335 -0.009218069 -0.016025707 -0.01131449 -0.035319295 -0.007971768
-0.012034011 -0.0038726723 -0.032641795 -0.0020098886 -0.00048185707 -0.027000505 -0.011445842 -0.028244348
-0.0091259265 -0.010134948 -0.037289076 -0.019919388 -0.0004996978 -0.008735685 -0.008105711 -0.038742878
-0.020759284 -0.0006599293 -0.014864709 -0.012864783 -0.0067817057 -0.0027365019 -0.0010280277 -0.010035004
-0.0059408364 -0.0028564716 -0.006815725 -0.0027724744 -0.0025743702 -0.003937762 -0.0022113784 -0.0023151408
-0.0073882756 -0.0005042518 -0.0027363142 -0.014328129 -0.000879116 -0.002959206 -0.00030436693 -0.020555375
-0.0017236058 -0.013595992 -0.0068775048 -0.014879789 -0.002093779 -0.0037691847 -0.0070338217 -0.0032072205
-0.0011101061 -0.0029153968 -0.00045855448 -0.000292078 -0.002414094 -0.004384194 -0.022998203 -0.02991508
-0.0005112829 -0.0013597471 -0.004696378 -0.0067956685 -0.007826166 -0.0025457293 -0.024217641 -0.0030666047
-0.004990416 -0.0004897427 -0.024183923 -0.0001530351 -0.00032491828 -0.01923407 -0.008497837 -0.020330949
-0.0020972209 -0.0033160723 -0.027074886 -0.009254188 -0.00046209563 -0.0021889545 -0.0031143052 -0.027608767
-0.0150287645 -0.0006615444 -0.010745722 -0.008895248 -0.0006652993 -0.0006211742 -8.573722e-05 -0.0023655635

exp_avg_sq f4 [64, 64]
00000000: 28e9 ee36 fbe8 d336 6f27 9d36 762a 9636
00000010: 1a2b f135 2229 9f36 1828 1f37 d2b6 2b37
00000020: b95e a936 58fe 5c36 fb94 1f36 b26d 2a37
00000030: 810c ac34 a06d 5d36 a076 a136 8cc0 4135
00000040: 4681 f136 4485 e537 eb6f 2337 832d c637
00000050: fc58 1133 a9f4 cb36 f014 8335 8a1d 0637
00000060: b5cd b734 3b79 2736 d402 1736 d3cf e735
00000070: 0832 e236 f7cd b936 f8cf da37 95b8 0738
00000080: 3a77 3e37 4d0b ff36 61f8 3036 4d8e 6b34
00000090: d4de 2236 0cf1 ff36 63fb 2b38 ce31 5b36
000000a0: f03c 3f36 8181 6236 3980 fb37 7f07 0a35
000000b0: 95ac c934 6a82 e637 9b5c c136 99ba 6337
000000c0: cf0e ed36 e8c1 9836 3cbb 2538 08db b636
000000d0: 295a a533 f690 3e36 3125 8e35 e1e9 d837
000000e0: 5442 8d37 eb58 0f34 5922 5135 ed2f 0a37
000000f0: 1364 f636 bc61 2135 f160 a735 cc50 d136
00000100: dc28 b033 ee39 1f32 0b7e a437 86f7 4d37
00000110: 2580 9136 0afe 1537 cc0f df31 0000 0000
00000120: 7764 3138 1f39 322d 8010 7436 7801 8e38
00000130: c01b f832 0000 0000 0000 0000 290d d938
00000140: 0000 0000 c504 3739 4d48 b632 dab3 d438
00000150: a896 c635 8151 5e37 ea76 4237 3ead da31
00000160: 71df 1035 a601 cb36 0000 0000 1712 e131
00000170: d17e 702e 0904 4437 99bf 1539 7559 5839
00000180: e44d b72f 0000 0000 4455 0e33 e9bb 2a36
00000190: 3580 dd34 c2b0 9330 aed5 6039 a150 5932
000001a0: 46e5 2b34 0000 0000 98d7 2539 f695 4c2d
000001b0: 21fe fe31 5855 0339 ed4b b937 762c e038
000001c0: 0000 0000 c759 7731 9cd6 4a39 0259 4135
000001d0: 9e31 3033 0951 3f30 5744 e633 0411 3639
000001e0: 1dca d538 8168 f832 c0ac 3a37 cd34 5838
000001f0: 0000 0000 4ba6 4b30 0000 0000 fd84 ba32
00000200: c659 7137 2182 8d37 a6a0 8a38 839f 1038
00000210: f1a2 8537 69d6 f437 7d8f aa37 6665 8337
00000220: c176 1039 2631 d236 8f3e 4f37 463c 5f39
00000230: 30ea 5336 88ae 2d37 3784 1737 6a7b 9939
00000240: bfdc 3d37 5d4f 0b3a e021 d437 c761 a639
00000250: ee1f 9936 395f 2138 306f 1a38 6a23 a437
00000260: 7790 f335 43eb a037 f8f5 3837 de7f ce36
00000270: 5caa 5437 dbe9 2038 0de0 e139 8007 233a
00000280: 8ac9 6e37 143c cd37 493f 0037 ac2e 1337
00000290: 14cf 1337 58a5 9037 6baa 103a 88a9 1137
000002a0: ab41 f336 7921 db36 8895 fe39 86f8 e735
000002b0: a13f 2735 ff49 d139 3ac5 8e38 4c29 a839
000002c0: b685 8a37 198b 3c37 a0ea 223a ada4 8137
000002d0: 0438 8a34 3f71 0837 22b3 4f36 b900 0d3a
000002e0: b5b3 a339 16be 8a35 2b5f ee37 9666 2b39
000002f0: 5437 7337 f9f4 bc35 e263 8a35 6db7 7c37
00000300: f302 ba36 9e33 0536 975d 3938 f88c 9137
00000310: 4140 3937 6a10 a037 7875 c236 cf8b 8636
00000320: 7aa3 9a38 3fb9 b735 fd9a 0d37 50cc 1f39
00000330: fd80 2036 1104 3136 85f9 5836 8162 3339
00000340: 088e 0236 b13c af39 a67a f136 beb0 5939
00000350: b65c 3236 0953 cc37 9c11 c837 a221 a536
00000360: eddc a835 2ffc 4c37 29b1 0236 9b59 0a36
00000370: 2f8f a736 59d2 d237 e1a9 8f39 b547 d039
00000380: 9bed 6e36 a14f dc36 b53f 2e36 f48b df36
00000390: 8edb 6036 9e24 1f36 241e a339 af18 2636
000003a0: 7706 3536 80b5 0736 6c39 a139 bc56 2235
000003b0: 9ebc f934 b113 8c39 4dc2 3738 0510 5a39
000003c0: cc4d 3a36 3cc3 4f36 77a9 b739 1cae c536
000003d0: d9cd 8534 74d3 cb35 b763 8335 6c09 af39
000003e0: ce3b 4e39 24f8 7e35 1a04 8c37 afb9 df38
000003f0: 5326 9e36 61b8 9434 4724 6035 48e4 8036
7.1200957e-06 6.3154125e-06 4.6835553e-06 4.4752915e-06 1.7968443e-06 4.7433577e-06 9.486474e-06 1.023496e-05
5.0476197e-06 3.2930602e-06 2.3779564e-06 1.015833e-05 3.2046594e-07 3.2995376e-06 4.8119837e-06 7.2178295e-07
7.197409e-06 2.7360984e-05 9.741615e-06 2.3624632e-05 3.3841374e-08 6.0783536e-06 9.766354e-07 7.9939e-06
3.4236078e-07 2.4955505e-06 2.25024e-06 1.7271326e-06 6.7411493e-06 5.537407e-06 2.6084468e-05 3.2358414e-05
1.1352642e-05 7.600908e-06 2.637062e-06 2.1937849e-07 2.4269584e-06 7.6276538e-06 4.10037e-05 3.2662533e-06
2.8496688e-06 3.3752005e-06 2.998124e-05 5.1419914e-07 3.7564737e-07 2.7478865e-05 5.762629e-06 1.35737e-05
7.0648744e-06 4.5525267e-06 3.951344e-05 5.4495213e-06 7.699811e-08 2.8396585e-06 1.0590649e-06 2.5858115e-05
1.6839396e-05 1.3350261e-07 7.790855e-07 8.2366e-06 7.3430215e-06 6.0119396e-07 1.2470683e-06 6.2380914e-06
8.203071e-08 9.26819e-09 1.9609017e-05 1.2276583e-05 4.3362547e-06 8.94024e-06 6.49195e-09 0.0
4.2293654e-05 1.0130812e-11 3.6368438e-06 6.771361e-05 2.8883619e-08 0.0 0.0 0.000103498176
0.0 0.00017454017 2.1220467e-08 0.00010142448 1.4795996e-06 1.3251208e-05 1.1590988e-05 6.3643304e-09
5.396933e-07 6.0500633e-06 0.0 6.5504184e-09 5.4682318e-11 1.168345e-05 0.00014281123 0.0002063269
3.334285e-10 0.0 3.31395e-08 2.5441352e-06 4.125774e-07 1.0745895e-09 0.00021441907 1.2649395e-08
1.6009025e-07 0.0 0.00015815941 1.16293555e-11 7.421264e-09 0.00012524927 2.2089074e-05 0.00010689434
0.0 3.5994263e-09 0.0001934417 7.2027626e-07 4.102332e-08 6.9600553e-10 1.07226406e-07 0.00017363211
0.00010194278 2.8918523e-08 1.1126685e-05 5.1547588e-05 0.0 7.4087286e-10 0.0 2.1713726e-08
1.4385621e-05 1.6869106e-05 6.610276e-05 3.4480832e-05 1.5930711e-05 2.918691e-05 2.0332396e-05 1.5663634e-05
0.0001377715 6.2642093e-06 1.2352727e-05 0.00021289391 3.1577765e-06 1.035224e-05 9.031085e-06 0.00029274385
1.1316674e-05 0.0005314255 2.5288144e-05 0.00031734837 4.5634724e-06 3.8474074e-05 3.6820013e-05 1.9566814e-05
1.8146956e-06 1.9183039e-05 1.1024524e-05 6.154164e-06 1.267585e-05 3.8364768e-05 0.00043082275 0.0006219074
1.423283e-05 2.446588e-05 7.644129e-06 8.772749e-06 8.810097e-06 1.7243132e-05 0.00055185583 8.682146e-06
7.249609e-06 6.5306053e-06 0.00048558065 1.7283171e-06 6.230494e-07 0.00039918718 6.807824e-05 0.00032074226
1.6513146e-05 1.1238059e-05 0.00062147714 1.5454681e-05 2.574526e-07 8.132599e-06 3.0949673e-06 0.0005378831
0.00031223675 1.0337124e-06 2.8416127e-05 0.00016346047 1.4496811e-05 1.4078388e-06 1.0310871e-06 1.5063078e-05
5.5435753e-06 1.984859e-06 4.41946e-05 1.735099e-05 1.104182e-05 1.908113e-05 5.7953257e-06 4.009787e-06
7.373742e-05 1.3688476e-06 8.440341e-06 0.00015239534 2.391694e-06 2.6377422e-06 3.2331748e-06 0.00017107466
1.9454183e-06 0.0003342382 7.196638e-06 0.00020760574 2.6578032e-06 2.4357361e-05 2.3850058e-05 4.9212986e-06
1.2581273e-06 1.2218064e-05 1.947463e-06 2.061576e-06 4.9936566e-06 2.5131902e-05 0.00027401655 0.00039726277
3.5603068e-06 6.565781e-06 2.5965103e-06 6.6622106e-06 3.3506399e-06 2.371416e-06 0.0003111224 2.4750295e-06
2.6974865e-06 2.0222215e-06 0.00030751096 6.047592e-07 4.65171e-07 0.00026717552 4.3811557e-05 0.00020796068
2.7761444e-06 3.0959045e-06 0.0003503074 5.8913265e-06 2.4922954e-07 1.518622e-06 9.789281e-07 0.0003338562
0.0001966797 9.4983466e-07 1.669121e-05 0.00010668055 4.7132285e-06 2.7701302e-07 8.3499293e-07 3.8412727e-06

exp_avg f4 [64]
00000000: c776 83bd 575b 8bba c7d9 edbe 6a5d 93be
00000010: 2aa8 fd3c 340b a63d 5d33 24bd f249 8b3d
00000020: 7d52 93be 7a6a 46be 8278 393d 33e6 49bd
00000030: 8000 84be 4cf5 14be 1d73 50bb 56a9 b3be
00000040: 868d b33d 080d ed3d cea8 e93c 14cd 693c
00000050: b538 34be 58ea c13a 00d3 bc3d 471e 583d
00000060: 9f29 c2be 3bec 3bbe ad3b 01bf 4886 bdbd
00000070: 35df 2abd ccb6 0cbe af36 183d c969 87bb
00000080: fc38 513e 47a3 1c3c c48f 2cbe 79f2 e93b
00000090: 8501 983c c3aa d7bd e36c 5f3e cbf7 103b
000000a0: 0250 a839 5418 523e e0d8 f3bd dcb8 95bd
000000b0: 60a6 fc3c 9033 09be dd18 81bd 2687 02be
000000c0: 7b2a 81bd e847 09be 67cd 2cbe 1454 953d
000000d0: 6670 e4ba 37c7 4d3c 155e f03d 93f2 e9bd
000000e0: d84a 8c3d 4b19 5abb 88cd 02be 75f7 15bc
000000f0: d698 043a 3c96 fa3b 5997 29be f904 613d
-0.06419139 -0.001063208 -0.46455213 -0.28782207 0.030963976 0.081076056 -0.040088046 0.06801213
-0.2877387 -0.19376555 0.04528094 -0.0492918 -0.2578163 -0.14546698 -0.0031806894 -0.3509013
0.08767228 0.11574751 0.028522875 0.014270086 -0.17599757 0.0014794571 0.092199326 0.05276325
-0.3792238 -0.18351834 -0.50481683 -0.09254128 -0.041716773 -0.13741606 0.037161525 -0.0041324836
0.20431894 0.009560413 -0.16851717 0.0071395007 0.018555412 -0.10530617 0.2181888 0.0022120352
0.00032103067 0.20517093 -0.119066 -0.0731065 0.030841053 -0.13398576 -0.063035704 -0.12746868
-0.06306931 -0.13406336 -0.1687523 0.07291427 -0.0017428517 0.012559704 0.11736695 -0.114232205
0.06850213 -0.0033279236 -0.12773716 -0.009153237 0.0005058175 0.007647304 -0.16561641 0.054936383
