gen_4_agent_2.pt (torch, 64207 bytes, 18 tensors)

net.0.weight f4 [64, 4]
00000000: ce55 30be f697 82be 1c13 823e 1041 2bbe
00000010: 27b3 3bbe b20f 303e ba61 8e3e 2c89 873d
00000020: 2f10 073e 405a b3bd 1233 193e 6e70 00bd
00000030: 40e9 323e 7237 6abc 1e3f 9c3e 240f 9bbe
00000040: 1605 073e 8fd0 823c 51cf 88bc ce6b e73c
00000050: c2cd 6c3e 3031 ef3a 1295 6d3c 4aa0 56bc
00000060: 8ab1 8c3e 6297 da3c 9191 423e 3ef7 be3d
00000070: 8fd4 50be 283c ae3c 2270 d1bd 24d2 22bd
00000080: 7aec cbbd 5f7e a5bd 58e0 a3be c0c8 9c3d
00000090: e406 05bd 9e02 88be ac39 b5bd c125 b13c
000000a0: 0a8e 26be 9fc3 643e 0ff5 d2bd f097 833e
000000b0: 090c c63d 67cc 74bd 9ebe 6c3e 7a7e 5a3c
000000c0: 66b0 0e3e d377 403e 01ad 9fbd c553 74bd
000000d0: 1e0b 6bbe 99ac c5bd d0e5 8ebe e004 823c
000000e0: 87cb 3bbe ad45 0cbe 7907 0d3e 4cd3 dd3d
000000f0: 7753 8d3e 11fa a63d 8f57 54be 0c26 bb3d
00000100: c1ff dfbd b323 8cbe 03bc ce3d 2b21 a5bd
00000110: 7d2d 8f3a 7799 8abd f5be 703e 59ed a53e
00000120: 2858 8abe 901d a5be 8696 9abe d5e5 f5bb
00000130: ed4c dfbd c22a 80be 46eb 943d f24e c5bc
00000140: f191 e2bc a6b0 04be d29b 4c3d d7fb 6abe
00000150: 7d89 7fbe ef6a 3bbd edb5 ac3e 1961 203d
00000160: bda3 2fbd 8c32 4f3e e9d3 8fbd edbd 803e
00000170: bc4e 8abe 060c 67be a4fe 8e3e 1222 2cbe
00000180: 1c68 35be c5f4 903e 0850 173e 2f39 703e
00000190: 4dfb f63c c090 96bd 38e0 94bd 0db9 b6bc
000001a0: 3c3b 91be 2603 7dbe eec8 c23d 44e5 36be
000001b0: 3dfc 8d3d 1032 993c cd8a e0bd 2fdc a33e
000001c0: ee64 333e f43c 90be bd70 a9be c589 283e
000001d0: fd2c 383e 8b05 963c beee 8abe 378c 5d3e
000001e0: 4978 1c3e 61e7 24be 65eb 883d aaee 9b3e
000001f0: 7410 14be 3561 9bbe 47f1 323e 0c13 833e
00000200: 36e3 f8ba 789b 05be c92c e7bd 22a1 7a3e
00000210: 59b4 393e 934f 2bbd d6c6 96be c8cf e5bd
00000220: 97d0 3cbe 8828 36be 9ee5 28be 1b99 dcbd
00000230: 2161 0c3e 235e 463c 1365 d13d be3a 5fbb
00000240: 5a1a fc3d e904 8abc 8ad1 79be fb17 5e3d
00000250: 34de 97bd 635a cabd 066c 263e 1040 6ebc
00000260: ac33 a8be dfcf cbbd 8322 13be 26cf cebc
00000270: c113 1ebe 01e9 44be a5a9 87be 828a 943d
00000280: 76cd 8bbe bc4c 233e e272 c83d 4e63 713e
00000290: 9687 9dbe 9afa c73b 1e92 803e f8ef e23d
000002a0: 2858 b23d ed72 97be 41e7 053e 7fb8 f4bd
000002b0: a05a 26bd 7d4f 4a3e e802 d43c cc01 463e
000002c0: bd94 00bd 1d8a 80be ee69 18bd c71f 27be
000002d0: 47c3 8bbc 5108 9ebd 4f41 0c3e b812 c23c
000002e0: 5489 0cbe 469e 87be b8e3 a93b 5aff 823d
000002f0: 2220 44bb 16ec 77be 7321 be3d ab35 9dbd
00000300: a7be d6bc 67de 5b3e 49ec bcbd 04a6 65bd
00000310: af6b 663d 4dec d1bd 93b5 c13e 2b3e a8bd
00000320: f1ac d0be 3ae8 7f3d 1e7b 2f3e 21ca 3e3c
00000330: 5051 84be 1721 86be 3062 0d3e e5c7 38be
00000340: bc4d 563d 1906 1c3e bc6f 273e 65c7 013e
00000350: 6c64 023b 6a8a 5d3e 69b8 83be 354a 583e
00000360: 1f38 48bd cfdd cbbd be1d 233e 8bf0 cabd
00000370: 63f6 5cbc d12a c8bd ea27 92be 4f82 09bd
00000380: 9caa 45be 00f9 0b3e 733a ebbc 7e1d 803e
00000390: fe6b a9bd 3654 46be 1bd3 823e 8635 7f3e
000003a0: 9e42 2abe f0e5 a53d 8927 e6bd bbe1 e03c
000003b0: 535a a4bd 42db 59be 59ef 0abe 9861 fcbd
000003c0: 7fdd 13be e7cc 2abe 2dcb 8f3e a96e bfbd
000003d0: 34b0 853d 2928 e8bd 7632 523e bd52 713e
000003e0: e90b e5bd 436b 0dbe c084 0ebc d10c 3bbd
000003f0: 0af1 d6bc f55f 193d 99fe 773e 490f 923d
-0.17220232 -0.25506562 0.25405204 -0.16724038 -0.1833006 0.17193487 0.27808934 0.0661796
0.13189767 -0.08757448 0.14960888 -0.03135722 0.1747179 -0.014295446 0.30516905 -0.3028499
0.13185534 0.01596859 -0.016700419 0.028249647 0.23125365 0.0018248912 0.014500873 -0.013099739
0.27479202 0.026683513 0.19000842 0.093245015 -0.20393585 0.02126892 -0.10226466 -0.039751187
-0.09957214 -0.08080744 -0.32007098 0.076554775 -0.032477275 -0.26564497 -0.08848891 0.021624448
-0.16265121 0.22340249 -0.103006475 0.25701857 0.09670264 -0.059765246 0.2311959 0.013335818
0.13934478 0.1879571 -0.0779667 -0.0596502 -0.2295346 -0.09652061 -0.27909708 0.015871465
-0.18339358 -0.13698454 0.13772382 0.10831317 0.2760274 0.08153165 -0.20736526 0.09138116
-0.10937453 -0.27370986 0.10094454 -0.08062967 0.0010923591 -0.06767552 0.23510344 0.32407644
-0.27020383 -0.32249117 -0.30192965 -0.0075042048 -0.10903344 -0.25032622 0.07271437 -0.024085496
-0.02765748 -0.12958011 0.04995329 -0.22947632 -0.24954791 -0.045756277 0.33732548 0.0391551
-0.042880762 0.20234126 -0.070228405 0.25144902 -0.27013195 -0.2256318 0.2792865 -0.16809872
-0.17715496 0.28311744 0.14776623 0.23459314 0.030149126 -0.073518276 -0.07269329 -0.022305036
-0.28365505 -0.24708232 0.095109805 -0.17860895 0.06932876 0.01870063 -0.10963974 0.32003924
0.1751897 -0.28171504 -0.33093825 0.16458805 0.17985912 0.01831319 -0.2713527 0.21635519
0.1528026 -0.16103889 0.06685523 0.30455524 -0.14459401 -0.303476 0.17474853 0.2560047
-0.0018988613 -0.13047588 -0.11287839 0.2447553 0.18135203 -0.041823935 -0.29448575 -0.11221272
-0.18438946 -0.17788899 -0.16493842 -0.1077139 0.13708927 0.012107405 0.102243565 -0.0034062113
0.12309714 -0.016848044 -0.24396339 0.05422209 -0.07415429 -0.09880521 0.16252145 -0.014541641
-0.32851923 -0.09951758 -0.14368634 -0.02524526 -0.15437223 -0.19229509 -0.26496616 0.07252981
-0.27305192 0.1594724 0.09787537 0.23573038 -0.30767506 0.006102872 0.2511148 0.11080927
0.08708221 -0.2957987 0.13076498 -0.11949252 -0.04061377 0.19756885 0.025880292 0.19336623
-0.031391848 -0.25105372 -0.037210397 -0.16320716 -0.017060889 -0.0771643 0.13696788 0.023690566
-0.13724262 -0.2648794 0.005184617 0.06396361 -0.002992638 -0.24211153 0.09283724 -0.07676252
-0.026213957 0.21471559 -0.09224755 -0.056066528 0.05625504 -0.10250149 0.37833843 -0.082149826
-0.40756944 0.062477328 0.17136809 0.011644871 -0.25843287 -0.2619712 0.13806987 -0.18045004
0.052320227 0.15236701 0.16351217 0.12673719 0.0019896282 0.21634832 -0.2572663 0.21122058
-0.048881646 -0.09954416 0.15929314 -0.09909161 -0.013486478 -0.097737916 -0.28546077 -0.033571538
-0.19303364 0.13669205 -0.028714394 0.250225 -0.08272551 -0.19368061 0.25551686 0.24922761
-0.16626975 0.08100498 -0.112380095 0.027451387 -0.080250405 -0.21275046 -0.13567866 -0.12323302
-0.14439963 -0.16679727 0.28084698 -0.093472786 0.06527749 -0.11335785 0.20527062 0.23566718
-0.11183912 -0.13810448 -0.008698642 -0.04566652 -0.026237983 0.037445027 0.24218215 0.07131822

net.0.bias f4 [64]
00000000: 47ad f7bd b12b 5d3e d026 143e 62e3 913d
00000010: 7da1 0bbd 2715 a33e 0c82 3f3e c5cc 933e
00000020: 9443 d33d 63f8 6d3e 043d 143e 8402 ce3d
00000030: 8fb0 52bd 7617 843d 1e83 423e 2c43 3a3e
00000040: 8a38 4e3e 1980 5e3e d8eb 3d3e 1516 113e
00000050: 68bc 8dbd 2272 3a3e 92aa f33d 999e 2c3e
00000060: f7fb 123d 4582 22bc 1013 553e 8411 443e
00000070: 21ca c53d 6450 b93d 7813 c33d 658b 2f3e
00000080: 611b ea3d 99a8 70bc 5c38 6d3e b044 9e3e
00000090: 1b39 103e 8bd5 413e f172 163e 2d8b fa3d
000000a0: c27b 7e3e c4e1 7c3e 32cd ca3d 924b 133e
000000b0: a11f 7abd 2aae 193e a5f6 e53d 8e8d acbb
000000c0: 3324 9d3d 16e1 333e c397 8c3e 515c d4bd
000000d0: d41e 1f3e aeb2 593d 5955 853e e228 503e
000000e0: ddfe 7fbd 4d56 3c3e ef06 833e 6cd9 7d3e
000000f0: afd8 0c3e 8a30 343e 6fb2 733d 7258 423d
-0.12093597 0.21598698 0.14467931 0.07123448 -0.034089554 0.31852075 0.18701953 0.28867164
0.10315624 0.23239283 0.144764 0.100590736 -0.05143791 0.06449787 0.1899533 0.18189687
0.20138755 0.21728553 0.18546999 0.1416858 -0.06920701 0.182076 0.11897768 0.16857375
0.035884824 -0.009918754 0.20808053 0.19147307 0.09657694 0.090485364 0.09525198 0.17143019
0.11431003 -0.014688634 0.2316603 0.3091178 0.14084284 0.18929116 0.14692284 0.12233577
0.24851897 0.24695498 0.09902419 0.14384297 -0.06106532 0.15007845 0.11228684 -0.005265898
0.0767292 0.17566332 0.27459535 -0.103691705 0.15539104 0.053148918 0.26041678 0.20328096
-0.062498916 0.18392296 0.25591227 0.24789971 0.13754533 0.17596641 0.05949634 0.04744763

net.3.weight f4 [64, 64]
00000000: 9af1 dbbd a65e 10be 2e75 143e ea04 f83c
00000010: 29e7 06be 789b 073c a6e3 463d 728c 5abd
00000020: 1407 bcbc ae80 3dbe 5c44 f03d f060 0abe
00000030: 25cb e33d 174f de3d 6862 613c a439 663d
00000040: e3d6 c03d 2358 d2bd 5e90 23bb 52fb a2bb
00000050: efbb 533e 8535 a9bc d74e 4dbe 2d61 453e
00000060: ceb9 16bd 578b 6dbe 8fd6 883a ba18 69be
00000070: d62d 0abb 47cb e83d 47d5 413d 0669 04be
00000080: 433c 03bd a4f2 cb3c 7a3c ff3c 9b0d 05be
00000090: 85cf 60bc 6f3d c0bc a548 36bd 3cc0 073e
000000a0: a8bd 3abe 5527 a8be 0658 81be c6c1 2fbe
000000b0: 76cf cdbc dc0b 12bc 808e a73a f07b 273e
000000c0: 1dbc 293e 2427 c63d 1503 1b3d 400f 63be
000000d0: fb6b d93d aa8e 153e ad97 3f3d 7123 163e
000000e0: c6cc b23d 9706 60be 1080 75bd d4d4 b13c
000000f0: 7ecd 043e 147e 53bd ee3f 3cbe 37ea 60be
00000100: a240 eabd 6a21 d43e afe0 adbd dad7 b93e
00000110: cac8 423e 4a8b 533e c7e6 bbbd 1ba4 1e3e
00000120: 3bec b9bc edd6 963e e6d9 883e 75b6 b53e
00000130: 5da0 1cbe 95cf ad3d 9593 4e3e 4c91 6d3e
00000140: 9557 a43e 8765 ac3d 4722 a93d 30b1 583e
00000150: 4ab3 a9bd 6764 dc3d 4602 c7bc 2052 7b3e
00000160: 0a76 703e 6733 9f3d 6178 7c3e a6e2 5a3e
00000170: 9e8b 413e 6821 da3d 2478 a3bc 1837 393e
00000180: d469 1d3e 8177 f53d a89b d93e 8d31 5e3e
00000190: cd53 983e 71b6 ddbb 6c0c 3b3e a5cc e43d
000001a0: 1658 c83c 8e97 953e dd70 c4bc 78b3 e83d
000001b0: 4591 38be 8e0d 653d 0dc1 143e afd1 f9bd
000001c0: c9d0 bc3d 830a 553e c0ad 8c3e ce07 8e3e
000001d0: 6141 883e 7f72 35ba 3917 2b3e 146b 783e
000001e0: d4ee 48be c57b f63d 80d9 e33e c1ac 3e3e
000001f0: af00 123e a062 c3bb 2c34 783e 679c 343e
00000200: 9b5d 4cbd c1d9 683e cb0a f23d 0ac9 a23e
00000210: 11ff 813d 34a3 9c3e 00cc 1bbe 7257 b83e
00000220: baa4 2ebe 019b f2bd 509c 71be 3ea6 2d3e
00000230: 63a5 11be 741c aabd 1b70 5cbd 11e7 d63e
00000240: dd25 003e 8091 77be e0ea f9bc 3b36 67be
00000250: 5743 6ebc d44c 7b3e 4151 3e3e 4e96 4c3e
00000260: 9699 57be a02c 313e 9100 a73e 39f7 cc3d
00000270: d0b5 56be cd09 38be 9b30 303d f017 b33d
00000280: c209 1fbc 99ba 0f3e b046 933e 1538 853d
00000290: 74eb c13d a159 c73d 366f 9a3e b004 33bc
000002a0: 0910 203e 8c45 af3d 7c17 11bc db5d 5c3e
000002b0: 4a86 933d 3d29 2f3b 2bc7 223e d710 1e3e
000002c0: fc3b d7bd 1ac2 ec3c cd9c 1e3e 7075 0d3e
000002d0: 7a28 823e ed8f 23be 02a2 a03e 995a 8abd
000002e0: 1316 debc 88ee 093e 6afb 313e 0ebb 753e
000002f0: 8986 c1bd 6d7f 6e3d 6860 db3d 9704 33be
00000300: 78ee 63bd 3088 fb3b 13b8 43be d177 473e
00000310: 2182 0b3e c6a9 0a3e cdf5 0c3e 68d3 f6bd
00000320: eae3 93bd 9261 3bbe 6166 52bd be70 c33d
00000330: 0aa7 323e 07b4 2c3e d58b e23d 2584 f1bd
00000340: b263 1b3e 7354 36be 2e89 503d 50fa 68be
00000350: d932 f7bd 0895 ed3d 48b0 2b3d a178 813e
00000360: d8bf 033c 217a b63d 9970 4e3d bb9b 1d3e
00000370: 53f0 313e c986 563e f498 0b3e b99c 91bd
00000380: 1886 4ebe 3424 df3d 6128 1c3d 3922 4b3e
00000390: 59de 2e3d 5921 263e 2894 cfbd 7b58 7fbe
000003a0: e37f a8bd 10d4 e7bd 5fd6 a63d e139 92bd
000003b0: e981 25be 611b 58bd b473 40be 817b febd
000003c0: 53dc 91bc 839d b73d 02d1 d7bd 64a1 50be
000003d0: 7f90 a83d b3e6 0a3e 05ef 71bd 2503 a43d
000003e0: ac41 293e cb30 74be 5615 b43e 5fef 93bc
000003f0: 06a2 763e fd6f 03bd 6789 9a3c c11a f3bd
-0.10739441 -0.14098606 0.14497826 0.03027578 -0.13174118 0.008276813 0.048556946 -0.053356595
-0.022952594 -0.18506119 0.117317885 -0.13513541 0.11122731 0.10854929 0.013756372 0.056207314
0.094159864 -0.10270717 -0.0024957876 -0.0049738074 0.2067716 -0.020655403 -0.20049606 0.19275351
-0.03679829 -0.23197685 0.001043992 -0.22763339 -0.002108445 0.11366897 0.047322538 -0.12930688
-0.032039892 0.024895974 0.031156767 -0.12993471 -0.0137213515 -0.023466794 -0.044502873 0.13256925
-0.1823641 -0.32842508 -0.2526247 -0.17163762 -0.02512334 -0.00891396 0.0012783557 0.16355872
0.16575666 0.09675434 0.037844736 -0.22173786 0.10616299 0.14605203 0.04677551 0.14661957
0.08730464 -0.21877514 -0.059936583 0.02170793 0.12969014 -0.05163391 -0.18383762 -0.21964346
-0.11438109 0.41431743 -0.084901206 0.36297494 0.19021907 0.20658603 -0.09174877 0.15492289
-0.022695651 0.2946085 0.26728743 0.35490766 -0.15295549 0.08486859 0.20173486 0.23199958
0.3209807 0.08417802 0.08258491 0.21161342 -0.0828615 0.10761338 -0.024293076 0.24543047
0.23482528 0.07773476 0.24655296 0.21375522 0.18900916 0.10650903 -0.019954748 0.18087423
0.15372401 0.11985684 0.4250157 0.2169859 0.29751435 -0.0067661335 0.18266457 0.11171845
0.024456065 0.2921719 -0.023979599 0.11362356 -0.18024166 0.05592113 0.14526768 -0.12198197
0.0921951 0.20804791 0.2747631 0.2774033 0.2661238 -0.00069216633 0.16708077 0.24259597
-0.19622356 0.12035326 0.44501877 0.18620588 0.14258073 -0.0059626848 0.24238652 0.17637788
-0.049893957 0.22739317 0.11818465 0.31794006 0.06347478 0.30593264 -0.15214539 0.36004215
-0.17055026 -0.11845971 -0.23594785 0.16957948 -0.14223246 -0.08306208 -0.05381785 0.41973165
0.12514444 -0.24176598 -0.030507505 -0.22579281 -0.014542422 0.24541026 0.18585683 0.19979212
-0.21054682 0.1730218 0.3261762 0.100080915 -0.20967793 -0.17972489 0.043015104 0.087448
-0.009706916 0.14036025 0.28764868 0.065048374 0.09468737 0.09733892 0.30162972 -0.010926411
0.15631117 0.08558187 -0.008855697 0.21520178 0.07203348 0.002672746 0.15896289 0.15436111
-0.10509488 0.028901149 0.15489502 0.1381433 0.25421506 -0.15972872 0.31373602 -0.067555614
-0.027110135 0.13469899 0.17381063 0.23997137 -0.09449489 0.05822699 0.107117474 -0.1748222
-0.055647343 0.007676147 -0.19113187 0.194793 0.13623859 0.13541326 0.1376564 -0.12052041
-0.072212055 -0.18298939 -0.051367167 0.09542988 0.17446533 0.1686555 0.11061827 -0.11792783
0.1517475 -0.17805652 0.050912075 -0.22751737 -0.12070245 0.11600691 0.04191616 0.25287345
0.008041345 0.08910013 0.05040035 0.15391438 0.17376833 0.20949854 0.13632566 -0.071099706
-0.2016834 0.10895577 0.038124446 0.19837274 0.042692516 0.16223659 -0.101356804 -0.24936096
-0.082275175 -0.113197446 0.08146357 -0.07139946 -0.16162838 -0.052760486 -0.18794137 -0.124259
-0.017805254 0.0896559 -0.10537912 -0.20374066 0.082306854 0.13564567 -0.059065837 0.08008412
0.16528958 -0.23846738 0.35172528 -0.018058477 0.24085245 -0.032089222 0.018864347 -0.11870337

net.3.bias f4 [64]
00000000: b438 45bd 2d67 373e 5d9e 983d 7d92 96ba
00000010: fb09 eabc 606e f93c ccca a93b cb57 fc3d
00000020: a1f4 50bd 8b64 163e 6339 47bd c7b6 7abd
00000030: 4eaf 493e e265 46bd 0b93 d53d 285c d6bb
00000040: 08f7 8dbd 9bdb 073e d9f0 73bc b09d 553e
00000050: 0283 cd3d 4da2 153d 6ea7 15bd 5a4d c93d
00000060: a1ef 8fbd c8e8 173d 3f49 1d3e eb22 ea3d
00000070: 247a 8f3d 796c 69bd d616 f93c 80d4 85bd
00000080: e68b 2bbd ecb1 e3bc 9291 3f3e 48e9 54bd
00000090: b2c2 d43d c587 66bd d9ca 383e 8ef9 6cbc
000000a0: 580b 0bbd 9f60 973a 4034 56bd 72eb 573c
000000b0: bb2e 4e3e 5e05 eb3d e2cf 593e c9f9 68bd
000000c0: 6415 e83d 8201 9b3d c64c 133e 65e8 93bd
000000d0: c906 1abd 3522 a83d 5fdf f23c 6f89 2b3e
000000e0: 8a66 a3bd f753 a33d b06f 6ebd ec12 6b3e
000000f0: fe79 3c3e 48b2 afbc cf0e 83bc bb7a 6c3d
-0.04814978 0.17910452 0.074520804 -0.0011487749 -0.028569212 0.030448139 0.005181646 0.12321433
-0.051014546 0.14686792 -0.048638713 -0.061209466 0.1969578 -0.048437007 0.10428437 -0.0065417476
-0.06931883 0.13267367 -0.0148889655 0.20860934 0.100347534 0.036531735 -0.036536627 0.09829207
-0.070281275 0.037087232 0.15359972 0.11432441 0.07005718 -0.056988213 0.030406397 -0.06534672
-0.041881464 -0.0277948 0.18707874 -0.051980287 0.10388698 -0.056281824 0.1804613 -0.014463795
-0.033946365 0.0011549181 -0.052295923 0.013178693 0.20135014 0.11475633 0.21270707 -0.05687884
0.11332205 0.07568647 0.14384755 -0.0722206 -0.037604127 0.082096495 0.029647527 0.16751646
-0.07978542 0.079749994 -0.058211982 0.22956437 0.18405911 -0.021447316 -0.015998272 0.057734232

net.6.weight f4 [2, 64]
00000000: 1dbf 20be 7b78 f93d 6306 913e 4e6d 863e
00000010: 52b8 5dbe 985d 093e e052 583e 3705 643e
00000020: b39f 483b ce1c cb3e e0f0 9fbd 7da2 3cbd
00000030: d465 88bc 0c53 43bd 6887 923e ffc1 503e
00000040: 390a a13c 0b34 cb3e 0fc9 8e3d c170 753e
00000050: c286 aa3e b7b0 033e b49f 39be 6ce6 af3e
00000060: 010a d1bd 17e3 02be e19d 673e 82fe 603e
00000070: c8b5 c33e 47bd 5abe b9f0 5dbe 1ab6 843d
00000080: 855c 2ebe ff73 443e 4e1f 9a3e a406 42be
00000090: 2705 953e 05a2 89be 0a18 9b3d 3bf1 933e
000000a0: 1afe 79be 6689 283e d30c 1dbe a2c3 9e3d
000000b0: 9a21 fc3d c5ee 8ebd bdce 393e 3ac4 0abe
000000c0: 0b64 17bd 37a5 ae3e bc7c f33d da44 9a3c
000000d0: 7521 5bbe c046 c73e 93d1 10be d718 9f3e
000000e0: fad6 05bd 941d 8dbd c73a 77be bbdc 423e
000000f0: 2050 9b3e a4b4 42be 12c5 86be 33e8 443e
00000100: 3eb4 adbd 9f13 dd3d d314 973d 3ae5 e6bd
00000110: 74cf b93c 4817 63bd fa6c 77be ae10 b33e
00000120: 67e9 30bd 9d7c 923c 857b 13be 96e3 e9bb
00000130: 12d4 a63e c2e6 72be 70d1 b7bc 09e6 fcbd
00000140: 106a 4ebe 9b23 323d a634 17be f9cd c13e
00000150: 0eca 96bd fcb8 763d c30a 1fbe 3e89 7b3c
00000160: e8fa 99bd bb5c 113e 8a29 ac3e d7e5 183e
00000170: f604 82bd 7cde 1fbe 5465 8e3e 682f 42be
00000180: 54b6 a03d d4d0 50be b5e4 cd3e 2d53 f8bc
00000190: 7b68 3a3e ca42 4abe c398 343e b09d d5bc
000001a0: 80cc f13c a289 66bd 2697 8abe 79c5 7b3e
000001b0: 3a2f 0f3e 200f 993e 2c38 c53e 1810 4bbe
000001c0: 2087 af3e b660 fbbc 81c5 ca3e 13c1 ffbd
000001d0: 43e7 0b3e 612d d43d b21a 523e fe73 b53e
000001e0: 0914 183e 6f86 933e 74fb 83be f0ed 573e
000001f0: 844f 7b3e d27d 9e3e 1155 5c3e 46bd 1a3e
-0.15697904 0.12181183 0.28325185 0.26255268 -0.21652344 0.1341461 0.21125364 0.22267614
0.0030612766 0.39670414 -0.07809615 -0.0460534 -0.016650118 -0.04768662 0.28618932 0.20386504
0.019658195 0.39688143 0.06971943 0.23968793 0.33305937 0.1286038 -0.18127328 0.34355485
-0.10206986 -0.1278194 0.2261882 0.21972087 0.38224626 -0.21361266 -0.2167386 0.064800456
-0.17027481 0.19184874 0.3010201 -0.18947846 0.29105493 -0.26881424 0.075729445 0.28894982
-0.24413338 0.16458663 -0.15336923 0.07752158 0.123110965 -0.069791354 0.1814527 -0.13551417
-0.036960643 0.34110424 0.118890256 0.01883166 -0.21399482 0.38921165 -0.14142446 0.3107364
-0.03267572 -0.06890407 -0.24143516 0.19029514 0.30334568 -0.19014221 -0.26322228 0.19229202
-0.08481644 0.10794758 0.07377019 -0.1127419 0.02268193 -0.055442125 -0.24162665 0.34973663
-0.04319134 0.017881686 -0.14402588 -0.007137726 0.32583672 -0.2372084 -0.022438735 -0.12348563
-0.20157647 0.043490987 -0.14766178 0.37852457 -0.073627576 0.06023501 -0.15531449 0.015352545
-0.0751856 0.1419553 0.33625442 0.14931427 -0.063486025 -0.15612215 0.27811682 -0.18963397
0.07847276 -0.20392162 0.40213552 -0.030313099 0.18203919 -0.1975204 0.17636399 -0.026076168
0.029516459 -0.0562836 -0.27068442 0.24587049 0.13982859 0.29894352 0.38519418 -0.19830358
0.3428278 -0.030685764 0.3960381 -0.12487998 0.13662438 0.10360218 0.20517996 0.35440058
0.14851393 0.28813502 -0.2577778 0.2108686 0.24542052 0.30955368 0.21516825 0.15111265

net.6.bias f4 [2]
00000000: fd74 223e f9c7 3b3e
0.1586494 0.18338002

exp_avg f4 [64, 4]
00000000: 8f07 173c 2f02 60bd 6fe1 d8bc 547d bdbc
00000010: 93dd f63c 4bb1 90be 14f3 81bc 3db4 303e
00000020: b94a 583c 6c6f 8fbd fa82 47bc 4dab 813c
00000030: b762 e33c 83a2 81be 38eb bcbc 4a8b 373e
00000040: 8581 d9af c33b a331 0a42 902f 749b d5b1
00000050: 36b7 763d d383 cabe 56ea 53bd 221c 753e
00000060: e9cf 233b c0d3 a0bd ce85 833a 4738 8c3d
00000070: f046 a03c ea49 d1bd 907e 31bd c4b7 1fbe
00000080: 08d6 b23b 4a41 c4bd 0171 38bb ccf1 ad3d
00000090: 3054 373c 97bb 6dbe 7fff 1d3c 3a06 8e3e
000000a0: f203 79bb 5d1d 043e ae39 683c 1ccc ecbd
000000b0: 24cb 9f3c c999 63be d786 3dbb 84d4 4c3e
000000c0: cb5d 3a3a bb7e 81bd ecaf bc3c 54ee 143e
000000d0: 03b3 d438 9a04 ce3c c60c 2dbc 1588 7bbd
000000e0: fc02 a2bb 3754 37bd e2d2 fb3c ba8d 123e
000000f0: 43ea e03a eb6e a03d eae1 473d 5de0 643d
00000100: fba6 333c f5ec 31be 1ba3 9cbb 88ab 1b3e
00000110: 8e7d c1ba f5d9 5b3d 2a3f a43b 4ab6 c4bc
00000120: fbd6 2c3c 0be0 3abe 3a2c 23bc 0f25 243e
00000130: e070 d6bb 78b7 de3d bb21 f838 835a fabd
00000140: beea ad3a 3f4a b9bc 758f 71bb 6ae7 2c3c
00000150: 7946 3f3c ed58 d53c df06 35bc 83c1 d9bd
00000160: ed43 82bb 2841 553b b19b d93c 0b3b 9e3d
00000170: aad0 45bc 976d 8b3d 8fa2 5b3d f0b6 973d
00000180: 0c3f 4c3b 6fd3 37bc bede bc3a 0bfa b93c
00000190: 90c8 65b8 a602 f13c e7dc 44bc aa22 84bd
000001a0: e32d d63c 0c97 c1be 4c5f 81bc 0a7f 913e
000001b0: 6e77 28bb 26ef 8cba 6367 6abc 84ef 97bd
000001c0: 2e21 993b 7227 8abd e547 5dbb a38b 6a3d
000001d0: 91ea 243c f73f ecbd 1b3e 46bc 8d32 a83d
000001e0: da32 033c 1716 74bd 53e7 13bd 7944 4bbd
000001f0: eac2 a83b 77ab 29bd 0678 43bc 986e 3e3c
00000200: 4711 ccba 79ef cc3c 5f08 f23a 7ab8 42bc
00000210: 520c dabb a0f8 5f3d cae4 923b 8a55 23bd
00000220: ebcf 283d 906d b5be f5ac 6fbd 5899 493e
00000230: 6596 89bb 8b76 d2bc cf95 be3d 8bc5 a43e
00000240: ee01 a0bc 8937 85bb eb75 183e 951e c33e
00000250: 3d35 e5bb 8fea da3d a4f1 673d 02e2 f43c
00000260: 47a1 4b3c 8007 53be 3d64 283b 4642 3e3e
00000270: b2ae 4bbb 7ca1 493d a863 c3ba 47e9 81bd
00000280: b2f5 e1b9 e348 8f3c 4db5 11bb c82c 3cbd
00000290: 7404 31bb f674 54bd dcb7 99bc 8c89 11bd
000002a0: 209b 363c 98ec 05be 0106 803b 2fd8 ff3d
000002b0: f699 9c3c 3843 88bd 3e7f 85bc faf1 02bc
000002c0: e3c4 dc3a 72ed 11bb 1b04 fd38 4c2f 5d3c
000002d0: e79d a93b ddd7 1fbe 2fbb a73c 83ee 4c3e
000002e0: ad45 d93a 5403 97bc d9ff 063b 05ab ba3c
000002f0: c01f 5cbb 88ac af3c 55d9 b03b 2d59 3dbb
00000300: 2861 493c 47e8 0d3d 50c2 c5bc ca0a eebd
00000310: 927a 373c c98b b8bd 2a54 f4bb 1da1 753d
00000320: 661a 30bc ca11 66bd 7778 8e3d b9cd 863e
00000330: c44c f031 0ca5 0a35 9705 f3b2 e5a8 3fb5
00000340: cdb0 313d b565 b9be b901 35bd acff 663e
00000350: 26df 6cbc 5f58 7d3d be5a b73c 2054 d4bc
00000360: bc35 ff3c 41ae dabd c407 08bd 280d ccbd
00000370: ab0e ddbc c056 b23d 91df 993d 1cbb b33d
00000380: df5d 79b5 8305 9fb6 3ec9 6935 90ae 1037
00000390: 331b 243a 84a5 82bc fd35 33bc 35c4 83bc
000003a0: 4d6c 303d 97e4 bbbe cd0d f1bd 60ed 053c
000003b0: 4f5f 98bc 5949 dabd 34fe 123e 7dc4 093f
000003c0: dca6 683c a22d 50be 1e7c febb a968 173e
000003d0: cfc5 913b bc8f babd d970 943a a68d b83d
000003e0: 6785 14bb 0196 f53c 5d51 f5bb 5d86 50bd
000003f0: 5b10 893b 7bce 393d 53af 363a cc5c 79bd
0.009218111 -0.054689582 -0.026474683 -0.02313105 0.030134952 -0.28260264 -0.015862979 0.17256255
0.013201409 -0.07003674 -0.012177223 0.015828753 0.027757032 -0.253193 -0.02306138 0.17924228
-3.95641e-10 4.7507185e-09 2.624037e-10 -6.216789e-09 0.060233317 -0.395537 -0.051737152 0.23936513
0.002499575 -0.07852888 0.0010034384 0.068466716 0.019565076 -0.10219176 -0.04333359 -0.15597445
0.0054576434 -0.095827654 -0.0028143527 0.08493385 0.011189505 -0.23216091 0.009643435 0.27739125
-0.0037996736 0.12901826 0.014173908 -0.11562368 0.019506045 -0.22226633 -0.0028919482 0.20002943
0.0007109313 -0.06323 0.023033105 0.1454404 0.00010142291 0.025148679 -0.010562127 -0.061409075
-0.0049442034 -0.044758048 0.030740205 0.14311877 0.0017159659 0.07833656 0.048799433 0.055878032
0.010965104 -0.17375548 -0.004780186 0.15202153 -0.001476215 0.053674657 0.0050124126 -0.024012703
0.010549302 -0.18249528 -0.009959275 0.16029762 -0.0065442175 0.10874838 0.00011831844 -0.12224295
0.0013268811 -0.022618411 -0.0036859189 0.01055322 0.011674517 0.02604338 -0.0110490015 -0.106326126
-0.0039753825 0.0032540057 0.026563497 0.07726105 -0.012073675 0.06808012 0.053621825 0.074079394
0.0031165509 -0.011219843 0.0014409644 0.022702238 -5.4784643e-05 0.029420208 -0.012015558 -0.06451924
0.026144927 -0.37810552 -0.015792511 0.28417236 -0.0025705951 -0.0010752424 -0.014306876 -0.07418731
0.004673145 -0.06745805 -0.0033764776 0.057262074 0.010065691 -0.11535638 -0.012099768 0.08212767
0.008007729 -0.05959138 -0.03610928 -0.049625847 0.0051501887 -0.041423287 -0.011930471 0.011623047
-0.0015569114 0.025016533 0.001846563 -0.011884803 -0.0066543007 0.054680467 0.00448284 -0.0398765
0.04121391 -0.35435152 -0.058514554 0.19687402 -0.0041988366 -0.025691291 0.093059175 0.32181963
-0.01953217 -0.004065458 0.14888732 0.3810927 -0.006994872 0.1068927 0.05662693 0.029892925
0.012428588 -0.2060833 0.0025694512 0.18579969 -0.0031079468 0.04922627 -0.0014907019 -0.06343322
-0.00043098402 0.01749081 -0.0022233308 -0.045941144 -0.002701071 -0.051869355 -0.018764429 -0.035531566
0.011145383 -0.13078535 0.0039069657 0.124924056 0.019116383 -0.06653446 -0.016296025 -0.007992262
0.0016843345 -0.0022266773 0.00012064745 0.013500046 0.005176294 -0.15609689 0.020474998 0.2001286
0.0016576551 -0.018434204 0.0020599274 0.022786627 -0.003358826 0.021444574 0.0053970017 -0.0028892264
0.01229123 0.034645345 -0.024140507 -0.116231516 0.011198657 -0.09011037 -0.007456322 0.059968103
-0.010748481 -0.05616931 0.069565706 0.2632883 6.9936466e-09 5.164918e-07 -2.8291465e-08 -7.139882e-07
0.0433815 -0.3621041 -0.044191096 0.22558469 -0.0144575 0.061851855 0.022382136 -0.02591902
0.031153552 -0.106777675 -0.03321053 -0.09963447 -0.026984533 0.087079525 0.07513345 0.08775923
-9.289633e-07 -4.739211e-06 8.709211e-07 8.623712e-06 0.00062601565 -0.015948065 -0.010938165 -0.01608477
0.043072034 -0.36697838 -0.117702104 0.00817427 -0.018600134 -0.10658521 0.14354783 0.5381544
0.014199939 -0.20329908 -0.0077662608 0.14786018 0.0044486295 -0.091094464 0.0011325135 0.09011392
-0.0022662522 0.029978754 -0.007486506 -0.05090939 0.004182858 0.04536293 0.00069688744 -0.060879514

exp_avg_sq f4 [64, 4]
00000000: 396c ae38 5d32 533b b67d 423a fa94 d23a
00000010: 6df8 c93e 603e 0242 bad1 1a3f b7f7 9642
00000020: 0d25 d43d 28a7 2b41 958a 3b3e 1cd0 c741
00000030: 67a9 163e 6ea0 1341 dcb8 3b3e 341f a741
00000040: 57fd 2d35 dfe3 db36 7da3 1733 4f1a 3f37
00000050: f5cd 093f bc03 4642 317c 653f 33ab e542
00000060: 724e 943d bcd8 0041 47dd 1f3e d525 9f41
00000070: 1de8 0b3f e06e 4342 f03e 4c3f fada df42
00000080: 4965 953c e088 1640 fab2 2d3d 74c8 bd40
00000090: 9fd5 153d 7752 8640 abf6 983d 54d1 2741
000000a0: 9c0e 413d 4fea ad40 4a33 933d a8e6 5041
000000b0: 00d2 2e3e 474b 6741 6a93 813e 421c 0442
000000c0: e673 503c f114 bb3e acb1 0d3c 7107 203f
000000d0: a6df ad3b 4739 1b3f fcdc 653c dec1 cd3f
000000e0: 5376 7b3c cc51 f03f aae0 023d fe33 9740
000000f0: 4aac 7f3e 1a4d ad41 e2a7 c63e e431 5142
00000100: e9ce b73d d6ff f640 2a2a 1d3e 3207 9841
00000110: 0147 d63b 0a59 2a3f 9755 553c 3fb9 d73f
00000120: e80f f33c e921 5e40 79e5 853d 2847 0c41
00000130: d4e3 b73b 2992 113f e4d2 263c 54c3 b33f
00000140: bb53 1c3b acc2 b93e f360 c93b 203f 533f
00000150: 83e3 173e 9f1d 7a41 cca3 883e 58ed 1442
00000160: 8e99 b73c 1a6d df3f 662c 093d edea 8740
00000170: 1b31 a63e be0c ec41 0c95 fd3e 6cb2 8942
00000180: 283a e83a 0d5a 493e c15d 583b 9fc5 f93e
00000190: 59d7 be36 2c8f 063a b428 4138 eb28 9f3a
000001a0: cfde 053f f312 3542 ec64 513f 03b2 d142
000001b0: 0935 cb3c d984 3d40 39ba 5f3d ce53 f140
000001c0: ca44 683c d373 e23f 1ec0 f83c 845e 8e40
000001d0: 195d 343c d436 cf3f dd9a 063d 7978 8240
000001e0: d8ad 8d3c a091 0640 e1d6 1b3d 10a3 aa40
000001f0: 9c94 263c fb7e 9c3f c7ee b03c 3503 4740
00000200: acf9 973b 3a08 1d3f 9461 2b3c a633 c63f
00000210: a49b be3b 86cb 103f 35e4 253c d2ac ac3f
00000220: 59b9 e83e e446 2042 83f2 383f 32fb ba42
00000230: 5068 e03e 2b04 2142 e211 2e3f 8082 ba42
00000240: 99d4 6c3e 8536 ab41 7932 bf3e e200 4a42
00000250: 719c 473e 6fda ab41 a385 b73e 4fbb 4b42
00000260: 155d 463e 3ebf 9741 531d a73e 74fc 3042
00000270: 2659 dd3b 74ac 503f 60ea 6f3c 6d83 0440
00000280: 8ba4 bb3c d6fd 0540 fed8 1e3d 3a87 a340
00000290: 5906 2b3d 6cdf 3d40 e722 723d c391 e040
000002a0: 7151 8e3d 7246 0641 0ca0 153e e2a3 a741
000002b0: 0d52 0f3e 8d83 5f41 da3d 793e 38d8 0542
000002c0: 6b6e 513b b5d6 b93d 1880 203b 7d37 223e
000002d0: 0191 583d 1ae7 9f40 c206 c33d bb79 4341
000002e0: 8ca0 d63b ee1c 4a3f fd50 653c 777f 0140
000002f0: ace6 7f37 8047 dd39 8a61 be38 05a0 0539
00000300: 2614 623d da82 cb40 88c7 d73d d203 6f41
00000310: 3c67 ca3d d97a 1141 af68 293e ab0a aa41
00000320: a62b 573e 3eaa 9141 3615 a73e c152 2842
00000330: 7bdf 4d37 c116 f13b bea2 1938 b5c4 693c
00000340: 4829 e93e ebce 1f42 b069 3b3f cc54 b942
00000350: 6721 9f3c 7e41 d63f 99bc 0c3d 14a7 7140
00000360: 14a1 e73e d0e0 1242 df3f 343f 7531 b042
00000370: ea16 d13d 6d02 1341 3666 1d3e 0fef a141
00000380: c8d1 e63a 8824 253e 67a5 8e3b edbe d23e
00000390: 3ded c73b ecd5 363f fdd9 473c 0c5f e73f
000003a0: 445a 633e a44b e741 bbfa 003f 26b5 8842
000003b0: 4492 ff3e 0f06 2942 bb28 3e3f 946e c542
000003c0: 0f42 163e 19fa 5341 e5d5 723e 769f fd41
000003d0: 8623 063d cd9a 8240 313d 943d ed60 2641
000003e0: 3921 823b b1ac 023f 1944 223c 15a4 a13f
000003f0: 7051 a23c 05bb 2d40 9de1 2c3d b280 cf40
8.3171246e-05 0.0032226064 0.0007419245 0.0016066127 0.39447346 32.560913 0.6047627 75.48382
0.103586294 10.72831 0.18314584 24.976616 0.1471306 9.226667 0.18332237 20.890236
6.481618e-07 6.5532363e-06 3.530612e-08 1.1390613e-05 0.5382989 49.503647 0.89642626 114.83437
0.07241525 8.052914 0.15611754 19.893473 0.5465105 48.858276 0.79783535 111.92769
0.018236773 2.3521042 0.042407013 5.9307194 0.036580678 4.1975665 0.07468923 10.4886055
0.047133073 5.434852 0.07187517 13.056313 0.17072296 14.455878 0.2530778 33.027596
0.012722945 0.36539415 0.008648317 0.62511355 0.005306202 0.60634273 0.014029738 1.6074789
0.015348035 1.8774962 0.031952538 4.7250967 0.24968067 21.662647 0.3879996 52.29872
0.08975012 7.71873 0.15348116 19.003513 0.006539226 0.6654211 0.0130208945 1.6853408
0.02967067 3.4708197 0.06537909 8.767372 0.005611876 0.5686365 0.010182116 1.4043984
0.0023853618 0.36281335 0.0061455905 0.82518196 0.14832883 15.632232 0.26687467 37.23178
0.022412088 1.745517 0.033489607 4.2474275 0.3245934 29.506222 0.49527776 68.84848
0.0017717527 0.19663258 0.0033014866 0.48783585 5.687511e-06 0.00051330286 4.6052694e-05 0.0012142932
0.52293104 45.268505 0.8179462 104.84768 0.024805563 2.9612334 0.054620955 7.54148
0.014176557 1.7691597 0.030365046 4.4490376 0.011008524 1.6188607 0.032862533 4.077206
0.01729481 2.1026382 0.03804672 5.332405 0.010167267 1.2226251 0.021598233 3.1095707
0.0046379175 0.6134068 0.010460276 1.5484512 0.0058168937 0.5656055 0.01012521 1.349024
0.4545391 40.06923 0.72245044 93.490616 0.43829584 40.25407 0.67996037 93.25488
0.23127975 21.40162 0.37343195 50.500862 0.19493271 21.481657 0.35844144 50.93292
0.19371445 18.96838 0.3263956 44.246536 0.006755012 0.8151314 0.014643282 2.0705216
0.022905609 2.093618 0.03878116 5.110257 0.0417541 2.9667616 0.059115317 7.017793
0.069491275 8.392199 0.14611834 20.95502 0.13996144 13.969617 0.24340001 33.46115
0.0031956683 0.09074155 0.0024490412 0.1584148 0.05287266 4.9969606 0.09522773 12.217219
0.0065499004 0.78950393 0.01399636 2.0234048 1.5252892e-05 0.00042205676 9.078074e-05 0.0001274348
0.055194996 6.359723 0.105361044 14.938433 0.09882972 9.092492 0.1654384 21.255209
0.21012744 18.208126 0.3263337 42.080814 1.2270985e-05 0.007357449 3.6629608e-05 0.01426809
0.45539308 39.95207 0.7320814 92.66562 0.019425107 1.6738737 0.03435955 3.7758226
0.4524008 36.719543 0.7040996 88.096596 0.10209449 9.188092 0.15371022 20.241728
0.0017610127 0.16127217 0.0043532136 0.4116129 0.006101279 0.7142017 0.012197969 1.8075881
0.22202402 28.911934 0.50382584 68.353806 0.4991628 42.255917 0.742809 98.71597
0.14673637 13.248559 0.23714407 31.702862 0.03274872 4.0813966 0.07238234 10.3986635
0.0039712456 0.51044756 0.009903931 1.2628199 0.019814223 2.7145398 0.04220735 6.48446

exp_avg f4 [64]
00000000: 87bf 033e 6989 debe fe7a 3abe e3bb 87be
00000010: 0842 0632 264f e1be 788b 26be 946d 533d
00000020: 8c3b 00be b1df d3be 1903 fbbd 70f2 cebe
00000030: 805e 7ebe 9a2c b93d e0e6 9fbe 647c 0ebf
00000040: a67a 87be 34e9 a1bd c53d 3fbe 2b0b 8a3d
00000050: 1ef5 9d3b ad4e 17be fef2 8bbe 6856 00bf
00000060: 224f a1bd c567 ef3d 546f cebe e7f6 103e
00000070: ea75 9dbd 2f16 d6bd 0db2 4d3e 3e8e fcbc
00000080: ea06 b3bb 7f62 d53d fcd2 a7be 6815 78bf
00000090: a74a aabf 026e 0abf dc48 ccbe 0f14 403c
000000a0: d261 88bd 38f8 363e adfa 9dbe d0d6 38be
000000b0: 8ff8 0a3b 00b3 c6be 15de 8ebd 99c4 04bc
000000c0: 6c25 e23d ef54 50be e89c 0cbf 2607 1735
000000d0: 4866 b5be a969 1abd 30ee 83be 6bac e2be
000000e0: cea8 4737 80ef 843d 7b17 b33e ed37 b0bf
000000f0: f00d 62be 7741 4dbe 9f98 b23d f86d 3bbd
0.1286603 -0.4346421 -0.1821098 -0.26510534 7.81484e-09 -0.44005698 -0.1626414 0.051618174
-0.12522715 -0.413816 -0.1225645 -0.4041934 -0.24840736 0.0904171 -0.3123083 -0.55658555
-0.2646076 -0.07905808 -0.18675907 0.06740411 0.00482048 -0.14776106 -0.27333826 -0.50131845
-0.078764215 0.11689714 -0.40319312 0.14156686 -0.07688506 -0.1045345 0.20087452 -0.030829545
-0.0054634707 0.10419177 -0.32778156 -0.96907663 -1.3304032 -0.5407411 -0.39899337 0.011723532
-0.06659283 0.17868125 -0.30855313 -0.18050694 0.0021205281 -0.3880844 -0.069759525 -0.008103513
0.11042294 -0.203449 -0.5492692 5.6262286e-07 -0.35429597 -0.03769842 -0.2576766 -0.4427217
1.1900627e-05 0.064909935 0.34978852 -1.3767067 -0.22075629 -0.20044504 0.087205164 -0.04575917

exp_avg_sq f4 [64]
00000000: b8bd 913c 2f05 a341 93ae b840 56b7 b740
00000010: 6804 7039 b94f ec41 be09 b340 c9b6 de41
00000020: e63a c13f d146 3b40 2383 1f40 84da 0441
00000030: 61ce 903e e151 023f 3214 9c3f dbee 4841
00000040: 7bb6 b440 04e3 323f c272 1c40 9b0c 1a3f
00000050: 1b8c 443e 2704 0541 a049 a13f cb97 8941
00000060: 6197 1f3e 7829 203b eccf df41 9731 0a40
00000070: a0cf 873f ef35 963f 84c2 af3f 284e 503f
00000080: 7d0e d23e cd74 a93e ed53 c141 1696 ba41
00000090: ee21 4a41 ff9a 3841 415d 2f41 51ce 363f
000000a0: 82f2 ee3f 96ba 2740 9382 9f40 6922 ff40
000000b0: 63f4 9a3d 69e5 5240 b056 f33e 29a9 273b
000000c0: 7eb1 4f40 c0f0 a540 e0c4 2a41 7d1e 4b3c
000000d0: 96b2 c241 f84f 9e3f 4a5e ba41 a1f1 ce40
000000e0: c782 1c3e e705 063f 70c9 8941 3f13 d141
000000f0: e3fa 0341 b84a 2f40 48d8 b33e 2366 a93f
0.01779066 20.377531 5.7713103 5.74113 0.00022889825 29.538927 5.594939 27.83925
1.5096099 2.9261973 2.492379 8.303349 0.28282455 0.5090619 1.2193663 12.558314
5.6472754 0.6987765 2.4445043 0.60175484 0.19194071 8.313514 1.2600594 17.199118
0.1558509 0.002443878 27.976524 2.1592767 1.0610237 1.1735209 1.3731236 0.81369257
0.4102668 0.33096924 24.16598 23.323284 12.633284 11.537841 10.960267 0.71408564
1.8667758 2.6207633 4.984689 7.9729505 0.07566144 3.295252 0.47527075 0.0025583005
3.2452083 5.1856384 10.673065 0.012397406 24.3372 1.2368155 23.29604 6.4669957
0.15284263 0.52352756 17.223358 26.134398 8.248752 2.7389355 0.35125947 1.3234295

exp_avg f4 [64, 64]
00000000: 52c2 6238 57ab 293c 1f52 3f3c 4ce1 5d3c
00000010: e40e c315 3775 d43c 73cd 2e3c 7175 9d3c
00000020: fbe1 d23b 1d32 753c 10dd 813b 881e 9e3b
00000030: 4fe9 643b d160 803b dafa a73b a9a3 603c
00000040: 20d7 773c 96a5 3a3b bcee 203c 329f fb3b
00000050: 83ab 393b 8dc6 113c 1458 013a c55f 1d3c
00000060: d7fa 2037 6fe7 7138 e2c8 a93c f4fb 2b3b
00000070: ac08 cb3b 1c4d 413b 019a bc3a d904 5d3b
00000080: 6762 f53a c4b9 e93b 8d8b ae3c f37e c23c
00000090: 917d 473c 29bc 583c f1a8 4e3c 569d cf3b
000000a0: a657 ad3b ffda cd3b 51ac 053c 2240 ad3b
000000b0: db7a 503a da44 183c 2399 5e3b ea9a 8337
000000c0: a854 0d3c c54b 623c 8eec 9d3c b5ca cb31
000000d0: dbe0 073c a74d 283a 2c54 7b3c 1622 a73c
000000e0: c1f7 3219 224b 223b 10a5 b73c 3468 d23c
000000f0: 9f74 f63b 4557 5b3b 4684 733b a0be c937
00000100: f856 8c3a 4c6c 53bc bb0c 16bc 8522 3ebc
00000110: cc74 13ae 6369 7fbc e2d8 3fbc 1580 58bb
00000120: 98a6 5fbb a911 4bbc 1d07 0dbc d8e6 6cbb
00000130: d33d 3bba 9ba5 cf39 8ed2 58bc 830d 99bc
00000140: d560 16bc 81af 47bb 5e5d 72bb 22ba 78bb
00000150: 5fd8 853a b07c 32bc 3926 97bb 7683 30bc
00000160: e6f9 adb9 5f28 5e3a 150b 9abb 5787 063b
00000170: 6a1c 2f3c 7c35 b53a e6b9 c23a eb3c 533b
00000180: b06a 5d3b 346d 2dbb 5dc9 e4bb e1da ddbc
00000190: 99df d4bc ee4d a5bc 8bb0 39bc 8b2d 123b
000001a0: 13fa 40bc 6397 4cba ddfc 2ebb fd2a 0cbc
000001b0: a56e 593b a81a 59bc 9954 843b 45b5 ae3a
000001c0: 6017 c1bb 950c 51bc 9767 65bc 43ec b7b2
000001d0: ce03 13bc 0c3f 00ba 7cfb 42bc a932 cebc
000001e0: 1bb6 62b5 9b1d e53b fd91 c93b 8c6f 08bd
000001f0: 2959 a8bb f07b 84ba 9d32 87ba 6075 9fba
00000200: a276 3a3b 5902 9bbc 01d4 a3bb 4afd 93bc
00000210: 54ce a9ae 6aa7 66bc d0b0 10bc 160f ee3b
00000220: a783 033c 7586 093c f628 39bc bc25 c1b9
00000230: 78f5 98bb ca1b 263c d857 5cbc 4205 eebc
00000240: ab7d 953b 5f77 913b c124 b63c e029 213c
00000250: 6d94 50ba 0a9a 24bc c200 82bb b0aa bdbc
00000260: 6cca 16b9 bdc2 0f3b a9f3 c439 cf95 2d3c
00000270: 1897 de3c 02dc 1a3c 1be9 1b3c efca 9a3c
00000280: 2a15 583c aac5 29ba 6784 bbbb 4acb 1cbd
00000290: 8d4d fbbc 17cc ebbc 9c48 babb 9beb 3b3c
000002a0: 2f49 f0bb 161c 783b 1bdf 313c de53 47bc
000002b0: 9784 193c 7a2d 86bb 398c 953c bbf7 3f3b
000002c0: 7a29 3bbc 077d 3abc 2c88 17bd a993 0cb3
000002d0: 34bd 3fbc f519 7bba 7be2 01bb 4fa2 23bd
000002e0: ff96 04b5 e1fc 823c 6f6a bbbb 8726 32bd
000002f0: 4039 1f3b 2fab 113c f81a cb3b a052 31ba
00000300: 1c9d 383b 4eba 0ebd 1aa1 3dbc 31ab 2bbd
00000310: b419 95ae 88fb 37bd 4b78 3bbc 3c98 15bd
00000320: 816f f73b 5dee 303c 1f39 2ebc 1970 1cbb
00000330: 8132 37bc c0dd ad3b d631 39bc 9386 30bd
00000340: e20a 83bb 3bc7 7b3c b439 a33c 0a6a 0e3c
00000350: fb04 64bb 4c18 5cbc cdd3 20ba bea5 65bc
00000360: 8349 b139 81fc 843a 746f 09bd 84f5 0a3c
00000370: 73ef fa3c efcb 4e3c c974 4a3c f951 e63c
00000380: 7772 8c3c 7bff 0bbc 35f4 5f3c 6d85 84bd
00000390: 8d79 fbbc 13bc 16bd b865 51bc 9a04 a73c
000003a0: ad12 23bc f7c6 89bc 292f 0b3c 633d 77bc
000003b0: ce87 1b3c 2683 9aba f54a a83c 55ea 313b
000003c0: 1639 0ebd f1a4 a4bc 9547 a7bd 8e86 78b2
000003d0: ed04 8cbc f1eb afba a4a0 cfbc a88c 7bbd
000003e0: cfc7 7f35 850d 943c fa95 73bc 3540 70bd
000003f0: da19 93bb 1835 953c e71a 443b ee21 a23a
5.4063574e-05 0.010355792 0.011677294 0.0135424845 7.8783366e-26 0.025934799 0.0106691 0.01922104
0.0064356304 0.014965561 0.0039631203 0.004825417 0.0034929102 0.0039177914 0.0051263394 0.013710895
0.015126973 0.0028480045 0.009822544 0.0076788897 0.0028330989 0.008897436 0.0004934084 0.009605353
9.595146e-06 5.7674417e-05 0.020725671 0.0026242705 0.006196102 0.0029495424 0.0014389158 0.0033724813
0.0018721343 0.0071327407 0.021306777 0.023742175 0.012175933 0.013228455 0.012613521 0.0063358946
0.0052899895 0.00628221 0.008158759 0.0052871862 0.0007952877 0.009293759 0.0033965788 1.5688554e-05
0.008626141 0.01381201 0.019277837 5.9311227e-09 0.008293356 0.00064202625 0.015339892 0.020401996
9.252418e-24 0.002476402 0.022417575 0.025684454 0.0075212265 0.0033468765 0.0037157699 2.4049834e-05
0.0010707071 -0.012904238 -0.009158309 -0.01160491 -3.3527667e-11 -0.015589091 -0.011709424 -0.0033035327
-0.0034126397 -0.012394347 -0.008607653 -0.0036148336 -0.00071426964 0.00039605502 -0.013233794 -0.0186832
-0.00917836 -0.0030469599 -0.003698192 -0.003795274 0.0010211578 -0.010893986 -0.004612711 -0.01077353
-0.0003318332 0.00084746437 -0.004701028 0.0020527446 0.010687927 0.0013825144 0.0014856427 0.0032232355
0.0033785515 -0.0026462795 -0.006982012 -0.027081909 -0.025985526 -0.020178761 -0.011333595 0.0022304978
-0.011778372 -0.0007804541 -0.0026701011 -0.008555171 0.0033177522 -0.013250984 0.004038405 0.0013329169
-0.005892679 -0.012759347 -0.0140017485 -2.1411443e-08 -0.008973075 -0.0004892207 -0.011900779 -0.025170641
-8.445656e-07 0.0069920546 0.0061514364 -0.033309504 -0.005137582 -0.0010107737 -0.0010314767 -0.0012165718
0.0028452058 -0.018922018 -0.004999638 -0.018065114 -7.7218815e-11 -0.014078001 -0.008831218 0.007264982
0.008026994 0.008393873 -0.01130127 -0.00036839943 -0.004667934 0.010138461 -0.013448678 -0.029055241
0.0045621 0.004439279 0.022234323 0.009836644 -0.00079566875 -0.010046491 -0.0039673755 -0.02315268
-0.00014380523 0.0021936141 0.00037565574 0.010594799 0.027171656 0.009451868 0.009516026 0.018895594
0.01318864 -0.00064762926 -0.0057225707 -0.03827981 -0.030676628 -0.028783841 -0.0056849252 0.011469747
-0.007332943 0.0037858537 0.010856415 -0.012165992 0.009369991 -0.0040947767 0.01825534 0.0029291946
-0.011423463 -0.011382348 -0.036995098 -3.2730586e-08 -0.011702824 -0.0009578758 -0.001981883 -0.03994971
-4.939356e-07 0.015989723 -0.005719475 -0.043493774 0.0024295598 0.008890911 0.0061982833 -0.0006764326
0.0028169816 -0.034845643 -0.011574054 -0.041911308 -6.780301e-11 -0.044917613 -0.011442254 -0.036522135
0.007551134 0.010799018 -0.010633736 -0.0023870526 -0.011181475 0.0053059757 -0.011303386 -0.04309709
-0.0039991 0.015367324 0.019924976 0.008692274 -0.0034793008 -0.013433527 -0.00061350764 -0.014016567
0.0003381484 0.0010146053 -0.033553556 0.008481387 0.030631756 0.012621864 0.012356945 0.02811526
0.017144425 -0.008544798 0.013669063 -0.064707614 -0.030697608 -0.036800455 -0.012780599 0.020387936
-0.009953183 -0.016818507 0.008495131 -0.015090319 0.009492828 -0.0011788353 0.020543555 0.002714773
-0.03472241 -0.020098181 -0.0816795 -1.4466094e-08 -0.017092193 -0.0013421756 -0.025345154 -0.061413437
9.528566e-07 0.018072853 -0.0148673 -0.058654983 -0.0044891657 0.018213794 0.0029923262 0.0012369731

exp_avg_sq f4 [64, 64]
00000000: 480f 4634 5233 073c fd7c 613b f011 493c
00000010: 13d9 9e34 3692 753c 6134 163a c333 383c
00000020: de77 5238 25fe 2339 a740 af39 3a85 b23a
00000030: 9a27 333c a94a fa37 1df0 7c38 247a 993b
00000040: 0825 6739 fdd7 0439 2c3d 1a39 c2ee 6638
00000050: e60a 7b3b 46a1 e93a e20c 3038 6015 3d3b
00000060: 074d d937 804a 6434 c0ee a83b 4da9 9538
00000070: 1538 2839 c83b 3d38 b117 4639 9cf6 5c39
00000080: 5f89 ab38 ef85 4b39 ce21 c33b a669 433c
00000090: 953d 3a3b a010 433b d4c0 f83a 6e00 9c38
000000a0: a3e8 d338 aa04 2239 ecd7 1339 8899 0a3b
000000b0: 79e4 2339 f603 2c39 3071 a338 5021 3432
000000c0: bea7 983c e824 9b3b 34f7 0c3c 79ef 4a36
000000d0: 5ad2 833b 9eb1 5139 8e0f cf3b ed22 333b
000000e0: 14c7 1c38 92f4 fb38 c9d7 bc3b df15 dd3b
000000f0: da3c 823a c044 c438 52aa 0239 0e57 9d39
00000100: f505 3436 a2c0 b83c 412f 123c 5dfd 373d
00000110: a42e 5e31 4e16 213d 1045 ee3c 0f35 003d
00000120: c341 d83c ce73 793d 43ef a53c ee12 4e3b
00000130: a15b ed3c 26b9 283c 28c4 9f3d 6d37 353c
00000140: 849f 1b3d 3413 143e 54c4 703d 54f8 f43c
00000150: 5b55 153c 4dde 9d3b bd66 0b3d 3d47 103c
00000160: d808 593c b040 ad35 f6d3 843c 2630 e13d
00000170: 0847 d23d 074d 003d 6718 213e 30e4 593e
00000180: 1168 f13d dbcd a239 3e05 8b3c fc1d 053d
00000190: 446c e73b ffa3 ff3b d224 b63b c6b9 263d
000001a0: 1896 653d b56a 183d 5c9c 3f3c 7fb7 663c
000001b0: c785 9839 269e a73c f2e2 9d3d 7b2b 2336
000001c0: e36f 5d3d 9f15 4d3c eb6d c13c 9da3 8837
000001d0: bfad 1c3c f469 c939 d1d5 a13c 6d17 a53b
000001e0: 6775 113c 7758 1e3e 547e ab3c 11d6 a33c
000001f0: 4332 013c 6895 0e3e 6d54 813b e156 a03a
00000200: d163 6a37 1d23 e33c 57d5 193c 6e1c 703d
00000210: 7829 d633 670a 593d 949c 373d 9ffb 3b3d
00000220: e2d9 063d 029f b33d 7724 f43c ba22 7a3b
00000230: cec9 ee3c 17c2 503c 2d6e db3d 0336 b23c
00000240: facd 5f3d d75a 513e d538 ba3d e18c 3a3d
00000250: 291b 8b3b ae16 cf3b 4a4b 523d 639b 023c
00000260: 121c cd3c 9aa4 d736 9970 923c 55b0 283e
00000270: 0221 0d3e a8a5 f43c 4299 703e 9b55 a33e
00000280: 22db 253e 568c 923a 8778 a43c 5cb4 2e3d
00000290: 2897 1b3c 9591 0a3c 9708 cd3b a42b 443d
000002a0: 9291 b33d 83b4 973d f655 933c e2c5 c53c
000002b0: a24f 283a d06d 013d 05a0 e73d 612d 5337
000002c0: 0e69 4e3d 9227 553c 1bec d33c 2176 7738
000002d0: 6767 603c 8986 3f3a 8e8b 033d 1eba 163c
000002e0: 258c 523c 2a14 6a3e 567d 993c efdc ae3c
000002f0: ed63 463c 9465 453e f371 c23b 4d3d ad3a
00000300: 87a1 4237 3a07 cf3c 7714 123c f790 5b3d
00000310: 0940 1e32 a444 483d f7cb 113d 18f4 213d
00000320: d373 df3c e116 943d 90b0 d73c 70f1 693b
00000330: ee10 db3c 1005 213c 3c05 be3d 171b a23c
00000340: 5274 323d b594 1d3e 56aa 863d 0bc7 0e3d
00000350: ba20 9f3b c617 b83b d004 243d d8f6 fd3b
00000360: fd33 993c f536 bf36 417e 8a3c e4c1 093e
00000370: 9f53 fe3d 2dab cf3c 5b89 433e a589 823e
00000380: e92e 043e 36aa 7f3a f46d 9a3c 1144 203d
00000390: 64b7 103c a04d 033c 9266 c03b c628 203d
000003a0: 6266 843d cf69 453d 87b3 703c 1b9b a03c
000003b0: 0954 273a 6537 d53c 6c9b b63d 752f 3037
000003c0: 539d 403d 7782 483c fea7 c43c bfab 4138
000003d0: a123 4b3c 7060 233a e3d3 f23c 3e5b 073c
000003e0: f09b 2a3c f1a7 393e 7e28 903c 1df1 a73c
000003f0: 3eaa 253c 1780 223e 8bfd 953b fff1 8e3a
1.8445746e-07 0.008251982 0.0034406774 0.012272343 2.9587736e-07 0.014988473 0.0005729851 0.01124281
5.0179537e-05 0.00015639568 0.0003342677 0.0013620027 0.010934735 2.9837089e-05 6.0305105e-05 0.0046837498
0.00022043672 0.00012668963 0.00014709373 5.5058634e-05 0.0038306057 0.0017824552 4.1973668e-05 0.0028851852
2.5904284e-05 2.1261258e-07 0.0051554143 7.1364084e-05 0.0001604262 4.5116787e-05 0.00018891577 0.00021072704
8.179503e-05 0.00019409483 0.0059549576 0.011927044 0.0028418053 0.0029764548 0.0018978366 7.43874e-05
0.00010104596 0.00015451261 0.0001409945 0.002114864 0.00015630004 0.00016404674 7.7935285e-05 1.0484953e-08
0.018634673 0.004734624 0.00860386 3.0239737e-06 0.0040228786 0.00019997961 0.006318993 0.002733405
3.7378704e-05 0.000120141674 0.0057630283 0.006746992 0.0009936348 9.358814e-05 0.00012461215 0.00030010234
2.6825558e-06 0.022552792 0.008922399 0.04491936 3.2331764e-09 0.039327912 0.029085666 0.0313006
0.026398545 0.060901456 0.02025569 0.0031444388 0.028974356 0.010298049 0.07801086 0.011060578
0.037993923 0.1446045 0.058780983 0.029903568 0.009114589 0.00481776 0.034033526 0.008806047
0.013246737 1.2908331e-06 0.016214352 0.10995512 0.102674544 0.03132346 0.15731965 0.21278453
0.11787427 0.00031052422 0.016970273 0.0324993 0.007062467 0.0078015323 0.0055585885 0.04070451
0.056051344 0.03721114 0.011694994 0.014081835 0.0002909137 0.020461153 0.07709302 2.4314202e-06
0.05406178 0.012517362 0.023611983 1.6288652e-05 0.009562909 0.0003841665 0.019755276 0.005038193
0.008878089 0.15463434 0.020934261 0.019999536 0.0078855185 0.13924181 0.003946832 0.0012232923
1.3970727e-05 0.027726704 0.009389243 0.058620863 9.972695e-08 0.052988436 0.04482706 0.04589426
0.032922633 0.08770563 0.029802544 0.0038167671 0.029148962 0.012741587 0.10714374 0.02175427
0.054639794 0.20444809 0.09092871 0.04554451 0.004245181 0.0063198423 0.051341332 0.007971617
0.025037799 6.4266615e-06 0.017875956 0.16473515 0.13782123 0.029864147 0.23495963 0.3190125
0.16196874 0.0011180739 0.020077003 0.042652473 0.009496488 0.008457561 0.0062571275 0.04789318
0.08768 0.07407477 0.017985325 0.02414221 0.00064205576 0.031598866 0.11309818 1.2587146e-05
0.050393157 0.013009923 0.02586942 5.8999405e-05 0.013696528 0.0007306119 0.03211551 0.009199647
0.012850796 0.22859254 0.018736523 0.021345584 0.012108785 0.1927703 0.005933994 0.0013217122
1.160091e-05 0.025272 0.008916012 0.053605046 9.21137e-09 0.048893586 0.035594907 0.039539427
0.027276909 0.07230926 0.026329309 0.0035696886 0.026741471 0.009827867 0.09278342 0.019788308
0.043567963 0.15388758 0.06575458 0.03485779 0.004856196 0.0056180684 0.040043652 0.0077503733
0.018701548 5.6986414e-06 0.016905906 0.1345287 0.12418293 0.025350178 0.19095366 0.2549564
0.1290852 0.00097528414 0.018851258 0.039127413 0.008832786 0.008014113 0.0058716023 0.039101385
0.064648405 0.04819661 0.01469124 0.01960521 0.00063830666 0.02602739 0.08916363 1.0501467e-05
0.047025036 0.0122381365 0.024005886 4.6174737e-05 0.012398631 0.0006232327 0.029642051 0.0082615
0.010413155 0.18130471 0.017597433 0.020500714 0.01011139 0.15869175 0.004577344 0.0010905861

exp_avg f4 [64]
00000000: 7b17 9f3d 5985 91bd 4d31 80bd 4bc6 ebbd
00000010: b4f2 5331 5669 9cbd 395b d2bd 7781 dfbd
00000020: d0b8 9b1b a0e4 50be 2d3a 7c29 6110 0e3b
00000030: 6bb6 c3bd 3a67 a225 78d3 27be 680e 6a3b
00000040: cb49 4b3a 45ad 51be 8f79 2e1b 990b d63d
00000050: 2d15 3dbe 7e96 9bbd 7089 f11c 8e8b 23be
00000060: 814b bb38 31e4 ad3d 5b50 33bd c679 04be
00000070: d0f7 45be a16e 7d34 2e24 f23d 4e07 232e
00000080: 2f54 ad26 c1b7 4234 451b 87bd cc8f 5c21
00000090: ccdf 34be 79a4 5a34 881a 83bc 7c65 ff35
000000a0: fd83 1521 c792 4abd 4746 fd37 64e6 54bd
000000b0: 2ce4 88bd ad93 6e3d 2a21 43bd 6884 db34
000000c0: 3c2d 0c3d 4b2f 42be ea57 c53d 38f4 a338
000000d0: 7cc4 1f33 089e 72be 9c51 6c3d 46c2 20bd
000000e0: 4940 b33b a27a c03d e0ad 2123 bd14 cbbd
000000f0: 2e7d 42be 0f50 9a27 4a4b f81c b301 cabd
0.077681504 -0.07105512 -0.062594034 -0.11512431 3.0842502e-09 -0.07637279 -0.102713056 -0.10913365
2.5762031e-22 -0.20399714 5.60057e-14 0.0021677243 -0.09556278 2.817247e-16 -0.16389263 0.0035714153
0.00077548315 -0.20476253 1.443222e-22 0.10451431 -0.18465109 -0.075970635 1.5983569e-21 -0.15971205
8.9309186e-05 0.0849079 -0.043777805 -0.12937078 -0.19332814 2.3602708e-07 0.11823307 3.7068397e-11
1.2027104e-15 1.8134507e-07 -0.06596998 7.4729213e-19 -0.17663497 2.0362667e-07 -0.016003862 1.9028516e-06
5.065785e-19 -0.049456384 3.0192676e-05 -0.05197753 -0.06684145 0.058246303 -0.04763905 4.0888267e-07
0.034222826 -0.18963353 0.09635909 7.817935e-05 3.7198774e-08 -0.23693097 0.057695016 -0.039247774
0.00547031 0.0939839 8.764647e-18 -0.09916065 -0.18993065 4.2830386e-15 1.6430725e-21 -0.09863605

exp_avg_sq f4 [64]
00000000: 7164 243d bf8d 673e 7c67 c83e e622 aa3e
00000010: 619f 5c3a d3fd 0c3e aeda 963e 2311 853f
00000020: fa3c 1b39 5a1b 803f b09c 553a bb66 6a3b
00000030: b79d d03e fa0f 533a 4995 043f 68a6 5b3e
00000040: a574 083a 1495 4a3f 0dbc f639 2fc5 b23f
00000050: bf78 543f d0bd 143e ee66 c33a 81f3 433f
00000060: f99c 373a 9e5c 483e 64fa 953f b0cd f03e
00000070: fdea 853f b42c ba3b f613 133f 95d2 e53b
00000080: 1335 4b3a 7d2d c93d ee35 e73f 6c64 bb3a
00000090: 3b4a 283f 9c43 bb3b 80aa 8b3e 6215 3c3d
000000a0: d9d1 9f3a dbe5 243e ab1a a73a 7657 a13e
000000b0: 75f8 863e 09f4 7a3e 293c a53f cc37 283b
000000c0: f1e0 593f 1ac1 4a3f c7e0 793f 2fdc c33a
000000d0: 511e ca3a f3fa 7e3f a33e d13e 5e54 c93f
000000e0: c9e7 573c f94c 8d3e 12bc 603b 6112 0f3f
000000f0: 034f 753f e85c 5f3b a3ce c73a bc65 3f3e
0.04013485 0.22612666 0.39141452 0.3322975 0.00084160833 0.13768701 0.29463714 1.0395855
0.00014804667 1.0008347 0.00081486534 0.0035766799 0.40745327 0.0008051392 0.5179029 0.21450198
0.00052053697 0.79133725 0.00047060885 1.3966426 0.82996744 0.14525533 0.0014907995 0.7654343
0.0007004287 0.1956658 1.1717038 0.47031927 1.0462338 0.0056815986 0.5745233 0.0070136287
0.0007751744 0.09823129 1.8063333 0.0014296896 0.65738267 0.005714847 0.2727852 0.04591883
0.0012193277 0.16103308 0.0012749037 0.3151204 0.26361433 0.24507155 1.2908984 0.0025668023
0.8510886 0.792009 0.9760861 0.0014942939 0.0015420412 0.9960167 0.408681 1.5728872
0.0131778205 0.27597788 0.0034291786 0.5588742 0.9582369 0.0034082476 0.0015244078 0.18691152
