gen_2_agent_0.pt (torch, 63759 bytes, 18 tensors)

net.0.weight f4 [64, 4]
0.08426928 -0.081869505 0.29885477 -0.14867727 0.24204993 -0.13211268 0.07075241 0.18663804
0.044234425 0.014318012 0.30265704 -0.25304452 0.28064272 0.10828058 0.3030563 0.024066877
-0.2903641 -0.064694226 0.28879496 -0.070798166 0.084298484 0.2608411 0.1366281 0.16599809
-0.1429927 -0.010422243 -0.140955 -0.062530026 -0.27458316 -0.005536696 -0.2877241 0.011499109
0.015171297 -0.12902416 -0.102221 0.15049271 -0.27302948 0.15710318 0.20509078 -0.0031466351
-0.12983285 0.090048775 0.3018512 0.013127876 0.13668276 -0.28628635 0.26984566 -0.20451702
-0.085645765 0.031692702 0.15879782 -0.054739837 0.08955056 0.2661626 0.24096838 -0.24913855
0.24504189 0.22521697 -0.10798706 0.001751568 0.2122849 0.12503102 -0.047368146 0.32341608
0.28633255 -0.31186616 -0.16729692 -0.09192677 0.021912629 0.004341275 -0.0460278 0.2506157
0.115182765 0.21940343 -0.26386675 0.11193071 0.14150663 -0.20409878 -0.26504615 0.07847203
0.23975141 -0.18423626 0.13902153 -0.27466732 -0.15414292 -0.0734999 0.28204986 -0.1721255
-0.1073037 0.24763139 -0.09007288 -0.21855368 -0.03740717 -0.09744192 -0.12782268 0.20896415
-0.1333242 -0.1224819 -0.06631224 -0.1997557 -0.2253766 0.24528338 -0.16156538 0.23196447
0.12754269 0.042224746 0.115877904 0.2569242 -0.008317542 -0.12283178 -0.21745884 0.29583764
-0.11366143 0.008628683 -0.32631022 -0.19823907 -0.09766852 0.3046672 -0.2913659 0.28960025
-0.22244176 0.06106059 0.3327402 0.28862658 -0.015308703 -0.29195958 0.18954092 -0.26688015
-0.1177669 -0.19619098 0.01115711 0.15539989 0.12400772 -0.33076954 -0.15670191 -0.009169716
0.09295971 0.029365933 0.021170188 -0.022720609 -0.064425066 -0.12410249 0.09374066 -0.10456493
-0.010517266 0.057601273 -0.0067165704 0.24422605 -0.17693137 -0.088586465 0.04706315 0.08214946
-0.046479933 -0.36252284 0.009267745 -0.08496461 -0.116777554 -0.19000602 -0.043036725 -0.19190206
0.030614082 0.1290167 -0.2955745 0.08435955 -0.12934402 -0.31784356 -0.17750765 -0.066061206
0.22406217 0.04908912 -0.21394554 0.18167919 0.330119 -0.36339656 0.09003095 -0.2179188
0.1524206 0.30040023 -0.04304257 0.1769666 -0.3197096 0.26482585 0.24362181 0.10547966
0.19757412 0.105499215 0.063959144 -0.2773249 -0.17662132 -0.2398985 -0.21180168 0.100317
0.17749994 0.18209079 -0.16206719 0.11751886 0.039870363 0.31511402 0.3000306 -0.06825325
-0.25135183 0.23085083 -0.2121133 0.13652423 0.12865648 -0.057330016 -0.23816213 0.1021203
0.2728994 0.12945221 -0.1209222 -0.0926936 -0.15969628 -0.2533446 -0.25397065 -0.0024718554
0.23780347 -0.18955195 0.07046222 0.2319018 0.20590168 0.07607604 0.20966642 0.09789613
-0.13877364 -0.20824078 -0.30199477 -0.2753856 0.3092864 -0.2125188 0.23265362 0.17488723
-0.30867758 0.23663366 0.029192716 -0.28923026 -0.26127848 -0.013230677 -0.29327267 0.26405528
0.08216165 0.0054509225 -0.25351414 0.27233562 0.22625633 0.27760634 0.072626404 -0.25686312
0.13427435 -0.19331524 0.24001953 -0.0819614 0.27351192 0.13266636 0.33349362 -0.087246194
00000000: 5f95 ac3d 33ab a7bd 7e03 993e db3e 18be
00000010: f0db 773e 8c48 07be a4e6 903d 0b1e 3f3e
00000020: 282f 353d 1896 6a3c ddf5 9a3e 0d8f 81be
00000030: 67b0 8f3e 35c2 dd3d 322a 9b3e e627 c53c
00000040: 9aaa 94be 687e 84bd efdc 933e a1fe 90bd
00000050: afa4 ac3d f78c 853e 3de8 0b3e 67fb 293e
00000060: ae6c 12be 0ec2 2abc 8256 10be be0f 80bd
00000070: 2a96 8cbe 2c6d b5bb 9350 93be c266 3c3c
00000080: 0891 783c e91e 04be 3e59 d1bd c31a 1a3e
00000090: 85ca 8bbe a8df 203e 5103 523e c737 4ebb
000000a0: e7f2 04be 7e6b b83d 3e8c 9a3e 4e16 573c
000000b0: 91f6 0b3e 2094 92be 3629 8a3e e96c 51be
000000c0: 0c67 afbd 35d0 013d e59b 223e e136 60bd
000000d0: 4966 b73d 7746 883e 6ac0 763e 2d1e 7fbe
000000e0: 43ec 7a3e 479f 663e 5228 ddbd df94 e53a
000000f0: 3661 593e 2208 003e 1a05 42bd cb96 a53e
00000100: 2e9a 923e ecac 9fbe e24f 2bbe 1a44 bcbd
00000110: 1d82 b33c 4141 8e3b a587 3cbd b350 803e
00000120: f1e4 eb3d 4bab 603e 8b19 87be ee3b e53d
00000130: 1de7 103e 45ff 50be 21b4 87be f2b5 a03d
00000140: 6581 753e 6ea8 3cbe a95b 0e3e 32a1 8cbe
00000150: a4d7 1dbe 1e87 96bd d768 903e ab41 30be
00000160: 0bc2 dbbd 1593 7d3e 2178 b8bd 89cc 5fbe
00000170: 4338 19bd a18f c7bd f3e3 02be b3fa 553e
00000180: 2486 08be cad7 fabd b6ce 87bd c28c 4cbe
00000190: 20c9 66be 912b 7b3e 6571 25be 1888 6d3e
000001a0: 8d9a 023e dbf3 2c3d 6551 ed3d 928b 833e
000001b0: 4d46 08bc 3a8f fbbd 88ad 5ebe 0878 973e
000001c0: 53c7 e8bd 525f 0d3c 2212 a7be 2fff 4abe
000001d0: 6f06 c8bd 57fd 9b3e e92d 95be 7c46 943e
000001e0: c6c7 63be ab1a 7a3d ec5c aa3e ddc6 933e
000001f0: 5bd1 7abc ba7b 95be 0417 423e 84a4 88be
00000200: c62f f1bd 4ae6 48be 50cc 363c 2621 1f3e
00000210: c2f7 fd3d a05a a9be 7776 20be 943c 16bc
00000220: a961 be3d d390 f03c 1a6d ad3c 9220 babc
00000230: 4af1 83bd 7229 febd 1afb bf3d 2326 d6bd
00000240: 9c50 2cbc 50ef 6b3d ad16 dcbb 6516 7a3e
00000250: 7f2d 35be d26c b5bd 4ac5 403d fa3d a83d
00000260: be61 3ebd 989c b9be bdd7 173c ed01 aebd
00000270: 1229 efbd f090 42be 4747 30bd f981 44be
00000280: 62ca fa3c f41c 043e 8a55 97be b3c4 ac3d
00000290: c272 04be 64bc a2be 91c4 35be 194b 87bd
000002a0: 8e70 653e ac11 493d 8a14 5bbe 1c0a 3a3e
000002b0: 5c05 a93e 1d0f babe 2662 b83d 1b26 5fbe
000002c0: 2514 1c3e 0fce 993e 684d 30bd bb36 353e
000002d0: fab0 a3be 4197 873e ff77 793e b805 d83d
000002e0: df50 4a3e f90f d83d 03fd 823d 87fd 8dbe
000002f0: 38dc 34be f4a7 75be 8ae2 58be 0073 cd3d
00000300: 8bc2 353e 0276 3a3e f1f4 25be baad f03d
00000310: 1b4f 233d a056 a13e 9c9d 993e 5cc8 8bbd
00000320: 30b1 80be 2964 6c3e 3b34 59be 02cd 0b3e
00000330: 86be 033e e1d2 6abd c6e0 73be 7324 d13d
00000340: 78b9 8b3e 1f8f 043e 0fa6 f7bd 24d6 bdbd
00000350: 6c87 23be 62b6 81be 7108 82be dafe 21bb
00000360: c182 733e e819 42be 7f4e 903d aa77 6d3e
00000370: e4d7 523e c1cd 9b3d cbb2 563e c47d c83d
00000380: ad1a 0ebe 123d 55be 0f9f 9abe 57ff 8cbe
00000390: c95a 9e3e 879e 59be c03c 6e3e a315 333e
000003a0: fd0a 9ebe 1850 723e 9025 ef3c fd15 94be
000003b0: 4bc6 85be 7bc5 58bc d627 96be 4132 873e
000003c0: 5e44 a83d a79d b23b 9bcc 81be 936f 8b3e
000003d0: bdaf 673e 6b22 8e3e 27bd 943d 9083 83be
000003e0: 377f 093e 6ef4 45be aec7 753e 61db a7bd
000003f0: c109 8c3e b1d9 073e adbf aa3e 22ae b2bd

net.0.bias f4 [64]
0.117491305 0.060723968 0.10002667 0.07354906 0.018537305 0.12186069 0.079373345 0.061472863
-0.014432871 0.07040385 -0.030368501 0.07210532 -0.05204654 0.09257939 0.13460925 0.020704594
0.11186916 0.04600953 0.08775933 0.10322651 0.026468666 0.07450096 -0.01519403 0.055033807
0.047060356 0.013265556 0.04289376 0.0063983374 0.06740587 0.048658095 -0.0059959223 0.029556615
0.021317132 0.07732223 0.10022785 0.08526343 0.02756655 -0.011633781 0.09958245 -0.043322533
0.0910505 0.04021593 0.06530823 0.111898616 0.07551917 0.07219469 0.0989574 0.021002939
0.10993806 0.09714896 0.08132445 0.039340697 0.10927082 0.036998868 0.07458276 0.13738756
0.07405906 0.12986529 0.002642149 0.041174527 0.015315546 0.077627204 0.08573202 0.06921242
00000000: 489f f03d b2b9 783d c8da cc3d e4a0 963d
00000010: 8cdb 973c 1992 f93d 7e8e a23d f8ca 7b3d
00000020: d977 6cbc e52f 903d 5dc7 f8bc f4ab 933d
00000030: c12e 55bd 439a bd3d 02d7 093e ae9c a93c
00000040: a81b e53d 7d74 3c3d 2abb b33d 6c68 d33d
00000050: d1d4 d83c f693 983d 61f0 78bc 216b 613d
00000060: 5cc2 403d c657 593c 5eb1 2f3d 25a9 d13b
00000070: 170c 8a3d b64d 473d 7179 c4bb b720 f23c
00000080: 44a1 ae3c 1e5b 9e3d 4244 cd3d 989e ae3d
00000090: 3fd3 e13c 9d9b 3ebc e2f1 cb3d f872 31bd
000000a0: af78 ba3d 76b9 243d 52c0 853d 1a2b e53d
000000b0: cba9 9a3d cfda 933d 2daa ca3d 5b0e ac3c
000000c0: 3527 e13d 09f6 c63d 6f8d a63d b623 213d
000000d0: 61c9 df3d 208c 173d d9be 983d 53af 0c3e
000000e0: 47ac 973d 68fb 043e e827 2d3b 9fa6 283d
000000f0: 0eee 7a3c 03fb 9e3d 4594 af3d 3ebf 8d3d

net.3.weight f4 [64, 64]
0.0725614 -0.17514315 -0.18345329 -0.0018902137 -0.13969915 -0.06492796 -0.070482686 -0.03651171
0.065479875 -0.095459804 0.24885002 0.06347148 -0.10263497 0.12724121 -0.09737981 0.16905792
0.03902304 -0.18835154 0.07083499 0.010182381 -0.19628908 -0.037823446 0.17124443 0.008906314
-0.19170696 0.17731078 -0.04181762 -0.06537898 -0.21004654 0.19229619 -0.10477854 0.1547843
-0.15677786 0.17515574 -0.06861406 0.20613773 0.116750546 -0.13093266 -0.14021079 0.120398045
-0.15376095 -0.16492786 0.077131055 -0.045801003 -0.083475366 0.213963 -0.1504104 0.034846045
0.18636818 -0.110798806 -0.16594605 -0.17351721 0.09666198 -0.16133085 0.17801785 0.0404097
-0.11149269 0.13147114 0.22704467 -0.12394317 0.21285784 -0.15238857 0.06266714 0.13032135
-0.11890205 0.10228385 0.12815596 -0.15764795 0.16635364 -0.12915541 -0.25598252 -0.21397442
-0.06620613 -0.17220037 -0.12525463 0.09924736 0.03969025 0.059734408 0.037908554 0.034217764
0.15673032 0.14478175 -0.15915228 0.01674626 -0.043224823 0.17313625 0.033826787 -0.21256465
-0.018235216 0.13642319 0.10888918 0.12715153 0.06655667 0.12934108 -0.088288926 0.08872316
-0.021361232 0.14087544 0.15741506 0.02874962 0.06424568 0.20889577 -0.0453745 -0.026309436
-0.23206136 0.09132258 0.03201862 -0.20882288 0.15078962 0.09145012 0.1091082 0.20774055
0.13543615 0.07139371 0.04425254 -0.047500774 0.09493411 -0.03647 -0.1423348 -0.10983188
0.012373828 0.09302923 0.1544962 -0.10908188 -0.05115331 0.10108745 -0.15043299 -0.1238282
0.0063716643 0.29123512 -0.12093963 -0.10689441 -0.14809994 0.12278307 0.13040428 0.2769646
0.05915085 -0.031774763 -0.14269188 0.21098177 0.17031279 0.18757316 0.27972808 -0.0301953
-0.014896519 0.046253335 0.08231577 0.1640958 0.0117291985 0.12301095 -0.062912844 0.103611626
0.26111466 0.2746836 0.08729675 0.2542928 0.05931906 0.18144971 0.07465128 -0.044101264
0.14111274 0.17316647 0.09472542 0.02181271 0.30262244 -0.060847603 0.07832906 -0.13926978
0.06599975 -0.07272136 0.16056663 -0.15216471 0.17549768 0.17083451 0.17875847 0.056970924
0.22590815 0.07648148 0.1123703 0.01891094 -0.009777925 -0.08333581 0.09910548 0.023901056
0.11664652 0.19938573 -0.004591665 -0.14287692 0.12180207 -0.031802222 -0.13017088 0.19851546
0.07151315 0.26392058 0.12368568 0.07510894 -0.12514392 0.024683759 0.13046023 -0.118205786
-0.073009096 -0.102292225 0.008292307 0.22541827 -0.035830773 0.045768447 0.23158187 0.1350194
0.22253637 0.14146058 -0.056775555 -0.07730399 -0.101155825 -0.030604236 0.0462744 0.21055736
-0.07279903 -0.06692374 0.204693 -0.07019369 0.27242944 0.3033644 -0.119896226 0.2505664
-0.049928397 -0.034229115 0.17748904 0.26982796 0.01547236 -0.12412002 -0.00033956632 0.0509175
0.10758342 0.1347072 0.14843947 0.07107548 -0.047054846 0.017385611 0.2323484 0.10125887
0.2736953 -0.051614597 0.036008112 0.03258505 0.0526836 0.057196517 0.17580931 0.24118426
-0.13384514 0.10273691 0.14401911 -0.0011943236 0.1034445 -0.003114838 0.26862833 -0.0073923804
00000000: 129b 943d ba58 33be 2edb 3bbe 0cc1 f7ba
00000010: 4b0d 0fbe f3f8 84bd 3a59 90bd 4e8d 15bd
00000020: 501a 863d 6e80 c3bd 8ad2 7e3e 56fd 813d
00000030: 4832 d2bd 854b 023e 116f c7bd 851d 2d3e
00000040: a0d6 1f3d 3adf 40be ef11 913d 00d4 263c
00000050: 0100 49be c2ec 1abd b35a 2f3e caeb 113c
00000060: d44e 44be f590 353e f448 2bbd 6ae5 85bd
00000070: 7116 57be 4be9 443e 2296 d6bd c77f 1e3e
00000080: 608a 20be 075c 333e 8785 8cbd c515 533e
00000090: e91a ef3d 3613 06be 6b93 0fbe 4093 f63d
000000a0: 8373 1dbe d9e2 28be e3f6 9d3d d599 3bbd
000000b0: 22f5 aabd 1e19 5b3e 2f05 1abe baba 0e3d
000000c0: 4dd7 3e3e 7cea e2bd c3ed 29be 7fae 31be
000000d0: b7f6 c53d ea33 25be 504a 363e a484 253d
000000e0: 4856 e4bd 5fa0 063e 667e 683e ebd5 fdbd
000000f0: 68f7 593e c00b 1cbe a157 803d f672 053e
00000100: eb82 f3bd 327a d13d 513b 033e 776e 21be
00000110: 9c58 2a3e 5141 04be 2410 83be 1c1c 5bbe
00000120: 1497 87bd 4b55 30be c042 00be 3342 cb3d
00000130: 3e92 223d 11ac 743d 0046 1b3d ed27 0c3d
00000140: ea7d 203e ab41 143e d1f8 22be 742f 893c
00000150: 830c 31bd a14a 313e f58d 0a3d 8caa 59be
00000160: 0562 95bc 85b2 0b3e 4a01 df3d 0334 023e
00000170: dd4e 883d fd71 043e d3d0 b4bd 7db4 b53d
00000180: c0fd aebc a741 103e 6a31 213e 5384 eb3c
00000190: 3d93 833d c6e8 553e 9dda 39bd e386 d7bc
000001a0: 7ea1 6dbe 5507 bb3d f525 033d aad5 55be
000001b0: 9868 1a3e 334a bb3d 1f74 df3d f0b9 543e
000001c0: c6af 0a3e de36 923d 2742 353d 2c90 42bd
000001d0: d16c c23d 9161 15bd 37c0 11be 89ef e0bd
000001e0: 99bb 4a3c 1c86 be3d 4034 1e3e 5266 dfbd
000001f0: 2286 51bd f006 cf3d 1b0b 1abe a499 fdbd
00000200: 65c9 d03b c51c 953e 32af f7bd 75eb dabd
00000210: 83a7 17be b175 fb3d b388 053e 4ece 8d3e
00000220: 2948 723d 4126 02bd d21d 12be 9b0b 583e
00000230: 7a66 2e3e 2e13 403e 8538 8f3e 225c f7bc
00000240: 8710 74bc 2374 3d3d 2c95 a83d bb08 283e
00000250: d32b 403c 2aed fb3d 73d8 80bd 5532 d43d
00000260: d2b0 853e 54a3 8c3e a3c8 b23d aa32 823e
00000270: 8bf8 723d f4cd 393e c5e2 983d 87a3 34bd
00000280: dc7f 103e 8d52 313e 67ff c13d 92b0 b23c
00000290: 54f1 9a3e 563b 79bd fc6a a03d bd9c 0ebe
000002a0: e02a 873d f0ee 94bd 946b 243e 11d1 1bbe
000002b0: aab5 333e 3eef 2e3e 760c 373e 585a 693d
000002c0: 7754 673e 52a2 9c3d 6622 e63d 1eeb 9a3c
000002d0: 9733 20bc f7ab aabd d0f7 ca3d 26cc c33c
000002e0: 5fe4 ee3d c62b 4c3e ae75 96bb 544e 12be
000002f0: 5d73 f93d 0c43 02bd 844b 05be a347 4b3e
00000300: 7d75 923d 9920 873e eb4e fd3d b7d2 993d
00000310: ba25 00be 9835 ca3c 5e97 053e e015 f2bd
00000320: cb85 95bd 967e d1bd 75dc 073c 0cd4 663e
00000330: 4ac3 12bd b277 3b3d cc23 6d3e 8742 0a3e
00000340: 93e0 633e 0bdb 103e 7c8d 68bd 8e51 9ebd
00000350: c92a cfbd bcb5 fabc 3a8a 3d3d 599c 573e
00000360: a817 95bd 500f 89bd 0b9b 513e b6c1 8fbd
00000370: df7b 8b3e 9452 9b3e 278c f5bd 3d4a 803e
00000380: b881 4cbd d433 0cbd b0bf 353e e426 8a3e
00000390: c87f 7d3c a332 febd d207 b2b9 de8e 503d
000003a0: b254 dc3d aff0 093e 8400 183e 0590 913d
000003b0: 95bc 40bd 456c 8e3c bdec 6d3e cf60 cf3d
000003c0: ca21 8c3e d469 53bd 3e7d 133d e777 053d
000003d0: c2ca 573d e546 6a3d 5b07 343e 02f9 763e
000003e0: b30e 09be bb67 d23d bf79 133e da8a 9cba
000003f0: b6da d33d 4f22 4cbb a789 893e c83b f2bb

net.3.bias f4 [64]
-0.0055433214 -0.032806847 0.10124399 0.15126081 -0.029885486 0.16112101 -0.043035056 -0.031364687
-0.028127216 -0.030345885 -0.0032622642 -0.06235554 0.006024877 -0.042306576 -0.019062866 -0.031010024
0.03728874 0.13009857 -0.029779244 0.13831855 -0.03609987 0.023132607 -0.027377231 0.085026786
0.0646777 0.14649954 0.038933273 0.11001413 -0.036834102 -0.03829282 0.06371293 0.043766394
0.13818692 0.11341664 -0.044491973 0.13541947 -0.02239551 -0.0048533673 -0.00045362042 -0.063853584
-0.068488255 -0.05117122 -0.04561845 0.10224601 -0.047699194 0.108684905 -0.04706739 0.017321425
-0.048329864 0.005214853 0.12640478 0.10814469 0.13181336 0.13903575 0.11415913 0.121070206
-0.033152573 -0.0026334198 -0.023700442 -0.046994194 -0.021486793 -0.025589654 -0.051111653 -0.042813744
00000000: c0a4 b5bb 7960 06bd 0259 cf3d 1de4 1a3e
00000010: 68d2 f4bc e8fc 243e 8745 30bd 4278 00bd
00000020: 0c6b e6bc ef97 f8bc b6cb 55bb 8668 7fbd
00000030: 556c c53b a949 2dbd ba29 9cbc bc08 febc
00000040: 14bc 183d 8f38 053e 9af3 f3bc 61a3 0d3e
00000050: 75dd 13bd 9880 bd3c 3746 e0bc 8622 ae3d
00000060: be75 843d fa03 163e 7f78 1f3d 174f e13d
00000070: 5bdf 16bd efd8 1cbd ed7b 823d 6444 333d
00000080: df80 0d3e fc46 e83d 373d 36bd 67ab 0a3e
00000090: ca76 b7bc ff08 9fbb e7d3 edb9 abc5 82bd
000000a0: 9243 8cbd ea98 51bd 69da 3abd 5b66 d13d
000000b0: 3b60 43bd 3196 de3d bcc9 40bd a9e5 8d3c
000000c0: 89f5 45bd 5ce1 aa3b 4170 013e f77a dd3d
000000d0: 15fa 063e 635f 0e3e 43cc e93d a8f3 f73d
000000e0: feca 07bd 7495 2cbb 6e27 c2bc fc7c 40bd
000000f0: 1205 b0bc 65a1 d1bc 745a 51bd 775d 2fbd

net.6.weight f4 [2, 64]
-0.14030127 -0.19081236 0.36505732 0.1945841 -0.20891063 0.21510616 -0.17743555 -0.15192005
-0.280408 0.31039223 -0.06875126 -0.25559318 -0.18155833 0.14911814 -0.043281373 0.18957192
-0.121138245 0.14805302 0.2532699 0.3826425 -0.17887035 -0.16663699 -0.2808291 0.081777625
-0.048954327 0.23186412 0.3550714 0.072315276 -0.13133354 -0.14448129 -0.030460482 -0.047782175
0.34021607 0.12403575 0.07668525 0.16854608 -0.11052005 -0.17951412 0.20454863 0.036053345
-0.14852834 0.007412439 -0.11622921 0.07535158 -0.0756708 0.24795246 -0.05991323 -0.20457394
-0.20613906 0.269206 0.16881688 0.10085593 0.119899586 0.2504957 0.06538171 0.12576114
-0.2941701 0.14452933 0.27675447 -0.19862093 -0.19869201 -0.28414378 0.079062015 -0.270925
0.23044065 0.13070913 0.13655418 0.18372229 -0.17200933 0.14553532 -0.054545786 -0.26385128
-0.12348359 -0.12027052 0.19854513 0.0072872043 0.13848615 -0.25889558 0.05065903 -0.12583911
0.29872394 0.23248747 -0.21593389 0.16364308 0.009443199 0.2755717 0.00026247386 0.28179687
0.37172854 0.13132302 -0.044537514 0.3722711 -0.122380115 -0.18438312 0.3821005 0.20327254
0.21011533 0.3862425 -0.15918651 0.15066448 -0.08225304 0.18245411 -0.26979738 -0.21367466
-0.12032669 -0.148272 -0.21065007 0.1709026 0.09438088 0.08321464 -0.11222153 0.2774253
-0.1598457 -0.15728311 0.3608862 0.37539294 0.0673468 0.34053063 0.20756759 0.27736214
-0.06573943 -0.05909732 -0.03915496 0.09545471 -0.24100173 -0.016781535 -0.19292063 -0.17056216
00000000: 23ab 0fbe 5164 43be cbe8 ba3e 0e41 473e
00000010: abec 55be ca44 5c3e aab1 35be ee90 1bbe
00000020: a391 8fbe bbeb 9e3e 76cd 8cbd 1cdd 82be
00000030: 6dea 39be 6db2 183e cf47 31bd 241f 423e
00000040: 5417 f8bd 369b 173e 98ac 813e b8e9 c33e
00000050: ca29 37be e3a2 2abe d5c8 8fbe 077b a73d
00000060: 5584 48bd ca6d 6d3e ebcb b53e 081a 943d
00000070: 4d7c 06be e7f2 13be 4388 f9bc 3eb7 43bd
00000080: cd30 ae3e 7506 fe3d 280d 9d3d 5897 2c3e
00000090: 5658 e2bd 8dd2 37be 3275 513e acac 133d
000000a0: d017 18be 0ce4 f23b 9409 eebd ee51 9a3d
000000b0: 4bf9 9abd 40e7 7d3e 9367 75bd d57b 51be
000000c0: 1e16 53be 5ed5 893e 55de 2c3e 8e8d ce3d
000000d0: ea8d f53d f940 803e d9e6 853d 87c7 003e
000000e0: 779d 96be 7fff 133e c3b2 8d3e 4963 4bbe
000000f0: eb75 4bbe 4b7b 91be 44eb a13d aeb6 8abe
00000100: a2f8 6b3e 9dd8 053e dcd4 0b3e b221 3c3e
00000110: 3723 30be 3607 153e 676b 5fbd 8417 87be
00000120: f7e4 fcbd 6450 f6bd 6a4f 4b3e 80c9 ee3b
00000130: 50cf 0d3e f68d 84be d87f 4f3d f8db 00be
00000140: 58f2 983e 3211 6e3e c61d 5dbe 0d92 273e
00000150: a6b7 1a3c bc17 8d3e a59c 8939 ae47 903e
00000160: 3453 be3e 8b79 063e f86c 36bd 519a be3e
00000170: 6da2 fabd eece 3cbe ada2 c33e ad26 503e
00000180: 7928 573e 94c1 c53e ca01 23be ca47 1a3e
00000190: 4874 a8bd 40d5 3a3e e222 8abe 88cd 5abe
000001a0: d76d f6bd 9dd4 17be a7b4 57be 1701 2f3e
000001b0: c34a c13d 706c aa3d 67d4 e5bd b00a 8e3e
000001c0: 97ae 23be d30e 21be 13c6 b83e 8133 c03e
000001d0: 1eed 893d 085a ae3e 998c 543e 6902 8e3e
000001e0: 65a2 86bd 0810 72bd f460 20bd c27d c33d
000001f0: 28c9 76be 6e79 89bc fc8c 45be d9a7 2ebe

net.6.bias f4 [2]
0.09390926 0.10893297
00000000: 8053 c03d 4018 df3d

exp_avg f4 [64, 4]
-9.5672995e-06 -1.0476705e-05 -4.987549e-06 -5.008434e-06 -0.013744938 0.06297805 -0.008662276 0.01271034
-6.17772e-06 -6.6433554e-06 -2.9184932e-06 -3.2869386e-06 0.016882207 0.022428015 -0.024350103 -0.003076512
-1.5344553e-09 -4.7831756e-09 -3.9868366e-09 6.937884e-11 0.032125216 0.042795863 -0.028132232 5.515708e-05
-0.015943648 0.044780463 0.04720555 0.015777012 -0.020280689 0.07357828 0.033531882 0.024892021
-0.015447025 0.016581716 0.01872399 0.007476509 6.6497436e-05 -5.7170015e-05 6.407224e-05 -3.1829448e-05
1.4394714e-06 1.2853244e-06 1.6333738e-07 9.658173e-07 -0.0071505336 0.014874291 0.033186927 0.010912196
-5.4384447e-10 1.20562e-09 6.17013e-10 -3.1893393e-10 0.0075482507 0.017028857 0.0031503986 0.0018464333
-0.015725685 0.06233281 0.037408877 0.016291903 -0.0031493958 0.030848673 -0.016974501 0.004670757
-0.023228986 0.063281395 0.030413875 0.01847852 -0.0094146505 0.044465706 0.056452733 0.017235762
-0.0184188 0.0611944 0.03209915 0.024757717 -0.01460591 0.044449456 0.039816715 0.014745071
-0.014189244 0.015694844 0.040290225 0.0086427275 -1.8486858e-08 -3.9450523e-08 -2.6214316e-08 -1.2862656e-09
0.011335805 0.013961982 -0.016814413 0.0007855848 -0.03698398 0.049456283 0.10264786 0.02393509
-0.025724523 0.02425571 0.060721803 0.02550163 0.010356702 0.029548416 0.015834358 0.0025906647
0.011420875 0.013988846 -0.014566675 -0.0020271537 -0.0052648843 0.021124668 0.0142338155 0.010157
-0.00032941077 0.026168464 -0.011278868 0.00501459 0.00874051 0.044045232 -0.030643847 0.005342779
0.0005095535 0.0007365262 -0.0006294192 0.0008699907 -0.0021551447 0.007867772 0.017760297 0.0037801529
-0.006209946 0.009185156 0.002225681 0.005778622 -0.009372435 0.039682187 0.045575913 0.015854973
-0.030107958 0.07489602 0.0277747 0.021954224 -0.015786381 0.017543739 0.015345014 0.0054644053
0.019041678 0.019501438 -0.09079996 -0.010698878 9.3493446e-07 -1.0643453e-06 5.4505563e-06 -6.986919e-06
-0.035169117 -0.008603136 -0.033912197 0.0053538913 -0.009522322 0.0039753513 0.016246844 0.002206537
-0.03359659 0.05546961 0.15568484 0.02842874 -0.0380548 0.012171785 -0.031788852 0.00903604
-0.020761706 0.071021885 0.028383614 0.0272656 -0.010311073 0.032879442 0.06193524 0.010492474
-0.013797874 0.04485178 0.005526181 0.01622408 0.0005353251 0.00086965645 -0.00072269543 0.0009171273
0.01458867 0.06575938 -0.028685383 0.004396529 -0.035628695 0.0074763116 0.025000725 0.013818432
0.0076790256 0.071850106 -0.0068575703 0.016080141 0.0488933 0.05933038 -0.07794857 -0.02083986
-0.016457338 0.025590496 0.0044455035 0.0052875094 0.019056933 0.040780198 -0.054857735 -0.0022213422
-0.017017478 0.05278603 0.07254277 0.018736744 -0.017488899 0.018775452 0.026312893 0.014153408
-0.01337894 0.029094487 -0.049280364 0.004505536 0.02004063 0.026205497 -0.025996597 -0.0017873505
-0.009151308 0.037314516 0.039944265 0.014449946 -0.045668837 0.0948012 0.18859945 0.029417982
0.0031369505 0.0069855526 0.024217103 0.0072746677 -0.00901064 0.023349622 0.034017112 0.006835469
-0.0066939336 0.015157321 0.041059412 0.006603242 -0.009765573 0.05233694 0.057489377 0.01836324
-0.008325934 0.01740202 0.033245225 0.0104014985 0.0087690335 0.01240041 -0.012447238 -0.0036785789
00000000: 3d83 20b7 1bc5 2fb7 b85a a7b6 1f0e a8b6
00000010: 7332 61bc a3fa 803d 38ec 0dbc 083f 503c
00000020: 364a cfb6 fde9 deb6 55db 43b6 2d95 5cb6
00000030: 8e4c 8a3c f5ba b73c de79 c7bc 4e9f 49bb
00000040: d9e4 d2b0 4259 a4b1 96fc 88b1 d190 982e
00000050: bb95 033d b74a 2f3d 9175 e6bc 7758 6738
00000060: 419c 82bc b86b 373d 9b5a 413d cb3e 813c
00000070: b023 a6bc 36b0 963d ba58 093d 5aea cb3c
00000080: 8515 7dbc 61d6 873c 0e63 993c 81fd f43b
00000090: 8a74 8b38 d6c9 6fb8 865e 8638 9c80 05b8
000000a0: dc33 c135 6983 ac35 d661 2f34 3ba1 8135
000000b0: 064f eabb 4cb3 733c 04ef 073d 11c9 323c
000000c0: a77d 15b0 fcb2 a530 6e9a 2930 f655 afaf
000000d0: 5157 f73b 1a80 8b3c eb76 4e3b 0504 f23a
000000e0: 27d3 80bc b050 7f3d 0d3a 193d 9976 853c
000000f0: 1866 4ebb 5bb6 fc3c 1c0e 8bbc 260d 993b
00000100: b74a bebc ad99 813d 8526 f93c 4460 973c
00000110: e83f 1abc ac21 363d fb3a 673d 0332 8d3c
00000120: 06e3 96bc fba6 7a3d 667a 033d b2d0 ca3c
00000130: a04d 6fbc a210 363d da16 233d 4f95 713c
00000140: 017a 68bc 7992 803c 5d07 253d 3a9a 0d3c
00000150: 08cd 9eb2 4f70 29b3 e42d e1b2 73c8 b0b0
00000160: d0b9 393c ccc0 643c 61be 89bc b4ef 4d3a
00000170: 847c 17bd ac92 4a3d 0b39 d23d 8613 c43c
00000180: 3cbc d2bc e9b3 c63c 6db7 783d cbe8 d03c
00000190: 28af 293c 850f f23c 0eb7 813c 24c8 293b
000001a0: 9f1e 3b3c 7931 653c 10a9 6ebc ffd9 04bb
000001b0: 0d85 acbb a40d ad3c f334 693c 8c69 263c
000001c0: c4b4 acb9 3f5f d63c 00cb 38bc 6e51 a43b
000001d0: 5b34 0f3c c668 343d ce08 fbbc 7b12 af3b
000001e0: 8e93 053a 7013 413a 9cff 24ba 1610 643a
000001f0: 543d 0dbb d4e7 003c 0b7e 913c 71bc 773b
00000200: cd7c cbbb 567d 163c bbdc 113b 985a bd3b
00000210: d78e 19bc ca89 223d cfad 3a3d 4ae2 813c
00000220: f7a4 f6bc 1663 993d c587 e33c 58d9 b33c
00000230: 7152 81bc e3b7 8f3c a769 7b3c c10e b33b
00000240: 4bfd 9b3c 7bc1 9f3c 54f5 b9bd 594a 2fbc
00000250: 35f8 7a35 a0da 8eb5 ece3 b636 2d71 eab6
00000260: 7e0d 10bd 2bf4 0cbc 84e7 0abd b26f af3b
00000270: 8303 1cbc aa43 823b 1a18 853c 8c9b 103b
00000280: 949c 09bd 1a34 633d d96b 1f3e 64e3 e83c
00000290: 5adf 1bbd 2b6c 473c 0735 02bd e60b 143c
000002a0: 7414 aabc ec73 913d c184 e83c 1c5c df3c
000002b0: c6ef 28bc 98ac 063d ceaf 7d3d a0e8 2b3c
000002c0: 7a10 62bc 80b6 373d f714 b53b 5de8 843c
000002d0: 0f55 0c3a a8f9 633a 4573 3dba 5f6b 703a
000002e0: 5105 6f3c dbac 863d 9cfd eabc c210 903b
000002f0: 65ef 11bd d9fb f43b 52ce cc3c b466 623c
00000300: 56a0 fb3b 2626 933d 78b5 e0bb 80ba 833c
00000310: 5744 483d 6a04 733d 80a3 9fbd 5bb8 aabc
00000320: 8ad1 86bc 29a3 d13c 96ab 913b d842 ad3b
00000330: 491d 9c3c 2309 273d 81b2 60bd f093 11bb
00000340: 3d68 8bbc 2a36 583d 4e91 943d cd7d 993c
00000350: e144 8fbc face 993c 238e d73c b2e3 673c
00000360: 5733 5bbc 9057 ee3c 35da 49bd 2da3 933b
00000370: 3f2c a43c e9ac d63c d1f6 d4bc 8845 eaba
00000380: 5eef 15bc 1bd7 183d 999c 233d 77bf 6c3c
00000390: 3f0f 3bbd 2227 c23d 3720 413e fbfd f03c
000003a0: 4c95 4d3b 10e7 e43b f262 c63c 5660 ee3b
000003b0: 5da1 13bc b547 bf3c 8755 0b3d 12fc df3b
000003c0: c958 dbbb 6956 783c ea2d 283d 0260 d83b
000003d0: c8ff 1fbc 425f 563d fb79 6b3d 816e 963c
000003e0: 8069 08bc ae8e 8e3c 252c 083d 0c6b 2a3c
000003f0: feab 0f3c 172b 4b3c 80ef 4bbc 5014 71bb

exp_avg_sq f4 [64, 4]
0.031343505 0.028137006 0.004643174 0.014505356 0.0759375 0.08344834 0.115524285 0.08941026
0.015071858 0.011954538 0.002834643 0.007072454 0.04917987 0.049215045 0.05972788 0.05038128
1.880225e-05 7.1761526e-05 4.6332112e-05 2.2400644e-05 0.16155052 0.20616834 0.25790754 0.22254005
0.0432864 0.07994867 0.10750674 0.0955452 0.090477966 0.1430993 0.21972345 0.17281131
0.009221633 0.017262936 0.03148647 0.028218038 0.0014956918 0.008480416 0.005090772 0.008301033
0.0027893786 0.004183542 0.00037153557 0.0014734393 0.0046145613 0.002346899 0.0013779859 0.0021767167
0.00015101962 0.00023241005 0.000100905454 0.00017215108 0.047515422 0.047612786 0.027960435 0.018055575
0.122909606 0.117958635 0.17436978 0.15879512 0.054427013 0.06521288 0.09102558 0.06295674
0.08974494 0.07606829 0.14098044 0.09903629 0.026421323 0.028891152 0.05363517 0.041664243
0.10284526 0.12581512 0.16281515 0.121694796 0.043339003 0.062111143 0.09178941 0.071677126
0.0023366124 0.0010663391 0.00089098635 0.0009330485 0.0058898837 0.0036652714 0.0014887988 0.0038093366
0.014570443 0.020789837 0.022519523 0.014226283 0.025257707 0.04153841 0.06963836 0.05788052
0.00890704 0.0040953686 0.009856171 0.0060357004 0.014335529 0.020872813 0.026782122 0.020452946
0.03042841 0.036653064 0.05345395 0.04130503 0.0153410835 0.024807082 0.03596618 0.03227283
0.026313685 0.04055622 0.06658269 0.053079173 0.050938163 0.069086805 0.08940217 0.069489576
0.0060079033 0.010063894 0.0058183847 0.0104974015 0.0022345237 0.00048747522 0.00042778702 0.00088631
3.9445877e-05 7.9102276e-05 0.0011875225 0.0010987737 0.02903937 0.028596498 0.05441111 0.038661275
0.11167996 0.13460915 0.20426798 0.15586843 0.0029656133 0.0022341753 0.003003669 0.001830837
0.029035173 0.036785964 0.054291647 0.038755614 5.6945657e-05 6.0882827e-05 9.7616175e-05 4.2302672e-05
0.0069640484 0.0019914284 0.009849742 0.00843857 0.0021427227 0.00072307256 0.0004507895 0.0016318163
0.0484845 0.08193642 0.108008705 0.12322499 0.017937379 0.01000267 0.050299626 0.021884931
0.12380007 0.14897299 0.19924812 0.15481289 0.015505669 0.008997395 0.015602064 0.011468383
0.091120794 0.11696488 0.16482086 0.12486437 0.022738406 0.038249794 0.022035582 0.03941099
0.08606138 0.07673165 0.08618185 0.042145938 0.008447508 0.019946504 0.036312502 0.02997656
0.14365447 0.20221235 0.25541475 0.19576003 0.14352535 0.19158904 0.14378992 0.1374785
0.01931013 0.029711459 0.032706317 0.030055014 0.05148675 0.0638629 0.092537165 0.068625405
0.05190757 0.07241551 0.08979735 0.089760676 0.0058836043 0.006377364 0.01568072 0.014187545
0.07853226 0.08189667 0.115080364 0.094476394 0.078625076 0.078697726 0.13574982 0.11972811
0.025143724 0.017604627 0.04871636 0.024824265 0.14122207 0.13117331 0.18894014 0.1695857
0.0061052428 0.007728788 0.008419665 0.0006639254 0.013973009 0.026643638 0.03701393 0.04874806
0.00844038 0.017605558 0.020718642 0.023780715 0.060176924 0.07119777 0.07609726 0.05826169
0.012147029 0.008135928 0.00205546 0.00659764 0.025851974 0.024560072 0.017566202 0.015452839
00000000: 0c62 003d 947f e63c c425 983b dfa7 6d3c
00000010: 1f85 9b3d f7e6 aa3d ff97 ec3d ba1c b73d
00000020: f4ef 763c f7dc 433c 6bc5 393b 0bc0 e73b
00000030: d570 493d b795 493d 39a5 743d 9a5c 4e3d
00000040: 86b9 9d37 ad7e 9638 ba54 4238 04e9 bb37
00000050: 806d 253e cb1d 533e 750c 843e 8ae1 633e
00000060: 154d 313d 21bc a33d 7e2c dc3d 34ad c33d
00000070: 834c b93d 9f88 123e 2fff 603e 73f5 303e
00000080: 5516 173c 006b 8d3c f5f7 003d 8429 e73c
00000090: 170b c43a 71f1 0a3c 7ed0 a63b 0e01 083c
000000a0: 02ce 363b 1816 893b a9ca c239 6b20 c13a
000000b0: bf35 973b 6ece 193b 899d b43a 3fa7 0e3b
000000c0: 055b 1e39 19b3 7339 349d d338 7483 3439
000000d0: 889f 423d a005 433d 480d e53c 49e9 933c
000000e0: 08b8 fb3d 4c94 f13d fe8d 323e 309b 223e
000000f0: dcee 5e3d 558e 853d 9f6b ba3d 77ef 803d
00000100: 32cc b73d b1c9 9b3d 2d5d 103e 8ad3 ca3d
00000110: 8871 d83c 23ad ec3c 8db0 5b3d 20a8 2a3d
00000120: 89a0 d23d aed5 003e 04b9 263e 1f3b f93d
00000130: 3d84 313d 4168 7e3d 16fc bb3d 75cb 923d
00000140: da21 193b 67c4 8b3a 1591 693a d397 743a
00000150: edff c03b 0d35 703b cc23 c33a 10a6 793b
00000160: deb8 6e3c 734f aa3c dd7a b83c 5b15 693c
00000170: 40e9 ce3c 2e24 2a3d 8e9e 8e3d 2014 6d3d
00000180: d5ee 113c 7132 863b c77b 213c 20c7 c53b
00000190: 91df 6a3c 76fd aa3c 2e66 db3c f08c a73c
000001a0: 0045 f93c 8621 163d 87f2 5a3d 772f 293d
000001b0: 2b59 7b3c 3938 cb3c 4651 133d 8430 043d
000001c0: cc8f d73c 471e 263d 815c 883d 8c69 593d
000001d0: 89a4 503d 627d 8d3d 7c18 b73d 8d50 8e3d
000001e0: f2dd c43b 08e3 243c 26a8 be3b 4bfd 2b3c
000001f0: 1671 123b d193 ff39 9a48 e039 4257 683a
00000200: b072 2538 b6e3 a538 a5a6 9b3a ba04 903a
00000210: f9e3 ed3c 3443 ea3c 2fde 5e3d 495b 1e3d
00000220: 76b8 e43d fbd6 093e a02b 513e f99b 1f3e
00000230: bc5a 423b 3e6b 123b 34d9 443b b2f8 ef3a
00000240: 2cdb ed3c e1ac 163d eb60 5e3d 35be 1e3d
00000250: efd8 6e38 705c 7f38 49b7 cc38 266e 3138
00000260: ac32 e43b a082 023b d060 213c ee41 0a3c
00000270: ec6c 0c3b 948c 3d3a f157 ec39 abe2 d53a
00000280: af97 463d 48ce a73d ab33 dd3d 625d fc3d
00000290: 69f1 923c 3de2 233c fb06 4e3d 0748 b33c
000002a0: e48a fd3d 608c 183e b307 4c3e 4587 1e3e
000002b0: 7d0b 7e3c cf69 133c cd9f 7f3c e2e5 3b3c
000002c0: 8a9d ba3d 488b ef3d cdc6 283e e4b8 ff3d
000002d0: e545 ba3c d1ab 1c3d f783 b43c 6b6d 213d
000002e0: f340 b03d 7c25 9d3d 1c80 b03d 38a1 2c3d
000002f0: 6b67 0a3c da66 a33c 6bbc 143d 6791 f53c
00000300: 281a 133e c110 4f3e b9c5 823e 5175 483e
00000310: 4ff8 123e eb2f 443e aa3d 133e 2ac7 0c3e
00000320: 4730 9e3c 7265 f33c 0ff7 053d ef35 f63c
00000330: c5e3 523d 8dca 823d 2084 bd3d 7a8b 8c3d
00000340: 089d 543d 954e 943d ace7 b73d 72d4 b73d
00000350: 40cb c03b 35f9 d03b da74 803c e072 683c
00000360: 86d5 a03d 71b9 a73d 41af eb3d d77c c13d
00000370: 2f06 a13d 462c a13d 0002 0b3e 0334 f53d
00000380: 36fa cd3c 9437 903c ce8a 473d 425c cb3c
00000390: 859c 103e 4c52 063e 8679 413e e0a7 2d3e
000003a0: 7d0e c83b c641 fd3b a2f2 093c 480b 2e3a
000003b0: 0cef 643c c243 da3c eb9b 173d 0cac 473d
000003c0: 8549 0a3c 8839 903c 24ba a93c c6cf c23c
000003d0: 147c 763d 23d0 913d e1d8 9b3d cfa3 6e3d
000003e0: 5504 473c 8e4c 053c e5b4 063b 0431 d83b
000003f0: 85c7 d33c 3432 c93c ffe6 8f3c e82d 7d3c

exp_avg f4 [64]
-1.4033201e-05 -0.008479035 -8.596801e-06 0.028328808 -7.4265913e-09 0.038451865 -0.061557904 -0.06140468
-0.02321933 -4.1249117e-05 1.7802297e-06 -0.047185093 1.7128509e-09 0.0006567024 -0.057970732 0.02425503
-0.056398194 -0.069395214 -0.05194854 -0.05218863 -0.05375571 -5.971836e-08 0.0180519 -0.12921275
-0.08403659 -0.016235417 0.01649082 -0.02485762 0.0038728039 0.018955685 0.0010616551 -0.022149703
-0.011544521 -0.051184706 -0.057816084 -0.036120616 0.10051528 -6.9802213e-06 0.017657211 -0.01948335
-0.17862564 0.018132348 -0.053713147 -0.08023311 -0.0042382213 0.0012171871 0.012281586 -0.04266178
-0.011369187 0.09231787 -0.013723747 0.057314873 -0.08695382 -0.043501686 0.0368434 0.03142894
-0.05374433 -0.220369 -0.022299398 -0.04685947 -0.04423534 -0.06673721 -0.049135335 0.01520493
00000000: 2470 6bb7 a7eb 0abc fb3a 10b7 d111 e83c
00000010: fd2c ffb1 b47f 1d3d 2424 7cbd 7983 7bbd
00000020: 7736 bebc e702 2db8 3af0 ee35 2845 41bd
00000030: 9569 eb30 8d26 2c3a b872 6dbd 7cb2 c63c
00000040: cb01 67bd 141f 8ebd fec7 54bd bfc3 55bd
00000050: f32e 5cbd 843e 80b3 94e1 933c 5950 04be
00000060: 601b acbd 2300 85bc c217 873c 35a2 cbbc
00000070: dece 7d3b f448 9b3c 3c27 8b3a 4b73 b5bc
00000080: 3b25 3dbc 0ea7 51bd 8fd0 6cbd 36f3 13bd
00000090: f5da cd3d a537 eab6 dba5 903c 8c9b 9fbc
000000a0: a4e9 36be 4a8a 943c 5102 5cbd 4251 a4bd
000000b0: c7e0 8abb 068a 9f3a b538 493c 1ebe 2ebd
000000c0: d445 3abc 2711 bd3d 91d9 60bc 00c3 6a3d
000000d0: d814 b2bd d32e 32bd 1be9 163d a2bb 003d
000000e0: 0423 5cbd 69a8 61be 3aad b6bc b7ef 3fbd
000000f0: 1e30 35bd 85ad 88bd 2242 49bd 191e 793c

exp_avg_sq f4 [64]
0.056912802 0.21065119 0.029583236 0.1168578 0.00019549944 0.47232163 0.16803049 0.33224583
0.045425232 0.012634441 0.0062046344 0.012212855 0.0005885044 0.087110505 0.33313456 0.15218987
0.24466556 0.08582045 0.28851736 0.14592591 0.004438255 0.013307567 0.0414291 0.10463048
0.023112746 0.043468688 0.087188475 0.055902947 0.10380474 0.15793207 0.01876498 0.0047165025
0.0017498741 0.08538865 0.36285776 0.010817593 0.087879784 0.0002600733 0.02211203 0.0029991695
0.18460244 0.06495436 0.36305285 0.03383261 0.27603984 0.07258795 0.18013741 0.0519582
0.44147724 0.35399684 0.060564063 0.15490527 0.16364153 0.023684178 0.20878059 0.23765689
0.07289204 0.36870906 0.0125367 0.062436048 0.034620553 0.15006481 0.021465436 0.04841137
00000000: 661d 693d f2b4 573e 8b58 f23c 2453 ef3d
00000010: fbfe 4c39 24d4 f13e 2f10 2c3e 201c aa3e
00000020: cf0f 3a3d b000 4f3c 3f50 cb3b 6d18 483c
00000030: dd45 1a3a fe66 b23d 9d90 aa3e a9d7 1b3e
00000040: 9c89 7a3e a2c2 af3d 8cb8 933e 9a6d 153e
00000050: c86e 913b fb07 5a3c 8fb1 293d 8148 d63d
00000060: f156 bd3c 390c 323d df8f b23d 7dfa 643d
00000070: 9497 d43d f2b8 213e 04b9 993c e48c 9a3b
00000080: 085c e53a 3fe0 ae3d 7ec8 b93e 463c 313c
00000090: 51fa b33d 735a 8839 4a24 b53c b78d 443b
000000a0: 6c08 3d3e cb06 853d 10e2 b93e 1094 0a3d
000000b0: 1855 8d3e fea8 943d f175 383e 1fd2 543d
000000c0: 4e09 e23e 133f b53e 0612 783d 7d9f 1e3e
000000d0: a591 273e 5205 c23c 94ca 553e 545c 733e
000000e0: 6c48 953d 6fc7 bc3e bb66 4d3c f1bc 7f3d
000000f0: 48ce 0d3d 97aa 193e 48d8 af3c 004b 463d

exp_avg f4 [64, 64]
-7.00321e-08 0.0013907283 -1.7137984e-07 0.0016633687 -7.145102e-10 0.005676818 0.0035793472 0.0043634283
0.0006258102 -1.9636082e-06 -1.4019984e-07 -1.7246292e-09 -5.0311866e-10 0.0032667841 0.01272208 0.0065283147
0.0036755304 0.0023041945 0.01333366 0.007095438 4.7704656e-05 -2.0455158e-09 0.0045615532 0.001034089
0.000191221 0.005367783 0.0009979649 0.0023446816 0.005422221 0.010726113 2.2860595e-05 -2.5639757e-10
-4.185448e-06 0.0022226358 0.0035764403 -3.944834e-10 0.0017757423 3.6070396e-09 9.825526e-07 -1.5745162e-13
0.008349994 0.00010345946 0.010837878 0.0009304245 0.011325552 2.9610812e-05 0.007054115 0.00018791192
0.012661866 0.0025657334 0.0058937287 0.0090047 0.012670496 0.00093717664 0.0012468155 0.0022121456
0.004712593 0.00036967784 0.0011537569 0.0030318873 0.006983379 0.010027801 -1.10729745e-08 0.0011117719
8.795543e-08 0.0015762688 5.2090687e-08 0.00093155395 -2.9469863e-10 0.0041692937 0.0035326679 0.0056494027
0.0012087731 2.0550726e-06 3.9179838e-08 -8.847619e-10 -2.3887456e-10 0.0023972627 0.00971404 0.0047582844
0.0024291573 0.0020064192 0.011837541 0.0077181235 -3.717197e-05 -9.298378e-10 0.0038119701 0.002696042
0.00015955717 0.0041683014 0.0008723995 0.0031009228 0.007418442 0.009327687 2.9141396e-05 -1.1435635e-10
0.00043769003 0.0034747978 0.0033952002 0.00021901341 0.0013889086 -5.84472e-07 0.001190934 -6.3965767e-06
0.00796932 0.00265934 0.008707628 -0.0005173106 0.007503675 1.8448909e-05 0.0051943385 0.001230628
0.009734062 0.0016546198 0.00536644 0.00826529 0.008917451 0.0024067257 0.0017591595 0.001602105
0.00769553 0.00094652054 0.0012325482 0.0038911179 0.0062713088 0.0068371724 6.14293e-09 0.00061224005
-9.617464e-07 -0.0058128107 -8.676418e-07 0.0011350854 -1.0256198e-10 9.4378236e-05 -0.01849593 -0.024389906
-0.0037691316 -6.738519e-06 -5.2471415e-07 -0.0009817828 4.2074785e-12 0.00031879716 -0.013050602 -0.0029485836
-0.03714477 -0.0031933035 -0.025183786 -0.039290648 -0.004836506 -5.7239685e-10 -0.0027427522 -0.013111381
-0.010416594 -0.00096804503 5.3046565e-06 -0.013558081 -0.023768095 -0.011210932 -3.1031195e-05 -0.0007930274
-0.002099367 -0.02718601 -0.010197059 -0.0038962574 0.00012174259 -6.333187e-07 -0.01362741 -0.004038223
-0.03832392 -0.019514626 -0.020072276 -0.022634706 -0.0038396735 4.1415056e-05 -0.00660591 -0.014364966
-0.016952109 0.0015204265 -0.0072274026 -0.018033518 -0.0227686 -0.027824355 -0.006872511 0.00074080133
-0.0402361 -0.004076526 -0.0008374927 -0.01801025 -0.014104857 -0.007700315 -0.00044086663 0.00082726794
-5.9166257e-07 -0.0046803323 -6.084031e-07 0.0015002367 -6.0329663e-10 0.0035740205 -0.00848298 -0.009771102
-0.00139139 -6.3633834e-06 -4.0065325e-07 -0.0011877507 -4.3051593e-10 0.0019728006 -0.0023715692 0.001066732
-0.024435624 -0.0008171095 -0.0069057792 -0.021070786 -0.004489363 -1.9522612e-09 0.0016094912 -0.0067167333
-0.0049217585 0.0013942494 0.00053789857 -0.004809418 -0.0076649436 0.00392244 -1.555365e-05 -0.00042187225
-0.0011999848 -0.013111329 -0.004802374 -0.002143537 0.001253587 3.0377962e-09 -0.0053334474 -0.0015316476
-0.02550276 -0.0076386705 -0.0075842836 -0.019031955 0.0031743161 4.547161e-05 -0.00048216677 -0.0048913537
-0.0013108468 0.002375756 0.0030649863 -0.00086064596 -0.010657833 -0.015458001 -0.0049445317 0.0020549695
-0.020408677 -0.0037164427 0.00015012796 -0.006609759 -0.005749456 -0.000859588 -0.00059384695 0.0010975227
00000000: 8e64 96b3 1949 b63a 8804 38b4 6405 da3a
00000010: 2f67 44b0 9a04 ba3b 7b93 6a3b 17fb 8e3b
00000020: 690d 243a 88c6 03b6 d789 16b4 ff07 edb0
00000030: d44b 0ab0 8b17 563b 4570 503c 79eb d53b
00000040: 2be1 703b f801 173b 6c75 5a3c d980 e83b
00000050: 7c16 4838 1891 0cb1 1579 953b 458a 873a
00000060: 7f82 4839 3ae4 af3b 25ce 823a 3ba9 193b
00000070: e3ac b13b 94bc 2f3c c1c4 bf37 c0f4 8caf
00000080: b970 8cb6 a4a9 113b b662 6a3b 9ade d8af
00000090: 06c0 e83a b6df 7731 40e0 8335 5746 31aa
000000a0: 6ace 083c 60f8 d838 5b91 313c bbe7 733a
000000b0: cf8e 393c bc64 f837 3526 e73b 390a 4539
000000c0: b773 4f3c dd25 283b 2e20 c13b 7388 133c
000000d0: e997 4f3c dcac 753a 306c a33a a5f9 103b
000000e0: 186c 9a3b 52d1 c139 a839 973a a1b2 463b
000000f0: d4d4 e43b a54b 243c 753b 3eb2 e0b8 913a
00000100: 02e2 bc33 ce9a ce3a 51ba 5f33 8733 743a
00000110: 2503 a2af 929e 883b 5584 673b a01e b93b
00000120: b26f 9e3a e1e9 0936 b046 2833 9533 73b0
00000130: 9b52 83af 651b 1d3b a327 1f3c 62eb 9b3b
00000140: 7f32 1f3b 217e 033b 3ff2 413c 50e8 fc3b
00000150: 19e9 1bb8 8597 7fb0 3fd2 793b 14b0 303b
00000160: cd4e 2739 3f96 883b bdb1 643a da38 4b3b
00000170: 6716 f33b 28d3 183c ac74 f437 e778 fbae
00000180: c379 e539 6fb9 633b 0282 5e3b f7a6 6539
00000190: 0a0c b63a 9ce4 1cb5 1d19 9c3a 2da2 d6b6
000001a0: c091 023c 5248 2e3b 70aa 0e3c 209c 07ba
000001b0: 63e1 f53b bbc2 9a37 4535 aa3b 064d a13a
000001c0: 9d7b 1f3c d4df d83a f6d8 af3b 246b 073c
000001d0: 801a 123c 28ba 1d3b 9993 e63a b9fd d13a
000001e0: c92a fc3b eb1f 783a 748d a13a 2002 7f3b
000001f0: 8d7f cd3b 5c0a e03b c911 d331 bc7e 203a
00000200: 5b15 81b5 6479 bebb e4e7 68b5 25c7 943a
00000210: 4389 e1ae eeec c538 c784 97bc 57cd c7bc
00000220: 8903 77bb 701b e2b6 15da 0cb5 2aaf 80ba
00000230: 9909 942c 3b24 a739 31d2 55bc 063d 41bb
00000240: 1d25 18bd be46 51bb 3a4e cebc 3bef 20bd
00000250: 8e7b 9ebb d956 1db0 bfbf 33bb 1ed1 56bc
00000260: 5daa 2abc 67c4 7dba a7fe b136 b722 5ebc
00000270: 4fb5 c2bc 0fae 37bc 7e27 02b8 2be3 4fba
00000280: 8995 09bb 32b5 debc 9111 27bc 5a58 7fbb
00000290: 0e50 ff38 5401 2ab5 8045 5fbc 1253 84bb
000002a0: 8bf9 1cbd 23dd 9fbc 9d6e a4bc 6b6c b9bc
000002b0: 08a3 7bbb 14b5 2d38 6476 d8bb 095b 6bbc
000002c0: 26df 8abc 0c49 c73a d9d3 ecbb 07bb 93bc
000002d0: 3785 babc e7ef e3bc cd32 e1bb 5632 423a
000002e0: 9cce 24bd 6194 85bb 2f8b 5bba 3b8a 93bc
000002f0: 0f18 67bc ed52 fcbb 1e24 e7b9 03dd 583a
00000300: bed2 1eb5 795d 99bb 2551 23b5 97a3 c43a
00000310: 3ad5 25b0 1d3a 6a3b 32fc 0abc f916 20bc
00000320: 4d5f b6ba 0c85 d5b6 5d19 d7b4 4dae 9bba
00000330: bbad ecaf 1a4a 013b 546c 1bbb 96d1 8b3a
00000340: 382d c8bc 4a33 56ba e049 e2bb a49c acbc
00000350: 821b 93bb 8b28 06b1 90f5 d23a 0b18 dcbb
00000360: b446 a1bb 3fbf b63a c301 0d3a 5398 9dbb
00000370: 352a fbbb d087 803b 3679 82b7 bc2e ddb9
00000380: cf48 9dba e6d0 56bc 3c5d 9dbb 957a 0cbb
00000390: 664f a43a 7ac1 5031 33c4 aebb 91c1 c8ba
000003a0: 2aeb d0bc d04d fabb 9585 f8bb e7e8 9bbc
000003b0: 3008 503b c5b8 3e38 54cb fcb9 a647 a0bb
000003c0: b8d0 abba 92b2 1b3b f0dd 483b f99c 61ba
000003d0: 319e 2ebc 8e43 7dbc bd05 a2bb abac 063b
000003e0: 1930 a7bc 908f 73bb ab6b 1d39 ad96 d8bb
000003f0: ef65 bcbb f955 61ba 65ac 1bba c0da 8f3a

exp_avg_sq f4 [64, 64]
0.0004160995 0.0023459652 0.0005110808 0.0025187163 2.1908068e-06 0.005641842 0.00032242484 0.0014766558
0.0008444627 3.7526373e-05 3.9916715e-05 0.0010365747 1.9012609e-06 0.0013913254 0.0077478117 0.009648897
0.002840328 0.0022376226 0.01205488 0.0046873023 0.0013346319 3.7738522e-05 0.00063183054 0.0014331405
3.0345129e-05 0.005032398 0.0018388876 0.0036649676 0.0014000841 0.010750025 0.000117217016 0.00048416766
5.4254942e-05 0.0015660812 0.0011457955 2.7180438e-05 0.0031320308 1.4315376e-07 0.0001796968 0.00012006555
0.006436443 0.00021187513 0.01019634 0.0025114056 0.010104107 0.00042805297 0.0021165994 0.00040816315
0.009586091 0.002261853 0.00450049 0.0050193206 0.005668744 0.0002454958 0.0029230698 0.002193702
0.0004043096 0.002178988 0.00016626304 0.0031200156 0.005928751 0.00369553 0.00038414367 0.0025322032
0.00033982535 0.0026429847 0.00043077132 0.0017494337 5.642241e-07 0.0056314566 0.0002300919 0.0013425985
0.000985025 8.975814e-06 1.8958912e-05 0.0010118503 5.69205e-07 0.000528847 0.006371263 0.010932357
0.0024974998 0.0027805527 0.013136899 0.0049132076 0.0012999467 2.8874e-05 0.0004112633 0.0018708145
2.7780188e-05 0.005717884 0.0025260467 0.00442879 0.0009136911 0.010573555 6.37364e-05 0.00042095807
5.8630838e-05 0.0018247049 0.0011182771 2.3348799e-05 0.0038869272 1.8445495e-07 0.00019792748 0.000100506615
0.006621764 0.00023537461 0.010239631 0.0025662645 0.008540143 0.00019154395 0.0013770246 0.00046561385
0.009094871 0.0014329493 0.005439233 0.004319717 0.0048621036 0.00012675824 0.0036593005 0.002085938
0.0002976186 0.0023439927 8.215917e-05 0.003781804 0.0066751144 0.0021298404 0.00034078502 0.0017140814
0.0003199516 0.0043293405 0.00041255236 0.0029543496 9.856864e-08 0.011029041 0.0005370668 0.0029024
0.0008926081 1.1270928e-05 3.7172515e-05 0.00071358535 1.0654298e-07 0.0009787913 0.0101879295 0.018505245
0.0020831479 0.0033574074 0.023332156 0.0052347616 0.0009349655 2.8830756e-05 0.0007998717 0.0023939274
4.4918965e-05 0.009897316 0.004259466 0.0057467856 0.0022548889 0.01484299 0.00017183775 0.00015127704
1.4559236e-05 0.0016249086 0.0019060174 2.3725761e-05 0.006571587 2.1697863e-07 0.0001550573 2.5410642e-05
0.011644499 0.00013705058 0.013871503 0.001998501 0.019351033 0.00045347097 0.0018190264 0.00018856386
0.013743946 0.0029970484 0.010648543 0.007443513 0.0078453915 0.00029789424 0.0045141387 0.003375578
0.000752526 0.0030572258 0.00012650607 0.0058979215 0.009912969 0.00392427 0.00043307923 0.00278332
0.00019706154 0.0017721914 0.0002407497 0.0017455289 1.5796487e-06 0.0048102518 0.0003538302 0.0015389584
0.0008309267 2.6574084e-05 2.869943e-05 0.00037790218 1.4508203e-06 0.0009246624 0.0060624746 0.008488871
0.0018945661 0.0020474487 0.01101175 0.0044841883 0.000502097 1.9063244e-05 0.0005152979 0.0013850465
3.03677e-05 0.005694157 0.0016848176 0.0034074157 0.001414394 0.009622953 9.6780794e-05 0.00018825846
4.8055572e-05 0.0013300555 0.0009229128 1.454113e-05 0.0029515084 1.4751098e-09 0.00010234995 4.84678e-05
0.0060823895 0.00021827187 0.008377502 0.0010024703 0.0077885035 0.00033697058 0.0013190449 0.00040126478
0.009686501 0.0015972485 0.0044893 0.003848253 0.0043200017 0.0002720505 0.0023526468 0.0016097132
0.00051164103 0.001497827 9.700957e-05 0.003222135 0.0054615918 0.0026306848 0.0001860287 0.0015990655
00000000: ee27 da39 c4be 193b 0dfa 053a 0c11 253b
00000010: c605 1336 33df b83b 210b a939 598c c13a
00000020: ef5e 5d3a a365 1d38 3f6c 2738 addd 873a
00000030: d42e ff35 225d b63a 5be1 fd3b 6816 1e3c
00000040: cc24 3a3b 14a5 123b d581 453c f197 993b
00000050: d1ee ae3a 6e49 1e38 6ea1 253a 37d8 bb3a
00000060: ab8d fe37 d0e6 a43b d406 f13a f42f 703b
00000070: 0783 b73a df20 303c 68d2 f538 e2d7 fd39
00000080: cd8f 6338 f744 cd3a 842e 963a 8c01 e437
00000090: c242 4d3b ceb5 1934 fe6c 3c39 b4cb fb38
000000a0: cce8 d23b cc2a 5e39 8d0e 273c 6596 243b
000000b0: b28b 253c 4c6c e039 a5b6 0a3b bbfe d539
000000c0: fb0e 1d3c 993b 143b d978 933b 1d79 a43b
000000d0: dfc0 b93b e3b5 8039 f990 3f3b 36c4 0f3b
000000e0: 84f9 d339 5acd 0e3b e556 2e39 2d79 4c3b
000000f0: f845 c23b b430 723b e466 c939 52f3 253b
00000100: 962a b239 ed35 2d3b 26d9 e139 414d e53a
00000110: 2f75 1735 1588 b83b d344 7139 21fa af3a
00000120: f41b 813a d496 1637 f409 9f37 10a0 843a
00000130: 78cb 1835 52a2 0a3a 07c6 d03b a11d 333c
00000140: 18ad 233b ef39 363b 263c 573c f9fe a03b
00000150: f962 aa3a 7136 f237 d39e d739 1e36 f53a
00000160: 8009 e937 165d bb3b 088c 253b 621f 913b
00000170: c684 6f3a b43c 2d3c 38aa 8538 09b4 dc39
00000180: 62ea 7538 f02a ef3a 2793 923a 2add c337
00000190: d1bb 7e3b 970e 4634 c18a 4f39 14c7 d238
000001a0: 62fb d83b e4ce 7639 20c4 273c c62e 283b
000001b0: f5eb 0b3c 30d9 4839 477d b43a a21d f439
000001c0: a702 153c cdd1 bb3a 983b b23b 6a8c 8d3b
000001d0: 4852 9f3b 68ea 0439 e0d0 6f3b 3bb4 083b
000001e0: b109 9c39 ac9d 193b de4c ac38 24d8 773b
000001f0: ebba da3b cb94 0b3b 64ab b239 07ab e03a
00000200: 2dbf a739 24dd 8d3b d74b d839 c39d 413b
00000210: afac d333 27b3 343c f1c9 0c3a 3136 3e3b
00000220: eafd 693a 4418 3d37 afe9 1b38 e70f 3b3a
00000230: 9fcc e433 c94a 803a 46eb 263c 5098 973c
00000240: 6c85 083b f307 5c3b 1423 bf3c 5d88 ab3b
00000250: 7918 753a 94d9 f137 7bae 513a 70e3 1c3b
00000260: 5f67 3c38 5a28 223c fe92 8b3b 884f bc3b
00000270: c2c6 133b 0330 733c 582f 3439 1fa0 1e39
00000280: 7143 7437 e3fa d43a 55d3 f93a af06 c737
00000290: 7856 d73b a2fa 6834 e196 2239 f028 d537
000002a0: 92c8 3e3c 3cb5 0f39 4d45 633c 48f9 023b
000002b0: 0f86 9e3c d8bf ed39 666c ee3a 3ab9 4539
000002c0: 4a2e 613c 216a 443b 3a77 2e3c b6e8 f33b
000002d0: f589 003c b02e 9c39 57eb 933b cd38 5d3b
000002e0: 2a45 453a bd5b 483b b7a6 0439 5a43 c13b
000002f0: 016a 223c 2a97 803b e90e e339 5c68 363b
00000300: 4ea2 4e39 e048 e83a c171 7c39 3bca e43a
00000310: 5104 d435 519f 9d3b 4982 b939 e0b6 c93a
00000320: 8cd2 593a 69eb de37 8ebf f037 2c21 c639
00000330: ceb9 c235 0b65 723a b9a7 c63b e814 0b3c
00000340: 1753 f83a 7d2e 063b a16a 343c 19f0 923b
00000350: 299f 033a 01ea 9f37 0f15 073a 738a b53a
00000360: 24be fe37 0d96 ba3b 19d5 dc3a f34e 5f3b
00000370: 3063 b93a 97a9 1d3c cbf6 ca38 3f67 4539
00000380: 478f 4938 4255 ae3a a1ef 713a aef5 7337
00000390: 186e 413b d0bc ca30 b6a4 d638 e749 4b38
000003a0: c84e c73b e9df 6439 ca41 093c 5265 833a
000003b0: b436 ff3b 6dab b039 cde3 ac3a d960 d239
000003c0: 21b4 1e3c c45a d13a fa1a 933b f932 7c3b
000003d0: cd8e 8d3b 00a2 8e39 dd2e 1a3b 03fd d23a
000003e0: a61f 063a bc52 c43a 9e71 cb38 742a 533b
000003f0: 27f7 b23b 9167 2c3b b310 4339 bc97 d13a

exp_avg f4 [64]
0.023117345 0.02094318 -0.09196654 -0.045541245 1.0954923e-09 -0.014265265 3.0773348e-09 -4.3401776e-09
0.008463899 7.189112e-06 0.0024763949 0.0001119419 -0.0106342295 3.3261051e-06 0.0029017362 0.02381333
0.019410487 -0.040733673 8.777811e-12 -0.071538135 -0.00021281984 0.018250288 0.011033145 0.023990566
0.034009945 -0.027292242 -0.07167517 -0.01582709 4.5888387e-07 5.431194e-10 -0.0025821556 0.006423712
-0.05930589 -0.02348446 0.00021267212 -0.04180717 3.9065888e-14 0.007966891 0.006782212 4.995949e-05
2.332225e-07 -2.4209401e-05 2.9177838e-05 -0.00046908954 0.009708733 -0.05366296 7.089866e-11 0.047940843
1.3536836e-08 -0.055234335 0.023073178 -0.023563584 -0.025250753 -0.034672357 -0.022192435 -0.0047067385
1.4694904e-10 -0.02444816 1.9200497e-09 0.0056931498 1.5315434e-10 0.0014471655 -4.8492116e-06 6.70713e-05
00000000: 9660 bd3c 0891 ab3c f458 bcbd 7589 3abd
00000010: 3590 9630 dcb8 69bc 0c79 5331 9b20 95b1
00000020: 2aac 0a3c 003a f136 034b 223b 5ac2 ea38
00000030: 313b 2ebc 0d36 5f36 0e2b 3e3b 2c14 c33c
00000040: be02 9f3c 5ad8 26bd bf6b 1a2d 9682 92bd
00000050: 6428 5fb9 a181 953c 5dc4 343c dd87 c43c
00000060: 034e 0b3d fb93 dfbc 6eca 92bd d0a7 81bc
00000070: 855c f634 a14a 1530 6239 29bb 007e d23b
00000080: bcea 72bd 7b62 c0bc bd00 5f39 ff3d 2bbd
00000090: e7ef 2f29 9087 023c 513d de3b 988b 5138
000000a0: b66b 7a34 4b15 cbb7 eec2 f437 22f0 f5b9
000000b0: 6111 1f3c b1cd 5bbd 66e8 9b2e 9e5d 443d
000000c0: a28f 6832 663d 62bd f603 bd3c 6b08 c1bc
000000d0: abda cebc 9a04 0ebd e9cc b5bc fc3a 9abb
000000e0: 7a92 212f 8247 c8bc dff1 0331 9a8d ba3b
000000f0: 1d65 282f d1ae bd3a 69b6 a2b6 a1a8 8c38
