gen_4_agent_4.pt (torch, 64207 bytes, 18 tensors)

net.0.weight f4 [64, 4]
0	0xbe29b2d9	-0.16572131
1	0x3c3c1b7e	0.011481164
2	0x3e54d568	0.20784533
3	0x3e284b70	0.16435027
4	0x3c3b7b47	0.011442966
5	0x3eb41af4	0.35176814
6	0xbc5dfe85	-0.013549452
7	0xbeafe56e	-0.34354728
8	0x3e6bfc38	0.23045433
9	0x3dd71e13	0.10503783
10	0xbe76d20f	-0.24103568
11	0x3ea71954	0.3263651
12	0x3e0f6a14	0.1400531
13	0x3ddd0447	0.107918315
14	0xbb4b4908	-0.0031018872
15	0xbe844d67	-0.25840303
16	0xbe93b5bb	-0.28849587
17	0xbd9b61b1	-0.075869925
18	0xbe8f43ad	-0.2798132
19	0xbe041cd1	-0.12901618
20	0xbe0f56a7	-0.13997899
21	0x3de32ed5	0.11092917
22	0x3e153f29	0.14574875
23	0xbd2ef1b5	-0.04271098
24	0xbe0e40e0	-0.13891935
25	0xbd882e58	-0.06649464
26	0xbc1d8178	-0.009613387
27	0xbcafc81d	-0.021457726
28	0xbdae7431	-0.085182555
29	0xbe7897f5	-0.24276717
30	0xbe2b3105	-0.16717918
31	0x3e30811f	0.17236756
32	0xbd93d7c6	-0.0721889
33	0x3e3a5fe5	0.18200643
34	0xbc86ea9c	-0.016469292
35	0xbeb74174	-0.35792124
36	0x3dfe1738	0.124067724
37	0x3b45140b	0.003007176
38	0x3e22ee91	0.15911318
39	0xbe10589b	-0.140963
40	0xbe99935f	-0.29995248
41	0x3e591e09	0.21202864
42	0xbcc96888	-0.024585977
43	0xbd66df1d	-0.05636512
44	0xbe4b6094	-0.1986106
45	0x3e629850	0.22128415
46	0xbe239b06	-0.15977105
47	0x3e1d3a68	0.15354311
48	0x3d3dfb32	0.046382137
49	0x3ea05ed0	0.31322336
50	0x3e1629f9	0.14664449
51	0xbe928768	-0.28618932
52	0xbe9ecade	-0.3101415
53	0x3e24d01c	0.16095012
54	0x3e23bdee	0.15990421
55	0xbdfe05cd	-0.1240345
56	0x3e8ac452	0.27102906
57	0x3e01c0db	0.12671225
58	0x3e6e7d51	0.23289992
59	0xbe4fc217	-0.20288883
60	0xbe8b48f4	-0.27204096
61	0x3d2a0f73	0.04151864
62	0x3e96940b	0.29409823
63	0x3e599ea7	0.21251927
64	0xbe99956e	-0.29996818
65	0xbea4193b	-0.320505
66	0xbe9ce245	-0.3064138
67	0x3ea6c283	0.32570276
68	0xbdaf3540	-0.085550785
69	0x3d29e27f	0.04147577
70	0x3e6034ec	0.21895188
71	0x3bcbe66f	0.006222538
72	0xbdeb388b	-0.11485394
73	0xbe6cf08a	-0.23138633
74	0x3e3df38c	0.18549937
75	0x3e8e1f0f	0.2775807
76	0xbe82d0e3	-0.25549993
77	0x3ccdc684	0.025119074
78	0xbd844449	-0.06458337
79	0x3df46f33	0.11935272
80	0xbe5aba61	-0.2136016
81	0xbe0c1be4	-0.13682514
82	0x3cf21118	0.029549167
83	0x3dcdb7ca	0.100448206
84	0x3d3c9e8f	0.04604965
85	0x3ea8832b	0.32912573
86	0xbeac8a77	-0.3369939
87	0x3e381e1b	0.17980234
88	0x3deb35f0	0.11484897
89	0x3e1ea07d	0.15490909
90	0x3e18dd1e	0.149281
91	0x3d9ec36a	0.07752116
92	0x3de54f2d	0.11196742
93	0xbda4afcb	-0.08041342
94	0x3d58ce45	0.05293109
95	0xbe6d8fda	-0.23199406
96	0xbc826943	-0.015919333
97	0x3cc5255e	0.02406567
98	0xbd864558	-0.06556195
99	0xbe983c3d	-0.29733458
100	0xbe6a3618	-0.22872198
101	0xbdf876b3	-0.12132015
102	0x3ce8de52	0.028426323
103	0xbd8eafb8	-0.069671094
104	0x3e42ce0f	0.19023918
105	0x3e6eb1a6	0.23309955
106	0x3e1d2fbe	0.15350243
107	0xbc73293f	-0.014841377
108	0x3e322162	0.17395547
109	0x3e360b9d	0.17777868
110	0x3e4ecd5a	0.20195523
111	0x3e72e18c	0.23718852
112	0x3e84179d	0.25799266
113	0x3e54ac9a	0.20768967
114	0xbe4cf2b7	-0.20014463
115	0x3d96f9af	0.07371842
116	0xbcc9b0c4	-0.024620421
117	0x3eb7c55c	0.3589276
118	0x3df88cdf	0.12136244
119	0x3c8d6167	0.01725836
120	0xbc2a7122	-0.0104029495
121	0x3e66a79e	0.22524878
122	0xbe03377d	-0.12814136
123	0xbe9018e1	-0.2814398
124	0xbe2cb189	-0.168646
125	0xbdf2ec87	-0.1186152
126	0x3e319b64	0.17344433
127	0x3dd2de4a	0.102963045
128	0x3b87b35d	0.004141255
129	0x3e3e7943	0.18600945
130	0x3de5928c	0.11209592
131	0xbe9cd1f1	-0.30628923
132	0xbe8f7608	-0.28019738
133	0xbbf2826a	-0.0074008005
134	0xbd08d5a7	-0.03340688
135	0x3e5dcc92	0.21660069
136	0x3e811a63	0.25215444
137	0xbc96b127	-0.01839502
138	0x3e5b4ab7	0.2141522
139	0x3ded761c	0.11594793
140	0x3dd4db87	0.10393434
141	0x3e5fba4a	0.21848407
142	0x3bbf5366	0.0058387993
143	0xbe78ed34	-0.24309236
144	0x3e6a614d	0.2288868
145	0xbded139a	-0.11576004
146	0xbe2d484d	-0.16922112
147	0x3d357351	0.044299427
148	0xbdd6ddea	-0.104915455
149	0x3e968e15	0.29405275
150	0xbe1c7669	-0.15279545
151	0x3e452411	0.1925204
152	0x3e0a7260	0.13520193
153	0xbe793bde	-0.24339244
154	0xbe6c98ff	-0.23105238
155	0x3e3253da	0.174148
156	0x3d93f514	0.07224479
157	0xbdb8844d	-0.09009609
158	0x3d68c152	0.05682499
159	0x3e6fea77	0.23429285
160	0xbe4a80d9	-0.19775714
161	0x3ddbcec4	0.10732797
162	0x3d9f17e9	0.077682324
163	0xbe936eec	-0.28795564
164	0x3e1c8b25	0.15287454
165	0xbe9db87a	-0.30804807
166	0x3ddc78da	0.10765238
167	0xbe23162d	-0.15926428
168	0xbd054fc9	-0.032546792
169	0xbe56f826	-0.20993099
170	0xbdc035ed	-0.093852855
171	0xbde043ae	-0.10950409
172	0xbdff6a03	-0.12471392
173	0xbe0f1da6	-0.13976154
174	0xbe10bbc1	-0.14134122
175	0xbe1d62cd	-0.15369721
176	0xbdd6c033	-0.10485878
177	0x3eaca23e	0.3371753
178	0xbd3eb767	-0.046561625
179	0xbe86a6bd	-0.26299086
180	0x3e9a5fb4	0.3015114
181	0x3d46ceb9	0.04853699
182	0xbea69e1e	-0.3254251
183	0x3e9aa412	0.302033
184	0xbd4a871e	-0.049445264
185	0xbdcda625	-0.10041455
186	0x3d5e3a5e	0.054254882
187	0xbe93d4c1	-0.28873256
188	0x3d37869b	0.044806104
189	0x3d9ea8ab	0.077470146
190	0xbea8cdfd	-0.32969657
191	0xbe56e73a	-0.20986643
192	0x3e400ddc	0.18755287
193	0xbe0bd6f8	-0.13656223
194	0x3e3b6c87	0.18303119
195	0xbb0c2126	-0.0021382063
196	0xbca29416	-0.019846004
197	0xbe3a332f	-0.18183587
198	0x3e86e5a7	0.26347086
199	0x3d78d60d	0.06075101
200	0x3e0d85c4	0.13820559
201	0x3e0bbecc	0.13647002
202	0xbe96f860	-0.2948637
203	0x3e8cc381	0.27492908
204	0xbdbcc3f6	-0.09217064
205	0x3e0ec698	0.13942945
206	0x3d41ca40	0.04731202
207	0xbe8b5cd1	-0.2721925
208	0xbd049aa1	-0.032374028
209	0xbd609b26	-0.05483546
210	0x3de0f363	0.10983922
211	0xbd329120	-0.043595433
212	0x3e7b12b9	0.24518861
213	0xbe286a43	-0.16446786
214	0x3e9e1450	0.30874872
215	0x3e7b6768	0.24551165
216	0x3e30d3b8	0.17268264
217	0xbe6d6587	-0.23183261
218	0xbe4c8cb3	-0.19975547
219	0x3c9c54e2	0.019083444
220	0x3cc612b0	0.024178833
221	0xbd3a9c1b	-0.04555903
222	0xbe56d7d1	-0.20980765
223	0x3e0988cc	0.1343109
224	0xbe8fbfcd	-0.2807602
225	0xbd4247ad	-0.047431637
226	0x3e637992	0.22214344
227	0x3e3a0bcf	0.18168567
228	0x3e8a20ed	0.26978245
229	0xbe9cae7f	-0.3060188
230	0x3d19b8a8	0.037529618
231	0x3d82bd06	0.063837096
232	0xbe26976b	-0.16268699
233	0xbe5a2865	-0.21304472
234	0xbe80587e	-0.25067514
235	0x3e8398f5	0.25702634
236	0x3e3cc644	0.18435007
237	0xbe1d022b	-0.15332858
238	0x3c9530cd	0.018211747
239	0xbea32e23	-0.31871137
240	0xbbb812e3	-0.005617486
241	0xbe0d860e	-0.13820669
242	0x3e71394b	0.23557012
243	0xbe469c8a	-0.19395652
244	0x3c2d2330	0.010567471
245	0x3e8cd9b5	0.27509847
246	0xbdadcd19	-0.08486385
247	0x3d314d50	0.04328662
248	0xbe895f02	-0.26830298
249	0xbea96d6b	-0.33091292
250	0x3e301b0e	0.1719782
251	0x3e6810ed	0.22662707
252	0x3e979743	0.2960759
253	0x3dbb2e6d	0.091397144
254	0xbe8de380	-0.2771263
255	0xbde15383	-0.11002257

net.0.bias f4 [64]
0	0x3d8c717f	0.06857585
1	0x3dd19802	0.10234071
2	0x3d6b7ca5	0.057491917
3	0x3d54e58e	0.051976733
4	0x3d826948	0.06367737
5	0x3d23f22b	0.04002587
6	0x3d80bb53	0.06285729
7	0xbc94ce17	-0.018164678
8	0x3db7fea3	0.08984115
9	0xbc8d9ff8	-0.017288193
10	0xbda904e4	-0.08252886
11	0xbc8ec42f	-0.017427532
12	0x3dca55cf	0.09879648
13	0xbc01733b	-0.007901008
14	0x3dfd6a3b	0.123737775
15	0xbd0181c5	-0.0316179
16	0x3d95cf8e	0.073149785
17	0x3d8e3f04	0.06945613
18	0x3d25550c	0.04036431
19	0xbb83de89	-0.004024331
20	0x3d616804	0.055030838
21	0x3dd5310f	0.10409748
22	0xbbf143ae	-0.0073628044
23	0x3da36f93	0.079802655
24	0x3daf7ee2	0.08569123
25	0xbcdac59b	-0.026705554
26	0x3db59cba	0.08867784
27	0x3d31627c	0.043306813
28	0x3da795bc	0.081828564
29	0x3e006899	0.12539901
30	0x3d7bbd57	0.061459865
31	0x3d6b9523	0.057515275
32	0x3d0e016a	0.034669317
33	0xbced68ef	-0.0289807
34	0x3d95277d	0.072829224
35	0x3c142740	0.009042561
36	0x3c8159ae	0.015789833
37	0x3dc2fc59	0.09520788
38	0xbd12d963	-0.035851847
39	0x3da68417	0.08130663
40	0x3db6894e	0.089129075
41	0xbd116f4e	-0.03550654
42	0x3dfd409c	0.12365839
43	0x3dbe75a3	0.09299781
44	0x3dbeb471	0.0931176
45	0x3da6ffbf	0.081542484
46	0x3dd2601d	0.102722384
47	0x3dc2d9be	0.09514187
48	0x3dd4bced	0.10387597
49	0xbceea272	-0.029130194
50	0x3d639920	0.055565953
51	0x3de99850	0.114060044
52	0xbd20fed7	-0.039305534
53	0xbc92355a	-0.017847706
54	0xbd53482e	-0.051582508
55	0xbccdac4c	-0.025106572
56	0x3d83624f	0.06415235
57	0x3d29164b	0.041281026
58	0x3c887a96	0.016660016
59	0x3ddd39bd	0.10802028
60	0x3dd7e3a0	0.10541463
61	0x3dedbc98	0.11608237
62	0x3d44d07c	0.04805039
63	0x3dc14ecc	0.094388574

net.3.weight f4 [64, 64]
0	0xbd5ce92f	-0.05393332
1	0xbe2e9330	-0.17048335
2	0xbe1c00c1	-0.15234663
3	0x3e4275d6	0.18990263
4	0x3caf1f77	0.021377308
5	0x3e2b8dc0	0.16753292
6	0x3e29ac6b	0.16569678
7	0xbcc6a7c8	-0.024249926
8	0xbe204eee	-0.1565511
9	0x3d90b8d4	0.07066503
10	0xbc6e1586	-0.014531499
11	0x3ca04d0e	0.019567993
12	0x3e83aa72	0.25715977
13	0x3e5c3b3e	0.21506974
14	0x3dcf068b	0.1010867
15	0xbdeed4c5	-0.11661676
16	0x3df14fc9	0.11782796
17	0x3d630edb	0.05543409
18	0x3e331e5e	0.17492053
19	0x3daefa3e	0.08543824
20	0xbde70fb0	-0.11282289
21	0x3e5316b8	0.20614135
22	0x3dbc8814	0.09205642
23	0xbc9e05ba	-0.01928984
24	0x3e386244	0.18006235
25	0x3c889ab0	0.016675323
26	0xbdc78b06	-0.097433135
27	0x3d69d82a	0.057090916
28	0xbdaa0b3c	-0.08302924
29	0xbdca955b	-0.098917685
30	0xbe041da5	-0.12901933
31	0x3e037ba1	0.1284013
32	0xbe3077bd	-0.17233177
33	0x3dec83ee	0.11548601
34	0x3d189fe0	0.037261844
35	0xbe2c1d97	-0.16808163
36	0xbe152522	-0.14564946
37	0xbd8f52c0	-0.06998205
38	0x3de8d217	0.113681965
39	0x3d81b391	0.06333078
40	0xbdc8a2bc	-0.09796664
41	0x3d1f9afc	0.038966164
42	0x3d498140	0.049195528
43	0x3dc9d12c	0.098543495
44	0xbd942e71	-0.072354205
45	0x3e4f9e08	0.20275128
46	0x3e41eb2a	0.18937364
47	0x3d9acd86	0.07558732
48	0x3e3e602f	0.18591379
49	0xbd3a4fd3	-0.045486283
50	0x3e89d698	0.26921535
51	0xbdbc4020	-0.091919184
52	0xbc9e3ee5	-0.0193171
53	0x3b94d7ce	0.0045423275
54	0xbdfc03fd	-0.12305448
55	0x3ca412a7	0.020028425
56	0xbdce2071	-0.100647815
57	0xbaa93cfe	-0.0012911854
58	0x3e56bb89	0.20969976
59	0xba63b48e	-0.00086862675
60	0xbd29df08	-0.041472465
61	0x3e7ab12d	0.2448165
62	0xbdabb8a1	-0.083848245
63	0x3e439e9f	0.19103478
64	0x3e00d50a	0.12581268
65	0x3d1ef790	0.038810313
66	0x3e2c925f	0.16852711
67	0x3dcb3e50	0.099239945
68	0x3e9f97e4	0.3117057
69	0x3d81b7c6	0.0633388
70	0xbd74afb6	-0.059737884
71	0x3d960df8	0.07326883
72	0x3d9d3847	0.0767675
73	0xbde25aa2	-0.11052443
74	0xbd78373e	-0.060599558
75	0x3e3a0390	0.18165421
76	0x3e996bcd	0.29965058
77	0xbccb4a18	-0.024815604
78	0x3e3d9c9f	0.18516777
79	0xbe3383f5	-0.17530806
80	0x3d949cc6	0.07256465
81	0xbde40c29	-0.11135132
82	0x3e657330	0.22407222
83	0xbe14b286	-0.14521226
84	0x3dbe1ce7	0.092828564
85	0xbc9c90ff	-0.019112108
86	0xbe23f327	-0.16010724
87	0xbd9b23f8	-0.0757522
88	0xbd749171	-0.059709016
89	0xbdb6b4b6	-0.089211866
90	0x3e44124e	0.19147608
91	0xbc0672bf	-0.008206069
92	0x3e7fb190	0.24970078
93	0xbc19d856	-0.009389957
94	0x3e70ced2	0.23516396
95	0x3d4d6441	0.050144438
96	0x3e1d0fee	0.15338108
97	0x3e6eaa69	0.23307194
98	0x3e876986	0.26447695
99	0xbd1dc0bb	-0.03851388
100	0x3e2001c6	0.15625677
101	0x3e771ea0	0.24132776
102	0x3d2ce65e	0.042211883
103	0x3e8dd950	0.2770486
104	0xbd43340a	-0.04765705
105	0x3de63f72	0.1124257
106	0x3d86f0cd	0.06588898
107	0x3dd9454d	0.10608921
108	0x3e82cc4e	0.25546497
109	0x3e87dc9a	0.26535493
110	0x3ea598a1	0.3234301
111	0x3dd0f487	0.1020289
112	0x3e2550fb	0.16144173
113	0xbd0fa0b3	-0.035065364
114	0xbda59941	-0.080858715
115	0x3ea682c1	0.32521632
116	0xbe288a57	-0.16459022
117	0xbda1ff10	-0.079099774
118	0xbdcd6a36	-0.10030024
119	0x3e35cdb3	0.1775425
120	0x3e878117	0.26465675
121	0xbdd27877	-0.10276883
122	0x3cad8b69	0.02118464
123	0x3dd861a5	0.10565499
124	0x3e11cbd2	0.14237908
125	0x3e603739	0.21896066
126	0xbda6e1f4	-0.08148566
127	0x3e9c2b13	0.30501613
128	0x3d983dbb	0.07433649
129	0xbe299651	-0.16561247
130	0xbd72dac0	-0.059290648
131	0x3e176955	0.14786275
132	0xbe6f09f4	-0.2334364
133	0x3e0b66d9	0.13613452
134	0x3d3e95cc	0.046529576
135	0x3dbeaf6d	0.093108036
136	0xbc2fecaf	-0.010737582
137	0xbe40cfc7	-0.18829261
138	0xbd74561c	-0.059652433
139	0x3e0ed4ea	0.13948408
140	0xbdb31a56	-0.087452576
141	0xbe3f4573	-0.18678837
142	0xbe3c6e81	-0.18401529
143	0x3d8cdf88	0.06878573
144	0x3cd78cd1	0.026312264
145	0xbd713aca	-0.058893956
146	0xbbe9960a	-0.0071284818
147	0x3ca7d754	0.020488419
148	0xbe292970	-0.16519713
149	0xbdf96edf	-0.1217935
150	0x3de15a39	0.11003537
151	0x3d546e69	0.051863108
152	0xbca11de5	-0.019667575
153	0xbe2b28b9	-0.16714753
154	0xbe45ebef	-0.19328283
155	0x3e003b9e	0.12522742
156	0x3e3b724b	0.18305318
157	0xbe4a9a74	-0.19785482
158	0x3e074490	0.13209748
159	0x3d58e27b	0.052950364
160	0xbdd0b59b	-0.101908885
161	0xbde6accb	-0.112634264
162	0xbe6d7f84	-0.23193175
163	0x3dcad526	0.09903936
164	0xbe0e009a	-0.13867417
165	0x3e3774dc	0.17915672
166	0x3e14b192	0.14520863
167	0xbd9589b8	-0.073016584
168	0x3db7cf37	0.0897507
169	0x3deb19fe	0.11479567
170	0x3d10a462	0.035313018
171	0xbd9a3c21	-0.07531
172	0xbd67dd10	-0.056607306
173	0xbc8af747	-0.016963614
174	0x3da735e8	0.08164579
175	0x3de0fce7	0.10985737
176	0xbdec2a3b	-0.11531492
177	0x3e3b9052	0.18316773
178	0x3de3372d	0.11094508
179	0xbe3b1013	-0.1826785
180	0xbe519325	-0.20466287
181	0x3dfc371b	0.12315198
182	0x3d8ac149	0.067751475
183	0x3de221b2	0.11041583
184	0x3d723cef	0.059140142
185	0x3cc5cb21	0.024144711
186	0x3dc8db68	0.098074734
187	0xbd760519	-0.060063455
188	0xbe37dce9	-0.17955364
189	0xbe7f9caa	-0.24962106
190	0xbe104c08	-0.14091504
191	0x3e12ad91	0.14324023
192	0xbdbf8afb	-0.0935268
193	0xbddcf0c7	-0.10788112
194	0x3de64999	0.112445064
195	0x3e3e527c	0.18586153
196	0x3e448a6a	0.19193426
197	0x3c41116a	0.011783937
198	0xbcc38f2d	-0.023871982
199	0x3d34b4a4	0.044117585
200	0xbd7b33da	-0.061328746
201	0xbd3b0367	-0.04565754
202	0xbe13e34f	-0.1444218
203	0xbe1efd36	-0.1552628
204	0x3e45c956	0.19315085
205	0xbe11d306	-0.14240655
206	0x3e17563b	0.14778988
207	0x3dbfcf7e	0.09365748
208	0xbcb4235b	-0.021989515
209	0x3dfb9d8e	0.122859105
210	0x3e81dbf7	0.25363132
211	0xbd996b7b	-0.074912034
212	0x3dcb8073	0.09936609
213	0x3e747c26	0.23875484
214	0x3e3ac406	0.1823884
215	0x3e45df13	0.19323377
216	0x3e2e9c6a	0.17051855
217	0x3e56e519	0.20985831
218	0x3e68b256	0.2272428
219	0x3df8e208	0.12152487
220	0xbc23e8d3	-0.01000424
221	0x3e92c545	0.2866613
222	0x3e04798d	0.12936993
223	0x3e6d08ea	0.23147932
224	0x3e553721	0.20821811
225	0xbdf9d9dd	-0.12199757
226	0xbddc1fdf	-0.107482664
227	0xbe14127b	-0.14460175
228	0x3d1fec54	0.03904374
229	0x3e71771f	0.23580597
230	0x3df6f592	0.120585576
231	0x3d9736a7	0.07383471
232	0x3e88fc09	0.26754788
233	0x3c687f9f	0.0141905835
234	0x3e4b7832	0.1987007
235	0x3e9aca6b	0.30232558
236	0xba97470b	-0.0011541558
237	0x3e3d24d4	0.1847108
238	0x3dd12337	0.10211795
239	0xbda557b1	-0.080733664
240	0x3e46e252	0.19422272
241	0x3e280436	0.16407856
242	0x3e103784	0.14083678
243	0x3d3616dc	0.044455394
244	0x3e43a805	0.19107063
245	0xbe27f96b	-0.16403739
246	0xbe3d14e4	-0.18465
247	0xbd8d2efd	-0.06893728
248	0x3e89b48f	0.26895568
249	0x3da79ab9	0.08183808
250	0x3b63e184	0.003477187
251	0x3e87bb06	0.26509875
252	0x3e026a59	0.12735881
253	0xbd277b5d	-0.040889133
254	0xbe1cdea1	-0.15319301
255	0xbd40c77d	-0.047065247

net.3.bias f4 [64]
0	0x3da80845	0.08204702
1	0x3e138a2a	0.14408174
2	0xbd0f3932	-0.034966655
3	0x3de2e369	0.11078531
4	0x3da2eccf	0.07955324
5	0x3dc5a5d3	0.09650769
6	0x3d929aeb	0.071584545
7	0x3e00c905	0.12576683
8	0xbc77043e	-0.015076695
9	0xbc8c2840	-0.017109036
10	0x3de79d8f	0.11309349
11	0xbb880383	-0.0041508093
12	0x3c5a5bdc	0.013327565
13	0x3dd16f9b	0.10226365
14	0xbd591286	-0.05299618
15	0xbcfc5107	-0.030800356
16	0x3c461a0f	0.012091174
17	0xbc433eee	-0.011916859
18	0x3dade37e	0.08490656
19	0x3df9c576	0.12195866
20	0xbc69a922	-0.014261516
21	0xbc89db39	-0.016828166
22	0xbb25572b	-0.0025228958
23	0x3de79059	0.11306829
24	0xbd5ce7e9	-0.053932104
25	0x3d8cb4b4	0.06870404
26	0x3de08afd	0.1096401
27	0x3d66ecac	0.05637805
28	0xbcf925cd	-0.030413533
29	0xbceba3b1	-0.028764578
30	0xbc0ec9c1	-0.008715094
31	0x3dd0b652	0.10191025
32	0x3ca992af	0.020699827
33	0xbcfe2211	-0.031022104
34	0xbcb8dcdc	-0.022566251
35	0xbd1def08	-0.038558036
36	0xbc10d19e	-0.008839039
37	0x3dcf1c7c	0.10112855
38	0xbcb56920	-0.022144854
39	0x3df6ba5a	0.120472625
40	0x3db10690	0.0864383
41	0xbd238fc4	-0.039932027
42	0xbcfb2888	-0.030658975
43	0x3c8ccc29	0.017187195
44	0xbd367b9b	-0.044551473
45	0xbc94d599	-0.018168258
46	0xbbf52a30	-0.007481836
47	0xbca9c48b	-0.020723602
48	0x00000000	0.0
49	0x3da0b387	0.07846742
50	0xbc6eb3a0	-0.014569193
51	0x3d8a0014	0.06738296
52	0xbc6de99b	-0.014521028
53	0x3dad2187	0.084536605
54	0xbd023112	-0.03178508
55	0xbd103256	-0.035204254
56	0x3d8a0a34	0.06740227
57	0xbc279f4a	-0.010230849
58	0x3d846f05	0.06466488
59	0xbc724104	-0.014786009
60	0x3dfd1484	0.12357429
61	0xbc1b27b3	-0.009469914
62	0x3df1bf9d	0.118041255
63	0x3d8d4ca9	0.068993874

net.6.weight f4 [2, 64]
0	0x3e865bc7	0.26241896
1	0x3eb71aa7	0.35762522
2	0x3c9a1193	0.018807208
3	0x3eabba1f	0.33540437
4	0x3ec650c4	0.38733494
5	0x3d9a398d	0.07530508
6	0xbe25a91f	-0.16177796
7	0x3e97599b	0.2956055
8	0xbe832301	-0.25612643
9	0xbd35557e	-0.044270985
10	0x3e597f64	0.21240002
11	0x3e3c7de4	0.18407398
12	0x3da02a9c	0.07820627
13	0x3dac33d9	0.08408327
14	0xbd287ba8	-0.041133553
15	0xbb944fc0	-0.0045261085
16	0xbe278e93	-0.16362981
17	0x3e8da5f6	0.2766568
18	0x3bace0cb	0.005275821
19	0x3eab4518	0.33451152
20	0xbd1c13c8	-0.038104802
21	0x3e9bfa86	0.30464572
22	0x3e65cc8b	0.22441308
23	0x3ebd8523	0.37015638
24	0xbe8210f5	-0.25403562
25	0xbdbf4ca9	-0.09340794
26	0x3e86510b	0.26233706
27	0xbe2103ab	-0.15724055
28	0xbe19aef0	-0.1500814
29	0xbdf32900	-0.118730545
30	0xbe01ebdc	-0.1268763
31	0x3e60e9bd	0.21964164
32	0xbe399d6c	-0.18126458
33	0x3ea4e3e0	0.32205105
34	0xbd5d0ac0	-0.05396533
35	0x3d3084ca	0.043095388
36	0xbe677073	-0.2260149
37	0x3e9af1c4	0.30262578
38	0xbdf1baef	-0.11803233
39	0x3e9ed87c	0.3102454
40	0x3dbb5cd1	0.09148563
41	0xbd9c88dc	-0.07643291
42	0xbe41c717	-0.18923603
43	0xbdfa3a0b	-0.12218102
44	0xbe1bf617	-0.15230595
45	0xbe1870ca	-0.14886776
46	0x3e8d188d	0.27557793
47	0x3e37ec69	0.17961277
48	0xbc895450	-0.016763836
49	0x3e5cb6fd	0.2155418
50	0x3e8007e7	0.2500603
51	0xbd59980e	-0.053123526
52	0x3df59700	0.119916916
53	0x3d2ebdf0	0.042661607
54	0x3e56f840	0.20993137
55	0x3e03a328	0.12855208
56	0xbe31f86c	-0.17379922
57	0x3e55f278	0.20893276
58	0xbe0c8b68	-0.13725054
59	0xbd1cf138	-0.03831598
60	0x3e3564ae	0.17714188
61	0xbe8faacb	-0.28059992
62	0x3e6f8ec5	0.23394306
63	0x3d7037fa	0.058647133
64	0x3e303fc5	0.17211826
65	0x3e9842b4	0.2973839
66	0xbe58866a	-0.21145025
67	0x3e9b2fa5	0.30309787
68	0x3d7fb695	0.062429983
69	0x3eae753a	0.34073812
70	0x3ebe82e1	0.37209228
71	0x3e862d28	0.26206326
72	0xbd0be34e	-0.03415232
73	0xbcf1ccc4	-0.029516585
74	0x3ebb0cd3	0.36533222
75	0x3d09959e	0.03358995
76	0x3e04f8d9	0.12985553
77	0x3e93eac9	0.28890064
78	0xbe81dbf2	-0.25363117
79	0xbd9b7b0c	-0.07591829
80	0x3deb0712	0.11475958
81	0xbe2ca23c	-0.16858763
82	0x3ea3a49f	0.31961533
83	0x3ea8fb04	0.3300401
84	0xbe94b390	-0.29043245
85	0xbe3f6062	-0.18689111
86	0xbe8bab2a	-0.27279025
87	0x3e0fb515	0.14033921
88	0xbe3becbe	-0.18352029
89	0x3eb6f02e	0.35730118
90	0x3e82b161	0.25525954
91	0x3e69586a	0.22787634
92	0xbc036247	-0.008019037
93	0xbd82fb4e	-0.06395589
94	0xbe66c835	-0.2253731
95	0x3eac8fe6	0.33703536
96	0x3e89ee95	0.26939836
97	0xbe6db367	-0.23212968
98	0xbe324c4e	-0.1741192
99	0xbe0cda40	-0.13755131
100	0x3e145f79	0.14489545
101	0x3e55ab91	0.20866229
102	0xbd2cb733	-0.0421669
103	0x3e93617d	0.28785315
104	0x3ec44817	0.3833625
105	0xbe3f65db	-0.18691199
106	0xbd864030	-0.065552115
107	0x3e9558c2	0.2916928
108	0xbd230212	-0.039796896
109	0xbdbc4e8a	-0.09194668
110	0xbd98e352	-0.07465233
111	0xbd92915d	-0.07156632
112	0xbc8a2ca0	-0.016866982
113	0x3e264e10	0.16240716
114	0xbde54b07	-0.11195951
115	0x3ebf642d	0.37381116
116	0xbe71cf05	-0.23614128
117	0x3e873979	0.26411036
118	0xbe3b816c	-0.1831109
119	0xbda39a54	-0.0798842
120	0x3eb407a6	0.35162085
121	0xbe353302	-0.17695239
122	0x3ea0abe0	0.3138113
123	0xbe2307f1	-0.15920998
124	0x3e3e7d9d	0.18602605
125	0xbe485062	-0.19561914
126	0x3e71a35a	0.2359747
127	0x3d7f6ed8	0.06236157

net.6.bias f4 [2]
0	0x3d9a3a07	0.07530599
1	0x3dd0892d	0.10182414

exp_avg f4 [64, 4]
0	0xbc37f235	-0.01122718
1	0xbd3326ff	-0.04373836
2	0x3bdfbf16	0.006828199
3	0x3d65f147	0.056138303
4	0x3d44b3eb	0.048023146
5	0x3f10ce3c	0.5656469
6	0xbdd340d3	-0.103150986
7	0xbf79df94	-0.9760678
8	0xbb0a588b	-0.0021109905
9	0xba780d4f	-0.00094624324
10	0x3b00821f	0.0019608808
11	0xb99ac7d1	-0.00029522044
12	0x3d2d1b97	0.04226264
13	0x3f014566	0.5049652
14	0xbdafe464	-0.08588484
15	0xbf5b2019	-0.8559585
16	0x3d4fa670	0.050695837
17	0x3f29b6e6	0.66294706
18	0xbddf8705	-0.10914425
19	0xbf8f42a1	-1.1192209
20	0x3d02cd92	0.03193433
21	0x3ea8fbd6	0.33004636
22	0xbd68149d	-0.056660283
23	0xbf0ce3b8	-0.5503497
24	0x3ce0d4c1	0.027445199
25	0x3ebe6781	0.37188342
26	0xbd9749ba	-0.07387109
27	0xbf296937	-0.6617617
28	0x37ad08ed	2.0627363e-05
29	0xb68213ae	-3.876593e-06
30	0x37a36765	1.9479261e-05
31	0x36d4b7dd	6.339497e-06
32	0x3d174d93	0.036939215
33	0x3eebfabc	0.46089733
34	0xbd9cd01f	-0.076568834
35	0xbf4702b2	-0.7773849
36	0x3cd6671d	0.026172215
37	0x3e9b785e	0.3036527
38	0xbd4b727e	-0.049669735
39	0xbf00fbde	-0.5038432
40	0xbbc0f3cc	-0.005888438
41	0x3c45ef9c	0.012081053
42	0x3bea1b77	0.0071443873
43	0xbc0add3d	-0.008475599
44	0x34dbd4c2	4.094673e-07
45	0x37e46a53	2.7229229e-05
46	0xb5d39101	-1.5762927e-06
47	0xb8115619	-3.465088e-05
48	0x3d03a04f	0.032135304
49	0x3ed1d2b6	0.40981072
50	0xbd9c1043	-0.07620289
51	0xbf36cc34	-0.7140534
52	0x3ce2ec2f	0.027700512
53	0x3eb0799c	0.3446778
54	0xbd64c9dc	-0.05585657
55	0xbf133aba	-0.57511485
56	0x3da2c654	0.07947984
57	0x3f4acb87	0.7921681
58	0xbe0902ca	-0.1337997
59	0xbfaa0c9d	-1.3285099
60	0xb76227c8	-1.3479912e-05
61	0xb91e35c2	-0.0001508808
62	0x370af5a6	8.2826355e-06
63	0x39659482	0.00021894465
64	0xbbb3dd47	-0.005489025
65	0xbb27e002	-0.0025615697
66	0x3ba070ec	0.004896274
67	0xba7c6e6b	-0.00096294907
68	0x3cc370c1	0.023857476
69	0x3eb62499	0.35574797
70	0xbd87eafd	-0.06636617
71	0xbf20e78d	-0.6285332
72	0xba8abcb0	-0.0010584798
73	0xba0abfd8	-0.0005292869
74	0x3a7338d5	0.0009278183
75	0xb8c79baf	-9.518058e-05
76	0x37c3d9ad	2.3347175e-05
77	0x38881f2e	6.490793e-05
78	0x37810b02	1.5383124e-05
79	0xb8b91808	-8.8259636e-05
80	0xbb0b5c31	-0.0021264667
81	0xba9eb135	-0.0012107255
82	0x3b0010a8	0.0019541178
83	0xb930de74	-0.00016867538
84	0x3d86e5eb	0.06586822
85	0x3f178a1a	0.591951
86	0xbdeaa672	-0.11457528
87	0xbf8146cf	-1.0099734
88	0x3cae16cc	0.021251105
89	0x3e59a6cf	0.21255039
90	0xbd1e9a55	-0.0387214
91	0xbeb60072	-0.35547215
92	0x3d6b7a52	0.0574897
93	0x3f416288	0.7554097
94	0xbe04a122	-0.12952092
95	0xbfa59884	-1.2937169
96	0x3d653360	0.0559572
97	0x3f4209d3	0.7579624
98	0xbe036442	-0.12831214
99	0xbfa4ab4f	-1.2864779
100	0x35d9f69d	1.6239534e-06
101	0x36843f9f	3.941313e-06
102	0xb65cc407	-3.2896658e-06
103	0xb7717831	-1.4392704e-05
104	0x3d81d493	0.063393734
105	0x3f4dc195	0.8037351
106	0xbe01bfda	-0.12670842
107	0xbfab2358	-1.3370161
108	0xbbceb938	-0.006308701
109	0xbcd0f10a	-0.025505561
110	0x3b536cad	0.003226082
111	0x3d089d23	0.033352982
112	0x3da4f2f0	0.08054149
113	0x3f8c1157	1.0942792
114	0xbe305dea	-0.17223325
115	0xbfea538f	-1.830675
116	0x3d712c76	0.058880292
117	0x3f54a35d	0.8306177
118	0xbe0e203c	-0.13879484
119	0xbfb48589	-1.4103252
120	0x3cdf6ddb	0.027274063
121	0x3eb29436	0.348787
122	0xbd701595	-0.058614332
123	0xbf17582e	-0.59118927
124	0xbb64abc5	-0.0034892422
125	0xbaeb0203	-0.0017929677
126	0x3b2d6764	0.002645933
127	0xb9d6061e	-0.00040821818
128	0x3d3f99d0	0.046777546
129	0x3f1d26f3	0.61387557
130	0xbdb9d59d	-0.090739466
131	0xbf80e8a6	-1.0070999
132	0xb78a5608	-1.6490943e-05
133	0xb946c531	-0.00018956211
134	0x373558e1	1.0809134e-05
135	0x398de830	0.0002706661
136	0xbc0b2599	-0.008492851
137	0xbd165f0f	-0.03671175
138	0x3bc18d2c	0.0059067216
139	0x3d4433a2	0.047900803
140	0x3d08763d	0.033315886
141	0x3edf510d	0.43616524
142	0xbd882f57	-0.06649654
143	0xbf384c81	-0.71991736
144	0xba87cc2b	-0.0010360529
145	0xb9c14ed4	-0.0003687056
146	0x3a1f0d2b	0.0006067331
147	0xb99b7d93	-0.00029657464
148	0x3df4a84d	0.11946163
149	0x3fac8062	1.3476679
150	0xbe5782db	-0.21046011
151	0xc00e73b4	-2.225812
152	0xb7638b3a	-1.3562671e-05
153	0xb9218b94	-0.00015406153
154	0x37202bc6	9.546935e-06
155	0x39648820	0.00021794485
156	0xbba39c66	-0.0049930094
157	0xbb1a0a43	-0.0023504652
158	0x3b867fa9	0.0041045737
159	0xba58620f	-0.0008254358
160	0x3d729e49	0.059232984
161	0x3f6a2dd8	0.914762
162	0xbe0af95c	-0.13571686
163	0xbfc13613	-1.5094627
164	0x3654869b	3.1668812e-06
165	0x3617861f	2.2578822e-06
166	0xb6cad79a	-6.0451684e-06
167	0xb7956791	-1.7810411e-05
168	0x3d80a60e	0.062816724
169	0x3f6980fe	0.9121245
170	0xbe1a04d9	-0.15040912
171	0xbfc59746	-1.543679
172	0x3d7e3014	0.06205757
173	0x3f44547d	0.7669142
174	0xbe0787c5	-0.13235386
175	0xbfa72b6f	-1.306013
176	0x3d25abd0	0.040447056
177	0x3eeaad50	0.45835352
178	0xbda5cb9f	-0.08095478
179	0xbf47d277	-0.7805552
180	0xbbb98075	-0.005661065
181	0xbd1af647	-0.037832525
182	0x3b88c61c	0.004174007
183	0x3d57f070	0.052719533
184	0xbcf3030f	-0.029664544
185	0xbf0253ca	-0.509091
186	0x3d273979	0.040826295
187	0x3f408b90	0.75212955
188	0x3d43b710	0.047782004
189	0x3f109a7b	0.5648572
190	0xbdce6102	-0.100770965
191	0xbf75570b	-0.9583594
192	0xbc53623e	-0.012901841
193	0xbe5343d2	-0.2063134
194	0x3c9f02da	0.01941054
195	0x3e9d22c3	0.30690584
196	0xb7ce85b7	-2.461938e-05
197	0xb85552b9	-5.08602e-05
198	0x37b2ee85	2.1330323e-05
199	0x3888e4a5	6.527574e-05
200	0xbc705a10	-0.01466991
201	0xbd63d018	-0.055618376
202	0x3c0f99cd	0.008764696
203	0x3d8f95a2	0.07010962
204	0x3d805bef	0.06267535
205	0x3f4d75fa	0.8025814
206	0xbe0d6beb	-0.13810699
207	0xbfaf2c19	-1.3685333
208	0x3a9cb97f	0.0011957138
209	0x3c966fbc	0.018363826
210	0xbb01dcca	-0.0019815438
211	0xbce918ba	-0.028454173
212	0x355393c6	7.8818664e-07
213	0x3654fef0	3.1738855e-06
214	0xb58257fa	-9.711359e-07
215	0xb62b97c7	-2.5569332e-06
216	0xb771130f	-1.4369157e-05
217	0xb97f87f9	-0.00024369349
218	0x35c032fc	1.4319953e-06
219	0x39a3c451	0.0003123605
220	0x3485bf9a	2.491259e-07
221	0xb79467c3	-1.7691293e-05
222	0xb5caa933	-1.5099416e-06
223	0x37ec872c	2.8196337e-05
224	0xbb543c99	-0.0032384752
225	0xbacfb236	-0.0015845958
226	0x3b19352b	0.0023377638
227	0xba02dc0a	-0.0004991895
228	0x39b121ac	0.00033785158
229	0x3922706a	0.00015491401
230	0x3a750e2b	0.00093481195
231	0x39885773	0.00026005096
232	0xba95067e	-0.0011369733
233	0xba0b377d	-0.00053106976
234	0x3aadd45e	0.0013262143
235	0xb81db785	-3.7602633e-05
236	0x3d939efe	0.0720806
237	0x3f721bf3	0.945739
238	0xbe1f2df5	-0.15544875
239	0xbfcc6a13	-1.5969871
240	0xbd07be24	-0.033140317
241	0xbf157d0f	-0.5839395
242	0x3d634891	0.055489127
243	0x3f617e8d	0.88083726
244	0x3d5b5369	0.053546343
245	0x3f301d86	0.6879505
246	0xbdf62e22	-0.12020518
247	0xbf96ca2d	-1.1780449
248	0xbb64b33b	-0.0034896869
249	0xbaf1d346	-0.0018449805
250	0x3b4e59cf	0.0031486636
251	0xb998d54d	-0.0002915062
252	0x3d137fc1	0.036010507
253	0x3ee58f29	0.44835785
254	0xbdab0d27	-0.08352118
255	0xbf47f374	-0.78105855

exp_avg_sq f4 [64, 4]
0	0x37a4527b	1.9588731e-05
1	0x39caa707	0.00038652887
2	0x3728ed58	1.0068841e-05
3	0x3a3f9699	0.00073085126
4	0x3bbab57e	0.005697905
5	0x3fb4af9e	1.4116094
6	0x3cb0ef76	0.021598559
7	0x4063be65	3.5584958
8	0x362f438d	2.6116352e-06
9	0x37c14450	2.3039203e-05
10	0x36247695	2.4506928e-06
11	0x384a4d9a	4.8232825e-05
12	0x3b31004b	0.0027008231
13	0x3f29ec69	0.6637636
14	0x3c2c4e09	0.010516652
15	0x3fd7a0ea	1.6845982
16	0x3b6f258f	0.0036490893
17	0x3f5f5b87	0.87249035
18	0x3c734c83	0.014849785
19	0x400fb7a4	2.2455835
20	0x3b33ca98	0.0027433988
21	0x3f331175	0.6994851
22	0x3c242247	0.010017938
23	0x3fde41b6	1.7363803
24	0x3b425fb9	0.0029659106
25	0x3f35144c	0.70734096
26	0x3c4cdcf8	0.012503855
27	0x3fe8e5c8	1.8195124
28	0x3501013c	4.805804e-07
29	0x370efc3d	8.522588e-06
30	0x358c993a	1.0475408e-06
31	0x3789dda0	1.6434875e-05
32	0x3b0c57d6	0.002141466
33	0x3f0c52e8	0.54814005
34	0x3c082fe6	0.008312201
35	0x3fb0aa54	1.380198
36	0x39cb9ec0	0.00038837455
37	0x3db5e258	0.08881062
38	0x3ae7efaa	0.0017695327
39	0x3e705510	0.23469949
40	0x39b8811a	0.00035191403
41	0x3db54ca7	0.08852511
42	0x3ab46b90	0.0013764966
43	0x3e62d580	0.22151756
44	0x3642d4b4	2.9032062e-06
45	0x392024d3	0.00015272507
46	0x36b4c04e	5.3868052e-06
47	0x39966afd	0.00028689942
48	0x3b2540aa	0.0025215545
49	0x3f1e8c74	0.61933064
50	0x3c2df583	0.010617617
51	0x3fcbeb4d	1.5931183
52	0x3a982a83	0.0011609349
53	0x3e9a002d	0.3007826
54	0x3b8f4b21	0.0043729697
55	0x3f3fbcc1	0.7489739
56	0x3be1c266	0.006889629
57	0x3fd57692	1.667681
58	0x3cd11224	0.025521345
59	0x40879757	4.237224
60	0x35afb853	1.3092161e-06
61	0x37f2cfcd	2.8945413e-05
62	0x361366d2	2.1964556e-06
63	0x38816596	6.170121e-05
64	0x379aae71	1.8439461e-05
65	0x3930551d	0.00016816375
66	0x377ede0c	1.5191279e-05
67	0x39a1f92c	0.0003089396
68	0x3abd7f89	0.0014457564
69	0x3ea048b5	0.3130547
70	0x3bbe8692	0.005814382
71	0x3f53413b	0.8252141
72	0x353e4f32	7.089576e-07
73	0x35f1bcfc	1.8010901e-06
74	0x352fd2b7	6.549921e-07
75	0x35fcf84f	1.884773e-06
76	0x35454ad9	7.3497137e-07
77	0x36df7492	6.6594885e-06
78	0x35a8a496	1.2564876e-06
79	0x37375f1c	1.0929794e-05
80	0x3608f214	2.0406487e-06
81	0x37467b6c	1.1830456e-05
82	0x35e89994	1.7330044e-06
83	0x37b3fb48	2.1455475e-05
84	0x3bd5ba69	0.006522466
85	0x3fd08842	1.6291583
86	0x3ccd2dcb	0.02504625
87	0x4083b4d7	4.115825
88	0x3b0301e2	0.0019990136
89	0x3f08bce5	0.5341323
90	0x3bc7a070	0.0060921237
91	0x3fa526e4	1.2902493
92	0x3bcb669d	0.006207301
93	0x3fc0b6b2	1.5055754
94	0x3cc3b200	0.023888588
95	0x40750454	3.8283892
96	0x3bc78d56	0.0060898466
97	0x3fbb1c50	1.4618015
98	0x3cc15260	0.02359885
99	0x406dffa1	3.7187274
100	0x35c4fad9	1.4676144e-06
101	0x37a016ab	1.9084042e-05
102	0x36bf50b2	5.7016377e-06
103	0x38f42458	0.00011641596
104	0x3b6b317f	0.0035887656
105	0x3f5abfb5	0.8544877
106	0x3c64a8f8	0.013956301
107	0x400b626e	2.1778827
108	0x36c964d6	6.0020056e-06
109	0x391fd768	0.00015243667
110	0x362dc746	2.5895001e-06
111	0x3995f366	0.0002860084
112	0x3bf3721d	0.007429375
113	0x3fe20a21	1.7659341
114	0x3cf23ffa	0.029571522
115	0x4090926d	4.5178742
116	0x3b8ec188	0.004356567
117	0x3f7a3da2	0.97750294
118	0x3ca81834	0.020519353
119	0x402751d0	2.6143684
120	0x3a6ab6df	0.00089536415
121	0x3e54ffe5	0.20800741
122	0x3b829ffc	0.003986357
123	0x3f0c2e2c	0.5475795
124	0x3690d5ca	4.3164227e-06
125	0x3759fab9	1.2992584e-05
126	0x36269641	2.4823387e-06
127	0x379d42f3	1.8747034e-05
128	0x3afdaaf3	0.0019353315
129	0x3eed22fe	0.4631576
130	0x3bf580fb	0.0074921823
131	0x3f9653cd	1.1744324
132	0x3627286f	2.4908475e-06
133	0x384c7d22	4.875393e-05
134	0x368a87c2	4.128525e-06
135	0x38d71985	0.00010256752
136	0x373c1892	1.1211394e-05
137	0x398b784d	0.00026601777
138	0x36d2bc9e	6.2804456e-06
139	0x3a0994c0	0.0005248301
140	0x3a77f10a	0.000945822
141	0x3e67d6b5	0.22640498
142	0x3b7019a5	0.003663638
143	0x3f13518f	0.57546324
144	0x3629059d	2.518623e-06
145	0x37369e0c	1.08848435e-05
146	0x36ee4fc9	7.102241e-06
147	0x38a3bdbe	7.807788e-05
148	0x3c219ba1	0.009863765
149	0x40155fc1	2.3339694
150	0x3d217473	0.039417695
151	0x40bfdfe3	5.99608
152	0x34c9dc0b	3.759927e-07
153	0x37b74296	2.1846306e-05
154	0x35240f47	6.111699e-07
155	0x384b4ac6	4.846861e-05
156	0x375a3bc0	1.3007724e-05
157	0x38b44be3	8.597204e-05
158	0x372a8815	1.0164474e-05
159	0x39269466	0.00015886276
160	0x3b8f8ac3	0.0043805554
161	0x3f7d2476	0.9888376
162	0x3c91a66d	0.017779553
163	0x4023ee39	2.561415
164	0x365f5f55	3.328508e-06
165	0x378b3941	1.6596752e-05
166	0x373322dc	1.0677348e-05
167	0x38ebd71d	0.00011245741
168	0x3c1c3ed1	0.009536461
169	0x4007b16e	2.1202044
170	0x3d14048d	0.036137152
171	0x40aec175	5.4611154
172	0x3b816eaf	0.003949962
173	0x3f62875b	0.88487786
174	0x3c8dec2f	0.017324535
175	0x40162d32	2.3465085
176	0x3b4251e3	0.002965086
177	0x3f389629	0.72104126
178	0x3c30f434	0.01080041
179	0x3fe93b5c	1.822124
180	0x374c21a5	1.2167181e-05
181	0x39c315d4	0.00037209562
182	0x3744ee39	1.1737976e-05
183	0x3a345687	0.00068793487
184	0x3b4249c6	0.0029646023
185	0x3f41b31e	0.75663936
186	0x3c53edbc	0.012935098
187	0x3ff86780	1.9406586
188	0x3c1cd497	0.00957217
189	0x40190288	2.3907795
190	0x3d124b11	0.03571612
191	0x40bef2bb	5.96713
192	0x381a3384	3.676444e-05
193	0x3bc8c14e	0.0061265593
194	0x38ab3c66	8.1651655e-05
195	0x3c6d3b17	0.01447942
196	0x355c554e	8.208052e-07
197	0x37061a07	7.993082e-06
198	0x35834f54	9.783348e-07
199	0x37c425e9	2.3382674e-05
200	0x3811444f	3.463431e-05
201	0x3a376988	0.00069966214
202	0x37b5df11	2.1680755e-05
203	0x3ab0282f	0.001343971
204	0x3bcd64b1	0.006268107
205	0x3fbe1809	1.4851085
206	0x3ccd63f9	0.025072085
207	0x4073dd5a	3.8103852
208	0x3985d8f3	0.00025529377
209	0x3d8aeb09	0.06783111
210	0x3a3b185e	0.0007137115
211	0x3e25a33d	0.16175552
212	0x34d13950	3.8970984e-07
213	0x3699f08a	4.5877578e-06
214	0x35636833	8.471572e-07
215	0x3735c234	1.0833657e-05
216	0x3791c59d	1.7377368e-05
217	0x38aa6298	8.124596e-05
218	0x38811ebe	6.1569255e-05
219	0x3a0cac2e	0.0005366233
220	0x34f8ac74	4.6319076e-07
221	0x3794c98f	1.7736833e-05
222	0x359e886a	1.1811619e-06
223	0x38693651	5.5602115e-05
224	0x36755a46	3.656039e-06
225	0x3816d224	3.5958496e-05
226	0x36089277	2.0350833e-06
227	0x388c0a7f	6.677675e-05
228	0x364dcb38	3.066567e-06
229	0x37702b4c	1.4315196e-05
230	0x36f9d721	7.4458226e-06
231	0x37cf292c	2.4695495e-05
232	0x359f3af5	1.1863582e-06
233	0x36cb4d0a	6.05884e-06
234	0x35be2017	1.4165443e-06
235	0x37070a7d	8.049069e-06
236	0x3c002b38	0.007822804
237	0x3ff44d96	1.9086177
238	0x3cf19880	0.029491663
239	0x409a7027	4.8261905
240	0x3aedf09a	0.001815337
241	0x3ef0a616	0.47001714
242	0x3bd644cc	0.006538963
243	0x3f96f7a2	1.1794322
244	0x3b9cdc41	0.0047869985
245	0x3f925239	1.1431342
246	0x3c9ed4e5	0.019388625
247	0x403c3158	2.9405117
248	0x36d9ec94	6.4946453e-06
249	0x381b075f	3.6961745e-05
250	0x36c0a9b3	5.7418015e-06
251	0x3897134a	7.203834e-05
252	0x3b317e38	0.002708329
253	0x3f23c6e9	0.6397539
254	0x3c3bb7c1	0.011457385
255	0x3fd4dd5d	1.6630055

exp_avg f4 [64]
0	0xbece1870	-0.4025302
1	0xbeeed4f7	-0.46646854
2	0xbdd56b46	-0.104208514
3	0xbe86bbe9	-0.2631524
4	0xbe61a2fc	-0.2203483
5	0xbed3eb22	-0.4139033
6	0xbf4b7541	-0.7947579
7	0xba0296d5	-0.0004981582
8	0xbde2da9e	-0.11076854
9	0x3d9d461d	0.07679389
10	0x3dd66971	0.1046933
11	0x38af790c	8.367197e-05
12	0xbf115c09	-0.5678106
13	0x3c93f164	0.01805944
14	0xbe9adc23	-0.30246076
15	0x3a3ff677	0.0007322798
16	0xbe8695dd	-0.26286212
17	0xbf166784	-0.587517
18	0xbd4c44da	-0.04987035
19	0xba424996	-0.0007411478
20	0xbdcf63fd	-0.10126493
21	0xbed22896	-0.4104659
22	0xbdb740da	-0.08947916
23	0xbecf2e5c	-0.40465057
24	0xbf127d8f	-0.5722284
25	0x37bf0be4	2.2774511e-05
26	0xbc8f686a	-0.017505843
27	0xbe54131c	-0.20710415
28	0xbef8fb17	-0.48629066
29	0xbf0dc825	-0.5538352
30	0xbe59dd4e	-0.21275827
31	0xbe15a148	-0.14612305
32	0x3dad8e9b	0.084744655
33	0x3a61f84f	0.000862007
34	0xbea85074	-0.3287388
35	0x3d7cfbbf	0.06176352
36	0xbd1997f4	-0.03749843
37	0xbd5654d7	-0.052327003
38	0x3a2f5dac	0.00066896784
39	0xbe67155a	-0.22566739
40	0xbef1b65e	-0.47209448
41	0x383cd9b0	4.502543e-05
42	0xbfac2e27	-1.3451585
43	0xbecfaa02	-0.40559393
44	0xbeaecef1	-0.3414226
45	0xbe717482	-0.235796
46	0xbfa62dce	-1.2982728
47	0xbf6e0a50	-0.92984486
48	0xbf4405ee	-0.7657155
49	0x3a717c86	0.0009211976
50	0xbf03301e	-0.51245296
51	0xbf0b681a	-0.5445572
52	0x3c2722ba	0.010201151
53	0xb6d01268	-6.201026e-06
54	0x3a97a72f	0.001157021
55	0x38c2d5ee	9.2904884e-05
56	0xbe0742e4	-0.1320911
57	0xbd0a9cf1	-0.033841077
58	0xbd87e8bc	-0.066361874
59	0xbeb1c122	-0.3471766
60	0xbfa3b852	-1.2790625
61	0xbf0f799c	-0.56044936
62	0xbe282a1d	-0.16422315
63	0xbf1569bc	-0.5836446

exp_avg_sq f4 [64]
0	0x3cc23be0	0.023710191
1	0x3f3c3908	0.7352452
2	0x3bae60b2	0.0053215856
3	0x3eb486c4	0.35259068
4	0x3efea027	0.49731562
5	0x3eb324be	0.3498897
6	0x3edf58f8	0.43622565
7	0x39996e73	0.00029264725
8	0x3e9479e3	0.28999242
9	0x3d52bdc5	0.05145051
10	0x3d7f035b	0.06225906
11	0x3b1e593f	0.0024162082
12	0x3ec7a18b	0.38990435
13	0x3e14ad80	0.1451931
14	0x3f60e5f8	0.87850904
15	0x3aea92c5	0.0017896524
16	0x3ce4b80a	0.027919788
17	0x3e415cff	0.18883131
18	0x3a8161b9	0.0009871043
19	0x39cf0adb	0.00039490205
20	0x3b47bb4a	0.0030476623
21	0x3f6508e2	0.8946668
22	0x3e50e8e6	0.20401344
23	0x3f4f865d	0.810644
24	0x3f4e1ea9	0.80515534
25	0x39c8bd46	0.00038287992
26	0x3ee566d9	0.4480503
27	0x3bf0f4d5	0.007353405
28	0x3f80306b	1.0014776
29	0x3f2ca9ab	0.6744639
30	0x3e13fb21	0.14451267
31	0x3bbfeac8	0.0058568455
32	0x3e6b7648	0.2299434
33	0x3b00cc27	0.0019652934
34	0x3c5d6daf	0.01351492
35	0x3de39378	0.11112112
36	0x3adf44a3	0.0017034005
37	0x3fa35453	1.2760109
38	0x3a03b521	0.0005024244
39	0x3c9cb228	0.01912792
40	0x3f0ca85e	0.5494441
41	0x3a5fc280	0.00085357577
42	0x3f941630	1.1569271
43	0x3f0a1fc6	0.5395473
44	0x3ebc0317	0.36721107
45	0x3c91ee32	0.017813776
46	0x3f0a27d1	0.53967005
47	0x3f9c8362	1.2227595
48	0x3daf89b5	0.085711874
49	0x3a7d60ff	0.00096656376
50	0x3d2c0f95	0.042007048
51	0x3f56da67	0.83927006
52	0x3ccd1dec	0.025038682
53	0x394b196b	0.00019369058
54	0x3ba76643	0.005108626
55	0x3a2e6a44	0.0006653408
56	0x3bb33b50	0.005469717
57	0x3b807456	0.0039201183
58	0x3b1b4030	0.0023689382
59	0x3f8076fe	1.0036314
60	0x3e949277	0.29017994
61	0x3f27daf5	0.65568477
62	0x3c282af6	0.010264149
63	0x3ed23606	0.41056842

exp_avg f4 [64, 64]
0	0xbb5feafb	-0.003416716
1	0xbe69b98f	-0.22824691
2	0xbb78e1d7	-0.0037976408
3	0xbe0a6423	-0.13514762
4	0xbd5fd42a	-0.054645695
5	0xbd236d65	-0.03989925
6	0xbc90b80c	-0.017665885
7	0xb868ea68	-5.553142e-05
8	0xbe25f882	-0.1620808
9	0xbd4216f0	-0.047385156
10	0xbd0d5004	-0.034500137
11	0xb4cebf4d	-3.850968e-07
12	0xbe5c7b1e	-0.2153134
13	0xbd4c902a	-0.049942173
14	0xbdfc1e84	-0.12310508
15	0xb8041f3e	-3.150035e-05
16	0xbb81bcdd	-0.003959282
17	0xbcef186f	-0.029186456
18	0xbac55d18	-0.0015057651
19	0xb78d7030	-1.6860751e-05
20	0xbb1fa517	-0.0024359876
21	0xbd3fa595	-0.04678877
22	0xbb188511	-0.0023272673
23	0xbdb47863	-0.088120244
24	0xbe130665	-0.14357908
25	0x00000000	0.0
26	0xbd9d98a3	-0.07695129
27	0xbb117a25	-0.0022198048
28	0xbd5fb08c	-0.054611728
29	0xbdf453ee	-0.11930071
30	0xbe3b7f82	-0.18310359
31	0xbb23dd83	-0.0025003857
32	0xbde32c4b	-0.110924326
33	0xb81f3aca	-3.7963306e-05
34	0xbbae992d	-0.0053283186
35	0xbe0ab7fd	-0.13546748
36	0xba83a38c	-0.0010043248
37	0xbcf8844e	-0.030336525
38	0xb86590bf	-5.473266e-05
39	0xbb9678e0	-0.004592046
40	0xbdee55bc	-0.11637446
41	0xb410ef9e	-1.3498217e-07
42	0xbd1ce019	-0.038299654
43	0xbd8bee4b	-0.0683256
44	0xbe6657a2	-0.22494367
45	0xbb010704	-0.001968802
46	0xbdd31674	-0.10307017
47	0xbe02fd0a	-0.12791839
48	0xbbe8e13f	-0.0071069296
49	0xb7a30436	-1.9433075e-05
50	0xbb69bb5e	-0.0035664658
51	0xbe2f4fd9	-0.17120303
52	0x399adc21	0.00029537178
53	0xb86dbc98	-5.6680845e-05
54	0xb7187d39	-9.089062e-06
55	0xb78edd34	-1.7030725e-05
56	0xbb37d1c6	-0.0028048619
57	0xba15b7ad	-0.0005711269
58	0xba122fe7	-0.0005576596
59	0xbdd399a5	-0.1033204
60	0xbd97672e	-0.07392727
61	0xbdd289ac	-0.10280165
62	0xbae872be	-0.0017734391
63	0xbde3e775	-0.11128131
64	0xbbc88cf9	-0.006120321
65	0x3ecb3610	0.39689684
66	0xbbdf0603	-0.0068061366
67	0x3e79870b	0.24367921
68	0x3da69e86	0.08135705
69	0x3d562b8c	0.052287623
70	0xbce44f41	-0.027869822
71	0xb8ca8409	-9.656704e-05
72	0x3eda5b1d	0.4264764
73	0x3de2bbcb	0.11070975
74	0x3e0d5c48	0.13804734
75	0xb5f53cd4	-1.8271626e-06
76	0x3eb1a06d	0.34692708
77	0x3e3ab00b	0.18231218
78	0x3e63bc4b	0.22239797
79	0xb865f095	-5.4821914e-05
80	0xbbe890b5	-0.0070973285
81	0xbc2c381b	-0.010511423
82	0xbb3072d8	-0.002692392
83	0xb7f36e30	-2.9019167e-05
84	0xbb8f52d6	-0.0043738885
85	0x3d41f693	0.047354292
86	0x3c07b0b4	0.008281875
87	0x3e13883e	0.14407441
88	0x3e71fbcb	0.23631208
89	0xb5280a14	-6.259954e-07
90	0x3e1ea151	0.15491225
91	0xbb8197e8	-0.003954876
92	0x3d31bed3	0.043394875
93	0x3e224bb7	0.15849195
94	0x3e9b7159	0.30359915
95	0xbb92f3aa	-0.0044846134
96	0x3ec9be12	0.39402825
97	0xb88a8bd1	-6.6063956e-05
98	0xbc1bf5f0	-0.009519085
99	0x3e9243a6	0.28567237
100	0xbaeb1741	-0.0017936007
101	0xb9a223e5	-0.0003092579
102	0xb8c7c257	-9.525258e-05
103	0xbc06cdb5	-0.008227755
104	0x3e306309	0.17225279
105	0xb6d38b92	-6.304538e-06
106	0xbcd0b2ca	-0.025475878
107	0x3d3198fd	0.04335879
108	0x3e97cb4c	0.2964729
109	0xbb69b6ee	-0.0035662013
110	0xbe117d53	-0.14207964
111	0x3e0756dc	0.13216728
112	0xbc551ac8	-0.013006873
113	0xb80d98f5	-3.3759472e-05
114	0xbbd10545	-0.006378802
115	0x3e7690f1	0.24078728
116	0xb79c5a4c	-1.8638697e-05
117	0xb8cee0af	-9.864696e-05
118	0xb78f0a4f	-1.7051729e-05
119	0xb7f8b289	-2.964704e-05
120	0xbba4e6de	-0.0050324043
121	0xba87ea7e	-0.0010369567
122	0xba82961d	-0.000996295
123	0x3e49b296	0.19697031
124	0xbdeac0de	-0.11462568
125	0x3d8a9fdd	0.06768773
126	0xbb4fb15b	-0.0031691405
127	0x3e098854	0.13430911
128	0x35ea02db	1.743519e-06
129	0x3527308b	6.228299e-07
130	0x383609b5	4.340122e-05
131	0x34e6df26	4.30032e-07
132	0x36862b4d	3.998552e-06
133	0x00000000	0.0
134	0x379307f7	1.7527474e-05
135	0x3848b817	4.7855163e-05
136	0x34ebded6	4.3934295e-07
137	0x3414a3e0	1.3843191e-07
138	0x3433c174	1.6741052e-07
139	0x33cb77a0	9.474684e-08
140	0x3449d978	1.8798698e-07
141	0x00000000	0.0
142	0x344f641f	1.9314801e-07
143	0x37ef6da6	2.854208e-05
144	0x38d0c27c	9.9544384e-05
145	0x37446206	1.1705333e-05
146	0x36a8b75e	5.028137e-06
147	0x37181e94	9.0670255e-06
148	0x37ffdd84	3.050152e-05
149	0x34f9a2d6	4.6498343e-07
150	0x328b5f2c	1.6225009e-08
151	0x342fe7af	1.6382431e-07
152	0x34c3c9c3	3.646838e-07
153	0x00000000	0.0
154	0x32b85f5b	2.1463782e-08
155	0x3784a5cd	1.5812833e-05
156	0x370305b7	7.809539e-06
157	0x360ce98e	2.0997572e-06
158	0x352c8137	6.4263025e-07
159	0x380aab2b	3.3061177e-05
160	0x34bfffd0	3.576265e-07
161	0x380ebb29	3.4029745e-05
162	0x37ef0c6c	2.8496805e-05
163	0x3518c816	5.6915576e-07
164	0x37a0b657	1.9158395e-05
165	0x37e6e405	2.7524316e-05
166	0x384c06b5	4.8643637e-05
167	0x387d7c8f	6.0435905e-05
168	0x33e9a953	1.0880708e-07
169	0x34e478ee	4.2556297e-07
170	0x382bd534	4.0968138e-05
171	0x37901293	1.7174787e-05
172	0x34e826ac	4.3241505e-07
173	0x386dd06a	5.6699304e-05
174	0x33a54ae4	7.697034e-08
175	0x355b3e8f	8.167489e-07
176	0x3822e54c	3.883736e-05
177	0x37ea3488	2.7919436e-05
178	0x3803832d	3.1355e-05
179	0x34abbcce	3.1988606e-07
180	0x00000000	0.0
181	0x38563d3a	5.1078598e-05
182	0x37041297	7.872141e-06
183	0x37813ede	1.5407273e-05
184	0x3842e7c2	4.6469046e-05
185	0x3832d08f	4.2632742e-05
186	0x386c8f1e	5.6400073e-05
187	0x363d17e8	2.817711e-06
188	0x3798222a	1.813572e-05
189	0x375c7d55	1.3142203e-05
190	0x36c77616	5.944409e-06
191	0x359c1b98	1.1630937e-06
192	0xbbcc7ef2	-0.006240719
193	0x3ea2bd0e	0.31784862
194	0xbbe370bf	-0.0069409306
195	0x3e4030f6	0.18768677
196	0x3d797601	0.060903553
197	0x3d0b6369	0.03403035
198	0xbcf4f4e5	-0.029901931
199	0xb8e41af3	-0.00010876907
200	0x3eb10d32	0.3458038
201	0x3dab0489	0.083504744
202	0x3def810b	0.11694535
203	0xb5b8458c	-1.3729309e-06
204	0x3e87cfd6	0.26525754
205	0x3e441305	0.1914788
206	0x3e2d2c93	0.16911535
207	0xb881830c	-6.175609e-05
208	0xbbee27a9	-0.0072679115
209	0xbc954b12	-0.018224273
210	0xbb347dee	-0.002754088
211	0xb80884eb	-3.2548716e-05
212	0xbb9251de	-0.0044653257
213	0x3cf61d90	0.030043393
214	0x3c00fa2b	0.007872145
215	0x3ded3785	0.11582855
216	0x3e42c53d	0.19020553
217	0xb4e1ead4	-4.2080376e-07
218	0x3dfd4022	0.12365748
219	0xbb83e3bf	-0.004024952
220	0x3d434121	0.047669534
221	0x3dd096ad	0.10184989
222	0x3e6c6670	0.23085952
223	0xbb9602cf	-0.0045779715
224	0x3ea89c10	0.32931566
225	0xb89c121e	-7.442034e-05
226	0xbc1ed650	-0.009694651
227	0x3e736056	0.23767218
228	0xbaefe0ac	-0.001830121
229	0xbc1b41a6	-0.009476101
230	0xb8e115f8	-0.00010732928
231	0xbc099e9f	-0.008399635
232	0x3e324d94	0.17412406
233	0xb6986562	-4.5417555e-06
234	0xbd089fac	-0.0333554
235	0x3c8f56e4	0.017497487
236	0x3e5a6c44	0.21330363
237	0xbb6f744f	-0.0036537831
238	0xbe412cc8	-0.18864739
239	0x3da36406	0.07978062
240	0xbc58c54e	-0.013230635
241	0xb81f7771	-3.8019793e-05
242	0xbbd4fd63	-0.0064999326
243	0x3e33dbec	0.17564362
244	0x3a11daf6	0.0005563939
245	0xb8e91283	-0.00011113754
246	0xb79ffe97	-1.907283e-05
247	0xb80c1063	-3.3393862e-05
248	0xbba82fe5	-0.0051326626
249	0xba8cc20e	-0.0010738985
250	0xba871c3e	-0.00103081
251	0x3e1c7c33	0.15281753
252	0xbe0eed3b	-0.13957684
253	0x3d100b4c	0.035167024
254	0xbb54ca83	-0.003246934
255	0x3dc36f26	0.09542684
