gen_1_agent_4.pt (torch, 64207 bytes, 18 tensors)

net.0.weight f4 [64, 4]
0	0x3dc9c5c3	0.09852173
1	0x3dfdfa04	0.12401202
2	0x3c5f1836	0.013616612
3	0xbe8c3b71	-0.273891
4	0xbe043bf2	-0.12913492
5	0x3e65875b	0.22414915
6	0xbcc69673	-0.024241662
7	0xbe0630be	-0.13104531
8	0xbe6ced3b	-0.23137371
9	0x3e6b3a35	0.22971423
10	0xbd91cb6d	-0.071188785
11	0x3e8c6e66	0.27427977
12	0x3e39f6b5	0.18160518
13	0x3e905d29	0.28196076
14	0x3d76a4ac	0.060215637
15	0xbe65cb19	-0.22440757
16	0x3e2f7079	0.17132749
17	0xbe4de264	-0.20105892
18	0xbe893276	-0.2679631
19	0xbe04f158	-0.1298269
20	0x3cef76f5	0.029231528
21	0xbe0a413d	-0.13501449
22	0xbe65d260	-0.22443533
23	0xbe525f28	-0.20544112
24	0x3e87eae9	0.2654641
25	0xbe7bb213	-0.24579649
26	0x3decfd09	0.115717
27	0x3e123cb4	0.14280969
28	0x3d0cf314	0.034411505
29	0xbd7a7a18	-0.061151594
30	0xbe74043a	-0.23829737
31	0xbe8bd0de	-0.2730779
32	0xbe950875	-0.29108015
33	0xbd3aad6e	-0.04557555
34	0x3d48cbd1	0.0490225
35	0x3decdbfc	0.11565396
36	0xbe21bbc1	-0.15794279
37	0xbe8c3e18	-0.27391124
38	0xbe19d1b3	-0.150214
39	0xbe3e4a16	-0.18582949
40	0x3e504f69	0.20342793
41	0xbe8acee4	-0.2711097
42	0xbe91e156	-0.2849223
43	0xbe083347	-0.13300811
44	0xbe3e34c9	-0.18574823
45	0x3e315250	0.17316556
46	0x3e4057e6	0.1878353
47	0xbe9f5a04	-0.31123364
48	0xbe8f0ad9	-0.27937964
49	0x3e247ec3	0.16063981
50	0xbd6a0b55	-0.057139713
51	0xbe704200	-0.23462677
52	0xbdb087fa	-0.086196855
53	0x3e0ab532	0.13545683
54	0xbcdf054d	-0.027224207
55	0xbe8783a7	-0.2646763
56	0x3d52940a	0.051410712
57	0x3e24aff1	0.16082741
58	0x3df9d4b5	0.12198774
59	0x3e50b4c1	0.20381452
60	0xbe521ac2	-0.2051802
61	0xbe1693a0	-0.14704752
62	0xbe65952b	-0.22420184
63	0xbe40b99b	-0.18820803
64	0x3e897a50	0.2685113
65	0x3e4645ff	0.19362639
66	0xbe438673	-0.19094257
67	0x3e8a0bad	0.26962033
68	0xbe7662b7	-0.24061094
69	0x3d658376	0.056033574
70	0xbe188aee	-0.14896747
71	0x3e493a2c	0.19651097
72	0x3e8599e2	0.26093966
73	0xbe468f4c	-0.19390601
74	0x3de68479	0.11255736
75	0xbcd83efd	-0.026397223
76	0xbdbf2a7d	-0.09334276
77	0x3e9197a6	0.2843601
78	0x3e550551	0.2080281
79	0xbe70769f	-0.2348275
80	0x3c616946	0.013758009
81	0xbe7e1977	-0.24814402
82	0x3e908bba	0.28231603
83	0xbe389ff3	-0.18029766
84	0x3e0f727e	0.14008519
85	0xbbcee923	-0.006314413
86	0x3e831e03	0.25608835
87	0x3c2a65d2	0.010400252
88	0xbd144934	-0.036202624
89	0xbe39ca19	-0.181435
90	0xbdb64df0	-0.08901584
91	0x3e552ecc	0.20818633
92	0x3e77e84c	0.24209708
93	0x3dc50931	0.09620894
94	0xbd5b6ed4	-0.05357249
95	0xbe918211	-0.28419545
96	0xbe497859	-0.19674815
97	0xbe1af769	-0.15133442
98	0x3e214be5	0.15751608
99	0x3e87220d	0.26393166
100	0x3dd2e34a	0.10297258
101	0xbe70d02a	-0.23516908
102	0xbb402965	-0.0029321548
103	0x3d117f74	0.03552194
104	0x3e757a1e	0.23972365
105	0xbe8f0e96	-0.27940816
106	0xbe880a64	-0.26570427
107	0xbe1a735c	-0.15083069
108	0x3e518a87	0.20463
109	0x3e28db13	0.1648982
110	0x393c62ac	0.00017965835
111	0xbe2348c1	-0.15945722
112	0x3e6e2c0e	0.23258993
113	0x3e8065ca	0.2507766
114	0xbddd99b6	-0.10820334
115	0x3e097de2	0.13426927
116	0xbd978053	-0.07397523
117	0x3e939c90	0.28830385
118	0xbbedafff	-0.0072536464
119	0x3d9c5878	0.076340616
120	0xbe46a5d2	-0.19399193
121	0xbe2eb69a	-0.17061844
122	0x3e801be0	0.25021267
123	0xbe82ff45	-0.2558538
124	0x3c6dbb80	0.0145100355
125	0x3e17862d	0.14797278
126	0x3d49a135	0.049226005
127	0x3e25d2d6	0.16193709
128	0x3df7a7dd	0.12092564
129	0x3e37d98b	0.1795408
130	0xbe602611	-0.21889521
131	0xbd2bd4b6	-0.041950904
132	0x3e3015e0	0.17195845
133	0x3e8f53b1	0.2799354
134	0x3dddad83	0.1082411
135	0xbdb8d1bd	-0.090243794
136	0xbc6ff311	-0.014645354
137	0x3e0f37ee	0.13986179
138	0x3e309cd9	0.17247333
139	0x3e803880	0.25043106
140	0xbcc08ad9	-0.023503708
141	0x3e9bf529	0.3046048
142	0x3e2315b0	0.15926242
143	0x3dc551f6	0.096347734
144	0xbd1024fb	-0.035191517
145	0x3d971a9d	0.07378123
146	0xbe98a6a4	-0.29814637
147	0xbe4d15b1	-0.20027806
148	0xbe22c1e3	-0.15894274
149	0x3e8f2b04	0.27962506
150	0x3e55bd77	0.20873056
151	0xbde2db30	-0.11076963
152	0x3e89c086	0.26904696
153	0xbe110f0f	-0.141659
154	0xbe47697c	-0.19473833
155	0xbe9b0b6b	-0.3028215
156	0xbc6fe2d3	-0.014641481
157	0x3e6c3eec	0.23070878
158	0xbdea3939	-0.114366956
159	0x3df7cd26	0.12099676
160	0xbe4c32dc	-0.19941276
161	0x3e48e0fe	0.19617078
162	0xbea015cf	-0.3126664
163	0xbdec82ff	-0.11548423
164	0x3dbe93cb	0.09305533
165	0xbe8c56d1	-0.27409986
166	0xbdb9c197	-0.090701275
167	0x3e36d6bd	0.17855354
168	0xbd9e259d	-0.07722018
169	0x3ddde62f	0.1083492
170	0xbe0d0bed	-0.1377408
171	0xbdaca664	-0.08430174
172	0x3cf6973c	0.030101411
173	0x3e5038ac	0.20334119
174	0x3d9e6d9d	0.07735751
175	0x3e38aaa1	0.1803384
176	0xbe86b852	-0.263125
177	0x3e86ac65	0.26303402
178	0xbd18fa76	-0.037348233
179	0xbe8dc6af	-0.27690646
180	0x3a82de3d	0.0009984445
181	0xbe4ee801	-0.2020569
182	0xbe56a991	-0.20963122
183	0x3dfd6549	0.12372834
184	0x3cfb0346	0.03064121
185	0xbe84e952	-0.2595926
186	0x3e2e6cdd	0.17033716
187	0x3bf2ae4b	0.0074060312
188	0xbe0b376d	-0.13595362
189	0xbe37edfd	-0.17961879
190	0xbe818b6c	-0.25301683
191	0xbe6bfafb	-0.2304496
192	0x3e13d3ef	0.14436315
193	0x3e4798cb	0.1949188
194	0x3e790ae0	0.24320555
195	0xbd195c19	-0.037441347
196	0xbc222b81	-0.009898067
197	0xbd90947f	-0.070595734
198	0xbe3ad41f	-0.1824498
199	0x3e81b072	0.2532993
200	0x3e1d0aca	0.15336147
201	0x3e56bca4	0.20970398
202	0x3e87b443	0.26504716
203	0xbdc0f564	-0.094218045
204	0x3e561cdb	0.20909445
205	0x3e94860b	0.29008517
206	0x3e6df19f	0.23236702
207	0xbe0f33fb	-0.13984673
208	0x3da20278	0.07910627
209	0x3c6dd7d5	0.01451679
210	0x3e8cbb6f	0.2748675
211	0xbe53523d	-0.2063684
212	0xbe7bb1a7	-0.24579488
213	0xbe8eb1b5	-0.27869955
214	0xbe52116a	-0.20514455
215	0x3e085e1d	0.13317151
216	0xbe5d463c	-0.21608824
217	0xbe8bed63	-0.2732955
218	0xbb3f19ac	-0.0029159589
219	0xbb8f6dc8	-0.0043771006
220	0x3e6924f3	0.22768001
221	0x3e1d28a5	0.15347536
222	0xbcdcfd5f	-0.026976286
223	0x3e38f3a6	0.18061695
224	0x3dbbe93e	0.09175347
225	0x3a1ca1f8	0.0005975063
226	0x3de817ad	0.11332641
227	0x3de599fc	0.11211011
228	0x3e57fbb8	0.21092117
229	0x37d5f7fc	2.5507055e-05
230	0x3e23f9ad	0.16013213
231	0xbd58c8dc	-0.05292593
232	0xbe89dadd	-0.26924792
233	0x3e0aea18	0.13565862
234	0xbe526d06	-0.20549402
235	0x3e85a415	0.26101747
236	0xbdcce2a1	-0.100041635
237	0x3e6e66cd	0.23281403
238	0xbdfe78ab	-0.12425359
239	0xbe6f6a73	-0.23380451
240	0x3e437884	0.19088942
241	0xbe91b396	-0.28457326
242	0x3e4b6c4f	0.19865535
243	0x3e953374	0.29140818
244	0x3d8104a4	0.06299713
245	0xbe87143b	-0.26382622
246	0x3cabe8ea	0.020985086
247	0xbe34c744	-0.17654139
248	0xbd3a7bd6	-0.045528255
249	0xbdda98f5	-0.106737055
250	0xbe997220	-0.29969883
251	0xbe60ed51	-0.21965529
252	0x3e20c4b1	0.15700032
253	0x3e6363a2	0.22205976
254	0xbe7f99d4	-0.24961025
255	0xbe069992	-0.1314452

net.0.bias f4 [64]
0	0x3d4caad2	0.049967594
1	0xbc20f589	-0.009824165
2	0xbc3a2185	-0.011360531
3	0x3d4c6a0c	0.04990582
4	0xbc8fa850	-0.017536312
5	0xbcbf96dd	-0.023387367
6	0xbc12ad5f	-0.008952468
7	0x3d60054e	0.05469256
8	0x3cf392a0	0.029733002
9	0xbc6322fe	-0.013863323
10	0x3cb65ad5	0.022260109
11	0x3d88a7a5	0.06672601
12	0x3cacbc44	0.021085866
13	0x3ca46562	0.020067874
14	0x3ba967f5	0.0051698633
15	0xbbc8dd18	-0.006129872
16	0x3cd76c27	0.026296688
17	0x3bcc110c	0.006227618
18	0xbc034d58	-0.008014046
19	0x3d6febcd	0.058574487
20	0xbc3abffd	-0.011398313
21	0xbc30c88f	-0.010790004
22	0xbb8651f2	-0.004099124
23	0x3d8b015d	0.067873694
24	0x3c8acdea	0.01694389
25	0xbae9ad98	-0.0017828224
26	0x3cd0c573	0.025484776
27	0x3ccc4d24	0.024939127
28	0xbd059f83	-0.032622825
29	0x3cfe595b	0.031048467
30	0x3d0499a3	0.032373082
31	0x3ce527fa	0.027973164
32	0x3d2c8c05	0.04212572
33	0x3bf67fca	0.007522558
34	0x3aed026c	0.0018082387
35	0x3d78e798	0.06076774
36	0xbbff1fdf	-0.0077857818
37	0x3d257c17	0.040401544
38	0x3d110feb	0.03541557
39	0x3d4a2529	0.049351845
40	0x3d7c5122	0.06160081
41	0x3b042909	0.002016606
42	0xbd2fd772	-0.042930074
43	0xbc02eb5a	-0.0079906825
44	0x3d2901c8	0.041261464
45	0xbbddac26	-0.0067649065
46	0xbc2aaa55	-0.010416587
47	0x3d22a9fa	0.039712884
48	0xbc9413ce	-0.01807585
49	0xbb40a0c1	-0.0029392692
50	0x3d425a6a	0.047449507
51	0x3d32ae0e	0.043623023
52	0xbcf669aa	-0.030079681
53	0xbc2c6b48	-0.010523625
54	0x3c56ca4e	0.013109757
55	0x3cef9040	0.029243588
56	0x3c0bc776	0.008531442
57	0xbc1bff55	-0.009521325
58	0xbc18b04d	-0.009319377
59	0x3d5305ae	0.05151909
60	0xbbd6b966	-0.006552863
61	0xbc77ed3b	-0.015132244
62	0x3d0c9fd1	0.0343321
63	0x3c11b6bc	0.008893665

net.3.weight f4 [64, 64]
0	0xbdf806b5	-0.12110654
1	0xbe2dcebe	-0.16973397
2	0xbd844f0e	-0.06460391
3	0xbbd3028f	-0.006439514
4	0xbe5ad4b7	-0.21370207
5	0x3ce7c3ab	0.028291544
6	0xbd0f2bf3	-0.034954023
7	0xbd976497	-0.07392233
8	0xbe19e9e4	-0.15030628
9	0xbe628cb3	-0.22123985
10	0xbe09032a	-0.13380113
11	0xbc59ccd6	-0.013293466
12	0xbdbaf179	-0.091280885
13	0x3d93b005	0.072113074
14	0xbd6009e3	-0.05469693
15	0x3d7a7abf	0.061152216
16	0xbe00ba34	-0.12571031
17	0xbbe0fc8f	-0.006866045
18	0x3d69a52e	0.057042293
19	0xbd3c78b9	-0.046013568
20	0x3df88427	0.12134581
21	0x3c145410	0.009053245
22	0x3d5ad5b4	0.05342646
23	0xbe02d37f	-0.12775992
24	0x3e382fdf	0.17987011
25	0x3e4f6764	0.20254284
26	0x3e4d5dc5	0.20055301
27	0xbe28cd1b	-0.16484492
28	0x3e0303c4	0.12794405
29	0x3d3158f1	0.04329771
30	0xbdfe7a0a	-0.12425621
31	0x3deb0918	0.11476344
32	0xbdbd4116	-0.0924093
33	0x3e3f2c2c	0.18669194
34	0x3e0c696a	0.13712087
35	0x3e1c3e6f	0.15258192
36	0x3e03edf0	0.12883735
37	0x3d2fcb06	0.042918228
38	0x3e181ffb	0.1485595
39	0xbcd2317c	-0.025658362
40	0xbd0c75dd	-0.03429209
41	0x3e0464a2	0.12929013
42	0x38a012bd	7.632885e-05
43	0x3d5ee46e	0.054417066
44	0x3b843ff2	0.004035943
45	0xbdb57d2b	-0.088617645
46	0xbddbffcb	-0.10742148
47	0x3e0c36f0	0.13692832
48	0xbe2c654e	-0.1683552
49	0xbd8b63ef	-0.0680617
50	0x3e08f5fb	0.13375084
51	0x3bf20514	0.0073858593
52	0xbe0c76d0	-0.13717198
53	0x3c82caf0	0.015965909
54	0xbe42e2d9	-0.19031848
55	0xbd863173	-0.065524004
56	0x3e285b7e	0.16441151
57	0xbc8db725	-0.017299244
58	0xbdc9349f	-0.0982449
59	0xbd0f5768	-0.034995466
60	0xbd19b65c	-0.037527427
61	0x3de60ed6	0.112332985
62	0x3e349ef9	0.17638768
63	0x3d418e68	0.04725495
64	0xbba3a276	-0.004993732
65	0xbd7f80f2	-0.06237883
66	0x3dfe54df	0.124185316
67	0xbe11bae1	-0.14231445
68	0xbe27178d	-0.16317578
69	0xbe438be8	-0.19096339
70	0xbe08e368	-0.13367999
71	0xbe0b8340	-0.13624287
72	0x3e09515c	0.13409942
73	0xbe36ae0b	-0.1783983
74	0x3e3cbe2d	0.18431921
75	0xbe109420	-0.14119005
76	0xbd97bffc	-0.07409665
77	0xbe48a05e	-0.19592425
78	0xbdeb80fd	-0.11499212
79	0x3e00708f	0.12542938
80	0x3c63e4f0	0.013909563
81	0x3e170170	0.14746642
82	0x3e293e51	0.16527678
83	0x3de7d2b6	0.11319487
84	0xbe1402bd	-0.1445417
85	0xbe108fcf	-0.14117359
86	0xbd3cecbe	-0.046124212
87	0x3de321b0	0.1109041
88	0xbd7004e5	-0.058598418
89	0xbe0009fc	-0.12503809
90	0xbe1a0101	-0.15039445
91	0xbd57abd6	-0.05265411
92	0xbd2dd5a9	-0.04244009
93	0xbd0fc202	-0.03509713
94	0x3e62ffde	0.22167918
95	0x3e371214	0.1787799
96	0x3d4bc7a6	0.049750946
97	0xbcb99d21	-0.022657933
98	0xbd1c32a5	-0.038134236
99	0x3e639b6c	0.22227257
100	0x3e0293a9	0.1275164
101	0xbe3469dc	-0.17618507
102	0xbde15b12	-0.110036984
103	0x3e748aa2	0.23881009
104	0x3cbde302	0.023179535
105	0x3debb656	0.11509387
106	0x3c4662e0	0.012108535
107	0x3cd5d8c5	0.02610434
108	0xbd956ad6	-0.07295768
109	0xbdb72b36	-0.08943789
110	0xbcfa2610	-0.030535728
111	0xbda5387f	-0.080674164
112	0xbe435f19	-0.19079246
113	0x3de875c0	0.11350584
114	0x3dd51b47	0.10405593
115	0x3cfd0fee	0.030891385
116	0x3e0f5e69	0.14000858
117	0x3dce7b17	0.10082071
118	0x3d907b55	0.07054774
119	0x3d1404a7	0.03613725
120	0xbe4856ac	-0.19564313
121	0xbddd4519	-0.10804195
122	0x3cf8b4d8	0.03035967
123	0xbe153b08	-0.145733
124	0x3de69076	0.112580225
125	0xbb91e5cc	-0.0044524428
126	0xbe46a08e	-0.19397184
127	0xbe2029b8	-0.15640914
128	0xbd6840b7	-0.056702342
129	0x3ddf82df	0.109136336
130	0xbe041ae8	-0.12900889
131	0xbe35508c	-0.17706507
132	0xbc6eb36f	-0.0145691475
133	0x3e2ff73c	0.17184156
134	0x3e0e19d5	0.13877042
135	0x3d81e4eb	0.06342491
136	0xbd0083cb	-0.031375688
137	0xbc0f6e82	-0.008754374
138	0x3dccec0d	0.100059606
139	0xbe22c24f	-0.15894435
140	0xbd74b6e1	-0.05974472
141	0xbd82a3ba	-0.063788846
142	0xbd8a7aea	-0.06761725
143	0xbe140724	-0.14455849
144	0x3dcb3325	0.099218644
145	0xbe2dd8fc	-0.16977304
146	0x3e4f0967	0.2021843
147	0x3c22d0e9	0.009937503
148	0xbd349a68	-0.044092566
149	0xbc6e3f6e	-0.01454149
150	0xbd028390	-0.03186375
151	0x3d5b638e	0.05356174
152	0x3e23c5ea	0.15993467
153	0x3e206061	0.15661766
154	0x3d5504ae	0.052006416
155	0xbd042bfe	-0.032268517
156	0xbe2f3ca5	-0.17112978
157	0xbe1bb166	-0.15204391
158	0x3e3b44c6	0.18287954
159	0x3d807436	0.062721655
160	0xbdb98bcd	-0.09059868
161	0x3e49806c	0.19677895
162	0xbe5b7bce	-0.21433946
163	0xbcc31f33	-0.023818588
164	0xbbc5e9ae	-0.0060398197
165	0x3c89b343	0.016809111
166	0x3e2cf255	0.16889317
167	0x3e169c7c	0.14708132
168	0xbc8b4807	-0.017002119
169	0x3d4caf5e	0.04997193
170	0xbd384321	-0.044985894
171	0x3db81521	0.08988405
172	0xbe3023fc	-0.17201227
173	0xbe450a19	-0.19242133
174	0x3e1f6160	0.1556449
175	0xbc479965	-0.012182568
176	0x3e2ef0cc	0.17084044
177	0xbd9fe5c0	-0.07807493
178	0x3e1e79f8	0.15476215
179	0x3ced64ab	0.028978666
180	0x3e3793cd	0.17927475
181	0xbb6cba6a	-0.0036121854
182	0x3dcae56d	0.09907041
183	0x3e2a0d8c	0.1660673
184	0x3e069fc9	0.1314689
185	0x3e494dcb	0.19658582
186	0x3de9b069	0.11410601
187	0xbd79f4c5	-0.061024446
188	0x3cc7cf4b	0.024390837
189	0xbbeb533f	-0.0071815546
190	0x3e40a5ae	0.18813202
191	0xbe0721db	-0.13196509
192	0x3df3e775	0.11909381
193	0xbe36b77c	-0.17843431
194	0xbdd9f57d	-0.10642526
195	0x3da4b8c8	0.08043057
196	0x3c9287eb	0.017887076
197	0xbdcda47e	-0.1004114
198	0xbe274e8f	-0.16338561
199	0x3cc79af6	0.024365883
200	0x3aacbb9c	0.001317847
201	0x3e47dd4f	0.19518016
202	0x3e2be3b1	0.16786076
203	0xbe254520	-0.1613965
204	0x3e5fee61	0.21868278
205	0xbde3b9a3	-0.11119392
206	0xbdaf295b	-0.0855281
207	0x3db57d9d	0.088618495
208	0x3e5df748	0.21676362
209	0x3cbcc4ac	0.023043
210	0x3cbc5a49	0.02299227
211	0x3da094a0	0.07840848
212	0xbcd298e9	-0.025707679
213	0xbe04d180	-0.12970543
214	0xbc8909f0	-0.016728371
215	0x3e503289	0.20331778
216	0x3e63eb5f	0.22257756
217	0xbe24a32b	-0.16077869
218	0xbd1fdf6b	-0.039031427
219	0xbdc20095	-0.09472767
220	0x3df6f7bd	0.12058971
221	0x3dcb9bb2	0.09941806
222	0x3d71a3c4	0.05899407
223	0x3e38061f	0.17971085
224	0x3c982799	0.01857357
225	0xbe0210a1	-0.12701656
226	0x3ddfef32	0.10934295
227	0x3dd06ccb	0.101770006
228	0xbb9fec89	-0.004880492
229	0x3e7f8190	0.24951768
230	0x3ca6fb8c	0.020383619
231	0xbd99a093	-0.0750133
232	0x3e3c5930	0.18393397
233	0xbccfadf6	-0.025351506
234	0x3e1d29a2	0.15347913
235	0xbe3754c4	-0.1790343
236	0x3e4a3b0d	0.19749089
237	0x3cb149a2	0.021641556
238	0x3dc02e97	0.09383886
239	0x3e2748e6	0.16336402
240	0x3b37aa83	0.0028025217
241	0x3e055481	0.13020517
242	0x3de50f1f	0.11184525
243	0x3de50ba0	0.11183858
244	0xbbe08588	-0.0068518557
245	0xbe23714b	-0.15961187
246	0xbe35e3d2	-0.17762688
247	0xbe141408	-0.14460766
248	0x3e0b2079	0.13586606
249	0x3daa14f6	0.08304779
250	0x3e117d12	0.14207867
251	0x3db24cec	0.08706078
252	0xbe5fc087	-0.21850787
253	0xbdcae333	-0.09906616
254	0x3dbb9478	0.091591775
255	0xbdf98f02	-0.1218548

net.3.bias f4 [64]
0	0xbc71dc62	-0.014762016
1	0x3ccc6a95	0.024953166
2	0xbc380ffd	-0.011234281
3	0x3d5c8674	0.053839162
4	0xbc92ef07	-0.017936243
5	0xb8ecf691	-0.000112992835
6	0x3d66f31c	0.05638419
7	0xbcdde8a1	-0.027088465
8	0xbcecf6d4	-0.02892629
9	0x3d4600a0	0.04834044
10	0x3d7e5d79	0.06210086
11	0x3d2ee7e0	0.042701602
12	0x3d0efe1a	0.0349103
13	0x3ce7f3ca	0.02831449
14	0xbcbd6adf	-0.02312225
15	0xbcce017c	-0.025147192
16	0x3d8ee091	0.069764264
17	0xbab181cf	-0.0013542714
18	0xbc8e10b0	-0.017341942
19	0xbcb81935	-0.022472957
20	0xbbf40d51	-0.0074478765
21	0xbce575d2	-0.028010283
22	0xbcb685f4	-0.02228067
23	0x3cc80e7e	0.024420973
24	0xbc41a423	-0.011818918
25	0xbc9cbd37	-0.019133193
26	0xbc811ad7	-0.015759869
27	0xbc5e6b90	-0.01357545
28	0xbba19c92	-0.0049319947
29	0x3c04ab77	0.008097521
30	0x3c1c7dde	0.009551493
31	0x3d7ec002	0.06219483
32	0x3bcf8f55	0.006334225
33	0x3d62c5be	0.055364363
34	0xbc8ad590	-0.016947538
35	0x00000000	0.0
36	0x3c938bc9	0.01801099
37	0xbd43aa95	-0.0477701
38	0x3d8bd412	0.068275586
39	0xbb2eba9a	-0.0026661516
40	0x3d85881b	0.06520101
41	0xbc899489	-0.01679446
42	0x3d81a0a9	0.063294716
43	0x3c9b49f0	0.018956155
44	0x3cb6bb09	0.022305982
45	0xbcd5d87c	-0.026104204
46	0x3d7312bc	0.05934404
47	0x00000000	0.0
48	0x3d5bc566	0.05365505
49	0xbbe6863d	-0.0070350454
50	0x3d423615	0.047414858
51	0x3bdef51b	0.006804121
52	0x3d8803f6	0.066413805
53	0x3d5dc737	0.054145064
54	0xbc55f687	-0.013059265
55	0x3bb4d08c	0.005518025
56	0xbb6d85a2	-0.0036242981
57	0xbd377bd4	-0.044795826
58	0xbc5d41d4	-0.013504464
59	0x3b9024b3	0.004398906
60	0x3d270fe1	0.040786628
61	0xbcd6f994	-0.026242055
62	0xbc958c17	-0.018255277
63	0x3bc71278	0.0060751997

net.6.weight f4 [2, 64]
0	0x3d8c2f51	0.068449624
1	0xbcb41f3f	-0.021987556
2	0x3e112ed8	0.14178026
3	0xbd38ccbf	-0.045117136
4	0x3d84626e	0.064640865
5	0x3e081d8f	0.13292526
6	0xbc78bb45	-0.015181367
7	0x3cccdbde	0.025007185
8	0xbe82db1e	-0.25557798
9	0xbddbf307	-0.10739713
10	0x3c871a9d	0.016492182
11	0xbe4b6433	-0.19862442
12	0xbd6bf8e6	-0.057610415
13	0xbe648cfc	-0.22319406
14	0x3e37e4c5	0.17958362
15	0x3e375091	0.17901827
16	0x3e2df7fd	0.16989131
17	0x3e00408b	0.12524621
18	0x3e6f8126	0.2338911
19	0xbe64b30a	-0.22333923
20	0xbe4a14f4	-0.19734555
21	0xbd94447d	-0.072396256
22	0x3c639e58	0.013892733
23	0x3e005453	0.12532167
24	0xbe9583fd	-0.29202262
25	0xbc576040	-0.013145506
26	0xbe8dc547	-0.27689573
27	0xbd0f9878	-0.035057515
28	0x3d4034ad	0.046925236
29	0xbe44d605	-0.19222267
30	0x3e983768	0.29729772
31	0x3cb86919	0.022511052
32	0xbde1b9f1	-0.11021794
33	0xbd744d45	-0.059644002
34	0xbdb024f5	-0.08600799
35	0xbe1dae16	-0.1539844
36	0xbe900b17	-0.2813346
37	0xbddce692	-0.10786165
38	0x3dc81db8	0.097712934
39	0xbe44200e	-0.19152853
40	0x3e6b4614	0.22975951
41	0xbe09a4fc	-0.13441843
42	0x3c88329c	0.016625695
43	0xbe0bbff1	-0.13647439
44	0x3e52f660	0.20601797
45	0xbd041ce7	-0.032254126
46	0x3e851aa4	0.25996888
47	0xbd774bb4	-0.06037493
48	0x3e8aee02	0.2713471
49	0xbe8a40fe	-0.2700271
50	0xbe15942a	-0.14607301
51	0xbdcb6398	-0.099311054
52	0x3e6c9df0	0.23107123
53	0x3e83b086	0.25720614
54	0xbe2b9832	-0.16757277
55	0x3e550088	0.20800984
56	0x3e1c030f	0.15235542
57	0xbd5a08e5	-0.05323114
58	0xbe195a4e	-0.14975855
59	0xbdb4e106	-0.08831982
60	0xbe4317d8	-0.19052064
61	0x3e8e281a	0.2776497
62	0xbe61779a	-0.2201828
63	0x3e6b7fea	0.22998014
64	0xbe3b9b30	-0.18320918
65	0x3e4bcd57	0.1990255
66	0xbd631426	-0.055439137
67	0x3e8e24b5	0.2776238
68	0xbda01112	-0.07815756
69	0xbe97db82	-0.2965966
70	0x3e80711e	0.25086302
71	0xbd1f31e0	-0.038865924
72	0xbdbf16dd	-0.09330533
73	0x3e91dda4	0.2848941
74	0x3e9e9652	0.3097406
75	0x3e9e636a	0.30935222
76	0x3e95709e	0.29187483
77	0x3e2fb168	0.17157519
78	0xbda5afd4	-0.08090177
79	0xbe1900b7	-0.14941679
80	0x3e3437b7	0.17599379
81	0xbccbf6c6	-0.024897944
82	0xbe80cc14	-0.251557
83	0xbe1efef7	-0.15526949
84	0xbe14a8cf	-0.1451752
85	0xbe883ece	-0.26610416
86	0xbe4a2af8	-0.19742954
87	0x3e1eeebe	0.1552076
88	0xbe55e164	-0.20886761
89	0xbe787ff0	-0.24267554
90	0xbe046c7f	-0.12932013
91	0xbc9e65a2	-0.019335572
92	0xbe94174e	-0.2892403
93	0x3e0fc98f	0.14041732
94	0x3c967074	0.018364169
95	0x3e4b2101	0.19836809
96	0x3da4c292	0.08044924
97	0x3e9117ff	0.2833862
98	0xbe83319d	-0.2562379
99	0xbe7f0b6d	-0.24906702
100	0x3d62946b	0.055317324
101	0xbd92b33e	-0.07163094
102	0x3e68fb2b	0.22752063
103	0x3d2d84cf	0.042362984
104	0x3ea5e626	0.32402152
105	0xbe8e2cb3	-0.27768478
106	0x3e5b1902	0.21396258
107	0x3dd811ae	0.10550247
108	0x3c4fba28	0.01267866
109	0xbe59a3d9	-0.21253909
110	0x3e344a95	0.17606576
111	0x3e46c112	0.19409588
112	0x3df00cd8	0.117212
113	0xbd70ae44	-0.058759943
114	0x3e9d098f	0.30671355
115	0x3e6f845e	0.23390338
116	0x3e813976	0.25239152
117	0x3e2c7122	0.16840032
118	0xbe359bbf	-0.17735194
119	0x3d20b04d	0.039230634
120	0xbdc528ff	-0.0962696
121	0xbe716fcc	-0.23577803
122	0xbe70ac9e	-0.23503348
123	0x3e95988c	0.29217947
124	0x3ea023dc	0.3127736
125	0xbe31f6be	-0.17379281
126	0xbd192d7f	-0.037396904
127	0xbd007793	-0.031364035

net.6.bias f4 [2]
0	0x3cded25f	0.027199922
1	0x3d81cc06	0.063377425

exp_avg f4 [64, 4]
0	0x3d8add26	0.06780462
1	0x3e3960e1	0.18103363
2	0xbd737600	-0.059438705
3	0xbe91138e	-0.28335232
4	0x3c26290c	0.010141622
5	0x3e0a3f45	0.13500698
6	0xbc90e952	-0.01768938
7	0xbe58a9c6	-0.21158513
8	0x38b583b7	8.6552864e-05
9	0x38b51cd3	8.6361215e-05
10	0x38b3b031	8.568203e-05
11	0xb987c10a	-0.00025893032
12	0x3d873dbf	0.06603574
13	0x3e609d73	0.21935062
14	0xbd81a04d	-0.06329403
15	0xbeba2c71	-0.3636203
16	0xbbdcdde4	-0.0067403186
17	0xbdd0d2d2	-0.10196461
18	0x3c4a62dd	0.012352672
19	0x3e234d3a	0.15947428
20	0x3c166329	0.009178915
21	0x3daa4c45	0.083153285
22	0xbc5bd02a	-0.013416329
23	0xbe06af3b	-0.13152783
24	0xb333083d	-4.1684178e-08
25	0xb453e47f	-1.9734033e-07
26	0x34799b1b	2.3246359e-07
27	0x3529deed	6.3281806e-07
28	0x3c07ed2e	0.008296294
29	0xbead48a8	-0.33844495
30	0x3c9dcfec	0.019264184
31	0x3f056753	0.52110785
32	0x3c102905	0.008798842
33	0xbc4131f5	-0.011791696
34	0xbb008093	-0.0019607886
35	0x3cdd15e9	0.026987987
36	0xbc483a22	-0.012220891
37	0xbe0da2d7	-0.1383165
38	0x3ca3c57d	0.01999163
39	0x3e5e7540	0.21724415
40	0x3cd0d837	0.025493724
41	0x3e86ddc7	0.26341078
42	0xbd0c7cc9	-0.034298692
43	0xbece5dca	-0.4030593
44	0x3d24ea52	0.040262528
45	0xbc9cfc98	-0.019163415
46	0xbcd4f0a7	-0.025993658
47	0x3cf666e0	0.030078351
48	0x3cd18ce7	0.025579883
49	0x3c051abd	0.008124051
50	0xbc99085c	-0.018680744
51	0xbc2aca3d	-0.010424194
52	0x3caaa39c	0.020829968
53	0x3e132004	0.14367682
54	0xbcd79cb3	-0.026319837
55	0xbe6b92ce	-0.2300522
56	0x385c33a6	5.250019e-05
57	0x383b1cfb	4.4611264e-05
58	0x3795ddde	1.78655e-05
59	0xb91cd68a	-0.00014957241
60	0xbb242f17	-0.0025052482
61	0xbd83b47c	-0.06430909
62	0x3be50896	0.006989549
63	0x3dccd42d	0.10001407
64	0x39e3e19c	0.00043464906
65	0xba66051c	-0.0008774565
66	0x3ae217b2	0.0017249493
67	0xba0a7579	-0.0005281787
68	0x37c07bf9	2.2945913e-05
69	0xb95ea920	-0.00021234574
70	0x397ae02b	0.00023925367
71	0x38cbdfc5	9.7214746e-05
72	0xb2e047c2	-2.6109664e-08
73	0xb4effff6	-4.4703455e-07
74	0x3432fd10	1.6669605e-07
75	0x3572b8a2	9.04207e-07
76	0x3d086627	0.033300545
77	0x3d125432	0.035724826
78	0xbcd0801a	-0.025451709
79	0xbd8009ea	-0.06251891
80	0x3a84c17c	0.0010128464
81	0xbc5d36b2	-0.01350181
82	0xb91d0664	-0.00014975067
83	0x3caf23c1	0.021379353
84	0xb37f492f	-5.9438374e-08
85	0x3653e8d3	3.1576972e-06
86	0x35067f8b	5.010449e-07
87	0xb66c5fb6	-3.5222452e-06
88	0x38bcabef	8.996564e-05
89	0x36c8b394	5.98137e-06
90	0x38b15934	8.456633e-05
91	0xb9411872	-0.00018415021
92	0x3d0c491c	0.03424941
93	0xbdd14646	-0.10218482
94	0xbc87f6c6	-0.016597163
95	0x3e1ee37f	0.1551647
96	0x3b466bb3	0.0030276596
97	0x3b016e19	0.0019749461
98	0xba849e1a	-0.0010117919
99	0x3a09affa	0.0005252358
100	0x3a40ce08	0.000735492
101	0x3a0f63d6	0.0005469894
102	0xb996603c	-0.0002868193
103	0x39220d8d	0.00015454572
104	0x3ca6f70d	0.020381475
105	0x3e1716af	0.14754747
106	0xbcc7bf10	-0.024383098
107	0xbe6539f7	-0.22385393
108	0x3c7ad3d5	0.015309294
109	0x3d58db87	0.052943733
110	0xbc764942	-0.015032114
111	0xbdb51fac	-0.088439316
112	0xba692ae4	-0.0008894636
113	0xbce09cc1	-0.027418496
114	0x3af30e17	0.0018543628
115	0x3d206336	0.039157115
116	0x3c7e7bbb	0.015532429
117	0x3d6e787c	0.05822037
118	0xbc7b80c5	-0.015350525
119	0xbdbedffa	-0.09320064
120	0x3c9a44c7	0.018831624
121	0xbca9c6ef	-0.020724742
122	0xbc2b93f0	-0.010472283
123	0x3cc99814	0.02460865
124	0x3b615f7c	0.0034389189
125	0xbaf6c7ca	-0.0018827852
126	0x393a1849	0.00017747389
127	0x3b9a8b93	0.0047163456
128	0x3d374dbd	0.04475187
129	0xbcce8c0d	-0.025213266
130	0xbce99ee9	-0.028518157
131	0x3d25b451	0.040455166
132	0x3b8ce28b	0.004299467
133	0x3d636316	0.055514418
134	0xbbe12bda	-0.0068716826
135	0xbdb6d196	-0.08926694
136	0x3833fe5d	4.291382e-05
137	0x3808b7b7	3.2596025e-05
138	0x38387d49	4.39857e-05
139	0xb8fd1035	-0.00012066999
140	0x3d4bffec	0.049804613
141	0x3e4cbc17	0.19993626
142	0xbd4cac05	-0.049968738
143	0xbea781ee	-0.32716316
144	0x3c79a17b	0.015236254
145	0x3d365602	0.044515617
146	0xbc7b9536	-0.015355399
147	0xbd91e4cb	-0.07123717
148	0x3cda80c3	0.026672726
149	0xbd0f1d8e	-0.034940295
150	0xbc8eed77	-0.017447216
151	0x3d514437	0.051090445
152	0x3d141c93	0.036160063
153	0x3d671a8f	0.056421813
154	0xbcfff4f5	-0.031244734
155	0xbdc07a71	-0.09398354
156	0x3d5596a5	0.05214562
157	0x3d465864	0.04842414
158	0xbd26f463	-0.04076041
159	0xbda91a4a	-0.08256967
160	0x3cf0a480	0.029375315
161	0xbd90769f	-0.07053875
162	0xbc3b0648	-0.011415072
163	0x3de1a298	0.110173404
164	0xba11dbb3	-0.0005564049
165	0xb9d920f4	-0.00041414017
166	0x3964961c	0.00021799695
167	0xb8f5d04d	-0.000117213094
168	0xbb211d22	-0.0024584015
169	0x3df6a2e9	0.120427914
170	0xbbbd49bb	-0.0057766116
171	0xbe392480	-0.1808033
172	0xb9f163bb	-0.00046041407
173	0x3805885f	3.1836676e-05
174	0xb9e22f9e	-0.00043141557
175	0x3a71d20b	0.0009224719
176	0x3c843f9b	0.01614361
177	0xbcaec46b	-0.021333894
178	0xbc1686c9	-0.009187409
179	0x3d03020d	0.031984378
180	0xba3095c2	-0.0006736183
181	0xb7a1cdbd	-1.92885e-05
182	0xba2b0a56	-0.00065246725
183	0x3abbfa06	0.001434148
184	0xbafe6a91	-0.0019410421
185	0xbabd6a21	-0.0014451185
186	0x3a456c21	0.0007531066
187	0xb9d2fbc8	-0.00040241913
188	0x3cd8fb51	0.026487025
189	0x3d54bc78	0.05193755
190	0xbcb38e0e	-0.021918323
191	0xbda83cfc	-0.08214757
192	0xbbfd1709	-0.0077236933
193	0xbd5a8f86	-0.05335953
194	0x3c27789e	0.0102216285
195	0x3daeeb8c	0.08541021
196	0xb70bb6b2	-8.327583e-06
197	0x3616ec82	2.2489407e-06
198	0xb71f71ae	-9.503607e-06
199	0x37a944bb	2.0178375e-05
200	0x3cdca888	0.02693583
201	0x3d948504	0.07251933
202	0xbcc5cd51	-0.024145754
203	0xbde78605	-0.11304859
204	0x3d3051a7	0.04304662
205	0x3d70036e	0.05859702
206	0xbd094bb5	-0.033519465
207	0xbdb3691a	-0.08760281
208	0xbbb746c8	-0.0055931546
209	0xbd33308c	-0.04374747
210	0x3be1c8b2	0.00689038
211	0x3d881912	0.06645407
212	0xbb2ff326	-0.0026847809
213	0xbb0301ee	-0.0019990164
214	0x3a8888d1	0.0010416751
215	0xba11c75a	-0.0005561017
216	0x3a88e1ef	0.001044331
217	0x3a20e2ea	0.00061373285
218	0xb98c8062	-0.00026798534
219	0x3958dffb	0.00020682804
220	0x3b4fbac5	0.0031697017
221	0xba2bda51	-0.0006555664
222	0xb8eca4cb	-0.00011284052
223	0x3b5c912d	0.0033655867
224	0x3b3e2a31	0.0029016847
225	0x3afca6cf	0.0019275787
226	0xba4ad6f7	-0.0007737721
227	0x383a7234	4.4452216e-05
228	0x3aec1456	0.0018011432
229	0xbc409abc	-0.011755642
230	0xb929f588	-0.00016208563
231	0x3cae02fb	0.021241656
232	0xb793942c	-1.7592763e-05
233	0x3708aa37	8.145863e-06
234	0xb5269b22	-6.2065567e-07
235	0x356dcb55	8.8585267e-07
236	0x3cddfb1d	0.02709728
237	0x3d682b6b	0.05668203
238	0xbcc37030	-0.023857206
239	0xbdbdac47	-0.09261375
240	0xb2c7fcb1	-2.328156e-08
241	0xb31ea2ef	-3.693543e-08
242	0x34268647	1.5508805e-07
243	0x347b8949	2.342614e-07
244	0x3a983ea9	0.0011615354
245	0x3be77cb6	0.0070644272
246	0xbb04f8e6	-0.0020289957
247	0xbc6d6eec	-0.014491778
248	0x3cc24612	0.023715053
249	0x3aefb634	0.0018288554
250	0xbc822b0c	-0.015889667
251	0xba60bba2	-0.00085728813
252	0x3a3b6fc7	0.000715014
253	0x3d38144a	0.044941224
254	0xbb6ce58d	-0.0036147565
255	0xbd944946	-0.07240538

exp_avg_sq f4 [64, 4]
0	0x3a33d48e	0.0006859981
1	0x3e4453ad	0.19172545
2	0x3b293bdb	0.002582303
3	0x3eeddcca	0.4645751
4	0x380746ec	3.225256e-05
5	0x3c097e4e	0.00839193
6	0x38f8653b	0.00011844417
7	0x3ca6eec7	0.02037753
8	0x348aae9f	2.5831557e-07
9	0x366bc2df	3.5131159e-06
10	0x34dc8dbd	4.1081321e-07
11	0x372b49a2	1.0209538e-05
12	0x3a817457	0.0009876591
13	0x3e9ef3f7	0.31045505
14	0x3b7d39eb	0.0038639258
15	0x3f3e664e	0.74374855
16	0x3830dd01	4.2167496e-05
17	0x3c7b05d3	0.015321213
18	0x39480162	0.00019074001
19	0x3d17775b	0.03697906
20	0x3821afe1	3.854919e-05
21	0x3c65c349	0.01402361
22	0x392ed17f	0.00016671976
23	0x3d088e34	0.03333874
24	0x3311130a	3.377776e-08
25	0x369d2636	4.683413e-06
26	0x3586a28b	1.0031084e-06
27	0x378d4df5	1.6844811e-05
28	0x39221beb	0.00015459924
29	0x3d309a09	0.04311565
30	0x3a1ed7f8	0.00060594035
31	0x3dd91f8e	0.10601722
32	0x3744e23f	1.1735187e-05
33	0x38213b7d	3.8440794e-05
34	0x36db669f	6.5386553e-06
35	0x38eebffd	0.00011384485
36	0x3810d0f2	3.452687e-05
37	0x3bf17878	0.0073690973
38	0x38fdcbc5	0.00012101935
39	0x3c97e740	0.018542886
40	0x38d62140	0.000102105085
41	0x3cc65ca5	0.024214098
42	0x39ca3483	0.00038567567
43	0x3d77db8e	0.060512118
44	0x398ef211	0.00027264704
45	0x3db93a4d	0.09044323
46	0x3a91a5bc	0.0011112015
47	0x3e5d3ddf	0.21605633
48	0x38be0879	9.061484e-05
49	0x3cd9ae87	0.026572479
50	0x39bb020d	0.00035668947
51	0x3d843613	0.06455626
52	0x38c1f5f4	9.2487695e-05
53	0x3cd44261	0.025910558
54	0x39c307c8	0.00037199096
55	0x3d823573	0.06357851
56	0x340659f4	1.2512447e-07
57	0x36e8dbde	6.9397347e-06
58	0x3568e27b	8.675631e-07
59	0x374d04be	1.2220056e-05
60	0x370948bc	8.182771e-06
61	0x3b0518a2	0.0020308872
62	0x37bc99d7	2.2482984e-05
63	0x3b991c21	0.0046725427
64	0x35c30caa	1.4532318e-06
65	0x37b0abd8	2.1060856e-05
66	0x3710afff	8.624046e-06
67	0x3895cb15	7.1427006e-05
68	0x358d375e	1.0521433e-06
69	0x3601089d	1.9227512e-06
70	0x35aa42c2	1.2685416e-06
71	0x368d625c	4.213578e-06
72	0x329ba83b	1.8120877e-08
73	0x36e9bdf2	6.9660537e-06
74	0x353eed7e	7.112611e-07
75	0x37d7f17d	2.5742449e-05
76	0x3998fcbc	0.0002918
77	0x3dae9467	0.08524399
78	0x3a95899c	0.0011408809
79	0x3e5410ca	0.2070953
80	0x36366929	2.7181325e-06
81	0x3a1b5eb7	0.00059268944
82	0x36cabe35	6.042212e-06
83	0x3abbaefd	0.0014319118
84	0x3317b896	3.5325307e-08
85	0x3915d6be	0.00014289745
86	0x3604d445	1.979309e-06
87	0x39609aef	0.00021420022
88	0x34cd6f0e	3.8265028e-07
89	0x36268f5a	2.481937e-06
90	0x3562cf3a	8.4493115e-07
91	0x3707bafd	8.090164e-06
92	0x39838c37	0.00025090735
93	0x3d95fde8	0.073238194
94	0x3a7d2c0c	0.00096577476
95	0x3e35c786	0.17751893
96	0x365ca00a	3.287571e-06
97	0x371912ae	9.12386e-06
98	0x35ce8a90	1.5388523e-06
99	0x37a4994f	1.9621713e-05
100	0x34586769	2.0154188e-07
101	0x36a5ac7e	4.937464e-06
102	0x3541b2b7	7.2158167e-07
103	0x37a311ed	1.9439462e-05
104	0x38901a02	6.8712994e-05
105	0x3c9f6c73	0.019460892
106	0x398c1a45	0.00026722453
107	0x3d414da0	0.04719317
108	0x389a58a0	7.3598e-05
109	0x3caa6226	0.020798754
110	0x399f7307	0.00030412545
111	0x3d518fb9	0.051162455
112	0x3863e74a	5.4336422e-05
113	0x3c0228a0	0.007944256
114	0x38babd93	8.904482e-05
115	0x3c8a9f48	0.016921654
116	0x38273eb4	3.98743e-05
117	0x3c36c8f1	0.011156307
118	0x3913d479	0.00014098165
119	0x3cda82b8	0.02667366
120	0x38d8803d	0.00010323569
121	0x3d0e631e	0.034762494
122	0x39e0000e	0.0004272465
123	0x3daa0110	0.08300984
124	0x365968e3	3.2396572e-06
125	0x37c7d053	2.3819657e-05
126	0x36479edf	2.9745786e-06
127	0x3837eac1	4.384923e-05
128	0x39e7378c	0.0004410114
129	0x3e11c5d9	0.14235629
130	0x3ae36f2c	0.0017351857
131	0x3eade733	0.33965454
132	0x380debe0	3.3836695e-05
133	0x3be52608	0.006993059
134	0x3890468e	6.879597e-05
135	0x3c768879	0.015047186
136	0x346a6eaa	2.1833208e-07
137	0x351a6031	5.750945e-07
138	0x343dd0e0	1.7677985e-07
139	0x35f98774	1.8591368e-06
140	0x3a011948	0.00049247267
141	0x3e16bc26	0.1472021
142	0x3af79b37	0.0018890862
143	0x3eb52317	0.35378334
144	0x37f8569a	2.960423e-05
145	0x3c0c52d7	0.008564672
146	0x38eaf7b9	0.000112041314
147	0x3ca95fc6	0.020675551
148	0x39043df9	0.00012611588
149	0x3d0dfdea	0.03466598
150	0x39eb8ffa	0.00044929964
151	0x3daa8987	0.083270125
152	0x391d832a	0.00015021549
153	0x3d5565c7	0.052099016
154	0x3a27a326	0.00063948554
155	0x3e000b18	0.12504232
156	0x39f425bc	0.0004656742
157	0x3e13e1bb	0.14441578
158	0x3af743e8	0.0018864842
159	0x3eb28f30	0.34874868
160	0x3982d3b6	0.0002495327
161	0x3dae66c3	0.08515694
162	0x3a8c4dc8	0.0010704333
163	0x3e51575b	0.2044348
164	0x34650b54	2.1331408e-07
165	0x3639cd8c	2.7686792e-06
166	0x352dd127	6.475188e-07
167	0x37310046	1.0550086e-05
168	0x3882faae	6.245576e-05
169	0x3c7d6607	0.01546622
170	0x3947aa48	0.00019041554
171	0x3d15ccbc	0.036572203
172	0x34df3ace	4.1579773e-07
173	0x37fa0c91	2.9808174e-05
174	0x35e4b5e0	1.7040256e-06
175	0x388c8011	6.6995744e-05
176	0x38801f2d	6.1093226e-05
177	0x3c8c5da6	0.017134499
178	0x396efee0	0.00022792397
179	0x3d294858	0.041328758
180	0x35ecea03	1.7651477e-06
181	0x37140808	8.823357e-06
182	0x35b28443	1.3300527e-06
183	0x37f75274	2.948309e-05
184	0x35833bfe	9.777721e-07
185	0x36a5c3e7	4.9401892e-06
186	0x353c8b32	7.0238013e-07
187	0x37807998	1.531541e-05
188	0x3904a9c0	0.00012651738
189	0x3d227e53	0.039671253
190	0x3a014a7e	0.00049320597
191	0x3dc2bd95	0.09508816
192	0x38301576	4.1981657e-05
193	0x3c0795ae	0.0082754325
194	0x38dac1fa	0.00010431181
195	0x3c9b4cba	0.018957485
196	0x33350014	4.2142418e-08
197	0x3716e540	8.994073e-06
198	0x3574520d	9.1016483e-07
199	0x38045c1f	3.1557047e-05
200	0x3921d889	0.00015434822
201	0x3d21c3b4	0.039493278
202	0x3a063407	0.0005119447
203	0x3dc0df57	0.09417599
204	0x39b96201	0.00035358968
205	0x3dbcd3a8	0.09220058
206	0x3aa46c40	0.0012544468
207	0x3e643ee4	0.22289616
208	0x3735794d	1.0816683e-05
209	0x3b4ed5c6	0.0031560524
210	0x37f901fb	2.9684035e-05
211	0x3be94580	0.0071188807
212	0x35fd398f	1.8866721e-06
213	0x372885ae	1.0044705e-05
214	0x35ab4de4	1.2763162e-06
215	0x38139e15	3.5194756e-05
216	0x3582f8a8	9.758123e-07
217	0x37caeaf6	2.4189689e-05
218	0x3687966d	4.0408254e-06
219	0x38c8f5fd	9.582562e-05
220	0x361a9035	2.3031728e-06
221	0x375f3541	1.3304235e-05
222	0x362d063d	2.578264e-06
223	0x38064e0f	3.2020787e-05
224	0x35c42bf9	1.4615936e-06
225	0x371ab898	9.222094e-06
226	0x3613e6c3	2.2039028e-06
227	0x37f8a6ac	2.9641516e-05
228	0x37cb99de	2.4271136e-05
229	0x3b887028	0.0041637607
230	0x3858db80	5.170284e-05
231	0x3c1a797b	0.009428377
232	0x3405d3e1	1.2463671e-07
233	0x355af671	8.156995e-07
234	0x34bfc9ca	3.5723343e-07
235	0x36569ab9	3.1978545e-06
236	0x38b18243	8.464281e-05
237	0x3ccd5b89	0.025068061
238	0x39a8ad62	0.00032172637
239	0x3d774ac2	0.06037403
240	0x32ceb1af	2.4062357e-08
241	0x35d4a2dc	1.5842629e-06
242	0x358f5c86	1.0681258e-06
243	0x36c8b344	5.9813337e-06
244	0x3753e148	1.2629032e-05
245	0x3b1c31de	0.0023833434
246	0x3827a373	3.9968127e-05
247	0x3bc6ae3a	0.00606325
248	0x3907cb3f	0.00012950318
249	0x3d2892c8	0.041155607
250	0x3a0b9f3a	0.0005326156
251	0x3dcb6a4a	0.099323824
252	0x37c38428	2.3307352e-05
253	0x3b86ee1c	0.0041177403
254	0x3850e2b7	4.980221e-05
255	0x3c1abbfa	0.009444231

exp_avg f4 [64]
0	0xbf4f5c9d	-0.8100069
1	0x3d4cf11f	0.05003464
2	0xbb6ea1ac	-0.0036412282
3	0xbf30f019	-0.6911636
4	0xbd06303b	-0.03276084
5	0xbb896416	-0.0041928394
6	0x36947278	4.4240696e-06
7	0xbf22a978	-0.6353984
8	0xbe5bc61c	-0.21462291
9	0xbd411720	-0.047141194
10	0xbd96b1d6	-0.07358138
11	0xbf30945a	-0.68976367
12	0xbec03a77	-0.37544605
13	0xbdc13d60	-0.094355345
14	0xbacedb8a	-0.001578198
15	0xbd94aa29	-0.07259018
16	0xbd6caf04	-0.057784095
17	0xbbebb55d	-0.007193251
18	0x36630ce7	3.3833146e-06
19	0xbef83041	-0.48474315
20	0xbcbec0d2	-0.023285303
21	0x3719c393	9.165046e-06
22	0xbb8b61ea	-0.0042536156
23	0xbf2ebe78	-0.6825938
24	0xbd893672	-0.06699838
25	0xbc74fa66	-0.014952278
26	0xbdf122da	-0.117742255
27	0xbe2a27d6	-0.16616759
28	0xba92c564	-0.0011197743
29	0xbe15ba25	-0.1462179
30	0xbebbadc5	-0.36656013
31	0xbdd9c6ed	-0.10633645
32	0xbf40d725	-0.75328285
33	0xbbe86af0	-0.007092826
34	0xbafd7690	-0.0019337703
35	0xbef60265	-0.48048702
36	0xbe07061d	-0.13185926
37	0xbedb8ef9	-0.42882517
38	0xbedbe18f	-0.42945525
39	0xbf385c0d	-0.7201546
40	0xbf2d2202	-0.67630017
41	0x3c394c49	0.011309692
42	0x3e3e244e	0.18568537
43	0x3cb5cfd5	0.022193829
44	0xbe967506	-0.29386157
45	0x3d061298	0.032732576
46	0x3d21ac19	0.039470766
47	0xbeafe59b	-0.34354863
48	0x3c961b64	0.018323608
49	0x39f97b40	0.0004758481
50	0xbea19984	-0.31562436
51	0xbf189eca	-0.5961729
52	0x3cae1487	0.021250023
53	0x3d5f9ff0	0.054595888
54	0xbccfaca2	-0.025350872
55	0xbdbd49b6	-0.09242575
56	0xbd892cce	-0.06697999
57	0xbd4e8049	-0.05041531
58	0x39c4d043	0.000375392
59	0xbea2617d	-0.31715003
60	0x365dc73c	3.3047536e-06
61	0x3c3452aa	0.011006037
62	0xbec7a79e	-0.3899507
63	0x3d1e62ab	0.038668316

exp_avg_sq f4 [64]
0	0x3e33a0e7	0.17541848
1	0x3bbdf126	0.0057965694
2	0x3a3d73b8	0.0007227021
3	0x3e84dcb4	0.25949633
4	0x3c0e034c	0.008667778
5	0x3c32cd24	0.010913167
6	0x39c165e4	0.00036887743
7	0x3d2b9e2d	0.041898895
8	0x3c1633be	0.00916761
9	0x3b94743c	0.004530458
10	0x3c9209b1	0.017826887
11	0x3d9346e5	0.071912564
12	0x3cc563a9	0.024095373
13	0x3c90a07e	0.017654654
14	0x39b0692b	0.00033647692
15	0x3b30a4af	0.0026953628
16	0x3bc0e502	0.005886675
17	0x3aa0f438	0.0012279814
18	0x39994a16	0.00029237632
19	0x3d949af4	0.072561175
20	0x3ab89aa8	0.0014084177
21	0x3a31f3f8	0.00067883683
22	0x3a0d6b14	0.0005394679
23	0x3d8d5182	0.06900312
24	0x3b58c75c	0.0033077812
25	0x399cafa7	0.0002988551
26	0x3c41d31f	0.01183012
27	0x3c7d161c	0.015447166
28	0x3c087af0	0.008330092
29	0x3c36850f	0.011140122
30	0x3d001a8c	0.031275317
31	0x3b570c91	0.0032813887
32	0x3dec40a9	0.115357704
33	0x3c2ec464	0.01066694
34	0x39546240	0.00020254496
35	0x3dfb087e	0.12257479
36	0x3be4ff32	0.0069884295
37	0x3d08e10a	0.03341774
38	0x3d2c939b	0.042132955
39	0x3de4411f	0.11145233
40	0x3d8f08e7	0.0698412
41	0x39a2853e	0.0003099832
42	0x3c88f9c8	0.016720667
43	0x3aa47334	0.001254654
44	0x3c90023c	0.01757919
45	0x3b131c51	0.0022447298
46	0x3a1c6f80	0.00059675425
47	0x3d18d9c7	0.037317064
48	0x3c22dd9c	0.009940531
49	0x39c4a960	0.00037510227
50	0x3d0e29a1	0.03470767
51	0x3da0486f	0.078263156
52	0x3bb00272	0.0053713853
53	0x3a952ec9	0.0011381741
54	0x3ae6d479	0.0017610929
55	0x3b31eb2a	0.0027148225
56	0x3ad81022	0.00164843
57	0x3ba70260	0.0050967187
58	0x39592f59	0.00020712371
59	0x3cbbfb1a	0.022946883
60	0x3a0057d1	0.0004895898
61	0x3b10c00a	0.002208712
62	0x3cfedfc2	0.031112555
63	0x3c00f572	0.007871019

exp_avg f4 [64, 64]
0	0x3a1aaba2	0.0005900209
1	0x386a5c05	5.5875647e-05
2	0x345d85f7	2.0630965e-07
3	0x3a4e94f1	0.00078804704
4	0x36b6942a	5.4412712e-06
5	0x38af2ba6	8.3527804e-05
6	0x34e4a76c	4.2590125e-07
7	0x381e8672	3.7795347e-05
8	0x349001de	2.682345e-07
9	0x35af6781	1.306864e-06
10	0x32d98586	2.5322844e-08
11	0x3a54354f	0.0008095102
12	0x3a181f9d	0.00058030506
13	0x3a1732d0	0.00057677645
14	0x343783cc	1.709115e-07
15	0x385ac44f	5.2158077e-05
16	0x346801ba	2.1607312e-07
17	0x345ed436	2.0752563e-07
18	0x34092cdb	1.2775438e-07
19	0x3a51f639	0.00080094073
20	0x360f4edd	2.1354565e-06
21	0x333633ff	4.2422467e-08
22	0x34eb2838	4.3801424e-07
23	0x3a3c65f2	0.0007186822
24	0x34a9c282	3.1620226e-07
25	0x347556bf	2.2848961e-07
26	0x332ad97c	3.977901e-08
27	0x37fdbbe4	3.0247444e-05
28	0x37276588	9.977615e-06
29	0x3770e5d4	1.4358626e-05
30	0x39546453	0.00020255269
31	0x344a5d55	1.884667e-07
32	0x39c3a6bb	0.00037317522
33	0x39ddaf18	0.0004228286
34	0x34b73d6c	3.4131097e-07
35	0x39cd826c	0.0003919782
36	0x39ac884d	0.00032907948
37	0x3a1296ce	0.00055919297
38	0x39c48a21	0.00037486947
39	0x397ba32e	0.00023998015
40	0x3a192d2a	0.0005843217
41	0x34f707ea	4.6013093e-07
42	0x38dc32f8	0.00010499911
43	0x3416ecec	1.405603e-07
44	0x3a56456e	0.0008173798
45	0x34966730	2.8014756e-07
46	0x34041cc9	1.230393e-07
47	0x3984c4da	0.00025323668
48	0x3928271e	0.00016036301
49	0x34db9a00	4.0903979e-07
50	0x39f9fb3b	0.00047680162
51	0x3a151246	0.0005686622
52	0x393811b4	0.00017554202
53	0x34c802ab	3.7254844e-07
54	0x33dfa445	1.0414127e-07
55	0x342e48f7	1.6231557e-07
56	0x346aa00f	2.1851177e-07
57	0x37348ebd	1.076207e-05
58	0x3427530f	1.5583304e-07
59	0x3a3eb90a	0.0007275498
60	0x352aa604	6.357152e-07
61	0x368c032c	4.1726944e-06
62	0x399c6d17	0.00029835917
63	0x39f6fedd	0.00047110664
64	0xbb3829da	-0.0028101117
65	0xb496c689	-2.808413e-07
66	0xb9234cf3	-0.00015573557
67	0xbb1f72f8	-0.0024330001
68	0x00000000	0.0
69	0x00000000	0.0
70	0xb4c68e25	-3.6983798e-07
71	0xbb65542e	-0.0034992802
72	0xbb419061	-0.002953552
73	0xb8d6a8d4	-0.00010235762
74	0xba94d9f2	-0.0011356457
75	0xbb9bd805	-0.004755976
76	0xbad5c38d	-0.0016308889
77	0xb944c821	-0.0001876657
78	0xb9888a28	-0.00026042876
79	0xb98f7dc7	-0.00027368797
80	0xba3d4420	-0.0007219929
81	0xb7937d33	-1.7582066e-05
82	0xb3fec6d1	-1.1863961e-07
83	0xbb7d57f6	-0.0038657165
84	0xb958b562	-0.00020666936
85	0xb2acc6f2	-2.0113905e-08
86	0xb9043e69	-0.0001261175
87	0xbb71b128	-0.0036879275
88	0xbacff5cb	-0.0015866099
89	0xb77bf0bc	-1.5016816e-05
90	0xba9e67ba	-0.0012085356
91	0xb90a005f	-0.00013160844
92	0x2db2e70a	2.0338859e-11
93	0xbaf4e81c	-0.0018684897
94	0xbb3de44c	-0.0028975187
95	0xbacea9fd	-0.0015767213
96	0xbb04ac6f	-0.002024438
97	0xb761ef9b	-1.3466833e-05
98	0xb963681c	-0.00021687191
99	0xbb82998c	-0.0039855894
100	0x00000000	0.0
101	0xbb363bec	-0.0027806712
102	0xbacff5e2	-0.0015866125
103	0xbb42f473	-0.0029747754
104	0xbb880f81	-0.004152239
105	0xb978833a	-0.00023700009
106	0x00000000	0.0
107	0xb869fa67	-5.5784734e-05
108	0xbb43d3fb	-0.002988099
109	0xb915124f	-0.00014216568
110	0xb90c9c00	-0.00013409555
111	0xbb491095	-0.003068005
112	0x312f7023	2.5529594e-09
113	0xb98084ca	-0.00024512998
114	0xbb27d0ec	-0.0025606705
115	0xbae5aad0	-0.001752222
116	0x00000000	0.0
117	0xb9dc4ce0	-0.00042018946
118	0xbadbb866	-0.0016763329
119	0xba872bf6	-0.0010312784
120	0xb9889e1a	-0.00026057736
121	0x3081b493	9.437308e-10
122	0xb83bb1d1	-4.474988e-05
123	0xbb56c82b	-0.0032773118
124	0xb5212c1e	-6.004137e-07
125	0xb4698a9f	-2.1750246e-07
126	0xbb1645e3	-0.002292984
127	0xb91b8f79	-0.000148354
128	0x3b4dc7e6	0.0031399666
129	0x3c1f569b	0.009725238
130	0x3386d664	6.278859e-08
131	0x3b8454bf	0.004038423
132	0xb8e3917e	-0.000108513035
133	0x3bdb1f30	0.0066870674
134	0x3435087f	1.686003e-07
135	0x3c270e0f	0.010196223
136	0x3a1fc503	0.00060947257
137	0xb906868c	-0.00012829358
138	0x389da93d	7.5178665e-05
139	0x3cd1aa5f	0.025593935
140	0x3c513b24	0.012770448
141	0x3c53bbc7	0.012923188
142	0x3394d317	6.930184e-08
143	0x3b473027	0.0030393691
144	0x33b9bdea	8.649279e-08
145	0x33af1bae	8.1541074e-08
146	0x3367ddaa	5.398548e-08
147	0x3c881b4e	0.016614582
148	0x387db9df	6.0493006e-05
149	0x32c97f8d	2.3457483e-08
150	0x34421d95	1.807842e-07
151	0x3c6d9244	0.0145002045
152	0x39e5f3a6	0.00043859816
153	0x3688e7c7	4.0800983e-06
154	0x3a033e55	0.00050065416
155	0x3c22db69	0.009940007
156	0x3a2b7be5	0.0006541594
157	0x3b689fc9	0.003549563
158	0x3bba8dde	0.0056931814
159	0x398c93ae	0.0002681291
160	0x3c38a01a	0.01126864
161	0x3af43825	0.0018632455
162	0x33e4495b	1.06304206e-07
163	0x3a178a5e	0.0005780811
164	0x3c126980	0.008936286
165	0x3c3c4fac	0.011493605
166	0x3ba2703e	0.004957228
167	0x3b445d8e	0.002996299
168	0x3c8b2f77	0.016990406
169	0x388c0e50	6.678386e-05
170	0x3b9d4165	0.0047990554
171	0x338564f3	6.211658e-08
172	0x3b7fff0a	0.0039061927
173	0x3401d07b	1.2089906e-07
174	0x381fcc30	3.809872e-05
175	0x3ac94b0b	0.0015357448
176	0x3ba61673	0.005068594
177	0x34378e6c	1.7095016e-07
178	0x3c1ac978	0.009447448
179	0x3c4f9565	0.012669896
180	0x3bcdb358	0.006277483
181	0x38fa3544	0.000119308505
182	0x39f45f1b	0.00046610166
183	0x38ece4c5	0.000112959686
184	0x38337332	4.278421e-05
185	0x3ab2eeb6	0.0013651464
186	0x3373d534	5.6771754e-08
187	0xbb101902	-0.0021987562
188	0x347ff398	2.3837345e-07
189	0xb932322f	-0.00016994098
190	0x3bdd8d73	0.006761247
191	0x3c2b175a	0.010442579
192	0xbe3381c0	-0.17529964
193	0xbe0a7260	-0.13520193
194	0xb964aed4	-0.00021808903
195	0xbe456a0f	-0.1927874
196	0xba41c727	-0.0007392042
197	0xbd819827	-0.06327849
198	0xb3142146	-3.4489197e-08
199	0xbe14bcf3	-0.14525203
200	0xbb90493d	-0.004403262
201	0xb8cab61d	-9.666032e-05
202	0xbaf8b50f	-0.0018974858
203	0xbe9d645d	-0.30740634
204	0xbe49f38d	-0.19721813
205	0xbe332c50	-0.17497373
206	0xb9c968a5	-0.00038415674
207	0xbd461c3b	-0.048366766
208	0xbac3222b	-0.0014887502
209	0xb862a968	-5.404037e-05
210	0x304b91d3	7.40582e-10
211	0xbe673e9a	-0.22582474
212	0xbb4122fa	-0.002947031
213	0xb393b31b	-6.8778e-08
214	0xb9397eb8	-0.00017690181
215	0xbe630699	-0.22170486
216	0xbb116217	-0.002218371
217	0xb7ad61f2	-2.0668816e-05
218	0xbba69408	-0.0050835647
219	0xbe1b223c	-0.15149778
220	0xbbc71c73	-0.0060763895
221	0xbd9788cf	-0.07399141
222	0xbda99ba4	-0.08281639
223	0xbb3029ec	-0.0026880456
224	0xbe0741c1	-0.13208677
225	0xbddc4a5e	-0.10756372
226	0xb99f827e	-0.00030424068
227	0xbd7dab06	-0.06193068
228	0xbe08ec12	-0.13371304
229	0xbe067645	-0.13131054
230	0xbdcadcd4	-0.09905401
231	0xbd491539	-0.049092505
232	0xbe332a83	-0.17496686
233	0xb9ad687d	-0.0003307498
234	0xbd7a928a	-0.061174907
235	0xb8a3c8e8	-7.8098674e-05
236	0xbe53d595	-0.20686944
237	0xb9513bec	-0.00019954116
238	0xb9449148	-0.00018746138
239	0xbd76f6ba	-0.06029389
240	0xbd742412	-0.05960471
241	0xb9b48cb8	-0.0003443712
242	0xbe0b9d3d	-0.136342
243	0xbe26e913	-0.16299848
244	0xbd96e1c2	-0.07367279
245	0xba19e3d8	-0.0005870438
246	0xbb19ae23	-0.002344974
247	0xbafd0620	-0.0019304194
248	0xb9bf6aab	-0.00036509833
249	0xbc813289	-0.015771167
250	0xb882347c	-6.208659e-05
251	0xbe203a42	-0.15647224
252	0x3208e45f	7.9681675e-09
253	0x3a615db6	0.0008597033
254	0xbdc9a031	-0.09845007
255	0xbe1a9682	-0.15096477
