gen_0_agent_2.pt (torch, 63759 bytes, 18 tensors)

net.0.weight f4 [64, 4]
000000 f8 6e 31 3e 54 5b 76 3e 27 50 89 be 4e 80 0f 3d
       0.17327487 0.24058276 -0.26818964 0.03503447
000010 eb 5f 03 be c8 45 91 3d 85 fc 4b bd 96 84 1b 3e
       -0.12829559 0.07093388 -0.04980137 0.15187296
000020 44 0e 25 3e ee 20 94 bc d5 f6 b4 bd a9 5d e1 3c
       0.16118723 -0.018082108 -0.08836142 0.027510481
000030 63 7e a2 3e 28 f1 24 3b d1 ee 27 3e 92 30 42 3c
       0.3173705 0.0025168154 0.16399695 0.0118524
000040 0a b6 00 3e b7 c8 7c be de 7e 90 3d 4a 47 fe bc
       0.12569442 -0.24685942 0.07055448 -0.031039853
000050 fb 66 96 3e ed 5a 8a 3e e6 3e 3d be 0f de 28 3e
       0.29375443 0.27022496 -0.18481025 0.16490959
000060 81 29 8d 3e 60 98 be 3c ec b3 89 3e 05 49 ac bd
       0.27570727 0.023266017 0.26895082 -0.08412365
000070 fa 80 2e be e5 c5 81 3e 27 50 ea bc 07 29 41 be
       -0.17041388 0.25346294 -0.028602673 -0.18863307
000080 01 ca 27 3e c0 44 07 bd b0 40 db 3c 70 cb b3 3d
       0.16385652 -0.03302455 0.026764244 0.08779037
000090 84 d3 52 3e 56 53 9d bd b0 3f bd 3d 2c 80 d5 bd
       0.205885 -0.07681911 0.09240663 -0.104248375
0000a0 09 8f 71 3e af eb 67 3d 22 d7 e2 bd 13 52 bf 3d
       0.2358972 0.05662125 -0.110761896 0.09341826
0000b0 8b 18 66 3d 54 5c be bd 5d c2 c8 3d d7 b0 42 be
       0.05617575 -0.09294954 0.09802697 -0.19012772
0000c0 41 2d 56 bb 8f 2a 7a be 6d c2 48 3e 1a 19 0a be
       -0.0032680782 -0.24430297 0.19605418 -0.13486138
0000d0 79 8d 61 3e 14 3c f1 bd e6 0e b3 bd 12 89 25 3c
       0.22026624 -0.11779037 -0.08743076 0.010103481
0000e0 3f 84 98 3c 73 df b0 3d a6 22 4f 3e 19 05 0f 3c
       0.018617747 0.086363696 0.20228061 0.008729243
0000f0 06 d3 41 3e 67 de f2 3d bb 5d b9 bd fe 98 f5 3d
       0.18928155 0.11858826 -0.09051081 0.119920716
000100 d3 ad 96 3e 1d 31 94 3e 26 f5 0f bd 52 bb 37 3e
       0.29429492 0.2894372 -0.0351459 0.17942551
000110 4c 2d a1 bd fe ba 72 3e b8 f8 8d 3e bc b4 8f 3c
       -0.07869968 0.23704144 0.2772882 0.017542236
000120 43 58 49 be 2d 6e 55 be 83 cd 08 3e 9e 35 9e bd
       -0.19662575 -0.2084281 0.13359646 -0.077250704
000130 a3 f9 5c bc bf 10 59 be 6c 2e 5e 3e eb 97 1d 3e
       -0.013487252 -0.21197794 0.21697396 0.15389983
000140 44 75 84 bd 26 21 79 be 09 27 84 3e 0a d6 96 3e
       -0.06467679 -0.24329051 0.2581103 0.29460174
000150 a7 46 46 be d0 de bc 3c 09 19 0e bc f0 1f f6 3d
       -0.19362889 0.023055464 -0.008672961 0.1201781
000160 4e bf 0a be c7 cc 9e 3e 3e 0d 97 3d 62 fc 17 3e
       -0.1354954 0.31015608 0.073755726 0.1484237
000170 96 68 26 3e dd 59 ac bd e3 8a 0d 3e 02 52 e1 b9
       0.16250834 -0.084155776 0.13822512 -0.00042976445
000180 12 44 62 3e 1c ed 5c 3d f4 b6 14 be 54 6b b1 3d
       0.2209628 0.053937063 -0.14522916 0.08663049
000190 72 71 68 3e 5e 09 94 be 72 a1 95 be 30 f5 57 be
       0.22699526 -0.28913397 -0.29224735 -0.21089625
0001a0 99 18 58 be 50 29 f2 3c 9a f7 85 be 8f 6b 87 be
       -0.21103133 0.029560715 -0.26165468 -0.26449248
0001b0 d3 ad 98 3e b2 1b ae 3e f4 21 4e 3e 6a 73 5b bd
       0.29820117 0.34005505 0.2013014 -0.053576864
0001c0 e4 e6 44 be 82 71 42 be 70 38 04 be 38 34 1d 3d
       -0.19228703 -0.18988612 -0.12912154 0.038379878
0001d0 e0 be b6 3e f9 8a 84 bd 1d 09 a3 3e 71 58 b4 3e
       0.356925 -0.064718194 0.3184289 0.35223725
0001e0 be 84 a4 3d 43 52 9c 3e dd 89 0c bc 2d b6 4f be
       0.08033131 0.3053151 -0.008577791 -0.20284338
0001f0 51 1f 30 be 15 7a 8d be 23 51 0b be 5a 48 9a 3e
       -0.17199446 -0.27632204 -0.1360517 0.30133325
000200 d7 2a 9e 3e 51 36 76 be fa ad 4b be 0e 74 87 be
       0.3089206 -0.24044158 -0.19890586 -0.2645573
000210 ac c3 72 3e ee 11 4a be 50 4d 99 bd 13 5f 9e 3e
       0.23707455 -0.19733402 -0.07485449 0.3093191
000220 19 90 76 be 1e b8 99 3d e2 46 8b 3e 88 61 5e 3e
       -0.24078406 0.07505821 0.27202517 0.21716893
000230 c2 ea a7 bd bc 76 2d 3e 53 ae 1e bd 2f c0 59 be
       -0.081990734 0.16939825 -0.038740467 -0.21264718
000240 cc f0 fa 3d d5 e6 a4 bd 6c 07 5c 3e aa ff ad 3e
       0.122529596 -0.0805184 0.21487206 0.3398412
000250 14 49 23 3e 9a 8b 82 bd 2f c1 b9 bd 7f 02 07 3d
       0.15945846 -0.06374283 -0.0907005 0.032961365
000260 6c 45 22 be 09 43 16 bd 6d 7e 9b 3b c8 e9 27 3e
       -0.15846795 -0.036685023 0.0047452957 0.16397774
000270 38 8c 5d 3e 5b 31 30 3e 2d 53 49 bd f4 22 92 3e
       0.2163552 0.17206328 -0.04915159 0.28542292
000280 31 d4 4d be 8c b5 75 bd b4 bc 58 be f0 25 bc 3c
       -0.20100476 -0.05998759 -0.21165735 0.022967309
000290 0c 63 a4 3d 8e 82 30 3e a2 d3 d1 3d 70 58 6d 3e
       0.08026704 0.17237303 0.10245444 0.23178267
0002a0 6a 7b 06 bc f1 91 7d 3e 82 6c 29 3d b1 3a 2c 3d
       -0.008208135 0.24762703 0.041363247 0.04204816
0002b0 8e 15 ff 3d dc a6 95 3d dc ac f5 bd 7e a9 84 3e
       0.12455283 0.073072165 -0.11995861 0.25910562
0002c0 c1 2f ce bd c0 b1 5a 3d b6 fa 0a 3e 31 60 9a be
       -0.10067702 0.05339217 0.13572201 -0.30151513
0002d0 6e a2 0d be cb f5 1e 3e 14 ab 9d 3e 33 6e ca bd
       -0.13831493 0.1552345 0.30794585 -0.098843
0002e0 53 68 b4 3e 43 96 68 bd 7f df 5e 3e 1c 74 04 be
       0.35235843 -0.056783926 0.21764944 -0.12934917
0002f0 a6 7e 6e be aa 0f 52 3d 11 31 04 3d ee fc 76 be
       -0.232905 0.05128447 0.032273356 -0.24119923
000300 7a 70 b0 bd e5 97 6c be 40 3e 6f be 89 ce 49 be
       -0.08615203 -0.23104818 -0.2336359 -0.19707693
000310 09 51 93 3e aa ec 82 be 4d dc de 3d 96 e4 9f 3e
       0.28772762 -0.25571185 0.10881863 0.31229085
000320 72 a7 89 be 23 55 a3 3d 79 9b 83 be 29 31 26 3e
       -0.26885563 0.07975223 -0.25704554 0.1622969
000330 9a eb 9b 3e 4c 67 53 be 76 96 36 3e d4 39 95 3d
       0.30453187 -0.20644873 0.17830834 0.072864205
000340 f3 3a 1c 3e 5d bd 6e be e4 23 f4 bd 20 52 7d be
       0.15256862 -0.23314424 -0.11920908 -0.2473836
000350 47 75 a0 3e e5 9a bf bd 61 b2 32 be 68 d3 96 3e
       0.31339476 -0.09355716 -0.17450859 0.29458165
000360 a1 d1 3e 3e 92 d5 54 be 52 7d 34 bb a4 24 70 be
       0.18634655 -0.20784596 -0.0027540517 -0.23451477
000370 b0 12 f4 bd 84 de 7a 3e 13 74 16 be 53 ac 7e be
       -0.11917627 0.24498945 -0.14692716 -0.24870424
000380 df 8b 39 3e e4 43 e1 3d 83 1b bb bd 84 fa 5d 3e
       0.18119763 0.10999277 -0.09136107 0.21677595
000390 9c 34 8f be f6 d0 0c be ca 3f 3a 3e 9e 6d 0c be
       -0.27969825 -0.13751587 0.18188396 -0.1371369
0003a0 fd bd 71 3e 2d 33 eb bd b2 08 9a be ce df 5d be
       0.23607631 -0.114843704 -0.3008476 -0.21667406
0003b0 f3 c8 9f 3e 18 5f 5e bc f7 33 7b 3e ea 6d e1 bd
       0.31208 -0.013572477 0.24531542 -0.110072926
0003c0 28 bb 67 3e af 3d 24 3e 8f 36 8f be db 84 aa be
       0.22629988 0.16039155 -0.27971312 -0.33304486
0003d0 20 b2 a2 bd 19 8c 87 be b3 f1 ad 3e eb 76 ba 3b
       -0.07944131 -0.26474074 0.33973464 0.0056904457
0003e0 e7 dd 15 bc a9 b3 25 be 31 ed c2 bc d7 be 84 3e
       -0.009147144 -0.16181816 -0.023794742 0.2592685
0003f0 08 40 f1 3d 60 70 20 3e ee b0 1a 3e a1 9f d8 3c
       0.11779791 0.15667868 0.15106556 0.026443304

net.0.bias f4 [64]
000000 dc 86 a3 3c b3 bf 28 bd 1e 11 27 3d 4f 89 92 3d
       0.019961767 -0.041198444 0.04078781 0.07155096
000010 55 cc 76 3d 12 7a 9a 3d 9e 9d 84 3c 7f 92 01 3d
       0.06025346 0.07542814 0.016188439 0.03163385
000020 9e 85 da 3d 70 e7 0b bb ab 1e 74 3d 0a 29 36 3d
       0.10670017 -0.0021347664 0.05959956 0.04447273
000030 e1 79 31 3c 71 05 c0 3c 32 97 6f bc 31 c1 05 3d
       0.010832281 0.023440095 -0.01462345 0.032654945
000040 3a 28 33 3d d7 94 1b 3c 45 1d 64 bc 92 af 1d 3d
       0.043739535 0.009495935 -0.013922994 0.038497515
000050 db 08 cb 3d b8 71 1c 3b 45 6e 6b 3d 92 57 a3 3d
       0.099137984 0.0023871493 0.057478208 0.07975687
000060 27 a2 36 bd f0 df 81 39 00 00 00 00 97 ed 97 3d
       -0.044588234 0.00024771644 0.0 0.074183635
000070 00 00 00 00 d1 32 a8 3d 7c 76 8e bc e0 24 ef 3c
       0.0 0.082128175 -0.017390482 0.029192388
000080 5e 46 93 3c 3c 54 a0 3d 17 cd ca 3c d8 ba f8 bc
       0.01797789 0.078285664 0.024755998 -0.030362532
000090 d0 7d ce 3d 93 fe 8f 3d 83 90 8b 3c a2 96 92 3d
       0.100825906 0.07030978 0.017036682 0.07157637
0000a0 00 00 00 00 d8 92 a9 3d bc f0 88 3d ca 86 0b 3d
       0.0 0.08279961 0.066865414 0.03406409
0000b0 e8 c2 ab bc c5 81 2e 3d 87 f9 96 3d 16 be 3f bc
       -0.020966962 0.042604227 0.07371812 -0.011703035
0000c0 00 00 00 00 7a 22 74 3d 06 4a 35 bc 4f ad 53 3d
       0.0 0.059603192 -0.011065012 0.05167895
0000d0 02 95 5f 3c ef 43 aa 3d 93 14 4b 3d 04 7f f3 3c
       0.013646366 0.083137386 0.049580168 0.029723652
0000e0 79 45 62 3d 00 00 00 00 e3 a4 9a bc 70 81 c5 3d
       0.055242036 0.0 -0.018877452 0.09643829
0000f0 95 5a 2b bd bd fe 75 3d ab 6b 57 3d 9d 06 39 bc
       -0.041834433 0.06005739 0.052592915 -0.011293081

net.3.weight f4 [64, 64]
000000 ae 90 4a 3e 55 2b 65 bd 36 84 b2 3d 7c 70 fb 3c
       0.19781753 -0.055949528 0.087166235 0.030693285
000010 34 39 48 be b8 fc 00 3e ac e3 a0 3d 90 ac 92 3d
       -0.19553071 0.12596405 0.07855925 0.0716182
000020 6d 3e 6d 3e 32 29 8f bd 9d f3 85 bd 5b 18 15 be
       0.23168345 -0.06990279 -0.06540606 -0.14560072
000030 5c 4e 38 bd 81 63 16 be b6 85 69 3e 9d 9a a7 bd
       -0.044996604 -0.14686395 0.22804913 -0.08183787
000040 b7 ca 51 3e 3f d7 48 3d 68 a2 00 3e 15 94 1b 3b
       0.20487486 0.0490334 0.12561953 0.0023739387
000050 6b 1b 52 3e 1f 9c a9 3d 8a fb da 3d 1e 60 08 be
       0.20518272 0.08281731 0.106925085 -0.13317916
000060 d7 73 3a 3d 05 cd 3c be fb 7b 3e 3e d9 e1 a2 bc
       0.04552063 -0.18437584 0.18601982 -0.019883083
000070 30 6e af 3c 85 b9 29 3e a4 5a 39 be a5 f5 9e bc
       0.021414846 0.16574676 -0.18100983 -0.019404242
000080 60 b2 34 be d4 d8 be 3c fc 3b b0 bc 13 fb 53 3e
       -0.1764617 0.023296751 -0.021512978 0.20701246
000090 c4 cd db bd a8 28 1c be 4d 7b 8d bc 06 ee 06 3e
       -0.10732606 -0.15249884 -0.017270708 0.13176736
0000a0 20 24 c9 3b 50 43 f4 bd f2 13 3c 3e f7 8a af 3d
       0.0061383396 -0.11926901 0.18366984 0.08571427
0000b0 fd 76 85 bd b2 f4 34 be 43 4e 90 3d bd a4 41 3e
       -0.06516836 -0.17671469 0.07046177 0.18910499
0000c0 cb 41 12 3e 12 64 95 3d 86 9f f0 bd c6 bf 0a be
       0.1428291 0.072944775 -0.11749177 -0.13549718
0000d0 c2 49 e6 3d 8a 10 19 3e fd 6e 8c bd b8 84 b4 3d
       0.11244537 0.14947715 -0.06857107 0.088143766
0000e0 05 0a 0c 3e d5 5f 1d be d3 6e c6 3d 1e 2b 62 3c
       0.13675697 -0.15368588 0.09689107 0.013804225
0000f0 b5 d0 6d bd cb 2d 70 bc e6 e9 85 3d fe 7e 2e be
       -0.058060367 -0.014659355 0.06538753 -0.17040631
000100 39 80 de bd b9 89 9d bc 86 d1 ed 3d b8 4b cb ba
       -0.108643 -0.01923071 0.11612229 -0.0015510237
000110 6e 43 1f 3d e6 29 dc bd 7b 6c 20 3e e6 c9 ea bd
       0.038882665 -0.10750179 0.15666382 -0.1146429
000120 31 fb e5 3d b0 a6 5f be 89 f1 64 3c b3 75 82 be
       0.112295516 -0.2184093 0.013973602 -0.25480422
000130 15 f1 5d bd ce d7 f6 bb 70 d7 2e be 2d 44 a2 3d
       -0.054184992 -0.00753305 -0.1707437 0.0792316
000140 c3 77 e3 3d ec 0e bf 3d 3b ce a7 bd 94 0e 16 3c
       0.11106827 0.09329018 -0.08193632 0.009158749
000150 2e 3e 0b bb cb 08 19 3e de 38 c0 bd 8c be 00 be
       -0.0021246779 0.1494476 -0.093858466 -0.12572688
000160 50 bc c9 3d 8f 53 33 3e ea 42 83 3d bc b5 ed 3c
       0.09850371 0.17512344 0.06409247 0.029017322
000170 8a f0 df 3d 88 e0 28 3e 65 b3 e2 bc 7b ed d4 3c
       0.10934551 0.16491902 -0.027673433 0.025992146
000180 d9 0e 53 be 03 0d 30 be 74 c3 23 3d 00 5f 49 3c
       -0.20611133 -0.17192464 0.03998132 0.012290716
000190 47 02 81 bc 23 26 1b be 7d a4 11 3e 91 3b 0f bd
       -0.015748156 -0.15151267 0.14222904 -0.034968916
0001a0 15 1f 38 be 41 60 04 be 24 8b 7c be d2 1f 07 be
       -0.17980607 -0.12927343 -0.24662453 -0.13195732
0001b0 5a 27 23 be c5 93 90 3c ee 18 70 3d 53 b4 41 be
       -0.1593298 0.017648587 0.058617525 -0.18916444
0001c0 92 9c d0 3d f8 a2 8b bd 2b 82 d1 3d be ed 1a 3e
       0.101861134 -0.06818193 0.10229906 0.15129754
0001d0 79 d3 61 be 7e f8 ff 3d 01 0e 0b bd d7 b7 5c 3e
       -0.22053327 0.12498568 -0.033948902 0.21554504
0001e0 b5 19 df bc d0 2a 0f bd e3 e2 1c bd 34 5e 86 bd
       -0.027233938 -0.03495294 -0.038302314 -0.065609366
0001f0 34 88 a0 3d d5 d4 1f be 03 e8 56 3d f7 89 2e 3d
       0.07838479 -0.15608533 0.052467357 0.042612042
000200 4e 27 f7 bd ea 75 f4 3d 5f 05 04 be 12 0d c9 3d
       -0.12068044 0.11936553 -0.12892674 0.09816946
000210 b2 79 ae 3d f5 2b 4d be f4 3d 39 3e f2 33 8c bd
       0.08519305 -0.200363 0.1809004 -0.06845845
000220 5c b1 58 3d 4f 06 bb 3d 8b 83 5a ba 8a 88 a0 3d
       0.052903518 0.09132063 -0.00083356415 0.07838543
000230 87 ac 45 3d 61 fe 8c 3d 55 49 65 bd b3 13 40 3e
       0.048260238 0.068844564 -0.055978138 0.18757515
000240 3f 05 1c 3e 42 13 20 be 53 af 47 be d5 c6 e5 bb
       0.15236376 -0.15632346 -0.19500475 -0.007012228
000250 2e 88 20 be 6e dc c5 3d 31 e2 56 be d4 e9 99 3d
       -0.15676948 0.09661184 -0.20984723 0.07515302
000260 8a af 7a bd 50 f3 bd 3d 3b 19 22 be 34 e0 0a be
       -0.061202563 0.09274924 -0.15829937 -0.13562089
000270 0c 47 29 3d 9b 35 29 3e 7b 96 4d bd 94 43 81 3d
       0.04132752 0.16524355 -0.050192337 0.06311718
000280 40 08 26 be 2b 2d 31 3e e6 07 f2 3d 10 6a ec bc
       -0.16214085 0.17302386 0.11817913 -0.028859168
000290 7a 80 3f bd 2a ed a6 3d 06 5e 76 ba 3e 21 e1 bd
       -0.046753384 0.08150704 -0.0009398166 -0.109926686
0002a0 d0 f6 85 bc 35 86 b8 3d ab e0 42 3d 7a 0b 49 be
       -0.016353041 0.09009973 0.04757754 -0.19633284
0002b0 fe 36 07 3e e5 d3 1b be 89 6a 75 3d b0 8f 02 be
       0.13204572 -0.1521755 0.059916053 -0.12750125
0002c0 16 2b 9d 3d 71 6a 50 bd a9 dc 54 3e c5 47 1d be
       0.076742336 -0.05088276 0.207873 -0.15359409
0002d0 ee 06 25 3e cc bb 1d be 5e da 44 be e2 e0 a4 bd
       0.16115925 -0.1540367 -0.19223925 -0.080507055
0002e0 68 73 98 3c b0 05 58 be 87 6f 97 bd 83 f8 96 bd
       0.018609717 -0.2109592 -0.07394319 -0.073716186
0002f0 d7 a0 3c 3e a3 c3 40 be e2 f0 4b bd 1a 22 2d 3e
       0.1842073 -0.1882463 -0.04979027 0.1690754
000300 40 17 29 3e e6 cf d4 3a f3 52 1a 3e 74 f6 c3 bd
       0.16512775 0.0016236275 0.15070705 -0.095684916
000310 37 bc 05 3e 4a 5e 1a 3e 66 31 b2 3d 63 50 4b 3e
       0.1306008 0.15075031 0.08700828 0.19854884
000320 8f 20 f3 3b 50 ce 20 3d e5 c8 ae bd fa a3 4c 3c
       0.007419653 0.039259255 -0.08534411 0.012490267
000330 af 2d 0b 3e ca 55 1f be c4 4d 74 3e e4 6b 49 3e
       0.13591646 -0.1556007 0.2385779 0.19670063
000340 15 f3 dd 3d 5d 4a 6d 3c 46 c3 1b 3e d2 dd 50 3e
       0.1083738 0.014483062 0.1521121 0.20397118
000350 d2 67 4f 3e e8 15 61 bc 1b 62 6b 3e fd 2b ba bd
       0.20254448 -0.013738133 0.22986643 -0.09090421
000360 a2 c0 f6 bd a2 b5 ea bc c0 38 ef 3b 0a 60 e5 3d
       -0.120484605 -0.028651062 0.0073004663 0.111999586
000370 b4 4c 22 3d a8 4a 56 3e c6 3c 83 bd c3 23 d7 3d
       0.03962393 0.20926917 -0.06408076 0.10504868
000380 64 82 6e 3e 89 73 93 3c b3 f6 69 bd 22 e9 b6 bd
       0.23291928 0.017999427 -0.057120036 -0.08931185
000390 c2 6c db b9 46 d5 ff 3d 16 32 0b 3c e0 c7 32 3e
       -0.00041851966 0.124918506 0.008495828 0.17459059
0003a0 98 7e 1b be 36 9e 22 bc 99 fd d3 bd 6e d9 0a be
       -0.1518501 -0.009925416 -0.10351104 -0.13559505
0003b0 67 e6 28 be e6 12 10 3e a7 97 8c 3d 4d eb 38 3e
       -0.16494142 0.14069709 0.06864863 0.1805851
0003c0 80 12 71 bc d1 91 a9 3d b3 33 d1 3c 02 5b 06 3e
       -0.014713883 0.082797654 0.025537347 0.13120654
0003d0 85 0f 64 3e 81 41 59 bd ab 8a cf bd 1e c5 67 3e
       0.22271545 -0.053040985 -0.10133871 0.22633788
0003e0 b9 0e 5d 3e f7 85 4c 3e 62 7b e9 bb ed a4 d5 bc
       0.21587647 0.19972979 -0.007125304 -0.02607962
0003f0 b2 54 03 be 64 b4 c2 bd 22 95 4d 3e 66 e5 55 3e
       -0.12825277 -0.09507063 0.20076421 0.2088829

net.3.bias f4 [64]
000000 4b 1a aa 3c ae ec 79 bd 1e d9 bb bc 77 6b 69 3d
       0.02076449 -0.06101673 -0.022930678 0.056987252
000010 d5 76 d5 bc ae 9d 2c bc fd 2a 0f bd e2 12 a2 3d
       -0.02605764 -0.010535641 -0.034953106 0.07913758
000020 59 5b 80 3c 57 df b1 bc f4 e4 94 3d 4c f2 b7 bc
       0.015668558 -0.021712942 0.07270232 -0.022454403
000030 1d 2c 63 3d 11 b9 1a 3c 2f 65 64 3c 96 6e bc 3d
       0.05546199 0.009443537 0.01394014 0.0920078
000040 4c 1f f5 bc 5d 8a 83 3c fe 58 c9 3d 8e db 57 3d
       -0.02992215 0.016057188 0.09831427 0.052699618
000050 83 63 d7 3d aa ae 11 bc 9d db 10 bd 47 a9 66 bc
       0.10517027 -0.008891741 -0.03536569 -0.014078445
000060 30 cb 76 bd 25 24 b7 3d 00 00 00 00 ed 04 8c 3d
       -0.06025237 0.08942441 0.0 0.06836877
000070 ae 3f 46 3d 2e 37 b6 bb 02 57 f2 3c 58 2c d2 bc
       0.048400573 -0.005560777 0.029582504 -0.02565591
000080 46 91 4e bc f9 e9 d0 3d d9 c9 24 bd 3a 73 c3 bc
       -0.012607878 0.10200877 -0.04023156 -0.023858655
000090 00 00 00 00 3f 63 83 3d 1c ae 52 bc 4d f1 49 bc
       0.0 0.06415414 -0.012858894 -0.012325597
0000a0 87 f4 27 3d 00 00 00 00 2a 7a 7a 3d e6 7b 1a bd
       0.041004684 0.0 0.06115166 -0.037715815
0000b0 4c b7 7b 3d 4f 4e 94 3b e6 6d 42 3c 0a ee b2 bc
       0.061454102 0.0045259367 0.011867022 -0.021842021
0000c0 d7 60 b8 3d 26 f2 ce 3d 48 8c bc 3d 7e 7e 45 3d
       0.09002846 0.1010478 0.09206444 0.048216335
0000d0 04 9b 36 3b cf 19 a4 3c 51 33 0f 3d b2 f6 8a 3d
       0.0027863393 0.020031838 0.03496105 0.06785335
0000e0 da 10 ce 3c ed 17 bd 3d d8 a7 de 3c 50 43 0b bd
       0.02515452 0.09233079 0.027179644 -0.03399974
0000f0 f8 e4 b8 bc 30 32 1c 3d c8 12 d0 3d 93 27 c9 bc
       -0.022570118 0.0381338 0.10159832 -0.024555003

net.6.weight f4 [2, 64]
000000 92 1e 63 bd 30 cf 54 be 28 91 70 be 01 60 59 3e
       -0.055449076 -0.20782161 -0.23492873 0.21228029
000010 f1 54 87 be fc ff b3 3d aa ac 83 3e 9d 50 92 3e
       -0.26431993 0.087890595 0.2571767 0.28577128
000020 a5 b8 f2 bd 6a 6b 02 3e 5b a8 ae 3e 60 c2 2b bd
       -0.118516244 0.12736288 0.3411282 -0.041933417
000030 0f 96 04 3d c7 84 6b be 6e 68 3a be 38 01 1c 3e
       0.03236967 -0.2299987 -0.182039 0.1523484
000040 a3 9b 3e be e5 a1 7e be f6 63 1b 3e ec 1a ec 3d
       -0.18614058 -0.24866445 0.15174851 0.115285724
000050 c2 67 08 3e 1e ce 74 be 95 a5 19 be a1 28 26 be
       0.1332083 -0.23906752 -0.15004571 -0.16226436
000060 0c 67 f7 bd 07 a5 af 3d 16 af 7d be 8c 47 ea 3d
       -0.120802015 0.08576398 -0.24773821 0.11439428
000070 e1 ec 2a bd a9 2f 02 be b7 d6 06 be c5 b9 83 bc
       -0.04172981 -0.12713493 -0.13167845 -0.016079793
000080 16 23 1d 3e a7 26 9d 3e 46 4e 66 bd 89 cd 8e 3d
       0.15345415 0.30693552 -0.05622699 0.069727965
000090 5c 67 be bd 38 61 86 3e 23 6f 7e be 21 74 7a be
       -0.09297058 0.26246047 -0.24847083 -0.24458362
0000a0 05 de 49 bd 28 11 59 be 96 ff ab 3e c1 06 bc 3c
       -0.049284 -0.21197951 0.33593434 0.02295244
0000b0 74 81 c7 bc 78 25 03 be 5c 18 4d 3e 10 7a 02 3e
       -0.02435372 -0.12807262 0.20028824 0.12741876
0000c0 eb 4a 81 3d 0a ba 70 3e 2b 0a 01 3e 71 a8 24 3d
       0.063131176 0.23508468 0.12601535 0.0401997
0000d0 cb 37 4b 3e 16 eb 5c 3e 35 58 7b 3e dd 07 fd 3c
       0.19845502 0.21574053 0.24545367 0.030887539
0000e0 db 6b ae 3e 54 a8 69 3e 60 d6 5f be 69 2d 09 bd
       0.34066662 0.22818118 -0.21859121 -0.033490572
0000f0 2e 64 94 be be c5 3d 3e 39 80 1f 3e ca 37 48 3e
       -0.2898268 0.18532464 0.15576257 0.19552532
000100 5f 45 32 3e a0 9b ba bd e5 ab c4 3d e0 38 6f 3d
       0.17409275 -0.09111714 0.09603099 0.05840385
000110 65 99 78 3d e9 00 43 be 4e 07 ff bd e0 59 fe 3d
       0.060693163 -0.19043316 -0.12452565 0.12419486
000120 38 a5 91 3e 90 2d eb bd d6 0d ee 3d b8 a2 de bc
       0.28446364 -0.114833 0.11623733 -0.0271772
000130 e1 11 bf 3d 0b 69 98 3e 41 70 87 3e f8 58 b0 3e
       0.09329582 0.2976764 0.2645283 0.34442878
000140 70 27 5a be 29 02 9c 3e 74 b9 0a 3e 41 f7 2a 3d
       -0.21304107 0.30470398 0.13547307 0.041739706
000150 e6 53 24 3e 75 83 58 3e 00 d7 89 be 99 69 7f ba
       0.1604763 0.21143897 -0.26921844 -0.00097432133
000160 91 ed 6e be 29 24 8d 3e e4 f1 85 3e f9 be 83 3d
       -0.23332812 0.2756665 0.2616111 0.064329095
000170 ac e2 8e 3e c6 f0 13 3e 5b d8 80 3e 47 c7 8d be
       0.27907312 0.14447317 0.25165066 -0.276911
000180 b4 46 63 be 72 cf 80 3e 0e 6a 49 be 29 2b 8b be
       -0.2219494 0.25158268 -0.19669363 -0.27181366
000190 48 9c 2f 3e 12 66 98 3d da 20 32 3e a2 20 16 3e
       0.1714946 0.07441343 0.17395344 0.14660886
0001a0 40 87 88 3e 90 c1 4c 3e 50 9e 8e 3e 6c ae 39 be
       0.26665688 0.19995713 0.27855158 -0.18132943
0001b0 4f 95 92 3e cb fb 12 3e 5a 77 b2 3c 31 73 58 be
       0.28629538 0.14353864 0.021785427 -0.21137692
0001c0 3f 6e 85 3e 38 e4 9e 3e 4c bb ba 3d a9 a1 3e 3d
       0.26060674 0.31033492 0.09117755 0.04654089
0001d0 2f bc 78 3e 2e 28 ca 3d 7b 68 0b 3c 71 6b b5 3e
       0.24290536 0.09870945 0.008508797 0.35433534
0001e0 85 f1 e5 bd b6 bc 52 3e fd 94 a1 3e 3b 3c 6d be
       -0.11227707 0.205798 0.31558982 -0.23167507
0001f0 b0 99 1c be dc 28 37 3d 40 51 79 3e c7 47 2b be
       -0.15293002 0.0447167 0.243474 -0.167266

net.6.bias f4 [2]
000000 dc 31 6b 3d 22 3e ac 3d
       0.057420596 0.084102884

exp_avg f4 [64, 4]
000000 6a 0c 0d be 54 96 44 be ea cd 4d bb 49 b7 65 3d
       -0.13774267 -0.1919797 -0.0031403252 0.056082997
000010 72 6f eb ba a9 56 0a bc d0 02 86 3a 07 f4 c3 b9
       -0.001796229 -0.008443513 0.0010224227 -0.00037375113
000020 91 ad 49 be 04 99 8e be 87 c4 65 3a b7 16 b0 3d
       -0.19695117 -0.27851117 0.00087649416 0.085980825
000030 cf c8 44 be 0f fe 89 be 14 46 46 3b 0c 73 a9 3d
       -0.19217227 -0.26951644 0.0030254172 0.082738966
000040 4e ea 99 b9 6d 87 03 3a e2 0e 14 ba 0e 2d c4 b9
       -0.00029357005 0.00050174334 -0.00056479697 -0.00037417602
000050 a0 6b 41 be 9e 39 71 be 3d d4 20 bb 7d 91 be 3d
       -0.18888712 -0.23557135 -0.0024540566 0.093050934
000060 97 c9 7b be a4 60 a6 be 37 51 fd bb b1 fb e1 3d
       -0.24588619 -0.32495606 -0.007730629 0.110343345
000070 25 53 51 be be a2 97 be 55 59 3c ba d4 12 b3 3d
       -0.20441873 -0.2961635 -0.00071849424 0.087438256
000080 8e 7b 92 be 06 c0 dc be c3 49 8e bb d6 73 de 3d
       -0.2860989 -0.43115252 -0.004342289 0.10861938
000090 cd af 9b bd 40 64 b1 bd f9 b5 72 ba 4e f0 18 3d
       -0.07601891 -0.08661699 -0.00092586834 0.037338547
0000a0 51 ae de bd 7a 3a 2b be 75 ae 07 3b e5 92 30 3d
       -0.10873092 -0.16721526 0.002070335 0.04310884
0000b0 d2 1f bb bd c4 0c db bd e3 0e 93 ba 92 74 44 3d
       -0.091369286 -0.10695794 -0.0011219647 0.047962733
0000c0 97 b5 0a b8 fb 19 11 b7 64 35 47 b8 ef c1 20 b8
       -3.3070883e-05 -8.6487225e-06 -4.749502e-05 -3.8327587e-05
0000d0 19 22 aa bd 3e 0a be bd cf 82 e7 bb 6f cb 24 3d
       -0.08307285 -0.09279297 -0.007065154 0.040233072
0000e0 28 3f b9 bd 9b a4 11 be 43 25 a5 3b f2 a1 1c 3d
       -0.09045249 -0.14222948 0.0050398423 0.03824038
0000f0 22 5f 65 be e1 9e a3 be eb c4 fd b9 55 7b d1 3d
       -0.22399572 -0.31957152 -0.00048402636 0.10228602
000100 b7 ef 6c be ab ea b0 be de dc 33 bb e0 ff c4 3d
       -0.23138319 -0.34554037 -0.002744488 0.09619117
000110 99 45 2a be 9a 98 75 be 9b e8 85 bb b9 3a 93 3d
       -0.16628112 -0.23983994 -0.0040865666 0.07188935
000120 d5 96 1f 35 c7 68 6e b4 aa bd 15 35 a7 ab cf 30
       5.9451605e-07 -2.2203595e-07 5.5782823e-07 1.5110019e-09
000130 23 97 fb b9 b1 3f 9a 38 d2 f7 51 b9 ae cb b9 b9
       -0.00047987056 7.355156e-05 -0.00020024113 -0.00035437703
000140 3c 0a cb bb 39 df e1 bb 6c 3e b3 bb c8 a4 62 bb
       -0.0061962884 -0.0068930653 -0.0054700878 -0.003458308
000150 fa 98 63 3a 12 28 5a 3b 8e ed dc b8 35 41 ac 36
       0.0008682158 0.0033288044 -0.000105346655 5.1335905e-06
000160 04 be 23 be c5 40 66 be 54 dc 20 bb 15 9a 8d 3d
       -0.15990454 -0.22485645 -0.0024545388 0.069141544
000170 01 c9 43 be 2f 04 77 be 1d bd 94 bb 33 59 b2 3d
       -0.19119646 -0.2412269 -0.0045391456 0.0870842
000180 e2 95 62 bd 10 1c 8e bd f7 78 0b 3b bc 41 ef 3c
       -0.05531872 -0.06938946 0.0021281817 0.02920615
000190 aa 7c 81 3c 35 d2 8a 3c 05 84 4a 39 84 25 0c bc
       0.015806515 0.016945938 0.00019313402 -0.008553866
0001a0 00 00 00 00 00 00 00 00 00 00 00 00 00 00 00 00
       0.0 0.0 0.0 0.0
0001b0 a5 f3 fb bd ba 0f 5a be 2e 68 df 3b 4d 57 38 3d
       -0.12302331 -0.21295062 0.006817839 0.04500513
0001c0 00 00 00 00 00 00 00 00 00 00 00 00 00 00 00 00
       0.0 0.0 0.0 0.0
0001d0 9d 95 1c be 0d 89 89 be 85 86 4b bc 82 58 1a 3d
       -0.15291448 -0.26862374 -0.012422209 0.037682064
0001e0 9e f5 85 bd b3 b8 bb bd 17 36 3d 3a a0 da fd 3c
       -0.065409884 -0.09166088 0.0007217838 0.030988038
0001f0 40 a0 3e b9 47 3c 9e b7 3e a4 9e b8 b6 9e 75 b9
       -0.0001817951 -1.8863137e-05 -7.5646196e-05 -0.00023424145
000200 92 2e 49 bd 7d 78 59 bd b7 c3 a8 39 79 96 db 3c
       -0.04911668 -0.053093422 0.00032189276 0.02680515
000210 03 15 53 3b c1 31 c3 3b 36 1d e2 39 12 b7 c2 39
       0.003220857 0.005956859 0.00043127843 0.00037138961
000220 4f fa 8f bb f4 c5 03 bd 71 2b c3 39 0e 8f 3b bb
       -0.004393853 -0.032171205 0.00037225665 -0.0028619203
000230 c9 fa 06 bd 33 ba ae bc e6 f2 09 bb 90 ce c9 3c
       -0.03295401 -0.021329021 -0.002104932 0.02463463
000240 e1 01 63 bd 90 61 21 be bd e9 9a ba ae e1 cc bb
       -0.055421714 -0.15759873 -0.0011818927 -0.006252489
000250 0f a5 4d be eb 55 91 be fb 5e 2e 3b 83 29 b0 3d
       -0.20082496 -0.28385863 0.0026606906 0.08601668
000260 c7 91 3b b9 41 4c ae ba 15 f8 68 39 7d d1 00 ba
       -0.00017888016 -0.0013297872 0.00022217662 -0.00049140287
000270 1c 39 db bd 85 b4 31 be bd 01 36 3b 68 7b 14 3d
       -0.10704252 -0.17354019 0.0027772032 0.036250502
000280 00 00 00 00 00 00 00 00 00 00 00 00 00 00 00 00
       0.0 0.0 0.0 0.0
000290 3d fa 31 be 1a 1a 84 be 5e 20 b2 bb 03 48 85 3d
       -0.17380615 -0.25801164 -0.0054359874 0.06507876
0002a0 24 2d 2e be 25 ac 6a be a6 3f e8 bb 0e 5d 91 3d
       -0.17009407 -0.2291723 -0.0070876656 0.07097827
0002b0 e9 8f 3e be f6 38 88 be 51 2f 28 bb bc 37 ad 3d
       -0.18609585 -0.26605958 -0.0025662968 0.08457896
0002c0 ba a8 b1 3c 9d 9f cf 3c fe da ae 39 2e 82 3d bc
       0.0216869 0.025344664 0.00033351028 -0.011566682
0002d0 a9 86 86 bd 79 81 d8 bd e9 5f 45 bb 5a 82 92 3c
       -0.06568653 -0.1057157 -0.0030116981 0.017884422
0002e0 79 71 4d be 3e 05 91 be 06 05 f3 bb 19 6a a6 3d
       -0.20062818 -0.28324312 -0.0074163703 0.08125705
0002f0 d8 66 68 39 53 63 41 3b 20 85 53 b9 d4 99 15 3a
       0.00022163556 0.0029508665 -0.00020172121 0.0005706821
000300 00 00 00 00 00 00 00 00 00 00 00 00 00 00 00 00
       0.0 0.0 0.0 0.0
000310 24 70 da bb 0c 0f 23 bc 41 a2 a1 bb ea dc 68 bb
       -0.0066662002 -0.009952318 -0.0049326723 -0.0035532066
000320 6e 22 da b7 1c de 12 bc 18 05 61 3a 3d 10 cf ba
       -2.6003658e-05 -0.008964088 0.0008583828 -0.0015797686
000330 4d f0 a0 bc b9 12 bb bc 6b f8 7a bb f5 93 ef 3b
       -0.019645834 -0.022836076 -0.0038295041 0.007311339
000340 63 09 26 bd 0c 99 31 bd b6 30 bf 38 45 44 b5 3c
       -0.040536296 -0.043358847 9.116663e-05 0.02212728
000350 8c bc 34 be c2 ef 88 be f9 55 c3 bb 82 0a 84 3d
       -0.1765005 -0.2674542 -0.0059611765 0.06447317
000360 f3 28 78 bd 9b 6b 84 bd e0 e2 6b 3a 0d 9c 08 3d
       -0.060585927 -0.064658366 0.00089983456 0.033351947
000370 03 0e 37 be 37 98 7d be 38 00 18 3a 1a 4f aa 3d
       -0.17876439 -0.24765097 0.00057983724 0.08315869
000380 28 e0 80 be fa cf b4 be bb ca ed ba 5b 4c ea 3d
       -0.25171018 -0.35314924 -0.0018142083 0.11440345
000390 00 00 00 00 00 00 00 00 00 00 00 00 00 00 00 00
       0.0 0.0 0.0 0.0
0003a0 67 00 bb bc 79 0f c6 bc 26 e8 fa ba aa cb 3a 3c
       -0.02282734 -0.0241773 -0.0019142672 0.011401096
0003b0 23 d5 65 be b9 93 a4 be 08 88 c0 bb df ea b8 3d
       -0.22444586 -0.32143953 -0.005875591 0.09029173
0003c0 7e 94 af b8 40 17 aa 3b b7 60 12 b9 c2 5b 75 3b
       -8.372309e-05 0.00519076 -0.00013959674 0.0037438725
0003d0 2c 09 ec b9 b1 41 16 b9 c7 eb d0 b9 34 50 28 ba
       -0.0004502026 -0.00014329587 -0.0003984852 -0.00064206426
0003e0 1a 82 3b 3b 27 27 ff 3b 54 78 c1 38 01 c6 64 3b
       0.0028611482 0.0077866497 9.22537e-05 0.0034908059
0003f0 a8 25 9a bd 05 e9 ff bd b9 12 33 3b 08 e8 c6 3c
       -0.075267136 -0.12495617 0.0027324392 0.024280563

exp_avg_sq f4 [64, 4]
000000 ea b1 5f 3a f8 0d b8 3a e4 37 a5 38 0b 31 ac 39
       0.0008533286 0.0014042249 7.8782236e-05 0.00032842936
000010 09 1b d5 39 e2 86 92 38 38 65 0a 3a 72 36 ee 39
       0.0004064667 6.9869464e-05 0.0005279365 0.00045435462
000020 98 d3 3d 3b c6 2f 8b 3b 5f 83 e8 39 77 81 a3 3a
       0.002896523 0.0042476384 0.00044348367 0.0012474497
000030 01 04 38 3b f9 94 83 3b ea b4 4b 3a 99 1e b6 3a
       0.0028078558 0.0040155617 0.0007770794 0.0013894617
000040 a6 66 54 3b fc ba b3 39 49 d4 27 3b 3e c6 46 3b
       0.0032409816 0.00034280855 0.002560871 0.0030330564
000050 73 80 43 3b d4 2b 7d 3b d3 8a 23 3a 1c 69 e3 3a
       0.00298312 0.003863086 0.0006238643 0.0017350051
000060 8c 6c a5 3b d1 5c b1 3b 7b 18 d7 3a 80 ad 2c 3b
       0.00504834 0.005412676 0.0016410494 0.0026348531
000070 be 86 e2 3a 34 ec 72 3b 35 8a 8f 38 65 4d 0a 3a
       0.0017282588 0.0037067058 6.8445144e-05 0.0005275815
000080 76 79 de 3b 58 00 01 3c 46 10 54 3b 1b 33 93 3b
       0.0067893816 0.007873617 0.0032358333 0.004492176
000090 18 c1 1a 3a 4b 0c bf 39 29 b2 87 39 9d 87 48 39
       0.0005903407 0.00036439518 0.00025881946 0.00019124006
0000a0 73 8e 7c 3a f7 e0 c1 3a a3 5c ac 39 a1 58 bc 39
       0.00096342637 0.0014791776 0.00032875416 0.00035924188
0000b0 f1 6b 79 3a dd a1 04 3a 9c 59 fd 39 06 40 19 39
       0.0009514681 0.000505952 0.00048322685 0.00014615068
0000c0 10 51 37 3a d6 e4 8b 37 c3 98 28 3a a7 3b 0f 39
       0.0006992975 1.6676651e-05 0.00064314547 0.00013659765
0000d0 3c f4 68 3a 43 e3 3e 3a b7 f3 84 39 08 a5 bf 39
       0.00088864914 0.00072817894 0.00025358584 0.00036553317
0000e0 0a f5 b7 3a e7 c8 a9 3a 55 26 36 3a cb 51 38 3a
       0.0014034819 0.001295355 0.0006948461 0.0007031231
0000f0 66 9f 9e 3b 65 e1 ae 3b 0f de 08 3b a7 e9 2b 3b
       0.004840779 0.0053369277 0.002088431 0.0026231797
000100 d0 48 8d 3b 67 66 c2 3b 75 f1 d2 3a cb 66 f1 3a
       0.0043116584 0.0059326175 0.0016093688 0.0018417476
000110 17 c5 06 3b 29 20 38 3b b2 cd 38 3a 79 2a 58 3a
       0.0020564252 0.002809534 0.0007049694 0.0008246075
000120 61 d3 f6 36 df 2b 99 35 a1 be cd 36 1c 86 c3 30
       7.355979e-06 1.1412156e-06 6.131668e-06 1.4226234e-09
000130 78 28 d3 3a eb 1e 1a 39 4b 90 af 3a 60 5d 96 3a
       0.0016110083 0.00014698102 0.0013394443 0.001147192
000140 6f 3e 96 3b 9d 14 25 3b de df 4f 3b 69 21 85 3b
       0.0045850794 0.0025189288 0.0031719129 0.0040628207
000150 a3 a3 69 36 02 ea d9 36 9c 31 36 36 38 50 8d 37
       3.4814955e-06 6.494346e-06 2.714899e-06 1.6845865e-05
000160 8c 21 9d 3a 7b 66 09 3b 4f 41 3c 39 ca 76 3f 3a
       0.0011988147 0.0020965624 0.00017953406 0.0007303773
000170 b3 32 4e 3b 96 12 77 3b 78 b5 a1 3a 3c 02 02 3b
       0.0031463325 0.0037700287 0.0012337407 0.0019837758
000180 c1 c5 8e 3a bb ca c0 39 28 07 5e 3a 17 07 bc 39
       0.0010892675 0.0003677214 0.00084696943 0.00035863437
000190 cf 7b 92 37 30 6a 87 37 6f c6 26 36 59 e3 89 36
       1.746221e-05 1.6142701e-05 2.485143e-06 4.109385e-06
0001a0 00 00 00 00 00 00 00 00 00 00 00 00 00 00 00 00
       0.0 0.0 0.0 0.0
0001b0 ff a1 27 3b f7 c4 6f 3b 9d 87 a2 3a f7 1f f7 3a
       0.0025578735 0.0036585906 0.0012400035 0.0018854131
0001c0 00 00 00 00 00 00 00 00 00 00 00 00 00 00 00 00
       0.0 0.0 0.0 0.0
0001d0 a3 d7 b9 3b 31 c3 03 3c 46 4e 33 3b 3e ea 9c 3b
       0.005671458 0.008042143 0.0027359887 0.004788666
0001e0 52 db 40 3a fe aa 1b 3a f2 01 f6 39 4c 9b 0c 39
       0.00073569 0.00059382606 0.00046922226 0.00013409293
0001f0 f0 46 b5 37 4b fe 94 35 fb af 4c 37 b2 2d 91 38
       2.1609914e-05 1.1100868e-06 1.2200321e-05 6.92265e-05
000200 ae 87 d1 3a 30 ca 46 39 8b 1e 9a 3a f1 e7 ea 38
       0.001598587 0.00018958072 0.001175837 0.00011201192
000210 9a 29 01 3b 85 a8 a2 3a 3b 09 ca 3a da 59 b4 3a
       0.0019708634 0.0012409842 0.0015414128 0.0013759688
000220 8d fb d0 3a 1b a2 54 3a f3 c7 a3 3a 48 f5 c8 3a
       0.0015944109 0.0008111314 0.0012495503 0.0015331889
000230 b6 ec ad 39 60 fc 7f 3a 7d 89 d4 38 70 7f 14 39
       0.00033173495 0.0009765085 0.00010134557 0.00014161854
000240 75 e3 82 3b bf e9 97 3b ee bb 2b 3b 3b 69 54 3b
       0.0039944 0.004636019 0.0026204544 0.0032411355
000250 cf 8c 34 3b e4 0c 85 3b 37 46 fa 39 9b 27 bf 3a
       0.0027549749 0.0040603746 0.0004773603 0.0014583947
000260 4d 8e 08 37 22 f3 24 36 f7 4d 15 37 92 3a 2f 38
       8.139364e-06 2.4579426e-06 8.899245e-06 4.17778e-05
000270 76 a4 37 3b 84 f2 8c 3b 74 45 ae 3a a1 eb 08 3b
       0.002802161 0.004301371 0.0013295845 0.00208924
000280 00 00 00 00 00 00 00 00 00 00 00 00 00 00 00 00
       0.0 0.0 0.0 0.0
000290 c8 e7 90 3b 64 1c 8a 3b 1d b4 12 3b b5 8c 2d 3b
       0.0044221617 0.00421481 0.0022385188 0.0026481573
0002a0 84 07 02 3b 79 0d 4b 3b ec cf ea 39 d6 df be 3a
       0.0019840905 0.0030983372 0.00044786872 0.0014562558
0002b0 20 20 71 3b 04 59 8f 3b 24 f3 ca 3a a8 fa fa 3a
       0.003679283 0.004374625 0.0015483839 0.0019148188
0002c0 b6 6c 10 38 1f 4c 0c 38 6b 85 50 37 6c bd ea 36
       3.443352e-05 3.3449494e-05 1.242883e-05 6.995795e-06
0002d0 25 26 02 3b 5a 17 c9 3a 35 7c d2 3a d8 fe 07 3a
       0.0019859162 0.0015342042 0.0016058745 0.0005187816
0002e0 33 49 94 3b 2b e6 bf 3b b6 5a 1d 3b 72 e3 4d 3b
       0.0045253276 0.0058562956 0.0024010367 0.0031416086
0002f0 e9 e5 e1 32 92 6b 9c 36 8f 20 bb 32 1d 36 3b 34
       2.6297998e-08 4.661685e-06 2.1784471e-08 1.7435418e-07
000300 00 00 00 00 00 00 00 00 00 00 00 00 00 00 00 00
       0.0 0.0 0.0 0.0
000310 e0 ae 58 3b 7b 12 08 3b 2c 7e f9 3a 5c b2 4b 3b
       0.0033063218 0.0020762968 0.0019034795 0.0031081652
000320 45 0e 2f 38 90 37 80 38 f4 eb 26 36 d4 2d 0b 38
       4.173654e-05 6.113865e-05 2.487327e-06 3.3182863e-05
000330 e5 19 38 3a 28 66 03 3a 8d 00 10 3a 14 fd 1c 3a
       0.00070229016 0.0005012476 0.0005493246 0.00059886393
000340 1a 37 90 39 39 40 f6 38 f1 0b 46 39 32 88 ff 37
       0.00027506874 0.000117421565 0.000188872 3.046179e-05
000350 bb 5c 47 3b 1f 67 90 3b 66 25 af 3a b6 e2 e5 3a
       0.0030420262 0.0044068242 0.0013362586 0.0017538879
000360 d8 12 28 3a 5a f7 83 39 84 f8 99 39 37 98 e8 38
       0.00064114993 0.00025170558 0.00029367593 0.00011090974
000370 c7 43 a5 3a bf 70 18 3b ba 1a b3 37 e8 44 c7 39
       0.00126087 0.0023260561 2.1350908e-05 0.00038007577
000380 ff fe 9d 3b 78 8e c2 3b d3 f1 c0 3a c6 7a 17 3b
       0.0048216577 0.0059373938 0.0014720507 0.002311395
000390 00 00 00 00 00 00 00 00 00 00 00 00 00 00 00 00
       0.0 0.0 0.0 0.0
0003a0 0f 13 4e 38 6e 20 84 38 27 2a f1 35 b8 e0 4e 37
       4.9131977e-05 6.300291e-05 1.7968167e-06 1.2330878e-05
0003b0 98 5b b5 3b 12 b8 cb 3b 27 5a 38 3b 25 02 98 3b
       0.0055346005 0.0062170113 0.0028129907 0.0046389275
0003c0 2e d1 9a 39 64 ff 44 39 71 a7 f1 38 5b f1 88 38
       0.0002952902 0.00018787157 0.00011522964 6.529941e-05
0003d0 3f 4d 85 3a 45 7d be 38 80 aa 9d 3a de 5d cf 3a
       0.0010170116 9.083239e-05 0.0012028962 0.0015820821
0003e0 16 96 7e 3b a0 4a c6 3a b3 d9 0d 3b e5 d9 74 3b
       0.0038846782 0.0015128441 0.0021644651 0.003736132
0003f0 96 42 4b 3a 71 f1 90 3a ec 4b cf 39 4d 18 43 3a
       0.00077537575 0.0011058283 0.00039538683 0.0007442281

exp_avg f4 [64]
000000 f1 44 51 be a5 4b 08 bc 44 06 95 be 4e 23 92 be
       -0.20436455 -0.008318816 -0.29106343 -0.2854256
000010 65 c4 c2 ba 8b 5b 81 be 34 1d b1 be ad b5 9e be
       -0.0014859556 -0.25265154 -0.34592593 -0.30997983
000020 44 f1 ea be b9 ba c1 bd 6a 6a 34 be a9 35 ea bd
       -0.45887196 -0.09459443 -0.17618719 -0.11436016
000030 69 da 56 b8 71 4d c4 bd d1 7c 1d be 3e 5c ab be
       -5.1224986e-05 -0.09585083 -0.15379645 -0.33468813
000040 ca 74 b9 be f5 4c 80 be d1 b3 69 35 b4 19 aa ba
       -0.36221915 -0.25058714 8.706093e-07 -0.0012977631
000050 4f 01 37 bc f2 7c 56 3b 72 e8 74 be 78 11 84 be
       -0.011169746 0.0032728282 -0.23916796 -0.25794578
000060 fb 84 98 bd 8a d2 91 3c 00 00 00 00 3e 8e 6b be
       -0.07447239 0.017800588 0.0 -0.2300348
000070 00 00 00 00 77 cd 8e be 35 be c3 bd e6 25 0e ba
       0.0 -0.27891132 -0.095577635 -0.00054225174
000080 13 0c 68 bd 0e 8c b0 3b 0e 46 02 bd 58 7d a2 bc
       -0.05665214 0.0053877896 -0.03180509 -0.01983516
000090 85 4c 2d be 7a df 99 be c0 cf c2 ba 08 c0 44 be
       -0.16923721 -0.30053312 -0.001486294 -0.19213879
0000a0 00 00 00 00 47 43 8c be dc d2 79 be 6d 49 8e be
       0.0 -0.2739508 -0.24396843 -0.27790394
0000b0 5d d5 db 3c 6f 7c e7 bd 6c 2a 9a be b6 26 4b 3b
       0.026835138 -0.11303031 -0.3011049 0.0030998415
0000c0 00 00 00 00 47 5e 4d bc 4f 83 10 bc 6c f1 c2 bc
       0.0 -0.0125346845 -0.008820369 -0.02379676
0000d0 f9 ae 3c bd 4e 65 91 be 4b cb 8e bd 4c 45 85 be
       -0.046065304 -0.28397602 -0.06972369 -0.26029432
0000e0 8c 55 bd be 00 00 00 00 bc e4 c7 bc 80 36 af be
       -0.3697933 0.0 -0.024401061 -0.34221268
0000f0 38 35 ef 3b a6 cb 99 ba c5 99 e2 3b ea 46 0b be
       0.0073000453 -0.0011733666 0.0069153034 -0.1360127

exp_avg_sq f4 [64]
000000 50 29 fb 3a 0a a2 51 3a 6c d9 db 3b 61 f7 e9 3b
       0.0019162092 0.0007996863 0.0067092683 0.0071400856
000010 0b 41 07 3c 6a 8c f4 3b 88 70 37 3c 76 f2 86 3b
       0.008255254 0.0074630277 0.011196263 0.004118259
000020 ab c9 92 3c 58 ea 95 3a 1a 8e 23 3b 98 00 bd 3a
       0.017918428 0.0011437638 0.0024956525 0.0014419733
000030 31 bc 76 3a 76 3a c7 3a c4 72 50 3b d0 27 34 3c
       0.0009412198 0.0015199918 0.0031806687 0.01099582
000040 97 15 2d 3c ec 11 96 3b 9a 16 82 37 a0 3f 6f 3b
       0.010564229 0.004579773 1.5507732e-05 0.003650643
000050 94 fe 56 3c 99 21 10 38 9a 14 54 3b 79 8f fa 3b
       0.01312222 3.4363566e-05 0.0032360912 0.007646498
000060 6f e3 f7 3a 5b 84 be 37 00 00 00 00 c3 29 06 3c
       0.0018912385 2.2711398e-05 0.0 0.008188668
000070 00 00 00 00 c5 99 93 3c ff a4 b1 3a 9f b1 56 39
       0.0 0.018017659 0.0013553201 0.000204748
000080 4e b7 0e 3b bb dd af 3b e9 31 9e 3b 6a a1 9b 3a
       0.0021776739 0.0053670085 0.004827727 0.0011873667
000090 1a 44 60 3c 3b ee f6 3b 3b 0b 86 38 f4 de 17 3c
       0.013688112 0.0075357235 6.39171e-05 0.009269465
0000a0 00 00 00 00 f8 f1 36 3c 82 5f bd 3b f8 cd 13 3c
       0.0 0.011166088 0.0057792077 0.009021275
0000b0 78 f2 79 38 64 ea 87 3b ee 55 54 3c d6 9c ac 36
       5.9592043e-05 0.0041478146 0.01295994 5.1442576e-06
0000c0 00 00 00 00 ed 2a 0f 3c c2 ae 1e 39 14 13 fc 3a
       0.0 0.008738262 0.00015133157 0.001923176
0000d0 08 bb dd 39 87 b0 0b 3c cb 54 8a 3a 49 06 2c 3b
       0.00042291754 0.008525974 0.0010553835 0.0026248863
0000e0 fa c8 38 3c 00 00 00 00 24 2e a5 38 c4 8f 71 3c
       0.011278385 0.0 7.8764075e-05 0.014743749
0000f0 87 09 15 3a d0 ba 54 3b ed 7f 38 3c 9d 61 2c 3b
       0.00056853186 0.0032459982 0.011260969 0.00263033

exp_avg f4 [64, 64]
000000 ae 53 33 bd f3 f1 0a ba 3e 5c 3c bc d5 bb 06 bd
       -0.043780975 -0.00053003355 -0.011496602 -0.032893974
000010 93 61 d6 b6 d6 16 36 bd b3 62 ed bc 4b 8f d9 bc
       -6.389056e-06 -0.04445537 -0.028977728 -0.026557585
000020 83 34 94 bc 83 a7 5a bc 98 09 bf bc 36 48 e2 bb
       -0.018091446 -0.013345602 -0.023320004 -0.006905581
000030 d6 65 a5 35 0f 6b 9b bb 34 ae 78 bb 95 2c dc bc
       1.2323096e-06 -0.004742987 -0.003794563 -0.026876727
000040 93 64 5e bd 36 bf a1 bc c9 f8 a5 b2 c3 a2 23 b8
       -0.054295134 -0.019744497 -1.9321662e-08 -3.9013812e-05
000050 9f 39 11 39 d4 ff 98 b9 a0 9d c4 bc c7 47 3f bc
       0.00013849743 -0.00029182306 -0.024000943 -0.011674828
000060 30 03 73 bc d8 9f 3b bb 00 00 00 00 b8 87 30 bd
       -0.014832303 -0.002862921 0.0 -0.04309818
000070 00 00 00 00 2c 26 11 bc e7 41 45 bd f1 1f 4f 36
       0.0 -0.008859199 -0.048158552 3.0863996e-06
000080 3c 40 81 bc e3 d2 cf 3a 86 5c ba ba d9 86 96 bc
       -0.0157777 0.0015855696 -0.0014218248 -0.018374847
000090 67 01 92 ba 13 5c 3f bc 5b 5f d5 b7 9a 5e 78 bc
       -0.0011139334 -0.011679667 -2.5435982e-05 -0.0151592735
0000a0 00 00 00 00 bd e8 d4 bc 7e 1a ee bc be 5a 2f bc
       0.0 -0.025989885 -0.029065367 -0.010702787
0000b0 83 17 10 bc 12 9d 76 bc f8 9e 12 bd 8d 11 a7 b6
       -0.008794668 -0.015052097 -0.035796136 -4.979031e-06
0000c0 00 00 00 00 e2 09 93 3a 30 c5 0b ba c7 43 f5 bb
       0.0 0.0011218155 -0.00053318124 -0.0074848863
0000d0 81 30 40 bb 37 e1 3c bc a3 c8 1d bc 9b 56 fe bc
       -0.0029325786 -0.011528305 -0.009630355 -0.031047156
0000e0 25 52 cb bc 00 00 00 00 8a 83 7a bc 96 27 21 bd
       -0.024819443 0.0 -0.01529015 -0.039344393
0000f0 2b d5 3f bd 9c 63 c1 b7 9a 61 75 39 c5 59 6e bc
       -0.046834152 -2.3053777e-05 0.0002340138 -0.01454777
000100 c6 cd 71 3a 5d b6 fc 37 ca b1 e3 39 c5 99 ad 3a
       0.0009224083 3.012566e-05 0.00043429277 0.001324468
000110 ab 5a 17 38 07 cb 1a 3b 5f c9 4d 3a 00 00 00 00
       3.6085647e-05 0.002361955 0.0007850136 0.0
000120 28 ef 6b 3a 99 7b ac 38 39 b0 8c 3a 91 31 91 36
       0.00090001756 8.224621e-05 0.0010733671 4.327107e-06
000130 1a fc f9 36 23 53 96 39 f2 f3 8d 39 91 09 96 3a
       7.4501268e-06 0.0002867217 0.0002707537 0.0011446943
000140 2d 02 0e 3b 19 78 1f 3a c2 42 b4 32 20 e1 df 37
       0.0021668777 0.00060832646 2.0985116e-08 2.6688504e-05
000150 c6 4c b1 39 94 fe 1d 37 a2 25 f3 38 31 fa 03 3a
       0.00033817271 9.417203e-06 0.000115941526 0.0005034535
000160 88 52 2f 3a 76 f5 89 35 00 00 00 00 79 4d 13 3b
       0.00066880183 1.0278734e-06 0.0 0.0022476597
000170 00 00 00 00 b5 fe 08 3b a4 02 3d 3a 51 18 db 37
       0.0 0.002090377 0.00072101713 2.6118158e-05
000180 34 e7 36 37 81 2a 9b 38 e2 a6 96 39 00 00 00 00
       1.09018765e-05 7.398893e-05 0.00028734567 0.0
000190 4e 1a a7 39 5f 06 e9 39 3d af a3 37 b2 e6 d6 3a
       0.0003187232 0.0004444597 1.9512716e-05 0.0016395657
0001a0 00 00 00 00 ae f7 d9 3a 1f 01 7f 3a 9d 07 9c 3a
       0.0 0.00166296 0.0009727645 0.0011904124
0001b0 ea 59 d7 32 1c 2e 28 39 10 45 75 3a 00 00 00 00
       2.5070182e-08 0.00016038906 0.00093562994 0.0
0001c0 00 00 00 00 0c 3e 83 3a 93 73 97 37 87 0c 45 3a
       0.0 0.0010012998 1.8054421e-05 0.00075168203
0001d0 49 d2 2f 35 28 4a b6 3a dc c0 79 37 00 00 00 00
       6.5498585e-07 0.0013907598 1.488646e-05 0.0
0001e0 dc 1b a0 3a 00 00 00 00 8b 77 cc 35 38 18 91 3a
       0.0012215334 0.0 1.5233976e-06 0.001106984
0001f0 6f 31 98 39 7f ff 88 38 3d b6 19 39 7b 05 3f 3a
       0.0002902853 6.532575e-05 0.00014659106 0.00072868884
000200 63 4d cc b8 15 45 18 36 81 fd 50 b8 53 b8 fe b8
       -9.7418924e-05 2.2689976e-06 -4.982716e-05 -0.00012145997
000210 c6 d5 4a 37 90 a7 a5 b9 35 dd 8a b8 00 00 00 00
       1.2089911e-05 -0.00031596096 -6.621556e-05 0.0
000220 0c 58 6e b8 2b 36 2a b5 19 be fe b8 bf f2 81 36
       -5.6825622e-05 -6.340876e-07 -0.00012147072 3.872759e-06
000230 b6 1d 0e 37 bc 23 22 b7 8c ac c2 37 eb 55 b0 b8
       8.470777e-06 -9.6642725e-06 2.320695e-05 -8.4083375e-05
000240 bb 74 39 b9 5c 9c c9 b8 2d 12 1a b2 0c 3a f0 37
       -0.0001768646 -9.613551e-05 -8.9681125e-09 2.863726e-05
000250 08 dd c9 37 00 00 00 00 00 3e e6 b8 21 a5 14 b8
       2.4063993e-05 0.0 -0.00010978803 -3.5439738e-05
000260 35 4e 42 b8 b8 fa e8 b2 00 00 00 00 0f 09 52 b9
       -4.632604e-05 -2.7122368e-08 0.0 -0.00020030535
000270 00 00 00 00 50 37 e4 b8 5d f8 c5 b8 f2 f1 a1 34
       0.0 -0.0001088219 -9.439953e-05 3.0164625e-07
000280 ba 2c 51 36 77 01 cd b7 6d d6 3b b7 00 00 00 00
       3.1169461e-06 -2.4438586e-05 -1.11959935e-05 0.0
000290 3b 93 07 39 73 16 2f b8 e8 0e 44 35 fa 49 21 39
       0.00012929451 -4.174416e-05 7.303738e-07 0.00015381715
0002a0 00 00 00 00 d3 dc 02 b9 59 70 ed b8 c9 04 0e 39
       0.0 -0.0001248003 -0.00011321967 0.00013543958
0002b0 b0 17 a8 b2 a8 73 48 b8 25 72 b6 b8 00 00 00 00
       -1.9568546e-08 -4.779143e-05 -8.699697e-05 0.0
0002c0 00 00 00 00 3c 9a 9d b7 00 00 00 00 9c a5 f4 37
       0.0 -1.878768e-05 0.0 2.9164185e-05
0002d0 9d 60 14 35 bf 65 0a b9 f3 86 0c 37 00 00 00 00
       5.527489e-07 -0.00013198609 8.376071e-06 0.0
0002e0 a2 40 ca b8 00 00 00 00 30 e2 38 b2 90 a9 d9 b8
       -9.6441494e-05 0.0 -1.0761639e-08 -0.0001037895
0002f0 05 68 04 b8 e2 d3 4e 37 f8 be 06 38 00 b4 92 b8
       -3.1568128e-05 1.232789e-05 3.2125943e-05 -6.99535e-05
000300 18 6f 83 bc 8b cd cc b9 10 c9 6e bb 48 dd 14 bc
       -0.016044185 -0.00039063054 -0.003643576 -0.009085961
000310 51 0c 24 b8 5c c4 a8 bc 41 73 19 bc e8 15 d3 bb
       -3.9112118e-05 -0.020601444 -0.009365858 -0.0064418204
000320 23 6d f1 bb 0a 35 30 bb 97 e1 19 bc 3d f0 8f ba
       -0.0073677464 -0.0026887082 -0.009392164 -0.0010981631
000330 4b 44 c6 b6 75 de 0a ba b0 d6 56 bb 25 b8 3c bc
       -5.90881e-06 -0.0005297431 -0.0032781772 -0.011518513
000340 2a 2e c0 bc 80 0c 1e bc d3 9d 6b 2f d8 64 fe b7
       -0.023459513 -0.009646535 2.1429196e-10 -3.0326119e-05
000350 0e 05 c0 b9 29 59 76 b9 89 4d 4a bc 51 4d 80 bb
       -0.0003662486 -0.00023493603 -0.012347587 -0.003915467
000360 6d 5b ae bb 08 a0 56 ba 00 00 00 00 9e f3 f1 bc
       -0.0053209574 -0.00081872987 0.0 -0.029535111
000370 00 00 00 00 25 c9 f5 bb ca a0 8d bc 10 f2 cf b7
       0.0 -0.007500785 -0.017288584 -2.4789042e-05
000380 e3 ca 32 bb c1 d4 1a ba 6e a4 0c bb 73 af c9 bb
       -0.0027281574 -0.00059063366 -0.0021460312 -0.0061549484
000390 26 df 44 bb 34 5e 66 bb 42 61 1f b8 98 ed 72 bc
       -0.0030040233 -0.0035151364 -3.7999132e-05 -0.014827155
0003a0 00 00 00 00 4c b7 65 bc 26 f6 5c bc 82 34 bb bb
       0.0 -0.014020752 -0.013486421 -0.0057130465
0003b0 ec c2 13 bb a7 02 d3 bb 45 f4 36 bc ea 73 c5 b5
       -0.0022546602 -0.006439525 -0.011166637 -1.4711379e-06
0003c0 00 00 00 00 ff 8a ac ba 99 10 0a ba 61 b7 12 bb
       0.0 -0.0013163983 -0.00052667555 -0.0022387134
0003d0 fa d9 20 ba 7c e1 c3 bb ad 6e be ba ff bf 22 bc
       -0.00061359967 -0.0059778076 -0.0014528834 -0.009933471
0003e0 88 c5 f7 bb 00 00 00 00 10 fd 43 bb 32 a5 5a bc
       -0.0075613894 0.0 -0.0029905476 -0.01334505
0003f0 50 9a 5b bc 25 12 57 b8 99 0e 18 b8 bb a8 20 bc
       -0.01340349 -5.1276893e-05 -3.625322e-05 -0.0098058535
