gen_4_agent_1.pt (torch, 64207 bytes, 18 tensors)

net.0.weight f4 [64, 4]
-0.253905 0.040128037 -0.20572218 -0.28829738 0.052712426 -0.035832033 0.2647347 -0.21411984
0.29297942 -0.182249 0.27398416 0.08275386 0.30823028 0.33941683 -0.101285994 -0.10536953
0.07339589 -0.2792982 -0.23452593 -0.15785562 -0.13666545 0.29432726 -0.23789136 -0.30404156
0.21545832 0.017346859 -0.1942772 -0.21887043 0.20275661 -0.26018238 -0.051207516 0.023139464
0.07895608 -0.008978417 0.2517204 -0.0970752 -0.14783338 0.23812792 -0.26749298 0.12537949
-0.16249444 -0.022997066 -0.15733479 -0.29748365 -0.12063887 0.046947077 0.26427206 -0.07142441
-0.12678084 0.047688365 0.18865705 -0.163445 0.003791108 -0.13077976 0.09864984 -0.059627973
0.2849891 0.10388017 0.24923885 0.031896576 -0.24921277 -0.1669569 0.098575175 0.14979872
-0.24665582 0.12087756 -0.011869196 -0.16703516 0.22259088 -0.18287836 0.063159086 0.045474797
0.25087947 0.27883875 -0.1021004 -0.075938374 0.24131805 -0.24007006 0.18358918 -0.2586607
-0.033579227 -0.123792276 0.011305032 -0.050994247 0.18569042 0.00574359 -0.13783993 0.102831
0.06481391 0.033593275 0.10656747 -0.156689 0.26458976 0.119160704 0.10822835 -0.10940114
0.15047419 -0.045529507 -0.118526705 0.0010753678 0.15584008 0.20881975 -0.19827294 0.00885491
0.03874346 -0.058929447 0.27928403 0.01713993 0.1513386 -0.060629275 0.047942635 -0.28179514
0.041750345 0.24309143 -0.20031239 0.16420217 0.26259002 -0.1532088 -0.15811278 -0.034171544
-0.06190589 -0.052579124 -0.012975362 -0.09739035 0.24206345 0.13623066 -0.010094537 -0.27807835
-0.26322773 -0.19431816 0.15290366 -0.2029068 0.015321208 -0.06417566 -0.14160869 -0.029379038
0.2897013 0.2052168 -0.11043019 -0.009345586 0.00040003625 0.26236022 0.156627 0.13918236
0.22847508 0.017544776 0.15816663 -0.2284744 0.044474594 0.057636436 -0.11411716 -0.18402705
-0.25812563 -0.2652319 -0.03387579 -0.16139093 0.10181026 -0.113048315 -0.09631743 -0.03752018
-0.14207302 -0.23371129 0.09968271 0.2220116 0.012255474 -0.22793531 0.090256 0.11819664
-0.13292083 0.17124386 0.022865657 0.04516871 0.17386082 0.13720939 0.0685455 0.19800563
0.018623369 -0.16754341 0.06434635 -0.08846654 -0.21955219 0.26958713 0.31426358 0.033629343
-0.275067 -0.25919425 -0.122367635 0.007331977 0.18254681 -0.24810062 0.29019475 0.13597918
0.03638317 0.0900934 0.19841284 0.09632703 0.1461762 -0.0679536 -0.019406492 -0.24922471
0.079163246 0.24910083 -0.031945672 -0.26637644 -0.050780863 0.28100348 0.18985526 -0.3265509
0.2028816 -0.22050977 0.19104375 0.09399717 -0.14535981 0.05582038 0.15741242 0.004409012
0.03428879 -0.17729604 -0.12963645 -0.07959532 0.046243425 -0.060171403 0.07923538 0.0043721823
0.13693155 0.20104635 -0.27102035 0.14289775 0.28304762 0.26507616 -0.3092343 -0.04589956
-0.032918464 0.04728721 -0.13678192 -0.13629934 0.3223159 0.34012368 -0.3069329 0.002417949
-0.09783685 0.0006568433 -0.25156987 0.111026764 -0.097325474 -0.18415478 0.26246417 0.26368162
-0.17050485 0.05031828 -0.21190062 -0.1834064 0.23579936 0.30841318 -0.12596954 0.10634866
00000000: d6ff 81be 4c5d 243d d6a8 52be b79b 93be
00000010: fce8 573d 9cc4 12bd 4e8b 873e 3b42 5bbe
00000020: 6601 963e 7b9f 3abe a747 8c3e db7a a93d
00000030: 5cd0 9d3e 0bc8 ad3e 086f cfbd fbcb d7bd
00000040: 9650 963d 2c00 8fbe 9127 70be e7a4 21be
00000050: 07f2 0bbe 10b2 963e cb99 73be 56ab 9bbe
00000060: 1ba1 5c3e 001b 8e3c 9af0 46be 921f 60be
00000070: 6e9f 4f3e a036 85be f9be 51bd f98e bd3c
00000080: bab3 a13d 361a 13bc 7fe1 803e 5dcf c6bd
00000090: a261 17be ced7 733e d7f4 88be 7b63 003e
000000a0: f164 26be 5864 bcbc 5f1c 21be c74f 98be
000000b0: 8311 f7bd 944b 403d ab4e 873e f646 92bd
000000c0: d6d2 01be e054 433d 502f 413e 205e 27be
000000d0: 3d74 783b 21eb 05be ed08 ca3d 763c 74bd
000000e0: 17ea 913e 20bf d43d 7838 7f3e fca5 023d
000000f0: a231 7fbe c0f6 2abe c8e1 c93d d664 193e
00000100: 5893 7cbe a78e f73d 0477 42bc 440b 2bbe
00000110: ddee 633e 7744 3bbe 8d59 813d c843 3a3d
00000120: 4673 803e f4c3 8e3e 041a d1bd 9485 9bbd
00000130: 141c 773e edd4 75be cdfe 3b3e 2d6f 84be
00000140: 5f8a 09bd ce86 fdbd be38 393c 58df 50bd
00000150: a125 3e3e ba34 bc3b e925 0dbe 0f99 d23d
00000160: 28bd 843d 1a99 093d 0c40 da3d 1573 20be
00000170: 4f78 873e 870a f43d d3a6 dd3d b40d e0bd
00000180: e815 1a3e 267d 3abd 21be f2bd 5bf3 8c3a
00000190: 8b94 1f3e d8d4 553e 1008 4bbe 2f14 113c
000001a0: 76b1 1e3d 0160 71bd 51fe 8e3e 0a69 8c3c
000001b0: 82f8 1a3e 6756 78bd 7f5f 443d 7447 90be
000001c0: 6902 2b3d f6ec 783e b11e 4dbe 9d24 283e
000001d0: 3372 863e c5e2 1cbe 51e8 21be 76f7 0bbd
000001e0: 0891 7dbd 355d 57bd 9d96 54bc 9874 c7bd
000001f0: 7bdf 773e 0d80 0b3e 8f63 25bc 4960 8ebe
00000200: c9c5 86be 57fb 46be c792 1c3e cdc6 4fbe
00000210: ce05 7b3c 876e 83bd de01 11be 4fac f0bc
00000220: bb53 943e 5a24 523e 3929 e2bd 3b1e 19bc
00000230: f5bb d139 1454 863e d462 203e d285 0e3e
00000240: 5ff5 693e 10ba 8f3c 6ff6 213e 31f5 69be
00000250: fe2a 363d 2f14 6c3d 42b6 e9bd 9671 3cbe
00000260: 0b29 84be 7acc 87be 57c1 0abd aa43 25be
00000270: e681 d03d e085 e7bd 1342 c5bd c3ae 19bd
00000280: 977b 11be 0352 6fbe 7326 cc3d 0257 633e
00000290: 2fcb 483c e067 69be 23d8 b83d 1411 f23d
000002a0: 661c 08be 8d5a 2f3e c250 bb3c d302 393d
000002b0: 9208 323e 9e80 0c3e 9561 8c3d fdc1 4a3e
000002c0: 0990 983c 8090 2bbe 05c8 833d f22d b5bd
000002d0: 4ad2 60be 5307 8a3e 28e7 a03e ecbe 093d
000002e0: 95d5 8cbe 1cb5 84be e29b fabd 1541 f03b
000002f0: 8ded 3a3e 170e 7ebe 6894 943e 203e 0b3e
00000300: 8506 153d e382 b83d bc2c 4b3e 1b47 c53d
00000310: 37af 153e 422b 8bbd 5dfa 9ebc c334 7fbe
00000320: 5720 a23d 4a14 7f3e 77d9 02bd 7e62 88be
00000330: 98ff 4fbd b0df 8f3e 6b69 423e ae31 a7be
00000340: 32c0 4f3e 50cd 61be f9a0 433e 9781 c03d
00000350: 34d9 14be e9a3 643d b930 213e 7979 903b
00000360: 6772 0c3d 188d 35be 6bbf 04be df02 a3bd
00000370: bf69 3d3d 4a76 76bd 2946 a23d 8644 8f3b
00000380: c937 0c3e 18df 4d3e 2ec3 8abe ca53 123e
00000390: 9eeb 903e 10b8 873e f553 9ebe 2d01 3cbd
000003a0: 83d5 06bd 3cb0 413d 8f10 0cbe 0e92 0bbe
000003b0: 9706 a53e b124 ae3e 4f26 9dbe 7476 1e3b
000003c0: b05e c8bd 0230 2c3a c4cd 80be 0062 e33d
000003d0: 9452 c7bd 1293 3cbe b461 863e 4701 873e
000003e0: d398 2ebe 8a1a 4e3d 7afc 58be e3ce 3bbe
000003f0: 6375 713e 55e8 9d3e 29fe 00be 54cd d93d

net.0.bias f4 [64]
0.14521019 0.14406562 0.023422495 0.1665071 0.14362171 0.14524746 0.1648708 -0.015568826
0.054125685 0.17049792 0.15725514 0.12817165 0.108715095 0.12209628 0.14031583 0.11384555
0.12959297 0.14793932 0.099055715 0.13488944 0.08828377 0.15536264 0.1483905 0.15607697
0.1487556 0.13970421 -0.023501635 0.16002713 0.15103975 0.15228538 0.07861119 0.12758921
0.14912353 -0.018896008 0.1608468 0.17834735 0.07371413 0.10465492 -0.025243802 0.13261612
-0.023750156 0.12417141 0.09555446 0.13931185 0.14464594 0.042922646 -0.007964245 0.10198208
0.17772485 0.14429565 0.13995558 0.16044752 0.046985142 0.16518848 0.15451695 0.16767381
0.12415537 0.17737052 0.15638968 0.12811977 -0.015153928 0.087952994 0.16642262 0.13630228
00000000: fbb1 143e f085 133e 88e0 bf3c d680 2a3e
00000010: 9211 133e c0bb 143e e4d3 283e 6414 7fbc
00000020: e5b2 5d3d 0297 2e3e 7e07 213e 6e3f 033e
00000030: 05a6 de3d 9d0d fa3d f4ae 0f3e db27 e93d
00000040: 05b4 043e 687d 173e b9dd ca3d 7520 0a3e
00000050: 1fce b43d 6217 1f3e aef3 173e a4d2 1f3e
00000060: 6353 183e 9f0e 0f3e 8086 c0bc 27de 233e
00000070: 2aaa 1a3e b3f0 1b3e e7fe a03d bfa6 023e
00000080: d7b3 183e cdcb 9abc 06b5 243e b0a0 363e
00000090: 6ff7 963d 5255 d63d 17cc cebc 85cc 073e
000000a0: b08f c2bc 954d fe3d 0fb2 c33d c4a7 0e3e
000000b0: 111e 143e a8cf 2f3d 777c 02bc fbdb d03d
000000c0: 81fd 353e 3dc2 133e 8450 0f3e 5b4c 243e
000000d0: 7e73 403d 2b27 293e b139 1e3e afb2 2b3e
000000e0: 2c45 fe3d 9ea0 353e 9e24 203e d431 033e
000000f0: 2e48 78bc b320 b43d b16a 2a3e d392 0b3e

net.3.weight f4 [64, 64]
0.08456508 0.15727374 0.011815629 0.20117214 -0.15448755 -0.22615114 -0.19751546 0.1342268
-0.111673586 -0.075989045 0.0073581324 0.18507367 -0.21059047 0.11205607 -0.0061409376 -0.081883974
-0.22054525 0.041485656 -0.23153967 0.15929218 0.09379636 0.06655868 0.031951834 0.18218249
0.06579585 0.08368188 0.037440073 0.029517157 0.14157307 -0.07673072 -0.018872114 -0.16796175
0.062152166 0.016481418 -0.10835668 -0.2868167 -0.085745424 0.14735457 -0.009133936 -0.26411557
0.07379218 -0.037585564 -0.0030212025 0.048313923 0.101516396 -0.18766262 0.1546691 -0.23170026
-0.2667857 0.01688797 0.16790429 -0.06917295 0.07683725 -0.06817406 -0.054788444 -0.090699725
-0.22029881 0.040880524 0.09544788 0.014934564 0.034423206 0.12172455 0.12504873 0.13682064
0.22649658 0.24122743 0.1483653 0.079305924 0.014632374 0.17069906 0.09190079 -0.062034
-0.16099873 0.30452934 0.10857577 0.18009089 -0.1644065 0.24816899 -0.05548369 0.010202003
0.08729992 -0.03448397 -0.031095484 -0.09693517 0.2236265 0.18865885 0.1802377 0.1881806
0.0018596981 0.21905082 -0.19114037 -0.07958421 -0.022873042 0.19205953 0.21656351 -0.0875931
-0.070674054 -0.18794197 0.1652724 0.13879192 0.14027444 -0.18993354 -0.030148823 0.17809868
-0.006893538 0.15347682 0.17666075 0.20303316 0.24271047 0.24351618 0.033989586 0.28011593
0.27335536 -0.020682571 -0.070623405 0.047731984 0.0013040544 0.26000294 0.2589047 0.10622294
0.17644528 0.058144737 0.14990972 0.15020728 0.020357998 -0.10529107 0.076363504 0.19325468
0.18082564 -0.10775222 0.20861806 0.097152375 -0.1882532 -0.037174877 -0.042976525 -0.16989204
-0.051308293 0.008871499 0.013094972 0.034582566 0.04142285 -0.12986699 -0.059104234 -0.008794572
-0.21947688 0.138174 0.07959048 0.15547383 -0.15903568 -0.16787973 -0.13733537 0.17006446
-0.11640237 -0.122591525 -0.2107879 0.011091728 -0.10034665 0.15872139 0.05534609 0.1325858
0.1564402 -0.15366416 0.06501551 -0.15662155 0.0034718846 0.14160484 -0.08149082 0.081390254
-0.2057549 0.086666465 -0.0056897174 0.027830353 0.122916825 -0.064372346 0.10140248 -0.0429588
-0.02545544 0.036344703 0.037761793 0.13391826 -0.13087688 -0.14752327 -0.18506761 -0.21958145
-0.018585641 0.086320385 -0.23457994 -0.217953 -0.14942181 -0.09388857 -0.2093777 0.0783139
-0.08871842 -0.2065692 0.032055575 0.13467807 -0.18796349 0.06828706 0.10910222 0.1308213
-0.17433341 -0.24122006 0.011717794 0.12580319 0.05036823 0.06278597 0.1444796 0.08927835
-0.15905732 0.14184278 0.093625434 -0.22499186 -0.109047025 -0.12842743 -0.18309271 -0.0077021816
0.13832298 0.14088063 0.19921494 0.14426892 -0.171603 -0.028976317 -0.07756535 -0.089921385
0.047487333 0.109942034 -0.19052859 0.05858194 -0.064664565 -0.022187458 0.0426207 0.09907448
0.025224661 0.011966247 -0.07749602 -0.10921873 -0.004551301 -0.13928513 -0.10156534 0.058228888
0.13640988 0.13118288 -0.1430113 -0.21568543 0.008153222 -0.15846677 0.15852521 -0.1958271
-0.06364294 0.030970948 0.14266159 0.105202205 -0.078054145 -0.21166529 -0.039027996 -0.11877889
00000000: 7530 ad3d 5e0c 213e 5796 413c 1200 4e3e
00000010: fc31 1ebe 2a94 67be 7e41 4abe c072 093e
00000020: 1fb5 e4bd 25a0 9bbd 7d1c f13b f483 3d3e
00000030: 07a5 57be a77d e53d eb39 c9bb c9b2 a7bd
00000040: 9dd6 61be ddec 293d bc18 6dbe 7d1d 233e
00000050: 4e18 c03d eb4f 883d eddf 023d 0c8e 3a3e
00000060: f9bf 863d 6861 ab3d c35a 193d f7cd f13c
00000070: 88f8 103e ff24 9dbd b199 9abc 2afe 2bbe
00000080: 4593 7e3d 0a04 873c 1bea ddbd a3d9 92be
00000090: 4c9b afbd 1ee4 163e 81a6 15bc 283a 87be
000000a0: 5b20 973d 52f3 19bd 5eff 45bb d2e4 453d
000000b0: d4e7 cf3d a12a 40be 9461 1e3e d542 6dbe
000000c0: 2398 88be a458 8a3c 1aef 2b3e 8caa 8dbd
000000d0: d95c 9d3d d79e 8bbd d969 60bd c7c0 b9bd
000000e0: 0396 61be 5672 273d 2e7a c33d 1ab0 743c
000000f0: 59ff 0c3d b94a f93d c60c 003e b61a 0c3e
00000100: b8ee 673e 5304 773e 13ed 173e 256b a23d
00000110: a0bc 6f3c bccb 2e3e 7b36 bc3d 5d17 7ebd
00000120: dadc 24be 45eb 9b3e f95c de3d bf69 383e
00000130: 2d5a 28be 0320 7e3e de42 63bd 4d26 273c
00000140: 4dca b23d 103f 0dbd f5bb febc f285 c6bd
00000150: 58fe 643e c92f 413e 3b90 383e 6ab2 403e
00000160: 1dc1 f33a dc4e 603e 4dba 43be 0cfd a2bd
00000170: 3f60 bbbc 41ab 443e d3c2 5d3e 0364 b3bd
00000180: 8fbd 90bd dc73 40be 2b3d 293e 781f 0e3e
00000190: 1aa4 0f3e f07d 42be aafa f6bc 805f 363e
000001a0: 30e3 e1bb 0729 1d3e 8ee6 343e ede7 4f3e
000001b0: 1889 783e 4e5c 793e aa38 0b3d 5b6b 8f3e
000001c0: 3cf5 8b3e 7f6e a9bc 01a3 90bd 9d82 433d
000001d0: ceec aa3a 1b1f 853e 288f 843e 6a8b d93d
000001e0: 12ae 343e 2d29 6e3d ef81 193e f0cf 193e
000001f0: d1c5 a63c d8a2 d7bd 7864 9c3d 8ee4 453e
00000200: 5b2a 393e 32ad dcbd f99f 553e d3f7 c63d
00000210: 72c5 40be af44 18bd 2708 30bd 2ef8 2dbe
00000220: a528 52bd c459 113c 4b8c 563c 73a6 0d3d
00000230: 02ab 293d dafb 04be 4817 72bd 1c17 10bc
00000240: 8cbe 60be 7c7d 0d3e 5500 a33d 8834 1f3e
00000250: 40da 22be aae8 2bbe a5a1 0cbe 6125 2e3e
00000260: 5e64 eebd 4411 fbbd c9d8 57be 14ba 353c
00000270: 8b82 cdbd dc87 223e 95b2 623d 92c4 073e
00000280: dc31 203e 235a 1dbe da26 853d 6661 20be
00000290: 8f88 633b dc00 113e a9e4 a6bd efaf a63d
000002a0: 6ab1 52be 307e b13d cf70 babb 7bfc e33c
000002b0: d1bb fb3d a6d5 83bd 1aac cf3d 91f5 2fbd
000002c0: ed87 d0bc 2fde 143d 1cac 1a3d de21 093e
000002d0: 9704 06be 5710 17be 5d82 3dbe f6d9 60be
000002e0: ea40 98bc bec8 b03d b935 70be 122f 5fbe
000002f0: 0802 19be a748 c0bd 1c67 56be 0a63 a03d
00000300: 01b2 b5bd e086 53be b54c 033d 0ce9 093e
00000310: 8079 40be 16da 8b3d fc70 df3d 05f6 053e
00000320: 7584 32be 6402 77be fefb 3f3c 8dd2 003e
00000330: eb4e 4e3d ee95 803d 76f2 133e 91d7 b63d
00000340: ecdf 22be 3c3f 113e b1be bf3d 4464 66be
00000350: 0c54 dfbd 7b82 03be a87c 3bbe 9562 fcbb
00000360: 8aa4 0d3e 0343 103e 00ff 4b3e 3bbb 133e
00000370: b2b8 2fbe be5f edbc 95da 9ebd b428 b8bd
00000380: 1482 423d 4a29 e13d ed19 43be 9ef3 6f3d
00000390: db6e 84bd 79c2 b5bc 0b93 2e3d 90e7 ca3d
000003a0: f3a3 ce3c 140e 443c 3cb6 9ebd 12ae dfbd
000003b0: 1423 95bb c3a0 0ebe 7d01 d0bd 6a81 6e3d
000003c0: 08af 0b3e ce54 063e 8e71 12be a4dc 5cbe
000003d0: 1795 053c 1d45 22be 6f54 223e e686 48be
000003e0: 3b57 82bd c9b6 fd3c e115 123e 4174 d73d
000003f0: dada 9fbd c9be 58be d2db 1fbd 5942 f3bd

net.3.bias f4 [64]
-0.042448305 0.10518749 -0.04186724 -0.036039986 0.09590661 -0.004319964 -0.027533932 0.18109299
0.07875325 -0.010443023 0.15910937 -0.019415181 -0.0697355 -0.007199255 0.12447146 0.060831677
0.09604442 0.06434858 -0.03246827 -0.024188308 -0.030191327 0.0985062 0.007178038 -0.007925818
0.15667635 -0.00914519 -0.025725977 -0.023252284 -0.040123895 -0.010578382 0.15980251 0.15667322
-0.03088757 0.0 0.0996793 -0.035133485 -0.015608385 -0.024447357 0.017465398 0.12425404
-0.01539428 0.08877845 0.16863883 -0.0030027532 -0.0183 -0.012034325 -0.022427872 -0.030032458
0.10240196 -0.017993879 -0.0025807263 0.09944132 -0.016693067 -0.031278886 0.16825017 -0.010098387
0.16344638 0.1291616 0.16797684 -0.020466289 -0.022179317 0.12907708 0.16306531 0.04820214
00000000: 46de 2dbd 8a6c d73d fc7c 2bbd aa9e 13bd
00000010: af6a c43d 7c8e 8dbb d78e e1bc 7170 393e
00000020: 6249 a13d 3719 2bbc 91ed 223e 960c 9fbc
00000030: 7cd1 8ebd bae7 ebbb e5ea fe3d a32a 793d
00000040: f0b2 c43d 30c9 833d 73fd 04bd 8f26 c6bc
00000050: cd53 f7bc 9ebd c93d bf35 eb3b 4adb 01bc
00000060: c46f 203e b5d5 15bc 49bf d2bc 937b bebc
00000070: f458 24bd f350 2dbc 45a3 233e f26e 203e
00000080: ee07 fdbc 0000 0000 a924 cc3d 21e8 0fbd
00000090: 50ba 7fbc d345 c8bc 9813 8f3c e778 fe3d
000000a0: 4a38 7cbc 7ad1 b53d a8af 2c3e d7c9 44bb
000000b0: e2e9 95bc 9e2b 45bc a8ba b7bc a106 f6bc
000000c0: 1eb8 d13d e667 93bc 6721 29bb e4a7 cb3d
000000d0: e6bf 88bc 4a1e 00bd c649 2c3e b473 25bc
000000e0: 7d5e 273e f042 043e 1f02 2c3e eba8 a7bc
000000f0: 66b1 b5bc c82c 043e 98fa 263e 9b6f 453d

net.6.weight f4 [2, 64]
0.038612355 -0.2065763 -0.08167211 0.24347717 -0.1386775 0.15032011 0.0025946032 0.18644178
-0.16216469 -0.25406396 0.20612754 0.15949848 -0.094022594 -0.16535662 -0.07390896 -0.0009967452
0.36826015 0.32598197 -0.15367888 0.29787534 -0.14848912 -0.2083723 -0.2937941 0.2785278
0.2803881 -0.2143824 -0.24068268 0.17675595 0.13416344 0.2441104 0.26909915 0.2851564
-0.112135224 0.18808734 -0.12799774 -0.15124865 0.23479939 0.083732866 -0.19631673 0.24586485
0.025079057 -0.08329839 0.16100463 -0.2752567 -0.008158546 0.1004487 0.015274563 0.08674959
-0.054040443 0.16690338 0.05937791 -0.03717072 -0.010578211 0.21883303 0.1628297 -0.13727905
0.15488045 0.0058830264 0.32712695 -0.031508446 -0.015336183 0.007291116 0.30164146 -0.14386085
-0.17442763 0.3493447 -0.09396373 -0.03023922 0.21309374 -0.02960859 -0.17633618 0.11412073
0.18611926 -0.05193292 0.27533975 -0.20337671 -0.079276994 0.006290234 0.31671098 0.06962718
0.029052086 0.026781213 -0.12382738 -0.17967376 -0.21286699 0.32201245 0.26384377 0.00466735
0.30524164 0.083969854 -0.20617783 -0.11231145 -0.089668564 -0.10738267 0.28782767 0.33423686
-0.118227124 -0.08080378 0.20728163 -0.039365925 -0.15571938 -0.15260614 0.11384461 0.14930305
-0.21247508 0.22525398 0.13022743 -0.109872594 -0.14217182 -0.028192647 0.005741282 -0.08588485
0.30646563 -0.15358363 -0.28260827 0.14988583 -0.21632157 -0.23491034 0.09612234 -0.25933722
0.20368475 0.3559028 0.26480517 -0.15598063 -0.20695922 0.149149 0.26918763 0.3374833
00000000: fd27 1e3d bd88 53be b543 a7bd 1452 793e
00000010: 7901 0ebe 84ed 193e 380a 2a3b 98ea 3e3e
00000020: 800e 26be ac14 82be 1913 533e 9253 233e
00000030: eb8e c0bd 3f53 29be 955d 97bd 38a5 82ba
00000040: 988c bc3e 1ce7 a63e ff5d 1dbe 1e83 983e
00000050: 880d 18be 8c5f 55be 2e6c 96be 329b 8e3e
00000060: 078f 8f3e 0f87 5bbe 8575 76be 83ff 343e
00000070: 2462 093e 14f8 793e 5dc7 893e 0500 923e
00000080: 27a7 e5bd f899 403e d711 03be ede0 1abe
00000090: 406f 703e 237c ab3d 4107 49be ffc3 7b3e
000000a0: 9872 cd3c 5998 aabd 66de 243e 72ee 8cbe
000000b0: 6cab 05bc 0cb8 cd3d 2942 7a3c c5a9 b13d
000000c0: 8359 5dbd b8e8 2a3e 4036 733d 5340 18bd
000000d0: 3c50 2dbc c415 603e d4bc 263e e192 0cbe
000000e0: fb98 1e3e 67c6 c03b 2f7d a73e 000f 01bd
000000f0: 9d44 7bbc 50ea ee3b c070 9a3e 4250 13be
00000100: 289d 32be 4fdd b23e 0e70 c0bd 3eb8 f7bc
00000110: 3f35 5a3e b78d f2bc 7991 34be 21b8 e93d
00000120: 0c96 3e3e 9db7 54bd 55f9 8c3e fc41 50be
00000130: fa5b a2bd 4f1e ce3b f127 a23e b298 8e3d
00000140: a4fe ed3c 4664 db3c 3699 fdbd 66fc 37be
00000150: cef9 59be d1de a43e 8816 873e 92f0 983b
00000160: a248 9c3e 63f8 ab3d 4820 53be 8c03 e6bd
00000170: 27a4 b7bd 72eb dbbd 265e 933e 1821 ab3e
00000180: 1021 f2bd 747c a5bd a341 543e 2a3e 21bd
00000190: e774 1fbe c944 1cbe 5d27 e93d e6e2 183e
000001a0: 1193 59be fba8 663e 575a 053e e204 e1bd
000001b0: 7d95 11be 44f4 e6bc 5d21 bc3b 65e4 afbd
000001c0: 10e9 9c3e 0745 1dbe 08b2 90be ac7b 193e
000001d0: 6783 5dbe 568c 70be cadb c43d d9c7 84be
000001e0: bc92 503e e438 b63e 8b94 873e 63b9 1fbe
000001f0: 1eed 53be 84ba 183e f6d2 893e 9cca ac3e

net.6.bias f4 [2]
0.08838225 0.1419934
00000000: c101 b53d b866 113e

exp_avg f4 [64, 4]
0.038812183 0.18116057 -0.06778901 -0.3285062 0.045406245 0.33841616 -0.07624043 -0.5750689
-0.0020470526 0.002997754 0.0021505544 -0.00056836696 -0.01222126 -0.40540576 0.0162837 0.6252634
0.052961424 0.348949 -0.093343325 -0.6076575 0.0040284046 -0.11497927 -0.011117255 0.1650617
0.057967536 0.44054762 -0.09645486 -0.74710464 3.2864245e-05 0.00079735235 1.01200385e-05 -0.00086560665
0.018268704 0.11013512 -0.032686666 -0.1962256 0.03511037 -0.0005818885 -0.06648761 -0.052893657
0.07598407 0.67954516 -0.12071362 -1.1233155 -0.020652542 -0.60575193 0.028954946 0.93430823
0.050389707 0.43536806 -0.08313843 -0.7243525 0.08142812 0.50325376 -0.1343695 -0.87626785
0.007837428 -0.1785125 -0.02093027 0.25517362 -0.0076650106 -0.0130318375 0.008359696 0.035870746
-0.0171933 -0.36156574 0.022490632 0.56700045 -0.014159193 -0.12590015 0.01818701 0.2204259
-0.0041655544 -0.15349445 0.004024013 0.23489514 0.08277965 0.8073069 -0.13555564 -1.3322241
-0.03498523 -0.63336146 0.047199663 0.9976978 -0.01830992 -0.41977066 0.025781026 0.6737681
0.0029905702 -0.21655129 -0.010684751 0.3177995 0.054406643 0.41549996 -0.09080912 -0.70068854
0.02880799 0.08915313 -0.05423227 -0.17775355 -0.008991145 -0.25761828 0.007518578 0.39729393
-6.4027966e-14 -3.5397633e-12 -5.158009e-14 5.080698e-12 0.057326674 0.53453755 -0.09550179 -0.88669324
-0.08978573 -1.4571625 0.13753882 2.3292582 0.040095642 0.14520971 -0.0782231 -0.2891557
-0.014088537 -0.21943828 0.020878758 0.3548145 0.027001053 0.18431509 -0.047176987 -0.317845
0.030265141 0.14350711 -0.059520632 -0.26916873 1.0564034e-06 -1.1740351e-05 -3.005344e-06 1.7135646e-05
0.034781005 0.049704604 -0.06390607 -0.13085392 0.059794053 0.17521061 -0.10777432 -0.35144046
0.022823201 0.24163394 -0.037280504 -0.39545858 0.020813828 0.11230849 -0.03668807 -0.1984341
-2.4585127e-11 3.1131095e-10 -6.2906035e-11 -5.990376e-10 0.049078528 0.1751063 -0.0907811 -0.33955443
2.773578e-07 -6.618162e-06 -1.1036881e-06 8.752456e-06 -0.0029991479 -0.03306711 0.0044532637 0.06171054
-0.027288184 -0.4715897 0.041271243 0.75924206 -0.019826295 -0.2494953 0.026398329 0.41725594
-0.03425729 -0.7625814 0.045792114 1.1916451 0.012540791 0.069895476 -0.021078598 -0.122015275
1.6085803e-06 -1.7391818e-05 -1.6121692e-06 4.5312663e-05 -0.008687338 0.003178012 0.008433465 0.010240273
0.034288485 -0.16201685 -0.06899579 0.19477558 0.047965854 0.44882303 -0.08102665 -0.74430794
0.027065445 0.21178144 -0.04632709 -0.35596249 0.03609509 0.20344722 -0.06426111 -0.36133534
-0.003834505 0.005680213 0.0036426436 -0.0015113961 -0.0027343328 -0.36265436 -0.0039337785 0.56413233
0.031153843 -0.002622413 -0.05290836 -0.02424852 -0.011888971 -0.35240537 0.009888699 0.552988
0.040450055 0.19465932 -0.07134143 -0.35270268 0.03804014 0.18448098 -0.06874428 -0.33530587
0.027624475 0.08398055 -0.046705272 -0.15731075 0.053551003 0.44715583 -0.086031735 -0.74521464
-6.8570944e-06 -0.00015579126 -1.1433114e-06 0.00016786823 -0.00517799 0.0075869528 0.0049683726 -0.0022061993
0.061713815 0.5362161 -0.10347852 -0.89509475 0.024666252 0.11398424 -0.04689938 -0.21238688
00000000: 86f9 1e3d 2882 393e f7d4 8abd f731 a8be
00000010: e6fb 393d e244 ad3e f123 9cbd b737 13bf
00000020: d827 06bb f775 443b 51f0 0c3b 76fe 14ba
00000030: ae3b 48bc 5891 cfbe 6565 853c 4311 203f
00000040: 14ee 583d 71a9 b23e c92a bfbd 718f 1bbf
00000050: b500 843b 407a ebbd 2625 36bc ef05 293e
00000060: 5e6f 6d3d 758f e13e 208a c5bd 4042 3fbf
00000070: b7d7 0938 6905 513a 3cc9 2937 e1e9 62ba
00000080: 40a8 953c 868e e13d 74e2 05bd 5def 48be
00000090: e4cf 0f3d e089 18ba a82a 88bd 05a7 58bd
000000a0: 899d 9b3d acf6 2d3f b438 f7bd cdc8 8fbf
000000b0: 852f a9bc 8f12 1bbf ec32 ed3c d32e 6f3f
000000c0: 7065 4e3d 90e8 de3e 7b44 aabd 2a6f 39bf
000000d0: c9c3 a63d 3dd5 003f 2998 09be 1753 60bf
000000e0: 8e68 003c fbcb 36be f575 abbc 1ea6 823e
000000f0: c52a fbbb 7d83 55bc 1bf7 083c 34ed 123d
00000100: f7d8 8cbc 251f b9be 463e b83c f126 113f
00000110: f6fb 67bc f8eb 00be edfc 943c 54b7 613e
00000120: 347f 88bb a62d 1dbe dedb 833b 5a88 703e
00000130: 6188 a93d aaab 4e3f 19cf 0abe 5286 aabf
00000140: ac4c 0fbd fa23 22bf 6f54 413d 1f69 7f3f
00000150: affe 95bc 2eec d6be bb32 d33c 117c 2c3f
00000160: 71fd 433b 9fbf 5dbe 180f 2fbc 9eb6 a23e
00000170: 80d9 5e3d 69bc d43e 22fa b9bd 5360 33bf
00000180: bcfe eb3c eb95 b63d a822 5ebd 0705 36be
00000190: 984f 13bc 8be6 83be 675e f63b 1c6a cb3e
000001a0: 9c2d 90a9 b516 79ac cc4b 68a9 dcc2 b22c
000001b0: 60cf 6a3d 74d7 083f 7196 c3bd 54fe 62bf
000001c0: 95e1 b7bd 4d84 babf fad6 0c3e 9112 1540
000001d0: 543b 243d dbb1 143e 6f33 a0bd 370c 94be
000001e0: 9bd3 66bc 6eb4 60be ee09 ab3c 3faa b53e
000001f0: 5031 dd3c 18bd 3c3e a83c 41bd 94bc a2be
00000200: 9aee f73c 87f3 123e e8cb 73bd 7cd0 89be
00000210: bfc9 8d35 6cf8 44b7 6baf 49b6 85be 8f37
00000220: 8776 0e3d 0e97 4b3d 30e1 82bd 92fe 05be
00000230: 9cea 743d 696a 333e c8b8 dcbd 01f0 b3be
00000240: b9f7 ba3c e36e 773e 71b3 18bd 8c79 cabe
00000250: c381 aa3c fe01 e63d 3b46 16bd 4f32 4bbe
00000260: c940 d8ad 1f25 ab2f f354 8aae 86a9 24b0
00000270: 9106 493d 114f 333e 71eb b9bd 14da adbe
00000280: c4e7 9434 9411 deb6 6f22 94b5 83d7 1237
00000290: 5a8d 44bb 6171 07bd afec 913b 31c4 7c3d
000002a0: 788b dfbc 3574 f1be 090c 293d b05d 423f
000002b0: c16a a2bc b27b 7fbe 4f41 d83c 92a2 d53e
000002c0: 5f51 0cbd 8938 43bf 8390 3b3d d487 983f
000002d0: e477 4d3c 5c25 8f3d 06ad acbc 25e3 f9bd
000002e0: 66e6 d735 a5e4 91b7 b661 d8b5 1a0e 3e38
000002f0: 5655 0ebc 3246 503b 842c 0a3c d1c6 273c
00000300: 1572 0c3d bfe7 25be aa4d 8dbd 4073 473e
00000310: d877 443d 22cc e53e 4df1 a5bd f78a 3ebf
00000320: 5ab8 dd3c 3cdd 583e 7ac1 3dbd b740 b6be
00000330: 72d8 133d 7854 503e 549b 83bd f200 b9be
00000340: 524c 7bbb 1521 ba3b 6bb9 6e3b 0a1a c6ba
00000350: 7e32 33bb d5ad b9be ede6 80bb fa6a 103f
00000360: 5836 ff3c cadc 2bbb 70b6 58bd d5a4 c6bc
00000370: f5c9 42bc 7a6e b4be 3604 223c 9f90 0d3f
00000380: f5ae 253d c654 473e 751b 92bd 7295 b4be
00000390: facf 1b3d 95e8 3c3e cdc9 8cbd 36ad abbe
000003a0: b94c e23c fffd ab3d 074e 3fbd 1216 21be
000003b0: 4c58 5b3d 9cf1 e43e 6831 b0bd 63c6 3ebf
000003c0: fe15 e6b6 e65b 23b9 e173 99b5 c905 3039
000003d0: 21ac a9bb f99b f83b bbcd a23b e295 10bb
000003e0: a0c7 7c3d 7545 093f 8cec d3bd ee24 65bf
000003f0: e110 ca3c 9270 e93d 9019 40bd f27b 59be

exp_avg_sq f4 [64, 4]
0.03807085 4.2618194 0.058681823 10.237112 0.008420916 0.95167255 0.01360243 2.294275
1.5472643e-06 1.6352855e-05 1.4003535e-06 2.1686683e-05 0.010113623 1.1139822 0.015115038 2.6490288
0.027814092 2.9623256 0.04294493 7.2179995 0.015874526 1.772807 0.024783023 4.253858
0.009433997 1.1148446 0.014974664 2.6852279 5.467491e-07 4.8647842e-05 7.764337e-07 6.303551e-05
0.0021622449 0.21235535 0.0034687947 0.52380455 0.05846196 5.6526685 0.08182066 13.565254
0.012667896 1.4369425 0.01935224 3.4282959 0.038106948 4.475258 0.061921764 10.785034
0.004012169 0.49427888 0.0068227295 1.1967477 0.04311831 4.947785 0.07378547 12.086111
0.032411262 3.377151 0.047643077 8.158016 4.002158e-05 0.0008575571 4.2637355e-05 0.0019544943
0.014239553 1.6386563 0.023475789 3.9655838 0.0001234787 0.009680279 0.00013927052 0.023428291
0.0054811467 0.5237344 0.0077657574 1.26743 0.008605085 0.9234062 0.012602138 2.223424
0.0012627555 0.16132702 0.0043383273 0.46889988 0.00051787915 0.05613816 0.0010641296 0.14389195
0.022932012 2.4263022 0.034417614 5.806186 0.01578791 1.7564292 0.0246253 4.2422137
0.034243446 2.9391296 0.044994507 7.08733 0.017521754 1.8407115 0.026235284 4.4286757
3.6115281e-07 5.0835955e-05 6.7479056e-07 9.960373e-05 0.009108982 0.9994572 0.014077655 2.403988
0.059092835 6.963744 0.086347654 16.47254 0.038348064 3.7287233 0.056988645 9.045705
0.004436534 0.5034499 0.00637008 1.1938703 0.008673011 0.8956583 0.012935383 2.1513789
0.025652489 2.6914113 0.040525172 6.5807343 2.2507255e-07 1.613458e-05 1.0289099e-06 3.912556e-05
0.055828962 5.8558397 0.080737196 14.000642 0.07065988 7.1735764 0.10546032 17.297134
0.0013085585 0.14747126 0.0019895139 0.35545918 0.010186618 1.0565078 0.015194143 2.5370076
2.3014875e-06 0.0003251765 5.3200806e-06 0.0008721167 0.023783024 2.3761797 0.037825294 5.807789
1.7685711e-07 1.01312235e-05 1.1780903e-06 1.8683282e-05 7.4525815e-05 0.0019114746 8.631616e-05 0.004679771
0.026066072 2.5523345 0.033980332 6.025644 0.00010434593 0.013434284 0.00013111008 0.032637745
0.033593684 3.337106 0.050138745 8.117488 0.001371317 0.15510581 0.002070627 0.36955252
9.138041e-08 5.414171e-06 3.5010612e-07 1.07870965e-05 7.9616446e-05 0.001316848 0.000104444785 0.0025863398
0.04743924 5.694714 0.08256572 13.872808 0.008768024 0.96511406 0.013681895 2.3364868
0.0067124525 0.69528824 0.009590057 1.6518929 0.020536488 2.2322068 0.03157153 5.373282
8.4952335e-06 8.04714e-05 1.0237474e-05 0.00011059007 0.05432137 5.4457145 0.07658605 13.072715
0.03485074 3.0347698 0.044217505 7.307341 0.00058270764 0.09517121 0.0011325675 0.23795374
0.01928017 2.0577743 0.030221539 5.0172796 0.017740088 1.9366196 0.027952721 4.7098885
0.020080127 2.3309321 0.030149885 5.5221953 0.0061351275 0.66423595 0.008500402 1.5928826
3.3566735e-07 6.6523344e-06 9.551954e-07 1.2374501e-05 1.6166503e-05 8.796187e-05 1.7854081e-05 0.00015119149
0.022210265 2.137 0.030150833 5.0890837 0.03289521 3.5811112 0.049405955 8.576273
00000000: 2ef0 1b3d d360 8840 5a5c 703d 36cb 2341
00000010: e2f7 093c d0a0 733f badc 5e3c 67d5 1240
00000020: 99ab cf35 7d2d 8937 c8f3 bb35 cceb b537
00000030: 9cb3 253c f896 8e3f 10a5 773c b089 2940
00000040: 61da e33c be96 3d40 06e7 2f3d daf9 e640
00000050: 4b0b 823c 57eb e23f c405 cb3c 9b1f 8840
00000060: 0d91 1a3c 3ab3 8e3f 4b58 753c c6da 2b40
00000070: 50c4 1235 390b 4c38 1e6c 5035 ef31 8438
00000080: 73b4 0d3b ae73 593e b854 633b 0e18 063f
00000090: cf75 6f3d a9e2 b440 9791 a73d 480b 5941
000000a0: 028d 4f3c bbed b73f 9788 9e3c 3369 5b40
000000b0: 0816 1c3d 5035 8f40 ada1 7d3d 808f 2c41
000000c0: 8378 833b 1f12 fd3e 3491 df3b 072f 993f
000000d0: d39c 303d 4154 9e40 d61c 973d b660 4141
000000e0: acc1 043d 3e23 5840 6325 433d 3c87 0241
000000f0: d8dc 2738 afcd 603a 83d5 3238 f916 003b
00000100: 044d 693c 7dbf d13f 4c50 c03c 20cc 7d40
00000110: 107a 0139 089a 1e3c 2509 1239 b0ec bf3c
00000120: 319b b33b 7513 063f e577 fe3b 253b a23f
00000130: 58fc 0c3c 5964 6c3f 3379 4e3c 944c 0e40
00000140: 0b83 a53a e932 253e 8728 8e3b a513 f03e
00000150: 48c2 073a 21f1 653d 447a 8b3a 6958 133e
00000160: eadb bb3c 8948 1b40 7cf9 0c3d 47cc b940
00000170: a655 813c acd2 e03f ffba c93c 37c0 8740
00000180: db42 0c3d b31a 3c40 294c 383d 68cb e240
00000190: c889 8f3c 6f9c eb3f 61eb d63c b6b7 8d40
000001a0: 77e4 c134 b138 5538 4123 3535 58e2 d038
000001b0: d73d 153c 6ddc 7f3f f7a5 663c f0da 1940
000001c0: 540b 723d fed6 de40 0ad7 b03d c3c7 8341
000001d0: dc12 1d3d 67a3 6e40 ed6c 693d 35bb 1041
000001e0: 5860 913b 18e2 003f 1bbc d03b bed0 983f
000001f0: 3f19 0e3c dd49 653f eeee 533c 31b0 0940
00000200: 2b25 d23c 1540 2c40 b9fd 253d 6095 d240
00000210: 79ab 7134 bf58 8737 1319 8a35 c01a 2438
00000220: e9ac 643d 0a63 bb40 8b59 a53d a102 6041
00000230: 21b6 903d f08d e540 95fb d73d 8860 8a41
00000240: f083 ab3a b502 173e 8162 023b bffe b53e
00000250: c6e5 263c a63b 873f dbf0 783c 555e 2240
00000260: 4173 1a36 737c aa39 2583 b236 c39e 643a
00000270: 9ed4 c23c 5413 1840 b2ee 1a3d 68d9 b940
00000280: 1de6 3d34 46f9 2937 e01e 9e35 0bba 9c37
00000290: be4a 9c38 728a fa3a a304 b538 c458 993b
000002a0: 8488 d53c 7359 2340 f62e 0b3d 13d2 c040
000002b0: 4bd4 da38 791b 5c3c 987a 0939 28af 053d
000002c0: 8899 093d 2593 5540 495e 4d3d 3be1 0141
000002d0: c3bd b33a 0fd4 1e3e 5bb3 073b fd35 bd3e
000002e0: e93c c433 60ab b536 38f6 bb34 3afa 3437
000002f0: c1f7 a638 169a ac3a 5e09 db38 957f 293b
00000300: a64f 423d 193b b640 3718 a93d 06f7 5d41
00000310: c2a7 0f3c b711 773f 072a 603c 0089 1540
00000320: 22f4 db3b 69fe 313f 9d1f 1d3c 3a71 d33f
00000330: 233c a83c 7adc 0e40 2651 013d edf1 ab40
00000340: c086 0e37 c1c2 a838 9ec1 2b37 97ec e738
00000350: 1680 5e3d 4b43 ae40 26d9 9c3d d729 5141
00000360: a6bf 0e3d ab39 4240 6a1d 353d bdd5 e940
00000370: d9c0 183a 20e9 c23d a972 943a 25aa 733e
00000380: 72f1 9d3c 93b2 0340 2993 f73c 8e8d a040
00000390: a953 913c 27e3 f73f 1bfd e43c 68b7 9640
000003a0: 147f a43c fe2d 1540 e4fc f63c d3b5 b040
000003b0: 2e09 c93b 5e0b 2a3f 4545 0b3c 94e3 cb3f
000003c0: c535 b434 1e37 df36 4434 8035 149c 4f37
000003d0: 4d9d 8737 2b78 b838 59c5 9537 2889 1e39
000003e0: 4df2 b53c 9cc4 0840 e1fe f63c c6d9 a240
000003f0: 21bd 063d ed30 6540 e65d 4a3d 6a38 0941

exp_avg f4 [64]
-0.5384518 -0.22838748 -0.11298484 -0.69638956 -0.5764486 -0.6275196 -0.17045075 -0.0033880847
-0.16117291 -1.2226733 0.13442785 -1.0702782 -0.12570922 -0.38435152 -0.98493415 -0.4706514
-0.89945924 -0.8477744 -0.36399078 0.1346442 -1.2195263 -1.261103 -0.73565185 -0.2996569
-0.8534088 -0.8504603 1.6270572e-11 -0.056136124 -2.353808 -0.8795 -0.53739357 -0.31321558
-0.9065463 6.642531e-05 -0.8405543 -1.4093558 0.03859068 -0.40124574 1.260063e-09 -1.093654
3.4030276e-05 -0.32585394 -1.0088913 -1.1043568 -1.610696 -0.15891257 -0.00020898982 -0.474934
-1.9512502 -0.12843025 -0.21523315 -0.48397565 -0.21648645 -1.673204 -1.232244 -1.273298
-0.6807813 -0.6540258 -0.6204444 0.053971928 0.00065737363 -0.27919888 -0.24635257 -0.48173392
00000000: fad7 09bf 68de 69be 9964 e7bd 9646 32bf
00000010: 2392 13bf 20a5 20bf a48a 2ebe a10a 5ebb
00000020: 830a 25be 8f80 9cbf 74a7 093e e0fe 88bf
00000030: ebb9 00be b9c9 c4be a524 7cbf 38f9 f0be
00000040: f642 66bf be07 59bf 005d babe 2be0 093e
00000050: 7019 9cbf d36b a1bf ae53 3cbf a16c 99be
00000060: 0079 5abf c4b7 59bf 121e 8f2d feee 65bd
00000070: caa4 16c0 e926 61bf a092 09bf cb5d a0be
00000080: 6b13 68bf d14d 8b38 912e 57bf c565 b4bf
00000090: 4311 1e3d 1570 cdbe 872e ad30 dbfc 8bbf
000000a0: bbbb 0e38 54d6 a6be 5a23 81bf 905b 8dbf
000000b0: 492b cebf fab9 22be 4724 5bb9 8d2a f3be
000000c0: 91c2 f9bf 3883 03be 1466 5cbe a8cb f7be
000000d0: a0ae 5dbe 8c2b d6bf 2cba 9dbf 6efb a2bf
000000e0: af47 2ebf 3c6e 27bf 72d5 1ebf ab11 5d3d
000000f0: 9953 2c3a 28f3 8ebe d943 7cbe d4a5 f6be

exp_avg_sq f4 [64]
2.5790415 0.635364 0.004026154 0.7882404 1.8378747 1.1197757 0.7552097 0.0013931983
0.14358392 3.8035426 0.9119828 2.7071114 0.34170422 3.019677 2.0796237 0.0649713
1.0542021 0.19124123 0.34427756 0.64437664 0.24184197 0.25277856 1.5024105 1.1234182
1.9251593 1.1502919 0.0012358081 0.6499859 4.173701 2.3611252 0.3462383 0.58117664
1.7659168 0.0004478331 3.6417773 4.7036276 0.0905297 0.6666724 0.0015090957 1.6958274
0.0013167289 0.12262346 1.511413 0.17588174 2.1632721 0.101501726 0.00032064496 0.11614517
3.7798655 0.6289694 0.43707284 1.4301052 0.01619946 3.5306659 2.0930605 0.3274983
1.3180369 1.3337548 1.4072572 0.49838033 0.000600351 0.02449715 1.4331024 2.1601295
00000000: 040f 2540 37a7 223f d4ed 833b 1fca 493f
00000010: 7a3f eb3f cf54 8f3f 6c55 413f fa9b b63a
00000020: aa07 133e 3e6d 7340 b477 693f 5041 2d40
00000030: dbf3 ae3e 6342 4140 8e18 0540 ac0f 853d
00000040: 18f0 863f bed4 433e 2645 b03e def5 243f
00000050: 6ca5 773e 316c 813e fd4e c03f 2bcc 8f3f
00000060: 9f6b f63f c43c 933f d7fa a13a 7a65 263f
00000070: f58e 8540 ad1c 1740 2546 b13e fec7 143f
00000080: 9009 e23f 24cb ea39 e112 6940 1e84 9640
00000090: a367 b93d 0bab 2a3f d9cc c53a df10 d93f
000000a0: 1796 ac3a 0222 fb3d fb75 c13f 581a 343e
000000b0: 0d73 0a40 23e0 cf3d 3d1c a839 85dd ed3d
000000c0: 51e9 7140 2304 213f 03c8 df3e b00d b73f
000000d0: bbb4 843c 6ef6 6140 b4f4 0540 dbad a73e
000000e0: 6fb5 a83f 7ab8 aa3f 0121 b43f b52b ff3e
000000f0: e060 1d3a 3fae c83c e66f b73f 903f 0a40

exp_avg f4 [64, 64]
6.935069e-06 7.7636134e-05 1.844923e-19 0.00012039535 3.2503132e-05 1.2352373e-05 9.745431e-05 1.4534582e-22
2.7109809e-05 4.383598e-05 0.00010983425 5.1955627e-05 6.869854e-05 2.10112e-05 3.960125e-05 1.3951777e-06
6.1837986e-06 1.4263823e-06 9.244444e-05 5.4479664e-05 7.279125e-07 1.3052617e-06 7.827024e-05 8.210077e-05
4.0176387e-06 6.79393e-05 9.7834585e-24 9.695442e-05 3.244162e-05 1.802652e-05 3.477706e-05 0.00012441295
4.989569e-05 2.5900932e-23 6.87522e-05 3.664143e-05 7.850766e-05 8.2730854e-05 9.0630146e-26 1.7562616e-05
1.08950414e-16 1.4118469e-06 3.517603e-05 1.2867621e-06 2.677747e-05 2.7776402e-06 3.7379008e-17 1.2943772e-06
2.1067903e-05 8.639069e-05 0.00014320108 0.00016199921 2.92309e-07 3.6734087e-05 2.4156496e-05 2.0543418e-06
2.8286018e-05 0.00010065054 6.454233e-06 8.5100466e-05 2.61634e-16 1.0772968e-06 9.582774e-05 5.788883e-05
-0.5384911 -0.37038377 -0.0063213697 -0.3180536 -0.14014462 -0.73465 -0.5046212 -0.00017587529
-0.15536962 -0.21671839 -0.5644847 -0.11476679 -0.3326975 -0.050365794 -0.16718045 -0.02692463
-0.19029628 -0.044771925 -0.4416482 -0.25464004 -0.045388497 -0.06713549 -0.36557263 -0.43085068
-0.12562335 -0.32529488 -1.1859093e-13 -0.45559457 -0.105531566 -0.0916257 -0.14762661 -0.6061753
-0.20806292 -5.063894e-07 -0.3334542 -0.20191696 -0.3602859 -0.37775704 -1.5452988e-11 -0.11373743
-0.00040456955 -0.010666917 -0.17356332 -0.045622986 -0.094501615 -0.18786041 -0.00026316405 -0.02241481
-0.118671335 -0.3115858 -0.6109073 -0.7070656 -0.011924734 -0.18454686 -0.14467613 -0.091779545
-0.13890047 -0.50851625 -0.39782187 -0.4986808 -8.739136e-05 -0.019916918 -0.43210948 -0.22610866
0.0014893819 0.0024443 0.0 0.0017673845 -0.002361706 0.0022668696 0.0001082393 0.0
0.0015668151 -0.002526667 -0.008198594 0.0027999652 0.0028625382 -0.0013304558 -0.0013722437 3.4170026e-27
0.0032263366 1.4688481e-05 -0.0040555834 -0.0061910013 -0.00017139246 -0.0006157469 0.0016496474 0.0015717665
-0.005334647 0.0002647758 3.1764054e-27 -0.019102547 0.009216768 -0.0017934775 0.010731038 0.0017254525
0.0104603395 2.1901363e-27 0.00039882408 0.0024609412 -0.015412684 0.001010035 2.8376924e-25 -0.00073326397
0.0 2.2623409e-08 0.001641602 1.9110345e-05 0.0002699944 0.0073090172 0.0 7.139019e-08
0.0018510905 -0.010687233 0.0028109457 0.0035840503 0.0 0.008985771 0.0018310628 -0.0014491813
-0.0007943425 -0.0005962231 0.009445351 0.012702342 0.0 0.0 -0.022742867 -0.006846315
4.584131e-07 1.3006863e-07 9.903821e-20 7.278408e-07 7.532983e-08 9.913252e-07 5.3129537e-07 1.1738568e-19
1.7352045e-07 2.0158669e-07 5.9154627e-07 2.535906e-07 3.6255923e-07 2.7806673e-08 1.9932186e-07 1.9186325e-19
3.4822145e-07 1.823935e-19 5.7214976e-07 2.5139573e-07 1.4675674e-26 1.602915e-19 4.212667e-07 4.5904974e-07
8.790136e-08 3.8307414e-07 4.9579855e-28 5.4255645e-07 1.318707e-07 4.051973e-08 4.9286687e-08 5.3445376e-07
1.8093897e-07 1.1445923e-20 4.315133e-07 1.9790396e-07 4.5190552e-07 9.607397e-10 4.5383528e-26 1.4494122e-08
2.215414e-19 2.2585275e-19 1.8767972e-07 1.0295955e-19 5.403027e-08 1.9467846e-07 1.0815629e-19 1.9787733e-19
5.670609e-08 4.5543197e-07 8.7342687e-07 2.8704563e-22 9.4369314e-20 1.4355234e-07 9.465101e-09 3.2651518e-12
8.1974996e-08 5.7374e-07 4.108751e-07 5.0602483e-07 6.5274315e-20 1.6531689e-19 4.969125e-07 1.0873175e-07
00000000: cab3 e836 95d0 a238 60cf 5920 c37c fc38
00000010: f953 0838 0a3d 4f37 6260 cc38 5ab6 2f1b
00000020: df69 e337 86dc 3738 d056 e638 eeea 5938
00000030: 3f12 9038 3541 b037 8519 2638 f141 bb35
00000040: 6d7e cf36 1f72 bf35 bbde c138 1881 6438
00000050: c465 4335 7330 af35 0425 a438 842d ac38
00000060: 41cf 8636 a27a 8e38 573d 3d19 0254 cb38
00000070: ed11 0838 a837 9737 95dd 1138 d974 0239
00000080: 1747 5138 9a7f fa19 0e2f 9038 70af 1938
00000090: 7ba4 a438 ca7f ad38 ae63 e015 6e53 9337
000000a0: f938 fb24 b17e bd35 fa89 1338 cfb4 ac35
000000b0: 2ea0 e037 7f67 3a36 5861 2c24 76ba ad35
000000c0: faba b037 a62c b538 3f28 1639 55de 2939
000000d0: a5ee 9c34 ed12 1a38 aea3 ca37 53dd 0936
000000e0: c347 ed37 5914 d338 7091 d836 f777 b238
000000f0: 5dd2 9625 a397 9035 20f7 c838 a8cd 7238
00000100: 8dda 09bf f1a2 bdbe 7e23 cfbb ecd7 a2be
00000110: 1282 0fbe 0612 3cbf db2e 01bf 2a6b 38b9
00000120: 3719 1fbe 6deb 5dbe 1282 10bf da0a ebbd
00000130: 5457 aabe 5d4c 4ebd 5a31 2bbe 0b91 dcbc
00000140: 07dd 42be c462 37bd b61f e2be 2e60 82be
00000150: 4ae9 39bd 557e 89bd 562c bbbe 7698 dcbe
00000160: 68a3 00be 0d8d a6be 8285 05aa b143 e9be
00000170: ef20 d8bd 41a6 bbbd 6e2b 17be 4e2e 1bbf
00000180: 720e 55be d1ee 07b5 82ba aabe 52c3 4ebe
00000190: 6577 b8be 5f69 c1be 09ed 87ad 2bef e8bd
000001a0: 681c d4b9 4bc4 2ebc 95ba 31be 2bdf 3abd
000001b0: 108a c1bd 7b5e 40be 48f9 89b9 439f b7bc
000001c0: f509 f3bd 2d88 9fbe 6c64 1cbf 4002 35bf
000001d0: f65f 43bc daf9 3cbe fb25 14be eaf6 bbbd
000001e0: ed3b 0ebe 1f2e 02bf 4faf cbbe 1753 ffbe
000001f0: e145 b7b8 ce28 a3bc 743d ddbe 0789 67be
00000200: 5d37 c33a 8d30 203b 0000 0000 95a7 e73a
00000210: dac6 1abb c38f 143b 88fe e238 0000 0000
00000220: 975d cd3a 7096 25bb 6553 06bc 9f7f 373b
00000230: 6c99 3b3b b062 aeba dcdc b3ba 865c 8713
00000240: f270 533b 8c6e 7637 b3e4 84bb e2dd cabb
00000250: d0b7 33b9 136a 21ba fb38 d83a bb03 ce3a
00000260: 43ce aebb 9bd1 8a39 28a9 7b13 f27c 9cbc
00000270: ed01 173c 1e13 ebba 3cd1 2f3c 9428 e23a
00000280: d861 2b3c 3e85 2d13 4319 d139 be47 213b
00000290: 7b85 7cbc 2763 843a 08a5 af16 8338 40ba
000002a0: 0000 0000 6755 c232 062b d73a 274f a037
000002b0: 098e 8d39 7b80 ef3b 0000 0000 2c4f 9933
000002c0: 4aa0 f23a 8119 2fbc d837 383b 63e2 6a3b
000002d0: 0000 0000 0e39 133c 4600 f03a 75f2 bdba
000002e0: 6c3b 50ba db4b 1cba acc0 1a3c 7c1d 503c
000002f0: 0000 0000 0000 0000 404f babc 0e57 e0bb
00000300: d11b f634 fea8 0b34 edd8 e91f d760 4335
00000310: 03c5 a133 ad0d 8535 579e 0e35 a595 0a20
00000320: f050 3a34 ba73 5834 c0ca 1e35 3a25 8834
00000330: c3a5 c234 85db ee32 2d05 5634 1c83 6220
00000340: 31f3 ba34 0e55 5720 d595 1935 91f7 8634
00000350: 4157 9114 223d 3d20 742a e234 5173 f634
00000360: 49c4 bc33 4fa9 cd34 f51f 1d12 32a4 1135
00000370: 5898 0d34 ea07 2e33 49af 5333 6277 0f35
00000380: 2048 4234 1635 581e bdaa e734 6d7f 5434
00000390: 6c9d f234 060b 8430 75ba 6015 d301 7932
000003a0: 64c6 8220 e751 8520 0285 4934 3b1b f31f
000003b0: e90e 6833 cf08 5134 7760 ff1f c19c 6920
000003c0: 018d 7333 1882 f434 7075 6a35 2982 ad1b
000003d0: c0d2 de1f 5e23 1a34 f49b 2232 bfc3 652c
000003e0: 3b0a b033 1d03 1a35 3e96 dc34 c3d5 0735
000003f0: e71f 9a1f f72b 4320 9163 0535 e97f e933

exp_avg_sq f4 [64, 64]
0.017218359 0.0067353765 8.837961e-08 0.023116583 0.00015266951 0.03115183 0.010981646 6.41116e-08
0.0009892591 0.0009048553 0.018135255 0.00282589 0.004588832 2.602478e-05 0.0009873015 4.5179822e-06
0.0073907403 5.151073e-06 0.007744558 0.0019017722 1.0612313e-06 4.4924777e-06 0.008045772 0.009410315
0.00018724796 0.0064846547 6.8507378e-09 0.010693884 0.00025181816 5.132029e-05 0.0012557462 0.020857457
0.0008525683 5.5392784e-09 0.0064043575 0.00025584875 0.010147092 0.011431199 1.0904085e-07 1.730428e-05
4.95109e-08 5.9837903e-06 0.0013487054 3.943923e-06 8.529963e-05 0.0012030315 3.553737e-08 4.7230724e-06
3.4746714e-05 0.008808391 0.038105093 0.034233343 2.0326175e-07 0.00036668833 3.3638033e-05 7.369829e-06
0.00020254169 0.012787069 0.007882197 0.009634368 2.8026905e-09 2.5462523e-06 0.010927769 0.0046160487
0.5370237 0.17986952 2.337342e-05 0.5265096 0.011849559 1.1545749 0.32284805 8.624297e-06
0.02507344 0.032181706 0.46004474 0.07074174 0.14156023 0.0024902606 0.0332863 0.00034942853
0.2162318 0.0005784346 0.33358625 0.0760838 0.0002795837 0.0006481076 0.19181955 0.24940915
0.010127143 0.17427336 3.6882963e-07 0.32726026 0.012519782 0.004540562 0.02924507 0.5936125
0.04074709 3.920543e-08 0.20214607 0.025957566 0.26092607 0.2920105 2.0453842e-06 0.0024855365
4.6476238e-05 0.00039736385 0.035962492 0.00044699674 0.0064711147 0.029712105 1.2381139e-05 0.0003654406
0.004058647 0.25796315 0.8744207 1.046863 5.1882933e-05 0.018815586 0.0038112185 0.0008405142
0.013475064 0.32228068 0.20518361 0.2501209 2.3303676e-06 0.00025138713 0.2483423 0.11997019
0.024224784 0.00817369 0.0 0.02746301 0.00064854574 0.05025438 0.015418914 0.0
0.0012644394 0.0016097598 0.020093197 0.0028848753 0.006376813 0.00010996207 0.0014146947 1.4133247e-10
0.008333525 1.4645633e-07 0.013339656 0.003757422 6.931869e-06 2.2287556e-06 0.007919853 0.011172247
0.0005020156 0.0076649175 1.2213038e-10 0.0150223775 0.0005842194 0.00024176178 0.0012279202 0.030843437
0.001791984 1.3434323e-10 0.00925023 0.0011773352 0.011608738 0.01242336 2.4465868e-07 0.00012414821
0.0 2.2090342e-08 0.001402813 1.0796128e-06 0.00030094583 0.001514353 0.0 1.8398993e-07
0.0001441065 0.010602754 0.040334202 0.046740964 0.0 0.00076221116 0.00015701172 8.059876e-06
0.00073614425 0.016064592 0.008309026 0.010086685 0.0 0.0 0.010596687 0.005450521
0.00011765088 5.1984494e-05 1.78514e-08 0.00023868265 1.5321131e-06 0.0005343065 0.0001323417 2.7941269e-08
1.33753865e-05 1.1530718e-05 0.00017996834 2.9062188e-05 5.2007515e-05 1.9104638e-07 1.1108609e-05 6.671139e-08
0.00010015308 6.059201e-08 0.0001525663 2.1035425e-05 2.1942324e-10 4.614565e-08 8.195073e-05 7.85527e-05
2.5620034e-06 7.109426e-05 6.914632e-11 0.00012911622 3.8064943e-06 5.1729916e-07 9.168422e-06 0.0001627327
8.598052e-06 6.0920735e-10 5.418476e-05 7.2239595e-06 0.000104726205 8.437354e-05 2.0059225e-08 7.090176e-08
8.893642e-08 9.400629e-08 1.481651e-05 1.8637774e-08 8.8084516e-07 1.8147688e-05 2.3023766e-08 6.9714524e-08
7.3716024e-07 9.7489596e-05 0.0003275211 1.4734236e-05 1.6299877e-08 5.606005e-06 2.2585382e-07 5.318565e-08
2.6420403e-06 0.00014882161 8.385827e-05 0.00011174167 7.531389e-09 4.949613e-08 0.000115456896 3.4357417e-05
00000000: 840d 8d3c 6fb4 dc3b 34cb bd33 fd5e bd3c
00000010: e915 2039 1f32 ff3c 5dec 333c baad 8933
00000020: 07aa 813a d033 6d3a 6390 943c 9132 393b
00000030: ea5d 963b ca4f da37 5768 813a 2c99 9736
00000040: 062e f23b 61d7 ac36 10c6 fd3b e344 f93a
00000050: a16f 8e35 17be 9636 6ad2 033c b92d 1a3c
00000060: fe57 4439 3a7d d43b ba63 eb31 6735 2f3c
00000070: 7606 8439 be40 5738 da97 a43a 42dd aa3c
00000080: e47e 5f3a 0254 be31 a5db d13b 7023 8639
00000090: fd3f 263c ec49 3b3c d729 ea33 a928 9137
000000a0: cfa5 5433 5ec8 c836 0bc7 b03a 0a56 8436
000000b0: e4e2 b238 0aaf 9d3a c0a1 1833 e27a 9e36
000000c0: 00bd 1138 1251 103c 1614 1c3d 4338 0c3d
000000d0: 2a40 5a34 1340 c039 9016 0d38 594a f736
000000e0: 5f61 5439 db80 513c 5524 013c 78d9 1d3c
000000f0: 7499 4031 48e0 2a36 630a 333c 3942 973b
00000100: 637a 093f b72f 383e 0a12 c437 55c9 063f
00000110: a724 423c 1cc9 933f 574c a53e 13b1 1037
00000120: d166 cd3c f7d0 033d fc8a eb3e 0ce1 903d
00000130: 2af5 103e a433 233b 3757 083d 8133 b739
00000140: de6b 5d3e 17a2 173a d1cb aa3e d3d1 9b3d
00000150: 1795 9239 c4e5 293a 586c 443e 1d65 7f3e
00000160: 51ec 253c b774 323e 8f03 c634 a88e a73e
00000170: c61f 4d3c ffc8 943b 5b93 ef3c fdf6 173f
00000180: 6ce6 263d d362 2833 61ff 4e3e f6a4 d43c
00000190: 1a98 853e 6682 953e 6f43 0936 62e4 223b
000001a0: 7bef 4238 4655 d039 684d 133d e35a ea39
000001b0: a50b d43b cd66 f33c 96b8 4f37 9b98 bf39
000001c0: 66fe 843b bf13 843e 09da 5f3f 9bff 853f
000001d0: e09c 5938 2523 9a3c a3c5 793b f455 5c3a
000001e0: 84c6 5c3c f901 a53e a71b 523e d90f 803e
000001f0: 6963 1c36 9ccc 8339 724d 7e3e eeb2 f53d
00000200: 0e73 c63c f1ea 053c 0000 0000 1bfa e03c
00000210: 2b03 2a3a 89d7 4d3d 9d9f 7c3c 0000 0000
00000220: 8cbb a53a 93fe d23a 7d9a a43c 2d10 3d3b
00000230: 96f4 d03b 709b e638 476d b93a 8e65 1b2f
00000240: 5689 083c 9c41 1d34 938e 5a3c 153f 763b
00000250: 4d98 e836 bb91 1536 45c2 013c cd0b 373c
00000260: b299 033a fd29 fb3b a548 062f 6b20 763c
00000270: 4d26 193a 6f81 7d39 2af2 a03a 60ab fc3c
00000280: 01e1 ea3a 42b6 132f 478e 173c d050 9a3a
00000290: 9432 3e3c 598b 4b3c a259 8334 c82d 0239
000002a0: 0000 0000 2dc1 bd32 98de b73a 37e7 9035
000002b0: 44c8 9d39 417d c63a 0000 0000 c48e 4534
000002c0: 4b1b 1739 2cb7 2d3c 7a35 253d 7473 3f3d
000002d0: 0000 0000 20cf 473a 83a3 2439 e738 0737
000002e0: cef9 403a e499 833c 9522 083c a042 253c
000002f0: 0000 0000 0000 0000 ba9d 2d3c 499a b23b
00000300: 56bb f638 ed09 5a38 a557 9932 e346 7a39
00000310: 01a3 cd35 b410 0c3a 34c5 0a39 8003 f032
00000320: d966 6037 0f74 4137 e2b5 3c39 93ca f337
00000330: a522 5a38 6e22 4d34 1d5f 3a37 f942 8f33
00000340: 4709 d238 cf1e 8233 34fa 1f39 3b75 b037
00000350: 2742 712f ae31 4633 f7dc ab38 a9bc a438
00000360: e2ee 2b36 7118 9538 eb0d 982e 5f63 0739
00000370: 1373 7f36 87dc 0a35 13d2 1937 3aa3 2a39
00000380: 5a40 1037 2875 2730 7144 6338 5765 f236
00000390: 74a0 db38 b3f1 b038 b44e ac32 a842 9833
000003a0: 50fd be33 81e0 c933 6d94 7837 e618 a032
000003b0: 3873 6c35 dd3b 9837 ccc5 c532 f7b5 9533
000003c0: 44e1 4535 5473 cc38 23b7 ab39 1033 7737
000003d0: cf03 8c32 371b bc36 3a82 7234 3e6e 6433
000003e0: e84d 3136 ff0c 1c39 11dd af38 da56 ea38
000003f0: 6663 0132 9295 5433 7321 f238 ff1a 1038

exp_avg f4 [64]
0.00020924692 -0.9563081 0.0040882677 7.813711e-07 -0.50849164 2.8350948e-25 2.7986951e-14 0.040737968
-0.5681656 2.8921908e-12 -0.32905075 2.2374053e-08 0.014225856 -0.0005140057 -0.76424825 -0.13851152
0.35201412 0.33522314 3.442119e-06 2.2993418e-13 3.252016e-09 -0.87694454 -1.2514386e-19 1.3025601e-13
-0.44505087 -0.3648879 0.0064083813 5.042298e-12 0.010606809 6.392343e-05 -0.111414135 -0.28116816
1.4263027e-08 0.0 -0.6291894 0.0052661765 3.1372166e-10 1.1427969e-06 -0.35829675 0.042725306
-6.208251e-10 -0.5865066 -0.09717532 3.8128953e-25 1.8549852e-13 3.542115e-13 -1.8488703e-05 7.0376454e-06
-0.6881266 2.2661685e-13 1.4745835e-24 -0.32447433 -6.7216405e-08 0.16604248 -0.0014239176 2.6660789e-20
-0.2643513 -0.7395932 -0.25120503 8.3373265e-12 2.4947874e-12 -0.22522882 -0.082860105 -0.26440805
00000000: 4b69 5b39 9cd0 74bf e0f6 853b 6abf 5135
00000010: 822c 02bf df7b af16 8415 fc28 dbdc 263d
00000020: 4d73 11bf 1485 4b2c 5779 a8be 1031 c032
00000030: 9113 693c 57be 06ba c6a5 43bf f7d5 0dbe
00000040: 323b b43e 5ea2 ab3e 27ff 6636 0271 812a
00000050: 127a 5f31 707f 60bf 69be 13a0 bda7 122a
00000060: b5dd e3be 96d2 babe 66fd d13b fc68 b12c
00000070: 2ec8 2d3c a10e 8638 182d e4bd 46f5 8fbe
00000080: 7509 7532 0000 0000 8e12 21bf e48f ac3b
00000090: 6678 ac2f 3462 9935 ac72 b7be bb00 2f3d
000000a0: afa6 2ab0 4c25 16bf db03 c7bd bd01 ec16
000000b0: 4fda 502a 4267 c72a 3018 9bb7 ea24 ec36
000000c0: 1129 30bf dc25 7f2a 452e e417 8021 a6be
000000d0: 9c58 90b3 0a07 2a3e bfa2 baba d5cd fb1e
000000e0: 0e59 87be fb55 3dbf f29d 80be fbab 122d
000000f0: 188e 2f2c 62a2 66be 8fb2 a9bd 7e60 87be
