gen_2_agent_5.pt (torch, 64207 bytes, 18 tensors)

net.0.weight f4 [64, 4]
000000 5d 0e 80 bd c9 ac 4f be 1c 64 65 be 06 ff 4b 3e
       -0.062527396 -0.20280756 -0.2240147 0.19921502
000010 26 f4 90 be ad b8 fd bd 03 1b 67 3e f4 32 66 3e
       -0.2831127 -0.1238874 0.22568898 0.22480375
000020 3b e4 72 be d7 f4 87 be 49 21 0b 3e 79 f3 39 bd
       -0.23719876 -0.26553985 0.13586916 -0.04539821
000030 5b 16 68 be 9c 35 60 be f6 e1 94 be b3 ba 02 bc
       -0.22664778 -0.2189545 -0.29078645 -0.007979083
000040 2a 6e b6 bd 46 a4 68 be ad e3 02 bd bb 1e 52 be
       -0.08907731 -0.22718915 -0.03195541 -0.20519535
000050 99 0e 66 bd 06 44 94 be 4c d5 8d bd f6 bc 0d be
       -0.056166265 -0.28958148 -0.06925449 -0.13841614
000060 7b be 61 3e 41 91 6d be 89 9f 85 bd 71 db 5a be
       0.22045319 -0.23199941 -0.065245695 -0.21372773
000070 06 af 7e be 32 07 8c be c2 84 1d 3e 98 15 86 3e
       -0.24871454 -0.2734924 0.15382674 0.2618835
000080 f7 e0 00 3e 9d 9d 00 3e 66 8a 7f be dc 1f cb bd
       0.12585817 0.12560125 -0.24955139 -0.09918186
000090 ee 9a a0 3d 45 9a 8f bb 43 18 90 3d a1 6e 46 be
       0.078420505 -0.004382404 0.070358776 -0.19378139
0000a0 e6 bb 85 3d 97 d6 8a bd 39 b4 96 be ff 76 3a be
       0.065299794 -0.06779211 -0.29434374 -0.18209456
0000b0 aa 23 44 be b0 f5 88 3e 16 2e 81 be 7e 41 60 3e
       -0.1915423 0.26749945 -0.25230473 0.21899983
0000c0 f0 c8 6f 3e e6 58 2b be 3c 6c 21 3e 5e 91 a3 be
       0.23416495 -0.16733131 0.15763944 -0.31946844
0000d0 19 2e 62 be 5b ac 43 3c c1 83 a1 bd d2 14 f0 bd
       -0.22087897 0.011942948 -0.07886458 -0.11722721
0000e0 54 fc 6e be 35 f6 90 bb b2 7d 21 be 8e 28 ea 3d
       -0.23338443 -0.0044238814 -0.15770605 0.114335164
0000f0 87 e1 12 3e 3f 0a 10 3e 84 69 1f 3e f6 e9 88 3d
       0.14343844 0.14066409 0.15567595 0.066852495
000100 a9 71 24 be 49 14 1a 3c 3e 98 b1 bd fd 5a 4a 3e
       -0.16058983 0.00940425 -0.08671616 0.19761272
000110 90 c9 11 3e 4d 4b 42 bd d3 8d a0 3b d9 41 a6 be
       0.14237046 -0.047435094 0.0048997193 -0.32472113
000120 b3 1b df 3c de 72 91 3e 01 77 4f be 8f 4b 03 3e
       0.027234888 0.2840795 -0.2026024 0.12821792
000130 40 5e 11 3e 93 6f ce 3d 95 f8 77 3e 6a 71 b1 3b
       0.1419611 0.10079875 0.2421592 0.0054151313
000140 fd 02 20 3c 36 c7 40 3e 18 f2 a0 3d c1 0c 41 be
       0.009766337 0.18825993 0.07858676 -0.18852521
000150 e3 8b 5f be 0f 17 85 be ab 98 fe 3d 54 71 1e bd
       -0.21830706 -0.25994155 0.12431463 -0.038682297
000160 e3 84 4e 3e 1e b1 a4 3d ce d0 08 3e bb 0d 67 3c
       0.2016788 0.08041595 0.13360903 0.014102395
000170 7e a8 8c be 98 fe 99 3e ec 80 7d 3d 22 4c f8 bd
       -0.274723 0.30077052 0.061890528 -0.12123896
000180 d8 34 a5 3d 0a 3d 16 3e 74 ca 75 3e 8b cb d1 bd
       0.0806672 0.14671722 0.24003011 -0.10243901
000190 16 f1 39 3d 5c d7 31 be cc d9 8e 3e 23 7e 4f be
       0.045395933 -0.1736731 0.2790054 -0.20262961
0001a0 96 78 20 3e a1 22 1d be 4b e7 91 3e d5 be 83 3e
       0.15671 -0.15345241 0.28496775 0.2573153
0001b0 1e 12 7f be 29 9e 15 3e b6 ff 5b bd 3a 4a ca 3c
       -0.24909255 0.14611115 -0.05371066 0.024693597
0001c0 82 ed 55 3d 98 c5 06 be f3 27 13 3e 32 c0 7a be
       0.05222846 -0.13161314 0.14370708 -0.24487379
0001d0 ce 3e c4 3d f0 61 e4 3d 79 d3 e0 3d ec df 9f be
       0.095822915 0.111514926 0.10977835 -0.31225526
0001e0 b4 60 9a 3e d4 2d 99 3e d1 67 90 be d1 3c c0 3d
       0.30151904 0.29917777 -0.28204206 0.093866
0001f0 c3 92 04 bd b8 06 dd bd a2 25 0d bc 67 0f a0 bc
       -0.032366525 -0.10792297 -0.008614929 -0.019538594
000200 ba 19 d1 bd 65 c9 9b be b1 64 12 3d 95 6e f9 bd
       -0.10209985 -0.3042709 0.035740558 -0.12179295
000210 17 1b 32 3e 45 af 39 be cf cb 30 3e bf 0e fc 3d
       0.17393146 -0.18133266 0.17265247 0.123075
000220 b4 0e 86 3e 52 ee ee 3d 27 e8 92 3b 6f c5 90 be
       0.26183093 0.1166655 0.004483241 -0.2827563
000230 ee a0 8d 3e 0a f9 b6 bd 9a 55 2b 3e 8f a3 8a be
       0.27661842 -0.08934219 0.16731873 -0.2707791
000240 62 24 3b 3c 73 e9 ea bd 3a 62 4a 3e 71 aa 08 be
       0.011422249 -0.11470308 0.19764033 -0.13346268
000250 e3 3c 8e 3e 15 00 94 3d 27 72 99 bd 42 b1 36 be
       0.27780828 0.07226578 -0.07492476 -0.17841056
000260 dc dd 95 be b5 3b 54 be fd 73 99 be 1b 94 0b 3e
       -0.29270828 -0.20725901 -0.29971305 0.13630717
000270 fb 82 0f 3d ad 36 42 be 0c 29 13 3e 98 3b 8b be
       0.035037022 -0.1896617 0.14371127 -0.27193904
000280 c2 f6 cf bc ed e9 92 be 29 e1 af 3d c3 dd 83 3e
       -0.025386218 -0.28694096 0.08587868 0.25755128
000290 1c 6a 83 be dd 08 a3 bd 0c 1d 5b be f8 10 01 3c
       -0.25666893 -0.07960675 -0.21397799 0.007877581
0002a0 d8 60 f0 3d b1 86 80 be 49 bb e7 bd 7f 22 60 3e
       0.117372215 -0.2510276 -0.11315019 0.21888159
0002b0 5e e8 57 3e 90 23 fd bd ea 87 65 bd 5c d2 03 3d
       0.21084735 -0.12360299 -0.05603782 0.032183036
0002c0 4d ae 2d be e7 a3 b6 bc 69 42 1f bd aa 7c 8a 3d
       -0.16961022 -0.022294952 -0.038881693 0.06762059
0002d0 74 a9 7f 3e cd f4 c3 3c 67 03 35 be 66 8f 84 be
       0.24966985 0.023920441 -0.17677079 -0.25890654
0002e0 c4 78 3d 3e f9 d8 4d 3b a2 70 67 bb 51 9b dd bd
       0.185031 0.0031409843 -0.0035314937 -0.1082064
0002f0 16 db 83 3e f4 0d 3b 3e d1 0a 77 be 5f 6f 87 3d
       0.25753087 0.18267041 -0.2412522 0.06613039
000300 b9 1a 54 bb d2 19 4f be e8 27 df 3d 54 89 25 3e
       -0.003236456 -0.20224693 0.108962834 0.16165668
000310 3a b0 f6 bd 56 33 3f 3e d4 92 29 be 4a 73 d6 bd
       -0.12045331 0.18671927 -0.16559917 -0.104712084
000320 ac 23 39 be 98 58 8b 3e 6d f8 fe bc 6b 0c 44 be
       -0.18080014 0.2721603 -0.031124318 -0.19145362
000330 bc 2e db bd f1 3b 9d 3e b7 f3 19 3e 07 08 65 bd
       -0.10702273 0.30709794 0.15034376 -0.05591586
000340 66 bf a0 bd db 88 c3 bd bd 69 46 3d d9 bc eb 3d
       -0.07849006 -0.095475875 0.048440684 0.11510629
000350 9e 7b 97 3d 47 23 8b 3e 95 eb 0f 3d 50 74 2c be
       0.07396625 0.27175352 0.035136778 -0.16841245
000360 64 f8 87 be b9 fd 9a 3b 84 58 16 bd 25 d4 9b 3d
       -0.26556695 0.004729953 -0.03670551 0.07608823
000370 cf c1 8a bd e8 98 00 3e af 9d 0f 3e f5 e8 04 bd
       -0.06775247 0.12558329 0.14024995 -0.032448728
000380 82 aa f7 3d 4d 7a 9a 3e 34 29 37 3e e2 28 4e be
       0.12093069 0.30171433 0.17886811 -0.20132783
000390 32 e0 f4 3d b1 bb 86 be 5a 82 86 3e db 99 73 3e
       0.11956824 -0.26315072 0.26271325 0.2378916
0003a0 03 6b 9a 3e 04 4d 8e 3d ec 69 76 bd 13 d0 4e bb
       0.30159768 0.06948283 -0.06015961 -0.0031557127
0003b0 49 cd 20 be 8a fa 2f bd fe 86 71 3e 96 a1 02 be
       -0.1570331 -0.042963542 0.23586652 -0.12756953
0003c0 d6 ea 14 bd 1c 19 81 3e 3e a0 47 bd 25 8d 8f 3d
       -0.03635677 0.2521447 -0.048736803 0.07009343
0003d0 80 2f a1 bc ea 80 4c 3e d5 41 4f 3e a9 c3 0e 3e
       -0.01967597 0.19971052 0.20239957 0.13941826
0003e0 a6 8d 69 3e 94 c2 b7 bd 5b 73 f7 bc 75 44 77 bd
       0.22807941 -0.0897266 -0.030206373 -0.06036802
0003f0 df d9 2e 3e ec f2 01 3d 54 17 88 be d0 f9 00 bb
       0.17075299 0.03172581 -0.26580298 -0.001968015

net.0.bias f4 [64]
000000 67 99 3b 3c 8a 12 8b 3c 1e 3e 60 bc 6d 13 21 3c
       0.011450148 0.016976614 -0.013686685 0.009831292
000010 61 f9 20 3d 1d 17 a1 3c a3 cf 36 3d 2e 11 a7 3c
       0.039300326 0.019664342 0.04463161 0.020393934
000020 e9 f2 23 3d 2e 35 6e 3d f7 5e a6 3c a7 2a 09 bb
       0.04002658 0.058156185 0.020308955 -0.0020929964
000030 d1 13 54 3d f2 8d db bc c2 6b 1e 3c 13 5d 1b 3d
       0.05177671 -0.026801083 0.009669246 0.03793056
000040 0b 1f 4b 3b 49 94 5d 3d 37 7d 42 3d 43 f4 ea bc
       0.0030993845 0.054096494 0.047482695 -0.028680926
000050 fa 52 4a 3d 44 7b 8f 3c 8a d0 0b bd ab db 28 3d
       0.04939554 0.017514832 -0.034134425 0.041225117
000060 f2 67 0b bd 20 48 ff 3c d0 90 70 3c 84 13 3a 3c
       -0.034034677 0.031162322 0.0146829635 0.011357192
000070 c0 e7 34 3d f3 f3 47 3d 66 12 43 3d 5f bb 1a bc
       0.044166327 0.048816632 0.047624968 -0.009444087
000080 22 ca 9c 3c a9 a8 b6 3c 68 1e 22 3d 0b b2 47 3d
       0.019139353 0.02229722 0.03957978 0.04875378
000090 ea 36 30 3a 25 28 2a 3d 2b 8e 64 bb 97 18 b8 3c
       0.000672205 0.04154219 -0.0034874778 0.022472663
0000a0 9d 50 b1 3c 71 dd fb bb 96 d5 c9 ba 74 f2 a5 ba
       0.021644885 -0.00768631 -0.0015398737 -0.0012660758
0000b0 5d 41 8c 3c 4e d0 48 3d 83 1e 35 3d 0f c2 11 3d
       0.017121011 0.04902678 0.04421855 0.03558546
0000c0 75 96 8a bc a8 34 33 3d 60 8d 14 bb b0 be 60 3d
       -0.016917447 0.04375139 -0.0022667274 0.054869354
0000d0 56 f5 20 bc a2 82 6f bc 97 50 21 3c 5d e2 44 3d
       -0.009824118 -0.014618548 0.009845874 0.04806744
0000e0 0e ea 08 3d 09 e4 5f 3c 31 71 d5 3c 77 4a f1 3c
       0.033426337 0.013665208 0.02605495 0.029454453
0000f0 2c 3d 47 3d 2e b0 b6 3c 7e 25 6a bc c3 b3 aa bc
       0.048642322 0.022300806 -0.014291165 -0.02083767

net.3.weight f4 [64, 64]
000000 df 6e bf bd 82 7f 56 3e da a7 19 bd b4 3a 49 3e
       -0.09347319 0.20947078 -0.03751359 0.196513
000010 47 62 21 be c0 f3 b7 bd 7d 75 ab bd 75 28 15 3e
       -0.15760146 -0.089820385 -0.083720185 0.14566214
000020 80 28 11 3d 30 e6 53 3e dd 14 c9 bb ad 8b bc 3d
       0.035439014 0.20693278 -0.0061365203 0.092063285
000030 24 b1 75 3e dd f9 07 be 7a e3 e9 3d cd 76 27 3d
       0.23993355 -0.13278909 0.11420341 0.04088478
000040 72 36 a2 bd 25 9c e8 bc f7 08 9f bd 93 69 d4 bd
       -0.07920541 -0.028394768 -0.07765382 -0.10371699
000050 28 b1 37 3e 7c e3 58 3e 86 13 00 be d3 82 bd 3d
       0.17938673 0.21180528 -0.12507448 0.09253468
000060 1c b9 db 3d ef f7 1f 3d 04 9e 28 3d f3 04 5d bd
       0.10728666 0.039054807 0.04116632 -0.053959798
000070 40 89 20 3e f2 fc e5 bd aa df ea bd 05 2b 0c bc
       0.15677357 -0.11229886 -0.11468442 -0.0085551785
000080 fa 28 15 be 5e 22 36 3e 7b 3a 50 3c 5b 85 77 3e
       -0.14566413 0.17786548 0.012709255 0.24171965
000090 9a c5 9e 3d a6 a6 8b 3d f4 58 92 3c 80 a2 bd 3c
       0.07752533 0.06818895 0.017864682 0.023148775
0000a0 7c 4d 39 3e 07 d9 cd 3d 31 f6 2c be c3 2b 07 be
       0.18095964 0.1005116 -0.1689079 -0.13200288
0000b0 3e 82 c1 bd ba d8 03 be 5e af 60 3c 9c 31 20 3e
       -0.0944867 -0.12875643 0.013713686 0.15643924
0000c0 d4 e1 5e 3e fe e8 70 3e 3c bd 18 be 1e 36 64 bd
       0.21765834 0.2352638 -0.14915937 -0.055715673
0000d0 a7 31 30 3e 15 39 99 bd 7c 4c b0 bd 08 54 60 3e
       0.17206441 -0.07481591 -0.08608338 0.21907055
0000e0 ad 40 2b 3e 78 4e 8e 3d 57 ae 97 3d b5 43 1b 3e
       0.1672389 0.069485605 0.074062996 0.15162547
0000f0 3c eb f2 3d 86 e0 81 bd 5f 1c 38 be 1b 8f 73 3d
       0.11861274 -0.063416526 -0.17979573 0.059462648
000100 ab 3f 4b 3e f6 ef 07 bc f9 3d ef 3d 14 7b 20 3e
       0.19848506 -0.008296957 0.11681742 0.1567195
000110 1e d5 73 3e fa e6 43 3e 98 f8 0e 3e 9f 5d 16 be
       0.23811767 0.1913108 0.13962018 -0.14684151
000120 a5 e7 65 3e 3b fc bc bc 0a 96 ab bc 77 3b 62 3e
       0.22451647 -0.023069492 -0.020945568 0.22092997
000130 b0 97 69 3e a4 64 73 3e b8 01 7b bb 6f 10 7e 3e
       0.2281177 0.2376886 -0.0038300585 0.24810956
000140 31 37 50 be e9 21 52 3e df 6d 13 bd 0a 6f 1f be
       -0.20333554 0.20520748 -0.035993453 -0.15569702
000150 94 f5 cc 3d 1b 4b 0c 3e cb f3 41 be 3e 5a 3c 3d
       0.10007778 0.13700525 -0.18940656 0.0459845
000160 58 75 3a bd 8e ae 65 3d 82 a7 41 3e 47 e1 48 3d
       -0.045522064 0.05607467 0.18911555 0.049042966
000170 33 08 4e bd 23 25 2e 3e 96 7a bf 3d d7 76 32 3e
       -0.050300788 0.17006354 0.09349553 0.17428146
000180 90 cc 4e 3e f3 e9 1e 3e ba 45 23 3e 22 b5 1a 3e
       0.20195222 0.15518932 0.15944567 0.15108159
000190 51 c0 aa bd 54 7d 8e bc 4e 2c 92 bd c1 55 e0 bb
       -0.08337463 -0.017393745 -0.07137357 -0.00684616
0001a0 76 84 e3 3d 03 54 2b be 31 eb 2f be a4 bd c0 bd
       0.11109249 -0.16731267 -0.17179562 -0.09411171
0001b0 76 6f d6 3d c0 a7 b6 bc 7e 28 5b 3e 7c 6c 24 3e
       0.10470478 -0.022296786 0.21402165 0.16057009
0001c0 12 4b 17 be 93 6f 1c 3e 45 fe 09 bc 60 d2 37 3e
       -0.14774731 0.15276937 -0.008422439 0.17951345
0001d0 b8 ed 03 be 51 a9 3a bc aa fd 66 3d 51 29 6f 3e
       -0.12883651 -0.011392907 0.056394257 0.23355605
0001e0 2e 6a 24 3e 38 54 94 3d 82 a7 3f 3e f1 85 37 bd
       0.1605613 0.07242626 0.18716243 -0.04480547
0001f0 d3 28 58 bd b6 7a b8 3d d5 e4 af bb 8e ea 44 be
       -0.052773308 0.0900778 -0.005367855 -0.192301
000200 c5 1a 50 3e e5 ee 30 be 5e 4f d8 bd 34 13 7b 3d
       0.20322712 -0.17278631 -0.10562013 0.06129761
000210 04 53 a1 bd 0d 6f 4c be a8 db ca bc a0 1b a9 3c
       -0.07877162 -0.19964238 -0.024762943 0.020643055
000220 5c c0 7b 3d bc 45 11 be 40 41 da bd 48 b4 81 bc
       0.061462745 -0.14186758 -0.10656977 -0.015833035
000230 48 88 14 be 68 75 d3 bd 5c 2c 15 be 22 3e b7 bd
       -0.14505112 -0.10325128 -0.14567703 -0.08947398
000240 c2 4c df 3d 1e ea 4b be ac 00 11 be dc 1c 69 bd
       0.10903312 -0.19913527 -0.14160413 -0.056912288
000250 24 a0 0d be d0 d1 99 bd 84 60 7c 3d 62 58 0c be
       -0.1383062 -0.07510722 0.061615482 -0.1370559
000260 81 e8 46 3e 40 96 d6 bd f8 20 67 bd 76 e0 50 be
       0.1942463 -0.10477877 -0.056427926 -0.20398125
000270 18 21 eb bd 40 a2 48 3c a0 aa a2 bb 05 88 2e 3e
       -0.114809215 0.012245715 -0.0049641877 0.17044075
000280 b0 8c 16 be fc 4e 37 be 72 12 0e be de cb d9 3d
       -0.14702106 -0.17901224 -0.13874224 0.10634588
000290 3b 98 23 3e cd 95 58 3e 30 e0 59 be 18 47 3d bd
       0.1597604 0.21150894 -0.21276927 -0.04621038
0002a0 6a 25 f2 3d 6a 17 e0 3d 20 43 39 be 58 dd 8b bd
       0.118235424 0.10941966 -0.18092012 -0.06829327
0002b0 f4 fb 9d bd 72 d0 9c bd d8 ee 0d be 14 35 73 3d
       -0.07714072 -0.07656945 -0.13860643 0.05937679
0002c0 5c c3 fc bd a8 ae 40 be 41 c2 08 be a8 50 10 be
       -0.12341949 -0.18816626 -0.13355352 -0.14093268
0002d0 a2 a4 23 be 21 c9 4c 3e 45 cf 02 3e 98 99 50 bd
       -0.15980771 0.199986 0.1277438 -0.05092773
0002e0 86 bc 8c 3d 8e ba 37 be 26 a3 b6 3d 19 08 ce bd
       0.068718955 -0.17942259 0.08917837 -0.10060138
0002f0 00 bd e8 3a 40 01 85 bb ca f4 2d be 3b 5d 0e 3e
       0.0017756522 -0.004058987 -0.16987911 0.13902752
000300 91 92 f2 bd 17 f0 10 be 6a a6 0b be d0 b9 c6 bd
       -0.118443616 -0.14154087 -0.136377 -0.0970341
000310 7c 5d de bd 7d 72 24 3e 70 2b 25 be cf 42 3a be
       -0.108576745 0.16059299 -0.16129851 -0.18189548
000320 f5 bb bc 3a dc fa df 3d 23 22 b1 bd 33 66 03 3d
       0.0014399277 0.109365195 -0.08649089 0.032079887
000330 ed c6 0a be 49 c4 26 be e7 d0 7c bb da 71 8d 3d
       -0.13552447 -0.16285814 -0.0038576664 0.06906481
000340 b3 1f b6 3d 7a 77 02 3e f2 8c 1e 3c 9b 1c ca 3d
       0.08892765 0.12740889 0.009677159 0.09868737
000350 8d dc f3 bd ed 36 25 bd 00 79 64 3e 1d 63 62 3d
       -0.11907301 -0.040335584 0.22311783 0.055270303
000360 91 e8 14 be 82 b9 cd bd 32 49 24 3e a5 51 7f bc
       -0.14541842 -0.100451484 0.16043547 -0.01558343
000370 68 3b 23 be d0 b8 4c 3e 33 6a 47 3e f6 d9 a3 3d
       -0.1594063 0.19992375 0.19474106 0.08000557
000380 97 13 31 bc d9 3d 1a be e2 a7 29 3e 07 dc 9e 3d
       -0.010807893 -0.15062656 0.16567948 0.07756811
000390 b9 a3 a9 3d de 8d 54 3e 91 78 26 3d 16 d4 92 3d
       0.08283181 0.20757243 0.040642325 0.071693584
0003a0 06 6e 05 3e 67 e5 06 be 29 b4 f6 bd bf ad 39 3e
       0.13030252 -0.13173448 -0.120460816 0.18132685
0003b0 fb 63 ae 3d 72 9d 1d 3e 70 08 44 be 5a 63 b2 3d
       0.085151635 0.15392092 -0.19143844 0.08710356
0003c0 e5 42 71 bc ff 3e 37 be 2c e2 e2 3d 5d aa aa 3d
       -0.014725422 -0.17895125 0.11078295 0.083332755
0003d0 97 85 c3 bd d8 38 b8 bb 3f c3 98 3d 89 b9 95 3d
       -0.095469646 -0.0056220107 0.07459115 0.07310779
0003e0 5f 3f a1 3d 7a 7c 3e 3d c1 24 9b bd 3b b2 dc bc
       0.07873415 0.04650543 -0.075753696 -0.026940456
0003f0 36 fc 4a 3e 75 2a e6 bd ab 07 ea bd dd fe f7 bd
       0.19822773 -0.11238567 -0.11427244 -0.12109158

net.3.bias f4 [64]
000000 36 cd 6a 3d ae 4e 5b 3d 00 00 00 00 a6 5b 0f 3d
       0.05732461 0.05354183 0.0 0.034999512
000010 b1 a8 cb 3c 43 a5 1a 3d 6e 86 22 bd 9b 16 df bc
       0.024860712 0.037755262 -0.039678983 -0.027232459
000020 00 00 00 00 1c 61 94 bc 2d f5 33 bd 8b 90 07 3d
       0.0 -0.018112712 -0.04393499 0.03309683
000030 8b ed 6f 3d e0 05 7a bc bc 46 c1 3c 99 0c dd 3c
       0.058576148 -0.01526019 0.0235933 0.026983546
000040 8c 7c 3c bd a1 f6 1c 3d ef dd 72 3d 4e 32 f9 bc
       -0.046017215 0.03832114 0.059293684 -0.030419495
000050 c2 e3 d7 3c 01 f7 3b 3a de c4 be bc ac 5a 36 3d
       0.02635372 0.00071702903 -0.023287233 0.044520065
000060 98 c0 5e 3d 92 83 b9 bc c2 b2 56 3d 45 52 54 bc
       0.05438289 -0.022645745 0.05241657 -0.012959068
000070 78 46 27 bb 0a 55 c1 3c 0c 77 6f 3d 44 1f cd 3c
       -0.002552418 0.02360012 0.05846314 0.025039323
000080 98 bc b4 3c be b7 3f 3d 28 50 14 bc c8 57 1a 3d
       0.022062585 0.04680609 -0.009052314 0.03768137
000090 54 e7 62 3c 02 fe d7 bb 30 c7 18 bc 6f 57 de 3c
       0.013849098 -0.0065915594 -0.009324834 0.027141301
0000a0 85 7d cd 3c b8 72 bd 3c fa 7c 60 3d b9 18 a0 bc
       0.025084266 0.023125991 0.054806687 -0.019543039
0000b0 aa 94 24 bd 7c 68 04 3b 21 31 56 3c 31 19 44 bc
       -0.04018084 0.002020388 0.013073237 -0.011968897
0000c0 4d 6a 5f 3b 5c 08 1c bd bd 19 1d bc 86 98 59 3b
       0.003409046 -0.03809391 -0.009588656 0.0033202483
0000d0 e6 21 c1 3c 27 29 5c 3d 51 0f 9b bb fc 40 82 bc
       0.023575734 0.053750183 -0.0047320505 -0.015900128
0000e0 e1 a4 fe 3c fa 32 c1 3c 04 25 b1 bb dd ef 60 bc
       0.03108448 0.023583878 -0.005406024 -0.013729063
0000f0 5a 10 4b 3d 6e 94 d5 bb 87 55 f7 bb bd 32 f9 3c
       0.04957614 -0.0065179383 -0.0075480375 0.030419702

net.6.weight f4 [2, 64]
000000 19 cd 29 3e fa 79 21 3d ec a0 09 be 1f c2 9c bd
       0.16582145 0.039422967 -0.13440293 -0.07654213
000010 76 6d 86 3e 89 0a ad bd 17 38 34 bd ca 4e 8d bd
       0.26255387 -0.08449275 -0.043998804 -0.068997934
000020 b0 69 a5 bd 57 68 0f be e7 22 b8 bd fd 84 e0 3a
       -0.08076799 -0.14004646 -0.08991032 0.0017129477
000030 22 01 9b 3d a3 52 3a bd c6 a3 46 3e 36 0b 20 be
       0.075685754 -0.045488965 0.19398412 -0.15629277
000040 a1 a1 59 be bd 1a 33 3e 48 1c 40 3e 21 e4 7b bd
       -0.21253063 0.17490669 0.18760788 -0.061496858
000050 dd ac 22 be 94 04 78 be ae 93 b2 3c 75 cb 29 bd
       -0.15886255 -0.24220496 0.021798935 -0.041453797
000060 86 ce 9f 3d ca 15 6a 3e c3 ef 60 3e 89 11 8a be
       0.07803063 0.22859874 0.21966462 -0.26966503
000070 3f aa 86 be ee 9b 6b be 0c 00 82 3e a9 28 92 3e
       -0.26301762 -0.23008701 0.2539066 0.28546646
000080 9c 5a 53 3e fe 2c 37 3e be d8 1d be f4 fc 01 be
       0.20640033 0.17888257 -0.15414712 -0.1269415
000090 2c 55 57 3e d3 8d 69 bc 75 42 57 3d ae c8 8a be
       0.21028584 -0.014255005 0.052553613 -0.2710623
0000a0 ff a1 5e 3e 9f 4d 7b 3e d0 f2 81 3e f6 8a 8c be
       0.21741484 0.24541329 0.25380564 -0.2744977
0000b0 b0 ae 6e 3d a2 7e 7d 3e d0 0f 9d 3c 81 a9 9d bd
       0.058272064 0.24755338 0.019172579 -0.07698346
0000c0 df 0c 0c 3e 13 45 ad bb 14 64 82 be 23 c1 03 be
       0.13676785 -0.0052877753 -0.2546698 -0.12866645
0000d0 1e 75 65 be b1 54 4e 3e fd 7b 8b be d9 35 d5 3d
       -0.22407958 0.20149495 -0.27243033 0.10410661
0000e0 b2 fd 16 be d5 c4 1a be 5b 27 0e 3e 39 13 47 bd
       -0.14745215 -0.15114148 0.138822 -0.048602317
0000f0 ca 08 86 3c e4 81 ff 3d 04 79 89 be 99 bb 89 be
       0.016361613 0.124759465 -0.2685014 -0.26900938
000100 b2 6d 90 3e 6d f4 a9 3e 80 42 81 3c 57 41 29 3e
       0.2820869 0.33194295 0.01577878 0.16528831
000110 3c 80 7f 3e 0b f7 8c 3e 87 b5 70 bd db ce 27 be
       0.24951261 0.2753223 -0.058766868 -0.16387503
000120 92 44 83 be d9 76 a1 bd 4f fd 1d be be fc 78 3e
       -0.25638252 -0.078839965 -0.15428661 0.24315163
000130 11 c0 9f 3e 3c c4 8d be 76 9a 27 3c 43 34 43 3e
       0.31201223 -0.27688777 0.010229697 0.19062905
000140 79 70 1b be ad ba 52 3d 56 f0 4a 3e 85 db 3e be
       -0.15179624 0.05144756 0.19818243 -0.18638428
000150 5f b6 1b 3e 56 91 78 3e 6b 1d 2a be 41 25 98 3e
       0.15206288 0.24274191 -0.16612785 0.29715922
000160 e7 d8 99 3e ef 39 83 be f1 81 91 3e bd 96 4f be
       0.30048296 -0.25630137 0.2841945 -0.20272346
000170 2f 32 b3 3d 4d 65 1f 3e ec a4 ac 3e 17 91 b3 3c
       0.08749806 0.15565987 0.33719575 0.02191977
000180 8c e7 a2 3e 92 ba b8 3d a2 3d f0 bc 5b 53 a4 3e
       0.3181728 0.090199605 -0.029326264 0.32094845
000190 32 95 6a 3e 3a c0 cd bd c2 db 21 be 25 77 79 3e
       0.22908476 -0.1004643 -0.15806487 0.24361856
0001a0 66 5b 41 3e 0c d6 7a 3c ad 5a 63 3e 84 6a f4 bc
       0.18882522 0.015309822 0.22202559 -0.029835947
0001b0 08 70 01 be 25 de 7e bd 7b 33 14 3e 5e 6f 3b be
       -0.12640393 -0.062223572 0.14472763 -0.18304202
0001c0 57 0f 4d be b4 51 c2 bd 13 d1 76 bd 5a 5e 7a 3e
       -0.20025383 -0.0948824 -0.060257982 0.24450055
0001d0 5e c2 06 3e a2 bb 7b 3e b5 9f 72 3e c6 fd 91 be
       0.13160083 0.24583295 0.23693736 -0.28513926
0001e0 0d a1 6b 3e db 2d 11 3e 64 86 7c be b7 77 aa b9
       0.23010655 0.14177649 -0.24660641 -0.0003251412
0001f0 63 6c a3 3e 9e 50 14 be eb b6 c7 bd f3 53 8a 3e
       0.3191863 -0.14483878 -0.09751686 0.27017173

net.6.bias f4 [2]
000000 13 cc d5 3c f1 77 5a 3d
       0.026098287 0.05333704

exp_avg f4 [64, 4]
000000 2d 89 6e 3a b6 2c c9 3a 48 e5 59 ba d5 90 eb ba
       0.000909942 0.0015348408 -0.00083120586 -0.001797224
000010 2b 0b 91 3a e0 5f b8 3a ed fd d8 b9 98 95 e4 ba
       0.001106595 0.0014066659 -0.0004138792 -0.0017439602
000020 b3 e0 9c ba 6b e8 fa ba 5a 7c 82 3a f5 fe 10 3b
       -0.0011968821 -0.0019142752 0.0009955273 0.0022124622
000030 7b 95 0a 3a c4 05 c2 38 e1 17 ec 39 f6 9a 73 b9
       0.00052865566 9.251715e-05 0.0004503122 -0.00023232013
000040 81 24 b7 3b dd f9 bf bd 88 24 e4 bb e1 cb 02 3e
       0.0055890684 -0.093738295 -0.0069623627 0.12773086
000050 19 be 45 3b e5 99 ab bb 74 4a 87 ba f7 64 0d 3c
       0.0030173121 -0.0052368515 -0.0010321871 0.008630029
000060 bf 05 94 3b 4f ec 4a be 09 32 22 3b 1d c7 96 3e
       0.0045172866 -0.19816707 0.0024749062 0.29448786
000070 8f 71 b4 3a c1 f7 dd 3a 3a 9d 88 b9 c7 e6 0c bb
       0.0013766753 0.0016934798 -0.00026057084 -0.0021499859
000080 40 3c 00 3c ac 32 43 bd 37 99 b8 bb f6 8b 80 3d
       0.007826865 -0.047655746 -0.005633499 0.062766954
000090 b6 c6 4b 3b 82 c6 c1 be ac 5e d5 3c 68 2b 15 3f
       0.0031093783 -0.37846762 0.02604612 0.5826936
0000a0 1d a2 b3 3b a1 dd 0e be 47 49 ab 3a 9f 77 53 3e
       0.005481972 -0.13951732 0.0013068103 0.206511
0000b0 f0 39 14 3a f7 f0 d7 ba 6b 6c 6c 3a 6e e5 17 3b
       0.00056543853 -0.0016475011 0.0009018841 0.0023177522
0000c0 e3 50 77 3c 48 3f 83 be 3a 61 60 bc 65 4e ba 3e
       0.0150949685 -0.25634217 -0.013695056 0.36387935
0000d0 93 04 aa ba 1f c6 c4 3a 38 84 0e 3a 75 36 e2 ba
       -0.0012971334 0.0015012658 0.0005436572 -0.0017258661
0000e0 a3 bc 2e 39 62 a1 e4 39 fd 87 b0 b9 f5 94 f2 b9
       0.00016664206 0.00043607788 -0.00033670655 -0.0004626882
0000f0 f1 d5 80 3b 31 9e 08 be a7 02 de ba d0 61 45 3e
       0.003931754 -0.13341595 -0.0016938046 0.19275594
000100 c8 55 36 b9 c5 d9 22 ba 1f 8d 06 3a c6 31 38 3a
       -0.00017388829 -0.000621226 0.0005132723 0.000702646
000110 73 d1 aa 3b a6 12 a3 be 3b 5d 15 3b 07 36 f0 3e
       0.0052129566 -0.31850165 0.0022791165 0.4691622
000120 ba e7 97 3b 56 34 d8 bd 58 20 1c bb 7b a7 1b 3e
       0.0046357783 -0.10556857 -0.002382299 0.15200607
000130 b9 6c 70 bb f5 b0 42 bd fd 69 9f 3b 6e c3 96 3d
       -0.0036685898 -0.04753204 0.0048649297 0.07361494
000140 17 ad 14 3c 00 e8 0e be 93 26 b7 bb ef 16 4a 3e
       0.009074471 -0.13955688 -0.005589315 0.19735311
000150 92 9e 07 3b 40 73 d9 3a 3e 56 b2 39 e9 64 12 bb
       0.002069388 0.0016590133 0.0003401506 -0.002233798
000160 e1 55 da 3a 98 3e 8c 3d 39 b8 c5 ba 40 ac cd bd
       0.0016657674 0.06847876 -0.001508481 -0.1004262
000170 4d 7d 20 3c ed 57 11 be d2 36 b4 bb 1e 14 52 3e
       0.009795499 -0.14193697 -0.005499699 0.20515487
000180 9a fa 14 3a 97 30 9e 3d 65 c5 62 bb ca e3 ec bd
       0.00056830945 0.077241115 -0.003460252 -0.11566885
000190 cb 81 f5 3b 59 96 36 be 42 6c 3d 3a fb 5e 87 3e
       0.007492279 -0.1783079 0.00072259095 0.26439652
0001a0 c4 0a 72 39 97 74 3e 3a d1 fb d3 b9 e7 19 6a ba
       0.00023082929 0.0007265298 -0.00040432674 -0.00089302514
0001b0 07 aa cb 3b d2 b3 f5 bc ce cc 54 bb 1e 17 2a 3d
       0.006215337 -0.029992972 -0.0032470706 0.041525953
0001c0 53 4c 1f 3b f3 63 4c be 2c e0 1f 3c ce 30 9a 3e
       0.0024306967 -0.19960003 0.009758037 0.3011536
0001d0 d2 88 44 3b 65 2a 31 be 09 ed 3d 3a 86 df 80 3e
       0.0029988778 -0.17301328 0.0007245099 0.25170535
0001e0 a4 ad 7f 3c db f4 1d bd 8d 99 8b bc ad b6 13 3d
       0.015605364 -0.03856359 -0.017040992 0.036062885
0001f0 96 e7 9c 34 e5 81 1d b6 4f 32 6c 35 f5 37 a7 36
       2.9225765e-07 -2.3470432e-06 8.799006e-07 4.983502e-06
000200 d8 69 d0 3a 28 12 23 3b 7b 9d 75 ba bd b8 44 bb
       0.0015900685 0.0024882648 -0.0009369475 -0.003001734
000210 9a 9b 64 39 a7 ae 51 b8 fb ce ed 39 30 dd f2 b8
       0.0002180174 -4.999214e-05 0.00045358375 -0.000115806586
000220 16 bc d6 3b a7 6e 3c be 47 ab 5a ba e6 de 8a 3e
       0.0065531833 -0.18401586 -0.00083415624 0.27123183
000230 ae 66 28 3c 07 b0 65 be 10 6e c5 3b 08 e8 aa 3e
       0.010278387 -0.2243043 0.0060250834 0.3338015
000240 8a 31 58 ba eb 0b 26 be c6 99 06 3c 42 7a 7a 3e
       -0.0008247128 -0.16215484 0.008215373 0.244607
000250 ad 9f d6 3b 19 39 a5 bd 72 ab b5 bb 76 1d e4 3d
       0.0065497966 -0.08067531 -0.0055441195 0.11138432
000260 7d 43 ad 39 9b a7 2f 39 88 f7 16 39 d0 82 85 b9
       0.00033047414 0.00016751738 0.00014397327 -0.000254652
000270 66 ff 27 3b 1e 80 7d bd 67 2c b8 bb 88 8b ad 3d
       0.0025634407 -0.06188976 -0.0056205275 0.08473879
000280 3c 14 e1 39 ff b0 10 b9 34 27 54 3a 29 b8 cf b8
       0.0004293042 -0.00013798846 0.0008093 -9.904832e-05
000290 68 28 b9 b8 0d 06 2d 38 ea a2 14 b9 1b 81 8d b7
       -8.829014e-05 4.125205e-05 -0.0001417507 -1.686863e-05
0002a0 fd ee 0e ba 9e 9a 8c ba f0 3a 14 3a 6d 54 a4 3a
       -0.0005452482 -0.0010727232 0.00056545343 0.0012537368
0002b0 bf 9f b5 b9 31 37 18 ba 09 be 9f 39 37 fe 32 3a
       -0.0003464203 -0.0005806564 0.0003046843 0.0006828042
0002c0 d9 a8 a9 3a 0d d5 c8 3a 16 94 be b9 06 03 fe ba
       0.0012943997 0.0015322283 -0.00036349957 -0.0019379563
0002d0 c8 7f 98 3b b3 a1 33 be 24 5a dc b9 1e 2c 82 3e
       0.0046539046 -0.17542152 -0.0004202883 0.25424284
0002e0 70 f8 f9 3b 07 c3 86 be 7e 17 43 3b f4 c8 c5 3e
       0.007628493 -0.2632067 0.002976864 0.38629878
0002f0 f2 36 d2 3b 39 11 11 be 51 ad d3 bb 94 6c 4d 3e
       0.0064152414 -0.14166726 -0.00645987 0.2006095
000300 3a e8 14 39 1c 82 77 b9 bf 50 05 39 ca f1 9e 39
       0.00014200891 -0.00023604225 0.00012713949 0.00030316255
000310 74 e8 e1 3b 36 34 99 be 5f 58 ad 3b 86 3a e4 3e
       0.0068941657 -0.29922646 0.0052900757 0.445759
000320 08 ec db 3b 8d 6e 31 bd 2c 83 18 bb 46 79 7e 3d
       0.0067114867 -0.04331832 -0.0023271544 0.062127374
000330 5d cc fc 3b 63 08 ad be 0b 9b 1e 3c 70 f9 00 3f
       0.0077147917 -0.3379546 0.00968052 0.5038061
000340 97 f4 97 b4 01 46 95 b6 bd 12 db b5 84 42 b0 36
       -2.8303904e-07 -4.4486956e-06 -1.6322225e-06 5.252952e-06
000350 25 25 4f 3b 0e 84 62 bc 3e 65 04 bb 75 c2 99 3c
       0.0031607833 -0.01382543 -0.0020201947 0.018769482
000360 2c c2 67 3a 90 08 4b 3a 39 75 0e 38 4f 27 84 ba
       0.00088408845 0.00077451114 3.396461e-05 -0.0010082516
000370 52 af 5f 3c 8a 41 90 be 68 68 47 bb 79 a0 d2 3e
       0.013652639 -0.28175002 -0.0030427221 0.41138056
000380 ab 15 c1 3b c4 f7 9e bd a3 82 b4 ba 0c 05 e8 3d
       0.0058924756 -0.07762101 -0.0013771843 0.113290876
000390 fa 24 c5 b8 15 8f d6 38 9f 93 98 b8 15 8d 24 b9
       -9.4005794e-05 0.00010230966 -7.2754214e-05 -0.00015692816
0003a0 d8 37 63 3a 8e 13 37 be 17 c0 60 3b 53 f6 87 3e
       0.0008667684 -0.17878553 0.0034294182 0.26555118
0003b0 8c 57 09 3c 2a a7 9e bc 1f 6a bb bb ef 96 af 3c
       0.008382689 -0.01936682 -0.0057194377 0.021434275
0003c0 88 0c d9 3b ad db 46 be 47 78 8d 3a 8f ec 90 3e
       0.0066238083 -0.19419737 0.0010793292 0.2830548
0003d0 d5 02 5e 3a ff 5a 01 be 1a 52 a8 3a 8d d8 41 3e
       0.000846905 -0.12632369 0.0012841851 0.18930264
0003e0 2a 00 93 bb e6 ed 88 bd 1b 66 13 3c f4 7c dc 3d
       -0.0044861035 -0.066860005 0.008996512 0.107660204
0003f0 5c f0 78 3a 24 02 21 3d 44 cd 3e bb a7 42 76 bd
       0.00094962656 0.039308682 -0.0029114047 -0.06012216

exp_avg_sq f4 [64, 4]
000000 ef 8b db 35 28 87 4a 38 5d 20 b5 37 ed 41 98 39
       1.6357498e-06 4.8286427e-05 2.1591952e-05 0.00029040818
000010 26 c3 c6 35 a3 43 3d 38 19 8b 88 37 5c 6f 2f 39
       1.4808945e-06 4.5124103e-05 1.6277236e-05 0.00016730785
000020 b6 ed 48 35 5b 3b ac 37 3f 1c ac 36 ae 33 e1 38
       7.485172e-07 2.0531637e-05 5.1292877e-06 0.00010738462
000030 fd f5 97 34 51 b7 ee 35 ea 21 69 35 01 aa f1 36
       2.8304922e-07 1.7785734e-06 8.6848615e-07 7.2021508e-06
000040 0e 14 2c 39 a1 4d b6 3c 9e 58 b0 39 86 8d 61 3d
       0.00016410669 0.022253813 0.0003363536 0.055066608
000050 e0 6c 2b 36 9c aa 39 38 ba 4f af 36 e8 26 eb 38
       2.554436e-06 4.426633e-05 5.224688e-06 0.0001121292
000060 c2 e9 c6 38 5a b0 59 3c fa 3a 40 39 1e fe 03 3d
       9.4849165e-05 0.013286674 0.00018332517 0.032224767
000070 fd d3 e5 35 32 2f 10 38 0d be 16 37 f7 68 19 39
       1.7123526e-06 3.437623e-05 8.984946e-06 0.0001463032
000080 fe 51 01 39 44 37 89 3c 54 aa 74 39 11 35 25 3d
       0.00012332943 0.016749986 0.00023333105 0.04033381
000090 b8 89 b7 39 a6 f2 27 3d 6c 45 ec 39 21 ad bb 3d
       0.00035007088 0.041002892 0.0004506515 0.09163881
0000a0 34 5c a9 38 a6 99 2f 3c af 96 15 39 fe d6 d2 3c
       8.075722e-05 0.010717785 0.00014265881 0.025737282
0000b0 30 93 4d 37 ad fd cb 3a c0 8d 6b 37 14 cd f7 3a
       1.2253222e-05 0.0015563272 1.4040095e-05 0.0018905723
0000c0 e4 77 81 3a 5f 84 06 3e 98 16 d8 3a c6 b3 9c 3e
       0.0009877649 0.13136433 0.0016486226 0.30605906
0000d0 e2 07 15 38 bf 74 9b 3b 01 19 57 38 21 63 21 3c
       3.553171e-05 0.004744142 5.128328e-05 0.009850294
0000e0 f0 04 00 35 3e 93 c5 37 4e 1c 86 36 42 9a cf 38
       4.76909e-07 2.3552795e-05 3.9968063e-06 9.899262e-05
0000f0 f7 f9 e3 38 d1 5f 80 3c 51 3f 3a 39 f4 2d 16 3d
       0.00010870763 0.015670689 0.0001776193 0.036664918
000100 3a 0f 1c 35 40 6d 03 37 70 3a bc 36 c1 23 35 38
       5.8136686e-07 7.833645e-06 5.6096396e-06 4.318706e-05
000110 d1 66 ba 39 55 89 4c 3d bd 70 35 3a 00 5a f6 3d
       0.0003555329 0.049935658 0.00069214014 0.12028885
000120 3b 77 c6 38 2d 4e 6d 3c 8e fe 29 39 9a 81 fd 3c
       9.463584e-05 0.014483971 0.00016211925 0.030945588
000130 a5 8d b4 38 b8 31 08 3c e1 1f c0 38 10 98 95 3c
       8.609452e-05 0.008312635 9.161211e-05 0.018260986
000140 ce 89 8b 39 bf a1 16 3d a3 f6 01 3a fd db b3 3d
       0.00026614818 0.036775347 0.0004957711 0.08782194
000150 1c e0 43 36 b9 78 71 37 96 e2 7f 37 a3 be c2 38
       2.9187713e-06 1.4392827e-05 1.5251941e-05 9.28615e-05
000160 26 00 ca 38 aa 8c 37 3c ef c7 1a 39 98 c8 ce 3c
       9.632138e-05 0.0112029705 0.00014761066 0.025242135
000170 c2 17 b0 39 9d d0 32 3d 9c 0b 12 3a 99 d0 d0 3d
       0.00033587037 0.04365598 0.0005571188 0.10196037
000180 b4 2c 07 39 fd 49 63 3c 44 6d 1e 39 0e fa e3 3c
       0.00012891256 0.013872621 0.00015108759 0.027829196
000190 57 44 63 39 0b 24 e9 3c ee 1f c7 39 3f be 89 3d
       0.00021673866 0.02845957 0.00037980027 0.0672574
0001a0 7b cf a1 35 61 03 1c 37 65 1a 01 37 d8 df 98 37
       1.205582e-06 9.299111e-06 7.695145e-06 1.8224047e-05
0001b0 5a cc 98 38 88 9d 1f 3c 56 70 05 39 4d 60 bc 3c
       7.285988e-05 0.009742148 0.00012725717 0.022995139
0001c0 50 05 e0 38 7c 79 90 3c 65 08 68 39 b4 7d 2c 3d
       0.00010682142 0.017636053 0.00022128371 0.042112067
0001d0 c3 95 bc 38 92 12 80 3c 7b 00 6a 39 77 9c 1b 3d
       8.992434e-05 0.015633855 0.00022316158 0.037991013
0001e0 72 21 22 3a 69 0e 95 3d 10 01 7b 3a 73 ca 2f 3e
       0.00061847933 0.07278139 0.00095750485 0.17167072
0001f0 2b dc 2d 35 c5 d0 20 38 16 9b 9f 36 d4 2d 29 39
       6.476791e-07 3.8341404e-05 4.7566236e-06 0.00016134168
000200 68 32 f9 35 56 48 3d 38 24 30 d7 36 54 da 38 39
       1.8566616e-06 4.512848e-05 6.4131036e-06 0.00017628941
000210 5a ac b5 35 f2 bf 98 37 c6 25 6a 37 a8 19 e7 38
       1.3535712e-06 1.8209194e-05 1.3956282e-05 0.00011019717
000220 fa bf 5c 39 05 4e e8 3c be 8e c1 39 45 f2 8a 3d
       0.00021052352 0.028357515 0.0003691818 0.067844905
000230 29 b9 b3 39 b1 3d 3d 3d 8c 1b 1f 3a c8 2f e0 3d
       0.00034279496 0.04620141 0.00060694735 0.109466136
000240 c7 80 a7 38 5e a3 3c 3c 0d c2 81 38 70 d6 a6 3c
       7.987167e-05 0.011513559 6.187344e-05 0.020365924
000250 5f d4 06 39 d4 13 92 3c a0 59 5a 39 91 c0 24 3d
       0.0001285835 0.01783172 0.00020823488 0.040222708
000260 f0 d3 39 34 e3 c6 c5 36 41 2c 56 35 ee 58 b4 37
       1.730657e-07 5.894211e-06 7.978561e-07 2.1499083e-05
000270 4a de c1 37 e9 be 95 3b fc 6a 90 38 18 f6 37 3c
       2.3110904e-05 0.0045698774 6.8863825e-05 0.011228107
000280 6a 10 b1 35 3f 15 14 37 bb 2c e8 36 11 b9 56 38
       1.3192305e-06 8.826434e-06 6.919346e-06 5.1193932e-05
000290 af 8e dc 33 31 b8 86 36 c8 46 b4 34 6f 6e 3f 37
       1.0270502e-07 4.014954e-06 3.3579113e-07 1.14101995e-05
0002a0 d5 8f a5 34 e8 49 71 36 e9 f4 af 35 e7 55 98 37
       3.0838297e-07 3.5954818e-06 1.3109794e-06 1.8159813e-05
0002b0 b9 a6 81 34 52 d5 b4 36 77 48 a9 35 71 17 ba 37
       2.414943e-07 5.389252e-06 1.2612571e-06 2.2183844e-05
0002c0 85 4f a6 35 e1 a7 e5 36 f9 e8 2b 36 d0 bd b5 37
       1.2391107e-06 6.8442755e-06 2.5616594e-06 2.166527e-05
0002d0 e4 3a 01 39 3f 6d aa 3c e1 b6 8b 39 d3 7b 44 3d
       0.00012324337 0.020804046 0.000266484 0.04796965
0002e0 90 e1 27 3a 89 20 a4 3d d5 45 90 3a 4d 39 44 3e
       0.0006404156 0.08014018 0.001100714 0.19162484
0002f0 ac e2 4e 39 b5 f6 cd 3c 3b 02 ae 39 aa 93 75 3d
       0.00019730133 0.025142053 0.00033189528 0.059955277
000300 9e 20 86 35 33 cf 54 37 f0 41 cd 36 66 3a 86 38
       9.993271e-07 1.2684427e-05 6.117152e-06 6.4004955e-05
000310 36 d9 9e 39 d0 ac 29 3d fb f2 03 3a 0d d0 c6 3d
       0.00030297943 0.041424572 0.00050334603 0.09707651
000320 91 ca 2a 39 b5 3f ae 3c d6 8e 8f 39 3a 15 4f 3d
       0.00016287925 0.021270612 0.00027381507 0.050557353
000330 3b 2c 95 39 af 0a 32 3d 28 62 13 3a bc 4e d3 3d
       0.0002845245 0.04346722 0.00056222314 0.10317752
000340 47 4b 60 34 a7 95 fb 36 bd 1a c0 35 d1 3e d6 37
       2.0889011e-07 7.4978047e-06 1.4312897e-06 2.554004e-05
000350 af b7 c1 37 c7 8f 56 3b b7 24 1d 38 8a af f5 3b
       2.3092927e-05 0.0032739507 3.746591e-05 0.0074977325
000360 9e 8e 1a 35 35 8f 21 37 f6 7a 6b 36 a4 89 ba 37
       5.7577006e-07 9.629691e-06 3.5089301e-06 2.2237022e-05
000370 91 7d 00 3a 35 f3 89 3d a6 6b 61 3a 2c 05 21 3e
       0.00049015234 0.06735841 0.000859911 0.15724629
000380 d9 73 7d 38 11 bc 01 3c 11 ad e4 38 f6 21 99 3c
       6.0427792e-05 0.007918374 0.00010904123 0.018692952
000390 f4 a1 0b 35 80 60 dd 36 da b1 fe 35 8a c4 bc 37
       5.201721e-07 6.5975473e-06 1.8976236e-06 2.2502867e-05
0003a0 26 31 ae 38 38 47 3f 3c a1 ff fc 38 6f eb ca 3c
       8.306121e-05 0.011674695 0.00012063911 0.024770467
0003b0 4a 38 96 38 80 6d 34 3c 24 89 27 39 98 e1 db 3c
       7.163042e-05 0.011012435 0.0001597745 0.02684097
0003c0 91 b1 32 39 03 55 e5 3c 2a 87 d7 39 83 e2 8a 3d
       0.00017041551 0.027994638 0.000411087 0.06781485
0003d0 bd 7c 94 37 38 fa 27 3b 4d 06 96 37 4a 7e 72 3b
       1.770106e-05 0.002563132 1.7884327e-05 0.0037001544
0003e0 3a f2 8e 38 49 93 03 3c f9 76 b0 38 e8 97 8e 3c
       6.816206e-05 0.008030721 8.4144944e-05 0.017406419
0003f0 49 d9 b0 37 1c 5c 3a 3b 16 e4 c2 37 d8 4f b5 3b
       2.1082016e-05 0.002843625 2.3232813e-05 0.0055331998

exp_avg f4 [64]
000000 c9 c2 2f bd b0 68 53 bd d5 1c 5b 3d 0d 4d a1 bc
       -0.04291037 -0.05161351 0.053494293 -0.019690061
000010 ee 80 9f be aa 18 0c be dd 9b e9 be f7 5d 8e bd
       -0.31153053 -0.13681284 -0.45626727 -0.06951516
000020 57 0c 8e be 73 a6 3c bf ab 84 b0 be f0 6f 9a bc
       -0.2774379 -0.7369148 -0.34476218 -0.018852204
000030 06 e2 68 bf a5 4d 74 3d 1c 26 fd bb e5 3c 99 be
       -0.90969884 0.05964436 -0.0077254903 -0.2992927
000040 3f 4d 4b 3c b1 6e 40 bf 4e 48 a6 be d5 58 33 bc
       0.012408554 -0.751689 -0.3247704 -0.010946472
000050 c4 b8 00 bf 69 35 b4 bd 85 8d b1 3d 28 b4 0b bf
       -0.5028193 -0.0879925 0.08669571 -0.5457177
000060 08 42 1f 3e c2 55 f5 be bd f4 b1 bc 7c 11 71 be
       0.15552533 -0.4791699 -0.021723146 -0.23541826
000070 cc 37 f1 be cd 0e e0 be ce 78 09 bf b1 bc 4c 37
       -0.47112882 -0.43761292 -0.5369996 1.2203281e-05
000080 5a 74 aa bd b8 14 82 bc 9b 75 09 bf 9a 13 27 bf
       -0.083229735 -0.01587902 -0.53695077 -0.65264285
000090 6a f0 49 be ca 53 9c be f2 27 52 bc cc b7 3c be
       -0.19720617 -0.30532676 -0.0128269065 -0.18429488
0000a0 7f 75 c6 bc 27 cc 43 3b 97 9b f7 3c 5d 41 88 3c
       -0.024225948 0.0029876323 0.030225558 0.01663273
0000b0 b7 71 7b bd a3 22 cf be 6b 03 50 bf fc 7a d9 be
       -0.061387744 -0.40456113 -0.81255215 -0.42476642
0000c0 7c 2a e2 3b e7 78 26 bf a3 34 79 be fd 63 4b bf
       0.006902037 -0.6502823 -0.24336486 -0.79449445
0000d0 81 f3 ba 38 c7 3d 90 bd 16 85 16 bd bd ca 53 bf
       8.914527e-05 -0.07043033 -0.036748014 -0.8273123
0000e0 5d 59 92 be 22 e0 81 bb 74 55 9a be d7 b2 79 be
       -0.28583804 -0.0039634863 -0.3014332 -0.24384628
0000f0 c6 eb 0a bf a1 25 77 be 13 30 46 bd 20 79 34 3d
       -0.5426601 -0.24135448 -0.04838569 0.044060826

exp_avg_sq f4 [64]
000000 74 44 82 3b ef a7 2b 3b 34 cc ce 3a ad b9 c0 39
       0.0039754454 0.0026192626 0.001577741 0.00036759433
000010 69 48 b0 3c 68 66 90 3b 61 cb 79 3c ba d8 59 3b
       0.021518903 0.004406739 0.015246243 0.0033240751
000020 44 41 8a 3c da 15 38 3d 95 2c 2f 3c 1f 54 1e 3b
       0.016876824 0.044942714 0.0106917815 0.0024159027
000030 85 a7 0d 3e eb e3 d8 3b 02 1d 56 3a 84 9d 6f 3c
       0.13833435 0.006618967 0.00081677746 0.014624957
000040 8c 04 8b 3a 9d e4 62 3d e0 85 94 3c d1 d5 b8 3b
       0.0010606213 0.055393804 0.018130243 0.0056407233
000050 73 1d 2c 3d 31 2a a0 3b ae a6 21 3c 9e 04 43 3d
       0.042020272 0.004887842 0.0098664 0.047611825
000060 da 38 67 3c 96 1e e5 3c 06 50 00 3b 8a bf 39 3c
       0.014112676 0.027968686 0.0019578948 0.01133717
000070 0f 2e 01 3d 43 11 b9 3c 4f 11 9e 3d 09 5d 82 3a
       0.031538066 0.022591239 0.07718145 0.000994594
000080 6f f2 81 3b 80 84 32 3b 22 9e 09 3d 37 84 59 3d
       0.003965668 0.002723962 0.033598073 0.053104606
000090 97 c2 48 3c 9e f9 8d 3c 77 f4 93 39 3e ab bb 3b
       0.012253425 0.01733094 0.00028220165 0.005727201
0000a0 da a8 16 3b 40 91 eb 38 c8 e5 18 3a e6 fd d6 39
       0.0022988827 0.00011232728 0.000583258 0.0004100643
0000b0 2a 2f 15 3b 51 1c b3 3c ff b4 bb 3d d0 bb d5 3c
       0.0022763708 0.021864088 0.09165382 0.026090533
0000c0 7e ba 24 3b ad 50 22 3d 62 b8 ac 3c 2f ec 71 3d
       0.0025135572 0.03962772 0.021084014 0.059063133
0000d0 2b b6 c6 39 df 09 67 3b 92 e4 60 3a 44 2d 9d 3d
       0.0003790123 0.0035253686 0.00085789815 0.07674649
0000e0 a7 e8 49 3c 00 90 67 3a d7 5b 72 3c e1 0d 73 3c
       0.012323535 0.00088334084 0.014792404 0.014834852
0000f0 06 59 19 3d 43 66 c4 3b 12 08 be 3b 1f cc 3d 3b
       0.037438415 0.005993636 0.005799302 0.0028960777

exp_avg f4 [64, 64]
000000 0b d4 03 bb 9c 3a 37 bb a5 1d 7f b9 f9 0e c2 ba
       -0.00201154 -0.0027958518 -0.00024329739 -0.0014805488
000010 3a 7a 26 bd 4d 41 e6 ba 47 80 3e bd 2a 02 5d bb
       -0.040643908 -0.0017567069 -0.046509054 -0.0033723214
000020 61 25 43 bd c5 7b 0b be 8a e7 87 bd ce fc d1 b9
       -0.04764307 -0.13621433 -0.066359594 -0.0004005194
000030 27 2e cd bd 21 b8 1e bd 7c 84 d5 ba 32 57 d6 bc
       -0.100185685 -0.038749818 -0.0016290094 -0.026164625
000040 c7 9f 96 ba cc 76 2b be ac 2c 2e bd 38 9c 93 bb
       -0.0011491709 -0.16744536 -0.04252307 -0.0045047067
000050 37 32 1b be 29 41 10 bb a8 ab 16 bb 94 88 20 be
       -0.15155874 -0.0022011495 -0.0022990499 -0.156771
000060 d2 8f 89 bd 78 13 3a bd ca cd 10 bb f8 15 16 bd
       -0.06716885 -0.045428723 -0.0022095316 -0.036642045
000070 76 0b 54 bd e3 53 e4 bd 03 a5 75 bc a8 03 7c b4
       -0.051768743 -0.111488126 -0.014992955 -2.3470659e-07
000080 d4 19 03 bb ea 72 cf b9 3b f8 21 be 1a 81 97 bd
       -0.0020004408 -0.00039567734 -0.15817349 -0.07397671
000090 fc d4 a6 bc 1a 78 c7 bd df 9c 66 ba b2 aa 8e bd
       -0.02036523 -0.097397044 -0.00087971793 -0.06966151
0000a0 4a 1c 07 ba 69 90 8e b9 ee c5 83 ba 82 8c b5 b8
       -0.00051540567 -0.00027191945 -0.0010053494 -8.656924e-05
0000b0 a2 18 f5 ba 9f 8d 05 be b9 ff 82 bd 8d db 06 bd
       -0.0018699358 -0.13042305 -0.063964315 -0.032924224
0000c0 f8 3b b1 b7 a7 25 e3 bd 16 8f f8 bd 55 e8 0b be
       -2.112797e-05 -0.11091166 -0.121366665 -0.13662846
0000d0 64 83 15 b6 eb 27 0a be 82 2b b1 ba 8c f1 92 bd
       -2.227921e-06 -0.1349179 -0.0013516995 -0.07174978
0000e0 d0 84 a5 bd 04 be 92 b9 1c 5d fc bc 2f 7f fc bc
       -0.080819726 -0.00027988863 -0.030806117 -0.030822365
0000f0 db bc 6e bd a2 c1 c7 bb 16 96 ac 3a 7a 35 31 3a
       -0.058285575 -0.006096081 0.0013167288 0.0006759983
000100 73 a8 1b bb 69 47 58 bb 2b 68 96 b9 12 41 e5 ba
       -0.0023751527 -0.0033001548 -0.0002868784 -0.0017490706
000110 c7 71 fc bc 4d ff 20 bb 1a ee 0b bd 7a 6a 82 bb
       -0.030815972 -0.0024566234 -0.03416262 -0.003979978
000120 e6 4b 60 bd 4c 76 e7 bd 29 3d 24 bd ca 53 f9 b9
       -0.054759882 -0.1130186 -0.04009739 -0.0004755541
000130 68 c2 85 bd 03 68 9e bc 8e 3b fc ba 4e 8f bd bc
       -0.06531221 -0.019336706 -0.0019243823 -0.023139622
000140 4f ce b1 ba 2e 0e fd bd 84 8e f2 bc d7 38 d5 b9
       -0.0013565513 -0.1235622 -0.029608972 -0.00040668875
000150 9f fd d7 bd 42 53 2a bb d8 e3 39 ba 21 e4 e0 bd
       -0.10546421 -0.0025989567 -0.00070911413 -0.10981012
000160 ae fc 1c bd ec 00 0d bd 6f e6 2a bb d9 e4 d9 bc
       -0.03832691 -0.034424707 -0.002607729 -0.02659838
000170 ee 9a 2a bd f7 d9 a4 bd 10 8a 92 bc a9 49 28 b4
       -0.04165166 -0.08049386 -0.017888099 -1.5673017e-07
000180 8f d7 1a bb 80 ac f5 b9 61 6f ce bd 0c 0c 86 bd
       -0.0023627018 -0.00046858564 -0.100798376 -0.065452665
000190 04 c1 48 bc 95 18 66 bd 5e 1e 88 ba 4d e7 42 bd
       -0.01225305 -0.056175787 -0.0010385027 -0.047583867
0001a0 89 7e 1f ba cc b6 a8 b9 91 67 9b ba ad 96 d6 b8
       -0.0006084224 -0.0003217965 -0.0011856427 -0.00010232381
0001b0 7d bf 10 bb f5 8d aa bd e6 3d 38 bd 77 92 f5 bc
       -0.0022086792 -0.083278574 -0.044980906 -0.029977066
0001c0 d8 02 c4 b7 cf d9 a0 bd e4 27 78 bd ec b0 b7 bd
       -2.3366345e-05 -0.07854044 -0.060584918 -0.08969292
0001d0 67 07 d9 b5 07 84 a6 bd db 44 d1 ba 9f c7 64 bd
       -1.6169914e-06 -0.08130651 -0.0015965955 -0.055854436
0001e0 6b 7a 64 bd ba ce ac b9 b1 49 b1 bc 71 6f 8c bc
       -0.05578081 -0.0003296042 -0.021641584 -0.017142983
0001f0 fa b5 2c bd 81 8c 0b bc b7 2f cc 3a ab 27 db 3b
       -0.042165734 -0.008517385 0.0015578185 0.0066880784
000200 00 00 00 00 00 00 00 00 00 00 00 00 00 00 00 00
       0.0 0.0 0.0 0.0
000210 00 00 00 00 00 00 00 00 00 00 00 00 00 00 00 00
       0.0 0.0 0.0 0.0
000220 00 00 00 00 00 00 00 00 00 00 00 00 00 00 00 00
       0.0 0.0 0.0 0.0
000230 00 00 00 00 00 00 00 00 00 00 00 00 00 00 00 00
       0.0 0.0 0.0 0.0
000240 00 00 00 00 00 00 00 00 00 00 00 00 00 00 00 00
       0.0 0.0 0.0 0.0
000250 00 00 00 00 00 00 00 00 00 00 00 00 00 00 00 00
       0.0 0.0 0.0 0.0
000260 00 00 00 00 00 00 00 00 00 00 00 00 00 00 00 00
       0.0 0.0 0.0 0.0
000270 00 00 00 00 00 00 00 00 00 00 00 00 00 00 00 00
       0.0 0.0 0.0 0.0
000280 00 00 00 00 00 00 00 00 00 00 00 00 00 00 00 00
       0.0 0.0 0.0 0.0
000290 00 00 00 00 00 00 00 00 00 00 00 00 00 00 00 00
       0.0 0.0 0.0 0.0
0002a0 00 00 00 00 00 00 00 00 00 00 00 00 00 00 00 00
       0.0 0.0 0.0 0.0
0002b0 00 00 00 00 00 00 00 00 00 00 00 00 00 00 00 00
       0.0 0.0 0.0 0.0
0002c0 00 00 00 00 00 00 00 00 00 00 00 00 00 00 00 00
       0.0 0.0 0.0 0.0
0002d0 00 00 00 00 00 00 00 00 00 00 00 00 00 00 00 00
       0.0 0.0 0.0 0.0
0002e0 00 00 00 00 00 00 00 00 00 00 00 00 00 00 00 00
       0.0 0.0 0.0 0.0
0002f0 00 00 00 00 00 00 00 00 00 00 00 00 00 00 00 00
       0.0 0.0 0.0 0.0
000300 2c d2 9a ba fe 31 d7 ba ca aa 15 b9 23 3f 64 ba
       -0.0011811904 -0.0016418097 -0.00014273371 -0.0008706918
000310 bf 68 78 bb 1a 4d a0 ba a4 cb 5c bb c2 cc 01 bb
       -0.003790423 -0.0012230009 -0.0033690715 -0.0019805883
000320 cf df 49 bc ea 28 ce bc 16 73 55 3b 2b db 77 b9
       -0.0123214265 -0.025165994 0.0032569817 -0.00023637402
000330 27 23 c7 3a 71 ae c3 3b 67 0c 7b ba 85 ad ac bb
       0.0015192971 0.005971723 -0.0009576738 -0.0052697086
000340 ea ce 30 ba a0 1b 6f bc 13 68 89 ba 60 cd 79 3b
       -0.00067447 -0.014593989 -0.0010483287 0.0038116798
000350 ef a7 c1 bb 82 97 a9 ba 4b 61 b0 3a 80 41 e2 bb
       -0.005909912 -0.001293883 0.001345673 -0.006904781
000360 21 10 92 3b ea ff 82 bb 1c dc a9 ba 10 3f 2c bb
       0.004457489 -0.0039977925 -0.0012959274 -0.0026282705
000370 58 49 42 bc 61 59 8a 3c 9c 24 85 bb 00 00 00 00
       -0.011858307 0.016888322 -0.004063202 0.0
000380 a1 2b 9a ba 07 99 71 b9 a5 75 5e 3b 12 3f 85 bc
       -0.001176227 -0.00023040558 0.0033944633 -0.016265426
000390 ef d9 af ba ab 8a a5 ba 30 6a 07 ba f0 15 e2 ba
       -0.001341639 -0.0012629827 -0.00051656645 -0.001724897
0003a0 d4 2c 9d b9 32 c0 27 b9 87 60 1a ba 2a 8e 52 b8
       -0.00029978773 -0.0001599796 -0.00058890175 -5.0200302e-05
0003b0 fd 15 90 ba 05 a2 95 3b 50 dc 1e bb 29 4b 7f bb
       -0.0010992881 0.0045664334 -0.0024240203 -0.003895471
0003c0 e4 a1 2d b7 f3 ea cd bb 51 7b b3 3c af fc 9e bb
       -1.0349297e-05 -0.0062841116 0.021909388 -0.0048518996
0003d0 ff c7 95 b3 85 ff e4 3b 07 57 50 ba 11 4a 07 bc
       -6.974732e-08 0.006988468 -0.00079475384 -0.008257405
0003e0 42 34 93 bc 04 12 29 b9 74 fb 58 ba 0f 6b 63 3a
       -0.017969254 -0.00016123807 -0.00082772155 0.0008675316
0003f0 4d 06 4b bb b4 b9 83 bb 52 6a 4e 3a 48 f0 dd 3b
       -0.0030979097 -0.0040199403 0.00078741193 0.0067730285
